results/Run-d28/TrucksBehavior/TrucksBehavior-499969.onnx (onnx, 596830 bytes, 15 tensors)

86 f4 [45]
0	0x43339f5c	179.6225
1	0x3d4a838e	0.049441867
2	0x434be4fd	203.89449
3	0x4337a872	183.65799
4	0x3d496162	0.049165137
5	0x434a5113	202.3167
6	0x433812d0	184.07349
7	0x3d462bbb	0.04838155
8	0x4347e82c	199.90692
9	0x3ab95e8f	0.001414256
10	0x3ea89d6c	0.32932603
11	0x3f3082cc	0.6894958
12	0x3f46a1d1	0.7759066
13	0x3ed24f88	0.41076303
14	0x3e722393	0.23646383
15	0x3ea89d6c	0.32932603
16	0x3ab95e8f	0.001414256
17	0x3f253a6c	0.6454227
18	0x3f1c736b	0.61113614
19	0x3f3ae3ce	0.7300385
20	0x3ec20237	0.37892315
21	0x3f3082cc	0.6894958
22	0x3f253a6c	0.6454227
23	0x3ab95e8f	0.001414256
24	0x3e872d0b	0.26401553
25	0x3f518522	0.8184377
26	0x3eed5696	0.46355122
27	0x3f46a1d1	0.7759066
28	0x3f1c736b	0.61113614
29	0x3e872d0b	0.26401553
30	0x3ab95e8f	0.001414256
31	0x3f80c509	1.006013
32	0x3f17efe1	0.593504
33	0x3ed24f45	0.41076103
34	0x3f3ae3ce	0.7300385
35	0x3f518522	0.8184377
36	0x3f80c50c	1.0060134
37	0x3ab95e8f	0.001414256
38	0x3edd106b	0.43176588
39	0x3e7223b3	0.2364643
40	0x3ec20236	0.37892312
41	0x3eed5696	0.46355122
42	0x3f17efe1	0.593504
43	0x3edd106b	0.43176588
44	0x3ab95e8f	0.001414256

action_model._discrete_distribution.branches.0.bias f4 [6]
0	0x3f30d060	0.69067955
1	0x3ec92872	0.3928867
2	0x3eaf1081	0.3419228
3	0x3c057869	0.008146384
4	0xbeab47fb	-0.33453354
5	0xc0067e26	-2.1014495

action_model._discrete_distribution.branches.0.weight f4 [6, 256]
0	0xbc81da07	-0.015851034
1	0x3bc98fe0	0.0061511844
2	0x3bc9dc4a	0.0061602937
3	0x3af2c6cc	0.0018522381
4	0x3b8dfb2d	0.004332921
5	0x3bc6230e	0.0060466593
6	0xbcc160fd	-0.023605818
7	0x3c44e9d1	0.012018637
8	0xbca639b1	-0.020291181
9	0x3ca7e3b7	0.020494325
10	0xbbdf8106	-0.0068208007
11	0xbc2700fd	-0.010193107
12	0xbc894ef2	-0.016761277
13	0xbc35d54a	-0.011098215
14	0xbcbe26f7	-0.02321194
15	0x3c4c7b01	0.012480498
16	0xbca12c92	-0.019674573
17	0x3ac02d74	0.0014661984
18	0x3c92f350	0.017938286
19	0xbc35fcc5	-0.011107628
20	0x3db6c3cb	0.08924063
21	0xbb4e8456	-0.0031511984
22	0x3d093e5b	0.033506732
23	0x3a0bc8fc	0.0005332378
24	0xbc5bd68f	-0.013417854
25	0x3b59741a	0.0033180774
26	0xbc900683	-0.01758123
27	0x3aa8ab16	0.001286837
28	0x3c90b186	0.017662775
29	0x3c321c11	0.010870949
30	0x3cd364aa	0.025804836
31	0x3b7c6606	0.003851296
32	0xbc8ef380	-0.017450094
33	0x3cf7d579	0.030253159
34	0xbcc5bbd4	-0.024137415
35	0x3a244672	0.00062666007
36	0x3c4968a5	0.012293016
37	0x3c4750ab	0.012165229
38	0xbbce092f	-0.006287716
39	0xbcb880c1	-0.022522332
40	0xbcaa73f9	-0.020807253
41	0xb87a9170	-5.9740094e-05
42	0x3c3fc815	0.011705418
43	0x3c0d7fc2	0.008636417
44	0xbd0d9d83	-0.034574043
45	0x3b9eaf9b	0.004842711
46	0x3bf76d6c	0.007550886
47	0xbbec0202	-0.007202388
48	0x3c6ce572	0.014459001
49	0x3cf56a2f	0.029957859
50	0x3bbe7550	0.0058123246
51	0x3c49cd75	0.012317051
52	0x3cbc4f5a	0.022987057
53	0x3c658e58	0.014010988
54	0xbc17a427	-0.009255446
55	0x3c0c4901	0.008562327
56	0xbc4a9581	-0.012364746
57	0xbcffb1cf	-0.031212715
58	0xbb551348	-0.0032512713
59	0xbc5c35a3	-0.013440522
60	0x3c904cdd	0.017614776
61	0xbb9ff637	-0.004881646
62	0xbd05a406	-0.032627128
63	0xbb4d5e3a	-0.003133668
64	0x3beae009	0.0071678204
65	0x3ad35855	0.0016124347
66	0xbc24f406	-0.010067945
67	0xbc9170bf	-0.017753957
68	0xbc9e9a4d	-0.019360686
69	0x3b6398ac	0.003472845
70	0xbc8ac336	-0.016938787
71	0x3bc4ee48	0.0060098507
72	0x3cd0f51b	0.0255075
73	0xbc91f1aa	-0.01781543
74	0x3cbf71d2	0.023369703
75	0xbc95806d	-0.018249715
76	0xbcdcadb8	-0.026938304
77	0xbd00c515	-0.031437952
78	0xbb4aefa6	-0.0030965596
79	0x3c8f6319	0.017503308
80	0xb88e6f58	-6.791827e-05
81	0xbb0defc4	-0.0021657804
82	0x3b3f1232	0.0029155132
83	0x3b16a95f	0.0022989137
84	0xbd01e5ed	-0.031713415
85	0x3bbaaee4	0.005697118
86	0xbca2df0a	-0.019881744
87	0x3ca1730c	0.019708179
88	0xbc485b9f	-0.012228875
89	0xbb8fd58d	-0.004389471
90	0xbc592837	-0.013254217
91	0x3c89c30a	0.016816635
92	0xbc3b545f	-0.01143369
93	0x3a88d77b	0.0010440195
94	0x3c149f48	0.009071179
95	0xbc349655	-0.01102217
96	0xbd15d104	-0.036576286
97	0x3818a890	3.639661e-05
98	0x3c365e32	0.011130856
99	0x3cac6e7a	0.021048773
100	0xbcdc3812	-0.026882205
101	0xbca41d0b	-0.02003338
102	0x3be500a9	0.006988604
103	0x3af63be5	0.001878616
104	0x3ceb427d	0.028718228
105	0x3e326030	0.17419505
106	0x3c926bd0	0.017873675
107	0xbe7ad744	-0.2449618
108	0x3c4db2da	0.012554849
109	0x3b134246	0.0022469922
110	0x3ccd6c55	0.02507607
111	0xbb997a87	-0.004683796
112	0xbc1d1623	-0.009587797
113	0xbbdc825a	-0.0067294063
114	0xbb07e224	-0.0020734156
115	0xbc135d5b	-0.008994426
116	0xbd1953b1	-0.03743333
117	0x3c40053c	0.011719998
118	0xbbf33efa	-0.007423279
119	0x3cff0f11	0.031135114
120	0xbbbe85a1	-0.0058142697
121	0xbc9e8815	-0.019351998
122	0xbcd78b60	-0.026311576
123	0xbc952daa	-0.01821025
124	0xbc43b895	-0.011945863
125	0xbd290ff1	-0.04127497
126	0xbcc2756a	-0.023737628
127	0xbcee54c9	-0.029093163
128	0xbc19dfb1	-0.009391711
129	0x3bcda84d	0.0062761665
130	0x3b64449c	0.0034830933
131	0xbcf883a5	-0.03033621
132	0x3c7c4769	0.015397885
133	0x3b972fca	0.004613851
134	0xbd9db454	-0.077004105
135	0x3c8e97a6	0.017406296
136	0xb98e3b89	-0.00027128708
137	0xbbfd2138	-0.0077249072
138	0xbcfcf8d3	-0.030880367
139	0xbc97afd7	-0.018516464
140	0x3cad7928	0.021175936
141	0x3c90bc5d	0.017667944
142	0x3ce9b11c	0.028526835
143	0xbc786511	-0.015160815
144	0xbcb836a5	-0.022486994
145	0xbb0155b9	-0.0019734933
146	0xbc8ce4f7	-0.017199023
147	0x3b3935b5	0.0028260772
148	0xbb58a175	-0.003305522
149	0x3c6238ff	0.013807534
150	0xbb5c9c5e	-0.0033662538
151	0x3c8b2060	0.016983211
152	0xbc780fb8	-0.015140466
153	0xbc8c9939	-0.017162906
154	0xbbeb4d9e	-0.0071808835
155	0x3b387f6a	0.0028152117
156	0x3baba929	0.0052386713
157	0x3b82ead2	0.003995278
158	0xbc900862	-0.017582122
159	0x3c3da29a	0.011574412
160	0x3bdf2579	0.006809887
161	0xbbd10374	-0.0063785855
162	0xbba445dc	-0.0050132107
163	0xbd091681	-0.033468727
164	0xbcb8ca9a	-0.022557545
165	0xbc8fbd79	-0.017546402
166	0x3ab00b19	0.0013431042
167	0x3cb060b2	0.021530483
168	0x3c9261ba	0.017868865
169	0x3b3d2f8b	0.002886745
170	0x3c974465	0.01846523
171	0xbc2eb1cd	-0.010662508
172	0xbb754338	-0.0037424099
173	0xbbb46bbe	-0.005506008
174	0xbc504ea6	-0.012714064
175	0x3cd7a630	0.026324362
176	0xbbafda84	-0.0053666253
177	0x3c3d3a77	0.011549584
178	0x3c4dba26	0.012556588
179	0x3ca475e0	0.020075738
180	0x3c03d632	0.008046674
181	0x3c8f3679	0.01748203
182	0x3cd7ccab	0.02634271
183	0xbe8fa249	-0.280535
184	0xbcc90902	-0.024540428
185	0xbd5c636e	-0.05380576
186	0xba7537fe	-0.0009354352
187	0xbd2fffd5	-0.04296859
188	0x3c84fb7c	0.016233198
189	0xbb02a0bd	-0.0019932233
190	0x3c50bf61	0.012740941
191	0xbc3c4dfe	-0.011493204
192	0x3c21896c	0.009859424
193	0xbc3a87cf	-0.011384918
194	0x3cf8616b	0.03031989
195	0xbba70952	-0.0050975466
196	0x3baf7685	0.005354705
197	0xbbdc4db6	-0.006723131
198	0xbb839468	-0.004015494
199	0x3bde3fa5	0.0067824894
200	0xbc7c0a52	-0.01538332
201	0x3cc83f01	0.024444105
202	0x3b092687	0.0020927505
203	0xbb09fe04	-0.0021055946
204	0xb988aa74	-0.0002606694
205	0xbc6136dc	-0.01374599
206	0x3cbeae5d	0.023276502
207	0x3bcc6c2f	0.0062384824
208	0x3bdbc744	0.006707104
209	0xbd3216ad	-0.043478657
210	0xbc8682f0	-0.016419858
211	0x3cb2b95c	0.021816902
212	0x3c605adf	0.01369354
213	0xbc977001	-0.018486025
214	0x3b60b40c	0.0034287004
215	0x3cb6d816	0.022319835
216	0xbbf7991e	-0.007556095
217	0x3ac5f114	0.0015101754
218	0x3c1c7804	0.009550098
219	0xbc13641e	-0.008996038
220	0x3c302ed4	0.010753352
221	0xbc876d90	-0.016531736
222	0xbce28541	-0.027651431
223	0x3c8c09a5	0.017094443
224	0x3cd2304f	0.025657801
225	0x3c4956e9	0.012288787
226	0x3c3f7bd1	0.011687235
227	0xbd9d9678	-0.07694715
228	0xbca7df0d	-0.020492101
229	0x3c76869b	0.015046741
230	0x3c98067d	0.018557781
231	0xbc999b4c	-0.01875081
232	0xbcc78e8a	-0.02435996
233	0xbb248814	-0.0025105523
234	0x3cbc4f59	0.022987055
235	0xbbe7d3c9	-0.0070748073
236	0xbb3a1193	-0.0028391823
237	0x3cbcfd99	0.023070144
238	0xbc677db6	-0.014129093
239	0x3cb96696	0.022631925
240	0x3bfbc0e4	0.0076829065
241	0xbc40b47c	-0.011761781
242	0xbc9edc4f	-0.01939216
243	0xbcebe7dd	-0.028797084
244	0xbb95f864	-0.0045767296
245	0xbaada6b4	-0.0013248534
246	0xbc40c5e9	-0.011765935
247	0x3cf042c0	0.029328704
248	0xbd0dd175	-0.034623582
249	0x3c630ae8	0.013857581
250	0xbc08e14c	-0.008354496
251	0x3b85571d	0.0040692226
252	0xbc36e061	-0.011161895
253	0xb8da9e00	-0.0001042448
254	0x3c2cde97	0.010551116
255	0xbc3a09ec	-0.011354905

action_model._discrete_distribution.branches.1.bias f4 [6]
0	0x3f18dce1	0.59712034
1	0x3eb38d93	0.3506895
2	0x3de74046	0.11291556
3	0x3e29239c	0.1651749
4	0xbce65b90	-0.028119832
5	0xc00a3bdb	-2.1599033

action_model._discrete_distribution.branches.1.weight f4 [6, 256]
0	0xbbcfe15e	-0.0063440045
1	0x3cfe2186	0.031021845
2	0x3b3fa56f	0.0029242893
3	0x3d5489ac	0.051889107
4	0x3bd3d932	0.0064651007
5	0x3bb981b8	0.0056612156
6	0x3bbcd62d	0.0057628364
7	0x3d20d9ca	0.0392702
8	0x3b157a22	0.0022808393
9	0xbc9a7086	-0.018852483
10	0xbcb5efd8	-0.022209093
11	0x3c48284f	0.012216642
12	0x3ca31036	0.01990519
13	0x3d38f221	0.045152787
14	0x3c9940b7	0.018707616
15	0x3c2545c1	0.010087431
16	0xbc5f8043	-0.01364142
17	0x3c908da0	0.017645657
18	0x3bc3ced5	0.005975584
19	0xbb466cc5	-0.0030277234
20	0x3e44baec	0.1921193
21	0x3a4d9626	0.0007842503
22	0xbba5b802	-0.005057336
23	0xbc1d1233	-0.009586859
24	0xb97e773e	-0.00024267749
25	0x3c983a17	0.018582387
26	0x3cceab12	0.025228057
27	0x3d253286	0.040331386
28	0xbab04400	-0.0013448
29	0xbb01f022	-0.0019826968
30	0xbc0e3f64	-0.008682106
31	0xbc26b5ec	-0.0101752095
32	0xbc152913	-0.009104031
33	0x3b393377	0.0028259435
34	0x3a7f5804	0.00097405934
35	0x3c160ce2	0.009158345
36	0x3bc4b13d	0.0060025738
37	0x3c001855	0.007818301
38	0x3b8d6781	0.004315317
39	0xbc27d2e5	-0.010243152
40	0xbbc000bb	-0.005859462
41	0x3d57a62b	0.052648704
42	0xbc44b8ad	-0.012006921
43	0x3aa88709	0.0012857626
44	0x3c0752e1	0.008259506
45	0x3a5a6bd8	0.000833211
46	0xbcdb2b79	-0.026754128
47	0xbbf8ad33	-0.0075890063
48	0x3d2892ea	0.041155733
49	0xbc826147	-0.015915526
50	0x39bd7d34	0.00036142173
51	0xbcd7cd6b	-0.026343068
52	0x3c996861	0.01872653
53	0x3d194065	0.037414927
54	0x3aeea89b	0.0018208207
55	0xbc6c2323	-0.014412674
56	0xbace42e9	-0.0015736494
57	0x3c48c51b	0.012254025
58	0x3c5eb37e	0.013592599
59	0xbba6f78b	-0.0050954274
60	0xbc22434c	-0.00990374
61	0xbcd7d51e	-0.02634674
62	0x3c6c62b6	0.014427831
63	0xbc0c7d85	-0.008574848
64	0xb8fcf88d	-0.000120625926
65	0xbcc51eb7	-0.024062498
66	0xbce482c4	-0.027894385
67	0xbc9510d7	-0.018196506
68	0x3c6c12f2	0.014408814
69	0xbca4fa6f	-0.020138947
70	0x3b366315	0.0027830054
71	0xbc4e21fa	-0.012581343
72	0xbc811e6e	-0.01576158
73	0x3ccd8a91	0.025090488
74	0x3d4efc48	0.050533563
75	0x3c96f5e5	0.018427799
76	0x3b7e4022	0.003879555
77	0xbcf168ef	-0.029468982
78	0x3c6990c7	0.014255709
79	0x3c5f0bf0	0.013613686
80	0x3c8758bb	0.016521802
81	0x3c8ff107	0.017570985
82	0xbba1b25b	-0.0049345917
83	0xbc2044eb	-0.009782056
84	0x3b39057e	0.0028232033
85	0xbc0a67a6	-0.008447563
86	0xbb7ea9ec	-0.0038858606
87	0x3b0d374b	0.002154785
88	0x3ca67864	0.020321079
89	0x3c3b0ffa	0.011417383
90	0xbccc5ec1	-0.024947526
91	0xbc8a17c9	-0.016857045
92	0x3990374c	0.0002750702
93	0x3b87e7fd	0.004147528
94	0x3d17d20d	0.037065554
95	0xbae88aab	-0.0017741522
96	0xb8558980	-5.0911214e-05
97	0x3d1e00eb	0.038575094
98	0xbc4a8dbd	-0.012362895
99	0x3c81f982	0.015866045
100	0xbc309368	-0.010777332
101	0x3c30d559	0.010793054
102	0xbc2de4fa	-0.010613674
103	0x3d31c87e	0.043404095
104	0x3c810413	0.015749013
105	0x3d1ecadc	0.03876768
106	0xbc6e7d88	-0.014556296
107	0xbeb4d3fd	-0.35317984
108	0x3b2cb420	0.002635248
109	0x3b0d67b5	0.0021576707
110	0xbc89b8fa	-0.016811837
111	0xbca24804	-0.01980973
112	0xbc6da20c	-0.014503967
113	0x3c8dee72	0.017325614
114	0xbb8c0342	-0.0042728493
115	0xbcac48e0	-0.021030843
116	0xbca05642	-0.01957238
117	0x3c34a786	0.011026269
118	0x3bf0b61d	0.0073459283
119	0x3ba249b0	0.004952632
120	0x3b819944	0.0039550383
121	0x3c1e5349	0.009663411
122	0x3a3b07aa	0.0007134626
123	0x3ce92965	0.028462121
124	0x3c65c2e8	0.01402352
125	0x3cebdd5a	0.028792072
126	0xbc1d1adc	-0.009588923
127	0x3c455d30	0.012046143
128	0xbc897e6c	-0.016783915
129	0x3c65b21b	0.014019514
130	0x3bac7711	0.0052632173
131	0x3c8e8319	0.017396497
132	0xbc987634	-0.018611051
133	0xbc2ef634	-0.010678817
134	0xbe99c099	-0.30029753
135	0x3c671cab	0.014105956
136	0xbc528175	-0.012848248
137	0x3b9eb02e	0.0048427796
138	0x3cbe8fba	0.023261894
139	0xbbe60665	-0.0070198053
140	0x3b9ec112	0.004844793
141	0x3b3f587e	0.0029197033
142	0xbb973284	-0.004614176
143	0xbb3d7a06	-0.0028911843
144	0x3b5046a0	0.0031780377
145	0x3c85dd57	0.016340895
146	0x3a55e5a4	0.00081595243
147	0x3c09e861	0.00841722
148	0x3c366c0a	0.011134157
149	0x3c80a89f	0.015705405
150	0xbca46849	-0.020069258
151	0xbc1db58b	-0.009625803
152	0x3be2e08d	0.006923741
153	0xbbabf069	-0.005247165
154	0x3cdd8e5b	0.02704542
155	0xbbdeceb8	-0.006799545
156	0xbc8e9499	-0.017404841
157	0xbc2432d4	-0.010021884
158	0xbc9550e8	-0.018227056
159	0x3bc3e753	0.0059785037
160	0x395fbc4c	0.00021337083
161	0xbc86c2a1	-0.016450228
162	0x3ca182e6	0.019715738
163	0xbcc41855	-0.023937384
164	0xbcc9269d	-0.024554545
165	0x3bc57de4	0.00602697
166	0x3cbaf38a	0.022821207
167	0x3b8aa738	0.00423136
168	0x3bc4777b	0.0059956885
169	0x3aefc00a	0.0018291485
170	0x3cecedb9	0.028921949
171	0xbbbd05b0	-0.0057685003
172	0x39df33e4	0.00042572536
173	0x3cb56940	0.022144914
174	0x3c3291b5	0.010898997
175	0xbc6784dd	-0.014130798
176	0xba69a930	-0.00089134555
177	0x3c58f0bd	0.01324099
178	0xbb92a8f5	-0.0044757077
179	0xbbb2b150	-0.005453266
180	0x3c644314	0.013932008
181	0x3c613e32	0.013747739
182	0xbcda3533	-0.026636695
183	0xbda3b7cf	-0.07994043
184	0xbb891ce5	-0.0041843527
185	0xbe37d3e9	-0.17951931
186	0x3ca9ebfc	0.020742409
187	0x3c49e7f8	0.012323372
188	0x3cd8ef79	0.026481377
189	0xbbb4a494	-0.0055127833
190	0x3be80e64	0.0070817936
191	0xbc919da7	-0.01777537
192	0x3cb737a0	0.022365391
193	0xbc869bab	-0.01643165
194	0x3cb59d16	0.022169631
195	0xbb8ea561	-0.004353211
196	0xbcb2a342	-0.021806363
197	0x3be83236	0.0070860637
198	0x3c3741e9	0.011185148
199	0x3c3f8655	0.011689742
200	0x3b4885be	0.0030597295
201	0xbb01c9c6	-0.0019804104
202	0xbbe72d5e	-0.0070549687
203	0x3aeefde8	0.0018233629
204	0x3ba4b34d	0.005026257
205	0x3ca013bc	0.01954066
206	0xbbc4f458	-0.0060105734
207	0x3bf4ab2a	0.0074666934
208	0x3ab3cd2d	0.0013717763
209	0x3ce004ae	0.027345981
210	0xbb9b6fa0	-0.0047435313
211	0xbcd78cad	-0.026312197
212	0xbc9e0370	-0.019288749
213	0x3bbfbd0e	0.0058513945
214	0x3c6a511d	0.0143015655
215	0x3c3f07fc	0.0116596185
216	0x3c923782	0.017848734
217	0xba837415	-0.0010029102
218	0x3b1d214e	0.002397615
219	0xbb8e9925	-0.0043517523
220	0xbc845153	-0.01615206
221	0x3c9594f9	0.018259512
222	0x3c804f4a	0.015662808
223	0xbcd7f6eb	-0.026362857
224	0x3c82de60	0.015975177
225	0xbc9a9e7e	-0.018874403
226	0xbbe152f3	-0.0068763434
227	0xbd58a88e	-0.05289512
228	0x3bbaef12	0.005704769
229	0x3b4936a1	0.0030702727
230	0xbb7f979d	-0.003900028
231	0xbca2880c	-0.019840263
232	0xbc12a8a3	-0.008951339
233	0x3cb34989	0.02188565
234	0x3c882680	0.01661992
235	0x3aeadb18	0.0017918078
236	0xbcad5751	-0.0211598
237	0xbccb386c	-0.024807177
238	0xbc91c110	-0.017792255
239	0x3a241168	0.0006258697
240	0x3cd35f30	0.025802225
241	0xbc9633a1	-0.018335165
242	0x3befef3b	0.0073222197
243	0x3b9288e3	0.0044718846
244	0xbc6c89c1	-0.01443714
245	0x3c709168	0.014683105
246	0x3b41f043	0.002959267
247	0x3c847e1b	0.016173413
248	0xba0b6b70	-0.00053184386
249	0x3ca4c422	0.020113055
250	0xbc209e59	-0.009803378
251	0x3a2cd88e	0.00065935485
252	0x3a494932	0.00076784485
253	0xbb3929ee	-0.0028253752
254	0xbc367575	-0.011136402
255	0xbb2bbcf2	-0.002620515

action_model._discrete_distribution.branches.2.bias f4 [6]
0	0x3f46017e	0.77346027
1	0x3ee85443	0.45376787
2	0x3d7f5775	0.062339265
3	0x3cde69bf	0.027150033
4	0xbbedea50	-0.0072605982
5	0xc00cfc33	-2.202893

action_model._discrete_distribution.branches.2.weight f4 [6, 256]
0	0x3b4537b6	0.003009302
1	0x3b8a1b0f	0.0042146514
2	0x3b730376	0.003708092
3	0x3bee3ea1	0.0072706495
4	0xbc0521d5	-0.008125742
5	0x3c4a5be9	0.012351015
6	0x3c63c4e1	0.01390192
7	0xbb367b3c	-0.002784445
8	0xbad0f14e	-0.0015941055
9	0xbc947a1c	-0.018124633
10	0xba157ed0	-0.00057027955
11	0xbbd2c8b7	-0.0064326185
12	0x3cfb3390	0.030664235
13	0x3cc1d038	0.023658857
14	0xbdd0027f	-0.10156726
15	0xbc37404d	-0.011184764
16	0xbb43a126	-0.002985069
17	0xbcc267c4	-0.02373112
18	0xbca15e82	-0.019698385
19	0xbcb183ea	-0.021669347
20	0x3d8a30ea	0.06747611
21	0xbcc9644a	-0.024583954
22	0xbca18db0	-0.019720882
23	0x3bd3624a	0.006450926
24	0xbbe77971	-0.0070640375
25	0xbb9e6390	-0.004833646
26	0x3b68019a	0.0035401345
27	0x3c7aae3f	0.015300333
28	0xbd07ca35	-0.033151824
29	0x3cd13d7a	0.02554201
30	0xbc383806	-0.011243826
31	0xbd0616d5	-0.032736618
32	0xb9c2ad77	-0.00037131805
33	0x3c198347	0.009369678
34	0x3a2f96be	0.00066981826
35	0x3a8d04c8	0.0010758871
36	0xbc858772	-0.016299937
37	0xbcf771f1	-0.030205699
38	0x3b2c896e	0.0026327032
39	0xbbbdd158	-0.005792778
40	0xbbdb01f5	-0.006683583
41	0x3d380b92	0.04493291
42	0xbc268fb0	-0.010166094
43	0xbd0def15	-0.034651835
44	0x3c5dbffe	0.013534544
45	0xbcaf5cc2	-0.021406535
46	0xbc6462df	-0.013939588
47	0x3b8b081f	0.0042429115
48	0x3c029943	0.007971111
49	0xbbe7ac7a	-0.0070701214
50	0x3bde1cc0	0.0067783296
51	0xbc359d31	-0.011084841
52	0xbc0f363f	-0.008740961
53	0xba40d2f9	-0.0007355656
54	0x3c62b83d	0.013837871
55	0xbc8436bc	-0.01613938
56	0xbbc309a2	-0.005952076
57	0xbb46d433	-0.0030338883
58	0xbc0268c9	-0.007959553
59	0xbbebab75	-0.00719207
60	0xbc0fcf91	-0.008777515
61	0xbcbccda1	-0.02304727
62	0x3c6b7ab9	0.014372521
63	0xbb8b1b81	-0.004245222
64	0xbcde8c99	-0.027166652
65	0xbcbe7bab	-0.023252329
66	0x3b690e0a	0.0035561346
67	0x3bd8b042	0.0066128084
68	0xbb12f620	-0.0022424534
69	0xbc193f02	-0.009353401
70	0x3b8e77ea	0.004347791
71	0xbcea34ac	-0.028589569
72	0xbca74b54	-0.020421661
73	0x3c3d285f	0.01154527
74	0x3c2681a0	0.010162741
75	0xbb1e8286	-0.0024186685
76	0xbbe5d7a3	-0.0070142313
77	0xba9d145f	-0.001198422
78	0xbbada712	-0.0052994573
79	0x3bcfc720	0.006340876
80	0xbc7e8f60	-0.015537113
81	0x3c93287e	0.017963644
82	0x3af5cf5e	0.0018753817
83	0xbcb1b28b	-0.021691581
84	0x3bd6f914	0.006560454
85	0xbc2d17ec	-0.010564785
86	0x3c278573	0.010224688
87	0xbc3c7cda	-0.011504376
88	0x3c3a9f8f	0.011390581
89	0x3c11b4f8	0.008893244
90	0x3c31adc7	0.010844654
91	0xbcac92fb	-0.02106618
92	0x3bb14e10	0.005410917
93	0xbb1809f0	-0.0023199283
94	0xbaab778d	-0.0013081894
95	0x3a39a13c	0.0007081216
96	0xbafaed8c	-0.0019144281
97	0x3c8ca189	0.01716687
98	0xbc2f4710	-0.010698095
99	0xbc739e0e	-0.014869226
100	0x3c1fee60	0.009761423
101	0x3c0c829b	0.008576061
102	0xbcb4acec	-0.022055112
103	0x3cf29dc8	0.029616252
104	0x3c81ea93	0.015858924
105	0x3db9c1d8	0.09070176
106	0xbc8d36a1	-0.017237963
107	0x3db12f45	0.08651594
108	0xbd15e86e	-0.036598615
109	0xbb2c04e7	-0.002624804
110	0xbc05e9e8	-0.008173443
111	0xbc18fc21	-0.009337456
112	0xbbb0f3a1	-0.0054001366
113	0xba9d6f8d	-0.0012011394
114	0x3c96cd05	0.018408308
115	0xbc4a10a5	-0.01233307
116	0x3c380df5	0.011233796
117	0xbd098159	-0.03357062
118	0x3c1cc4af	0.009568377
119	0xbc17859a	-0.009248162
120	0xbc12830f	-0.00894238
121	0xbc97b0d1	-0.01851693
122	0x398f654b	0.00027350555
123	0xbc67aef5	-0.014140834
124	0x3c8c8db0	0.017157406
125	0x3c8f57e6	0.017497968
126	0xb80fd2b0	-3.4290075e-05
127	0x3c1ec137	0.009689621
128	0xbc8033c7	-0.01564969
129	0x3b0e5f93	0.0021724447
130	0xbc9231cb	-0.017846009
131	0x3c622b29	0.0138042355
132	0x3b8b76de	0.0042561134
133	0xbd087fe7	-0.033325102
134	0xbcb44d2d	-0.022009457
135	0x3b83d855	0.0040235915
136	0xbc0572fa	-0.008145088
137	0xbc97d9fe	-0.018536564
138	0x3bad7fd6	0.0052947802
139	0xbc764362	-0.015030714
140	0x39a94a04	0.00032289338
141	0xbbcda78c	-0.0062760767
142	0xbd07dcb3	-0.03316946
143	0x3c2c5bb3	0.01051991
144	0x3b45d997	0.0030189508
145	0x3c2c7fb7	0.0105284965
146	0x3c4e5508	0.012593515
147	0x3ca93817	0.020656629
148	0xbc4db970	-0.012556419
149	0x3b4e6e09	0.0031498692
150	0xbcdd17cc	-0.026988886
151	0xbd0f7d83	-0.035031807
152	0xbb18b7d2	-0.0023302925
153	0xbbe97745	-0.0071248137
154	0x3ac4fa8e	0.0015028284
155	0xbc262e53	-0.0101428805
156	0xbd26488c	-0.04059653
157	0x3befa6e3	0.0073135956
158	0xbbde56cb	-0.006785249
159	0xbca93a32	-0.020657632
160	0xbc2fd2f1	-0.010731445
161	0xbc36b205	-0.011150842
162	0xbc1d2b6f	-0.009592875
163	0xb9501624	-0.00019844674
164	0xbb820468	-0.0039678104
165	0x3a10e7e8	0.0005527721
166	0x3ba44ee4	0.0050142873
167	0xbb94a837	-0.0045366543
168	0xbbc9efb9	-0.0061626104
169	0xbcba8117	-0.022766633
170	0xbce02047	-0.027359141
171	0xbbe0a81d	-0.006855978
172	0xbc059d69	-0.008155205
173	0xbc1daad9	-0.009623253
174	0x3b149cae	0.0022676396
175	0xbbbfcbce	-0.005853153
176	0x3ca0182d	0.019542778
177	0xbb4d3215	-0.0031310369
178	0x3b9a5f90	0.004711099
179	0xbd334282	-0.0437646
180	0xbcbb70b5	-0.022880891
181	0x3c1daa07	0.009623057
182	0xbc8e73fe	-0.017389294
183	0xbd96d5fa	-0.073650315
184	0x3c76fc7b	0.0150748445
185	0xbda9d932	-0.0829338
186	0xbbc8edf8	-0.0061318837
187	0x3ca15636	0.019694429
188	0xbce9e022	-0.028549258
189	0xbc5a76c3	-0.013333979
190	0x3b85f021	0.0040874635
191	0x3b3e9a55	0.0029083688
192	0x3c49ff63	0.012328955
193	0xbcd4f218	-0.025994346
194	0xbc5cc19f	-0.013473897
195	0xbc715842	-0.014730515
196	0xbc1de57e	-0.009637235
197	0x3c261a5e	0.010138122
198	0x3c2835b8	0.010266714
199	0x3b3ad47a	0.0028507994
200	0x3bd2f436	0.0064378036
201	0x3b2196a6	0.0024656444
202	0xbbede614	-0.0072600935
203	0xbbeaa3c1	-0.0071606343
204	0x3c8202ac	0.015870415
205	0x3ae8e65f	0.0017768851
206	0xbcd4f658	-0.025996372
207	0x3c3116bf	0.010808646
208	0x3b05a697	0.0020393485
209	0x3d4bb3d2	0.049732037
210	0xbb176a4a	-0.0023104125
211	0xbd083277	-0.033251252
212	0x3ab60c3a	0.0013889142
213	0xb96adb5c	-0.00022397697
214	0x3ad80dfa	0.0016483658
215	0xbb9a9845	-0.004717859
216	0x3b9e972e	0.0048397994
217	0x3cb3cbce	0.021947768
218	0x3bc3f792	0.0059804404
219	0xbc9e4395	-0.019319335
220	0xbbc565f8	-0.0060241185
221	0xbb1a22c6	-0.0023519262
222	0xbba21d37	-0.0049473303
223	0xbd05ec3e	-0.032696
224	0xbbbd961c	-0.0057857167
225	0xbc8569d2	-0.01628581
226	0xbba80b89	-0.005128328
227	0x3d45d916	0.048302732
228	0x3aa56be0	0.001262065
229	0xbcc41de1	-0.023940029
230	0xbcab5c38	-0.020917997
231	0xbb9a3597	-0.0047060954
232	0x3c0fae21	0.008769543
233	0xbc47fd87	-0.012206442
234	0x3a8743d1	0.0010319893
235	0x3bfdd0ec	0.0077458527
236	0xbc208b7c	-0.009798881
237	0xbb5200d0	-0.0032043941
238	0x3ba9da29	0.0051834774
239	0xbc8ca942	-0.017170552
240	0x3bfc34d1	0.007696726
241	0x3be2d8fb	0.0069228387
242	0x3baa818a	0.0052034305
243	0xbbabe7bb	-0.0052461303
244	0x3b53da49	0.0032326153
245	0x3cd6616c	0.026169501
246	0xbc830c39	-0.01599704
247	0x3bf3659b	0.007427884
248	0x3a76e388	0.000941806
249	0x3c403871	0.011732207
250	0x3c843687	0.016139282
251	0xbc092e99	-0.008372926
252	0xbbd1dd79	-0.0064045754
253	0xbc986d56	-0.018606823
254	0xbcca52f3	-0.024697756
255	0xbbf871fc	-0.0075819474

discrete_action_output_shape f4 [1, 3]
0	0x40c00000	6.0
1	0x40c00000	6.0
2	0x40c00000	6.0

network_body._body_endoder.seq_layers.0.bias f4 [256]
0	0xbb944cbb	-0.0045257485
1	0x3c0f7736	0.008756449
2	0x3bb898d9	0.0056334552
3	0x3c82da80	0.01597333
4	0x3c97c298	0.018525407
5	0xbcf50872	-0.029911254
6	0x3bcdf54b	0.0062853447
7	0x3a8a6c9c	0.0010560933
8	0x3b92f286	0.0044844775
9	0x3c83ccc6	0.016088855
10	0xbbdca6d8	-0.0067337565
11	0xbbb37a29	-0.005477209
12	0xbbe6740f	-0.007032878
13	0x3cc6eb98	0.024282262
14	0xbcdb5370	-0.026773185
15	0x3aa49aa7	0.0012558297
16	0xbd1352ea	-0.035967745
17	0xbc9a643e	-0.018846627
18	0x3c617734	0.01376133
19	0x3ab6fb36	0.0013960365
20	0xbbbb1be0	-0.00571011
21	0x3cde81ab	0.02716144
22	0xbc8e8849	-0.01739897
23	0xbcf3a8c2	-0.029743556
24	0xbe3335df	-0.17501019
25	0xbcaac96d	-0.020848
26	0x3bdf2805	0.0068101906
27	0xbcc981e8	-0.024598077
28	0xbbc7f9cd	-0.0061027766
29	0xbc801533	-0.015635109
30	0xbb38e986	-0.0028215363
31	0xbc7739f9	-0.015089505
32	0x3c19e5a7	0.009393132
33	0xbb5eebf4	-0.003401515
34	0xbb56adce	-0.0032757404
35	0xbc4e6401	-0.012597085
36	0xbb4df830	-0.003142845
37	0xbcd44f3a	-0.025916684
38	0x3afb7135	0.0019183519
39	0x3bd19ab0	0.006396614
40	0xbc439df9	-0.011939519
41	0xbc4fe1ce	-0.012688113
42	0x3c96f55b	0.018427541
43	0x3c04deca	0.008109758
44	0xbc1c1212	-0.009525793
45	0x3cae8bc8	0.021306887
46	0xbabf167c	-0.0014578844
47	0x3c025e20	0.007957011
48	0xbb25d5e2	-0.0025304486
49	0xbe2256a6	-0.15853366
50	0x3c0d8806	0.008638388
51	0xbce80a06	-0.028325092
52	0x3ba89afb	0.0051454282
53	0xbd00dec5	-0.03146245
54	0xbd0c7069	-0.03428689
55	0x3bd67416	0.0065446002
56	0xbc4ea7f1	-0.012613283
57	0xbc101c64	-0.008795831
58	0x3b696abe	0.0035616602
59	0xbb097ff9	-0.0020980819
60	0x3c4653d2	0.012104945
61	0xbc59f35b	-0.013302649
62	0x3bcf4766	0.00632565
63	0xbc75d0d4	-0.015003402
64	0x3c29affb	0.010356898
65	0xbc742795	-0.014902015
66	0xbc1a8c8e	-0.009432925
67	0xbc9d11be	-0.0191735
68	0x3cbc83c0	0.023012042
69	0xbd1e7797	-0.03868827
70	0xba914391	-0.0011082758
71	0xbb56baa0	-0.0032765046
72	0xbcdb6062	-0.026779357
73	0xbc683998	-0.014173888
74	0xbca1acdd	-0.019735748
75	0xbce26b6f	-0.027639119
76	0xbc7af6f7	-0.01531767
77	0x3c85c980	0.016331434
78	0xbc94ac24	-0.01814849
79	0x3c70a76d	0.014688355
80	0xbd477309	-0.04869369
81	0xbbe091f5	-0.006853337
82	0xbacb8bb3	-0.0015529305
83	0x3b400084	0.0029297182
84	0xbafc4434	-0.00192464
85	0xbb4aaa8a	-0.0030924403
86	0xbc92cffb	-0.017921438
87	0xbbd27252	-0.0064223194
88	0xba88403a	-0.0010395118
89	0xbb99264f	-0.004673756
90	0xbcd52cdb	-0.026022365
91	0x3bd9e42d	0.006649515
92	0xbb8c97fe	-0.00429058
93	0xbc29fb77	-0.010374895
94	0x3b69eb91	0.0035693387
95	0x39c6216a	0.00037790398
96	0xb9f93eba	-0.00047539716
97	0xbc061312	-0.008183258
98	0xbc5ada46	-0.0133577045
99	0xbcbdc80b	-0.023166677
100	0x3b616976	0.0034395135
101	0xbb8d3b02	-0.004310013
102	0xbd14d533	-0.036336135
103	0xbcc46831	-0.023975464
104	0x3c03c9d9	0.00804373
105	0xbc9c8efe	-0.019111153
106	0x3bd93596	0.0066287024
107	0x3c0c00a9	0.008545079
108	0x3bb8205a	0.005619091
109	0xbc95b78a	-0.018275995
110	0xbcb2b4e0	-0.021814764
111	0xbc8bc724	-0.017062731
112	0x3c545a28	0.012960948
113	0xbc02913d	-0.007969198
114	0x3aa21ae9	0.0012367639
115	0x3cb3c4e4	0.02194447
116	0xbc076fe2	-0.008266421
117	0xbb9cb793	-0.004782626
118	0xbbd18e1a	-0.0063951137
119	0xbbc29ffe	-0.0059394827
120	0x3ccf7afd	0.0253272
121	0x3c1c3e52	0.009536343
122	0xbc0ba2e0	-0.008522719
123	0x3b08bb49	0.0020863584
124	0xbe2895a4	-0.16463333
125	0xbca2a135	-0.01985226
126	0xbc2e9d87	-0.010657675
127	0x3caa57da	0.020793844
128	0xbc0203eb	-0.007935504
129	0xbce20456	-0.027589958
130	0x3d03bb07	0.032160785
131	0x3c2a8be7	0.010409332
132	0xbb44540a	-0.0029957318
133	0xbb577e47	-0.0032881664
134	0x3a6ca4c9	0.00090272404
135	0xbc0f3146	-0.008739775
136	0x3b620842	0.0034489785
137	0x3c58b209	0.013226041
138	0xbb94274a	-0.004521285
139	0xbcc04006	-0.023468029
140	0x3c83d5af	0.016093103
141	0xbb18cc10	-0.002331499
142	0xbc6761e8	-0.014122464
143	0xbc35d024	-0.011096988
144	0x3c8d0d13	0.017218148
145	0x3b70b2c7	0.0036727653
146	0x3c77509b	0.015094901
147	0x3c336454	0.010949213
148	0x3b31eeb5	0.0027150337
149	0x3c8ec254	0.017426647
150	0x3ab4ed18	0.001380357
151	0x3bc637ec	0.006049147
152	0x3a4f1f62	0.00079011
153	0xbc1627e8	-0.009164788
154	0xbc306cd8	-0.010768138
155	0x3c17dc0b	0.009268771
156	0x3c0ab547	0.008466071
157	0xbb9ee8e5	-0.0048495405
158	0xbcac7b02	-0.021054748
159	0xbd0292c3	-0.031878244
160	0x3b063fe0	0.002048485
161	0xbcea160e	-0.02857497
162	0x3be799d4	0.0070678983
163	0xbccf9c87	-0.025343193
164	0x3b22d23a	0.0024844543
165	0x3b77655a	0.003774962
166	0x3c43ea48	0.0119577125
167	0x3b98f5c1	0.004667968
168	0x3bfffbf5	0.007812018
169	0xbcd28d62	-0.025702182
170	0x3c2e6e8e	0.0106464755
171	0xbc148485	-0.009064798
172	0xbcb42efc	-0.02199506
173	0x3cf864ff	0.030321596
174	0xbd006bf3	-0.03135295
175	0x3bf2b6d8	0.0074070506
176	0xbcc5cabc	-0.024144523
177	0xbb111170	-0.0022135638
178	0xbbd2d227	-0.0064337435
179	0xbc19dd2d	-0.009391111
180	0x3c7afae8	0.01531861
181	0xbbf122ce	-0.0073588854
182	0x3cca0471	0.024660321
183	0xbbaa25e4	-0.005192505
184	0x3b6583e5	0.0035021242
185	0xbcb1920e	-0.02167609
186	0xbcc2470c	-0.023715518
187	0xbc92340b	-0.017847082
188	0xba169efe	-0.00057457376
189	0x3c847e45	0.016173491
190	0x3ce8fcd6	0.028440874
191	0xbc9c37a9	-0.01906951
192	0xbd06929b	-0.032854658
193	0xbb56e5d7	-0.0032790804
194	0xbb91f818	-0.004454624
195	0x3c09d418	0.0084123835
196	0x3bd69dca	0.0065495716
197	0x3b6fd2ce	0.0036594155
198	0x3a9a4102	0.0011768641
199	0x3c03226c	0.008003812
200	0x3c021f38	0.007942013
201	0xbcaca80d	-0.021076227
202	0x3b8c2d7f	0.0042778845
203	0xbca2c2e1	-0.019868316
204	0xbc39f297	-0.011349342
205	0x3b94f9c1	0.0045463745
206	0xbc2bf27e	-0.010494826
207	0xbcbf3a22	-0.02334315
208	0xbce51474	-0.027963854
209	0x3ac3e576	0.0014945704
210	0x3c2ec2f2	0.010666596
211	0x3bfe257f	0.0077559347
212	0x3c6b2013	0.014350909
213	0xbc58db73	-0.0132359145
214	0xbec9f176	-0.39442033
215	0x3bdc9c53	0.0067325025
216	0x3c46f238	0.01214271
217	0xbc70f24d	-0.0147062065
218	0x3c76722c	0.015041869
219	0xbcb302f4	-0.021851994
220	0xbb078d82	-0.002068371
221	0x3c130b83	0.008974913
222	0x3cc74735	0.024325946
223	0xbc9b314f	-0.01894441
224	0xbe0d49e4	-0.13797718
225	0xbc8388d8	-0.016056463
226	0xbbc80c62	-0.006104992
227	0xbca0c84d	-0.01962676
228	0x3c8cd6eb	0.017192325
229	0xbc02965c	-0.007970419
230	0xbcda640f	-0.02665904
231	0xbc85aeba	-0.016318668
232	0xbe8a8879	-0.27057245
233	0xbe5d6bf8	-0.21623218
234	0x39c19664	0.00036923878
235	0x3c7c8f9a	0.015415097
236	0xbc316611	-0.010827557
237	0xbcca384e	-0.024685051
238	0xbd2c1699	-0.04201374
239	0xbe15546a	-0.14582983
240	0xbc8da935	-0.017292598
241	0x3d1b1f1f	0.037871476
242	0xbc9d6e54	-0.019217648
243	0xbc21d5bd	-0.009877619
244	0x3c14ce78	0.009082429
245	0xbc7d4f6f	-0.015460833
246	0x3c22561e	0.009908227
247	0xbc2ee050	-0.010673597
248	0x3c8b7f70	0.01702854
249	0xbc4ac8cd	-0.012376976
250	0xbb2a5550	-0.0025990792
251	0x3c16143b	0.009160097
252	0xbb14d011	-0.0022707025
253	0xbd25cb93	-0.040477347
254	0xbc544dbe	-0.012957988
255	0xbc807ec7	-0.015685452

network_body._body_endoder.seq_layers.0.weight f4 [256, 45]
0	0x3b98c533	0.00466218
1	0xbca1059b	-0.019655993
2	0xbc35890a	-0.011080036
3	0xb9310a42	-0.00016883857
4	0x3b39ee13	0.0028370663
5	0xbbfba043	-0.007679017
6	0xba88af7c	-0.0010428275
7	0xbca080c2	-0.019592647
8	0xbbbce4e8	-0.0057645924
9	0x3daf3032	0.085541144
10	0xbd8327d9	-0.06404085
11	0xbd2887b6	-0.04114505
12	0xbd8934fe	-0.066995606
13	0x3d245ef4	0.040129617
14	0x3cc4d2cc	0.024026297
15	0x3e84ab4b	0.25911936
16	0xbe5e52d8	-0.2171129
17	0xbdf5f663	-0.12009885
18	0x3e0f279d	0.13979955
19	0x3e521013	0.20513944
20	0x3e652bfb	0.22380058
21	0xbc62aedd	-0.013835636
22	0xbe026f57	-0.12737785
23	0xbd6790fb	-0.05653475
24	0x3e029800	0.12753296
25	0xbe8a71b1	-0.27039865
26	0xbebcb181	-0.36854175
27	0xbdbc2ace	-0.09187852
28	0xbe970304	-0.29494488
29	0x3d8ee5b7	0.069774084
30	0xbd9e7f8f	-0.077391736
31	0x3a3d18fa	0.00072134996
32	0xbbc8b597	-0.006125163
33	0xbd23ee83	-0.040022384
34	0x3e296bb5	0.16544993
35	0x3c325695	0.010884901
36	0xbc17b5c0	-0.009259641
37	0x3e570fda	0.2100214
38	0xbe1f91e7	-0.15583001
39	0x3de8dfce	0.11370812
40	0xbe126efb	-0.14300148
41	0xbd44dd88	-0.04806283
42	0xbd6ebe0d	-0.058286715
43	0x3ddbfbd1	0.107413895
44	0xbcbd9b31	-0.02314529
45	0x3cd53efa	0.026031006
46	0xbc78a83e	-0.015176831
47	0xbc33c8aa	-0.010973135
48	0xbb14ab89	-0.002268525
49	0xba71f8cc	-0.0009230494
50	0x3cc46c24	0.023977347
51	0x3c7c4ea6	0.015399611
52	0xba5cb1f6	-0.0008418852
53	0xbc2f6a21	-0.010706455
54	0xbe3b5d8d	-0.18297406
55	0xbe458d6f	-0.19292234
56	0xbe980313	-0.29689845
57	0x3e3a9162	0.18219522
58	0xbe1301a5	-0.14356096
59	0x3d8fd632	0.070232764
60	0xbdf0e4b7	-0.11762374
61	0xbde41d5c	-0.11138412
62	0x3df735e6	0.12070827
63	0x3d9279fe	0.071521744
64	0x3d195923	0.037438523
65	0xbe0536ec	-0.13009232
66	0x3d444cf6	0.04792496
67	0x3de3be63	0.11120298
68	0x3c8fffb8	0.01757799
69	0xbde47549	-0.11155183
70	0xbdbc6f02	-0.092008606
71	0x3dc316d6	0.0952584
72	0x3e1ec4f4	0.15504819
73	0x3e038568	0.12843859
74	0x3d20e183	0.039277565
75	0xbe297287	-0.16547595
76	0x3da4250c	0.08014879
77	0xbddbadb6	-0.10726492
78	0xbb9c8914	-0.004777083
79	0xbe30bcc7	-0.17259513
80	0x3d75ecfd	0.060040463
81	0x3e27c4e2	0.16383699
82	0x3cc86f8a	0.024467248
83	0xbc8458f0	-0.01615569
84	0xbdd74683	-0.10511496
85	0x3dfd4317	0.12366312
86	0xbd60e323	-0.054904114
87	0x3de7820c	0.11304101
88	0xbcf8e311	-0.030381711
89	0xbd8bdf82	-0.0682974
90	0x3c7f5aa9	0.01558558
91	0xbbccc97c	-0.0062496047
92	0xbcebdc5e	-0.028791603
93	0x3c43ffb8	0.011962824
94	0xbafc9deb	-0.0019273137
95	0xbc54a3ca	-0.0129785035
96	0xbb296578	-0.0025847834
97	0xbcfa03a2	-0.03051931
98	0xbcab9725	-0.020946095
99	0xbec34ac2	-0.38142973
100	0x3da59247	0.08084541
101	0xbd0338a0	-0.032036424
102	0x3ea5de30	0.32396078
103	0xbd832112	-0.06402792
104	0xbb883df0	-0.004157774
105	0x3dc15d0a	0.09441574
106	0x3dcc2988	0.09968859
107	0xbe3ae708	-0.18252194
108	0x3e4467a2	0.19180158
109	0x3e1f50c3	0.15558152
110	0xbdd42eed	-0.10360513
111	0xbdafdd30	-0.0858711
112	0x3e5e6c94	0.21721107
113	0x3dc968bc	0.098344296
114	0x3dbfaf1c	0.09359571
115	0xbe1a3a3f	-0.15061282
116	0x3db457fa	0.08805843
117	0x3dbe4850	0.09291136
118	0xbe992043	-0.29907426
119	0xbb94700c	-0.0045299586
120	0xbdb4ca89	-0.08827693
121	0x3cb0bb66	0.021573734
122	0xbc114dd6	-0.008868655
123	0xbda15c2c	-0.078789085
124	0x3e20251d	0.15639158
125	0xbd14e576	-0.036351644
126	0x3d15177d	0.036399353
127	0x3de11f64	0.109923154
128	0xbe5d3b50	-0.21604657
129	0x3e9b7bb3	0.30367813
130	0xbd0ad7fc	-0.033897385
131	0xbdd8b17e	-0.10580729
132	0xbd12d131	-0.03584403
133	0x3c9da6d5	0.01924459
134	0x3dde5a8b	0.108571135
135	0x3be488b8	0.006974306
136	0xbd4199d3	-0.04726584
137	0xbcbb45e3	-0.022860473
138	0xbb8b1020	-0.0042438656
139	0x3be0c327	0.0068592015
140	0xbcbd05a8	-0.023073986
141	0xbcc95e5a	-0.024581123
142	0xbd2a7586	-0.041615985
143	0x3cb25e2b	0.021773418
144	0x3ea39e8a	0.31956893
145	0x3d4e9b33	0.05044098
146	0x3c7f1e2b	0.015571157
147	0xbe732d36	-0.23747715
148	0xbea4d2f1	-0.32192186
149	0xbe82dc28	-0.2555859
150	0x3d90ed14	0.07076469
151	0x3e9d74e7	0.30753252
152	0x3b80477e	0.0039147725
153	0xbed7dbfa	-0.42160016
154	0xbdfcd167	-0.12344628
155	0x3c9dab11	0.01924661
156	0x3dc3af75	0.0955495
157	0xbdf54026	-0.11975126
158	0x3deea3f6	0.11652367
159	0x3e4afaa6	0.19822177
160	0x3e115df8	0.14196002
161	0x3c4dc315	0.012558718
162	0x3dadcc12	0.08486189
163	0xbe91a94a	-0.2844947
164	0x3d885cf8	0.066583574
165	0xbec8e160	-0.39234447
166	0x3db1f91f	0.08690094
167	0xbd0aeb24	-0.033915654
168	0xbb816d16	-0.0039497716
169	0x3cc99766	0.024608325
170	0xbc2d5b15	-0.010580798
171	0xbb9f419a	-0.0048601152
172	0x3ca2ae06	0.019858371
173	0x3de42d9b	0.11141511
174	0x3dcc146b	0.09964832
175	0x3e5059b9	0.20346726
176	0xbbbbb790	-0.0057286695
177	0x3e2b9ef6	0.16759858
178	0x3e0f6be8	0.14006007
179	0x3c5e1b75	0.013556351
180	0x3cfa1407	0.030527128
181	0xbce9b5fb	-0.028529158
182	0xbb5f1e8d	-0.003404531
183	0xbd0a2d4e	-0.033734612
184	0xbb95776a	-0.0045613544
185	0x3c644c33	0.013934183
186	0x3c3dfb10	0.0115955025
187	0x3ad91bb7	0.0016564046
188	0xbc1af142	-0.009456934
189	0x3eb0952c	0.3448881
190	0x3e0c703f	0.13714693
191	0x3e4cc042	0.19995216
192	0xbe597dc3	-0.2123938
193	0xbe23a06d	-0.15979166
194	0xbe58e594	-0.21181327
195	0x3dc868dc	0.09785625
196	0xbd0d3e5f	-0.03448331
197	0xb9098970	-0.00013116538
198	0x3c7e72d0	0.015530303
199	0xbd67cbd2	-0.056590863
200	0xbc69142a	-0.014225999
201	0xbe4d7840	-0.20065403
202	0xbd7d16d9	-0.061789367
203	0x3e03f3d0	0.12885976
204	0x3db95d66	0.090510175
205	0xbe14a601	-0.1451645
206	0x3c28ea60	0.010309786
207	0xbd3c04f5	-0.045903165
208	0xbd400a29	-0.04688469
209	0x3e236e2c	0.15959996
210	0xbe72c166	-0.23706588
211	0x3d389ef6	0.045073472
212	0x3da4ac7a	0.0804071
213	0x3e3a3db5	0.18187602
214	0x3e5aa8ba	0.21353427
215	0x3f014c02	0.50506604
216	0x3eb361e4	0.35035622
217	0xbdb952e5	-0.09049014
218	0x3e40ff98	0.18847501
219	0xbe81a8b5	-0.25324026
220	0x3cae1190	0.021248609
221	0x3da4a71e	0.080396876
222	0xbd544f2a	-0.05183331
223	0xbc0cf7b6	-0.008603981
224	0xbd7efd0a	-0.062253036
225	0x3b8ac6bb	0.0042351163
226	0x3c60d616	0.013722917
227	0xbc144376	-0.009049287
228	0x3ceb4d1a	0.028723288
229	0xbc233e2c	-0.009963553
230	0x3b5238c9	0.0032077304
231	0x3c122669	0.0089202905
232	0xbbe64124	-0.0070268083
233	0xbce51175	-0.027962426
234	0xbdd45af2	-0.10368909
235	0xbd88ba49	-0.06676156
236	0x3d51ae25	0.051191468
237	0xbe4f17b6	-0.20223889
238	0x3d296614	0.041357115
239	0xbe968234	-0.29396212
240	0xbdaa62b2	-0.08319606
241	0x3d6811a6	0.056657456
242	0x3c5bc2c4	0.013413135
243	0xbdf86aad	-0.12129722
244	0x3e05442b	0.13014285
245	0x3e816865	0.2527496
246	0xbe50966a	-0.20369878
247	0xbea0ef76	-0.31432694
248	0xbd1d5ba4	-0.038417473
249	0x3e52c96d	0.2058465
250	0x3c476469	0.012169936
251	0x3e052b9b	0.13004915
252	0x3ddf2636	0.1089596
253	0xbd86a38f	-0.06574165
254	0xbd67fbe3	-0.056636702
255	0x3d6249bc	0.0552461

network_body._body_endoder.seq_layers.2.bias f4 [256]
0	0xbc197e23	-0.009368452
1	0xbcc70ca5	-0.024298022
2	0xbcac3475	-0.021021107
3	0x3ada35d2	0.001664812
4	0x3a8c5a56	0.0010708075
5	0xbbbddb37	-0.0057939547
6	0x3ae71602	0.001763046
7	0xbc218ec0	-0.009860694
8	0xbbc123ed	-0.0058941753
9	0x3c000cb8	0.007815532
10	0x3be6939b	0.007036639
11	0xbab69ad4	-0.001393164
12	0xbb8dbc70	-0.004325442
13	0x39fe65ae	0.00048522413
14	0xbcf4669b	-0.029834082
15	0xbbfb4b93	-0.0076689213
16	0xbbc8ecd9	-0.00613175
17	0x3a9c3fce	0.0011920871
18	0x3b594d77	0.0033157745
19	0xbc505ce8	-0.012717463
20	0xbc0e2d85	-0.008677845
21	0xbcc4042c	-0.02392777
22	0xba0367c2	-0.00050127145
23	0xbc5234e3	-0.012829992
24	0xbc8cdb57	-0.017194433
25	0xbbcc9723	-0.006243603
26	0x3aaca77a	0.001317247
27	0x3b285080	0.0025682747
28	0x3bde0a10	0.006776102
29	0x3c6fa11f	0.014625817
30	0x3b946c78	0.004529532
31	0x3cb3f0b8	0.02196537
32	0xbd25bc81	-0.040462974
33	0x3c40982b	0.01175503
34	0x3c7d6032	0.015464829
35	0xbca91407	-0.020639433
36	0x3ae2ae12	0.0017294309
37	0xbc4c52c7	-0.0124709075
38	0xba8ebb55	-0.001088957
39	0xbcd8e854	-0.02647797
40	0xbc9c8631	-0.019106956
41	0xbccf317b	-0.025292149
42	0xbc9dde56	-0.019271057
43	0x3c796649	0.015222141
44	0xbb90593d	-0.0044051693
45	0xbc4c655b	-0.012475337
46	0x3a5ff40c	0.0008543141
47	0x3c3736a8	0.011182465
48	0xbbd43f2b	-0.006477257
49	0x3cb7ff1a	0.02246051
50	0x3b562dcd	0.0032681108
51	0xbc17d423	-0.009266886
52	0xbb215e46	-0.0024622842
53	0xbc2f7194	-0.0107082315
54	0xbbf920d8	-0.0076027922
55	0xbc486a58	-0.012232386
56	0xbc003571	-0.007825241
57	0x3c7e69d0	0.015528157
58	0xbc6e5a13	-0.014547843
59	0x3bceed8c	0.006314939
60	0x3c02900d	0.007968915
61	0xbbf99357	-0.007616441
62	0x3c65f505	0.014035468
63	0xbb37e0e6	-0.0028057634
64	0x3ba64bcb	0.005074953
65	0xbc32585f	-0.010885327
66	0xbcf77239	-0.030205833
67	0x393a9228	0.0001779279
68	0xbc71f3d4	-0.014767606
69	0xbc0e24bc	-0.00867575
70	0xbc089c3c	-0.00833803
71	0xbc84b1d3	-0.016198074
72	0xbbd036a2	-0.006354169
73	0xbc357293	-0.01107468
74	0xbcca353a	-0.024683584
75	0xbcb23e7a	-0.021758307
76	0xbc0b65d2	-0.008508163
77	0xbb104a45	-0.0022016924
78	0xbb93799b	-0.0045005805
79	0x3b40bbc1	0.0029408785
80	0xbcca2e4d	-0.024680281
81	0xbab67c42	-0.001392253
82	0xbbfe8f3f	-0.007768541
83	0xbbd1f2b3	-0.006407106
84	0xbc93b2b1	-0.018029543
85	0x3c504764	0.012712333
86	0x3cc15df2	0.023604367
87	0xbc7ea127	-0.015541351
88	0xbc3db707	-0.011579282
89	0xbab7adde	-0.0014013608
90	0x3ce89a24	0.028393812
91	0x3c61da6b	0.013784985
92	0x3a3afd28	0.000713306
93	0x3bb8149b	0.0056176907
94	0xbc825bd8	-0.015912935
95	0xbc1e4846	-0.009660786
96	0xb944bae0	-0.00018761633
97	0x3ba764fc	0.005108474
98	0xbcbd1cec	-0.02308508
99	0x3bd98daf	0.0066392045
100	0xbb1f42d3	-0.0024301305
101	0x3afc6d45	0.0019258639
102	0xba051aa8	-0.00050775195
103	0xbe968a2a	-0.29402286
104	0x3bb6caf8	0.005578395
105	0x3b0985c0	0.0020984262
106	0x3c61c271	0.013779269
107	0x3c7ff4d2	0.015622335
108	0x3c383a49	0.011244365
109	0xbc8395b2	-0.016062591
110	0xbcb6bdc0	-0.022307277
111	0xbc60455d	-0.0136884125
112	0xbcde3a87	-0.027127517
113	0x3be7636a	0.0070614116
114	0xbc01adfc	-0.007915016
115	0x3ca0d28a	0.019631643
116	0xbc0553bc	-0.00813764
117	0x3a83d530	0.0010058042
118	0xbcc89098	-0.02448301
119	0xbb77b725	-0.0037798372
120	0x3b4abe86	0.0030936315
121	0xbc6dc40f	-0.014512076
122	0xbc1f195e	-0.009710638
123	0xbc8c5e0b	-0.017134687
124	0xbaadeee2	-0.0013270045
125	0xba83992b	-0.0010040154
126	0xba6a446d	-0.0008936588
127	0xbcaaf3e4	-0.02086825
128	0xbb9cd778	-0.004786428
129	0xbbb9a11c	-0.0056649577
130	0x3b90c910	0.0044185
131	0xbcc915bb	-0.024546495
132	0xbe0d285a	-0.13784924
133	0xbcd57607	-0.026057256
134	0xbcffd29e	-0.03122836
135	0xbbc5f559	-0.0060412106
136	0x3bfe9d9a	0.0077702524
137	0x3b49bfce	0.003078449
138	0xbbd15e92	-0.0063894475
139	0xbc8a9649	-0.016917365
140	0x3bb3fa06	0.0054924516
141	0x3cab12f3	0.02088306
142	0xbaddc1dc	-0.0016918737
143	0xbb797ad1	-0.003806759
144	0xb8c176a0	-9.225053e-05
145	0xbcdad074	-0.026710726
146	0xbba14685	-0.0049217367
147	0xbc115a8c	-0.008871686
148	0xbc5c3022	-0.01343921
149	0xbc938fcc	-0.018012904
150	0xbc2f1b39	-0.010687643
151	0xbc5497a3	-0.012975606
152	0xbbc44eaa	-0.005990823
153	0x3b81e91c	0.0039645564
154	0xb97d4704	-0.00024154416
155	0xbc17c856	-0.009264072
156	0xbdfeca25	-0.124409
157	0x3c7f2c75	0.015574564
158	0xba63e4ad	-0.0008693438
159	0xbc03a584	-0.0080350675
160	0xbca1e6bf	-0.019763349
161	0x3caf9ae3	0.02143616
162	0xbc293b5d	-0.010329095
163	0xbd0d46d1	-0.034491364
164	0xbca805a5	-0.020510504
165	0xbdf805b8	-0.12110466
166	0xbd0f8c3c	-0.035045847
167	0x3ca29210	0.019845039
168	0x3bec471a	0.0072106244
169	0x3bf112a5	0.007356959
170	0xbdb9b0aa	-0.09066899
171	0xbb9b24a8	-0.0047345944
172	0xbc126916	-0.008936187
173	0xbb447f57	-0.0029983127
174	0x3c3feddc	0.011714425
175	0x3cb0de9b	0.021590522
176	0x3c09a918	0.0084021315
177	0xbc8dd047	-0.017311228
178	0xbbc2fe76	-0.0059507443
179	0xbca10596	-0.019655984
180	0xbbd2edf2	-0.0064370567
181	0xbc16b70a	-0.009198913
182	0xbcaef297	-0.02135591
183	0xbb566f4c	-0.0032720147
184	0xbc8b71c6	-0.017022025
185	0xbc4f010d	-0.012634528
186	0x3a09f6e8	0.0005262927
187	0xbb45d212	-0.0030185026
188	0x3acc8094	0.0015602284
189	0x3b9852f9	0.004648563
190	0xbc94a894	-0.01814679
191	0xbb9116be	-0.00442776
192	0x3b8bade8	0.0042626746
193	0xbcb00b07	-0.021489633
194	0xbccf785f	-0.025325952
195	0xbb822fca	-0.003972982
196	0xbcf484c6	-0.029848468
197	0xbad84948	-0.0016501332
198	0xbc10f756	-0.008848032
199	0xbb233647	-0.0024904178
200	0xbb669c0f	-0.0035188233
201	0xbb2ec9cf	-0.002667058
202	0xbc619a88	-0.013769753
203	0xbc519825	-0.012792622
204	0xbc7247bc	-0.014787611
205	0xbc97ac86	-0.018514883
206	0xbbbc0a55	-0.0057385364
207	0xbc58e9e3	-0.013239357
208	0x3c3560d3	0.011070448
209	0x3c07d7bd	0.008291182
210	0xbc7b7fce	-0.015350295
211	0x3b0e349d	0.002169884
212	0xbbf1a562	-0.0073744515
213	0xbd11eb51	-0.035624806
214	0x3c3847ff	0.011247634
215	0x3ba1902d	0.004930517
216	0x3c10ae86	0.008830672
217	0x3cbf908e	0.023384359
218	0xbc2046b3	-0.009782481
219	0xbaf922ba	-0.0019007542
220	0xbbdd0d7a	-0.0067459913
221	0xbb6f1740	-0.0036482364
222	0xbcd7b55d	-0.026331598
223	0xbaf1992a	-0.0018432487
224	0xbc1fab7b	-0.009745474
225	0xbde1dfb2	-0.110289946
226	0xbc7e8674	-0.015534986
227	0xbc3242bf	-0.010880171
228	0xbe8f3560	-0.2797041
229	0x3c352880	0.011057019
230	0x3cec32ab	0.028832754
231	0xbcefb01c	-0.02925878
232	0xbbc44f87	-0.0059909257
233	0xbc2d4bfc	-0.010577198
234	0xbc97091b	-0.018436959
235	0xba9107ac	-0.0011064908
236	0x3c5c9332	0.0134628285
237	0xbc3219b2	-0.010870384
238	0x3b948684	0.004532637
239	0xbcb26f61	-0.021781625
240	0xbc601944	-0.013677899
241	0xbd1eeb7c	-0.038798794
242	0xbb8409f2	-0.004029506
243	0xbc4eb57f	-0.012616514
244	0x3b8e6c52	0.004346409
245	0xbc1301dc	-0.008972611
246	0x3aacbfbc	0.00131797
247	0x3c16122f	0.009159609
248	0xbca6ca28	-0.020360067
249	0xbcb5a22d	-0.022172058
250	0xbbed8ed8	-0.0072496943
251	0x3c7ba93e	0.015360175
252	0xbc12beb2	-0.008956598
253	0x3b6f70b1	0.0036535675
254	0x3aee1c9a	0.0018166483
255	0x3c3e84a8	0.011628307
