results/Run12/My Behaviour/My Behaviour-314400.pt (torch, 460063 bytes, 36 tensors)

network_body._body_endoder.seq_layers.0.weight f4 [128, 13]
00000000: 6589 a9bd 9c5c 0b3e e59c b6bc a39d c03c
00000010: 96bc 4ebe 26ad bc3e ef67 dcbe e98e 723d
00000020: a2e6 773d 147f 01bf 895b bebe b99c 4fbd
00000030: 0c64 e5bd b66c d93e 922c f73b 332e 4f3e
00000040: d284 b13e aa1c 10bf 6eaf ad3e e79a a0be
00000050: de46 8e3e a21c 84be 46fc cf3d ef0d a23e
00000060: 9961 f8be 49cb eebd 8b4a b8be 982d 793d
00000070: 1ab4 e03e 195c 84be cb14 f73d 9ce2 df3e
00000080: e26f 09be c163 16bf 5a26 8b3e d1df 963a
00000090: 13c3 13bd 87d3 2d3e 218d 8dbe 7e15 033e
000000a0: 4bf6 8dbe 9df7 253e a890 9c3c 7f93 4f3f
000000b0: 1d9f cf3d f4f3 a13d cbe8 d93d 0af5 12bd
000000c0: cfb0 d53e 22b8 23be f86b bbbd 8ab7 b23e
000000d0: daf1 ae3e 7b1f fc3c 0fd5 b1bd 4a2d 843e
000000e0: 913c 973b 9e04 7cbd 3a7e bf3e 520e a53b
000000f0: d38b 703e 3512 e4bd 07d0 a33d 1878 483e
00000100: bdcf ad3d d42e 143e 2afd 763e d9e8 b8bc
00000110: 991e 273e 86e4 a1bd 2194 9dbe ebc6 cc3e
00000120: ce6d adbd cdcb 96be 17a5 f2bd 43a2 4ebe
00000130: c3f9 91bd 46f9 093e b83b 18be 002c 80be
00000140: be1f 9cbe 90be 09bf 2d48 c23e 93c8 883e
00000150: ba5f febe 7dc3 adbd 8a65 fbbd 4f34 e33e
00000160: 6d84 a3bc ef62 443d 191a 0c3f 2eb9 3fbf
00000170: 48d6 ae3c c2fb fabd 46b9 89be 1ee9 5e3e
00000180: 1731 a93e 9bea 2d3e 8e58 fdbe 7db6 13bf
00000190: 08ee eb3d a727 0b3d 21a0 b2be 7da9 4a3d
000001a0: 1b1c 50be 76aa eabe fcd5 703e dd76 05be
000001b0: a6be ba3d 8f1a 873d 6bc1 6f3e 8522 613a
000001c0: 431f aabe c9ee 02be bac8 45be e0f2 ab3d
000001d0: 2c80 033e 61ff 663b cf3b 623e 1ff3 ec3d
000001e0: 6d80 b23e c7b6 45bd 2492 b13e a273 a93c
000001f0: 72fc 9a3d a826 3e3f 5b6a 91be 1c72 843d
00000200: 7881 bdbc a53f 323f f7d7 88be fddb 12be
00000210: 4a52 6dbc 161b 2cbe 036a cfbe 7211 97bd
00000220: f4f9 20bf bb8d 60be 7825 a63e 800f 30be
00000230: b8ad e73d 84de 91bd 4773 143e 78a5 45bd
00000240: 1633 b7be 72eb 54be 3ab1 fdbd 9c86 9dbd
00000250: ae79 56be 89a8 a93e 1314 5bbd dbd6 83be
00000260: afe3 e03c 549b 8a3e 4163 e63e 932c 3abf
00000270: e2f1 143e 1dad bf3e ad75 a93c 5308 a1be
00000280: e8ce 0d3e 0d61 283f 5115 c8be 58e2 f43e
00000290: e55a ff3e 8f9c 073d 0f5d 76be 009d 0fbe
000002a0: 1c2a c7be 6bac cb3e abef dbbe edad 3abe
000002b0: 001c d13c e2e2 973e 6e7c a2be 5c96 38bd
000002c0: 47f2 c2bb bbb9 babe 85aa 8e3e 38a8 a93c
000002d0: bc41 b7be 0f24 023f 171b 10bf 1929 3c3e
000002e0: c2ad 51be c359 163f 5351 8f3d 3455 133e
000002f0: 110d ae3e 9dd3 dc3d 6b4b ba3d 724c 063e
00000300: b4ad e53d a49c c93d 338b 1fbf f2f5 4ebe
00000310: a74c 623e 3c3b 7ebd d068 64be e1f8 2d3e
00000320: 4f9b c3bd 11ee bd3b 00ed 853d 96bd bbbe
00000330: ab78 b73e 78c0 25bf ec48 72be cde1 10be
00000340: c5e8 dd3e 185e 563e a2b1 293e 671b b23e
00000350: 4e21 5d3e a5c1 20be bde2 64bd 8d98 71be
00000360: 19a8 a13c 3904 463e c18c 08be f75f 8bbe
00000370: e496 ae3d 760a b4be 1577 e43e 5e19 abbe
00000380: 39ca c4be 8eae 3ebe 071d 04be bbc7 84bd
00000390: 42ee 2b3e 1a1e 26bd ffaf 6f3e 09f9 6e3c
000003a0: 0ab4 0cbd 76d3 7a3e 02a0 103e ec35 8abe
000003b0: 7973 093f 7c4d 213e 2e2d db3e d951 45be
000003c0: 2a48 573e 9852 bbbd 0b8d 87be a00a 74be
000003d0: c903 3d3e 14b6 173f ea18 1fbe 05ac 5cbe
000003e0: b9e5 20bd 8a59 5cbe f6c9 c63e aa3a bd3e
000003f0: b371 583e 22de 5a3e 59be 413e 3e4d 0c3f
-0.08278159 0.13609546 -0.02229161 0.023512667 -0.20189127 0.36850852 -0.43048045 0.05921832
0.060522683 -0.5058453 -0.3717921 -0.05068657 -0.11200723 0.42465752 0.007543155 0.20232467
0.34671646 -0.5629374 0.33922905 -0.3136818 0.27788442 -0.25803095 0.10155539 0.31651255
-0.4851196 -0.11659867 -0.35994372 0.060834497 0.43887407 -0.25851515 0.12064513 0.43727577
-0.13421586 -0.5874596 0.27177697 0.0011510794 -0.03607471 0.16975223 -0.27646735 0.12801167
-0.2772697 0.16207738 0.019111946 0.81084436 0.1013777 0.079078585 0.10640105 -0.03587822
0.41736457 -0.1598821 -0.09151453 0.34905654 0.34168893 0.03077673 -0.08683216 0.25815803
0.0046153744 -0.06152784 0.3740099 0.0050371075 0.23490839 -0.11136285 0.079986624 0.19577062
0.084868886 0.14470989 0.24120012 -0.022571968 0.16320266 -0.079049155 -0.30777076 0.39995512
-0.08468209 -0.29452363 -0.11847895 -0.20179085 -0.071277164 0.13473997 -0.14866531 -0.2503357
-0.30492967 -0.538064 0.3794569 0.26715526 -0.4968241 -0.08484552 -0.122752264 0.44375846
-0.019960606 0.047945913 0.5472732 -0.74891937 0.021342412 -0.1225505 -0.26899165 0.21768615
0.33045265 0.16984026 -0.49481624 -0.5770033 0.1152001 0.033973362 -0.34887794 0.049478043
-0.20323221 -0.45833176 0.23519129 -0.13033624 0.091183946 0.065968625 0.23413627 0.00085882127
-0.33226976 -0.12786402 -0.19314852 0.08395934 0.12841862 0.0035247433 0.22093128 0.11569809
0.34863606 -0.048270013 0.3468181 0.02068502 0.07567681 0.74277735 -0.28401455 0.06467077
-0.023133025 0.69628364 -0.26727268 -0.14341731 -0.014484951 -0.16807207 -0.40510568 -0.07376374
-0.628814 -0.21929066 0.3245046 -0.17193413 0.11312431 -0.071225196 0.144971 -0.048253506
-0.35781163 -0.2079294 -0.12387319 -0.0769169 -0.20944855 0.33136395 -0.05348594 -0.2574986
0.027452318 0.2707163 0.449976 -0.72724265 0.14545396 0.37436762 0.020685995 -0.31451663
0.1384846 0.6577309 -0.39078763 0.47828937 0.49874035 0.03310829 -0.24058937 -0.14024734
-0.38899314 0.39779982 -0.4295629 -0.1823041 0.025526047 0.29665285 -0.31735557 -0.04506527
-0.005949292 -0.36469826 0.2786447 0.020710096 -0.3579234 0.5083627 -0.56291336 0.18375053
-0.2047644 0.58730716 0.06997933 0.14387971 0.33994344 0.107825495 0.09096416 0.13115099
0.11214772 0.0984433 -0.62321776 -0.20211008 0.22099553 -0.06206821 -0.22305608 0.16989471
-0.09551107 0.005796202 0.06539345 -0.3666808 0.3583425 -0.6474681 -0.2366063 -0.14148636
0.43341652 0.20934331 0.16571668 0.3478653 0.21594736 -0.1569887 -0.055880297 -0.2359335
0.019733476 0.19337548 -0.13334943 -0.27221653 0.08524874 -0.3516423 0.44622102 -0.3341779
-0.38435534 -0.18621275 -0.12901698 -0.06483408 0.16790107 -0.04055605 0.23406981 0.014585742
-0.034351386 0.24494728 0.14123538 -0.26994264 0.5369182 0.15752214 0.42807907 -0.19269504
0.21023622 -0.09146613 -0.26474795 -0.23832178 0.18458475 0.59262204 -0.15536848 -0.21549995
-0.03928158 -0.21518531 0.3882596 0.3695882 0.21137123 0.213738 0.18920268 0.5480536

network_body._body_endoder.seq_layers.0.bias f4 [128]
00000000: 45d7 7230 978b 1aba 0000 0000 e202 85ba
00000010: 0000 0000 705a f33a 16b6 b1ba 51f1 bbba
00000020: e0f0 2838 0000 0000 0000 0000 0000 0000
00000030: 28fc f939 5dd6 3cba a949 4abb 349d 61ba
00000040: 6ca1 8b39 542d 73ba 0000 0000 0000 0000
00000050: bba5 39ba 67c3 80b9 2c02 88ba 9bc9 8c3b
00000060: 75d4 50ba 3664 43ba 2b49 caa5 756d fc9d
00000070: e887 b18b a940 2aba 0000 0000 0000 0000
00000080: cab4 d3ba 0000 0000 ccb6 a23a 06f4 34b8
00000090: a6f0 b438 0234 afb7 0000 0000 7881 75ba
000000a0: 13e8 151d 9c37 ddb9 77c8 8cba 0000 0000
000000b0: 65a1 8cba 2de5 d5ba 0000 0000 f8ef f439
000000c0: ef72 95ba 0000 0000 1bf8 e7b9 bf0b 133a
000000d0: 3a31 caba 0000 0000 0000 0000 0000 0000
000000e0: 0000 0000 471a 79ba 0000 0000 2cdb d98f
000000f0: 1b06 13bb 283a 8139 a737 92ba 17aa 84ba
00000100: 0000 0000 618a 0bba 0000 0000 cd4c 5438
00000110: 8bb7 1fba 0000 0000 45c4 fcb9 0000 0000
00000120: 73b3 953a a3ef baba 2aac 1039 0000 0000
00000130: 0000 0000 24bf 833a f04f 6839 0000 0000
00000140: a7ac 8bba 0000 0000 0a95 2e39 e886 1939
00000150: 0000 0000 4c21 8304 9a7e 6826 4e59 74aa
00000160: 0000 0000 5e71 b809 0000 0000 9743 5b25
00000170: 0000 0000 0000 0000 e7c3 c039 0000 0000
00000180: 0000 0000 0861 7406 0000 0000 5f0d 1eba
00000190: 00af 5aba 0000 0000 aaeb 409e 0000 0000
000001a0: 5b97 cd39 56d9 841e c0f7 86ba 0000 0000
000001b0: 79c7 52ba 0000 0000 6a5c 2ab9 0000 0000
000001c0: 0000 0000 878b 822d 0000 0000 f355 05bb
000001d0: 5639 5e3a 0000 0000 b7e2 9f9d 0000 0000
000001e0: 8634 4386 e47c abba 0000 0000 fd13 273a
000001f0: ff03 7c07 b490 c0ba da89 283a cf25 1cbb
8.8345004e-10 -0.00058954343 0.0 -0.0010147954 0.0 0.0018566381 -0.0013558294 -0.0014338886
4.0278654e-05 0.0 0.0 0.0 0.00047680852 -0.00072035735 -0.0030866659 -0.0008606494
0.00026632415 -0.0009276469 0.0 0.0 -0.00070818857 -0.0002455965 -0.0010376624 0.004296494
-0.0007966229 -0.0007453592 -3.5090995e-16 -6.681702e-21 -6.838241e-32 -0.00064946205 0.0 0.0
-0.0016151902 0.0 0.0012414097 -4.314261e-05 8.627893e-05 -2.0885844e-05 0.0 -0.00093653006
1.9839965e-21 -0.00042193837 -0.0010740896 0.0 -0.0010729252 -0.001631891 0.0 0.00046718097
-0.0011402051 0.0 -0.00044244606 0.0005609355 -0.0015426048 0.0 0.0 0.0
0.0 -0.0009502512 0.0 -2.1482274e-29 -0.002243406 0.00024648127 -0.0011155502 -0.0010121492
0.0 -0.0005323049 0.0 5.0616265e-05 -0.00060927187 0.0 -0.00048211418 0.0
0.0011421278 -0.0014262091 0.00013797046 0.0 0.0 0.0010051471 0.00022155023 0.0
-0.0010656313 0.0 0.00016649454 0.00014641474 0.0 3.082853e-36 8.0662746e-16 -2.1702537e-13
0.0 4.4403e-33 0.0 1.9018122e-16 0.0 0.0 0.00036767052 0.0
0.0 4.5962587e-35 0.0 -0.0006029214 -0.0008342117 0.0 -1.02131296e-20 0.0
0.00039213416 1.4065932e-20 -0.0010297224 0.0 -0.0008040588 0.0 -0.0001624689 0.0
0.0 1.4841251e-11 0.0 -0.002034542 0.00084771717 0.0 -4.2321367e-21 0.0
-3.6714012e-35 -0.0013083485 0.0 0.0006373523 1.8959547e-34 -0.0014691562 0.0006429233 -0.0023826247

network_body._body_endoder.seq_layers.2.weight f4 [128, 128]
00000000: a2ef 03be ed80 9f3d fb75 7d3d 5006 0a3e
00000010: 3c1d 80bd 9edc 00be 33af 3b3b 8b2c d3bd
00000020: fa26 853d adaa e7bc 3828 43bb 4a94 97bd
00000030: 44da 023e 887c 1fbd af2c f33c 3190 b3bd
00000040: 4bc5 9a3c 7021 46bd 792b 0bbd 2c3b a13c
00000050: 9ecf ed3d 2a7d 22be 13ac 9bbd f1bf bebc
00000060: 47f7 9f3d dac1 323d fa93 b4bc c988 4a3c
00000070: c529 16be cf96 c33d 7ffd 3f3b 39e2 47bc
00000080: 4295 b93d 3319 58bd 3992 4cbd b160 36be
00000090: cd0b 9fbd fac1 ac3d 32f6 343c 5aeb 673e
000000a0: fa37 ca3c f021 04bd 43a8 44bd 1328 823a
000000b0: 981e eabd ce4c 963c 2840 5b3d 6aea e8bd
000000c0: 8d5b 9e3d 393f 7abd 983b bd3d 1fcb 40bd
000000d0: 3454 28be 2884 723d 8649 953d a853 e83d
000000e0: c362 953d 801e 013e 8df7 bb3d e26f 933c
000000f0: 442a 78bd 14cd 05be 26b2 223d 3952 c03d
00000100: e186 abbd e6af f3bd dae6 353e 37cf 4c3d
00000110: c32e fabc 4808 fbbd 1816 a53c 0c61 c2bd
00000120: e920 71bd 139e 793d 0931 313d fa52 173e
00000130: 5309 babd f5f9 97b9 168c b5bd 2dbe eabb
00000140: e3c6 d83d a76c 9e3d 73d9 e53d d507 ffbd
00000150: 3fa7 b33d 295a ff3d a24f c8bd 25f8 0bbe
00000160: bb85 debd 179a 743d 5385 4f3d f70b 2bbd
00000170: 7334 0fbe 2aee 00be d42f 5bbd 7564 8ebd
00000180: 6e8e 11be f9d4 cb3c cac3 5abb c1ec d0bd
00000190: b9b3 a8bd be52 373e 5dab de3d 1900 02bd
000001a0: 6225 943d 1e2e 84bd f3a5 653e 1c36 83bc
000001b0: 9705 5ebd abe9 263d 79af cc3d ee27 23be
000001c0: c094 293e c0d2 99bd 1745 16be 32c8 223d
000001d0: 4318 f53c 4197 e43c 39d8 b23d 61d3 913d
000001e0: ac70 9d3d 05cc a4bd a33c 863d ca4e 3f3d
000001f0: 9ad0 8ebd 1736 bcbd 1f95 f33d 79b0 e7bc
00000200: 51d8 3d3e 18a3 13bd e9cc 30bd 8274 763d
00000210: b55e 8cbd e1f7 ed3c 8a25 d6bc ad05 303d
00000220: d8a0 c6bc 1e3c 0e3e 402c 36bd ea12 f1bc
00000230: 5192 bf3c 0633 4e3c 8dde b6bd 0e21 18bd
00000240: b28c 963d 788d 98bd 458d 89bd 4be3 7a3c
00000250: 8f82 bcbd 1d32 ed3b 31e0 dabd fe6c 2b3d
00000260: e908 06bd 431b ab3d d963 afbd f2f4 ebbd
00000270: bf9d b33c e3c4 fbbd ed76 d8bd 4958 98bd
00000280: a0c0 1abe 19b8 65bd 955b 36bd 8d5f f1bd
00000290: 35b1 03bb cc8d 0ebd b1d8 ffbc 0ced 143d
000002a0: 3e38 bcbd c9dc 70bd 0732 b63d 63e3 66bd
000002b0: 8fce 00be 8773 223e f5b6 463e eef7 6f3e
000002c0: b7d2 cfbc 32d0 853d a433 64bd aec2 a2bd
000002d0: 4f35 063e 80df 14be e118 223c 740c 18be
000002e0: 45cb c8bd 1628 c3bd a23b c13d 3b6b 8fbc
000002f0: 7514 ec3c 126f 8f3d 12d6 39bd a640 88bd
00000300: 279c 0c3e 9d07 93bb d396 9d3d 4511 aabc
00000310: 2981 15be 5c40 2d3d ca41 b43d 4c78 a73d
00000320: e225 8c3d 7a81 05be 9c66 b73d e3ba 50bc
00000330: 0808 483d a6b7 d2bd af29 97bc 0b31 e0bd
00000340: 40fa b13d d945 a43d b45f 0ebd a3ef 0a3d
00000350: 6ed3 f3bd 4621 b73d 3b0a a73d fb7f db3d
00000360: 78bd 243d 9d9b 1abe cbf0 b83d dc9c 8b3c
00000370: e90f 4f3e d895 20bd 05a9 113d 9e79 5b3d
00000380: 04d1 26be 194e f53d 84bc 87bc 71f1 fcbc
00000390: a997 f23c 09ed a1bb 75f7 703d f98f 8c3c
000003a0: 54fa 7f3d 63a8 8ebd 27ec 073e 566c ef3d
000003b0: 5926 fa3a 306d 92bd c85f 103d 8437 66bd
000003c0: f13a bfbd ad2b bfbd 37ec fabd 3c7d 9b3b
000003d0: af3d 50bd bac9 9f3d 75fa 503c 713d b7bd
000003e0: 00e7 793d 8879 a0bd a732 533e e957 4ebb
000003f0: f7df 94bd da6b 863e 7b0f 0cbd 7ddf eebd
-0.12884381 0.077882625 0.061880093 0.1347897 -0.06255576 -0.12584159 0.0028638362 -0.1031123
0.06501575 -0.028279627 -0.002977861 -0.07401331 0.12778574 -0.03893712 0.029684393 -0.08767737
0.018892905 -0.048371732 -0.033977006 0.019681536 0.116118655 -0.15868059 -0.0760118 -0.023284884
0.07810836 0.043641903 -0.022043217 0.012361714 -0.14664371 0.09550249 0.0029295383 -0.012199932
0.09061672 -0.052758407 -0.049944136 -0.17810322 -0.07765923 0.084354356 0.011045026 0.22648373
0.024684895 -0.032258928 -0.04801203 0.0009930156 -0.114316165 0.01834717 0.05352798 -0.11372836
0.07732306 -0.06109545 0.09239882 -0.04706871 -0.16438371 0.059208065 0.07289414 0.11344081
0.07294228 0.12609291 0.09178076 0.017997686 -0.060587183 -0.13066512 0.039720677 0.09390683
-0.083753355 -0.11898784 0.17763844 0.050002303 -0.030539876 -0.12257439 0.020152137 -0.094911665
-0.058869276 0.060941767 0.043259654 0.14777747 -0.0908381 -0.00028987197 -0.0886461 -0.007163784
0.1058481 0.077355675 0.11223116 -0.12452666 0.08772134 0.124683686 -0.09780814 -0.13668878
-0.10865351 0.059717264 0.050664257 -0.041759457 -0.13984852 -0.12590852 -0.05351241 -0.069527544
-0.14214489 0.024881827 -0.003338086 -0.10201407 -0.082374044 0.17902657 0.10872529 -0.031738374
0.07233693 -0.06454109 0.22426586 -0.016017012 -0.05420455 0.040750187 0.09994406 -0.159332
0.1656065 -0.075109005 -0.14674793 0.039741702 0.029918795 0.027904155 0.087326474 0.071203955
0.07687506 -0.08046726 0.06554534 0.046706 -0.06973381 -0.09190004 0.11893677 -0.02828239
0.1853955 -0.03604421 -0.043164168 0.060169704 -0.068540014 0.029048862 -0.026140947 0.042974163
-0.024246618 0.1389012 -0.044475794 -0.029427964 0.023385199 0.012585407 -0.08929167 -0.0371409
0.07351054 -0.07448858 -0.06716398 0.01531298 -0.092045896 0.00723864 -0.10687292 0.04185199
-0.03272334 0.08354809 -0.08563966 -0.11521329 0.021925805 -0.122934125 -0.10569558 -0.07438714
-0.15112543 -0.056083772 -0.044520933 -0.11785803 -0.0020094637 -0.034803197 -0.031231256 0.036358878
-0.09190415 -0.058804307 0.08896261 -0.056369197 -0.12578796 0.15864383 0.1940573 0.23434421
-0.025369031 0.06533851 -0.05571331 -0.079472885 0.13106273 -0.14538383 0.009893627 -0.148485
-0.098043956 -0.0952913 0.09435202 -0.017507186 0.028818348 0.07003607 -0.04537017 -0.06652956
0.13731442 -0.0044869916 0.07694783 -0.020760188 -0.14600052 0.042297706 0.08801611 0.08177242
0.06843163 -0.13037673 0.08955118 -0.01273987 0.048835784 -0.102889344 -0.018452493 -0.10946854
0.086903095 0.08021135 -0.03475924 0.03391994 -0.119055614 0.08941893 0.08156248 0.1071777
0.040219754 -0.15098424 0.090303026 0.01704257 0.20220913 -0.039205402 0.03556158 0.05358278
-0.1629067 0.119777866 -0.016569383 -0.030876847 0.029613333 -0.004941587 0.058829743 0.017158495
0.06249459 -0.06965711 0.13273679 0.11690585 0.0019084915 -0.07149732 0.035247594 -0.056205288
-0.09337414 -0.09334502 -0.12252086 0.0047451537 -0.050840076 0.07802148 0.012755026 -0.08947266
0.061011314 -0.0783568 0.20624791 -0.0031485504 -0.072692804 0.2625416 -0.03419445 -0.11663721

network_body._body_endoder.seq_layers.2.bias f4 [128]
00000000: 086c 49ba cf77 bab9 5275 e1ba f0ac 9139
00000010: 0000 0000 8dea 00ba 0969 e939 a389 63ba
00000020: ddec c439 861b 1bba 7f0b 9f38 0000 0000
00000030: 0000 0000 3782 39ba aa2e 06bb 8eba eaba
00000040: 4057 c839 064e a9a7 fb4f b139 30c5 2cbb
00000050: 0000 0000 0000 0000 0000 0000 64a4 06bb
00000060: 0000 0000 cc0c 68b3 2056 a5ba 0000 0000
00000070: 5776 e494 8fa2 6087 0000 0000 2c9c 18ba
00000080: 8866 82b9 ada1 31bb 433b f8b7 bb26 87ba
00000090: ea29 57ba 0000 0000 0000 0000 7b2a 0ebb
000000a0: 0000 0000 cb9d 0bba 0000 0000 239d 79ba
000000b0: 0000 0000 8041 14ba 0000 0000 7025 a9b9
000000c0: 5c9e 7aba 48e0 a138 0000 0000 5fe0 71b9
000000d0: c662 3f39 4afe 153a 3ea5 85ba 0000 0000
000000e0: 5769 6692 ccdd f7ba 7a36 38ba 0000 0000
000000f0: c234 218a 0000 0000 24a0 2f30 cb9d 2fba
00000100: 0000 0000 5c31 a6ba e8d1 0e39 db58 a738
00000110: 0000 0000 0000 0000 0000 0000 cdf5 d539
00000120: 9a77 2b20 bd5e 3fba 24f2 c3ba 9360 c0a7
00000130: cca0 b8b9 276b f339 a2a1 2694 0515 d5ba
00000140: 1458 8f30 4881 0dba 039b 8dba f166 2639
00000150: 5d2d 3dba 2f58 3eba 0000 0000 77f1 f9ba
00000160: 0000 0000 4a9b dcba 723e 9d39 7d1b 0aba
00000170: e47e 373a 9288 3538 0000 0000 4ea0 2fba
00000180: 8c42 9a39 0000 0000 96d4 419b 03da ed2f
00000190: f17e 2cba d993 f7b9 97b5 8a39 0597 473a
000001a0: 0000 0000 4bec a539 a387 a939 2667 49ba
000001b0: 496b 36ba ddcc 5bba 9050 808a 0000 0000
000001c0: 0eaa 130c b0fd db2b 7d44 5597 c55f 113a
000001d0: 99fc 2bba 5b87 0aba 856b bc13 0000 0000
000001e0: 0000 0000 626a aa39 9801 a4b9 7c4d 3309
000001f0: 2a55 20bb a8b4 a2ba 1483 94ba c3ac 51ba
-0.00076836394 -0.0003556595 -0.0017201102 0.00027785404 0.0 -0.0004917763 0.0004451948 -0.0008679872
0.0003756051 -0.0005916882 7.583852e-05 0.0 0.0 -0.00070765935 -0.0020474591 -0.0017908381
0.0003821198 -4.6991516e-15 0.0003381966 -0.002636265 0.0 0.0 0.0 -0.0020544762
0.0 -5.4028348e-08 -0.0012614168 0.0 -2.3068793e-26 -1.6899659e-34 0.0 -0.0005821611
-0.00024871924 -0.0027104423 -2.95915e-05 -0.0010311225 -0.0008207845 0.0 0.0 -0.00216928
0.0 -0.0005325942 0.0 -0.00095220114 0.0 -0.0005655512 0.0 -0.00032262085
-0.00095603405 7.718854e-05 0.0 -0.00023067136 0.00018251975 0.0005721791 -0.0010196341 0.0
-7.2705045e-28 -0.0018910705 -0.00070271606 0.0 -7.761791e-33 0.0 6.38922e-10 -0.0006699233
0.0 -0.0012679505 0.00013620371 7.979731e-05 0.0 0.0 0.0 0.00040809662
1.4523836e-19 -0.0007300189 -0.0014949483 -5.339541e-15 -0.00035215018 0.00046428406 -8.412735e-27 -0.0016256875
1.0429653e-09 -0.00053979876 -0.0010803643 0.00015869342 -0.00072165375 -0.0007261065 0.0 -0.0019069155
0.0 -0.0016830948 0.000299919 -0.00052683783 0.0006999804 4.3280954e-05 0.0 -0.00066996075
0.0002942275 0.0 -1.6033276e-22 4.3264956e-10 -0.0006580195 -0.00047221666 0.00026456706 0.0007613751
0.0 0.00031647304 0.0003233525 -0.0007682912 -0.0006958736 -0.0008384714 -1.2356256e-32 0.0
1.1375642e-31 1.5631298e-12 -6.8910456e-25 0.0005545582 -0.00065607723 -0.0005284452 4.7563895e-27 0.0
0.0 0.00032504188 -0.00031281705 2.1582774e-33 -0.0024464824 -0.0012413459 -0.0011330568 -0.0007998461

action_model._continuous_distribution.log_sigma f4 [1, 2]
00000000: 5bae c23d ffe2 f83c
0.09505912 0.030381678

action_model._continuous_distribution.mu.weight f4 [2, 128]
00000000: d4bd 3a3c a8dc c63c 114f b1ba e26c 173c
00000010: 2ff7 a4bc 7a7f c9bc 59df a5bc 240e 153c
00000020: 95a0 19bd f408 6fbc 21a9 d23c bfb5 0a3d
00000030: a40d 21bc 9068 5dbc b88e 913a dc31 abba
00000040: 65c5 a9bc dfd0 0c3d 7a1f c8bc 011e c93a
00000050: 6d28 a2bb 0bba 003d 8017 7a3c e01e b33b
00000060: cfb8 9abc 2744 103c 3a20 81bb 4d28 96bc
00000070: 5b98 b83a 69be c13b 65e8 50bc 6ba3 153d
00000080: 70dd 023c 41e6 8939 1c9d 6d3c 456b e9ba
00000090: f647 553c 1838 203c 9b67 8cbc 6532 293a
000000a0: 6f0e 12bd a383 213d 0fa8 213c 02b7 bdbb
000000b0: bb7d c63b 90f1 6cbc 3d41 97bc fbce f73b
000000c0: 3ae4 e13b 090f 103d ed11 2b3c 04ce 053c
000000d0: c12a 70bc 6bf3 bd3a d3e4 253c f3fc 1c3c
000000e0: 7d48 7dbb ec44 dcba 07b3 dbbb d222 5f3a
000000f0: c0f6 75bc dbbe a83c 935b 3abc 8fd9 6e3c
00000100: fb54 cabc b670 7ebb 218f 833c 2c52 bb3c
00000110: 9b6e 003d 939f bcbc cf67 fe3a 6470 78bc
00000120: 6841 04bd bb62 9d3c c415 5c3b e40c cc3b
00000130: 8ec5 e33b cdf5 b5bb 6592 69bb 7997 2f3d
00000140: 18c6 93bc 31c3 80bc deba a73b 2284 03bc
00000150: a5c6 843c 9094 0fbc dd38 9b3b a5f7 acba
00000160: 83dd cf39 f1fd 9c39 2fb7 dcbb 4641 a0bc
00000170: b25e fd3c 0c49 c03c 2d27 443c f780 9d3c
00000180: bf8b bfbc d55f 43bc a53b 51bc d45c a13c
00000190: 7c89 5bbc 7207 83bc ce81 883b 922e abbb
000001a0: a7c7 c03b acfb 66bc cba9 b6bc 1de2 373c
000001b0: 5121 02bc 555e 4a3c d0f3 29bc 3ae2 293c
000001c0: efa7 e3bb fcd7 8dbc 67e7 c5bb 759b 09bc
000001d0: 37c3 c23c e416 98bc d085 f439 01b8 c0bc
000001e0: 32f7 d4bc 004f a7bc 4a0b f43b 9696 b3bc
000001f0: 0e3d 583c d278 78bb 7378 d7bc fcd8 593c
00000200: 3657 92bb 6514 833b 2f43 bbbc ab03 b03c
00000210: 6d98 24bb 69a9 dabc 4955 16bc a091 52bc
00000220: 19ba ea3c 441d 98bc d1e9 b63b 4bf7 803c
00000230: 18fe 7d3c f36b 12bd dc37 65ba 8c5f cbbc
00000240: a57b ca3c adc0 5b3c 0418 a73c 3878 e33a
00000250: 7f2e 943c c888 e43c 8331 e53b 9edb 17bd
00000260: ca6e 783c 0faf e1bb cdab 05bb 33e9 8cbc
00000270: 1cc0 8b3b f2f6 84bc 6284 c73c f92a 05bd
00000280: 99e5 133b 9739 73bc 2218 ad3b f749 193b
00000290: b769 e3bc 5af3 ffbb 96be 3d3b 8be0 d7bc
000002a0: 075f d53c eea2 8dbc eeae a53a b303 bdbc
000002b0: eb27 873c be9e 1cbc dcc1 813c c889 a83c
000002c0: 9778 d9ba 7b1f 2bbb 421b 11bc 1654 7a3b
000002d0: 2dcf e83b 8c1b 893c 82be be3c 3f50 11bd
000002e0: c94b 85bc eb8b a83c 526c 733b cfc3 41bb
000002f0: a2fe 6fbc 367f 9dbc a803 9cbc 62dc 53bb
00000300: 0bac e33b 4db4 d0ba 805f 833c b88d 0d3c
00000310: 835f feba c980 a83c 4a45 4ebc 9272 c73c
00000320: 9862 293c f2d7 07bd 929f 9d36 df90 ffbb
00000330: c866 103b a466 933c 9ff3 2dbc ea2d 013c
00000340: 7dcc fbbc ffb5 1bbc e70b 82bc 1b34 163c
00000350: 3617 94bc 1b28 15bc fd6f 95bb d72b 18bc
00000360: 8251 f5bc 6ce9 adbc fc8d 253c d6e6 b0bc
00000370: 9764 1ebd bcba 473b a356 d7bc 9fac 96bc
00000380: 9fe8 6e3c 1341 0ebc 7355 893c 9350 2a3c
00000390: f23a e0bc 27cb 083a c6c1 793c 9718 ff3c
000003a0: d7d4 373c e60b 893c a367 963c 4a4f c1bb
000003b0: 41a7 103b 6380 e2bc 4582 5abc f23b dbbc
000003c0: 3d80 bf3b 7b63 58bc df62 cfbb 145c de3c
000003d0: 7d32 e7bc c702 9bbc dad3 fcb9 0d2c b43c
000003e0: b533 44bc 258e 973c 9518 b1ba 8a62 99bb
000003f0: ff45 adbc 3dca 36bb 447a bdbc 87c8 e4bc
0.011397798 0.024275139 -0.0013527592 0.009242268 -0.020137398 -0.024596918 -0.020248102 0.00909761
-0.03750666 -0.014589537 0.025715413 0.033864733 -0.009829912 -0.013513699 0.0011105156 -0.0013061124
-0.020724008 0.034378882 -0.024429072 0.0015344025 -0.004948667 0.031427424 0.015264392 0.005466327
-0.018886952 0.008805311 -0.0039406093 -0.018329764 0.0014083491 0.0059125912 -0.01275072 0.0365328
0.007987365 0.0002630223 0.01450279 -0.0017808458 0.013017645 0.009778999 -0.017139247 0.0006454348
-0.035658296 0.03943218 0.009866728 -0.0057896385 0.0060574687 -0.01446189 -0.018463725 0.007562516
0.006893662 0.03517059 0.010441286 0.008166794 -0.014658631 0.00144921 0.010125357 0.009581792
-0.0038647943 -0.0016805208 -0.0067046913 0.00085119635 -0.015012443 0.02059882 -0.011374372 0.014578237
-0.024698725 -0.0038824505 0.01605946 0.022866331 0.03135548 -0.02302531 0.00194096 -0.015163515
-0.03228894 0.019212117 0.003358231 0.0062271226 0.0069510406 -0.0055529834 -0.0035640236 0.042869065
-0.018038794 -0.015718075 0.005118712 -0.008027108 0.016208002 -0.008763447 0.0047370032 -0.0013196362
0.00039647156 0.0002994384 -0.0067357044 -0.019562375 0.030928943 0.023472331 0.011972231 0.019226534
-0.023382066 -0.011924704 -0.012770568 0.019697584 -0.013399478 -0.015994761 0.0041658645 -0.0052240575
0.0058831754 -0.014098089 -0.02229776 0.011223343 -0.007942514 0.012351592 -0.010373071 0.010368878
-0.0069475095 -0.017314903 -0.006039548 -0.00839888 0.023774726 -0.018565603 0.00046639005 -0.02352524
-0.025996778 -0.020423412 0.007447635 -0.02192239 0.01319815 -0.0037913811 -0.026302552 0.013296362
-0.0044659628 0.004000234 -0.022859184 0.021486124 -0.0025115267 -0.02669211 -0.009175607 -0.0128521025
0.028653191 -0.018568642 0.0055820723 0.015742918 0.015502475 -0.03574748 -0.00087439804 -0.024825834
0.024717161 0.013412637 0.020397194 0.0017354554 0.018088577 0.027897254 0.0069944276 -0.037074678
0.015163133 -0.0068873237 -0.002039659 -0.017201042 0.0042648446 -0.016231034 0.024355117 -0.032511685
0.002256727 -0.014845273 0.005282418 0.0023390034 -0.02776037 -0.007810992 0.002895271 -0.026352188
0.02604629 -0.017289605 0.0012640634 -0.023073053 0.016498527 -0.009559331 0.01583951 0.020573512
-0.0016591725 -0.0026111293 -0.008856596 0.0038197092 0.0071047754 0.016736768 0.0232842 -0.03547692
-0.016271489 0.02057453 0.0037143421 -0.0029566174 -0.014648112 -0.019225698 -0.019044712 -0.0032327403
0.0069479994 -0.0015922874 0.016036749 0.008639745 -0.0019407127 0.020569222 -0.012589762 0.024346624
0.010338448 -0.033164926 4.697541e-06 -0.0077992524 0.0022033919 0.017993279 -0.010617166 0.007884482
-0.030737156 -0.0095038405 -0.015874816 0.009167696 -0.018077474 -0.0091038 -0.004560469 -0.009287796
-0.029946093 -0.021229468 0.0101046525 -0.021594446 -0.03867015 0.0030476293 -0.026286429 -0.018392859
0.014581828 -0.008682507 0.016764378 0.010395187 -0.027371857 0.00052182603 0.015243953 0.031139655
0.011220179 0.016729306 0.018359965 -0.0058993446 0.0022072347 -0.02764911 -0.013336723 -0.026761983
0.0058441446 -0.013207312 -0.006328925 0.027143516 -0.028222317 -0.018922223 -0.00048223027 0.021993661
-0.011975219 0.018500397 -0.0013511354 -0.004680936 -0.02115154 -0.002789154 -0.02312959 -0.02792765

action_model._continuous_distribution.mu.bias f4 [2]
00000000: 94f1 5c39 5848 db3a
0.0002107083 0.0016729934

exp_avg f4 [128, 13]
00000000: 769f 2229 5452 94a1 08d8 0927 0000 0000
00000010: 0183 2caa 7ca6 a3aa 8235 09aa 2c1b 5caa
00000020: fdb0 f82a c0af eeaa 1566 ea2a 8a3d ca2a
00000030: 85ae 64a9 a614 ac39 b06c 80b4 249b f93a
00000040: 0000 0000 a929 90bc f0c1 08bd 9f52 65bc
00000050: 95ef b7bc dbd2 4f3d 8676 47bd 38e1 433d
00000060: 8e01 293d 321a bfbb 0000 0000 0000 0000
00000070: 0000 0000 0000 0000 0000 0000 0000 0000
00000080: 0000 0000 0000 0000 0000 0000 0000 0000
00000090: 0000 0000 0000 0000 0000 0000 7dd9 8cba
000000a0: 125b ceb3 387b 993a 0000 0000 f315 bdbb
000000b0: 7c5f 33bc 2e64 96bb b840 f1bb c84a 883c
000000c0: 25cf 82bc 9175 803c aaab 5d3c fba6 faba
000000d0: 0000 0000 0000 0000 0000 0000 0000 0000
000000e0: 0000 0000 0000 0000 0000 0000 0000 0000
000000f0: 0000 0000 0000 0000 0000 0000 0000 0000
00000100: 0000 0000 5aaf 0ebb 0852 9433 5805 f938
00000110: 0000 0000 2c5d fd3b 7559 703c 0384 c93b
00000120: e5a1 213c a69f b6bc d446 af3c c720 acbc
00000130: 4d83 94bc 08ee 273b 8416 523a fda7 24b3
00000140: c81f e338 0000 0000 81a8 7cbb 17ae efbb
00000150: 56f4 48bb a62e a1bb 721d 363c d2c9 2ebc
00000160: 08a6 2b3c 6819 143c 4676 a7ba 20cf d739
00000170: 8b43 9db3 6d3b 043a 0000 0000 6efd c5bb
00000180: ded1 3bbc 3079 9dbb 0e9d fcbb d2b5 8e3c
00000190: 12f8 88bc 2c82 863c f51b 683c 533a 03bb
000001a0: ce9c fe3a 0025 6c34 94a7 24bb 0000 0000
000001b0: 3add 683c 1ae7 dc3c 0536 393c fe8d 943c
000001c0: f8d8 27bd 5018 213d 7833 1ebd 257f 08bd
000001d0: b157 9a3b 0000 0000 0000 0000 0000 0000
000001e0: 0000 0000 0000 0000 0000 0000 0000 0000
000001f0: 0000 0000 0000 0000 0000 0000 0000 0000
00000200: 0000 0000 0000 0000 0000 0000 0000 0000
00000210: 0000 0000 0000 0000 0000 0000 0000 0000
00000220: 0000 0000 0000 0000 0000 0000 0000 0000
00000230: 0000 0000 0000 0000 0000 0000 0000 0000
00000240: 0000 0000 0000 0000 0000 0000 0000 0000
00000250: 0000 0000 0000 0000 0000 0000 0000 0000
00000260: 0000 0000 0000 0000 0000 0000 0000 0000
00000270: d882 10bb 081d beb3 9c3a bc3a 0000 0000
00000280: 5224 81bb 3204 f5bb ba6d 4dbb 5ac5 a4bb
00000290: 7c2b 3a3c 24ae 32bc 6678 2f3c 8565 173c
000002a0: ca30 abba 5776 c239 6e04 6333 1d3a 1bba
000002b0: 0000 0000 c47c 683b 928b dc3b 4ae9 383b
000002c0: 7250 943b 6a93 27bc 92d5 203c f2f1 1dbc
000002d0: 9846 08bc bb17 9a3a 0b74 ef39 f70b 2fb3
000002e0: 6dbf c639 0000 0000 0cfc 69bb 2cf7 ddbb
000002f0: 201a 3abb f844 95bb afa7 283c bcde 21bc
00000300: 54f6 1e3c 4427 093c cc15 9bba fceb 083a
00000310: 98ab 3bb4 7024 ad3a 0000 0000 f5f0 5dbc
00000320: 758a d2bc fa85 30bc 1f96 8dbc 68f9 1f3d
00000330: dc89 19bd c6c7 163d 1218 023d 4d1a 93bb
00000340: f48f c8b9 1a01 b2b3 22d6 5c3a 0000 0000
00000350: 2611 bcbb 1368 32bc c094 95bb f2f3 efbb
00000360: d08e 873c b81a 82bc ca88 7f3c ec79 5c3c
00000370: 3e4d f9ba f678 1ab9 b143 bab3 196b 463a
00000380: 0000 0000 e1a6 c7bb 7465 3dbc 92cb 9ebb
00000390: e0bb febb 7de8 8f3c 651e 8abc 37a3 873c
000003a0: b70e 6a3c 4f54 04bb 0000 0000 0000 0000
000003b0: 0000 0000 0000 0000 0000 0000 0000 0000
000003c0: 0000 0000 0000 0000 0000 0000 0000 0000
000003d0: 0000 0000 0000 0000 0000 0000 0000 0000
000003e0: 0000 0000 0000 0000 0000 0000 0000 0000
000003f0: 0000 0000 0000 0000 0000 0000 0000 0000
3.6109536e-14 -1.0050662e-18 1.912968e-15 0.0 -1.532212e-13 -2.9070138e-13 -1.2186609e-13 -1.9549352e-13
4.417646e-13 -4.2399244e-13 4.1637584e-13 3.592511e-13 -5.077754e-14 0.0003282178 -2.3920938e-07 0.0019043428
0.0 -0.01759799 -0.03338808 -0.013996749 -0.022453109 0.050738197 -0.048697017 0.047822207
0.04126125 -0.00583198 0.0 0.0 0.0 0.0 0.0 0.0
0.0 0.0 0.0 0.0 0.0 0.0 0.0 -0.0010745969
-9.609188e-08 0.0011709696 0.0 -0.005770439 -0.010948058 -0.004589579 -0.0073624514 0.016637221
-0.015967915 0.01568106 0.013529697 -0.001912325 0.0 0.0 0.0 0.0
0.0 0.0 0.0 0.0 0.0 0.0 0.0 0.0
0.0 -0.0021771998 6.9067084e-08 0.000118742406 0.0 0.007732054 0.014669766 0.00614977
0.009865259 -0.022292923 0.021396078 -0.021011723 -0.018129015 0.0025624055 0.00080142193 -3.833701e-08
0.00010830123 0.0 -0.0038552585 -0.0073144543 -0.0030663214 -0.004918891 0.011115419 -0.010668235
0.010476597 0.00903926 -0.0012776337 0.00041162316 -7.323168e-08 0.00050442555 0.0 -0.006042174
-0.01146361 -0.0048057064 -0.007709152 0.017420683 -0.016719852 0.016419493 0.014166822 -0.0020023778
0.0019425394 2.1992673e-07 -0.0025124298 0.0 0.014212901 0.026965667 0.011304383 0.018134113
-0.040978402 0.039329827 -0.038623303 -0.03332438 0.0047101607 0.0 0.0 0.0
0.0 0.0 0.0 0.0 0.0 0.0 0.0 0.0
0.0 0.0 0.0 0.0 0.0 0.0 0.0 0.0
0.0 0.0 0.0 0.0 0.0 0.0 0.0 0.0
0.0 0.0 0.0 0.0 0.0 0.0 0.0 0.0
0.0 0.0 0.0 0.0 -0.0022050645 -8.852845e-08 0.0014360729 0.0
-0.0039410973 -0.0074773068 -0.003134592 -0.005028409 0.011362907 -0.010905776 0.010709858 0.009240513
-0.0013060805 0.00037090734 5.2856585e-08 -0.00059214403 0.0 0.0035474757 0.0067305053 0.0028215223
0.0045261914 -0.010228017 0.009816544 -0.009640204 -0.008317612 0.001175634 0.0004567209 -4.0756245e-08
0.00037908126 0.0 -0.003570321 -0.00677385 -0.002839692 -0.004555341 0.010293885 -0.009879764
0.009702284 0.008371178 -0.0011832057 0.00052231527 -1.7478158e-07 0.0013209712 0.0 -0.013546218
-0.025700787 -0.01077413 -0.017283497 0.03905621 -0.03748499 0.036811613 0.031761236 -0.0044892193
-0.00038254226 -8.288971e-08 0.0008424242 0.0 -0.005739349 -0.010889071 -0.0045648515 -0.0073227817
0.01654759 -0.015881881 0.015596578 0.013456803 -0.0019020212 -0.00014731646 -8.673613e-08 0.00075690594
0.0 -0.0060928916 -0.011559833 -0.004846045 -0.0077738613 0.017566914 -0.016860196 0.01655732
0.014285735 -0.0020191853 0.0 0.0 0.0 0.0 0.0 0.0
0.0 0.0 0.0 0.0 0.0 0.0 0.0 0.0
0.0 0.0 0.0 0.0 0.0 0.0 0.0 0.0

exp_avg_sq f4 [128, 13]
00000000: 6a2c 9415 856c 6706 f820 c610 0000 0000
00000010: 1255 b017 abae 9e18 6018 5f17 8386 0f18
00000020: bb39 3719 9fc7 2819 41c5 2219 d657 f218
00000030: 5eed 1a16 5b6a 3239 b840 e82b 5cfc cc38
00000040: 0000 0000 f813 b93c 678d a63d ec28 6a3c
00000050: d7a4 163d 1550 403e 8d26 313e ccd7 2a3e
00000060: bb5c fe3d 619c 223b 0000 0000 0000 0000
00000070: 0000 0000 0000 0000 0000 0000 0000 0000
00000080: 0000 0000 0000 0000 0000 0000 0000 0000
00000090: 0000 0000 0000 0000 0000 0000 894f 1c38
000000a0: 39fc e52a 791b c637 0000 0000 80d8 bf3b
000000b0: 98a4 ac3c 07b9 723b 1427 1c3c 7358 473d
000000c0: 03a1 373d 3817 313d f9d4 033d b58e 283a
000000d0: 0000 0000 0000 0000 0000 0000 0000 0000
000000e0: 0000 0000 0000 0000 0000 0000 0000 0000
000000f0: 0000 0000 0000 0000 0000 0000 0000 0000
00000100: 0000 0000 8c15 9638 e354 a02b f5a2 5b38
00000110: 0000 0000 f794 883c 47d2 753d 93cd 2c3c
00000120: 6557 de3c d8eb 0d3e 68bb 023e 8227 fc3d
00000130: 46b6 bb3d 1a01 f03a 19c7 1d37 ee8d 382a
00000140: 5be5 ef36 0000 0000 4bcc 223b ab80 123c
00000150: aaf8 cd3a 5a82 843b 7329 a93c 41d3 9b3c
00000160: d146 963c f4bd 5f3c 1709 8f39 11f8 2937
00000170: abad 272a 8f60 d436 0000 0000 aa76 133b
00000180: 0bb4 043c 1b92 ba3a 420e 703b 7b3a 993c
00000190: d625 8d3c 441f 883c d2aa 4a3c 2c90 8139
000001a0: d90b 2c39 c52b db2b b9a2 cd38 0000 0000
000001b0: 0593 af3c 0800 9e3d d922 5e3c 98e8 0e3d
000001c0: 1e70 363e fa0d 283e 1412 223e 184d f13d
000001d0: ee42 1a3b 0000 0000 0000 0000 0000 0000
000001e0: 0000 0000 0000 0000 0000 0000 0000 0000
000001f0: 0000 0000 0000 0000 0000 0000 0000 0000
00000200: 0000 0000 0000 0000 0000 0000 0000 0000
00000210: 0000 0000 0000 0000 0000 0000 0000 0000
00000220: 0000 0000 0000 0000 0000 0000 0000 0000
00000230: 0000 0000 0000 0000 0000 0000 0000 0000
00000240: 0000 0000 0000 0000 0000 0000 0000 0000
00000250: 0000 0000 0000 0000 0000 0000 0000 0000
00000260: 0000 0000 0000 0000 0000 0000 0000 0000
00000270: b418 b138 2c98 9c2b d6db 7438 0000 0000
00000280: 5ff1 853c 5112 713d d476 293c a50b da3c
00000290: db2d 0b3e bf34 003e 3348 f73d ac15 b83d
000002a0: e15d eb3a a5f6 5937 0345 4329 c0df 9436
000002b0: 0000 0000 20ec fe39 f167 e53a 8443 a139
000002c0: 6d7e 4f3a b171 843b 0601 743b ea50 6b3b
000002d0: 472d 2f3b 2cfa 5f38 9e4c 9237 831c 142a
000002e0: fda5 3137 0000 0000 89b7 c03a 496d ad3b
000002f0: 34d3 733a a6dc 1c3b 3740 483c 8076 383c
00000300: 07e5 313c 466e 043c 9f52 2939 8229 8f38
00000310: 121d 6c2b fce6 3638 0000 0000 9238 443c
00000320: 9094 303d 0f42 f83b c5b6 9f3c 3fe4 cb3d
00000330: 17d1 bb3d 1221 b53d b5d6 863d bd66 ac3a
00000340: 9d52 9c37 d8bd 632a a560 3e37 0000 0000
00000350: ae63 3b3b e8a1 283c 8715 ed3a 6f86 983b
00000360: 00b7 c23c f35c b33c 16fa ac3c fec4 803c
00000370: 49a4 a439 3a0e 9a37 7ff4 4c2a 86c0 2937
00000380: 0000 0000 be92 2a3b e97f 193c 07cf d73a
00000390: 7ed6 8a3b c73d b13c 6744 a33c 4474 9d3c
000003a0: 876d 6a3c f6dd 9539 0000 0000 0000 0000
000003b0: 0000 0000 0000 0000 0000 0000 0000 0000
000003c0: 0000 0000 0000 0000 0000 0000 0000 0000
000003d0: 0000 0000 0000 0000 0000 0000 0000 0000
000003e0: 0000 0000 0000 0000 0000 0000 0000 0000
000003f0: 0000 0000 0000 0000 0000 0000 0000 0000
5.98468e-26 4.3526e-35 7.8148026e-29 0.0 1.1395208e-24 4.1018412e-24 7.208595e-25 1.8550228e-24
9.472537e-24 8.7257096e-24 8.415039e-24 6.2644225e-24 1.2514921e-25 0.00017015023 1.6502555e-12 9.7744836e-05
0.0 0.02259253 0.08132439 0.014291983 0.036778297 0.18780549 0.17299862 0.16683882
0.12420031 0.0024812447 0.0 0.0 0.0 0.0 0.0 0.0
0.0 0.0 0.0 0.0 0.0 0.0 0.0 3.726737e-05
4.0853586e-13 2.3616232e-05 0.0 0.0058546662 0.021074578 0.0037036554 0.009530801 0.048668336
0.044831287 0.043235034 0.03218553 0.00064299564 0.0 0.0 0.0 0.0
0.0 0.0 0.0 0.0 0.0 0.0 0.0 0.0
0.0 7.156571e-05 1.1392245e-12 5.2365434e-05 0.0 0.016672594 0.06001499 0.01054706
0.027141282 0.13859499 0.12766802 0.12312223 0.09165625 0.0018310875 9.404285e-06 1.6391725e-13
7.1494555e-06 0.0 0.0024841006 0.00894181 0.0015714366 0.0040438594 0.020649647 0.019021632
0.018344315 0.013656128 0.00027281858 1.0130942e-05 1.4892833e-13 6.3293332e-06 0.0 0.002250115
0.008099566 0.0014234217 0.0036629592 0.018704643 0.017229956 0.016616471 0.012369828 0.00024712214
0.00016407612 1.5573034e-12 9.805471e-05 0.0 0.021432409 0.0771485 0.013558113 0.034889787
0.17816207 0.16411582 0.15827209 0.117822826 0.0023538428 0.0 0.0 0.0
0.0 0.0 0.0 0.0 0.0 0.0 0.0 0.0
0.0 0.0 0.0 0.0 0.0 0.0 0.0 0.0
0.0 0.0 0.0 0.0 0.0 0.0 0.0 0.0
0.0 0.0 0.0 0.0 0.0 0.0 0.0 0.0
0.0 0.0 0.0 0.0 8.444619e-05 1.1126703e-12 5.837887e-05 0.0
0.016350446 0.05885536 0.010343272 0.02661688 0.13591711 0.12520121 0.12074318 0.089885086
0.0017957055 1.2991634e-05 4.3358556e-14 4.4367916e-06 0.0 0.00048622582 0.001750229 0.00030758616
0.0007915262 0.0040418734 0.0037232055 0.0035906383 0.0026729868 5.3400334e-05 1.7440234e-05 1.3154933e-13
1.0588669e-05 0.0 0.0014703135 0.005292569 0.0009301186 0.0023935228 0.012222341 0.011258721
0.010857827 0.008082932 0.00016147875 6.826503e-05 8.3884386e-13 4.3607302e-05 0.0 0.011976378
0.04311043 0.007576234 0.019496331 0.09955644 0.0917074 0.08844198 0.06583921 0.0013153177
1.8635119e-05 2.0227515e-13 1.1347384e-05 0.0 0.002859335 0.010292508 0.0018088081 0.0046546976
0.023768902 0.021894908 0.021115344 0.015718933 0.0003140292 1.8364855e-05 1.8203666e-13 1.011801e-05
0.0 0.0026027407 0.009368875 0.0016464897 0.0042369952 0.021635903 0.019930078 0.019220479
0.01430834 0.00028584868 0.0 0.0 0.0 0.0 0.0 0.0
0.0 0.0 0.0 0.0 0.0 0.0 0.0 0.0
0.0 0.0 0.0 0.0 0.0 0.0 0.0 0.0

exp_avg f4 [128]
00000000: 05f2 b6a6 bfe1 18b9 0000 0000 9685 48b8
00000010: 0000 0000 0258 8638 38f8 05b8 e8f6 51b8
00000020: b2f2 f638 0000 0000 0000 0000 0000 0000
00000030: d8f3 08b8 5e8c f637 d922 f8b7 4d5d ebb8
00000040: 0271 47b8 16ba 53b8 0000 0000 0000 0000
00000050: 0cb8 e738 ba39 dfb8 f98c efb8 b0b0 6536
00000060: ec49 1837 e8b8 5cb8 d5d3 939d af69 9413
00000070: 9c8b 3200 6570 9b37 0000 0000 0000 0000
00000080: 8c5f ee37 0000 0000 5df6 6f38 9839 ec38
00000090: adfb 69b8 7695 2f2c 0000 0000 5692 a338
000000a0: 7080 5592 9e52 5fb8 c2a7 0238 0000 0000
000000b0: 3fbf 2634 f462 96b7 0000 0000 ecf5 b338
000000c0: 322b ffb6 0000 0000 60d7 b5b8 fb59 93b8
000000d0: 1448 f7b7 0000 0000 0000 0000 0000 0000
000000e0: 0000 0000 7867 2bb9 0000 0000 9d89 9805
000000f0: cd42 74b8 febf a838 d66c 2338 18df 8d38
00000100: 0000 0000 f73c c7b8 0000 0000 30dc c338
00000110: 3024 9236 0000 0000 de7e 75b8 0000 0000
00000120: 0825 3838 3f7f eeb8 2a66 6e38 0000 0000
00000130: 0000 0000 d43a e737 32f3 1d38 0000 0000
00000140: cee0 29b8 0000 0000 6cab 6a38 50b9 d338
00000150: 0000 0000 1d36 0080 010e 119d 38c9 9920
00000160: 0000 0000 09d4 9280 0000 0000 4a41 031a
00000170: 0000 0000 0000 0000 d014 f938 0000 0000
00000180: 0000 0000 151b 0000 0000 0000 e4f4 c5b8
00000190: 7489 87b7 0000 0000 878f 0513 0000 0000
000001a0: f4c8 d738 785a f614 80a5 0335 0000 0000
000001b0: e088 a236 0000 0000 b2ce c838 0000 0000
000001c0: 0000 0000 94e3 b1a3 0000 0000 5c35 c2b8
000001d0: 8fb4 a138 0000 0000 5d00 9412 0000 0000
000001e0: 6b28 0000 2081 1ab6 0000 0000 5ea6 3b38
000001f0: 14bf 0080 1ede 56b8 9741 24b8 8ac4 1c31
-1.2694386e-15 -0.00014579947 0.0 -4.7808127e-05 0.0 6.406011e-05 -3.1940843e-05 -5.0059432e-05
0.000117753996 0.0 0.0 0.0 -3.2652024e-05 2.9390849e-05 -2.9580131e-05 -0.00011223052
-4.7550544e-05 -5.0479626e-05 0.0 0.0 0.0001104922 -0.00010644221 -0.00011422666 3.4226505e-06
9.077117e-06 -5.2624295e-05 -3.9129605e-21 3.7464665e-27 4.641857e-39 1.8529778e-05 0.0 0.0
2.8416303e-05 0.0 5.7211484e-05 0.000112640846 -5.578592e-05 2.4951963e-12 0.0 7.799703e-05
-6.736926e-28 -5.3244286e-05 3.1150652e-05 0.0 1.552953e-07 -1.7927472e-05 0.0 8.581192e-05
-7.604621e-06 0.0 -8.670869e-05 -7.0262664e-05 -2.9478259e-05 0.0 0.0 0.0
0.0 -0.00016346376 0.0 1.4344562e-35 -5.8236346e-05 8.0466256e-05 3.896359e-05 6.7649584e-05
0.0 -9.500415e-05 0.0 9.339338e-05 4.355352e-06 0.0 -5.8530706e-05 0.0
4.3903507e-05 -0.00011372426 5.683877e-05 0.0 0.0 2.756474e-05 3.765821e-05 0.0
-4.0502106e-05 0.0 5.5949597e-05 0.00010095781 0.0 -1.9412e-41 -1.919783e-21 2.6052364e-19
0.0 -1.3484046e-38 0.0 2.7142905e-23 0.0 0.0 0.00011877122 0.0
0.0 9.715e-42 0.0 -9.4393065e-05 -1.615726e-05 0.0 1.6857725e-27 0.0
0.00010289429 2.4875336e-26 4.9042137e-07 0.0 4.8439106e-06 0.0 9.575243e-05 0.0
0.0 -1.9286762e-17 0.0 -9.26058e-05 7.71071e-05 0.0 9.340203e-28 0.0
1.4499e-41 -2.302295e-06 0.0 4.4739216e-05 -6.8546e-41 -5.122844e-05 -3.9161732e-05 2.2812707e-09

exp_avg_sq f4 [128]
00000000: 814e c610 6b24 d035 0000 0000 dcc0 d734
00000010: 0000 0000 439a 9935 f415 3734 2dd7 2534
00000020: 5574 c535 0000 0000 0000 0000 0000 0000
00000030: 81a2 9635 7b58 0f33 c8bb d833 90ac 5c35
00000040: d0bd 5234 71d4 3f34 0000 0000 0000 0000
00000050: 28db 1036 caf8 8e35 00f1 7d36 6769 aa2e
00000060: 145e b533 3ac2 6434 7f45 0300 0000 0000
00000070: 0000 0000 58c3 d034 0000 0000 0000 0000
00000080: 9bc3 4333 0000 0000 2451 4b35 1ffe 5035
00000090: 1c50 b334 0790 8a1c 0000 0000 9811 d234
000000a0: 0000 0000 b0c2 fa34 49ae 0236 0000 0000
000000b0: 4824 202d 4b99 8435 0000 0000 c04e 2435
000000c0: 2407 7931 0000 0000 517b a336 b6c9 0236
000000d0: 0ca6 1535 0000 0000 0000 0000 0000 0000
000000e0: 0000 0000 dbce db35 0000 0000 0000 0000
000000f0: 415b 6435 fed5 8135 a865 ec34 06ff 3a35
00000100: 0000 0000 0560 6135 0000 0000 3d2b 2735
00000110: 4348 6f35 0000 0000 f7b3 8c34 0000 0000
00000120: b443 2c35 38bf 1436 a2f4 6435 0000 0000
00000130: 0000 0000 fdc9 8934 01e7 da35 0000 0000
00000140: 69c0 dd35 0000 0000 5f8a ba34 2b45 5135
00000150: 0000 0000 0000 0000 9d74 1200 9300 8b04
00000160: 0000 0000 0000 0000 0000 0000 2800 0000
00000170: 0000 0000 0000 0000 a8c0 7f35 0000 0000
00000180: 0000 0000 0000 0000 0000 0000 4d3f 5435
00000190: e9d5 8535 0000 0000 0000 0000 0000 0000
000001a0: af53 9b35 0000 0000 c5f3 3135 0000 0000
000001b0: a34b bc35 0000 0000 6f91 0b35 0000 0000
000001c0: 0000 0000 3a26 4d0b 0000 0000 5af9 dc35
000001d0: f933 b535 0000 0000 0000 0000 0000 0000
000001e0: 0000 0000 d5bb 1735 0000 0000 ffde 3636
000001f0: 0000 0000 8a20 8834 acdb 3d35 7080 8d28
7.8218184e-29 1.5507807e-06 0.0 4.0187194e-07 0.0 1.1444284e-06 1.705119e-07 1.5445103e-07
1.4711501e-06 0.0 0.0 0.0 1.1223166e-06 3.3375255e-08 1.0092441e-07 8.22075e-07
1.9626827e-07 1.7865547e-07 0.0 0.0 2.1585238e-06 1.0652232e-06 3.7840218e-06 7.749428e-11
8.445582e-08 2.1304814e-07 3.00437e-40 0.0 0.0 3.888515e-07 0.0 0.0
4.5579878e-08 0.0 7.574147e-07 7.7855833e-07 3.3399635e-07 9.169304e-22 0.0 3.912835e-07
0.0 4.6707783e-07 1.9472957e-06 0.0 9.103003e-12 9.87938e-07 0.0 6.120936e-07
3.6238328e-09 0.0 4.8721345e-06 1.948892e-06 5.5748455e-07 0.0 0.0 0.0
0.0 1.6376974e-06 0.0 0.0 8.506941e-07 9.673529e-07 4.403239e-07 6.966151e-07
0.0 8.395876e-07 0.0 6.227527e-07 8.913959e-07 0.0 2.6207974e-07 0.0
6.4173514e-07 2.2165023e-06 8.5292606e-07 0.0 0.0 2.5665204e-07 1.6309497e-06 0.0
1.6521782e-06 0.0 3.4745878e-07 7.795922e-07 0.0 0.0 1.694872e-39 3.267927e-36
0.0 0.0 0.0 5.6e-44 0.0 0.0 9.5275254e-07 0.0
0.0 0.0 0.0 7.906827e-07 9.971528e-07 0.0 0.0 0.0
1.1572755e-06 0.0 6.629237e-07 0.0 1.4029105e-06 0.0 5.199317e-07 0.0
0.0 3.9510322e-32 0.0 1.6463848e-06 1.3500677e-06 0.0 0.0 0.0
0.0 5.6525215e-07 0.0 2.7249914e-06 0.0 2.535565e-07 7.072765e-07 1.5709846e-14

exp_avg f4 [128, 128]
00000000: e8f6 caa4 658f f53b 0000 0000 5154 843c
00000010: 0000 0000 6bb4 8d3b 3777 2e3c 7ea9 723c
00000020: 25d4 d43b 0000 0000 0000 0000 0000 0000
00000030: 792a c83b 622c 513c 0fed 1c39 2997 b33c
00000040: 9f10 ba3b b643 4a3b 0000 0000 0000 0000
00000050: c892 0e3b 6adf e939 514b e33b db06 1bb6
00000060: 9683 093b 8e9d 4e3b b4d9 851d 0a47 0492
00000070: 30b9 1300 380a 033c 0000 0000 0000 0000
00000080: 0306 123b 0000 0000 ca64 473c aa91 4f3c
00000090: f60a 163b 0047 a12a 0000 0000 6c0b 3e3c
000000a0: b815 d991 2e84 093b 1d88 5d3c 0000 0000
000000b0: cddd a8b2 32f5 0e3b 0000 0000 daa0 2a3c
000000c0: 26fe a938 0000 0000 fec6 a83b 6da1 8d39
000000d0: 331e 0e3c 0000 0000 0000 0000 0000 0000
000000e0: 0000 0000 db76 a53c 0000 0000 ee96 f705
000000f0: e4fd d03c 84e8 5e3b 2765 9b3c 1253 723b
00000100: 0000 0000 08bb 663c 0000 0000 2a1d a73a
00000110: 884c 363c 0000 0000 2ca4 833b 0000 0000
00000120: bec8 2c3c 44b8 0e3c 3b18 a63b 0000 0000
00000130: 0000 0000 3c30 253a 2fbd 413c 0000 0000
00000140: cfde d33b 0000 0000 0e9d 723c 3a92 2539
00000150: 0000 0000 c120 0080 d3f1 0a9c 666b a220
00000160: 0000 0000 0abe 0481 0000 0000 7d31 6e9a
00000170: 0000 0000 0000 0000 bcc1 973a 0000 0000
00000180: 0000 0000 7508 0080 0000 0000 da0d d23b
00000190: 4345 813b 0000 0000 e7e4 cf12 0000 0000
000001a0: 23d0 643b 3c0a c614 a6de 133c 0000 0000
000001b0: b3f5 933b 0000 0000 57fc 5a3c 0000 0000
000001c0: 0000 0000 3cbd 3823 0000 0000 4006 9d3b
000001d0: 9137 343a 0000 0000 5c11 b98f 0000 0000
000001e0: 8211 0000 c5e0 143b 0000 0000 1813 ba3a
000001f0: f187 0000 55ad 493b 8c64 be3b bea9 4db2
00000200: e926 99a4 3daf 893c 0000 0000 2a9f 143d
00000210: 0000 0000 822b 1f3c 99e3 c33c 2168 083d
00000220: f922 6f3c 0000 0000 0000 0000 0000 0000
00000230: 63d4 603c b4b0 ea3c 74ab d539 9cb6 493d
00000240: 09ad 503c 48a5 e33b 0000 0000 0000 0000
00000250: 0250 a03b 7786 863a 7af5 7e3c 6288 aeb6
00000260: e4b0 9a3b 4d36 e83b 63a5 9f1d 611c cf91
00000270: 4b8a 1500 8c00 933c 0000 0000 0000 0000
00000280: 0668 a33b 0000 0000 6cfb df3c d007 e93c
00000290: e17e a93b 74fe 86ac 0000 0000 aa8e d53c
000002a0: 8a8a c592 2722 9b3b 18a9 f83c 0000 0000
000002b0: 845e 8eae 965f 9f3b 0000 0000 e990 bf3c
000002c0: 1fa3 da38 0000 0000 fac9 3d3c 66d7 263a
000002d0: 5b81 9f3c 0000 0000 0000 0000 0000 0000
000002e0: 0000 0000 7dd2 393d 0000 0000 e25a 0706
000002f0: 2fa5 6a3d b787 fa3b c188 2e3d 5e10 083c
00000300: 0000 0000 b48f 013d 0000 0000 681e 3c3b
00000310: 2bb2 cc3c 0000 0000 f851 133c 0000 0000
00000320: c7f2 c13c c36a a03c ee92 3a3c 0000 0000
00000330: 0000 0000 229c b93a 876d d93c 0000 0000
00000340: 7af9 6d3c 0000 0000 e138 083d da7c bb39
00000350: 0000 0000 0500 0000 b115 b516 536f 8b20
00000360: 0000 0000 6406 0180 0000 0000 f2f4 f69a
00000370: 0000 0000 0000 0000 78ba 2b3b 0000 0000
00000380: 0000 0000 0400 0000 0000 0000 6aea 6b3c
00000390: 4ab4 103c 0000 0000 3d8a e812 0000 0000
000003a0: ae71 003c aa5e b714 588a a53c 0000 0000
000003b0: 8cb4 253c 0000 0000 96e4 f53c 0000 0000
000003c0: 0000 0000 fdf9 25a3 0000 0000 0617 303c
000003d0: e2c7 cc3a 0000 0000 77c7 3a0c 0000 0000
000003e0: cf1d 0080 2665 a63b 0000 0000 9a9b 523b
000003f0: 2f9b 0000 e6c8 e23b 669f 553c ebf9 3cb3
-8.802181e-17 0.0074939006 0.0 0.016153486 0.0 0.004324486 0.01064854 0.014810918
0.006495016 0.0 0.0 0.0 0.0061085788 0.012766929 0.0001496563 0.021922665
0.005678251 0.0030863113 0.0 0.0 0.002175497 0.0004460768 0.0069364686 -2.310079e-06
0.0020982972 0.0031527015 3.5429907e-21 -4.173942e-28 1.811307e-39 0.007998042 0.0 0.0
0.0022281415 0.0 0.012170026 0.012669006 0.0022894717 2.864861e-13 0.0 0.011599403
-3.4249948e-28 0.0020983326 0.0135212215 0.0 -1.9658637e-08 0.0021813628 0.0 0.010414327
8.105887e-05 0.0 0.005150675 0.00027013887 0.008674192 0.0 0.0 0.0
0.0 0.020198276 0.0 2.3283211e-35 0.02551169 0.0034013102 0.018969132 0.0036975783
0.0 0.014082678 0.0 0.001274978 0.011126645 0.0 0.0040173735 0.0
0.010545908 0.008710925 0.0050688065 0.0 0.0 0.0006301438 0.01182489 0.0
0.00646577 0.0 0.014807953 0.000157901 0.0 -1.175e-41 -4.597292e-22 2.7514938e-19
0.0 -2.4380917e-38 0.0 -4.9257223e-23 0.0 0.0 0.0011578123 0.0
0.0 -3.034e-42 0.0 0.0064103426 0.003945024 0.0 1.3119965e-27 0.0
0.0034914098 1.9996928e-26 0.0090252515 0.0 0.0045153736 0.0 0.013365827 0.0
0.0 1.0014732e-17 0.0 0.004792005 0.0006874735 0.0 -1.8249095e-29 0.0
6.28e-42 0.002271698 0.0 0.0014196364 4.8767e-41 0.003077348 0.005810326 -1.1971165e-08
-6.641909e-17 0.016807193 0.0 0.036284603 0.0 0.009714963 0.023912238 0.03330243
0.0145957405 0.0 0.0 0.0 0.013722512 0.028648712 0.00040754268 0.049246415
0.012736567 0.0069471933 0.0 0.0 0.00489235 0.0010263462 0.015561456 -5.201481e-06
0.004720794 0.0070865513 4.2257955e-21 -3.2676331e-28 1.978156e-39 0.017944597 0.0 0.0
0.004986766 0.0 0.027341567 0.028446108 0.005172596 -3.836759e-12 0.0 0.026069004
-1.24666e-27 0.004734296 0.030354068 0.0 -6.474202e-11 0.0048636897 0.0 0.023384528
0.00010425434 0.0 0.0115837995 0.00063644943 0.019470861 0.0 0.0 0.0
0.0 0.045366753 0.0 2.5457448e-35 0.057286438 0.007645573 0.042610887 0.0083046835
0.0 0.031631187 0.0 0.0028704647 0.0249873 0.0 0.008991711 0.0
0.023675336 0.019582158 0.01138757 0.0 0.0 0.0014160911 0.026541485 0.0
0.014524812 0.0 0.03325737 0.0003576044 0.0 7e-45 2.9255816e-25 2.3621184e-19
0.0 -9.4128e-41 0.0 -1.02138946e-22 0.0 0.0 0.0026203673 0.0
0.0 6e-45 0.0 0.01439915 0.008832047 0.0 1.4675337e-27 0.0
0.007839603 1.8515616e-26 0.020207569 0.0 0.0101138465 0.0 0.030016225 0.0
0.0 -8.997605e-18 0.0 0.010747677 0.0015623535 0.0 1.4388943e-31 0.0
-1.0693e-41 0.005077976 0.0 0.0032136203 5.567e-41 0.0069209216 0.013038492 -4.399946e-08
