results/Run2/My Behaviour.onnx (onnx, 71103 bytes, 7 tensors)

action_model._continuous_distribution.log_sigma f4 [1, 2]
00000000: 1e30 813b 9da0 d1ba
0.0039425036 -0.0015993301

action_model._continuous_distribution.mu.bias f4 [2]
00000000: 0b6c ff39 b566 8dbb
0.00048717888 -0.004315222

action_model._continuous_distribution.mu.weight f4 [2, 128]
00000000: 8ec6 1dbd 6031 363c ed03 e73b 3a31 683c
00000010: 7168 d0bc 70f2 a03c 8be9 fcbc f40e 353c
00000020: 4d67 90bc 6ebc 523c 4efd 883a 1b94 b8bc
00000030: 322c 9a3a ca1d 87bc 25fa 833b 4ecf e6bb
00000040: e4a1 e03b 928d a4bc efe8 d13c 61d3 bd3b
00000050: 327f d1bc 1b84 afbc 3806 f7bc d283 833b
00000060: 3756 583c 378b ed3b ad26 8f3a 7b2a a9bc
00000070: b90f 77bc 5f89 0cbd c775 423c 2eca c5bb
00000080: 10e8 bdbc 00de fe3b a73f 82b7 4eea 7dbc
00000090: 21a0 9d3c 86b7 613c 5f68 353c 889e dc3c
000000a0: d61e 303c 3472 463c 3a0d 41bc f603 e139
000000b0: 9d00 dfbb b944 9f3c 39f3 59bc ebca 71bc
000000c0: 2076 bc39 6005 ad3c cb0c d73c 223f 0cbc
000000d0: 2b05 b83c 8e34 8f3b 958e 3dbd a23c 2ebb
000000e0: 415a 553c df4a d63b fb6d bd3c cf6d 043c
000000f0: 8518 1e3c aab8 653c f607 0abc 19eb cbbb
00000100: 9df4 bc3c fe19 6b3c 8f1e d0bc 1ebf d7bc
00000110: dd61 513b c0e7 153c 0bf0 953b 0de2 80bc
00000120: 3e4e 05bc fa65 243c fdac 4f3c 0974 32ba
00000130: eb54 68bc 32bc f13b 5a07 eabc 565d 143c
00000140: 4033 8fbc 2830 7cbb f646 51bc 6c37 81bb
00000150: 424c 13bc c37d b83c 8522 db3c 20bc 513b
00000160: 455a 803c 3019 733b 4381 a33b 1e91 403c
00000170: ef11 6ebc fa11 8a3c a6d6 1aba 0c6d 86bb
00000180: 5aa7 1f3c 4d75 ce3b 8d51 8bbb 2079 4b3c
00000190: 1693 563b 0901 36bd 631c c1bc a6d0 273a
000001a0: 42f1 f13c 16a3 edbb 6974 41bc 2f56 1abd
000001b0: 47a6 09bc 3c4f 21bb 876a 3dbb 6a9d a13a
000001c0: 16fe 983c c1bd 79bc 9f65 a7bc f1e6 e4bc
000001d0: 63bb 483c b2de f3bc aed1 343c 0d55 43bc
000001e0: 6839 873c 529b cbbc 7c73 9cbc 29b8 50bc
000001f0: 943d 833c 238c 263c 4623 84bc d257 92bc
00000200: 35fc c2bb 4c7c 71bd 0ed9 c23c ed8d fabc
00000210: 513c d3bc e0bf 04bd 5d6d 2f3b 44ae 29bc
00000220: 3b4c bfbc 3c2f 97ba 01ad 43bc 04d4 08bc
00000230: 2809 8bbc ad5a bb3c a883 be3b 43ad c4bc
00000240: 1ad5 883b b9f6 f4bc c364 ec3b fde4 473c
00000250: ddad 203d 48dd 5f3c 964e 97bc 71de 60ba
00000260: 655e 83bc ab36 d9bc 7759 53bb b431 0cbc
00000270: d4a1 503c 4155 603c c249 d13c 92b5 78bc
00000280: 718f e73c 2ebf ab3c f5e9 dd3a 748f b23b
00000290: d14d c5bc 6c39 f0ba 79d1 48bc 5a86 7e3c
000002a0: 91c3 6e3d dc3a 8d3c a782 913c 2d9e b7ba
000002b0: 7369 9a3c d092 96bc 0050 10bd b171 0a3d
000002c0: 451f cabb 0460 2a3c 85b3 35bc e843 93bc
000002d0: f779 c73c 16eb 7539 f4f7 3eb9 0125 c9bb
000002e0: 5bd0 21bd 2a59 ef3c ae18 31bd 7abb 693b
000002f0: a685 08bd 23fe 8a3a e710 5c3c d479 6f3c
00000300: aaa5 223c 5f0c dd39 555e bf3c 6b63 9ebc
00000310: d1c2 0c3c b24d 91bb 4d6d 153c 79b5 e3bc
00000320: 5ece d43c 971d 243d 2ad3 943b f0cb 2039
00000330: 4fd0 febc 2115 cb3a de13 80ba 0e59 7ebc
00000340: 7288 56bd 9f85 3e3b bc2a 15bc 9540 0abc
00000350: 28dc cebc c327 9bbc 0c34 53bc 8f3c 9fbb
00000360: 17fc c6bb a6ff 1bba 5d1f 9dbc 0d7a 4abc
00000370: b897 8c3b 00d0 263b dff9 c9bc 7211 0d3b
00000380: 4a15 073b c6bb 143b ce30 32bc 3b8a 49bc
00000390: 3fcd 7ebc c8f1 0b3c 6027 bfbc 6ce7 a539
000003a0: 4b37 f53b 7427 9ebc 5d9e e5bc 2855 0fbd
000003b0: dac3 cbbb 6a15 fc3c b47f a43c 71e6 b23b
000003c0: 5cc1 1b3b c3a5 2fbc 3684 f8bb 215c be3b
000003d0: fa2d 6bbc c4ae bebc ec1e 4c3c 64b1 263b
000003e0: dfac ab3c 6c7e e3ba 23a3 b8bc ce0d 1dbc
000003f0: 6745 793b b4b2 5bbb 8be6 7bbc 1f6c c73c
-0.038519435 0.01112017 0.0070500285 0.014171893 -0.025440427 0.019646853 -0.03087308 0.011050928
-0.017627383 0.012862308 0.0010451467 -0.02253156 0.0011762439 -0.016493697 0.0040276223 -0.0070437556
0.0068552364 -0.020087037 0.025623767 0.0057930206 -0.025573347 -0.021425297 -0.030154333 0.004013517
0.013204149 0.0072492617 0.001092156 -0.02065014 -0.015079432 -0.034310695 0.011868901 -0.0060360646
-0.023181945 0.0077779293 -1.5526848e-05 -0.015497757 0.019241394 0.013776666 0.011072247 0.026931062
0.010749539 0.012112189 -0.011782939 0.00042918295 -0.006805493 0.01944195 -0.013302618 -0.014757852
0.00035946164 0.021120727 0.026251217 -0.008559974 0.022463402 0.0043702787 -0.046278555 -0.0026586433
0.0130220065 0.006539687 0.023123732 0.008082821 0.009649401 0.014021078 -0.00842475 -0.006223094
0.02306586 0.014349459 -0.025405196 -0.026336249 0.00319492 0.009149492 0.0045757345 -0.01573279
-0.00813633 0.010034079 0.012675521 -0.0006807452 -0.014180402 0.007377171 -0.028567959 0.009055456
-0.017480493 -0.0038480852 -0.012773266 -0.0039433744 -0.008990349 0.022520905 0.026749859 0.0032003
0.015668044 0.003709387 0.0049897744 0.011753349 -0.014530643 0.016854275 -0.0005906619 -0.004102355
0.00974449 0.0063006044 -0.004251665 0.012419015 0.0032741479 -0.04443458 -0.023573106 0.00064016355
0.029533986 -0.0072521074 -0.0118075395 -0.037679847 -0.00840146 -0.0024613878 -0.0028902607 0.0012330238
0.018675845 -0.015242995 -0.020434199 -0.027942153 0.012251708 -0.029769275 0.01103632 -0.011922133
0.016506866 -0.024854336 -0.019098036 -0.01273922 0.016020574 0.010165247 -0.016130101 -0.017864142
-0.0059504756 -0.05895643 0.02378514 -0.030585254 -0.025785597 -0.03240955 0.0026768066 -0.01035649
-0.02335178 -0.0011534463 -0.011943103 -0.00835133 -0.01697214 0.022870386 0.0058140345 -0.024008399
0.0041757943 -0.029902803 0.00721416 0.012200591 0.03922831 0.013663597 -0.01847009 -0.0008578068
-0.016036222 -0.026515326 -0.003224937 -0.008556772 0.012733895 0.013692201 0.025547866 -0.0151800085
0.02826664 0.020965185 0.0016930687 0.00544923 -0.024084957 -0.001832766 -0.012256973 0.015534962
0.058291975 0.01723998 0.017762495 -0.0014008932 0.01884911 -0.018380553 -0.035232544 0.03379983
-0.0061682784 0.0103988685 -0.011090164 -0.017976716 0.02435015 0.00023452597 -0.00018212182 -0.0061384444
-0.039505344 0.029217321 -0.043236427 0.0035664723 -0.033330582 0.0010604303 0.013431764 0.014616448
0.009927193 0.00042161622 0.02336041 -0.019334516 0.00859137 -0.004434311 0.009120298 -0.027796494
0.02597731 0.04006728 0.0045417743 0.00015334762 -0.031105189 0.0015493968 -0.0009771546 -0.015524162
-0.05237622 0.0029071344 -0.009104427 -0.008438249 -0.025251463 -0.018939858 -0.012890827 -0.004859514
-0.006072532 -0.00059508753 -0.019179994 -0.012358201 0.004290547 0.0025453568 -0.02465528 0.002152529
0.0020612055 0.002269493 -0.010875894 -0.012301023 -0.015551864 0.008541532 -0.023334205 0.00031643675
0.007483398 -0.019305922 -0.028029615 -0.03499332 -0.0062184157 0.03077193 0.020080425 0.0054595997
0.0023766374 -0.010720673 -0.00758412 0.0058093225 -0.014354223 -0.023276694 0.012458544 0.0025435323
0.020956455 -0.0017356402 -0.022538727 -0.009585811 0.0038035752 -0.0033523263 -0.01537479 0.024343548

network_body._body_endoder.seq_layers.0.bias f4 [128]
00000000: bb28 d939 0adb 19bb cc44 17b9 9f74 843a
00000010: 6a07 12bc 52c7 05bc eb5c de3a 2702 6a3b
00000020: 13c7 6dbb 64d3 65ba 296f 013b a901 deba
00000030: 246f 313b 062b 9dba 97ed 5c3b 0d0e 8fbb
00000040: e398 7aba 31a6 353a fe8e 50bb b9df 70bb
00000050: a3b9 46bb c750 78ba c35e 04bc 25fe 0bbc
00000060: 2f96 b43a d03e 823b 5b0a 393a 0d12 96bb
00000070: 5ef4 f03a 4013 0bbc acd5 e739 5a10 55bb
00000080: affa 1abb b626 1c3b 29b9 89bb 00e0 aeba
00000090: 4c19 a8b9 deae 10bb 700f 91ba 244a 7ebb
000000a0: 016e ab3b cd81 83bb 289a 913b 5ec1 7e3b
000000b0: 4090 6a3a 22d7 16bc dc02 9eba facb 96ba
000000c0: ebeb c03a f04c dcbb 7dbf c83b d0f0 e63a
000000d0: db69 903a 3bd7 80bb bdcc 153b 827c 24bb
000000e0: 7c57 ceba e38e db3a ccc0 ee3a fc81 9cbb
000000f0: e89e 38ba 6e14 423b 4f44 073a ec21 7f3b
00000100: 039c 48bb 6c6d 69bb f73f 5ebb d1df 98ba
00000110: 81e3 3d3a ac9a 053b 7e83 2bbb 91b6 ed3a
00000120: 2737 d8bb fe07 8cbb 5216 31bc b580 9dbb
00000130: fc8e 91bb c76f 2bbb 498e 85bb 0472 3fbb
00000140: 8ee3 e2bb 395b b33b e5d4 d33b a6f2 993a
00000150: d7ff db3a c5f9 42bb cddf 5fbb 119d 113b
00000160: c95a 9dbb de1f a738 d6d8 253b 18de 723b
00000170: 3ee9 d43a e607 e53a edc4 b9bb b367 02bb
00000180: ebeb e0ba e4d5 be3a 2026 d2bb eadf 1d3b
00000190: cdee 2a3b f8d5 6c3b b63c 453a b486 17bc
000001a0: 7871 e33b 8927 83b9 858a b6ba deea c139
000001b0: 6709 27ba bad5 3138 67b2 38bb 05bf 89bb
000001c0: 2b1e 893a fa52 0b3b 2289 cd39 5867 803b
000001d0: 00ec 9a3a 23fe 883a 283e abbb baed 783b
000001e0: 6671 6bbb bab7 323b bc95 a63b 39e4 16bb
000001f0: 80de 99ba 2aea 783a 2cbc 08bc f29c a73a
0.00041419812 -0.0023476505 -0.00014426111 0.0010105557 -0.0089129 -0.008165197 0.0016964948 0.003570685
-0.0036281988 -0.00087671564 0.0019750095 -0.0016937751 0.0027074302 -0.0011990971 0.003371095 -0.0043656887
-0.0009559525 0.00069293665 -0.0031823511 -0.0036754443 -0.003032305 -0.0009472486 -0.008079234 -0.0085444795
0.0013777668 0.003974773 0.0007058733 -0.0045797885 0.0018383374 -0.008488476 0.0004421895 -0.0032510967
-0.0023647954 0.0023826784 -0.004202981 -0.0013341904 -0.00032062305 -0.0022076885 -0.0011067223 -0.0038801515
0.0052316193 -0.004013276 0.0044434257 0.003887258 0.00089478865 -0.009206565 -0.0012055296 -0.0011504882
0.0014718747 -0.006723039 0.006126343 0.0017619375 0.0011017876 -0.0039319075 0.002285763 -0.0025098627
-0.0015742625 0.0016750958 0.0018215417 -0.0047762375 -0.0007042722 0.0029614228 0.000516002 0.003893013
-0.0030610568 -0.00356182 -0.0033912638 -0.0011663382 0.00072436786 0.002038638 -0.0026170905 0.0018136074
-0.0065983715 -0.0042734137 -0.010808544 -0.004806603 -0.004442094 -0.0026159154 -0.0040757996 -0.0029212246
-0.0069240993 0.005473521 0.006464588 0.0011745289 0.001678462 -0.0029750925 -0.0034160495 0.0022218863
-0.004802082 7.969116e-05 0.0025306246 0.0037058648 0.0016243828 0.0017473667 -0.0056692273 -0.0019898235
-0.0017160153 0.0014559594 -0.0064132363 0.0024089762 0.0026082278 0.0036138278 0.0007524 -0.009248424
0.0069410168 -0.00025015723 -0.001392678 0.00036986818 -0.00063719455 4.2399137e-05 -0.0028182508 -0.0042036795
0.0010461261 0.0021259175 0.0003920282 0.0039185695 0.0011819601 0.0010451715 -0.0052259155 0.0037983493
-0.0035925745 0.0027270154 0.0050837677 -0.0023024215 -0.0011739284 0.00094953424 -0.008345645 0.0012787862

network_body._body_endoder.seq_layers.0.weight f4 [128, 3]
00000000: 5a86 33bd 17d6 a83d a07b 68be fe61 023f
00000010: 5b78 70bf 41e8 0dbf c418 063f 680b 8fbe
00000020: 4950 e2be b418 0b3f 3e4d 823f fd4a 07bd
00000030: 091e 273e 484c 0dbf b3cc d63e db9e adbd
00000040: 9e1e cebe 8084 b23e 8724 fa3e 6184 a73e
00000050: 019f 26bf a060 12bf 219a c2be 187e f4bd
00000060: 15f5 983d 100e 5f3e 01d5 56bf f9cd 293f
00000070: d348 5b3f 3ef5 163e 80fe b9be 9f85 3b3d
00000080: 0281 263e 9600 4d3e 4b31 3b3f 6fca 24be
00000090: 3458 b5bf 8b44 adbe 9710 1bbe 4d37 cdbe
000000a0: 4adb e73e 6cb6 9d3f ab61 b6be ca15 12bf
000000b0: 6632 76bf bbed 9abd 4215 92bf 7e74 22bf
000000c0: c0c4 0cbf c9b6 c7bf 17d4 51bf 95f7 3e3f
000000d0: 28ff 153f 37ec 273e b84d 5b3f 33fb 123f
000000e0: 0595 02bf 1e03 153d cc2d 8bbe 4dd6 25be
000000f0: 0bb3 2c3f a088 20bd ba9d 3fbd e32a 83be
00000100: aa75 43bf 652c 18be 5496 473f a0d2 a6be
00000110: dac0 0d3f f87b 843e 2411 06bf 10c3 9d3f
00000120: 8221 3bbf 2287 b0bd d3a3 e7bd 7006 57bf
00000130: 66e3 ac3d 1791 31be 6fbe cf3e 7e4c 253f
00000140: a01c 3f3d b178 01bf 06ed 4d3e eab5 2cbe
00000150: dbce 27bd 7034 6e3f ebb0 ac3d 7d5b fabe
00000160: eee7 acbf e646 01bf b96b 8a3d 5ed8 673e
00000170: ff84 b6be 007c 29bf 0c0d 44bf 404d c2be
00000180: 3d2c 933e 8b3e 8f3e 16af b13f 7e34 13bf
00000190: 26a2 0a3f 0151 15be cc98 59be c556 303f
000001a0: 90d3 43bd 9440 dcbd 82c4 383f d1f1 5dbd
000001b0: cdf9 d53e cffb cebe 77c2 0bbf d010 88be
000001c0: dca9 233f 4537 013f c42e 7a3d d7c2 b03e
000001d0: d474 01be bb5f 90be fd4d 1cbe cf24 d5be
000001e0: 37bc 1e3f 7bb1 e0be 6a03 593e 0bc3 2ebf
000001f0: 0614 93bd f17d adbe 9f87 5fbf b3f0 993e
00000200: 03e8 3b3c bf76 e0be d2f0 a5be 3323 17bf
00000210: 24b3 2a3e 31d4 063f 6b2b 0a3f a350 653f
00000220: 51b7 60bf dd44 a63f 1ab7 703e b1c5 bebe
00000230: dfeb 9c3d 4d5b 653f 2f69 873f d50d ccbe
00000240: a5d3 f2be b04c 1cbe 2d04 dc3d 63af 153e
00000250: 0392 59be 7b5b 9fbe a049 8dbf c2e4 8b3f
00000260: 79f4 833f 23a8 ddbc c05d 633e 277f 723f
00000270: 4739 e3be 5160 ecbe 0369 473e 02ee 643f
00000280: ae1a babe 9f30 bfbe 7ec9 77bf 6c06 21bf
00000290: 5e14 88be c63e c5be dc9a 023f a688 a4be
000002a0: d0ac 933d 20bd 2ebf a8be d7be 4bce a4be
000002b0: 203e 423f ef71 b4bd 94da 38bf 6a0f abbf
000002c0: 89cd a3be bd81 b43d 36ce b63d 2966 acbf
000002d0: a9bc 97be 862f 103f 3ed1 2dbe 3bc5 233e
000002e0: 0000 3fbf ca50 e2be 8b93 0d3e 3a09 c33e
000002f0: bf55 6f3d 526e d9bf 58c1 52bc 4937 9abf
00000300: b542 15bf ef02 b83f 9a09 8dbd 66be 25bf
00000310: 12b8 1e3f b1b5 053e db96 0cbc 729e 7f3f
00000320: 9870 a7be 3a69 17bf c26c a53f bf28 ccbd
00000330: 5964 cb3e 9572 1dbe 37ac 7e3f 3cb7 fc3d
00000340: 26ce 02be 27ee 03be b8d5 2c3d ed65 3bbe
00000350: d8c3 34bf 6285 aebf 4cb3 1c3e a281 c83e
00000360: 7a0d 15bd ec5f fe3e 196c 163f a2aa fa3e
00000370: d78c 05bf 15d3 7abf f827 143f 32c4 273e
00000380: 2cf0 f13e 6ceb 533e d135 813e ede7 313f
00000390: cadd eb3e ba9c 353c 8df2 78bd ab16 003f
000003a0: cd45 3abf 5c9f c03b d9b9 993e 64d5 123e
000003b0: eb2b febd 79c0 e9be b2a9 a73e 85da 913e
000003c0: 16be 3bbe d336 81be ef52 5dbf 9d85 d63e
000003d0: 49cb acbe d686 8cbe 233a 363f 16ff d9bd
000003e0: 8288 0f3f f43f 1fbf 50e1 ffbe 43f5 12bf
000003f0: 38a7 f93d b640 1b3f 6a0a 213f 753f 5abf
-0.0438293 0.082439594 -0.22703409 0.50930774 -0.9393365 -0.55432516 0.5238154 -0.2793839
-0.44201878 0.5433457 1.0179822 -0.0330305 0.16320051 -0.5519452 0.41953048 -0.08477565
-0.40257734 0.34866714 0.48855993 0.32718185 -0.6508637 -0.5717869 -0.38008216 -0.11938113
0.07468621 0.21782708 -0.8391877 0.66329914 0.85657996 0.1474199 -0.3632698 0.045781728
0.1626015 0.20019755 0.7312209 -0.16092847 -1.4167542 -0.33841357 -0.15143047 -0.40081254
0.45284492 1.2321296 -0.3562139 -0.570645 -0.9617065 -0.07564875 -1.1412737 -0.63459
-0.54987717 -1.5602657 -0.8196425 0.7459653 0.5859246 0.16398703 0.85665464 0.5741455
-0.51008636 0.036379926 -0.27183378 -0.1619503 0.674607 -0.039192796 -0.04678128 -0.25618657
-0.76351416 -0.14860685 0.7796376 -0.3258257 0.55372393 0.2587583 -0.52369905 1.2325153
-0.73098004 -0.086195245 -0.11310544 -0.839942 0.0844181 -0.17340504 0.40574977 0.6456984
0.04665816 -0.50574785 0.20109949 -0.1686627 -0.040968757 0.93048763 0.08432182 -0.48897925
-1.3508279 -0.5049881 0.06758828 0.22641131 -0.35648343 -0.66204834 -0.7658241 -0.37949562
0.2874469 0.27977404 1.3881557 -0.5750197 0.5415367 -0.14581682 -0.21249694 0.688824
-0.047809184 -0.10754505 0.7217485 -0.054185692 0.41792145 -0.4042649 -0.54593605 -0.26575327
0.6393106 0.5047496 0.061079755 0.3452365 -0.12642223 -0.28198037 -0.15264125 -0.41629645
0.62005943 -0.43885407 0.21192709 -0.6826636 -0.071815535 -0.33885148 -0.87316316 0.3006645
0.01146889 -0.43840596 -0.32410294 -0.59038085 0.16669899 0.5266753 0.539725 0.89576167
-0.8777972 1.2989765 0.23507348 -0.37260202 0.07662176 0.8959244 1.0578974 -0.39854303
-0.47427097 -0.15263629 0.10742984 0.14617686 -0.21247105 -0.31124482 -1.1038094 1.0929186
1.0308982 -0.027057713 0.22203732 0.9472527 -0.44379637 -0.46167234 0.19473653 0.8942567
-0.3634848 -0.37341782 -0.9679183 -0.62900424 -0.2657804 -0.38524455 0.51017547 -0.32135504
0.07210696 -0.6825733 -0.42137647 -0.3218864 0.75876045 -0.088107936 -0.72208524 -1.3364079
-0.31992748 0.08813808 0.0892605 -1.3468677 -0.29636124 0.56322515 -0.16974351 0.15993206
-0.74609375 -0.44202262 0.13825814 0.38092977 0.058431383 -1.6986792 -0.01286348 -1.2048122
-0.5830491 1.4375895 -0.06886597 -0.6474365 0.6199962 0.13057591 -0.008580889 0.99851143
-0.3270309 -0.5914494 1.2923815 -0.09968709 0.39724997 -0.15375741 0.9948153 0.12339637
-0.12773952 -0.12883817 0.042196006 -0.183006 -0.70611334 -1.3634455 0.15302771 0.39161402
-0.036389805 0.49682558 0.58758694 0.48958308 -0.5216803 -0.97978336 0.5787349 0.16383436
0.4725355 0.20695275 0.2523637 0.69494516 0.4606765 0.01108473 -0.06077819 0.5003459
-0.7276276 0.005878372 0.30024603 0.14339215 -0.124107204 -0.45654657 0.32746655 0.2848703
-0.18334231 -0.2523714 -0.8645467 0.41898814 -0.33748844 -0.27446622 0.7118246 -0.10644357
0.5606767 -0.6220696 -0.49976587 -0.5740549 0.121900976 0.60645616 0.62906516 -0.8525308

network_body._body_endoder.seq_layers.2.bias f4 [128]
00000000: bdb8 39ba 2bf5 713b a319 30bb 9f53 143c
00000010: 53fd a2ba 35a7 b23b 488d 85ba 0d3a 113b
00000020: 0c0b a63b df73 9b39 be8b a4b9 930e 4f39
00000030: 267d 793b 61b4 a4bb 8699 b038 e4d1 073c
00000040: 8ce2 63ba ebda 6f3b 79c7 6c3a 09ed 7bbb
00000050: d70d 9abb a07a d4bb f05b 523a 5ddb 293b
00000060: 0ece 323b ee5c 3b3b 6c79 81ba 6885 843b
00000070: ef45 baba aa25 a4ba 7e4f a2ba 260e c4b9
00000080: 0b25 87bb 7386 29bb 3d4b d1bb 75a4 92bb
00000090: 4633 443b 6cec d539 fd5c c1ba 5b03 2b3b
000000a0: 2244 a8bb 84d0 48bb 1e2d cbbb 97e8 b8bb
000000b0: 73e2 83bb 04fc f33b c01f 0d3a cea0 42bb
000000c0: d842 5aba d7a9 b8ba 7004 0b3b 9398 e2ba
000000d0: ef9b 573b c135 c6ba 8659 f337 52df a13a
000000e0: 9675 1d3b 7c14 72bb b0c2 0c3c de20 a5bb
000000f0: 8b83 de3b 6269 f23b 2f82 5abb 0fd7 9abb
00000100: 224c 043c af94 373a 74d5 39bb bce1 26ba
00000110: dce0 93bb e8dd 1f3a ade4 9dbb 9e35 503b
00000120: a235 77bb 3b43 46bb 05a5 33bb f7e9 b9ba
00000130: 59ec 223b 6f51 09bb be49 5aba fd2c ca3a
00000140: c137 f0b8 a5f6 cbbb 4eeb 403a 454e 503b
00000150: 2cef 633b b2b4 723b 16ca 0d3b 8804 5ebb
00000160: 677d c53a 6a21 94bb 8a96 79bb 9fae 983b
00000170: 68f1 39bb ce29 8cba 5ea2 6d3b 0e70 d8ba
00000180: d7ae 67bb dbe3 df3b d8c5 9fbb 12dd fd3a
00000190: 5da1 1b3b 6a8e fcba 5828 7d3b e741 44bb
000001a0: cae1 d4ba 32ca 293b 45df 853b f032 f53a
000001b0: 792d 803b e3f1 4ebb 53a2 e2bb 92cb e6bb
000001c0: 1621 b3ba 932d e63a 4051 2ebb 5cd8 88ba
000001d0: 23b2 85bb d8af 1d3b 3ccd 4cbb b7ab 95bb
000001e0: 5d15 6abb 616d 8d3a 919e d5bb c164 e23a
000001f0: 4cdb 093c 689f 423a 8348 a53a 987a 07bb
-0.0007084718 0.0036919813 -0.002687075 0.00905314 -0.0012435116 0.0054520615 -0.00101892 0.0022159845
0.005067235 0.00029650235 -0.00031384634 0.00019746488 0.003806898 -0.0050263857 8.42093e-05 0.008289788
-0.0008693121 0.003659899 0.0009032409 -0.0038440845 -0.004701357 -0.0064843446 0.0008024564 0.0025918104
0.0027283463 0.0028589326 -0.0009878105 0.0040442236 -0.0014211516 -0.0012523432 -0.001238331 -0.00037394575
-0.004124289 -0.0025867491 -0.006387143 -0.004475171 0.0029937788 0.00040802674 -0.0014752444 0.002609453
-0.005135075 -0.0030641863 -0.0062004467 -0.0056429612 -0.0040247976 0.007445814 0.0005383454 -0.0029697898
-0.00083260005 -0.0014088702 0.0021212362 -0.0017287902 0.003289934 -0.0015122221 2.9009545e-05 0.001234988
0.0024026386 -0.003693848 0.008591339 -0.0050393185 0.0067905835 0.0073978165 -0.0033341756 -0.004725344
0.008074792 0.00070030516 -0.0028355988 -0.00063660345 -0.0045128893 0.0006098435 -0.00481852 0.003177024
-0.0037721177 -0.0030252475 -0.0027411592 -0.0014184107 0.0024860112 -0.002095308 -0.00083270285 0.0015424785
-0.00011454477 -0.0062244707 0.0007359282 0.0031784934 0.0034780009 0.0037033972 0.0021635345 -0.0033877213
0.001506728 -0.004520585 -0.0038084113 0.0046594883 -0.002837265 -0.0010693611 0.0036260108 -0.0016512887
-0.0035352015 0.0068325824 -0.0048758797 0.0019368252 0.0023747303 -0.0019268517 0.0038628783 -0.0029946507
-0.0016241607 0.0025907871 0.0040854537 0.0018707197 0.0039116708 -0.0031577281 -0.006916323 -0.0070433104
-0.0013666477 0.001756119 -0.0026598722 -0.0010440457 -0.0040800734 0.002406111 -0.003125026 -0.004567589
-0.00357183 0.0010790044 -0.0065191467 0.0017272459 0.008414101 0.0007424266 0.0012610111 -0.0020672437

network_body._body_endoder.seq_layers.2.weight f4 [128, 128]
00000000: 4948 3bbe 986e f7bc aafd 7cbc a6dc 60bd
00000010: e9f6 eabd 0d72 b4bd 6844 273d 394b a43b
00000020: 31a7 a0bc 3997 5dbd 657e 0dbc 679e 79bc
00000030: 9834 f33c a0e3 27be 1733 523d 4445 88bc
00000040: c75b a5bd 8b5c ba3d 6be5 923b d628 a5bd
00000050: fb64 b9bd 428d 683d cefc a93d 826d d9bc
00000060: 0095 d43c db29 213d 1390 d53d 2181 b33c
00000070: 9ef5 64bd 5306 783d 6b5a 1bbe 044b c4bd
00000080: d472 1abd 6ae0 a6bd c9b5 f43d 5c1c 1e3d
00000090: 0cbe 6f3d a259 a3bd 38e5 dcbd 0400 41bc
000000a0: 1a58 d6bc c870 40bd 7938 1b3e 6a8a 8b3d
000000b0: 49ee 0e3b ce86 4cbd 2cbf b3bd b1c4 853c
000000c0: dc4e 4cbd b927 d9bd 8b94 10be 476b e4bd
000000d0: 8c32 093c 4518 ca3d b3d3 a53c b2d3 3a3e
000000e0: 972f c6bc 65d4 adbd eb46 10bd e342 c6bc
000000f0: 72ce dbbd 1f00 76bd 0f4b 7fbc 57a1 bbbc
00000100: c92f 8d3c 1a0f 033e 8c94 083d 7a71 c6bc
00000110: d6e6 24bd 50f9 453d 874d ecbc 69e9 f13d
00000120: 695b 86bd b034 8fbd 88b9 1e3e 69d6 f4bd
00000130: f069 ed3c a4fe f9bc a3fa c5bd 57a1 bcbd
00000140: 39c2 00be 054b afbc b587 813c 6828 063e
00000150: b7f5 3a3d 8c66 0dbd 457f cdbd 355f 2abd
00000160: e4e0 a73b dbea 523d b2b9 54bd 6bf4 4ebc
00000170: 225c 053d 8b17 a7bd 9f86 4bbd a449 d23d
00000180: 47f9 acbd 3d6f 0b3d 3bb8 b23b 6246 ffbc
00000190: 4fb9 a2bd d60a 1d3d 0aff 2b3b 47eb 503c
000001a0: eebb 7c3d 5a45 e9bd b4d4 e53d 0bff 173c
000001b0: 1cf0 75bd 8578 efbc df79 f23d c3a7 e43c
000001c0: f30e c6bd 6530 1a3d d7ec 33bd 5a99 823d
000001d0: fa82 dfbd 373e 7abd f827 933c 9976 853d
000001e0: 06da 85ba 9084 32bd a627 bdbd 5b1f 0dbe
000001f0: 5985 003e b80a 243d c62c 2a3e 8a26 f33d
00000200: d464 da3b bbc7 aebc 037e c0bb 5b0c 3abd
00000210: cf82 a4bd e643 f13c 9956 4abd 7920 a93c
00000220: 2891 6c3c 080b 403d cd84 fbbd 86a3 c63d
00000230: 58b8 4fbb fd67 65bd d24d 95be ed3c b1bc
00000240: f16e 9e3d 8424 893d 6de0 df3c 13c6 743d
00000250: cce0 333e 9629 523d 5e79 52bd 8fb5 31bd
00000260: 63ca 903d 8fe8 9a3d e78e a5bd 34cc 873c
00000270: 7a8b d4bd 28f1 13bd 003f 8abd 3c76 a3bc
00000280: 1176 373d 160d 5f3d 0988 04bd b5d0 29be
00000290: 5672 513d 7a8f 003e 3ff1 003d 06df 65bd
000002a0: 23a1 633e 918f e4bd 9dfc edbc cdfd de3c
000002b0: 6e3d 403d 5114 933d 8433 5bbe 5a31 f7bb
000002c0: 656b f5bd 2e16 853b 7f5c 013e f87c 36bd
000002d0: eca7 1c3e 2db8 e23d 3061 363e 3f19 f83c
000002e0: 4c5e 25bd 16bf ecbc bd9b 443d 15ca 9c3d
000002f0: cdf8 7dbd 57e8 9a3c dab8 2bbd f63f 63bc
00000300: 3f94 0a3d 1fd8 adbd 924a 13bc e3cb f13c
00000310: bd3b 323c c4ea aa3c 47ef 01be 733a b03d
00000320: 612b 483c 298a b83d 881c 283c bdad aebd
00000330: 6a53 e53c 3a4d 93bd 6d93 a5bd 70e3 2e3c
00000340: 3c34 dbbc d8b9 a43d e248 7d3d 120e 0c3e
00000350: 8e53 6a3d 8f87 873d 229b 28bd 700c 053d
00000360: 72e7 74bc d589 f5bd ba46 df3c b335 babd
00000370: 76d2 3cbb 1952 75bd 9d60 9cbb edd1 a2bd
00000380: ce14 c63c 4abf 153e 2b0f cdbd 53f9 d9bc
00000390: ab82 debd 769a 4fbd 848d 633d 301b be3d
000003a0: 0ce4 fd3d 3a6d 32bd c2bc 173d 1ef1 e8bd
000003b0: 9541 47bd f577 0a3e 9b32 9c3d 73b9 813e
000003c0: 52a1 abbc c0d8 df3d 5ec5 6fbd 6350 0fbe
000003d0: 8f57 2f3d cebd 64bd 0837 643c b3cf 50bd
000003e0: 0e89 dfbd 1b45 613c cd69 e1bd 4078 01be
000003f0: ea0e 6ebd b0dc e13d 4990 45bd f283 923c
-0.18289293 -0.030204102 -0.015441338 -0.054897927 -0.114728756 -0.08810816 0.04083672 0.00501385
-0.019610973 -0.054099295 -0.008636092 -0.01523552 0.029688165 -0.16395426 0.051318254 -0.01663459
-0.08074146 0.090996824 0.004482915 -0.080644295 -0.090524636 0.05677534 0.08300172 -0.026541475
0.025949955 0.039346557 0.104278706 0.02191216 -0.0558983 0.060552906 -0.1517121 -0.095846206
-0.037707165 -0.08148272 0.11948735 0.038601264 0.058530852 -0.079760805 -0.107859075 -0.011779789
-0.026165057 -0.046982557 0.15158261 0.0681351 0.002180951 -0.049933247 -0.087766975 0.016329141
-0.049879894 -0.106032796 -0.14119165 -0.11153274 0.008373868 0.0986791 0.020242548 0.18244818
-0.024192614 -0.08487777 -0.035223883 -0.024201816 -0.10732736 -0.06005871 -0.01558186 -0.022904081
0.0172347 0.1279873 0.03334479 -0.024224032 -0.040259205 0.048333466 -0.028845562 0.118120976
-0.06560404 -0.06992471 0.15500462 -0.11954958 0.028981179 -0.03051693 -0.09666946 -0.09210461
-0.1257409 -0.021398077 0.01581178 0.13101351 0.04564449 -0.034521624 -0.1003404 -0.041594703
0.0051232446 0.051493507 -0.051934905 -0.012631516 0.032558568 -0.08158787 -0.04968893 0.10267952
-0.084459834 0.034041632 0.005454091 -0.03116149 -0.07945501 0.038340412 0.0026244544 0.012751407
0.06170266 -0.11390181 0.112222105 0.009277116 -0.06004344 -0.029232273 0.11839651 0.027912026
-0.0967082 0.03764381 -0.04392704 0.06376906 -0.10913654 -0.06109449 0.017963395 0.06516761
-0.0010212071 -0.043583453 -0.09236078 -0.13781492 0.12550868 0.040049285 0.16618642 0.11872585
0.0066648517 -0.021335473 -0.005874397 -0.04542194 -0.08032762 0.029451322 -0.049398992 0.020645367
0.014438905 0.04688552 -0.12281189 0.09699158 -0.003169557 -0.056007374 -0.29160935 -0.021635497
0.07736004 0.06696418 0.027328694 0.05975921 0.17566222 0.05130919 -0.051385276 -0.04338604
0.07069852 0.07563888 -0.08083897 0.016576864 -0.103781655 -0.036118656 -0.067502975 -0.01995384
0.04479033 0.05445584 -0.032356296 -0.16583522 0.05113443 0.12554732 0.03148007 -0.056120895
0.22229438 -0.111601956 -0.02905112 0.027220631 0.046933584 0.071816094 -0.2140637 -0.007543725
-0.119833745 0.004061482 0.1263294 -0.044552773 0.15298432 0.11070285 0.17810512 0.030285476
-0.04037313 -0.02889971 0.048000086 0.076557316 -0.062004853 0.018909616 -0.041924335 -0.01387023
0.033832785 -0.084884875 -0.008989947 0.029516166 0.0108785005 0.020863898 -0.12688933 0.08604898
0.012217374 0.09010727 0.010260709 -0.08529232 0.027993876 -0.07192464 -0.0808476 0.0106743425
-0.026758306 0.080432594 0.061837085 0.13677242 0.05720859 0.066176526 -0.04116357 0.032482564
-0.014947759 -0.1198918 0.027255405 -0.090922736 -0.0028811968 -0.059892748 -0.0047722594 -0.079501964
0.024179842 0.14623752 -0.10012659 -0.026608145 -0.10864767 -0.050684415 0.05555488 0.09282529
0.12397012 -0.043561198 0.037045248 -0.113741145 -0.04864653 0.13522322 0.0762684 0.253368
-0.020950947 0.10930014 -0.058537833 -0.13995509 0.04280811 -0.055845074 0.013929136 -0.050979327
-0.10914813 0.013749386 -0.11006508 -0.12643528 -0.058119692 0.11028421 -0.048233304 0.017885182
