results/NEWRun8/TrucksBehavior/TrucksBehavior-499928.onnx (onnx, 621598 bytes, 15 tensors)

86 f4 [69]
000000 7f 49 d8 3f 5d 9f d7 3f a1 d5 d4 3f 80 60 b9 3a
       1.6897429 1.6845509 1.6627694 0.0014143139
000010 69 9e a8 3e f0 83 30 3f 3e a3 46 3f d0 55 d2 3e
       0.32933357 0.6895132 0.7759284 0.41081095
000020 4c 29 72 3e 69 9e a8 3e 80 60 b9 3a 1e 3c 25 3f
       0.23648566 0.32933357 0.0014143139 0.64544857
000030 b4 74 1c 3f 00 e5 3a 3f 79 03 c2 3e f0 83 30 3f
       0.61115575 0.73005676 0.37893274 0.6895132
000040 1e 3c 25 3f 80 60 b9 3a d6 2e 87 3e 71 8b 51 3f
       0.64544857 0.0014143139 0.2640292 0.81853396
000050 20 5b ed 3e 3e a3 46 3f b4 74 1c 3f d6 2e 87 3e
       0.46358585 0.7759284 0.61115575 0.2640292
000060 80 60 b9 3a 8a c6 80 3f 4c f1 17 3f d0 55 d2 3e
       0.0014143139 1.0060589 0.59352565 0.41081095
000070 00 e5 3a 3f 71 8b 51 3f 8a c6 80 3f 80 60 b9 3a
       0.73005676 0.81853396 1.0060589 0.0014143139
000080 fb 15 dd 3e 4c 29 72 3e 79 03 c2 3e 20 5b ed 3e
       0.43180832 0.23648566 0.37893274 0.46358585
000090 4c f1 17 3f fb 15 dd 3e 80 60 b9 3a 40 bc a1 3f
       0.59352565 0.43180832 0.0014143139 1.2635574
0000a0 3a 11 bc 3f 91 aa a2 3f be 21 c0 3f 66 3f a3 3f
       1.4692757 1.2708303 1.5010297 1.2753723
0000b0 45 5b c2 3f 84 0e a4 3f 56 ab c3 3f 44 61 a5 3f
       1.5184103 1.281693 1.5286663 1.2920308
0000c0 2e a5 c3 3f d9 07 a7 3f 2c ad c3 3f 54 10 a8 3f
       1.5284784 1.304927 1.5287223 1.3129983
0000d0 40 95 c3 3f d7 f9 a9 3f 57 8a c3 3f 63 7e ab 3f
       1.5279922 1.327937 1.5276593 1.3397945
0000e0 b3 d7 c3 3f ea 32 ad 3f 03 97 c3 3f 08 e8 ae 3f
       1.5300201 1.3531163 1.528046 1.366456
0000f0 99 d9 c3 3f 61 db b0 3f 8d 95 c3 3f fe 93 b2 3f
       1.530078 1.3816949 1.5280014 1.3951414
000100 0f 99 c3 3f 00 21 b4 3f b2 cf c3 3f 85 da b5 3f
       1.5281085 1.4072571 1.5297759 1.4207312
000110 43 f0 c3 3f
       1.5307697

action_model._discrete_distribution.branches.0.bias f4 [6]
000000 96 35 7f 3f b1 1f da bc 1d ea b2 be 10 fb 08 3f
       0.9969114 -0.02662644 -0.3494424 0.5350809
000010 6b d2 0b 3e 56 59 07 c0
       0.13654487 -2.1148276

action_model._discrete_distribution.branches.0.weight f4 [6, 256]
000000 8c 32 86 3d c1 88 31 bd 88 72 b3 3d ec c1 1d 3d
       0.0655261 -0.04334331 0.087620795 0.038515016
000010 11 5a 44 3e 17 ab 84 3e 8e d8 90 bd f0 28 b7 be
       0.19174983 0.2591178 -0.070725545 -0.3577342
000020 b8 9a c1 bd 06 b7 06 3f c8 a8 59 3e ba 41 76 bd
       -0.094533384 0.5262302 0.21255791 -0.060121275
000030 6e ee 04 3f fb 9b 0f 3e 8e 6a d9 bd a1 5e a3 3d
       0.51926315 0.14024346 -0.10616027 0.079770334
000040 1e 0f 31 3e 83 85 d3 3c 50 5b b4 3b 21 06 2a bf
       0.17290923 0.0258205 0.0055040494 -0.664156
000050 04 72 b0 3e 0e f6 13 3d 02 87 24 3c 9c d3 69 3d
       0.34461987 0.036123328 0.010041954 0.057086572
000060 8a 71 07 be 52 45 ef 3d 72 89 6f 3e e2 a7 61 bd
       -0.13226905 0.11683144 0.23392275 -0.055091746
000070 e5 93 84 3d c4 cc c0 3e 40 33 33 be 44 08 d6 3e
       0.06473521 0.37656224 -0.17500019 0.4180318
000080 4f 14 c5 bd ff 41 82 bd 03 c7 64 3f d3 33 24 3e
       -0.09623014 -0.06360244 0.8936617 0.16035394
000090 9a 7f da 3e 94 b3 79 3d ba 56 84 3f db 18 31 3e
       0.42675477 0.060962275 1.0338967 0.17294638
0000a0 47 0c fe bb 34 be 16 bd 74 fd 86 3c 73 ac 93 be
       -0.0077529284 -0.036802486 0.016478278 -0.28842506
0000b0 83 9e c1 bd 1e 5c 62 3d f8 a4 88 3e e0 42 a0 bd
       -0.09454062 0.05526363 0.2668836 -0.078252554
0000c0 8c 6e fa bd de e2 8f 3e d5 49 5e bd dd ad 0b 3f
       -0.122281164 0.28102773 -0.05426963 0.5456217
0000d0 82 31 28 3e df 9c f7 3e d1 bd 16 3e 9b 21 33 bc
       0.16425136 0.4836187 0.14720847 -0.010933305
0000e0 b7 d0 d1 3e 92 ca 29 be 71 0e 55 bc b9 e1 36 be
       0.4097955 -0.1658118 -0.013003931 -0.17859544
0000f0 5a 06 c9 3c bd b1 79 be d3 d4 3c 3c a3 b3 a7 3d
       0.024539161 -0.24384208 0.011525351 0.0818856
000100 9e f8 16 be 04 5c 74 be c0 5c be be e9 a4 0a 3d
       -0.14743277 -0.23863226 -0.37180138 0.033848677
000110 5b b3 43 3e 42 b2 2f bd 6f b1 86 3d 9c 13 b7 3d
       0.19111387 -0.04289461 0.065768115 0.08939287
000120 87 33 ba 3d 9c 48 b3 be df 04 60 3e 8e 0c c3 be
       0.09091859 -0.35016334 0.21876858 -0.38095516
000130 3d 2c 0e bd c6 4a a8 bc 68 e1 c3 be 75 b7 70 bd
       -0.034710158 -0.020543467 -0.3825791 -0.05876871
000140 b6 9e e6 bd f1 2d 9b bd f2 30 90 3e a4 fb f6 bb
       -0.112607405 -0.07577122 0.28162342 -0.007537322
000150 70 f7 87 be 46 ec 57 be e1 64 25 be 63 22 c9 bd
       -0.26555967 -0.21086225 -0.16151763 -0.09821012
000160 d0 14 b2 3d 46 d4 10 be 64 a2 3b be 62 2b 9c 3c
       0.08695376 -0.14143476 -0.18323666 0.019063655
000170 f5 be e0 be 75 14 e8 be c7 31 63 3f 6e 97 8b be
       -0.4389569 -0.45328107 0.8874783 -0.2726397
000180 e9 10 89 3e f1 6e d1 bc 7a 8b 58 3e 61 03 c5 bb
       0.26770714 -0.025565596 0.21146956 -0.0060123657
000190 83 f9 6a 3e 7d de 14 bd 1f 4d 60 be 83 d5 9d bc
       0.22946744 -0.036344994 -0.2190442 -0.01926685
0001a0 67 24 3a be c1 5e 1b be ee f3 23 bd 0a 4a c9 3e
       -0.18177949 -0.15172864 -0.04002755 0.393143
0001b0 6d 68 c3 bc 3e fa c0 3e fd 1e 2f 3e 9f 19 82 bc
       -0.023853505 0.3769092 0.17101665 -0.015881358
0001c0 c3 02 40 3d b0 50 ce 3d 6f f4 1e 3d 14 5a 0a be
       0.046877634 0.10073984 0.03880733 -0.13510925
0001d0 b5 e0 88 3c 98 27 99 3e 8c 94 f1 bd 1c 61 74 3d
       0.016708711 0.2991302 -0.11795911 0.059662923
0001e0 df 56 24 3e f0 01 18 bf 03 20 37 3e f5 af 21 3e
       0.16048764 -0.59377956 0.17883305 0.15789779
0001f0 19 31 2b be 1e 33 5b 3e e9 f5 28 3d 3b ec bc 3e
       -0.16717948 0.21406218 0.041250143 0.3689898
000200 0f 91 bc bd 82 70 a5 3e f1 0a 94 be c0 af a9 3d
       -0.09207355 0.323124 -0.28914598 0.08285475
000210 d5 44 47 be 8d 27 ad be e6 03 b3 bd 3d 1a a6 bd
       -0.19459851 -0.33819237 -0.08740978 -0.08110473
000220 ad d8 b5 bc c0 d7 4b 3c 3a 4b a4 bc a7 1c 0e be
       -0.022198046 0.0124415755 -0.020055402 -0.13878118
000230 8c da b5 3d c9 b7 07 bd bd df d1 bd de 6c 02 bf
       0.08879575 -0.033134256 -0.10247753 -0.5094737
000240 3b b8 03 be c0 a8 5c bd 8b 62 34 bd 78 37 d2 be
       -0.12863247 -0.05387187 -0.04403929 -0.41057944
000250 e4 a0 ad be b4 df 29 3d 73 e8 34 be b6 99 0d bd
       -0.33911812 0.041473106 -0.17666797 -0.03457042
000260 eb 09 89 be 2f 8c e4 3d 3e e2 9e bc 09 df 43 be
       -0.2676538 0.111595504 -0.01939499 -0.1912805
000270 92 e7 b4 3d 61 6d 63 3e 2a d3 97 3e c8 63 14 3d
       0.08833231 0.22209693 0.29653293 0.03622797
000280 f4 de aa bd 54 97 ce 3e 61 04 11 be 4a c7 5b 3e
       -0.08343306 0.4034983 -0.14161827 0.21462741
000290 9d 17 a7 bd e7 c2 0f 3c e8 72 7b 3e 90 57 b7 bc
       -0.08158801 0.008774496 0.24555552 -0.02238062
0002a0 24 31 11 3e 19 76 0c 3f b0 dc e9 be 52 4f ed bd
       0.14178902 0.548677 -0.45676184 -0.11587395
0002b0 e0 a1 c4 3e 12 fa 81 be 00 69 13 3b 8b 88 51 3e
       0.3840475 -0.253861 0.0022493005 0.20462243
0002c0 85 fe 3d be ab c4 05 3e a5 d3 95 be e4 6d 82 3e
       -0.18554123 0.13063304 -0.29263034 0.25474465
0002d0 d5 fc 60 3e 47 e6 77 bd 9c c4 2c be 10 96 d5 bd
       0.21971448 -0.060522344 -0.16871876 -0.10429013
0002e0 a6 c9 f6 3d 78 a9 2f 3f c5 d1 1e 3e e8 60 52 bf
       0.1205018 0.68617964 0.15509708 -0.8217912
0002f0 d7 62 8e bd 5f bb 65 bd c3 f6 49 be 69 7a fb 3d
       -0.06952446 -0.056086894 -0.19723038 0.12279207
000300 51 e6 df 3d de b1 8a bc e1 67 1d bc 4c db 28 bd
       0.10932601 -0.016930517 -0.009607286 -0.041224763
000310 fe 16 d1 bb af 55 ae 3d f3 cc a9 3e 71 10 4f bd
       -0.0063809147 0.085124366 0.33164176 -0.05055279
000320 38 37 2a 3e 4f d7 3c 3d d8 76 85 bd 08 4e 95 bd
       0.16622627 0.04610377 -0.06516808 -0.07290274
000330 f9 ad a6 3d a3 dc 3c be d3 12 65 3e 47 e0 83 3d
       0.081386514 -0.18443541 0.22370462 0.06439262
000340 6e f7 90 3b 1d 96 41 bc 87 9f 28 bd a7 f0 4e 3d
       0.004424027 -0.011815575 -0.041167762 0.050522473
000350 e2 72 c2 3b fb b5 30 3f d0 d4 1f 3e 7f 4f 1a be
       0.0059341053 0.6902768 0.15608525 -0.15069388
000360 64 5a 3a 3d 23 e0 2a be 48 e6 97 3c 8d d1 41 3e
       0.04549636 -0.16687064 0.018542424 0.18927594
000370 9e 15 f6 bd 03 cb 9a 3d 79 b2 ca 3e 2e 93 97 3d
       -0.12015842 0.07558253 0.3958929 0.07401119
000380 14 99 ca 3d f8 c7 00 bd 3d 52 7a 3e 1d 28 be be
       0.098924786 -0.031440705 0.24445434 -0.3713998
000390 59 c0 27 be cf e4 42 3d 23 7b 57 3f df 35 72 3d
       -0.16381969 0.04758149 0.84172267 0.059133407
0003a0 e9 bd 49 bf 55 37 16 be 78 c7 a1 3d 8c ae ae 3e
       -0.78805405 -0.14669545 0.07899374 0.34117544
0003b0 c1 bd 2b bf b2 41 78 be af 1b 8e 3e 49 6c 4d be
       -0.67086416 -0.24243811 0.27755496 -0.20060839
0003c0 83 7f 14 bd b1 1a 48 3e 9f 6b 08 bf 0a 50 65 bd
       -0.036254417 0.19541432 -0.53289217 -0.055984534
0003d0 0f 8e 17 be 36 da 07 be ae ce af bd ff de c0 bd
       -0.14800285 -0.13266835 -0.08584343 -0.09417533
0003e0 83 fb 4d bd 5f 76 14 bd 77 14 5c 3e 76 2b f3 3c
       -0.05028869 -0.0362457 0.21492182 0.02968381
0003f0 39 8d b2 3e d2 2e fc 3d a6 a8 52 be b7 52 8a 3d
       0.3487337 0.12313618 -0.20572147 0.06754058

action_model._discrete_distribution.branches.1.bias f4 [6]
000000 9c 84 34 3f 5a e0 81 3e 92 15 0c 3e 71 ab 2a 3e
       0.70514846 0.2536648 0.13680103 0.16666962
000010 7e b7 5e 3e 09 a1 02 c0
       0.21749684 -2.0410788

action_model._discrete_distribution.branches.1.weight f4 [6, 256]
000000 b8 39 63 3e e5 b2 cb bd 4b d6 98 3e 80 57 f3 3d
       0.22189987 -0.09946231 0.29850993 0.11881924
000010 70 95 30 bf 70 3b 5e be 52 c4 ae bd 49 9f 89 be
       -0.68978024 -0.21702361 -0.08533539 -0.26879337
000020 2e eb 40 3f 23 9f a7 3e c3 e3 0e be 06 d2 a1 bd
       0.75358856 0.327386 -0.13954072 -0.07901387
000030 82 e6 98 be 4a a3 8f 3d ec 8e 5b 3d e5 3a 4c bd
       -0.29863364 0.07013567 0.053603098 -0.049860854
000040 bc f7 0e be a7 ac 63 be 81 35 c0 bd de 9a d6 be
       -0.1396169 -0.2223383 -0.09385205 -0.4191503
000050 dd 95 1f 3f d7 8a 05 be fd 6f 89 bd fa b5 fe 3d
       0.6233805 -0.13041244 -0.06710813 0.12437053
000060 5b 07 da bd 2e 02 18 3e 8c 2b bd be 07 16 e5 bd
       -0.10645934 0.14844581 -0.36947286 -0.11185842
000070 ac 7b c0 bd 00 a1 7d 3e 2a c1 32 be de 57 5e bd
       -0.093985885 0.24768448 -0.17456499 -0.054283015
000080 ba 58 11 3d b4 3b 0d 3e f4 13 4e 3f 5b 3c c4 bd
       0.035485007 0.13792306 0.80499196 -0.095818244
000090 cf 8e 70 3e 52 3e 0d 3e 8a 9b e3 be b6 01 d0 bd
       0.23491977 0.13793305 -0.44454604 -0.10156576
0000a0 78 16 88 bd 38 9f 07 be d8 fb 88 bd f4 c7 cb be
       -0.066449106 -0.13244331 -0.066886604 -0.3980099
0000b0 ac d2 56 3e 98 6a ce bd 67 21 37 bd 91 85 2d bc
       0.20978802 -0.10078925 -0.04470959 -0.010590927
0000c0 91 b4 7b bd 36 13 92 be 40 3b 03 bc b3 41 26 3f
       -0.0614515 -0.28530282 -0.008009732 0.64944
0000d0 0c c9 50 be f9 33 37 3e 67 cb 3b 3e 4a b2 81 be
       -0.20389193 0.1789092 0.1833931 -0.25331336
0000e0 28 9f d3 be 6f 4c 88 be 21 a5 86 bd c0 4c 34 3d
       -0.41332364 -0.26620814 -0.065744646 0.044018507
0000f0 f8 31 34 3f 26 3a 72 3d 16 57 b5 bc 3a fc 6c be
       0.70388746 0.059137486 -0.022136252 -0.23143092
000100 a3 65 19 3e b3 61 a3 3d 82 0c 74 be 5c a1 d0 3c
       0.14980178 0.07977619 -0.23832896 0.025467567
000110 76 96 80 be 45 0c 06 be e0 2f 70 be 93 d5 74 bd
       -0.25114793 -0.13090618 -0.23455763 -0.059773993
000120 07 87 57 be 82 75 ed 3e 55 b8 b1 3b 23 a3 f3 be
       -0.21047603 0.46378714 0.0054235854 -0.475854
000130 74 a1 a2 3d ba 5b 4d be b5 6d 0a be 2a ad 11 bd
       0.07940951 -0.20054522 -0.13518412 -0.035565533
000140 c6 cb 0f bd 1e 5a 26 be 19 e9 f4 bc 50 28 bd bb
       -0.035106443 -0.16245314 -0.029896306 -0.005772628
000150 b6 97 16 bd b8 08 ed 3d 74 9e e5 be c9 a9 0d bc
       -0.036765777 0.115739286 -0.44847453 -0.008646437
000160 a8 c7 1f bf 21 97 a5 3d a2 74 a9 3e f3 0d 17 3e
       -0.62414026 0.08085466 0.33096796 0.14751415
000170 30 cc 6c bd 90 b1 7a be 2e ee b4 3e 76 71 b6 3d
       -0.057811916 -0.24481797 0.35337967 0.0890836
000180 df 71 c7 bd 12 78 e0 3d f2 97 04 be fc 9d 64 3d
       -0.09738516 0.109604016 -0.12948588 0.05581473
000190 a5 b1 2b 3e ed a0 72 3d b4 40 c7 3e db d2 0b 3e
       0.16766985 0.059235502 0.38916552 0.13654654
0001a0 75 cb 4e be d5 9f ed bd 2c 1e f0 ba 2e 6e 7b bd
       -0.201948 -0.11602751 -0.0018319539 -0.061384372
0001b0 80 15 8c bd b1 59 4c be 5a ad a6 3c f8 c2 5b be
       -0.06840038 -0.1995609 0.020346332 -0.21461093
0001c0 91 e2 36 be 56 3f 93 bd a1 ba b6 bc 9f 4d 8e be
       -0.17859866 -0.07189815 -0.022305788 -0.27793595
0001d0 d4 9e 8c 3c 45 31 ac 3c d0 68 e9 bd e1 85 cb 3d
       0.017165579 0.021019587 -0.113969445 0.09937645
0001e0 a6 72 22 be 8c 68 1c bf 88 5c 55 3e ca c7 2f bc
       -0.15864047 -0.61097026 0.20836079 -0.010728786
0001f0 ba 21 79 bd f0 43 8a be df db d0 bd c3 2b 63 be
       -0.06082318 -0.27004957 -0.10198187 -0.22184663
000200 ad ee 69 be 87 0e 8d bd d2 02 13 be 94 7d 61 be
       -0.22844954 -0.068875365 -0.14356545 -0.2202056
000210 f8 35 7d 3d 8a c2 96 bd 7e b3 dd 3e 2d 82 93 bc
       0.061819047 -0.07361324 0.43301004 -0.018006409
000220 a9 00 79 bc 63 96 32 be 22 16 ca bd d2 17 f4 bd
       -0.015197911 -0.1744018 -0.09867503 -0.11918606
000230 d7 04 05 bd 2d 92 b8 bd 68 f0 55 bb 1f 6e 32 bd
       -0.03247532 -0.09012256 -0.0032644514 -0.04356205
000240 5a 77 62 3e 9a 95 a9 3c 4a 2a ea bb 6b 07 0c 3d
       0.22115842 0.020701218 -0.0071461545 0.03418676
000250 30 f9 15 3d 17 b3 6b be 0f f3 4d 3e 3f 3c cf 3d
       0.036614597 -0.23017536 0.20112251 0.10118913
000260 63 5e bc be a9 fc 8b 3e ec e9 a4 be f0 be 68 3e
       -0.3679076 0.27341202 -0.32209718 0.22729087
000270 ba 6f 99 bd b4 21 5a 3a d6 96 63 be 4c 5f 45 be
       -0.07492013 0.0008321062 -0.22225508 -0.19274634
000280 43 50 49 be f4 08 dd be 46 14 27 be d0 5a 98 be
       -0.19659524 -0.43170893 -0.16316327 -0.29756784
000290 a7 e7 10 be ae a4 70 3d 5f 29 c5 bb 47 50 c2 bc
       -0.14150868 0.0587508 -0.0060168947 -0.02371992
0002a0 74 6a 11 be ef b2 e6 be 8c 2f 1c bd 11 56 07 bd
       -0.14200765 -0.4505839 -0.03813128 -0.033041064
0002b0 f0 95 50 3e 24 02 99 be c2 a4 86 be aa b3 7b bc
       0.20369697 -0.29884446 -0.26297575 -0.0153626595
0002c0 34 65 58 be 5f d8 93 be 17 6d 86 bc 67 9e 8f be
       -0.21132356 -0.28876016 -0.01640944 -0.2805054
0002d0 21 ba 3a be 66 24 32 bd e2 30 12 be c3 76 e3 be
       -0.18235065 -0.043491744 -0.1427646 -0.44426546
0002e0 56 b2 34 bc 15 62 44 3e 8a 31 ba be 24 8f 0b bf
       -0.011028847 0.1917804 -0.3636592 -0.5451529
0002f0 c1 0e ff bd 81 83 e8 bd 74 c9 7a 3e 8f af 22 be
       -0.12453986 -0.113532074 0.24490911 -0.15887283
000300 56 d3 cd 3e 4f ad ce 3e 9b c2 18 bc ff 6f ef 3d
       0.402003 0.403666 -0.009323741 0.116912834
000310 cf fa 86 be 07 ce e3 3c 32 9f 9f be d2 cb e2 bd
       -0.26363227 0.027808202 -0.31176144 -0.11074032
000320 4e bf 8e 3d d0 9b fb bc 7c be f2 bd 8f e1 d3 bc
       0.06970082 -0.030713946 -0.11852738 -0.02586439
000330 11 ef 0a 3e 2b 90 1d 3c 9c ca f5 3d 9f 3b 97 bd
       0.13567759 0.009616892 0.12001535 -0.07384419
000340 ad f7 55 be 09 59 a9 3c 1d ff 86 3d 1e 72 78 be
       -0.20895262 0.020672338 0.06591628 -0.24262282
000350 36 c0 e6 bd 65 7e fc 3e 1e b3 c5 be ac 92 53 3d
       -0.1126713 0.4931518 -0.38613218 0.05165355
000360 44 71 e5 bd c1 8f 31 3d 2c 86 f2 bd bc 0a a9 bd
       -0.11203244 0.043349985 -0.118419975 -0.082540005
000370 26 45 76 bd e3 88 65 bd 82 bd 9f be ad 01 8c 3e
       -0.06012454 -0.05603875 -0.3119927 0.2734503
000380 2a 8e 08 be 39 51 e1 bd ef f5 4a 3e 25 7f 80 bd
       -0.13335481 -0.1100182 0.19820379 -0.06274251
000390 d3 ba a4 3d 6c 38 f7 3d 0d bd 13 3f 1c 3c 27 be
       0.080434464 0.120713085 0.57710344 -0.16331524
0003a0 f4 34 3c bf b9 c5 07 3e 16 27 04 be 05 e7 8a be
       -0.735183 0.13259019 -0.12905535 -0.2712938
0003b0 49 35 c2 be e3 41 bc bd f5 9f 8d be 91 cd be 3c
       -0.37931278 -0.091922544 -0.276611 0.023291381
0003c0 36 c7 9e 3d 71 09 b2 bb 75 83 87 be fe 30 01 ba
       0.0775284 -0.0054332544 -0.2646748 -0.000492826
0003d0 3c f0 54 3d 6c d2 88 be a5 1c c0 3d 52 17 0f be
       0.051986918 -0.2672304 0.093804635 -0.1397374
0003e0 30 b8 04 3e f8 ca 12 bf 0c 7d 81 be 9f 40 fe bd
       0.12960887 -0.57340956 -0.25290716 -0.12414669
0003f0 c3 64 4b 3e e3 d3 22 3d c1 a9 fd bd 4c 79 f1 bd
       0.19862656 0.039752852 -0.123858936 -0.11790714

action_model._discrete_distribution.branches.2.bias f4 [6]
000000 bc e4 d9 3e 9e b9 bd 3e cd 7c 3c 3e 38 3f aa 3e
       0.42557323 0.37055677 0.18406983 0.33251357
000010 ed 8e 32 3e b3 d2 ff bf
       0.17437334 -1.9986175

action_model._discrete_distribution.branches.2.weight f4 [6, 256]
000000 60 4a 47 3e 57 c9 c7 3c ad e6 54 3e b3 0e 91 be
       0.19461966 0.024387999 0.20791121 -0.28331527
000010 1e 30 14 3d 7e a8 f6 be 44 d3 61 3e cc 9c 8d bf
       0.0361787 -0.48175424 0.22053248 -1.1063476
000020 6e 85 a8 bb a8 10 8f 3e 23 5d ac bd 3d a5 60 bd
       -0.005142859 0.27942395 -0.08416202 -0.054845084
000030 57 a6 09 bf 2a 86 1f be de e6 d9 3b 56 97 83 be
       -0.5376944 -0.15578523 0.006649836 -0.25701398
000040 cf cf f8 3d 58 96 2f 3e 52 e2 28 bc 19 a7 a6 3d
       0.12149011 0.17147195 -0.010307865 0.0813734
000050 9e e8 01 3f 6c 13 8e 3d 55 0b 54 bb 89 36 fe bd
       0.5074557 0.06937298 -0.0032355387 -0.124127455
000060 b7 ca fd bd a2 00 b1 be 1f b0 04 3f 70 c7 41 bd
       -0.123921804 -0.34570795 0.5183124 -0.04730934
000070 92 cc 13 bd 34 83 12 3e 82 87 bf 3e 93 5e 6e 3d
       -0.036083765 0.14307863 0.37408072 0.05819566
000080 e3 de f0 3d 1e b9 9e bb a0 80 29 3f bf f2 8b be
       0.11761262 -0.004843845 0.6621189 -0.27333638
000090 89 c4 a9 bd c6 28 bd be 50 82 b2 bd 24 db 0d 3e
       -0.08289439 -0.3694517 -0.087162614 0.13853127
0000a0 f7 79 1a be 87 7b 71 3d 75 9c 8c bc 01 3e 31 3d
       -0.15085588 0.058955695 -0.017164448 0.043272022
0000b0 bf de 05 bc 08 4e dc 3b 5f 05 83 be bd 8b 08 3e
       -0.008170783 0.0067231692 -0.25590035 0.13334556
0000c0 49 bf 19 3d c6 56 c4 3c 31 83 1e bd f3 ed 80 3e
       0.03753594 0.023967158 -0.038699333 0.2518154
0000d0 52 b7 18 be 2a 38 8b 3e 6b 02 87 3e 37 f5 bd 3c
       -0.14913681 0.27191287 0.26369032 0.023188217
0000e0 0c e1 70 be 7c a1 a8 3e 7e 47 b8 bd a6 4a ad bd
       -0.23523349 0.32935703 -0.08998011 -0.08461504
0000f0 e5 6d 37 3e 06 4c 04 be ae 08 a4 3c ee df 1c be
       0.17913015 -0.12919626 0.02002367 -0.15319797
000100 d4 17 e5 ba 12 b3 27 be 57 a8 ad bd cf f6 5e bd
       -0.0017478415 -0.16376904 -0.08479374 -0.054434594
000110 4d 2a f9 3c 27 c2 86 be b0 28 17 bc da 99 19 be
       0.030415678 -0.2632 -0.009226009 -0.15000096
000120 b1 d3 47 3d f4 60 fb be 3d 21 c4 bd b4 b5 f7 be
       0.04878587 -0.49097407 -0.09576652 -0.48380816
000130 ee 94 f4 bd 9b 49 4d be b0 07 16 bf f5 e8 23 be
       -0.119424686 -0.2004761 -0.5860548 -0.16006835
000140 ce f9 54 bd 14 cf f2 3e 7a c5 4f 3d 7e 4b 9f bd
       -0.051996045 0.47423613 0.050725438 -0.07778071
000150 02 fe 1c be fe 49 05 3e 81 fe a9 be a3 5f 40 bd
       -0.15331271 0.13016507 -0.33201984 -0.046966206
000160 85 84 2a bf dd 72 28 3e 3e c2 93 be c6 c7 e1 bd
       -0.6660846 0.16450067 -0.28859133 -0.11024432
000170 86 5a 89 3e 68 e3 1b 3f be 92 a5 3d 50 7d 1f 3e
       0.26826876 0.6089387 0.080846295 0.15575147
000180 bf 3a 81 bd 18 2d 84 3e 34 63 5f bd 32 8b aa 3d
       -0.06310033 0.25815654 -0.054537967 0.08327331
000190 b8 f1 27 be de dd 35 be 4a 73 42 3c 18 96 b3 be
       -0.16400802 -0.17760417 0.011868307 -0.3507545
0001a0 f0 85 41 be 43 05 84 3d 07 19 d0 bd b8 fe 11 be
       -0.1889875 0.06446316 -0.101610236 -0.14257324
0001b0 07 17 e4 be ea 27 9b be 97 63 a7 3e 13 50 af bd
       -0.44548818 -0.3030389 0.3269317 -0.08560195
0001c0 e8 7f ec bd b3 ae 2d ba 54 1a e6 bd 49 6d bf bc
       -0.11547834 -0.00066254585 -0.112354904 -0.02336754
0001d0 46 00 1e 3e 04 25 c1 3d 71 97 2e 3d 65 82 25 3d
       0.15429792 0.09430888 0.042624895 0.040407557
0001e0 31 b5 8a bd c2 0c 18 3f 0b d0 c3 3d e4 1a 50 be
       -0.06772841 0.59394467 0.095611654 -0.20322758
0001f0 d6 00 80 bd 64 3c 9e bc 82 e9 80 bd e0 4e d0 bd
       -0.062501594 -0.019315906 -0.06294538 -0.10171294
000200 fa b5 a6 bc 0a f5 61 3b 65 14 82 bd f0 b2 b3 3d
       -0.020350445 0.003447833 -0.06351546 0.08774364
000210 b9 0e df 3e 37 5c d3 be c4 bc 69 bd 3b a5 65 bc
       0.4356592 -0.41281292 -0.057064787 -0.014016445
000220 5a 27 88 bd a2 ba 99 3d 28 a4 23 be 1d 65 a7 3e
       -0.06648131 0.075063005 -0.1598059 0.3269433
000230 80 8d 16 be 17 32 97 bc 9c b3 41 3e fb 05 95 bd
       -0.14702415 -0.018456502 0.18916172 -0.07276531
000240 b8 58 e0 3a aa aa 0c bd 0e 2e 4b bd ff 3a 55 3f
       0.0017116284 -0.034342445 -0.049604468 0.83293146
000250 46 95 5b 3e 18 77 87 3d a7 53 c0 bd d4 80 8e 3c
       0.21443662 0.06614512 -0.093909554 0.017395414
000260 30 a5 5a be 48 7a 9a be 92 cf 3c 3f 35 07 0a be
       -0.21352077 -0.30171418 0.7375423 -0.13479312
000270 2d 0f 3a 3e 73 89 8d be e7 79 82 be 25 0b 21 bd
       0.18169852 -0.27643928 -0.2548363 -0.03931727
000280 2f a8 61 3d 25 6f 36 3c 45 87 a3 3d e1 b4 94 bc
       0.055092033 0.011134897 0.07984785 -0.018152656
000290 ee bf df be 9a 14 2a be e3 e7 a9 be c9 4e c5 bd
       -0.43701118 -0.16609421 -0.33184728 -0.09634168
0002a0 54 8e f6 3d ec ca 92 3e ae 7e 6b be 14 e6 2d 3c
       0.12038866 0.28670442 -0.22997543 0.010613937
0002b0 fe 80 b6 bc a1 af b6 bc af 44 b8 3d 2f b6 31 be
       -0.022278305 -0.022300543 0.08997475 -0.17354654
0002c0 2e 5a 8b bd e2 76 1d bd fe 01 45 3c 7f 0a 01 be
       -0.0680431 -0.038443454 0.012024401 -0.1260166
0002d0 3b a2 25 be b1 b6 0c 3e 92 f7 3a 3e 83 1d 55 3e
       -0.16175167 0.13741566 0.18258503 0.20812039
0002e0 4d b2 a5 bd 52 40 a9 3e 3b 90 9b be 7b dc 8d bf
       -0.08090649 0.33056885 -0.30383477 -1.108291
0002f0 2a de 35 3e f6 7d 98 bd b6 40 b4 bd a1 c8 39 3c
       0.1776053 -0.074459 -0.08801405 0.011339338
000300 88 68 11 bf ce 6a a7 bd 1b bf 4a be 29 ea e6 3c
       -0.5680013 -0.08174668 -0.19799463 0.028187828
000310 60 fc c2 bd 9a 4e 8f be 8e ea 2e bd 19 49 6c be
       -0.09520793 -0.27989656 -0.042704158 -0.2307476
000320 f4 b1 1a be e7 d8 73 3e af 25 29 3e 58 31 ae bd
       -0.15106946 0.2381321 0.16518281 -0.08505505
000330 2d 55 fa 3d a9 87 a0 3d c5 f3 70 be 19 15 a8 be
       0.12223277 0.07838375 -0.2353049 -0.32828596
000340 ed 0c 1d be b5 28 98 3d a0 fc 07 3b c2 45 be 3d
       -0.15336962 0.07429639 0.0020749941 0.09290649
000350 fb 2d 4d bd 64 f7 cd 3d 52 a3 5d be ff f0 86 3d
       -0.05009268 0.10056952 -0.21644333 0.06588935
000360 35 32 1e 3e 8e b8 83 3c c9 92 31 3c 85 b1 a0 3d
       0.1544884 0.016079213 0.010838219 0.07846359
000370 a9 03 76 3e 93 c7 13 bc 2d 40 b9 3d 84 a3 a1 3c
       0.24024834 -0.00901975 0.09045444 0.01973129
000380 d6 46 d7 3e 16 a4 39 bb 5a 0a 94 bc 61 12 00 bf
       0.4204623 -0.0028326563 -0.018071342 -0.50028044
000390 e4 83 cd be f1 21 8e be 5b b6 f3 3e 0b 0d 9d 3c
       -0.40139687 -0.2776027 0.47600064 0.019171258
0003a0 3e 28 78 bf 94 a1 1f bc 3f 9e c4 bc 17 4e b4 3b
       -0.96936405 -0.009743113 -0.024001239 0.005502473
0003b0 c7 e4 d8 bd e8 19 b8 3e 84 54 a3 3e ed 35 70 bb
       -0.10590511 0.35957265 0.31900418 -0.0036653236
0003c0 29 9d 74 be bc 89 1e bd 0f 79 c1 3e 6e 9c 10 be
       -0.23888077 -0.038705572 0.37787673 -0.14122173
0003d0 c4 33 3d 3e 2d 2e 35 bc ff 83 41 3c 56 c2 da be
       0.18476778 -0.011058372 0.0118112555 -0.42726392
0003e0 8f c7 98 bd 51 d7 0f 3d a2 6f c4 be 12 d3 93 3d
       -0.07459938 0.03511745 -0.3836642 0.07217993
0003f0 47 03 09 3e 35 05 2d bf ec 84 72 bc a6 8d 89 bd
       0.13380156 -0.6758607 -0.014802199 -0.067164704

discrete_action_output_shape f4 [1, 3]
000000 00 00 c0 40 00 00 c0 40 00 00 c0 40
       6.0 6.0 6.0

network_body._body_endoder.seq_layers.0.bias f4 [256]
000000 05 10 75 bf e8 21 88 bf ad 0b cc bf aa 1d 6c bf
       -0.9572757 -1.0635347 -1.5941063 -0.92232764
000010 0d 60 bb bf 66 40 fe bf 0b 05 cf bf 35 81 60 bf
       -1.4638687 -1.9863403 -1.6173414 -0.87697154
000020 d3 70 be bf b2 72 af bf b0 35 ca bf 2b d8 6a bf
       -1.4878181 -1.3706877 -1.5797634 -0.91736096
000030 79 a5 47 bf 7c bd dc bf 4f c7 c6 bf 1f f5 88 3e
       -0.77986866 -1.7245326 -1.5529574 0.26749513
000040 6f 77 08 c0 c7 4e e2 bf 22 93 c3 bf 91 32 d7 bf
       -2.1322896 -1.7680291 -1.5279276 -1.6812307
000050 e2 4f b3 bf dc e3 ae bf 98 7b 93 bf e9 34 ee bf
       -1.4008753 -1.3663287 -1.1522093 -1.8609897
000060 eb 43 b8 bf 79 38 b9 bf b0 29 52 bf 95 de 16 bf
       -1.4395727 -1.4470359 -0.8209486 -0.58933383
000070 79 4f b8 bf 1b fc 9c bf e5 2f f6 bf 7a bd e5 bf
       -1.4399253 -1.2264436 -1.9233366 -1.7948449
000080 ec 2e bb bf 85 0b f1 bf 1c 3e f5 bf 09 83 8c bf
       -1.4623694 -1.883164 -1.9159579 -1.0977489
000090 7b 57 ab bf 20 6a ba bf cf ad b7 bf 2e 80 bf bf
       -1.3386072 -1.4563637 -1.4349917 -1.4960992
0000a0 3c eb eb bf e2 c5 d9 bf 0a af d6 bf 16 a5 06 c0
       -1.8431163 -1.7013514 -1.6772168 -2.103826
0000b0 81 b4 83 bf 26 51 dc bf 29 3b b7 bf 96 96 dc bf
       -1.028946 -1.7212265 -1.4314929 -1.7233455
0000c0 92 d1 f1 bf a1 2e de be f8 92 9d bf ad 64 a6 bf
       -1.8892081 -0.4339495 -1.2310476 -1.2999474
0000d0 ba d5 d1 bf 82 7d b5 bf ab ce d4 bf db 81 d7 bf
       -1.6393349 -1.4178927 -1.662557 -1.6836504
0000e0 e2 9e cb bf 72 c4 84 bf 84 82 4f bf c0 27 98 bf
       -1.5907862 -1.037245 -0.81058526 -1.1887131
0000f0 f3 1e e2 bf 01 cf f7 be 85 a6 dc bf fc 29 ed bf
       -1.7665695 -0.4840012 -1.7238318 -1.8528438
000100 75 72 ef bf 5c a4 f7 bf 17 41 81 bf 7a 95 aa bf
       -1.8706805 -1.9347034 -1.0097989 -1.3326867
000110 2c f7 a2 bf fb 24 e7 bf 50 f5 94 bf 7b 6f f9 bf
       -1.2731681 -1.805816 -1.1637363 -1.9487146
000120 13 53 29 bf 2f ad ad bf f0 d8 39 bf ad 3b b1 bf
       -0.66142386 -1.3568476 -0.72596645 -1.3846337
000130 1e c6 9e bf 7a 23 b3 bf fc 85 d8 bf eb be c2 bf
       -1.240421 -1.3995202 -1.6915889 -1.5214514
000140 44 54 b6 bf 65 50 ce bf 3a 5c e6 bf e3 b7 dd bf
       -1.4244466 -1.6118284 -1.7996895 -1.7321743
000150 86 0a b7 bf d1 93 72 be 9d b2 e2 bf fc 6b 08 c0
       -1.4300086 -0.236892 -1.7710758 -2.1315908
000160 38 21 dc bf 73 17 a3 bf eb e5 73 bf 25 e1 ad bf
       -1.7197638 -1.2741531 -0.952727 -1.3584334
000170 74 48 85 bf 78 98 b6 bf d2 3b f9 bf 9b bf 13 bf
       -1.0412736 -1.426528 -1.9471381 -0.5771424
000180 af 66 89 bf c4 39 b3 bf df 02 b1 bf 7f 3c ef bf
       -1.0734462 -1.4002004 -1.3829001 -1.8690337
000190 c0 e9 a3 bf 82 74 e0 bf 46 da c0 bf c4 d0 7b bf
       -1.280571 -1.7535555 -1.5066612 -0.98365426
0001a0 83 15 eb bf d5 75 04 c0 8c 8b 70 bf ed ea 04 bf
       -1.836594 -2.069692 -0.9396293 -0.5192097
0001b0 34 76 0f bf 8b 58 17 bf ba fc af bf 36 66 9c bf
       -0.5603974 -0.5911948 -1.3749001 -1.2218692
0001c0 0e 88 6f bf 86 25 cd bf 24 38 97 bf ec 2a 36 bf
       -0.9356698 -1.6027076 -1.1814008 -0.71159244
0001d0 6d 88 24 3f 36 35 e5 bf 87 b5 91 bf af 36 bf bf
       0.6427067 -1.7906864 -1.1383523 -1.4938563
0001e0 2c 5c 9f bf 57 bd ca bf dc 1b c9 bf b7 8e cd bf
       -1.2450004 -1.5839032 -1.5711627 -1.6059178
0001f0 5a c5 b5 bf 5f 22 f4 bf f1 f2 a2 bf de 9a b7 bf
       -1.4200852 -1.9072989 -1.273039 -1.4344137
000200 19 4e 39 3f 3b ff e4 bf 8b c6 c5 bf 76 07 ff bf
       0.7238479 -1.789039 -1.5451216 -1.9924152
000210 49 b3 c0 bf e9 5d d6 bf a2 f7 bd bf e7 35 df bf
       -1.5054713 -1.6747409 -1.4841197 -1.7438325
000220 7c a2 fa 3d 9d 1d dc bf b4 c2 d9 bf 9b 61 b5 bf
       0.12238023 -1.7196537 -1.7012544 -1.4170412
000230 61 c3 de bf 2a 86 dd bf a9 91 c0 bf b8 1e db bf
       -1.7403375 -1.7306569 -1.5044452 -1.711875
000240 5f 5b d4 bf ba 94 ca bf e4 fe a4 bf 51 3b ca bf
       -1.6590384 -1.5826638 -1.2890286 -1.5799352
000250 56 c9 b9 3d da c7 fc bf e5 ad f5 bf 9a cc 66 bf
       0.09071605 -1.974849 -1.9193693 -0.9015595
000260 ca ec c4 bf e4 a9 cd bf b9 f1 d2 bf b8 20 07 bf
       -1.5384762 -1.6067472 -1.6480018 -0.527843
000270 0b 55 d4 bf 0b 62 3d bf f8 db bd bf 1b f7 fc bf
       -1.6588453 -0.73977727 -1.4832754 -1.9762911
000280 1c 6f ac bf 06 bd 6e bf f5 20 d8 bf cc 0e d9 bf
       -1.3471408 -0.93257177 -1.6885058 -1.6957641
000290 00 d9 cd bf 03 ea d9 bf 74 e5 d4 bf e2 9b ec bf
       -1.6081848 -1.702454 -1.6632524 -1.8485072
0002a0 48 db 84 bf 37 e5 2c bf 1f c7 f4 bf b5 87 ac bf
       -1.0379419 -0.67537254 -1.9123267 -1.3478914
0002b0 e6 07 f2 bf 46 e1 a7 bf da 37 bf bf d6 3f c1 bf
       -1.890866 -1.3115623 -1.493892 -1.5097606
0002c0 6d 47 eb bf 2d 30 c1 bf 15 38 e4 bf 59 2d e2 bf
       -1.8381172 -1.5092827 -1.7829615 -1.7670089
0002d0 66 53 c2 bf 2c e1 c4 bf 41 28 db bf cc b9 e5 bf
       -1.5181701 -1.5381217 -1.712166 -1.7947326
0002e0 04 2f c6 bf 90 73 d2 bf a9 fd b8 bf 0d 08 c2 bf
       -1.5483098 -1.6441517 -1.4452411 -1.5158707
0002f0 70 24 5b bf 31 d7 bb bf 53 7d 87 bf 29 a9 dc bf
       -0.85602474 -1.4675046 -1.0585121 -1.7239124
000300 ec 30 ca bd bc f8 4e bf 96 e5 cf bf 08 8d e0 bf
       -0.09872612 -0.8084829 -1.6241939 -1.7543039
000310 1e 06 e0 bf 0a 5f af bf fc 03 de bf 38 dd 9c bf
       -1.7501867 -1.3700879 -1.7344966 -1.2255011
000320 de 5f 33 bf f6 68 94 bf 5e 13 8f be d1 dc e5 bf
       -0.70068157 -1.1594532 -0.27944463 -1.7958013
000330 6b 6b c0 bf d7 d5 bf bf 7e 88 b4 bf d6 ba cf bf
       -1.5032781 -1.4987134 -1.4104154 -1.6228893
000340 a8 9d e1 bf aa c5 e0 bf e9 db cb bf 1e 54 de be
       -1.7626238 -1.7560322 -1.5926486 -0.4342355
000350 a0 06 12 bf c9 79 e0 bf 3b 0e 5d bf e7 d0 cc bf
       -0.5704136 -1.7537166 -0.8634984 -1.6001252
000360 2d 84 c0 be f9 5c 3a bf 4b d1 b7 bf c0 a6 e0 bf
       -0.37600842 -0.72798115 -1.4360746 -1.7550888
000370 64 8c cd bf e5 57 ff bf 81 8a b6 bf cf ca d0 bf
       -1.6058469 -1.9948698 -1.4261018 -1.6311892
000380 46 d6 af bf 2e c5 9e bf 39 02 b4 bf ac 02 b9 bf
       -1.3737266 -1.2403924 -1.4063178 -1.445394
000390 08 86 c7 bf 2a fb b0 bf d9 93 f0 bf 2b 50 fc 3e
       -1.5587778 -1.3826649 -1.879512 0.49279913
0003a0 9b 0c 52 bf 9d 95 dd bf 86 2c d8 bf 93 a8 89 bf
       -0.82050484 -1.7311283 -1.6888587 -1.075457
0003b0 e0 4f 5a bf df 8b db bf 07 11 9a bf ff fb db bf
       -0.8527813 -1.715206 -1.2036446 -1.7186278
0003c0 96 ae 91 bf ba 38 af bf 6c 95 d6 bf b4 be e8 bf
       -1.1381404 -1.3689187 -1.676435 -1.8183198
0003d0 61 bd dc bf 15 97 ce bf 0e 5a b0 bf fe 05 fa bf
       -1.7245294 -1.6139857 -1.3777483 -1.9533079
0003e0 79 7c a8 be fa a0 c6 3f 02 4d d1 bf 4c 20 93 bf
       -0.32907465 1.5517876 -1.6351626 -1.1494231
0003f0 04 fb d8 bf f9 25 b9 bf 76 59 f3 bf 9f 87 c8 bf
       -1.6951604 -1.4464713 -1.9011676 -1.5666388

network_body._body_endoder.seq_layers.0.weight f4 [256, 69]
000000 38 d4 28 bd f7 b2 99 3e e5 fe c3 3e c7 aa 20 3a
       -0.041218013 0.30019352 0.38280407 0.00061289634
000010 a1 1b 80 bf 3a 03 95 bf cb 69 78 bf 42 7b 8d bf
       -1.0008432 -1.164161 -0.9703643 -1.105324
000020 2b 46 97 bf c2 8e 86 bf 88 de 1e be d3 6f 6e bf
       -1.1818289 -1.0512316 -0.15514576 -0.9313938
000030 d5 32 89 bf cb 9f 7f bf eb 22 92 bf 20 75 9b bf
       -1.0718638 -0.998532 -1.1416906 -1.2145119
000040 84 66 86 bf f4 97 07 be 99 de a1 bf 78 15 83 bf
       -1.0500035 -0.1324156 -1.2646056 -1.0240927
000050 fe 1b 7a bf c3 b1 99 bf bc ab 81 bf bb dd 86 bf
       -0.9769896 -1.2007374 -1.0130534 -1.0536417
000060 7b 9e 71 3d 80 12 9d bf 1d 42 99 bf b6 82 90 bf
       0.05898903 -1.2271271 -1.1973301 -1.128989
000070 27 76 85 bf 0e 15 96 bf b8 cc 96 bf f3 82 3d 3d
       -1.0426682 -1.1725175 -1.1781225 0.04626746
000080 5c b1 a5 bf 19 0a 7f bf 2b bd 93 bf 78 ca 9b bf
       -1.2944751 -0.9962478 -1.1542104 -1.2171164
000090 8d 41 88 bf f9 e5 84 bf 37 3c 52 3e 85 d8 ae be
       -1.0645005 -1.0382682 0.20530783 -0.34149566
0000a0 9b 0d 0e bf 01 15 5a be cd 42 7a bd 13 23 3b be
       -0.5548951 -0.21297075 -0.061098862 -0.18275099
0000b0 14 6a b3 be a8 84 f2 3d 5d 7c b1 be ad 00 d8 be
       -0.3504187 0.118417084 -0.34665194 -0.42188016
0000c0 74 59 07 bf 65 66 77 bc c1 7b e9 be c2 c8 3b 3e
       -0.5287087 -0.015100096 -0.4560223 0.18338302
0000d0 86 03 0d 3f aa 41 c2 3d f8 a1 29 be 2a b6 42 be
       0.550835 0.09485181 -0.16565692 -0.19014803
0000e0 0e 4b ee bb 3d 9d 96 be 86 e7 20 bf 49 e5 8b be
       -0.007272131 -0.29416838 -0.62853277 -0.27323368
0000f0 96 c9 b5 be f9 5f 04 be 38 79 97 bd b1 c7 04 be
       -0.3550536 -0.12927236 -0.073961675 -0.12966801
000100 a5 59 ce 3b bd ab 49 be 4b 5f bb 3d 1c 0a b9 3c
       0.0062973076 -0.19694419 0.09149035 0.022587828
000110 cd d7 a5 3e b1 c8 81 bc e8 26 30 be 6b 0c ff 3e
       0.32391205 -0.015842767 -0.17202342 0.49814162
000120 a2 a6 fc bc 24 be 97 bf 87 57 7f bf b9 bd b7 bf
       -0.030841175 -1.1854901 -0.9974293 -1.4354774
000130 17 45 94 bf be e8 96 bf 9d 68 a9 bf 1a 4a 95 3d
       -1.1583585 -1.1789777 -1.323505 0.072895244
000140 d2 c4 91 bf d1 95 96 bf 82 95 97 bf 73 bf 98 bf
       -1.138819 -1.176447 -1.1842501 -1.1933426
000150 3b 83 8c bf 7f f8 94 bf 91 75 98 bd 29 29 8b bf
       -1.0977548 -1.1638335 -0.07444299 -1.0871936
000160 99 3d ad bf 2d 30 98 bf ff 90 a3 bf 21 91 8b bf
       -1.3534423 -1.1889702 -1.2778624 -1.0903665
000170 91 b6 a7 bf 2e 60 36 bd 4f c5 96 bf e0 c2 76 bf
       -1.310259 -0.044525318 -1.1778964 -0.96391106
000180 ad 04 94 bf 88 4f 92 bf e1 4d 79 bf 82 06 8f bf
       -1.1563927 -1.1430521 -0.9738446 -1.1173861
000190 f9 36 47 3e eb ba 90 bf dc 01 71 bf 7c c8 a0 bf
       0.19454564 -1.1307043 -0.9414346 -1.2561183
0001a0 20 bc 93 bf 2c c3 a8 bf 63 9e 9b bf bf 7c 06 3e
       -1.1541786 -1.3184562 -1.2157711 0.13133524
0001b0 4d 5d 86 3e 07 49 0e 3e 46 c3 50 bd 33 b3 04 3f
       0.26243058 0.13895045 -0.050967477 0.51835936
0001c0 a7 a4 85 3e a5 e7 c8 be b4 a4 fa 39 9f 4a a3 3e
       0.26102182 -0.3923923 0.0004780643 0.3189287
0001d0 fb 22 df 3c 63 54 d0 3e bd 8a b8 be 76 1b dc 3e
       0.02723836 0.40689382 -0.3604335 0.429897
0001e0 35 fb 2a 3c 47 30 87 3e a6 f1 81 3d 69 46 5b 3e
       0.010435869 0.2640402 0.06344919 0.21413578
0001f0 61 f6 36 3e b4 16 38 bd 3b 40 20 3e b8 42 e0 be
       0.17867424 -0.044943526 0.15649502 -0.43800902
000200 85 42 22 3d 11 e4 17 3f 34 de ba be 23 e0 05 bd
       0.03961422 0.59332377 -0.36497653 -0.032684457
000210 4f 68 83 3e d4 a7 03 bf 78 55 19 3f 9a 77 8a be
       0.2566552 -0.5142796 0.5989604 -0.27044374
000220 3f 74 c6 3d 5d cd 60 be 46 f7 8f 3e c2 ce 6b 3e
       0.09690141 -0.2195334 0.28118342 0.2302809
000230 35 58 39 3e 14 9f 13 be a1 cf d6 bf 23 be cf bf
       0.18100055 -0.14416152 -1.6782113 -1.62299
000240 38 76 ce bf f0 51 e1 bf 2e 84 df bf 8d 25 e9 bf
       -1.6129827 -1.760313 -1.7462213 -1.8214585
000250 d9 33 d3 bd 62 f8 dc bf 4d af c5 bf d6 1b de bf
       -0.103126235 -1.72633 -1.5444123 -1.7352245
000260 df 66 c7 bf 65 03 bd bf 50 ee c7 bf 34 c7 a3 3d
       -1.5578269 -1.4766661 -1.5619602 0.07996979
000270 e8 3e e4 bf 04 fa ce bf 70 03 e9 bf 24 a2 ed bf
       -1.7831697 -1.6170049 -1.8204174 -1.8565106
000280 79 48 c7 bf 6c e0 f4 bf 5e a1 f1 bc 54 3d cb bf
       -1.5568992 -1.9130988 -0.029495891 -1.5878091
000290 b9 53 ef bf 4f 05 d2 bf c2 df d9 bf 02 4f d4 bf
       -1.8697425 -1.640787 -1.702141 -1.6586611
0002a0 fe 37 e1 bf f5 00 a0 bd 38 0a de bf 24 20 dc bf
       -1.7595212 -0.078126825 -1.7346869 -1.7197309
0002b0 49 80 dd bf ca 22 f5 bf 99 cb bf bf 96 94 c0 bf
       -1.7304775 -1.9151242 -1.4984008 -1.5045345
0002c0 d7 36 00 be a8 7e 23 3f f9 aa 2b 3f d6 8e 1c 3b
       -0.1252092 0.6386514 0.6705776 0.0023888848
0002d0 31 0d 98 3e 06 20 a0 bd cb 83 50 be 87 cd a4 be
       0.29697564 -0.07818608 -0.20362775 -0.32188055
0002e0 93 0c 7b bd e9 80 ec 3d 67 ca 82 3e 54 dc 53 3d
       -0.06129129 0.11548025 0.25545046 0.051723793
0002f0 7f dc 8e bd c4 03 8f be 80 53 15 bf fb 76 da bd
       -0.0697565 -0.2793256 -0.58330536 -0.10667225
000300 e3 73 ba 3c 0b 50 82 be 31 80 26 be ae d9 30 be
       0.022760337 -0.25451693 -0.16259839 -0.17270538
000310 ba 6b 1e 3e 35 dc e2 3d dc 90 f8 be d2 64 9f 3e
       0.15470782 0.110771574 -0.4854802 0.31131607
000320 a3 77 cc bf 76 a8 3a be ef 80 b0 3d 6c a4 7f 3e
       -1.597401 -0.18228325 0.08618342 0.24965066
000330 0e 8f 80 3c 2a fc 31 be af 21 46 3e af 6f 61 bd
       0.015693214 -0.17381349 0.19348787 -0.05503815
000340 6a 3b 6c 3e a4 79 9a 3e 28 3a e1 3d a7 ce 83 bf
       0.2306954 0.3017093 0.109974205 -1.029744
000350 2a 9f 54 bf af ee 71 bf fd 79 8f bf ec f1 79 bf
       -0.83055365 -0.9450483 -1.1209103 -0.9763477
000360 7e 9e 87 bf fa 6e aa bd 34 0c 62 bf 99 f1 59 bf
       -1.0595243 -0.08321948 -0.8829987 -0.85134274
000370 c4 36 54 bf dd e1 5d bf 8e b2 89 bf 2e 15 63 bf
       -0.82896066 -0.86672765 -1.0757616 -0.8870419
000380 5f 14 1a 3e eb e6 63 bf d4 d6 98 bf 4f bf 8e bf
       0.15046833 -0.8902423 -1.194056 -1.1152133
000390 d8 d0 94 bf 96 aa 7c bf 0d 46 5f bf f8 b7 e3 bd
       -1.1626234 -0.98697793 -0.87216264 -0.11119074
0003a0 a2 9a 87 bf 2a 58 74 bf e4 ec 8b bf fe 68 61 bf
       -1.0594065 -0.9544703 -1.0931668 -0.8805083
0003b0 12 a9 98 bf f2 39 74 bf 47 87 dd 3c 5d b7 88 bf
       -1.1926596 -0.9540092 0.027042044 -1.0680958
0003c0 33 9a 86 bf f6 0c 7f bf b7 b8 38 bf 16 35 7b bf
       -1.0515808 -0.9962915 -0.7215685 -0.9812788
0003d0 6f 37 7b bf db d7 5e bd e6 ea bd 3d 62 3c f6 be
       -0.9813146 -0.054405075 0.09273319 -0.48092943
0003e0 65 0a 3e be 8a 01 76 3e 20 d8 c3 3d eb d0 39 3f
       -0.18558653 0.24024025 0.09562707 0.7258441
0003f0 f6 6e a3 3e 66 bb 1d 3e 3d 4d 4d 3e 8f 5f f3 bd
       0.31920594 0.15403518 0.20048995 -0.11883461

network_body._body_endoder.seq_layers.2.bias f4 [256]
000000 fc 0c 48 bf fe a7 7e bf ca 72 1f bf f1 e6 59 bf
       -0.7814481 -0.99475086 -0.6228453 -0.85118014
000010 1d d1 35 bf 66 39 64 bf aa aa 5d bf c9 df 71 bf
       -0.71022207 -0.89150083 -0.8658854 -0.94482094
000020 01 63 5a bf 65 78 56 bf 01 be 50 bf 45 87 91 3e
       -0.8530732 -0.8377746 -0.8153992 0.28423515
000030 2d f5 24 bf 6d 5c 7f bf 8c 03 fc be ee e4 3e bf
       -0.6443661 -0.99750406 -0.49221456 -0.7456807
000040 48 e0 6f bf a5 0c 1e bf d9 2f 42 bf 0e 08 70 bf
       -0.937016 -0.61738044 -0.7585426 -0.9376229
000050 76 c9 80 bf d5 d1 2c bf 72 bb 4f bf a2 18 80 bf
       -1.0061481 -0.6750768 -0.81145394 -1.0007517
000060 87 14 1f bf cd 29 75 bf 49 4c 2c bf 1e b1 67 bf
       -0.621407 -0.9576691 -0.673039 -0.90504634
000070 70 55 52 bf dc 7f 7e bf 70 38 1e bf a8 8a 55 bf
       -0.8216162 -0.9941385 -0.61804867 -0.834147
000080 65 30 42 bf e9 a4 57 bf dc 2a 16 bf 7b 62 47 bf
       -0.75855094 -0.8423601 -0.5865915 -0.77884644
000090 5f b9 46 bf c4 d1 86 bf 19 b8 16 bf d1 5c 08 bf
       -0.77626604 -1.0532765 -0.5887466 -0.53266627
0000a0 c7 41 2f bf 12 73 15 bf 97 62 93 bf d2 f2 2d bf
       -0.68459743 -0.5837871 -1.1514462 -0.6794864
0000b0 69 c9 34 bf a3 c8 71 bf c3 70 0a bf 43 47 4c bf
       -0.7061983 -0.9444677 -0.5407831 -0.79796237
0000c0 d9 8e 8a bf 51 9d 36 bf b8 ac 3e bf 02 aa 35 bf
       -1.0824844 -0.71333796 -0.744823 -0.70962536
0000d0 ea 40 51 bf 2b 9a e9 be 87 22 d5 be 8c f6 9e bf
       -0.81739676 -0.45625433 -0.41627905 -1.241899
0000e0 a6 08 6a bf b5 44 30 bf ff e6 22 bf 15 2c 85 bf
       -0.91419446 -0.6885484 -0.6363372 -1.0404078
0000f0 79 c6 44 bf be 86 6a bf e6 35 7c bf 93 c1 ed be
       -0.76865345 -0.9161185 -0.9851974 -0.46436748
000100 14 28 5a bf a7 78 6f bf 3f 4e 74 bf 5f 66 31 bf
       -0.85217404 -0.93543476 -0.95431894 -0.6929683
000110 09 1f 1a bf 23 bf 3f bf c9 c7 56 bf f1 b6 59 bf
       -0.60203606 -0.74901026 -0.838986 -0.8504477
000120 d1 58 25 bf 96 54 d3 be a7 73 31 bf d6 2d 4e bf
       -0.6458865 -0.4127547 -0.69317096 -0.8053869
000130 6e 66 2d bf b6 2b 4f bf 39 c9 27 bf d2 d2 89 be
       -0.6773442 -0.8092607 -0.65541416 -0.26918656
000140 31 98 24 bf 08 8e 33 bf cc 23 48 bf d3 03 41 bf
       -0.64294726 -0.701386 -0.7817962 -0.7539646
000150 c9 58 41 bf 9d 62 61 bf 12 69 10 bf 0d a5 1d bf
       -0.755261 -0.88041097 -0.56410325 -0.6157997
000160 b9 d9 03 bf 19 1b 40 bf c2 ac 5a bf 10 7d b0 be
       -0.51504093 -0.7504135 -0.8541986 -0.34470415
000170 13 1b 78 bf c5 f4 5a bf 03 b3 6a bf f4 16 43 bf
       -0.9691631 -0.8552974 -0.916794 -0.762069
000180 5c a9 7e bf a8 c8 64 bf 01 46 52 bf 5c 07 69 bf
       -0.9947717 -0.8936868 -0.8213807 -0.91026855
000190 cf 98 44 bf 73 5c 3c bf c9 c7 19 bf 59 00 28 bf
       -0.7679567 -0.73578566 -0.6007047 -0.6562553
0001a0 55 13 e6 be e9 19 5f bf c1 f0 5a bf bd f0 23 bf
       -0.44936624 -0.8714891 -0.8552361 -0.6403921
0001b0 c0 1a 69 bf a0 0e 56 bf 7b 41 53 bf 16 1e 83 bf
       -0.9105644 -0.83616066 -0.8252179 -1.0243556
0001c0 c5 cc 72 bf b0 98 93 bf 69 49 47 bf 34 d0 f1 be
       -0.94843704 -1.1530972 -0.7784639 -0.4722916
0001d0 d0 40 4e bf 00 5b 19 3f 90 82 32 bf 08 ad 6d bf
       -0.80567646 0.5990448 -0.6973047 -0.9284215
0001e0 7f 21 48 bf 2f 16 7b bf 57 c1 1f bf f2 cb 3f bf
       -0.7817611 -0.98080724 -0.6240439 -0.7492057
0001f0 77 84 26 bf d6 c1 73 bf 3f c0 3d bf 2e d6 24 bf
       -0.65045875 -0.95217645 -0.7412147 -0.6438931
000200 19 0a 7f bf 0b da 3c bf a4 f8 4a bf 8d 27 17 bf
       -0.9962478 -0.7377021 -0.79285645 -0.59044725
000210 34 cf 41 bf 64 f3 56 bf 06 8f 5c bf 9a 4d 13 bf
       -0.7570679 -0.83965135 -0.86155736 -0.57540286
000220 bd fe 4d bf 86 8a 8c 3f eb 7b 6f bf 41 eb 44 bf
       -0.80466825 1.0979774 -0.9354846 -0.7692147
000230 24 a1 64 bf 76 ec 62 bf b8 74 26 bf 6a a7 1e bf
       -0.8930838 -0.8864206 -0.6502185 -0.61974204
000240 e2 ee 3c bf 3f 2a 25 bf dd c4 fa be c0 58 d3 be
       -0.73802006 -0.6451759 -0.4897832 -0.41278648
000250 4d 5c 41 bf de d2 84 bf 17 f3 57 bf b3 c6 90 bf
       -0.75531465 -1.0376852 -0.843553 -1.1310638
000260 f4 4b 2c bf fc 94 0b bf d4 a5 7c bf 8a 70 4b bf
       -0.67303395 -0.5452421 -0.98690534 -0.79468596
000270 eb 2b 84 bf 79 27 51 bf 0f c5 0d bf 4c fa 66 bf
       -1.0325903 -0.81700855 -0.5537881 -0.9022567
000280 34 bf 7b bf e0 00 28 bf de 4a 26 bf 99 ef 59 bf
       -0.9833863 -0.65626335 -0.6495799 -0.8513122
000290 24 88 49 bf 3d 37 31 bf 56 a5 56 bf 0e 1b 8b bf
       -0.7872336 -0.6922491 -0.8384603 -1.0867631
0002a0 c6 d4 40 bf 54 98 9c bf c5 1f 79 bf 5f f2 60 bf
       -0.75324667 -1.2233987 -0.973141 -0.8786983
0002b0 e6 7a 39 bf 7d 5f 1e be a6 6a 82 bf 2f 06 50 bf
       -0.72453153 -0.15466113 -1.0188797 -0.81259435
0002c0 4e f9 7a bf 01 e7 25 bf ae 9f 21 bf 4c 97 3a bf
       -0.9803666 -0.6480561 -0.63134277 -0.7288711
0002d0 b4 d3 54 bf 24 d6 2c bf 29 d3 3f bf 9b 97 2b bf
       -0.83135533 -0.6751425 -0.7493158 -0.67028207
0002e0 e2 1f 46 bf e2 b5 87 bf a6 8f e8 3e de b8 27 bf
       -0.773924 -1.0602381 0.45422095 -0.6551646
0002f0 98 4c 4e bf 32 f0 80 bf 67 3e 02 bf fc 56 15 bf
       -0.8058562 -1.0073302 -0.5087647 -0.5833585
000300 54 17 37 bf f8 3c 39 bf 2a 12 4d bf ea f6 3d bf
       -0.7151997 -0.72358656 -0.8010584 -0.74204886
000310 62 8c 30 bf 9e 43 58 bf e3 8f 7a bf d4 f4 7c bf
       -0.6896421 -0.84478176 -0.97875804 -0.9881108
000320 d3 84 9f bf ac ed 32 bf e2 95 6e bf 76 4a 9a bf
       -1.246241 -0.6989391 -0.93197453 -1.2053974
000330 0c 95 e3 be 3c 93 22 bf 8a 49 81 bf c5 ad 55 bf
       -0.4444965 -0.6350591 -1.0100567 -0.83468276
000340 2e 66 42 bf a9 24 81 bf fe 1c 5b bf 28 3f 1d bf
       -0.75937164 -1.0089313 -0.85591114 -0.61424494
000350 cd cf 15 bf 16 fb 2d bf 41 7c 3c bf cb 85 04 bf
       -0.58520204 -0.6796125 -0.73627096 -0.5176665
000360 7f b8 09 bf 60 f6 4d bf f1 39 54 bf 95 da 3b bf
       -0.53797144 -0.80454063 -0.8290091 -0.73380405
000370 e2 ba 4e bf 2c 6a 16 bf 02 ca 61 bf 63 9c 27 bf
       -0.8075391 -0.58755755 -0.88198864 -0.65473
000380 ab 9d 05 bf 8c 33 6f bf a9 1e 59 bf e6 9f 0c bf
       -0.5219371 -0.9343803 -0.8481241 -0.54931486
000390 be 97 4f bf dd e2 f8 be f6 0b c7 be a2 c9 57 bf
       -0.81090915 -0.48610583 -0.38876313 -0.8429204
0003a0 1a da 52 bf 55 cf 43 bf a1 b2 3f bf 3e 78 0e bf
       -0.82364047 -0.7648824 -0.7488194 -0.55652225
0003b0 ca 56 48 bf c1 cb 49 bf 91 fe 5b bf ad 4d 53 bf
       -0.7825743 -0.7882653 -0.8593531 -0.825404
0003c0 b9 f3 4b bf 8b ae 8e bf 23 4e 33 bf b2 c8 84 bf
       -0.79668766 -1.1147016 -0.700411 -1.0373747
0003d0 7b 12 08 bf 3e 23 27 bf 2a 01 e8 be da 5f 65 bf
       -0.531532 -0.6528815 -0.45313388 -0.8959938
0003e0 d8 01 4f bf 3e d9 18 bf 3b ec 48 bf 3f 7b 48 bf
       -0.8086219 -0.59706485 -0.7848546 -0.7831306
0003f0 95 d2 39 bf a6 c8 09 bf 34 08 31 bf fa 5c 3e 3d
       -0.7258695 -0.5382179 -0.6915314 0.046475388
