results/Test1/TrucksBehavior/TrucksBehavior-1905.onnx (onnx, 596830 bytes, 15 tensors)

86 f4 [45]
0	0x425d1318	55.268646
1	0x3d0bc9ff	0.034128185
2	0x435d9f0c	221.62128
3	0x4346bceb	198.73796
4	0x3da1098e	0.078631505
5	0x433da13d	189.62984
6	0x4342b35c	194.70062
7	0x3da0501b	0.07827779
8	0x433f39c9	191.22572
9	0x3cbba42e	0.022905435
10	0x40aaa290	5.332344
11	0x4132a03e	11.164122
12	0x4149036e	12.563337
13	0x40d4d429	6.6508985
14	0x407509b1	3.8287165
15	0x40aaa290	5.332344
16	0x3cbba42e	0.022905435
17	0x412735f5	10.450673
18	0x411e53b4	9.895435
19	0x413d2144	11.8206215
20	0x40c45581	6.1354375
21	0x4132a03e	11.164122
22	0x412735f5	10.450673
23	0x3cbba42e	0.022905435
24	0x4088cca8	4.2749825
25	0x41540757	13.251792
26	0x40f02caf	7.5054545
27	0x4149036e	12.563337
28	0x411e53b4	9.895435
29	0x4088cca8	4.2749825
30	0x3cbba42e	0.022905435
31	0x41824e7f	16.288328
32	0x4119c281	9.609986
33	0x40d4d42a	6.650899
34	0x413d2145	11.820622
35	0x41540757	13.251792
36	0x41824e4f	16.288237
37	0x3cbba42e	0.022905435
38	0x40dfb576	6.990901
39	0x40750952	3.8286939
40	0x40c45581	6.1354375
41	0x40f02caf	7.5054545
42	0x4119c281	9.609986
43	0x40dfb576	6.990901
44	0x3cbba42e	0.022905435

action_model._discrete_distribution.branches.0.bias f4 [6]
0	0x00000000	0.0
1	0x00000000	0.0
2	0x00000000	0.0
3	0x00000000	0.0
4	0x00000000	0.0
5	0x00000000	0.0

action_model._discrete_distribution.branches.0.weight f4 [6, 256]
0	0x3bc4200a	0.0059852647
1	0x394e5e3a	0.00019680793
2	0xbc53d91a	-0.012930179
3	0xbc01d97e	-0.007925389
4	0x3bbf7400	0.0058426857
5	0x3b624433	0.0034525513
6	0x3befe803	0.007321359
7	0xbad8d6cd	-0.0016543508
8	0x3b9abef2	0.0047224695
9	0x3b6d9f28	0.0036258195
10	0x3bdd20ef	0.0067483108
11	0x3a8fbdf4	0.0010966645
12	0x3b5b9b9a	0.0033509494
13	0x3b0f8c8c	0.002190384
14	0x3af211da	0.0018468455
15	0x3bdf27ef	0.0068101804
16	0x3bf47c7f	0.00746113
17	0xb9973b6b	-0.00028845234
18	0x3b45f298	0.0030204412
19	0x3959b492	0.00020762
20	0xb7f82857	-2.9582689e-05
21	0xbb776c6f	-0.003775384
22	0xbbcc851e	-0.0062414547
23	0x3abb153a	0.0014273294
24	0xbbfe6498	-0.0077634566
25	0xbb929f10	-0.004474528
26	0xbbc78438	-0.0060887598
27	0x3bbe72cc	0.0058120247
28	0xbbcff2a2	-0.0063460628
29	0xbb877c1d	-0.0041346685
30	0x3ac329d7	0.0014889789
31	0x3b18f7eb	0.002334113
32	0xba2e1538	-0.0006640735
33	0x3b8c4da7	0.004281718
34	0x3a359d0b	0.0006928003
35	0xba0b4c2a	-0.00053137785
36	0xbb07d9ef	-0.0020729264
37	0xbbc00f96	-0.005861233
38	0xbbbd3490	-0.005774088
39	0xbbc2eaed	-0.0059484155
40	0x3c2b58e4	0.010458205
41	0xbbd9f742	-0.00665179
42	0x3c15dbc4	0.0091466345
43	0x3ad53827	0.0016267345
44	0x3c550e72	0.013003932
45	0xbac4d0b5	-0.0015015813
46	0xba9e1acd	-0.0012062431
47	0xbc11a329	-0.008888998
48	0x3b5c56da	0.0033621104
49	0xbc0236f6	-0.007947674
50	0x3b893bb5	0.004188026
51	0x3ad6deb0	0.001639327
52	0x3b5b654b	0.0033477123
53	0xbb34cba3	-0.0027587197
54	0xb989850e	-0.0002622981
55	0x3b47e8e1	0.0030503797
56	0xbb32bb33	-0.0027272224
57	0x3b623ecf	0.00345223
58	0x3a5e699f	0.00084843667
59	0x3b621da2	0.0034502526
60	0xbad864a2	-0.0016509483
61	0x3b0cafc7	0.0021467076
62	0x395893eb	0.00020654469
63	0x3c2c434f	0.0105140945
64	0x3af1c9f3	0.0018447026
65	0xbb1c8670	-0.0023883842
66	0xbc5d786d	-0.013517481
67	0x3c03da65	0.008047675
68	0x3c40d5d7	0.011769733
69	0x3a1baaaf	0.00059382146
70	0xbbdad020	-0.0066776425
71	0xbc1c018f	-0.009521856
72	0x3be88087	0.0070954
73	0x3cb280ce	0.021789934
74	0xbb64d497	-0.0034916752
75	0xbb2b843b	-0.0026171345
76	0x3ba9b305	0.0051788115
77	0x39aae50c	0.0003259558
78	0xbc1acb7b	-0.009447928
79	0x3b175095	0.0023088802
80	0xbafc0035	-0.0019226136
81	0xba8cb1db	-0.0010734157
82	0xbbfd2288	-0.0077250637
83	0x3bff8c98	0.0077987425
84	0xbba60769	-0.0050668013
85	0xbbcb8d7d	-0.006211935
86	0xbb840f52	-0.0040301466
87	0xbb0c303d	-0.0021391057
88	0xbb4f2d0b	-0.003161254
89	0xbbfc5d4a	-0.0077015506
90	0xbb3b54e7	-0.0028584541
91	0xbab13045	-0.0013518414
92	0x3b18c233	0.002330911
93	0xbbef6d70	-0.007306747
94	0x3c29f369	0.010372975
95	0xbb00a9ce	-0.0019632461
96	0xbbf35ae7	-0.007426608
97	0x3b981295	0.004640887
98	0x3c3af70f	0.011411442
99	0x3b91b14b	0.004446184
100	0x3c130091	0.008972303
101	0x3c26e583	0.010186556
102	0xbba95073	-0.005167061
103	0xbc29fa51	-0.0103746215
104	0x3a56f74b	0.00082003017
105	0xbc7c00bd	-0.015381035
106	0x3bd3130a	0.0064414786
107	0x3b11138d	0.0022136897
108	0x3bc54f3a	0.0060214074
109	0x3c035abf	0.008017241
110	0xb958fdfd	-0.00020693983
111	0xbc41f258	-0.011837564
112	0x3901840f	0.00012351594
113	0xbbe697f2	-0.0070371563
114	0xbbaabff8	-0.0052108727
115	0x3b5467d0	0.003241051
116	0x39bd522c	0.00036110112
117	0xba15d924	-0.00057162554
118	0xbb9879be	-0.0046531847
119	0x3ab88793	0.001407849
120	0x3c05f9a8	0.0081771985
121	0x3b8d78a0	0.004317358
122	0x3b29637e	0.0025846655
123	0x3c36a2ff	0.01114726
124	0x3b679957	0.00353392
125	0x3b1b9ac4	0.002374337
126	0x3b8d451f	0.0043112184
127	0x3b62f7c3	0.003463254
128	0x3c91ba57	0.01778905
129	0x3bf6bfc0	0.0075301826
130	0xbc4be6f3	-0.012445199
131	0xbc08ca76	-0.008349052
132	0x3b48e42a	0.0030653575
133	0x3b962205	0.004581692
134	0x3b45dda1	0.0030191916
135	0x3bc06a22	0.005872027
136	0xbb89a8fe	-0.0042010536
137	0xbc803643	-0.015650874
138	0x3a1c87b9	0.0005971152
139	0xbbee5e10	-0.0072743967
140	0xbbbdec04	-0.0057959575
141	0xbb44f72b	-0.003005455
142	0xb9cff888	-0.00039667287
143	0xbac7b276	-0.0015235681
144	0xbc2e6654	-0.010644514
145	0xbbc70d54	-0.006074587
146	0xbb827238	-0.003980901
147	0x3ac19987	0.0014770486
148	0x3b1b1e4b	0.002366918
149	0x3aa366c7	0.0012466543
150	0xbb98fc0d	-0.0046687187
151	0x3c17cc83	0.009265068
152	0x3aca609a	0.0015440166
153	0xbb3384bf	-0.0027392355
154	0xbc11cdd1	-0.008899168
155	0x3a952d1b	0.001138124
156	0xb93996bb	-0.00017699126
157	0x3c3285b3	0.010896134
158	0x3c048d97	0.008090398
159	0xba42ec80	-0.0007435754
160	0x3c018789	0.007905849
161	0xbc182e36	-0.009288361
162	0x3bc6ffaa	0.006072958
163	0x3ba38ed4	0.0049913917
164	0xbc3a4b42	-0.011370482
165	0xbc099fdb	-0.008399929
166	0xbc1657cf	-0.009176209
167	0x36add60b	5.1807197e-06
168	0x3c03855c	0.008027401
169	0x3be9873f	0.0071267183
170	0xbbb9491c	-0.0056544673
171	0x3b90d073	0.0044193803
172	0x3ae3b1fb	0.0017371768
173	0x3bf92a37	0.0076039094
174	0x3a62dfe0	0.0008654576
175	0xbb97c0c2	-0.004631133
176	0xba033212	-0.00050047145
177	0x3b792083	0.0038013763
178	0x3b65b0dd	0.0035048046
179	0xbb83f4f7	-0.004027005
180	0x3ac1b33c	0.0014778147
181	0x3b5b602d	0.0033474073
182	0x3b6d718a	0.0036231005
183	0x3858f81a	5.1729476e-05
184	0xbb009e64	-0.0019625658
185	0x3c194ca4	0.009356651
186	0xbbd590fb	-0.006517527
187	0x3acb7f58	0.0015525622
188	0xbb105de5	-0.0022028622
189	0x3b8f9aa4	0.0043824483
190	0xbbc7a1c5	-0.0060922825
191	0x3a3eaf85	0.0007274079
192	0x3b3d6b58	0.0028903093
193	0x3b2489c0	0.002510652
194	0xbbaf3789	-0.0053471965
195	0xbc1eeb08	-0.0096995905
196	0xbabbc0d8	-0.001432444
197	0x3b9dfe18	0.00482155
198	0xbb02cb6b	-0.0019957672
199	0xbc358674	-0.011079419
200	0x3b9cb593	0.0047823875
201	0xbc5ed48d	-0.013600481
202	0x3b947028	0.0045299716
203	0x3c147cef	0.00906299
204	0xbc462c29	-0.01209549
205	0xb9d8e583	-0.0004136973
206	0x3c252a46	0.01008088
207	0xbb5f1dea	-0.003404493
208	0xbc58bd43	-0.013228717
209	0x3a19d2e9	0.0005867915
210	0x39b058c1	0.00033635463
211	0x3c0b2974	0.00849377
212	0x3ba60d83	0.0050675287
213	0xbc99ebeb	-0.018789252
214	0xbc233dd4	-0.009963471
215	0x3bdf7982	0.006819905
216	0x3bf44898	0.007454943
217	0x3c02869a	0.007966662
218	0xbc786165	-0.015159939
219	0xbc2e6c43	-0.010645929
220	0x3bd3e622	0.006466643
221	0x3be4d5bd	0.0069834874
222	0xbab2e11b	-0.0013647409
223	0x3c40561f	0.011739283
224	0x3c00f3b1	0.007870601
225	0x3b5d2340	0.0033742934
226	0x3c2c32a0	0.010510117
227	0xbc14fd78	-0.009093635
228	0xbbfa216d	-0.007633379
229	0x3baf87d1	0.0053567667
230	0x3c54b9e7	0.012983776
231	0x3c1f1f8b	0.00971211
232	0xba9ca07b	-0.0011949682
233	0x3bb42e8f	0.0054987143
234	0x3b145e4f	0.002263922
235	0x3c62c778	0.013841502
236	0xbb8d4711	-0.0043114503
237	0x3bc3d977	0.0059768516
238	0xbc64a7f3	-0.013956058
239	0x3c21650c	0.009850752
240	0xbc76d143	-0.01506454
241	0x380e3230	3.390218e-05
242	0xbacbdd74	-0.0015553669
243	0x3bc1416a	0.0058976905
244	0x3b39891c	0.0028310483
245	0xbb383cc2	-0.0028112386
246	0x3b41cd56	0.0029571853
247	0xbba1b68e	-0.0049350923
248	0xbb886155	-0.0041619935
249	0x3bb4336d	0.0054992945
250	0x3b5346a8	0.003223816
251	0x3bddbcf0	0.006766908
252	0xb8275e87	-3.9903938e-05
253	0x3c11e369	0.008904316
254	0xbb692687	-0.0035575943
255	0x38c674c1	9.463123e-05

action_model._discrete_distribution.branches.1.bias f4 [6]
0	0x00000000	0.0
1	0x00000000	0.0
2	0x00000000	0.0
3	0x00000000	0.0
4	0x00000000	0.0
5	0x00000000	0.0

action_model._discrete_distribution.branches.1.weight f4 [6, 256]
0	0x38a616fb	7.919777e-05
1	0xba4a17d2	-0.0007709238
2	0xbc088e0f	-0.008334651
3	0x3b172123	0.0023060523
4	0x3b47de59	0.003049752
5	0x3a6ff41f	0.00091535033
6	0xba0a9d5e	-0.0005287732
7	0xbbbfcf98	-0.0058536045
8	0xbb28aae7	-0.0025736631
9	0x3afbdc97	0.0019215521
10	0xbb14e5c6	-0.0022719963
11	0x3b9ca723	0.0047806664
12	0x3afb4182	0.0019169303
13	0xbba6b283	-0.005087198
14	0xbb5ca630	-0.0033668391
15	0xbbfd66a0	-0.007733181
16	0x3bcfd19a	0.006342125
17	0x3bb816dc	0.0056179594
18	0xbb365fdd	-0.0027828135
19	0xbbb63567	-0.0055605653
20	0x38ad2712	8.25656e-05
21	0xb8fb4690	-0.00011981756
22	0xbb1b1cbf	-0.0023668257
23	0x3b86e96f	0.004117183
24	0xbbc66d9f	-0.0060555483
25	0x3c43297c	0.011911746
26	0x3b8dc8f2	0.004326933
27	0x3bd6a448	0.0065503456
28	0xbb10d35a	-0.0022098632
29	0x3b867a2a	0.0041039186
30	0x3c108334	0.008820344
31	0x380ab17a	3.3067052e-05
32	0x3c00281b	0.007822062
33	0xba6d50e2	-0.0009052885
34	0xbba761c7	-0.0051080915
35	0xbbbe6955	-0.0058108964
36	0xbaae1a11	-0.0013282915
37	0xba47744e	-0.00076085783
38	0xba8714f5	-0.0010305928
39	0xbb87f377	-0.0041488963
40	0xbb5e9c7b	-0.0033967781
41	0x3a9f8ceb	0.0012172734
42	0xbb2fcc53	-0.0026824668
43	0xbc4e726a	-0.012600521
44	0xbb512dcd	-0.0031918169
45	0x3bf82a7d	0.0075734244
46	0xbb72c1ef	-0.0037041863
47	0xbb666adb	-0.0035158906
48	0xbb695893	-0.0035605773
49	0x3b72ed2d	0.0037067637
50	0x3bcc91ab	0.006242951
51	0x3bc4d163	0.006006406
52	0x3b392cf6	0.0028255559
53	0x3b857600	0.0040729046
54	0x3c114bbb	0.008868153
55	0xb6527b7d	-3.1364318e-06
56	0x3b3a19d8	0.0028396752
57	0x3b3e9ea3	0.0029086254
58	0x3ab2903d	0.0013623309
59	0xbad9d0d7	-0.0016618025
60	0xbbd082ca	-0.0063632475
61	0xbb2b95a7	-0.002618173
62	0xbbba1a8f	-0.0056794356
63	0xbb88acf0	-0.0041710064
64	0xbaab539e	-0.0013071185
65	0x3b21c531	0.0024684186
66	0x3bbf9495	0.00584657
67	0xbbe0a178	-0.006855186
68	0xbb7041c7	-0.00366603
69	0xbb89ed8f	-0.0042092274
70	0xbb230ecd	-0.0024880648
71	0x3be79fb7	0.0070686
72	0x3c1d6f64	0.009609077
73	0xbb870e7b	-0.0041215993
74	0xbb9ac253	-0.0047228723
75	0xba6d3dc5	-0.0009050037
76	0x3c168c7d	0.009188768
77	0xbc447afa	-0.0119922105
78	0xbadada40	-0.0016697124
79	0x3c0982d0	0.008393005
80	0x3b6c9f98	0.0036105867
81	0xbb1ba883	-0.0023751564
82	0xbc33c2e8	-0.010971762
83	0x3b8e2fd2	0.0043391967
84	0x3b0abb41	0.002116874
85	0x3bc6194b	0.0060454956
86	0xbbd533b7	-0.006506409
87	0x3a0eba4a	0.00054446294
88	0x3bc0c880	0.0058832765
89	0xbad59dff	-0.0016297697
90	0x3bc0356f	0.005865745
91	0xbb81dfeb	-0.0039634607
92	0xba3e9cce	-0.00072712905
93	0xbbc971df	-0.0061476077
94	0xbbba88cf	-0.0056925784
95	0xba83e88c	-0.0010063811
96	0x3b128482	0.0022356813
97	0x3c0b2cb3	0.008494544
98	0x3bd94925	0.006631034
99	0xbb7da6c0	-0.0038704127
100	0xbbd071db	-0.006361229
101	0x3b98b183	0.004659833
102	0x3c6aa2d3	0.014321047
103	0x3b1b2a5b	0.002367637
104	0xbc8a79f4	-0.016903855
105	0xbb01839d	-0.0019762286
106	0x3b126d30	0.0022342913
107	0xbba050cc	-0.0048924442
108	0x3aec7d7a	0.0018042766
109	0x3b3b19f7	0.0028549412
110	0x3b367a85	0.0027844023
111	0x3aeec07f	0.0018215327
112	0x3a29c3a7	0.0006475993
113	0xbaa23ef1	-0.0012378377
114	0x3bc75916	0.006083618
115	0xbb88de49	-0.004176889
116	0xbabc288f	-0.0014355349
117	0xbbc6de71	-0.0060689976
118	0x3a53cd17	0.0008079572
119	0x3c287249	0.010281154
120	0x3b432c2f	0.0029780974
121	0xbb47baf3	-0.003047642
122	0x38505402	4.9669303e-05
123	0x3b26781c	0.002540118
124	0xbc4239e5	-0.011854623
125	0xbc2af2af	-0.010433837
126	0xbab26a87	-0.001361207
127	0x39c15096	0.0003687187
128	0x3b93294e	0.004491008
129	0x3b8eb61a	0.0043552043
130	0x3b9909ef	0.0046703736
131	0x3be058cb	0.0068465224
132	0xbc083bfb	-0.008315082
133	0x3c717a12	0.0147385765
134	0xbb9a5827	-0.0047102156
135	0xbb177e7d	-0.0023116164
136	0x3bbc4e6f	0.0057466547
137	0xbba47b5b	-0.005019588
138	0xbbba3453	-0.005682507
139	0xbc0dce07	-0.008655078
140	0x3c54e928	0.012995042
141	0xb9e48542	-0.00043586834
142	0xbbb0ae4d	-0.005391872
143	0xbb3327ab	-0.0027336876
144	0xbad9bf7a	-0.0016612851
145	0xbc505a33	-0.012716818
146	0xbb8bdd9b	-0.004268361
147	0x3b8f9c28	0.004382629
148	0x3b61bae0	0.0034443662
149	0xbc0ccad5	-0.008593281
150	0x3af1bf47	0.0018443846
151	0xba0086da	-0.0004902907
152	0xb9ab9c64	-0.00032732182
153	0xba5ec5a3	-0.0008498078
154	0x3c17830c	0.009247553
155	0x3bab7998	0.005233001
156	0xbb15c66d	-0.0022853867
157	0x3bc284b5	0.00593623
158	0xb96be1c0	-0.00022495445
159	0xbbd2b833	-0.0064306497
160	0x3baf5fde	0.0053520044
161	0x3a95d072	0.0011429919
162	0x3b802a8b	0.0039113215
163	0xbbea4cda	-0.0071502747
164	0x3b93be63	0.00450878
165	0x3a85f0e4	0.0010218886
166	0xb98e03dc	-0.00027087226
167	0xbc61a995	-0.013773342
168	0xbbfeb7dd	-0.007773383
169	0xbc130d7f	-0.008975386
170	0x3a253ffb	0.00063037843
171	0xbb9e36a9	-0.0048282933
172	0xbc1b8c07	-0.009493834
173	0x3bb2d161	0.005457089
174	0xbc09f2a8	-0.00841967
175	0x3c025872	0.007955657
176	0xbbd8ea58	-0.006619733
177	0x3be80a83	0.007081331
178	0xbbe94780	-0.007119119
179	0x3b8d0283	0.004303278
180	0xbc188dcb	-0.00931115
181	0x389b8553	7.4158095e-05
182	0xbb2e0c7b	-0.0026557732
183	0x3b5aa44d	0.003336209
184	0xbbbde1a5	-0.005794721
185	0xbbb9c42e	-0.0056691384
186	0xbb11759a	-0.002219534
187	0x3a0a0236	0.00052646117
188	0xbba0243b	-0.0048871315
189	0xbb41f6b3	-0.0029596507
190	0x3b289882	0.0025725667
191	0x3b029f6a	0.0019931444
192	0x3ae9fe4b	0.0017852274
193	0x3b4a8d91	0.0030907134
194	0xbbd86238	-0.0066035055
195	0x3b608d6f	0.0034263988
196	0x3a1f033d	0.0006065851
197	0xba5ce8bf	-0.0008427016
198	0xbaf730e7	-0.0018859179
199	0x3c36a0b1	0.01114671
200	0x3b80e20a	0.003933196
201	0x3a679070	0.00088334735
202	0xbb0ff508	-0.0021966118
203	0x3bf75ba5	0.0075487667
204	0x3be329bf	0.0069324668
205	0x3bc73b37	0.006080057
206	0x3bc45def	0.005992643
207	0xbb586ff0	-0.0033025704
208	0x3b022c1b	0.0019862715
209	0x3c0c4281	0.008560778
210	0xbbbecf73	-0.0058230697
211	0xbbfca2a0	-0.007709816
212	0xbc2ecd36	-0.010669043
213	0xbabba37a	-0.0014315688
214	0x3c2d5bd5	0.0105809765
215	0x3b886eb8	0.0041635893
216	0xbb304d03	-0.0026901371
217	0x3b6ec745	0.0036434692
218	0x3b64409a	0.0034828545
219	0xba7c584d	-0.0009626195
220	0x3c90136f	0.017587392
221	0xbb7b89d0	-0.0038381703
222	0xbb9228d2	-0.0044604326
223	0xbb9a0d2a	-0.0047012763
224	0xbae69f75	-0.0017595129
225	0x3a7eb61b	0.0009716467
226	0xbb8ea3ba	-0.004353014
227	0x38fcd52d	0.000120560035
228	0xbbc3faa1	-0.005980805
229	0xbba47368	-0.0050186403
230	0xbb1f77ed	-0.0024332956
231	0x3c160c40	0.009158194
232	0xbbcf4a65	-0.006326007
233	0x3b4a2013	0.0030841872
234	0xb8171c79	-3.6027723e-05
235	0x3b9a7cf1	0.004714601
236	0xbb2b311f	-0.0026121808
237	0xbbdc9795	-0.006731937
238	0xbc3e7e63	-0.011626813
239	0x3b228523	0.0024798594
240	0x3c1b05ad	0.009461802
241	0xbbcb36b3	-0.006201589
242	0x3c009bf2	0.00784968
243	0x39710723	0.0002298621
244	0xbb1d0cbb	-0.0023963887
245	0xbac8978f	-0.0015303957
246	0x3a904688	0.0011007348
247	0xbb6b4c7d	-0.0035903745
248	0xba991abb	-0.001168094
249	0xbc5a2790	-0.0133150965
250	0x3990783a	0.00027555396
251	0x3c2bd483	0.010487678
252	0x3b8e2299	0.0043376205
253	0x3c2d3fd6	0.010574302
254	0xbb6dd480	-0.003628999
255	0xbb8f09c1	-0.0043651764

action_model._discrete_distribution.branches.2.bias f4 [6]
0	0x00000000	0.0
1	0x00000000	0.0
2	0x00000000	0.0
3	0x00000000	0.0
4	0x00000000	0.0
5	0x00000000	0.0

action_model._discrete_distribution.branches.2.weight f4 [6, 256]
0	0x3c06910a	0.008213291
1	0xbc0a98bc	-0.008459266
2	0x3b3efb29	0.0029141402
3	0xbbbf90ed	-0.005846134
4	0x3bd2d135	0.006433631
5	0x3b3fca74	0.0029264959
6	0x3bd0bd9b	0.006370259
7	0x3b4052ab	0.002934615
8	0x3c23b698	0.009992264
9	0xbb3a3036	-0.0028410084
10	0xba0c2450	-0.0005345987
11	0xb99ba8f9	-0.00029689798
12	0x393ef8db	0.00018212518
13	0xba52511b	-0.000802295
14	0xbb0c4ffb	-0.0021409977
15	0x3c3910ff	0.011295556
16	0x3bc0dfcc	0.0058860537
17	0x3baf8217	0.005356084
18	0x3c7433bf	0.014904915
19	0xbbc03b17	-0.005866419
20	0x3bafb81a	0.005362523
21	0x3c44b9b9	0.01200717
22	0x3abb7833	0.001430279
23	0xbb6be08b	-0.0035991992
24	0x3ab9db42	0.0014179724
25	0xbc2b9da5	-0.010474597
26	0x3ac72133	0.0015192389
27	0x3a7e740a	0.0009706622
28	0x3b3a33ab	0.0028412144
29	0x3b418e89	0.002953442
30	0xbbee2448	-0.0072675087
31	0xbb8800b2	-0.0041504735
32	0x3c50694a	0.012720415
33	0xbb053455	-0.0020325382
34	0xbc0e5fc6	-0.008689826
35	0xbc34e65b	-0.011041249
36	0x3c30daba	0.010794336
37	0x3a8095f5	0.0009810316
38	0xbc1413f2	-0.009037958
39	0xbb22b6eb	-0.0024828266
40	0xbab2dcc4	-0.0013646116
41	0xbab7d6c7	-0.0014025801
42	0x3901e6bf	0.00012388358
43	0x3b1442e6	0.0022622882
44	0xbbdabd7f	-0.0066754217
45	0x3b4d42d8	0.003132036
46	0x3ae9ed15	0.0017847145
47	0x3be2db4b	0.0069231144
48	0xbb1c6f73	-0.002387014
49	0xbbb843fc	-0.0056233387
50	0x3b83266d	0.0040023834
51	0xbb9fe94f	-0.0048801075
52	0x3a52afcb	0.00080370595
53	0xbbc6cb53	-0.0060667186
54	0xbb86eba4	-0.004117446
55	0x3ab5e227	0.0013876603
56	0x3bc57a48	0.00602654
57	0xbb55ff30	-0.0032653324
58	0x3b44daab	0.0030037563
59	0xbb373d94	-0.0027960287
60	0xbb1f617b	-0.0024319577
61	0x3b169542	0.0022977148
62	0xbb568695	-0.0032734026
63	0x3a5eed9d	0.0008504035
64	0x3ab17c74	0.0013541118
65	0x3b29feb3	0.0025939166
66	0x3ae206c2	0.0017244446
67	0xbc1d4eb4	-0.009601284
68	0xbbc56787	-0.0060243043
69	0x3b9a253d	0.004704146
70	0x3c06aa30	0.008219287
71	0xbaa50e2f	-0.0012592728
72	0xbb19a09b	-0.0023441676
73	0x3c45153b	0.0120289875
74	0xbc0d3f9b	-0.008621122
75	0xbc404fd1	-0.01173778
76	0xba9a1f90	-0.0011758674
77	0x3bb2489f	0.005440786
78	0xbc062db8	-0.008189611
79	0xbbc8f11d	-0.0061322586
80	0x3a337c26	0.00068468077
81	0xbabc1352	-0.001434902
82	0xbb9a8ece	-0.0047167307
83	0xbbd45ee0	-0.0064810365
84	0xbc10cf9e	-0.008838562
85	0xbba06c74	-0.004895741
86	0x3bdca64f	0.0067336927
87	0x3b7781cb	0.0037766572
88	0xbaeed09f	-0.0018220133
89	0xbc4e7225	-0.012600456
90	0xbaeeb692	-0.0018212369
91	0xbae995fa	-0.0017821186
92	0x3ab8574f	0.0014064106
93	0xba71f03a	-0.0009229217
94	0xb9e26563	-0.00043181618
95	0x3b383b59	0.0028111546
96	0xbba87be3	-0.0051417216
97	0xbc2480ba	-0.010040456
98	0xb9819d76	-0.00024722115
99	0x3baed813	0.0053358166
100	0xb9809633	-0.0002452597
101	0x3b87721f	0.0041334773
102	0x3bfc57a7	0.0077008787
103	0xbc1d58d3	-0.009603697
104	0xbb3d0f79	-0.0028848334
105	0xbb0dc994	-0.0021635043
106	0x39fe0670	0.00048451452
107	0x3c022579	0.0079435045
108	0x3b97e6b7	0.0046356576
109	0xbba5f47d	-0.0050645457
110	0xbb2833c9	-0.0025665632
111	0x3c028104	0.00796533
112	0xbbde5140	-0.006784588
113	0x3c50f3fa	0.012753481
114	0xbc3c2adf	-0.011484831
115	0xba116454	-0.0005546261
116	0xbbd25deb	-0.0064198873
117	0x3b51948a	0.0031979405
118	0xbb81b171	-0.0039579202
119	0xbbc1623c	-0.005901603
120	0x3b8e2a8f	0.0043385695
121	0x3ae55b0d	0.0017498449
122	0xbc10b003	-0.008831027
123	0x3b5e1eb0	0.0033892803
124	0xbc0d75cb	-0.008634041
125	0xbbf5c4c0	-0.007500261
126	0xb9792d97	-0.00023763474
127	0xbb5074f0	-0.0031807981
128	0xba8e72fd	-0.0010868009
129	0x3bd65b1a	0.006541622
130	0xb9e3c465	-0.0004344314
131	0x3b6b804d	0.0035934628
132	0x3ad8569d	0.0016505305
133	0x3b13fc7d	0.0022580915
134	0x3b636312	0.0034696502
135	0x3a9b235f	0.0011836103
136	0xbac8e3bf	-0.0015326663
137	0xbb74b987	-0.0037342028
138	0x3c0e6dd6	0.008693179
139	0x3bab9e67	0.005237389
140	0xbb40290f	-0.0029321348
141	0xbbdddda5	-0.006770807
142	0x3b90fe2c	0.004424831
143	0xbb17f370	-0.0023185872
144	0xbb1edae1	-0.0024239349
145	0x39b0cc48	0.00033721537
146	0x3ab7b2bf	0.0014015062
147	0xb9e4c915	-0.00043637367
148	0x3bc6e8f3	0.00607025
149	0x38749f28	5.832236e-05
150	0xbc7dd52d	-0.01549272
151	0xbba775dd	-0.005110486
152	0x3bc9a7ad	0.0061540217
153	0x3afd8620	0.001934234
154	0x39d9d04f	0.00041544667
155	0x3c1cb6d2	0.009565072
156	0xbb1e20e4	-0.002412849
157	0x3bdad1f3	0.00667786
158	0xb935e6bc	-0.0001734746
159	0xbc182a3e	-0.009287415
160	0xba9274f3	-0.001117377
161	0xbbd2fadb	-0.0064385957
162	0xbbc863e3	-0.006115423
163	0xbbf63213	-0.0075132935
164	0x39bd731d	0.00036134655
165	0xbbc0d903	-0.005885245
166	0xbbb24363	-0.005440162
167	0x3c43541b	0.011921908
168	0x3c03a0ee	0.008033974
169	0x3af59d50	0.0018738899
170	0x3bc685b3	0.0060584187
171	0xba368e7d	-0.00069639814
172	0x3b484f93	0.0030565008
173	0xbb719588	-0.003686281
174	0x3a65f4b0	0.0008772118
175	0xba2d80a7	-0.0006618597
176	0xbc059177	-0.008152357
177	0xbc29c108	-0.010360964
178	0xbbc03df8	-0.0058667623
179	0xbb060006	-0.0020446791
180	0x3b933b44	0.004493149
181	0x3c5f5fc8	0.013633676
182	0x3bbddecb	0.0057943813
183	0xbbb9a4a3	-0.005665378
184	0x3b7b206f	0.0038318892
185	0xbb846d7f	-0.0040413733
186	0x3b2899f5	0.0025726531
187	0xbb3ec16b	-0.0029106985
188	0xbb5244c5	-0.0032084447
189	0xbc0a0d5f	-0.0084260395
190	0xb919f135	-0.00014681074
191	0xbc5624eb	-0.013070325
192	0x3b034da3	0.0020035289
193	0x3c13a69f	0.0090118935
194	0x3b8bf6fc	0.004271386
195	0x3bd93f73	0.006629878
196	0x3b91e58b	0.0044524125
197	0xbc8e7aa6	-0.017392468
198	0xbbe25358	-0.006906908
199	0x3b74b3b2	0.0037338552
200	0x3b203ad3	0.0024449124
201	0xbb02d805	-0.0019965183
202	0xbc228336	-0.009918978
203	0xbb6f4513	-0.0036509677
204	0xbb8c0e82	-0.0042741904
205	0xba8b64a7	-0.0010634855
206	0xbc0918e8	-0.0083677545
207	0xbbdececf	-0.006799556
208	0x3af5fbda	0.0018767074
209	0x3ab93b6d	0.001413209
210	0x3a8d1d34	0.001076615
211	0x3b484e0b	0.0030564095
212	0x3c14b593	0.009076494
213	0xbb50f72f	-0.0031885614
214	0x3b18413f	0.002323225
215	0x3bd11992	0.006381222
216	0xbb2d8431	-0.0026476497
217	0xb9d09a78	-0.0003978794
218	0x3c2b52a7	0.010456718
219	0xbc00356b	-0.007825236
220	0xbc37829c	-0.011200573
221	0xbb92e893	-0.0044832914
222	0xba2977e3	-0.0006464703
223	0x3b203ab5	0.0024449055
224	0xba70bf5d	-0.0009183789
225	0x3b9b512f	0.0047399024
226	0xba95567c	-0.0011393572
227	0xbbab62d3	-0.0052302866
228	0x3b6c5847	0.003606336
229	0x37b7bd52	2.190346e-05
230	0xbba6150d	-0.0050684274
231	0x3b00c8d1	0.0019650946
232	0x3a98913f	0.0011639966
233	0x3a90245d	0.0010997165
234	0xbbc51304	-0.0060142297
235	0x3c81d38d	0.015847946
236	0x3afd0db8	0.0019306457
237	0x3b0e0537	0.0021670589
238	0x3b69d95d	0.0035682537
239	0x3b896713	0.0041931956
240	0xba223f61	-0.0006189254
241	0xbb6b323b	-0.0035888094
242	0xbc18a821	-0.009317429
243	0x3c395ebb	0.011314089
244	0x3ab5ab71	0.0013860298
245	0xbb93c3ab	-0.0045094094
246	0x3c01ad4b	0.007914851
247	0x3ba4ae70	0.0050256774
248	0x3bc39dc1	0.0059697335
249	0xbb36d072	-0.002789524
250	0x3b8ae3a4	0.0042385627
251	0x3b09cdbf	0.0021027175
252	0x3a2503d3	0.00062948203
253	0xbbeea805	-0.007283213
254	0x3ba0d30f	0.0049079726
255	0x3c04ec94	0.008113045

discrete_action_output_shape f4 [1, 3]
0	0x40c00000	6.0
1	0x40c00000	6.0
2	0x40c00000	6.0

network_body._body_endoder.seq_layers.0.bias f4 [256]
0	0x00000000	0.0
1	0x00000000	0.0
2	0x00000000	0.0
3	0x00000000	0.0
4	0x00000000	0.0
5	0x00000000	0.0
6	0x00000000	0.0
7	0x00000000	0.0
8	0x00000000	0.0
9	0x00000000	0.0
10	0x00000000	0.0
11	0x00000000	0.0
12	0x00000000	0.0
13	0x00000000	0.0
14	0x00000000	0.0
15	0x00000000	0.0
16	0x00000000	0.0
17	0x00000000	0.0
18	0x00000000	0.0
19	0x00000000	0.0
20	0x00000000	0.0
21	0x00000000	0.0
22	0x00000000	0.0
23	0x00000000	0.0
24	0x00000000	0.0
25	0x00000000	0.0
26	0x00000000	0.0
27	0x00000000	0.0
28	0x00000000	0.0
29	0x00000000	0.0
30	0x00000000	0.0
31	0x00000000	0.0
32	0x00000000	0.0
33	0x00000000	0.0
34	0x00000000	0.0
35	0x00000000	0.0
36	0x00000000	0.0
37	0x00000000	0.0
38	0x00000000	0.0
39	0x00000000	0.0
40	0x00000000	0.0
41	0x00000000	0.0
42	0x00000000	0.0
43	0x00000000	0.0
44	0x00000000	0.0
45	0x00000000	0.0
46	0x00000000	0.0
47	0x00000000	0.0
48	0x00000000	0.0
49	0x00000000	0.0
50	0x00000000	0.0
51	0x00000000	0.0
52	0x00000000	0.0
53	0x00000000	0.0
54	0x00000000	0.0
55	0x00000000	0.0
56	0x00000000	0.0
57	0x00000000	0.0
58	0x00000000	0.0
59	0x00000000	0.0
60	0x00000000	0.0
61	0x00000000	0.0
62	0x00000000	0.0
63	0x00000000	0.0
64	0x00000000	0.0
65	0x00000000	0.0
66	0x00000000	0.0
67	0x00000000	0.0
68	0x00000000	0.0
69	0x00000000	0.0
70	0x00000000	0.0
71	0x00000000	0.0
72	0x00000000	0.0
73	0x00000000	0.0
74	0x00000000	0.0
75	0x00000000	0.0
76	0x00000000	0.0
77	0x00000000	0.0
78	0x00000000	0.0
79	0x00000000	0.0
80	0x00000000	0.0
81	0x00000000	0.0
82	0x00000000	0.0
83	0x00000000	0.0
84	0x00000000	0.0
85	0x00000000	0.0
86	0x00000000	0.0
87	0x00000000	0.0
88	0x00000000	0.0
89	0x00000000	0.0
90	0x00000000	0.0
91	0x00000000	0.0
92	0x00000000	0.0
93	0x00000000	0.0
94	0x00000000	0.0
95	0x00000000	0.0
96	0x00000000	0.0
97	0x00000000	0.0
98	0x00000000	0.0
99	0x00000000	0.0
100	0x00000000	0.0
101	0x00000000	0.0
102	0x00000000	0.0
103	0x00000000	0.0
104	0x00000000	0.0
105	0x00000000	0.0
106	0x00000000	0.0
107	0x00000000	0.0
108	0x00000000	0.0
109	0x00000000	0.0
110	0x00000000	0.0
111	0x00000000	0.0
112	0x00000000	0.0
113	0x00000000	0.0
114	0x00000000	0.0
115	0x00000000	0.0
116	0x00000000	0.0
117	0x00000000	0.0
118	0x00000000	0.0
119	0x00000000	0.0
120	0x00000000	0.0
121	0x00000000	0.0
122	0x00000000	0.0
123	0x00000000	0.0
124	0x00000000	0.0
125	0x00000000	0.0
126	0x00000000	0.0
127	0x00000000	0.0
128	0x00000000	0.0
129	0x00000000	0.0
130	0x00000000	0.0
131	0x00000000	0.0
132	0x00000000	0.0
133	0x00000000	0.0
134	0x00000000	0.0
135	0x00000000	0.0
136	0x00000000	0.0
137	0x00000000	0.0
138	0x00000000	0.0
139	0x00000000	0.0
140	0x00000000	0.0
141	0x00000000	0.0
142	0x00000000	0.0
143	0x00000000	0.0
144	0x00000000	0.0
145	0x00000000	0.0
146	0x00000000	0.0
147	0x00000000	0.0
148	0x00000000	0.0
149	0x00000000	0.0
150	0x00000000	0.0
151	0x00000000	0.0
152	0x00000000	0.0
153	0x00000000	0.0
154	0x00000000	0.0
155	0x00000000	0.0
156	0x00000000	0.0
157	0x00000000	0.0
158	0x00000000	0.0
159	0x00000000	0.0
160	0x00000000	0.0
161	0x00000000	0.0
162	0x00000000	0.0
163	0x00000000	0.0
164	0x00000000	0.0
165	0x00000000	0.0
166	0x00000000	0.0
167	0x00000000	0.0
168	0x00000000	0.0
169	0x00000000	0.0
170	0x00000000	0.0
171	0x00000000	0.0
172	0x00000000	0.0
173	0x00000000	0.0
174	0x00000000	0.0
175	0x00000000	0.0
176	0x00000000	0.0
177	0x00000000	0.0
178	0x00000000	0.0
179	0x00000000	0.0
180	0x00000000	0.0
181	0x00000000	0.0
182	0x00000000	0.0
183	0x00000000	0.0
184	0x00000000	0.0
185	0x00000000	0.0
186	0x00000000	0.0
187	0x00000000	0.0
188	0x00000000	0.0
189	0x00000000	0.0
190	0x00000000	0.0
191	0x00000000	0.0
192	0x00000000	0.0
193	0x00000000	0.0
194	0x00000000	0.0
195	0x00000000	0.0
196	0x00000000	0.0
197	0x00000000	0.0
198	0x00000000	0.0
199	0x00000000	0.0
200	0x00000000	0.0
201	0x00000000	0.0
202	0x00000000	0.0
203	0x00000000	0.0
204	0x00000000	0.0
205	0x00000000	0.0
206	0x00000000	0.0
207	0x00000000	0.0
208	0x00000000	0.0
209	0x00000000	0.0
210	0x00000000	0.0
211	0x00000000	0.0
212	0x00000000	0.0
213	0x00000000	0.0
214	0x00000000	0.0
215	0x00000000	0.0
216	0x00000000	0.0
217	0x00000000	0.0
218	0x00000000	0.0
219	0x00000000	0.0
220	0x00000000	0.0
221	0x00000000	0.0
222	0x00000000	0.0
223	0x00000000	0.0
224	0x00000000	0.0
225	0x00000000	0.0
226	0x00000000	0.0
227	0x00000000	0.0
228	0x00000000	0.0
229	0x00000000	0.0
230	0x00000000	0.0
231	0x00000000	0.0
232	0x00000000	0.0
233	0x00000000	0.0
234	0x00000000	0.0
235	0x00000000	0.0
236	0x00000000	0.0
237	0x00000000	0.0
238	0x00000000	0.0
239	0x00000000	0.0
240	0x00000000	0.0
241	0x00000000	0.0
242	0x00000000	0.0
243	0x00000000	0.0
244	0x00000000	0.0
245	0x00000000	0.0
246	0x00000000	0.0
247	0x00000000	0.0
248	0x00000000	0.0
249	0x00000000	0.0
250	0x00000000	0.0
251	0x00000000	0.0
252	0x00000000	0.0
253	0x00000000	0.0
254	0x00000000	0.0
255	0x00000000	0.0

network_body._body_endoder.seq_layers.0.weight f4 [256, 45]
0	0x3daa2895	0.08308522
1	0xbd71ebd1	-0.059062783
2	0xbe172a93	-0.14762335
3	0xbe18505a	-0.14874402
4	0x3e17ec27	0.14836179
5	0x3cfc7ca4	0.030821152
6	0xbe3501de	-0.17676494
7	0xbe0d1caf	-0.13780473
8	0xbd504742	-0.050849207
9	0x3e0f9065	0.14019926
10	0x3da3c7c4	0.07997087
11	0xbd2d1ce1	-0.04226387
12	0xbdcabfba	-0.0989985
13	0x3d0e68c0	0.034767866
14	0x3e4f7656	0.20259985
15	0x3d91ccce	0.071191415
16	0x3e5ab7fd	0.21359248
17	0xbdeb53e8	-0.11490613
18	0xbdd76dd7	-0.10518997
19	0x3dccb34a	0.09995134
20	0xbd9fc672	-0.07801522
21	0x3d31b305	0.043383617
22	0x3e3acec7	0.18242942
23	0xbd8bf727	-0.0683425
24	0xbd8e07c2	-0.069350734
25	0x3e63bc24	0.22239739
26	0x3e8dacb3	0.27670822
27	0x3e14f21a	0.1454548
28	0x3df352fa	0.11881061
29	0xbe121a38	-0.14267814
30	0xbe33bf6e	-0.17553493
31	0x3c8e505d	0.017372305
32	0xbe7fc4df	-0.24977444
33	0xbe57634b	-0.21033971
34	0xbe0ba67f	-0.13637732
35	0xbd7f7eb5	-0.062376697
36	0xbe5330ab	-0.20624034
37	0xbe161592	-0.14656666
38	0xbccfa44c	-0.025346898
39	0x3eb56839	0.35431078
40	0x3d7fa379	0.06241176
41	0x3eac64df	0.3367071
42	0xbe515721	-0.20443393
43	0x3de9a30e	0.11408053
44	0xbe4389d4	-0.19095546
45	0x3d27dd87	0.04098275
46	0xbe968a21	-0.2940226
47	0xbe45356b	-0.19258659
48	0xbddad43f	-0.10685014
49	0x3dd7ad0b	0.10531052
50	0x3e9600d7	0.29297516
51	0xbd75d70b	-0.060019534
52	0x3e761e8e	0.24035093
53	0x3e405373	0.18781833
54	0x3e71372c	0.23556203
55	0x3de9e5a2	0.11420752
56	0x3d85fff3	0.06542959
57	0x3e2606d7	0.16213547
58	0xbcd0dcee	-0.025495972
59	0x3e1ff90c	0.15622348
60	0x3e825679	0.25456598
61	0xbe492837	-0.19644247
62	0x3d68d142	0.05684019
63	0xbd778f80	-0.060439587
64	0x3d9b0af6	0.0757045
65	0x3e8667f5	0.26251188
66	0xbc8ed51a	-0.0174356
67	0xbc3635c6	-0.011121219
68	0xbe1a0858	-0.15042245
69	0x3e0e4449	0.13893236
70	0xbe7866a3	-0.24257903
71	0xbc00db22	-0.007864745
72	0xbde32d4c	-0.11092624
73	0x3da3a78a	0.0799094
74	0x3d321ed7	0.043486442
75	0xbda13339	-0.07871098
76	0xbdb9c3fd	-0.09070585
77	0xbd174884	-0.03693439
78	0x3d283be2	0.041072734
79	0xbdf05d48	-0.11736542
80	0xbe6b6da8	-0.2299105
81	0xbdb2ba3d	-0.087269284
82	0x3e1ea501	0.15492631
83	0x3c5ced33	0.013484287
84	0xbe49d920	-0.19711733
85	0xbdf3ab2a	-0.11897881
86	0x3e82720d	0.2547764
87	0xbdc340db	-0.095338546
88	0x3e593846	0.21212873
89	0xbe91a6a8	-0.2844746
90	0x3e492628	0.19643462
91	0x3de1f2b1	0.11032618
92	0xbe3691a8	-0.17829001
93	0x3ac8f709	0.0015332411
94	0xbe799432	-0.24372938
95	0xbdd09151	-0.10183967
96	0x3e177947	0.14792357
97	0x3df265f2	0.11835851
98	0x3d6b4c14	0.0574456
99	0x3d9bc9e3	0.07606866
100	0x3e683ec4	0.22680193
101	0x3e7f56d4	0.24935466
102	0xbe2f6261	-0.17127372
103	0xbd6ee056	-0.058319412
104	0xbca37bd0	-0.0199565
105	0x3e064cd3	0.13115244
106	0x3d89037f	0.0669012
107	0xbda4d4e9	-0.08048422
108	0xbd3d9b1e	-0.04629051
109	0xbe9dc62f	-0.30815265
110	0x3e6a1726	0.22860393
111	0xbd0b61b8	-0.03402874
112	0x3e4f3213	0.20233946
113	0x3e7551b5	0.2395695
114	0xbe84f2af	-0.25966403
115	0x3da731f7	0.08163827
116	0x3d9e57a9	0.077315636
117	0xbd47072b	-0.04859082
118	0xbe71f95e	-0.23630282
119	0x3de154c3	0.11002495
120	0xbdbf9540	-0.09354639
121	0xbe5b6aca	-0.21427456
122	0x3e187ce8	0.14891398
123	0xbdcc0f9f	-0.09963917
124	0x3e65cd10	0.22441506
125	0x3c82de5d	0.015975172
126	0xbd1ef836	-0.03881093
127	0x3d11374e	0.035453133
128	0xbe48d754	-0.19613391
129	0x3e052867	0.13003694
130	0xbe2d4e49	-0.16924395
131	0x3d144cf3	0.036206197
132	0xbe09adb6	-0.13445172
133	0x3e615eda	0.22008839
134	0x3e5515b4	0.2080906
135	0x3e33133d	0.17487808
136	0x3e69c6a0	0.22829676
137	0x3e58bdad	0.21166106
138	0x3e131920	0.14365053
139	0x3c9c2e00	0.019064903
140	0xbd69c555	-0.057072956
141	0xbe8fd08c	-0.28088796
142	0x3d090c2d	0.033458877
143	0x3d84362d	0.06455646
144	0x3da75b5e	0.08171724
145	0xbd02bc3e	-0.031917803
146	0x3d619845	0.055076856
147	0x3dcc8931	0.09987105
148	0xbe9bc13c	-0.30420864
149	0xbdf4e9c3	-0.11958649
150	0xbe8bf4b4	-0.2733513
151	0x3d6b8ca6	0.05750718
152	0x3e7ea2cb	0.24866788
153	0x3d72d15d	0.059281696
154	0x3cef286b	0.029194077
155	0xbc6aa296	-0.01432099
156	0xbe554320	-0.20826387
157	0xbc8330ee	-0.016014542
158	0x3e04b9ca	0.12961498
159	0x3d8106b4	0.06300107
160	0x3e3dbd6b	0.18529288
161	0xbdba5088	-0.09097391
162	0x3d2fd4e6	0.042927645
163	0xbde5e1d6	-0.112247154
164	0x3cb65649	0.02225794
165	0xbd541686	-0.051779293
166	0x3d387779	0.045035813
167	0xbe2647c3	-0.16238312
168	0xbe19ca85	-0.15018661
169	0xbcec2c31	-0.028829666
170	0xbe421240	-0.18952274
171	0xbe0ed48f	-0.13948272
172	0xbda5c53c	-0.0809426
173	0xbe1f8358	-0.15577447
174	0xbd57ce76	-0.05268713
175	0xbbbceb81	-0.005765379
176	0x3daed1bf	0.085361
177	0x3d8f7ab7	0.07005828
178	0xbcf80fb3	-0.030280923
179	0x3dbe8639	0.09302945
180	0x3d431017	0.047622766
181	0xba90f070	-0.0011057984
182	0xbdbf2055	-0.09332339
183	0xbe88fb61	-0.26754287
184	0x3d81e325	0.063421525
185	0x3e606d14	0.2191661
186	0x3e0533dc	0.13008064
187	0x3d910a24	0.07082012
188	0xbd2d77db	-0.04235063
189	0xbe8f8df6	-0.28037995
190	0x3cbeebf6	0.023305874
191	0xbd48a802	-0.04898835
192	0x3d1fe4a2	0.0390364
193	0x3daf66fd	0.08564565
194	0xbe145cbe	-0.14488503
195	0xbd2cc1d8	-0.04217705
196	0xbe59b78e	-0.21261427
197	0xbde165ad	-0.11005721
198	0x3e556980	0.20841026
199	0x3ddda22c	0.108219475
200	0xbd3a8a48	-0.04554203
201	0x3dad8b20	0.084738016
202	0x3e09fbfa	0.13475028
203	0x3e329f17	0.174435
204	0x3d3f282c	0.04666917
205	0x3e277b15	0.16355546
206	0x3d8a1c7d	0.06743715
207	0x3dfee94b	0.12446841
208	0x3d842c57	0.0645377
209	0x3da520e4	0.08062914
210	0xbca1b0f9	-0.019737707
211	0xbe5f3f11	-0.21801402
212	0x3d6b262a	0.057409443
213	0x3cb7fcb4	0.022459365
214	0xbe99c1f1	-0.30030778
215	0xbe291db9	-0.16515245
216	0x3d69bd39	0.057065222
217	0xbded2bb4	-0.11580601
218	0x3dd0ffbd	0.10205028
219	0xbde3a95d	-0.11116288
220	0x3d674328	0.05646053
221	0x3b7f5f4d	0.0038966716
222	0xbeb53e72	-0.35399204
223	0xbc56391c	-0.013075139
224	0x3c8354cd	0.016031647
225	0x3d5879d2	0.052850552
226	0xbcb32207	-0.021866811
227	0xbd540620	-0.051763654
228	0xbc268c72	-0.010165321
229	0x3c85d663	0.01633758
230	0x3e3f1841	0.18661596
231	0x3e416bc3	0.18888764
232	0x3d58a974	0.052895978
233	0xbdf5342e	-0.11972843
234	0x3e1277e2	0.14303544
235	0xbe9c4a78	-0.30525565
236	0xbe954d38	-0.29160476
237	0xbe480918	-0.19534719
238	0x3dc9d483	0.098549865
239	0xbdc293d8	-0.09500855
240	0xbd6319c0	-0.05544448
241	0x3e81ba4e	0.25337452
242	0x3ce53a58	0.027981922
243	0xbe66d965	-0.22543867
244	0x3e438fcf	0.19097827
245	0x3ec9f6d9	0.39446142
246	0x3e675ae7	0.2259327
247	0xbe74a336	-0.23890385
248	0xbce125dc	-0.027483873
249	0x3d051232	0.032488056
250	0xbd654765	-0.05597629
251	0xbe4a7413	-0.19770841
252	0xbd9fdfa7	-0.0780633
253	0x3c077338	0.008267216
254	0xbe13ab33	-0.14420776
255	0x3d50bf53	0.05096371

network_body._body_endoder.seq_layers.2.bias f4 [256]
0	0x00000000	0.0
1	0x00000000	0.0
2	0x00000000	0.0
3	0x00000000	0.0
4	0x00000000	0.0
5	0x00000000	0.0
6	0x00000000	0.0
7	0x00000000	0.0
8	0x00000000	0.0
9	0x00000000	0.0
10	0x00000000	0.0
11	0x00000000	0.0
12	0x00000000	0.0
13	0x00000000	0.0
14	0x00000000	0.0
15	0x00000000	0.0
16	0x00000000	0.0
17	0x00000000	0.0
18	0x00000000	0.0
19	0x00000000	0.0
20	0x00000000	0.0
21	0x00000000	0.0
22	0x00000000	0.0
23	0x00000000	0.0
24	0x00000000	0.0
25	0x00000000	0.0
26	0x00000000	0.0
27	0x00000000	0.0
28	0x00000000	0.0
29	0x00000000	0.0
30	0x00000000	0.0
31	0x00000000	0.0
32	0x00000000	0.0
33	0x00000000	0.0
34	0x00000000	0.0
35	0x00000000	0.0
36	0x00000000	0.0
37	0x00000000	0.0
38	0x00000000	0.0
39	0x00000000	0.0
40	0x00000000	0.0
41	0x00000000	0.0
42	0x00000000	0.0
43	0x00000000	0.0
44	0x00000000	0.0
45	0x00000000	0.0
46	0x00000000	0.0
47	0x00000000	0.0
48	0x00000000	0.0
49	0x00000000	0.0
50	0x00000000	0.0
51	0x00000000	0.0
52	0x00000000	0.0
53	0x00000000	0.0
54	0x00000000	0.0
55	0x00000000	0.0
56	0x00000000	0.0
57	0x00000000	0.0
58	0x00000000	0.0
59	0x00000000	0.0
60	0x00000000	0.0
61	0x00000000	0.0
62	0x00000000	0.0
63	0x00000000	0.0
64	0x00000000	0.0
65	0x00000000	0.0
66	0x00000000	0.0
67	0x00000000	0.0
68	0x00000000	0.0
69	0x00000000	0.0
70	0x00000000	0.0
71	0x00000000	0.0
72	0x00000000	0.0
73	0x00000000	0.0
74	0x00000000	0.0
75	0x00000000	0.0
76	0x00000000	0.0
77	0x00000000	0.0
78	0x00000000	0.0
79	0x00000000	0.0
80	0x00000000	0.0
81	0x00000000	0.0
82	0x00000000	0.0
83	0x00000000	0.0
84	0x00000000	0.0
85	0x00000000	0.0
86	0x00000000	0.0
87	0x00000000	0.0
88	0x00000000	0.0
89	0x00000000	0.0
90	0x00000000	0.0
91	0x00000000	0.0
92	0x00000000	0.0
93	0x00000000	0.0
94	0x00000000	0.0
95	0x00000000	0.0
96	0x00000000	0.0
97	0x00000000	0.0
98	0x00000000	0.0
99	0x00000000	0.0
100	0x00000000	0.0
101	0x00000000	0.0
102	0x00000000	0.0
103	0x00000000	0.0
104	0x00000000	0.0
105	0x00000000	0.0
106	0x00000000	0.0
107	0x00000000	0.0
108	0x00000000	0.0
109	0x00000000	0.0
110	0x00000000	0.0
111	0x00000000	0.0
112	0x00000000	0.0
113	0x00000000	0.0
114	0x00000000	0.0
115	0x00000000	0.0
116	0x00000000	0.0
117	0x00000000	0.0
118	0x00000000	0.0
119	0x00000000	0.0
120	0x00000000	0.0
121	0x00000000	0.0
122	0x00000000	0.0
123	0x00000000	0.0
124	0x00000000	0.0
125	0x00000000	0.0
126	0x00000000	0.0
127	0x00000000	0.0
128	0x00000000	0.0
129	0x00000000	0.0
130	0x00000000	0.0
131	0x00000000	0.0
132	0x00000000	0.0
133	0x00000000	0.0
134	0x00000000	0.0
135	0x00000000	0.0
136	0x00000000	0.0
137	0x00000000	0.0
138	0x00000000	0.0
139	0x00000000	0.0
140	0x00000000	0.0
141	0x00000000	0.0
142	0x00000000	0.0
143	0x00000000	0.0
144	0x00000000	0.0
145	0x00000000	0.0
146	0x00000000	0.0
147	0x00000000	0.0
148	0x00000000	0.0
149	0x00000000	0.0
150	0x00000000	0.0
151	0x00000000	0.0
152	0x00000000	0.0
153	0x00000000	0.0
154	0x00000000	0.0
155	0x00000000	0.0
156	0x00000000	0.0
157	0x00000000	0.0
158	0x00000000	0.0
159	0x00000000	0.0
160	0x00000000	0.0
161	0x00000000	0.0
162	0x00000000	0.0
163	0x00000000	0.0
164	0x00000000	0.0
165	0x00000000	0.0
166	0x00000000	0.0
167	0x00000000	0.0
168	0x00000000	0.0
169	0x00000000	0.0
170	0x00000000	0.0
171	0x00000000	0.0
172	0x00000000	0.0
173	0x00000000	0.0
174	0x00000000	0.0
175	0x00000000	0.0
176	0x00000000	0.0
177	0x00000000	0.0
178	0x00000000	0.0
179	0x00000000	0.0
180	0x00000000	0.0
181	0x00000000	0.0
182	0x00000000	0.0
183	0x00000000	0.0
184	0x00000000	0.0
185	0x00000000	0.0
186	0x00000000	0.0
187	0x00000000	0.0
188	0x00000000	0.0
189	0x00000000	0.0
190	0x00000000	0.0
191	0x00000000	0.0
192	0x00000000	0.0
193	0x00000000	0.0
194	0x00000000	0.0
195	0x00000000	0.0
196	0x00000000	0.0
197	0x00000000	0.0
198	0x00000000	0.0
199	0x00000000	0.0
200	0x00000000	0.0
201	0x00000000	0.0
202	0x00000000	0.0
203	0x00000000	0.0
204	0x00000000	0.0
205	0x00000000	0.0
206	0x00000000	0.0
207	0x00000000	0.0
208	0x00000000	0.0
209	0x00000000	0.0
210	0x00000000	0.0
211	0x00000000	0.0
212	0x00000000	0.0
213	0x00000000	0.0
214	0x00000000	0.0
215	0x00000000	0.0
216	0x00000000	0.0
217	0x00000000	0.0
218	0x00000000	0.0
219	0x00000000	0.0
220	0x00000000	0.0
221	0x00000000	0.0
222	0x00000000	0.0
223	0x00000000	0.0
224	0x00000000	0.0
225	0x00000000	0.0
226	0x00000000	0.0
227	0x00000000	0.0
228	0x00000000	0.0
229	0x00000000	0.0
230	0x00000000	0.0
231	0x00000000	0.0
232	0x00000000	0.0
233	0x00000000	0.0
234	0x00000000	0.0
235	0x00000000	0.0
236	0x00000000	0.0
237	0x00000000	0.0
238	0x00000000	0.0
239	0x00000000	0.0
240	0x00000000	0.0
241	0x00000000	0.0
242	0x00000000	0.0
243	0x00000000	0.0
244	0x00000000	0.0
245	0x00000000	0.0
246	0x00000000	0.0
247	0x00000000	0.0
248	0x00000000	0.0
249	0x00000000	0.0
250	0x00000000	0.0
251	0x00000000	0.0
252	0x00000000	0.0
253	0x00000000	0.0
254	0x00000000	0.0
255	0x00000000	0.0

network_body._body_endoder.seq_layers.2.weight f4 [256, 256]
0	0x3d76042e	0.06006258
1	0x3cb6ac95	0.02229909
2	0xbcfd60a7	-0.030929876
3	0x3c9d2739	0.019183742
4	0x3dd6a7c0	0.104812145
5	0x3c7a1397	0.01526346
6	0x3c82d477	0.015970452
7	0xbd90f35d	-0.07077668
8	0x3d6b7b0c	0.057490394
9	0xbb931a37	-0.004489209
10	0xba5e5286	-0.0008480925
11	0xbd2867b9	-0.041114543
12	0x3db0d759	0.08634824
13	0xbd13c6a3	-0.036078107
14	0x3c2ff9a8	0.010740675
15	0xbcdcda45	-0.026959548
16	0x3d8a4a42	0.06752445
17	0x3d6ced38	0.057843417
18	0xbc3f4c86	-0.011675959
19	0xbbc36db9	-0.0059640077
20	0xbd2f3e7c	-0.0427842
21	0x3dc7539e	0.097327456
22	0xbde1172e	-0.10990749
23	0x3c292300	0.010323286
24	0x3d4715e3	0.048604857
25	0xbbcd19e7	-0.0062591913
26	0x3e2f2410	0.171036
27	0xbda903d1	-0.08252681
28	0x3d4a7d38	0.049435824
29	0xbd22f1ed	-0.0397815
30	0x3d146c9c	0.03623639
31	0xbcf5c22e	-0.029999819
32	0xbe08815f	-0.13330601
33	0xbcc2638f	-0.023729114
34	0xbcc32029	-0.023819046
35	0xbc091517	-0.008366845
36	0xbc96e1c9	-0.01841821
37	0xbd865353	-0.065588616
38	0x3d1c7f89	0.038207565
39	0xbc60df2e	-0.013725085
40	0x3d66f63e	0.05638718
41	0x3c9c2069	0.019058423
42	0xbd866745	-0.06562666
43	0xbd2f4df3	-0.042798948
44	0x3ca4165c	0.020030193
45	0xbd3f8867	-0.046760943
46	0x3ce12d09	0.027487295
47	0x3e05f7bb	0.13082783
48	0xbd956897	-0.072953396
49	0xbac59069	-0.0015072945
50	0xbcf88a8f	-0.030339507
51	0x3d9c2eb8	0.076260984
52	0xbbba5efe	-0.0056875935
53	0xbce6ce3d	-0.028174514
54	0x3c98ca3d	0.018651122
55	0x3cbd7713	0.023128068
56	0x3c8f427e	0.01748776
57	0xbe32797c	-0.17429155
58	0xb85eac49	-5.3089378e-05
59	0x3d5c1670	0.053732336
60	0x3d0eacfd	0.034832943
61	0x3d241045	0.04005458
62	0xbd5b0ef7	-0.05348107
63	0xbda77be5	-0.08177928
64	0x3df7cf1f	0.12100052
65	0xbc1d62fd	-0.00960612
66	0xbd90a230	-0.07062185
67	0x3c0d8afc	0.0086390935
68	0x3ddd63aa	0.10810025
69	0xbbc8c581	-0.00612706
70	0xbc80e94a	-0.01573624
71	0x3db762bb	0.08954378
72	0x3d44e4bd	0.048069704
73	0x3ca6e1e5	0.020371387
74	0x3dc400ee	0.0957049
75	0x3d3ef8f3	0.046624135
76	0xbdbda604	-0.092601806
77	0x3dc3f342	0.09567882
78	0xbc2d88a5	-0.010591661
79	0x3de3b930	0.11119306
80	0x3e0091e8	0.12555659
81	0x3d705c7d	0.058681954
82	0x3d546b82	0.05186034
83	0xbd4fed47	-0.050763395
84	0xbc963070	-0.018333644
85	0xbd7ef191	-0.062242094
86	0x3bb92967	0.0056506875
87	0x3d860b07	0.06545072
88	0x3db1fb9c	0.08690569
89	0xbc82894e	-0.015934613
90	0x3d48ef99	0.049056623
91	0x3c7fe55d	0.015618649
92	0x3d67af92	0.05656392
93	0x3dada35d	0.08478425
94	0x3da71e46	0.08160071
95	0xbdb76f8c	-0.08956823
96	0xbe0f5743	-0.13998131
97	0xbe00655b	-0.12538664
98	0xbc346e0d	-0.011012566
99	0x3c9ab7fb	0.018886557
100	0xb9959a1a	-0.0002853431
101	0xbd1c2272	-0.038118787
102	0xbcc803c3	-0.024415856
103	0x3cb96b12	0.022634063
104	0xbcbeb68b	-0.023280403
105	0xbe2b5461	-0.16731407
106	0xbd80edbb	-0.062953435
107	0xbd80f846	-0.062973544
108	0xbdb952a4	-0.090489656
109	0xbd8dab4f	-0.0691744
110	0xbd8c0a0c	-0.06837854
111	0x3dbd1470	0.09232414
112	0xbe13c58c	-0.14430827
113	0x3d4e73f0	0.050403535
114	0x3dfc4d9b	0.123194896
115	0x3dd2b0ac	0.10287604
116	0xbd434fa2	-0.047683366
117	0x3d2b0d72	0.04176087
118	0xbdda070e	-0.10645877
119	0xbd2a39ab	-0.041558903
120	0x3d8b1d24	0.067926675
121	0xbd19d797	-0.037559118
122	0x3d7b7b5b	0.061396938
123	0xbe40b580	-0.18819237
124	0x3d1db0da	0.038498737
125	0xbd93f163	-0.07223775
126	0x3d1304dd	0.03589331
127	0xbd8344fb	-0.06409641
128	0x3db1f430	0.08689153
129	0xbbab8711	-0.005234607
130	0x3d570660	0.052496314
131	0xbba319be	-0.004977434
132	0x3d442ca1	0.047894124
133	0xbdc010cc	-0.09378204
134	0x3cd5ba51	0.02608982
135	0x3d0db86a	0.0345997
136	0xbc4eeb07	-0.012629277
137	0x3d7464f1	0.059666578
138	0x3d8fff61	0.070311315
139	0xbda56694	-0.08076206
140	0x3d8edd63	0.0697582
141	0xbdadfd81	-0.08495618
142	0x3c39b446	0.011334484
143	0xbd7c78c9	-0.061638627
144	0xbb4f4758	-0.0031628218
145	0x3d2c5414	0.04207237
146	0xbd11b6d6	-0.035574757
147	0x3d07e1d4	0.03317435
148	0x3ddc9a25	0.10771588
149	0xbda4f685	-0.08054832
150	0xbd3f31e4	-0.04667844
151	0xbc81b1ed	-0.015831912
152	0x3c94acf9	0.018148886
153	0xbcc064f3	-0.023485636
154	0xbca9ebbb	-0.020742288
155	0x3d2aabef	0.041667875
156	0x3db0d1f0	0.086337924
157	0xbc50e8d2	-0.012750821
158	0xbdb0fa82	-0.086415306
159	0x3d1aa64c	0.03775625
160	0x3dc9e79c	0.09858629
161	0xbd03b3ad	-0.032153774
162	0xbd5c96f8	-0.053854913
163	0x3d1b8317	0.037966814
164	0x3d9f7a3f	0.077869885
165	0xbd599e8a	-0.05312971
166	0x3dd05032	0.10171546
167	0xbc15e88d	-0.009149683
168	0xbd15e7b5	-0.036597926
169	0xbe0b2ed5	-0.13592084
170	0x3d5e75da	0.05431161
171	0x3cbc6dce	0.023001578
172	0x3daf6cff	0.08565711
173	0x3bd08469	0.006363441
174	0x3d55b2e4	0.052172557
175	0xbd6169cf	-0.055032548
176	0x3c204fd6	0.009784659
177	0x3df78631	0.12086142
178	0xbc97fcde	-0.018553194
179	0x3c97fb4c	0.018552445
180	0x3d81f3e6	0.06345348
181	0xbe0627fe	-0.13101193
182	0x3ba41406	0.00500727
183	0x3d2d8493	0.04236276
184	0x3b6984c2	0.0035632108
185	0xbd94e063	-0.07269361
186	0x3cbcc75a	0.023044277
187	0xbd5e907b	-0.054337006
188	0x3d4e03a5	0.050296444
189	0x3d9c2352	0.07623924
190	0x3d17c179	0.037049744
191	0x3c3d640b	0.011559497
192	0x3da546e9	0.08070166
193	0x3d9b92a7	0.07596331
194	0xbdb48af7	-0.08815568
195	0x3d1bda46	0.03804996
196	0xbd9da108	-0.0769673
197	0x3c48a50c	0.0122463815
198	0xbd684fc3	-0.05671669
199	0x3d0f256f	0.03494781
200	0x3dec6d0f	0.11544239
201	0x3d454550	0.048161805
202	0x3cbaa6e2	0.022784654
203	0xb9868152	-0.00025654823
204	0xbc66cc26	-0.014086759
205	0xbd0baa0f	-0.034097727
206	0xbdc85442	-0.09781696
207	0x3d0b854f	0.03406268
208	0x3df52d3f	0.11971521
209	0xbd99281d	-0.07478354
210	0x3d8edff7	0.06976312
211	0xbd9b8921	-0.07594515
212	0x3e21c732	0.15798643
213	0x3ce24dc5	0.027624974
214	0x3db4f5a1	0.088359125
215	0x3dd06e5f	0.101773016
216	0x3d8015a6	0.06254129
217	0xbdae805a	-0.08520575
218	0x3c0ea8e5	0.00870726
219	0x3d779020	0.060440183
220	0x3b44594b	0.002996045
221	0x3d883938	0.066515386
222	0x3d83b00d	0.064300634
223	0x3d59c80b	0.05316929
224	0xbcfd2300	-0.030900478
225	0x3e09d4a5	0.13460024
226	0xbba6b722	-0.005087749
227	0xbd133044	-0.0359347
228	0xbd6c0ded	-0.05763047
229	0x3c2f1815	0.010686894
230	0x3d791fef	0.06082147
231	0xbd20c084	-0.039246097
232	0x3cdcb7e7	0.02694316
233	0xbd1e7398	-0.038684458
234	0xbcfa4cb7	-0.030554159
235	0x3d76afb8	0.060226172
236	0xbd943d5e	-0.07238267
237	0x3d73d84c	0.05953245
238	0x3c2e11c6	0.010624355
239	0xbd6b4736	-0.05744096
240	0xbd873f66	-0.06603889
241	0x3ccca2b4	0.024979927
242	0x3d8c3278	0.06845564
243	0x3da57059	0.08078069
244	0xbd8fb6e8	-0.070173085
245	0xbdf41d92	-0.119197026
246	0xbda0eb91	-0.07857431
247	0x3bddebb7	0.006772484
248	0xbc6a2c74	-0.014292825
249	0x3d73ea79	0.059549782
250	0x3c3552b5	0.011067082
251	0x3d9763ce	0.07392083
252	0xbad9a8bd	-0.0016606074
253	0xbd030b11	-0.031992976
254	0xbd468755	-0.048468906
255	0x3d097e29	0.03356758
