results/NEWRun9/TrucksBehavior/TrucksBehavior-137840.onnx (onnx, 621598 bytes, 15 tensors)

86 f4 [69]
00000000: ba1d dc3f ee31 de3f 97d2 dd3f ca84 303b
00000010: b58f 203f 9714 a83f 6e26 bd3f 9644 483f
00000020: 2d93 e63e b58f 203f ca84 303b d556 9d3f
00000030: d5fa 943f bdf6 b13f 1bbe 383f 9714 a83f
00000040: d556 9d3f ca84 303b 1bb9 003f dd83 c73f
00000050: b2ff 613f 6e26 bd3f d5fa 943f 1bb9 003f
00000060: ca84 303b f63a f53f a1ae 903f 9644 483f
00000070: bdf6 b13f dd83 c73f f63a f53f ca84 303b
00000080: 6281 523f 2d93 e63e 1bbe 383f b2ff 613f
00000090: a1ae 903f 6281 523f ca84 303b ff44 aa3f
000000a0: 607b c13f b65b ab3f 079c c23f eb3a ac3f
000000b0: c1d5 c23f b3f4 ad3f be80 c23f b936 af3f
000000c0: 7638 c23f 0b85 af3f a0f3 c13f eb6d b03f
000000d0: 060c c23f c181 b13f 846f c13f 063c b23f
000000e0: 0ce5 c03f 90ad b23f a2f7 c03f 3795 b43f
000000f0: e37a c03f 5b6f b43f 6b65 c03f a1f6 b53f
00000100: b3b9 bf3f bd70 b63f 6e84 bf3f 3e72 b73f
00000110: 9577 bf3f
1.7196572 1.7358987 1.7329892 0.0026934617 0.6271928 1.3131284 1.4777353 0.78229654
0.4503416 0.6271928 0.0026934617 1.2292124 1.1639048 1.3903424 0.7216508 1.3131284
1.2292124 0.0026934617 0.5028245 1.5587116 0.88280785 1.4777353 1.1639048 0.5028245
0.0026934617 1.9158618 1.1303293 0.78229654 1.3903424 1.5587116 1.9158618 0.0026934617
0.8222867 0.4503416 0.7216508 0.88280785 1.1303293 0.8222867 0.0026934617 1.3302306
1.5115776 1.3387363 1.5203866 1.345548 1.5221483 1.3590301 1.5195539 1.3688575
1.517348 1.3712476 1.5152473 1.3783544 1.5159919 1.3867723 1.5112157 1.3924568
1.50699 1.3959217 1.5075572 1.4108037 1.5037502 1.4096483 1.503095 1.421589
1.4978546 1.4253155 1.4962289 1.4331739 1.4958369

action_model._discrete_distribution.branches.0.bias f4 [6]
00000000: 49fc fc3e 2bb1 6b3e f31f cc3c 84a9 2abd
00000010: e5fd 123d 2510 3fbf
0.49411228 0.23016803 0.024917578 -0.04166557 0.035886664 -0.7463401

action_model._discrete_distribution.branches.0.weight f4 [6, 256]
00000000: b5e5 02bd ce5e 953d 5cbe 393e b7f1 8ebd
00000010: f146 8d3c b99e 35bd 1486 05be 1a93 dd3d
00000020: c5a7 903d 5992 22bc d0b6 4b3d 3fee 9cbc
00000030: 3ed1 183d 39bb b6bc 69f0 fa3d 5440 153e
00000040: e6ed 27bd ac31 e0bc b2e7 013e c69b 473e
00000050: 7bd2 a93d e6e6 463d e823 023e 440b b23c
00000060: 9ac6 ea3d 211a 803d 88f3 0fbe 2a56 623d
00000070: a382 5f3d 1329 92bd 5c68 023e 9f1e 8dbd
00000080: 056e 2a3d bed0 433e 4bd6 0d3c eac4 fd3b
00000090: 8198 e03c 278a 033d 2e82 083d a05f 6d3d
000000a0: 1a77 563d 8867 23be 52d0 29bd 07a7 483d
000000b0: bc4c 803d f006 243e c900 9a3b 0968 30bd
000000c0: 4116 5f3e 8363 173c e06d ec39 e8d4 bdbd
000000d0: 68cc c93d f8cc 8bbd 826c 8d3c 3c5f c2bb
000000e0: f8d2 943d a862 a53d da8e d63c ffa1 3bbd
000000f0: d9bf 17bc 5ff3 c43c d3e1 91bd 7cf9 32bd
00000100: d0ad 30bb 0ed1 c23d 80e1 0736 ad5c 123e
00000110: 96b6 233e b911 be3d b811 c83d 6367 223d
00000120: 1872 bf3d d8e1 c2bc c698 9bbc 4e09 2abd
00000130: 2bff ccbc c832 963d 6cb6 aabd f6ee e93c
00000140: ef97 ac3d f4f3 d439 0e96 e63d 8b5a dc3b
00000150: 3b1e 0bbe 031e fdbc 211b 08bd 0a02 083d
00000160: 26dc 653d 2620 aa3d e156 33bc 88af 72bd
00000170: 337f a5bc afa5 babd 7edc c53d 6134 8abd
00000180: dbf6 a9bc e146 f23d ebf2 76bc 9c4a 213e
00000190: 62b5 053e e0eb 1ebc 0104 423e c417 ca3c
000001a0: d014 9cbc 3e99 a4bc 5752 943d 8abb 903e
000001b0: c817 eb3d 4776 053c ea15 0d3e 2614 243d
000001c0: 2523 5ebd 3299 183b 25e6 a53c ae5e 12be
000001d0: 78f0 5cba 6238 50bd 5423 b8bc 0e35 433e
000001e0: 824b 77be ae23 a33c 8af2 9a3d e5d7 183c
000001f0: 269e 653d 29fc de3c bfeb 30bd cc01 bb3c
00000200: 7674 ef3d 67f6 2d3e 7bab b9bd 42a5 15bd
00000210: 4be2 12bd 0547 5bbc 3177 103d ede6 8fbc
00000220: 4780 8fbc 51d7 0e3e 0638 e73d 14f2 cabc
00000230: 57c4 16bd 8551 02bd d8e9 a33b 1ab2 b23d
00000240: 1a3f 8c3d 6ee2 933b f9c3 40be c842 163e
00000250: 86ab 58bd 497f c0bb e098 47bc 2602 b7bc
00000260: 30cb a23d b7a3 ddbd feb3 353d 1c33 323d
00000270: b213 433e 78e5 953d d028 043e 9a97 b13d
00000280: 66ec 7abd c9c3 5bbd 1069 893d 719d 923a
00000290: 4416 b1bd 6cbd 163e 600d 00be b3ba aebd
000002a0: 8628 bd3d 4e90 80bc 65c5 b0ba 234b 633a
000002b0: 18ad fcbc a9ee 073d 6f99 013d 2b22 1a3d
000002c0: eb98 373d c64b ad3a ecc5 a0bc a64a 09bd
000002d0: f990 c9bc b5e5 723e 05df 3ebb cca5 7d3c
000002e0: f028 913d a854 12bd b9cb 9c3d 4834 d03c
000002f0: 9bcd 0ebd eff8 60bd 2769 443d dae2 223d
00000300: 9996 e43c b147 b1ba d6ee b33c 9cf3 223e
00000310: 8c97 bf3d 08f2 863d b4b0 4e3d 6000 643d
00000320: 2077 033e 8af7 b0bc e8ee 613e 668e f13d
00000330: c5f3 993c ddc0 dd3d d76d 05bd 2502 b33c
00000340: 7838 92bc c6f8 643d 789b a03d f1bc 4ebd
00000350: 06ba 133d c361 cd3c 1596 3a3d 383c 783d
00000360: a7c4 413c ea94 e33c 4638 cb3d 2a24 e43c
00000370: 8e91 0cbd 2519 a93d a859 8d3c ffca 633d
00000380: e716 b5bb e022 2fbd 17a6 59bc 3ca2 073e
00000390: 7f0e 6c3d 0d6c 71bc 25dc 1dbd 0074 56bd
000003a0: 5ca8 f03b 5461 10be 79c1 a63b 1ecb af3c
000003b0: 877b 033d c2af 093e 450e 61bc cd31 98bc
000003c0: 29e2 3c3c 5e9c 663e fbc7 afbd af1d 7a3d
000003d0: 0937 953c e2b1 233d 85a0 7f3e 7eb0 9b3e
000003e0: fd6d bcbc 3106 2a3d 0057 eabd da00 91bb
000003f0: 4924 23bd be6f 783c 70db ca3d d7fe 733d
-0.031957347 0.07293473 0.18139023 -0.06979697 0.017245742 -0.044340823 -0.13039428 0.10819073
0.070632495 -0.009922587 0.04973489 -0.019156573 0.037308924 -0.022306072 0.12252886 0.1457532
-0.040998362 -0.027367435 0.12686041 0.19493017 0.08292099 0.048560046 0.1270901 0.021733887
0.114636615 0.06254984 -0.14057744 0.055257954 0.054567944 -0.071367405 0.12735122 -0.06890606
0.04160883 0.19122598 0.008657048 0.0077444213 0.02741647 0.032114174 0.033327274 0.057952523
0.052359678 -0.15957463 -0.041458435 0.048987415 0.06264636 0.16018271 0.0046998006 -0.043067966
0.21785833 0.009240034 0.0004509529 -0.09269124 0.098534405 -0.06826204 0.017263655 -0.005931763
0.072668016 0.08075458 0.026191164 -0.04580879 -0.009262049 0.02404183 -0.07123151 -0.043694958
-0.002695907 0.0951253 2.0247826e-06 0.14293166 0.1598762 0.09280724 0.097690046 0.03964938
0.093479335 -0.023789331 -0.018993746 -0.04151278 -0.025024017 0.073339045 -0.083355755 0.028556328
0.084274165 0.0004061755 0.112590894 0.0067246608 -0.13585751 -0.0308981 -0.033228997 0.03320507
0.056118153 0.08306913 -0.0109460065 -0.05924943 -0.020202255 -0.09113633 0.09661196 -0.06748272
-0.020747593 0.11829925 -0.015072565 0.15751117 0.13057473 -0.009699792 0.1894684 0.024669535
-0.019052893 -0.020092603 0.072422676 0.2826808 0.11479145 0.008145875 0.13777891 0.040058278
-0.054232735 0.002328467 0.020251343 -0.1429393 -0.00084281666 -0.05083502 -0.022477783 0.19063208
-0.24149898 0.019914474 0.07565792 0.009328817 0.056059025 0.027219849 -0.043193575 0.022828005
0.11692135 0.16988526 -0.090659104 -0.036534555 -0.03586034 -0.013383632 0.03526992 -0.017566169
-0.017517222 0.13949324 0.112899825 -0.024773635 -0.036808338 -0.031816024 0.0050022416 0.087253764
0.06847973 0.0045130765 -0.18824758 0.14673913 -0.052897952 -0.0058745486 -0.012182444 -0.022339892
0.07948911 -0.10822242 0.044361107 0.043505773 0.19050482 0.07319158 0.12906194 0.08671494
-0.061260603 -0.053653512 0.06709492 0.0011185837 -0.08646825 0.14720696 -0.12505102 -0.08531704
0.09236245 -0.01569381 -0.0013486563 0.0008670559 -0.030844256 0.03318659 0.031640466 0.03763024
0.04482357 0.0013221435 -0.019625627 -0.033518456 -0.024605261 0.23720439 -0.002912463 0.015481424
0.07087886 -0.035725266 0.076560445 0.025415555 -0.03486405 -0.0549249 0.047951844 0.039767124
0.027903842 -0.0013525394 0.021964472 0.15913242 0.09355077 0.065891325 0.050461486 0.05566442
0.12838411 -0.02160241 0.22063792 0.117947385 0.018792996 0.108278014 -0.032575455 0.021851609
-0.017849192 0.05590131 0.07842153 -0.050473157 0.036066078 0.02507103 0.045553286 0.060604304
0.011826671 0.027780969 0.09922843 0.027849276 -0.0343185 0.08256749 0.017254665 0.055613514
-0.005526412 -0.04275787 -0.013284228 0.13245481 0.057631012 -0.014735234 -0.038540024 -0.05235672
0.0073442888 -0.14099628 0.0050889817 0.021459159 0.032100227 0.13445953 -0.013736312 -0.018578434
0.01152853 0.22520587 -0.08583065 0.061063465 0.01821472 0.039964564 0.24963577 0.3040809
-0.023001665 0.04150981 -0.11442375 -0.0044251503 -0.039829526 0.01516336 0.09905136 0.059569206

action_model._discrete_distribution.branches.1.bias f4 [6]
00000000: 9ee1 fe3e 202c 6d3e 3a42 3a3e 1d37 f5bd
00000010: 367c 26bd 22ea 36bf
0.49781507 0.23161364 0.18189326 -0.11973403 -0.0406458 -0.7145101

action_model._discrete_distribution.branches.1.weight f4 [6, 256]
00000000: 5640 bcbc 0819 403d 8951 26be 3f13 92bd
00000010: d438 033d 41e1 5e3d ddb0 43be 6468 b4bc
00000020: 0caa 363c 8d6b 893d 1e14 82bc 1f14 fa3c
00000030: f4a8 85bd 22ce 0cbd 8faf 8f3b dd6e 0bbd
00000040: 9441 e4bc 7161 92bd 8b85 093b b1a4 933e
00000050: ad7b d7bd fbba fd3d 3f00 b23d 03bc a8bd
00000060: f6bf 983d f1a8 2bbc cab4 20bd a896 01bd
00000070: b312 363d 47b0 48bd 5c99 51bb 02ae 583c
00000080: 6a6a ee3c 3d0b 373b b92d 03bd 5cc5 903d
00000090: ced8 6cbd 4843 5f3d 18e0 0b3e 6548 873d
000000a0: a2b8 c03d c2c0 49bd 1145 5abd a1de 6abc
000000b0: 1028 2fbb 7cec e73a 0a62 213d 0574 dcbc
000000c0: 04da 46bc aa73 deba 9250 143e be9d 01bd
000000d0: 0415 243d b96b 093c 29bf b2bb 5077 42bd
000000e0: 035d 433d bb1c d33d 6dcc 3a3d 320e 8cbd
000000f0: d4cf 443b 8377 9e3b 0e16 41bd 2c21 49bb
00000100: cb57 0dbe 4601 9e3d 90aa a9bd 34b7 cb3c
00000110: 1191 5fbb c85d bfbb b9af 2f3d 28d4 c0bb
00000120: 04a2 b5bc 407b 72bc 7995 99bb 5c58 32bd
00000130: 7da3 013c 4b35 e83c f708 08bd e170 413d
00000140: e6b0 343c f3b1 98bd 1b9c 2c3d e021 cc3c
00000150: ac77 f8bc 87ca c4bd b69b 2d3c 7593 213d
00000160: ad7f 8a3d 274c a5bd ff4a 97bd 636c 713d
00000170: 9958 8ebc 5040 e93d fd94 6d3c 3308 08bd
00000180: 9eb0 cdbd 85b0 00bd 618f 173c d1d4 8dbd
00000190: 2371 ad3d e6d9 1e3d d1e7 3b3d 3f54 003c
000001a0: 98a8 64bd 19e9 f3bd 932a ea3c 8f0c 78bc
000001b0: 603c 2bbc b2b2 83bc 9e66 153d 908e 9d3c
000001c0: 9201 9ebd a3a6 c1bb 6144 bebd b258 a93d
000001d0: 674f eb3b e154 3abc bc3c 80bb 2f06 ca3c
000001e0: 47f1 f0bd 1558 e23d 4e6c 363d f596 00bd
000001f0: 4ab3 643d 53a8 ec3c 6a91 fd3d febb e5bc
00000200: d619 e03c 1ab1 7fbd f6a8 52bd 33fa 873c
00000210: 3b5f 0bbc bb5b a13d bc7a 5f3d 2029 4839
00000220: 4711 fcbd 94c1 e93c f553 093c 2825 24be
00000230: 98e3 67bc 6f56 c4bd c7ab 2f3d 024b d3bc
00000240: 1c07 0bbd 24bc 98bc c41e b1bb 5fac 19bd
00000250: eea8 8abc e805 22bb f200 60bd 62b2 b2bc
00000260: 66cf 21bd 55e1 e83c c106 063e 8a15 01bc
00000270: eb41 293e 957e c53d 467d 653d 7272 83bb
00000280: e597 3c3d 98f9 ef3c df6a a53d e3bb 01bd
00000290: 743b ebbc 3896 183d d1e4 a0bd 05cf 943d
000002a0: 0eca 98bd 396e 0dbe dbdd 9a3d 1ddf 6d3d
000002b0: befe a4bc 04cb 09bc e4ed aebd cbee 81bc
000002c0: 3f70 a93c 7595 42bd b66f d8bc 4b1b 25bc
000002d0: 9e02 b9bc b5ff 0b3d 86ac 893d 58aa 95bd
000002e0: 7cbb 2c3d f605 0ebc 7243 123e 322c 98b8
000002f0: 2bfe 4ebd e7eb d23c a32a b9bc 1caa 893c
00000300: dd2f e93c 9212 b23d ef5a d73b 8933 52bd
00000310: 37bd 2abc c18f 30bc 8d23 63bc f69b 523d
00000320: 91f2 b63d 6eef 04bd ebf2 bbbc 3a31 223c
00000330: 2c49 8ebc 70ae ae3d 41c1 a3bc 4fc7 aabd
00000340: 7158 6dbc 6ae5 ddbd c0f1 a23b a11a 49bd
00000350: c5e7 abbb 8ab9 6939 77bd b73c 5fa2 64bb
00000360: a39e 21ba 1ccd 1abc bba8 3e3d 0386 77bb
00000370: 7718 2b3d dcf5 fc3d 8945 cd3c 8c9f 853d
00000380: 13ab 70bc ed0b 023c 2ff8 a03d 33fd e43c
00000390: a9a8 a33d 0a45 183e 69b5 4f3c ac2a 08bd
000003a0: 852b 843c 5689 e2bd 1b61 b63d e50b c83c
000003b0: c6e7 0dbd 686e 493d 1970 b4bd 3626 823d
000003c0: 9ca0 35bd 076c 8fbb f303 bbbd a0f4 6339
000003d0: 41b9 4a3d 8214 a7bd 1bc3 c7bd 6723 ae3d
000003e0: 12e9 cebc da95 a0bc 1564 70bd 2898 12bd
000003f0: 9ddd c4bd d350 833d fe0f 4abc f3a8 1fbd
-0.022979897 0.04689887 -0.1624204 -0.07132577 0.032036617 0.054414038 -0.19110437 -0.022022434
0.011148941 0.06709967 -0.015878733 0.030527173 -0.06526366 -0.03437627 0.004384942 -0.034041274
-0.027863301 -0.07147492 0.0020984139 0.28836587 -0.10521636 0.12389179 0.08691453 -0.082389854
0.07458489 -0.0104772905 -0.039234914 -0.031637818 0.044451427 -0.048996236 -0.0031982278 0.01322508
0.029103477 0.0027930283 -0.032026026 0.07068893 -0.05782395 0.054507524 0.13659704 0.06605605
0.09410216 -0.049256094 -0.053288523 -0.014335305 -0.002672676 0.0017694379 0.039400138 -0.026910791
-0.01213694 -0.0016971726 0.1448386 -0.031644575 0.040059105 0.0083874995 -0.005454917 -0.047477067
0.047696125 0.10308214 0.045605112 -0.06838645 0.0030031102 0.0048360243 -0.047140174 -0.0030689938
-0.13803022 0.07715087 -0.08284485 0.024867631 -0.0034113566 -0.005840037 0.04289219 -0.005884666
-0.022171982 -0.014799893 -0.004687008 -0.043541297 0.007912514 0.028345725 -0.033211675 0.04722679
0.011028504 -0.07455816 0.04214106 0.024918497 -0.030330501 -0.096089415 0.010596206 0.039447267
0.067626335 -0.080711655 -0.07387351 0.058941256 -0.017376231 0.1138922 0.014500854 -0.033210944
-0.10043453 -0.031418342 0.009250493 -0.06925357 0.08468845 0.038782023 0.045875374 0.007832586
-0.055824846 -0.11909694 0.028584754 -0.015139713 -0.010451406 -0.01607642 0.036474817 0.019233018
-0.07715143 -0.005909757 -0.09290386 0.082688704 0.0071810964 -0.011372776 -0.00391349 0.024661152
-0.1176477 0.110519566 0.04453688 -0.031393964 0.055835046 0.028888857 0.12381251 -0.028043743
0.02735607 -0.062424757 -0.051430665 0.016598796 -0.008506591 0.07878824 0.054560408 0.00019088807
-0.12307983 0.028534688 0.008381833 -0.16029799 -0.014153384 -0.095867984 0.04288843 -0.025792602
-0.033942327 -0.0186444 -0.005405279 -0.0375179 -0.016926255 -0.0024722759 -0.0546884 -0.021813575
-0.03950443 0.02842776 0.13088514 -0.0078786705 0.16529052 0.09643284 0.056027673 -0.0040114457
0.046043295 0.02929382 0.08077025 -0.031673323 -0.028714873 0.037252635 -0.07856143 0.07266048
-0.07460414 -0.13811578 0.07561847 0.058074106 -0.020141002 -0.008410219 -0.08541468 -0.015860936
0.020683406 -0.047505815 -0.026420455 -0.010077308 -0.022584256 0.034179408 0.06722359 -0.07307881
0.042170987 -0.008668413 0.14283541 -7.256157e-05 -0.050535362 0.025747253 -0.022603339 0.016804747
0.028465206 0.08694948 0.0065721194 -0.05131868 -0.010421089 -0.010776461 -0.013863456 0.051418267
0.089329846 -0.0324549 -0.02294298 0.009899432 -0.017368875 0.08529365 -0.019989612 -0.08338796
-0.014486418 -0.10834773 0.0049726665 -0.04909766 -0.005246135 0.0002228973 0.022429211 -0.003488682
-0.00061653013 -0.009448316 0.046547633 -0.0037769086 0.04177138 0.123515815 0.025057571 0.06524572
-0.014689225 0.007937414 0.07859837 0.027952766 0.07991154 0.14870086 0.012677529 -0.03324382
0.016134033 -0.11061351 0.0890524 0.024419734 -0.034644864 0.049177557 -0.088104434 0.063549444
-0.044342622 -0.0043768915 -0.09131613 0.00021739537 0.04949308 -0.081582084 -0.0975401 0.08502846
-0.025257621 -0.019602705 -0.058689196 -0.03578964 -0.09612582 0.064119 -0.012332914 -0.038979482

action_model._discrete_distribution.branches.2.bias f4 [6]
00000000: ee8f 0f3f a47c 943e aa1a 803d 7cda 1abe
00000010: c57a 81bc fe9b 45bf
0.56078994 0.29001343 0.06255086 -0.15122408 -0.015805611 -0.7719115

action_model._discrete_distribution.branches.2.weight f4 [6, 256]
00000000: 4f80 c03c 2d97 213d 8899 b5bc 82fd 84be
00000010: 3f61 f7bd 4a6d d1bc 6684 40be 7156 843d
00000020: e3bf 763d 1b7d 473e 672e a73d 6c69 8fbd
00000030: 7ba2 623c 2f31 ac3d 7ae0 0a3e 8071 113a
00000040: 16a2 85bc 5411 99bd 080b 4abc c8ee 5f3c
00000050: 6249 93bd a730 403d ea57 ce3d 3181 56bd
00000060: 49ef 9f3d c142 2c3d 22b4 3abe cfb0 1bbd
00000070: 241d 463d 83d3 213d 20d8 91bc 9ae2 81bc
00000080: e836 d93d fb42 193c ed6d 25be 28f7 463c
00000090: ee75 e8bc 4352 6c3d c3e4 1cbd 06f7 903d
000000a0: 15e4 783a 19a0 54bc 877b 1c3d 5405 2bbc
000000b0: c05e 0abd 868f 04be c5fe ebbc c1ff b03c
000000c0: 1444 033e 2527 623d aca9 ee3d aa37 123e
000000d0: 1ef1 26bd 2cd7 ca3b 585c 923d 07d7 62bd
000000e0: 4b93 babc e3c1 ebbd 1590 2d3d 2add c3bc
000000f0: 9d02 fc3b 9f66 0fbd 0612 9bbd 193d fe3b
00000100: 296d c53d c5f5 553d e6d3 d23c 93b1 2fbd
00000110: e5a5 343c ab1c 9ebd 0e85 6d3c 7843 cdbc
00000120: 0d49 4bbc 136e a03c 543f 26bd db88 253e
00000130: e300 dabc 9316 083d b862 55ba 7747 73bd
00000140: dc9e ba3d 393d f3bd ea73 57bb c39c 25be
00000150: c0c7 acbc 8ee2 1f3e ba9f 24bd 7ceb 2ebc
00000160: 2daa 69bc 3257 543e efa1 49bd 39a0 c23c
00000170: 833a b1bc bb3c bc3d 36c2 293d 84ed 9d3c
00000180: 69d1 72bb 382b 8638 437a 773d 6f41 e0bd
00000190: 4bda 883b 0481 b33d e5de f23d 3d46 843d
000001a0: 0e1e 9a3a 7bff ffbd c8e6 193d c5a2 513e
000001b0: 7e48 193e 8c4d 82bc 8407 90bc d7c9 023d
000001c0: be5c 42bd d1c6 703d ab7e 76bd 6c6d 3e3d
000001d0: 4805 27be 18c5 30bc 991a d5bd 1c4d d4bd
000001e0: bb38 59be 7c2c f93c 108a 583d 4904 823c
000001f0: 35cd cb3d 767d dabc a736 bb3d 8639 89bc
00000200: 133e 193d bf2f 113e 0914 1d3d 26cf b53d
00000210: c860 e93c c881 a0bd 5d20 babd 8aa5 90bd
00000220: 3c3e bcbc 2973 96bd c0ff 1ebc 057c e8bb
00000230: b011 c13d 228b 893c 1ed9 83be cdeb dd3d
00000240: ced6 a93b 0ef4 523d 1310 e3bd bba5 6d3c
00000250: 15c0 20bd 4021 5c3b c747 35bd 21fa 003d
00000260: 66a4 223e d102 15bd dd43 a83e ebe7 683c
00000270: 0a82 a83d f206 713d 9766 1e3d 7205 103e
00000280: e890 21be a92f 0a3e 530f 47bc 7062 9cbd
00000290: 46ce 7c3d d8a8 273d 1666 a5bc e975 97bc
000002a0: 8e36 d73d 3cb4 9cbd 46cf d8bd 0110 2a3c
000002b0: 23aa a739 2f35 c33d e4f3 a53c 631f 263d
000002c0: 6bf6 f03b 4294 da3c cce8 6fbc 3b29 043c
000002d0: 9ac7 5bbc a768 393e aaa3 05bd 4fd4 e8bd
000002e0: d8da c43d f5aa 4ebc b072 ea3c 63b1 7b3d
000002f0: 13cc 0cbc 3819 97bd c013 18bc 3a95 473e
00000300: b54f 183d 9c37 993d 1a31 cfbd 6244 d93d
00000310: 1abb 2c3d cb77 d4bb 5a68 16bd 56e1 5f3d
00000320: aee0 bf3c f334 23bd eea6 893c a5c1 63bd
00000330: e320 8bbd 9cdd 8e3d cbc6 e8bc bb71 02be
00000340: 3d02 c73c 0d23 093d ae68 933a 141b 9f3c
00000350: 121e 0d3d d7cb 35bd 5517 5d3d f46d 963c
00000360: 0405 c33d 010b 9f3c b129 a73d 9e18 0f3d
00000370: 78c1 b4bc dc53 b43d 3aa4 19bd 2a3c 41bd
00000380: 9b15 153b b771 e03e 8d55 04bd eba9 323d
00000390: 9aa1 d33d 00ca 963d db81 fc3c 1a33 3e3c
000003a0: 4853 e93c a182 d0bd b1c2 b13d 67a1 923c
000003b0: f8a8 55bc 6e11 bcbd 3ff0 943d 520c 1f3e
000003c0: 7fd3 a23d 5724 20bd 8117 05bd aadf 14bc
000003d0: 9988 ff3c 07a8 e23b dc70 22be db34 203d
000003e0: 1990 93bd d9b7 243d 351d bfbc 2c11 aabd
000003f0: 9f6a bbbd e2b9 543d a593 aa3e 71b5 0ebd
0.023498682 0.039450813 -0.022167936 -0.2597466 -0.12079095 -0.025564808 -0.18800506 0.064618
0.06024159 0.19481318 0.081631474 -0.070025295 0.013832684 0.084078185 0.13562194 0.0005548224
-0.01631264 -0.07474008 -0.012331732 0.01366777 -0.07191731 0.0469214 0.10075362 -0.0523693
0.07809312 0.04205585 -0.18232778 -0.038010415 0.048367634 0.039508354 -0.017803252 -0.015855122
0.10606176 0.009354348 -0.16155215 0.012143888 -0.028376546 0.05769564 -0.0383041 0.07078366
0.0009494436 -0.012977623 0.038203742 -0.010438282 -0.033781767 -0.12945375 -0.028808007 0.021606328
0.12818938 0.055213112 0.11653456 0.14279047 -0.04075729 0.0061902013 0.071465194 -0.055380847
-0.022775313 -0.1151159 0.042373735 -0.02390917 0.007690741 -0.035009976 -0.07571797 0.0077587483
0.09639961 0.052236337 0.025735807 -0.042893957 0.01102588 -0.07720312 0.014497055 -0.025056586
-0.012407553 0.019583737 -0.04058774 0.16165487 -0.026611751 0.033224653 -0.00081400154 -0.059394326
0.09112331 -0.11876912 -0.0032875487 -0.16173081 -0.021091342 0.15613768 -0.04019139 -0.010676261
-0.0142617645 0.20736387 -0.049226698 0.02375804 -0.021634346 0.09191271 0.04144498 0.019278295
-0.0037051088 6.397668e-05 0.060419332 -0.109499805 0.004176413 0.08764842 0.1185892 0.064587094
0.0011758225 -0.12499901 0.037573606 0.20472248 0.1496906 -0.015906118 -0.017581709 0.03193077
-0.047451727 0.058783356 -0.060179394 0.04649107 -0.16310608 -0.010789178 -0.10405464 -0.1036627
-0.21213047 0.03041672 0.05286604 0.015871184 0.099512495 -0.026671153 0.091412835 -0.016751062
0.037412714 0.1417837 0.038349185 0.08877401 0.028488532 -0.07837254 -0.09088204 -0.07062824
-0.022978894 -0.07346184 -0.00970453 -0.0070948624 0.09427202 0.016789977 -0.25751585 0.10835991
0.0051830774 0.05150228 -0.1108705 0.014504845 -0.039245684 0.0033589154 -0.044257905 0.03148854
0.15883026 -0.03637964 0.32864276 0.01421545 0.08227928 0.058844514 0.038672056 0.14064577
-0.15777934 0.13494743 -0.01214965 -0.07635963 0.061720155 0.040932506 -0.02019028 -0.018488841
0.10508452 -0.076515645 -0.10586409 0.010379792 0.00031979484 0.09531628 0.020257898 0.040557276
0.007353594 0.026682023 -0.014642905 0.008066471 -0.013414288 0.18106328 -0.032626785 -0.1136862
0.09612054 -0.0126140015 0.02861914 0.061448466 -0.008593577 -0.07377857 -0.0092820525 0.19490519
0.03718539 0.0748131 -0.10116787 0.10608746 0.04217062 -0.006484007 -0.03672061 0.054658256
0.023422565 -0.03984542 0.016803231 -0.055604596 -0.06793382 0.069758624 -0.028415104 -0.12738697
0.02429306 0.033480693 0.0011246407 0.019422092 0.034452505 -0.04438385 0.05397733 0.018362977
0.09522441 0.019414427 0.08162249 0.034935586 -0.02206491 0.088050574 -0.037510134 -0.047176518
0.0022748474 0.43836758 -0.03230815 0.043619078 0.103335574 0.07362747 0.030823639 0.011608863
0.028482094 -0.101811655 0.086797126 0.017899228 -0.013040774 -0.09183012 0.07272386 0.15532044
0.07950496 -0.039097156 -0.03249312 -0.009086529 0.031193065 0.006917003 -0.15863365 0.039112907
-0.07205219 0.040214393 -0.023329357 -0.083040565 -0.09151196 0.051935084 0.3331577 -0.034841005

discrete_action_output_shape f4 [1, 3]
00000000: 0000 c040 0000 c040 0000 c040
6.0 6.0 6.0

network_body._body_endoder.seq_layers.0.bias f4 [256]
00000000: 0a67 1cbf 066d fcbd 2151 1fbf c8ef c23e
00000010: bc25 8fbf 92c1 f8be aad5 21bd 706d 9ebe
00000020: 0841 8fbe 9517 85bf 6355 4abf ef01 f1be
00000030: edbf 40bf 4c5d 9cbf eae2 c4be d306 47bf
00000040: cab3 83bf f64d 36bf a950 29bf aa1c e9be
00000050: 37f1 5dbe 6e7f 26bc 1e29 33bf 1fe2 b13e
00000060: 3b38 fdbe 2b50 bebe 5c2a e93e 1ece 84bd
00000070: af27 34bf 3beb 083e 0318 03bf 3f75 fc3d
00000080: d13a b6be 8374 e1be e437 3dbf 8a47 39bf
00000090: 9873 32bf cf2a 2bbf b56b 8dbe 50ba 8abf
000000a0: 2849 10bf e942 1ebe ced5 c6b9 327e fbbe
000000b0: 9a7b 85be 4a79 30bf de60 38bf 271c a6be
000000c0: 14e5 11bf f54e 93be 0dd6 fbbe ad10 3abf
000000d0: 176f 4ebe 20b4 03bf 2725 80bf d263 1bbf
000000e0: 04ef 063f 6532 17bf 1041 b6be 2ec3 58bf
000000f0: 2046 113e 87d7 afbd ede8 d93c 4a13 89be
00000100: 77b1 8dbf 57f7 71bf da1e 2abf 1139 0dbf
00000110: 2990 c3be 6dd2 4abf d209 50bf 90a9 05bf
00000120: 21fa 18bf b672 c83e 383d 6dbf 3744 753e
00000130: 55c9 52bf 96f8 4ebf 4717 c7bd 563c d4bd
00000140: df34 05bf 20f4 62be 42fc 2abd 4e02 6fbf
00000150: f5be e2be 0ae4 0abf 5e15 f0be ada2 11bf
00000160: a54d 6cbf b301 a5bd 8301 0cbe c9ed 3dbd
00000170: 1df1 aebe dfbd 99bf bd12 243e 38d2 9cbd
00000180: cae3 ccbe 5d3f 0abf 7b3f 16be a33d 13bf
00000190: c6b0 9cbd 4c72 f7be 6aff 5bbf 8d69 7bbf
000001a0: 32f9 55bf 45fe 24bf 5a8e 3fbf b145 89be
000001b0: 5245 f2bd f480 08bf 4a7b 3fbf 8af4 bbbe
000001c0: 63a5 a9be 2e65 9b3b 37a3 d8be fa77 a9be
000001d0: d395 33be d46e 4b3e e3a5 19bf 430a 10bf
000001e0: eeb3 46bf 09ad 83bf 6eab 81be 9400 7abe
000001f0: 1144 9bbf d1bc 95bf 1bc6 9b3e 9f77 7ebf
00000200: f778 7abf c770 73bf ba25 73bf 5481 abbd
00000210: 6aca 9f3e dfde a1bf 6885 46be 4e26 7f3e
00000220: f382 b9be 403b 74bd 9167 44bf 2397 2fbf
00000230: e9e4 0abf 2733 dcbd e96d 60bf 843e b03e
00000240: 1104 bfbe 0ab3 5abe f210 c0be bb42 27bf
00000250: 935e 83be 6346 64be 18dc e4be 2a93 d2bd
00000260: c632 1cbf 3dab 2cbf 2ce9 30bf 7bb6 9cbf
00000270: 5228 c7be 45e2 73be 8e12 89bb 4fa6 173e
00000280: 2e28 c0be aded 8bbe 27af b5be b25d 40be
00000290: 59dd 78bf cd78 13bf 9acb f1be a747 22bf
000002a0: bb26 83bf 22e3 ffbe de0a 0bbe 94c1 f0be
000002b0: a336 a9be 31e1 9cbe 3fb5 85be 6c79 0ebf
000002c0: c16d 70be ccdf 0fbf 077e 8ebf b7e2 5bbf
000002d0: e389 e3bd 7332 8bbf a597 53bf 5cd6 9a3e
000002e0: c286 29bf 616d 5dbf c7f6 babe 44a1 04bf
000002f0: 6883 b4be b6b5 10bf 0798 bdbe d67b 0ebf
00000300: 83cf bf3d c727 a0be b814 81bf 2005 28bf
00000310: a6d4 63bd 8278 01bf e1d0 f8be 2098 94bf
00000320: 50e4 54bf 11ca 1e3d 8f88 f9be 9e51 15bf
00000330: 4063 17bf 2d23 2f3d 52bd a0bf 89aa 3dbf
00000340: ebcb fbbe 3c82 ccbe c987 bbbe f130 62bf
00000350: f882 01bf 84bf 49be 1495 30bf f8f2 9abe
00000360: 353c a9be b9f9 67bf d37a d4be a227 31bf
00000370: 29c7 b1be 38b9 f23c 1bb6 24be fc6a aabe
00000380: 0191 3bbe ad42 95be 2993 adbf b1b1 e43c
00000390: fe8d 19bf 5e3b 30bf 9e24 0cbf cd74 c3bd
000003a0: aa1f 0abf 0b22 61bf 3711 73be ef47 febe
000003b0: 620d 1d3f 92d0 61be d408 13bf bbd1 3d3c
000003c0: c036 dfbe 20c0 1cbf b1f5 02bf 05f3 6cba
000003d0: f463 e1be 1f21 1fbf 5b6a e1be 2676 71bf
000003e0: 6cfb a3be 6d37 c0be a3e3 7dbe 977f ddbe
000003f0: 28e6 1bbf 853e 5ebf 1187 04bf 2d3a 15bf
-0.61094725 -0.12325482 -0.6223317 0.38073564 -1.1183391 -0.48585182 -0.039510407 -0.3094287
-0.27979302 -1.0397822 -0.7903654 -0.47071788 -0.75292856 -1.2215972 -0.38454372 -0.7774479
-1.0289242 -0.7121271 -0.661387 -0.4552968 -0.21674047 -0.010162218 -0.69984615 0.3474283
-0.49456963 -0.37170538 0.4554013 -0.06484626 -0.7037305 0.13370983 -0.51208514 0.123270504
-0.35591748 -0.44034204 -0.7391341 -0.72374785 -0.6970763 -0.66862196 -0.27621236 -1.0838108
-0.5636163 -0.15455212 -0.000379248 -0.49119717 -0.26070863 -0.6893507 -0.7202281 -0.32443354
-0.5699017 -0.28771177 -0.49186745 -0.72681695 -0.20159565 -0.51446724 -1.0011338 -0.6069919
0.5270846 -0.5906127 -0.35596514 -0.8467282 0.14186907 -0.085860305 0.026600325 -0.2677253
-1.1069783 -0.94518036 -0.66453326 -0.551652 -0.38195923 -0.79227334 -0.81264985 -0.52211857
-0.59756666 0.39150017 -0.9267154 0.23951803 -0.8233846 -0.8084806 -0.09721237 -0.10363071
-0.520338 -0.22163439 -0.041744478 -0.9336289 -0.44286314 -0.5425421 -0.46891302 -0.5688885
-0.92305976 -0.08056965 -0.13672452 -0.046369348 -0.3416833 -1.2011069 0.16022773 -0.076572835
-0.4001754 -0.54002935 -0.14672653 -0.57515925 -0.07650904 -0.4832939 -0.85936606 -0.9820793
-0.83583367 -0.64450485 -0.74826586 -0.26810983 -0.11829628 -0.53321767 -0.747975 -0.36710006
-0.33133993 0.004742286 -0.42312023 -0.33099347 -0.17537622 0.19866496 -0.6001875 -0.5626566
-0.776183 -1.0287181 -0.25326103 -0.24414283 -1.2130147 -1.1698247 0.3042458 -0.9940128
-0.9784083 -0.9509396 -0.9497944 -0.08374277 0.31209117 -1.264614 -0.19386828 0.24916956
-0.3623272 -0.059626818 -0.7672053 -0.6858999 -0.5425554 -0.10751944 -0.8766771 0.34422696
-0.3730779 -0.2135736 -0.37512928 -0.653362 -0.25658092 -0.22292475 -0.44699168 -0.102819756
-0.61014974 -0.6744879 -0.6910579 -1.2243189 -0.3889795 -0.23816784 -0.00418312 0.14809535
-0.37530655 -0.2732977 -0.35485193 -0.18785742 -0.9721275 -0.576062 -0.47225648 -0.6339058
-1.0246195 -0.49977976 -0.13578364 -0.47022688 -0.33049497 -0.30640557 -0.26114842 -0.55654025
-0.23479368 -0.5620086 -1.113221 -0.85892814 -0.11110284 -1.0874771 -0.82653266 0.30241668
-0.6622125 -0.86495024 -0.365164 -0.5180857 -0.35256505 -0.5652727 -0.3703005 -0.5565771
0.093657516 -0.31280348 -1.0084448 -0.6563282 -0.05562272 -0.50574505 -0.48596862 -1.1608925
-0.8316088 0.038766924 -0.48736998 -0.5832766 -0.5913582 0.042758156 -1.2557776 -0.7408834
-0.49179015 -0.3994311 -0.36627033 -0.8835593 -0.5059047 -0.19701964 -0.68977475 -0.30263495
-0.33053747 -0.9061542 -0.41499957 -0.692011 -0.3472226 0.029629335 -0.16085093 -0.33284748
-0.18317033 -0.29152432 -1.3560535 0.027916761 -0.5998229 -0.6884059 -0.54743373 -0.09543762
-0.53954566 -0.8794257 -0.23737036 -0.49664256 0.61348546 -0.2205222 -0.57435346 0.011585648
-0.43596458 -0.6123066 -0.51156145 -0.0009038898 -0.4402157 -0.62159914 -0.44026455 -0.94320905
-0.32027757 -0.37542287 -0.24793868 -0.43261406 -0.60898066 -0.8681415 -0.51768595 -0.58291894

network_body._body_endoder.seq_layers.0.weight f4 [256, 69]
00000000: f488 2abe 37b7 1ebe 482e 16bd 2c18 b8bd
00000010: 7f03 03bf a7be 1abf 534b 2bbf a854 2dbf
00000020: d219 f8be a588 e8be 7794 413d 81f6 17bf
00000030: 402e 33bf 2abe 33bf 4ba6 04bf 0caa 06bf
00000040: 5bd8 0cbf 6a0c 60bd 8a77 1dbf fb61 27bf
00000050: 9de0 14bf 3398 17bf 5c26 16bf 966b 3dbf
00000060: 3ea5 4c3d a6e1 1cbf 0971 0bbf 7f3a 3dbf
00000070: 5097 53bf 3528 3bbf 2d5e 38bf 2662 f1bd
00000080: 4ae8 f9be 858c 48bf 76ef 36bf e3ab 19bf
00000090: 3941 0cbf 1b02 58bf c7cf 303d 359b c6be
000000a0: 504f 283e 975e 9e3e de1c a1bd 5d03 c23d
000000b0: 66c7 333e 1217 ba3d ab6e 69bd a202 2b3e
000000c0: c992 3b3e 3655 523e a6c4 ca3d 61d8 f53e
000000d0: 0af8 a83e 7a42 fe3d 4037 073f 9016 b0bc
000000e0: e729 ea3e afc1 54bd 8cb6 2b3e 7f0e 1b3e
000000f0: 1484 f13e 83c8 9c3e 2657 af3e 6885 cf3e
00000100: 0afb 753e a305 85be 5876 1e3e 35f6 6f3e
00000110: 3aca 59be bd29 33bd 6800 5e3b 9292 433e
00000120: 29f7 9c3e bd47 78be c290 00be 019b 2d3d
00000130: c408 4bbe 5063 3b3d efbe e8bd ea8d b53d
00000140: 7f63 2ebd 4c6a 74be f09d e4bd 775b 0ebd
00000150: d029 9abe 1336 42be 6b83 37be bb4f 93be
00000160: 673c 8dbe 315b 8cbe 5ee6 d8bd 8101 3ebe
00000170: 18a3 2abd 69b5 bcbc cd67 d9bd 75bc 34be
00000180: d8ce a23d 169c 99be 229c 92bd 2b5b cfbd
00000190: 28f2 233e 0985 71be 1bd7 c7bb 60d9 0fbe
000001a0: dd11 55be 24e3 823d 8478 aabd 31f0 e2bd
000001b0: 61f1 513e 5b01 dabd 5e8e abbe 860c 1dbd
000001c0: 97e2 81bc 3d65 013e a88b 2a3d a6e9 773d
000001d0: 2812 593d 11cc adbd b2b7 ab3d d989 db3d
000001e0: 9848 9b3c c9aa 28be 5736 e33d 3d98 203e
000001f0: ff6a 2fbe 7678 2ebe c265 2cbc ccd6 ff3d
00000200: 3e55 d5bd 4f70 18be 63c6 08bd 0d82 38be
00000210: 9224 aebe 10cb 8dbe aeb0 0b3c efef 40be
00000220: 8ab0 0bbe 505a 3fbe 8745 373e 6517 e4bd
00000230: 6d99 153e 670a 843d a809 4cbf d1cb 68bf
00000240: dcb6 20bf 7a7d 45bf 4e0a 2cbf 22b3 1ebf
00000250: e51f 013d 3f76 4dbf 6e20 09bf 2ecb 20bf
00000260: 2759 40bf 3213 1bbf e530 13bf d438 c3bc
00000270: 58f2 0fbf b953 10bf 15bc 12bf 88ee c4be
00000280: 8059 24bf 70c7 55bf 24a4 a23d dfc1 5abf
00000290: 39d9 31bf 48a6 00bf fb64 17bf 35a3 08bf
000002a0: fd81 2ebf ebb6 843e eef0 02bf 9ac2 39bf
000002b0: 2dda 4cbf 9a50 01bf 9456 dcbe 9f45 0bbf
000002c0: 59d9 babd 2b77 1abe b9a2 73be 2615 f0bd
000002d0: 54e4 29be 6dba fd3c fcfa c4bd d48d ae3d
000002e0: 7b9c d3bd 15dd d53d 4469 cc3b c5fe ee3d
000002f0: 4484 123e 50ba 41be beca 42bd c356 ec3d
00000300: 6ef2 dcbd 296c acbe fe15 993d 303c 523a
00000310: 360c b13d 0c96 c2be 672e 083e 21dc 2fbb
00000320: c031 eebd faa1 c73e 2369 67bd a357 07be
00000330: 3032 afbd ed9f 723e a565 b23d 2e0d bf3d
00000340: 6141 873d 0f30 fe3e 657b a2bc 374a 4d3d
00000350: b623 b63e 4e9a b33e f4b9 9f3e 1b5b 903e
00000360: c796 0f3f 62c5 363e 973c 073f dc7a bb3e
00000370: a40a 6b3e bf9c 853e 8d24 693e 195f 903e
00000380: 9262 c93d cac7 493e 807f 2c3f 025b f63e
00000390: 0404 dc3e 6606 003f 3356 013f 6025 6a3d
000003a0: 23bc ea3e e09a 003f 72a2 9f3e 6c65 a03e
000003b0: c524 db3e 63cd d73e eb9e 853e 8bad ee3e
000003c0: 2764 0a3f a7ab ce3e 5aa2 053f 4114 e53e
000003d0: 6487 a13e fc58 00be efd1 16bd 1a32 c2be
000003e0: 84f8 a4bd 4762 303e cf2d fc3c 2f2a 853c
000003f0: cc68 2a3e d793 ccbd f062 303d d8a0 98be
-0.16653806 -0.15499578 -0.03666523 -0.089889854 -0.5117721 -0.6044716 -0.6691181 -0.677073
-0.484572 -0.45416752 0.047260728 -0.5936051 -0.69992447 -0.7021204 -0.5181624 -0.5260322
-0.5501763 -0.05469934 -0.6151053 -0.6538388 -0.5815523 -0.5921661 -0.5865228 -0.7399229
0.049962275 -0.6128181 -0.5446935 -0.7391738 -0.8265276 -0.73108226 -0.720187 -0.117862985
-0.48810035 -0.78339416 -0.7145914 -0.60027903 -0.5478702 -0.8437821 0.043166902 -0.3879029
0.16436505 0.3093154 -0.07866834 0.09473298 0.17556533 0.090864316 -0.056990307 0.16700223
0.18317713 0.20540318 0.09900789 0.48016647 0.3300174 0.12415023 0.5281868 -0.021495134
0.45735094 -0.051942524 0.16768855 0.15142249 0.4717108 0.30621728 0.34246176 0.40531468
0.24021545 -0.25980863 0.15474832 0.23433764 -0.2126855 -0.043740977 0.0033874754 0.19098881
0.30657318 -0.24246116 -0.1255522 0.04238415 -0.19827563 0.04574901 -0.11364543 0.088649586
-0.042575356 -0.23868674 -0.11162937 -0.034755196 -0.30110025 -0.1896594 -0.17921226 -0.28771767
-0.27585146 -0.27413324 -0.10590814 -0.18555261 -0.041659445 -0.023035722 -0.106155016 -0.17650016
0.079496086 -0.30001897 -0.07158686 -0.10124811 0.16010344 -0.23585905 -0.0060986406 -0.14047766
-0.20807596 0.0639098 -0.08323768 -0.11080969 0.20502235 -0.1064479 -0.33507055 -0.03834202
-0.015855117 0.12636276 0.041637093 0.06052556 0.05299583 -0.08486188 0.083846465 0.10719652
0.018955514 -0.164714 0.11094349 0.15683074 -0.1713066 -0.1703814 -0.010522308 0.12492141
-0.10416649 -0.14886592 -0.03339232 -0.1801836 -0.34012276 -0.27693987 0.00852601 -0.18841527
-0.13641563 -0.18686795 0.17897616 -0.11137275 0.14609309 0.064472966 -0.79702234 -0.90936
-0.6277902 -0.7714459 -0.67203224 -0.61992085 0.031524558 -0.80258554 -0.5356511 -0.6281003
-0.75136036 -0.60576165 -0.5749648 -0.023830809 -0.5622916 -0.5637775 -0.5731824 -0.38463235
-0.64199066 -0.8350744 0.079414636 -0.85452074 -0.6947208 -0.50253725 -0.5913846 -0.53374034
-0.68167096 0.25920805 -0.5114888 -0.72562563 -0.8002041 -0.50513613 -0.43034804 -0.5440311
-0.09123487 -0.15084521 -0.23792543 -0.11722784 -0.16591007 0.030972684 -0.09618184 0.08523145
-0.10332581 0.10442559 0.0062381346 0.11669687 0.14308268 -0.18918729 -0.04755663 0.11539986
-0.10788427 -0.3367627 0.07474898 0.0008019833 0.08644907 -0.38005102 0.13298951 -0.0026834088
-0.11630583 0.38990766 -0.05649675 -0.13217025 -0.085544944 0.2369382 0.087107934 0.09328686
0.06604267 0.4964604 -0.01983423 0.050119605 0.3557412 0.35078663 0.31196558 0.28194508
0.5608944 0.17848733 0.5282683 0.36617172 0.22953278 0.2609615 0.2276785 0.28197554
0.09833254 0.1970512 0.6738205 0.48116308 0.42971814 0.50009763 0.50522155 0.05716455
0.45846662 0.5023632 0.31178623 0.3132738 0.4280149 0.42148885 0.26097807 0.46616778
0.5405907 0.40365335 0.52200854 0.44742015 0.31548607 -0.12533945 -0.036821302 -0.3792885
-0.08055213 0.1722499 0.030783562 0.016255466 0.1664154 -0.09989136 0.043063104 -0.29810214

network_body._body_endoder.seq_layers.2.bias f4 [256]
00000000: f07a abbe 789c f0be f63f 31bf f7e3 27bf
00000010: 8830 a2be 3efe 0abf 8bcd bebe e8aa bebe
00000020: a6d9 e5be 46e9 e9be 63f2 88be 3584 08bf
00000030: bc80 b0be d917 f7be 0e94 c8be ec21 90be
00000040: 9b67 edbe 6d82 97be f17e 8fbe ea44 f5be
00000050: 00a1 3cbf fd26 8cbe 526a acbe e8c5 12bf
00000060: 0bb9 edbe b508 cabe 6b77 78be 2e1e 1dbf
00000070: a6d5 05bf fec6 ecbe 12cd c7be 5d25 1abf
00000080: 65e1 10bf b134 79be 8086 8fbe 16d4 dabe
00000090: 9fe3 06bf d72d e3be 8be4 babe 79a5 19bf
000000a0: b2ef afbe 621f 1bbf 7c11 d5be 5f26 14bf
000000b0: 6f9d fcbe 2bc9 f6be 3e2d f9be c100 15bf
000000c0: 312d 90be 779f f2be 00fb 82be e154 c8be
000000d0: ddba d5be f3ce d4be 90ed 15bf 0b54 f2be
000000e0: fd8d c1be 9e71 d6be 7e47 a9be d25d fbbe
000000f0: c618 26bf d0a6 f3be 8f3d 20bf 732c c6be
00000100: 2139 9dbe 7b12 23bf 8ce8 97be dcfa c2be
00000110: 48ad 99be e47a 0ebf 298d f0be 5ca2 c8be
00000120: 00f2 05bf 6801 c9be 2af8 b6be 4895 96be
00000130: b64c c9be b2fc c0be f79a 0cbf 1bdd cfbe
00000140: 7d52 b3be 2094 59be dfa1 a5be 2b9e 8dbe
00000150: 8c99 05bf 089f d4be 8ae3 d3be 5443 19bf
00000160: 35cf 9abe 3d72 91be c2dd 20bf 9aa2 1cbf
00000170: d0a0 08bf 2004 0dbf e3ef 02bf e1b6 f6be
00000180: fd7c 45be c33d c0be 8d2c a9be 031d adbe
00000190: b1bb 12bf d3e5 d7be 355d 09bf 69d7 d7be
000001a0: 4943 efbe 9b96 d8be daf6 e0be ebdb 04bf
000001b0: 7879 17bf 80e6 e5be 1fdb d3be 1f21 91be
000001c0: 8119 13bf a16a f2be baf2 e2be 0c6d d0be
000001d0: 6a5d a8be 853d f7be 6e62 b5be a744 f0be
000001e0: f923 40bf 8275 1ebf 2ce3 e3be 4635 acbe
000001f0: 26e0 98be 2eee 0ebf d069 fdbd 55af b4be
00000200: 9cd3 78be 2e84 1dbf deb9 f0be 0ebd 88be
00000210: 06ab b1be 0276 e2be e364 b9be 80d0 b83e
00000220: 98df 78be fad7 70be 00c1 14bf 8229 c3be
00000230: 3144 a0be 9ef1 c1be ecb1 febe d3b7 acbe
00000240: 17f0 f7be 3114 3ebf 3359 0cbf 1295 9dbe
00000250: 3f84 c6be d703 ddbe 6ac1 aabe e6fa a6be
00000260: 7da6 1abf 5ff3 d5be 5640 26bf 54bc bebe
00000270: 6f40 edbe 955e 19bf 4324 abbe d1ad d3be
00000280: 7f3e 15bf e717 0bbf 897a 28bf 7307 fabe
00000290: 267e e4be d9ee aabe 049f d3be fbdc 86be
000002a0: d27a dfbe d886 01bf ef4d debe 97b0 edbe
000002b0: 27a8 debe 824d 24bf 622c 0cbf 58c2 97be
000002c0: 650f 0dbf 996b c3be e2d3 28bf 3847 b7be
000002d0: 58f8 a5be 807a 0cbf 858d e9be 251d c2be
000002e0: 37a6 8fbe ea1d ddbe b072 02bf 4bb2 cabe
000002f0: 99af 71be ed0e 2ebf 5bfc adbe eb9c e0be
00000300: 06b5 c4be cdb3 9bbe f6af b3be 4f65 efbe
00000310: 6c79 13bf 1809 d3be e7a6 14bf ba7c 19bf
00000320: 08be 5ebf fe92 1ebf e4f8 42bf 49dc 3ebf
00000330: 4f89 0abf 3996 b3be 137f 3dbf 6948 28bf
00000340: b9a8 e0be 1a41 cfbd ad62 39bf 76c3 c2be
00000350: dcf6 aabe 35fb 89be 89f8 a6be 2f30 29bf
00000360: 12a4 e9be ef4f 053e 28b5 03bf ec05 f7be
00000370: 1ff0 00bf 6743 adbe 6e5f 07bf 2d04 59be
00000380: bcdc 11bf d0c3 76be b1c4 aebe dd28 9bbe
00000390: 264c dcbe 31d7 c4be c507 11bf a2ac 05bf
000003a0: 5de8 cabe abb4 bdbe 162b 29bf 67c4 dabe
000003b0: 81ce bcbe ffe1 7ebe a258 1dbf ad0c babe
000003c0: 5677 cebe d123 93be bba9 77be 6960 fcbe
000003d0: 67a7 683e cd7a 6dbf ef39 b6be c39d dfbe
000003e0: 5958 aebe 6607 dbbe 3922 03bf f9f4 ebbe
000003f0: a2b5 92be e779 05bf 49c1 18bf d685 3bbf
-0.3349223 -0.46994376 -0.6923822 -0.6558222 -0.3167765 -0.5429419 -0.37266192 -0.37239766
-0.44892615 -0.45685786 -0.26747426 -0.5332673 -0.34473217 -0.48260382 -0.39175457 -0.2815088
-0.46368107 -0.29591694 -0.28026536 -0.4790414 -0.73683167 -0.27373496 -0.33674866 -0.5733323
-0.4643024 -0.39459768 -0.24264304 -0.61374176 -0.52279127 -0.4624557 -0.39023644 -0.6021326
-0.56593925 -0.24336506 -0.28032303 -0.42739934 -0.5269107 -0.4437091 -0.3650249 -0.60018116
-0.3436256 -0.6059476 -0.41614902 -0.5787105 -0.49338862 -0.48200354 -0.4866733 -0.58204275
-0.28159478 -0.47387287 -0.25582123 -0.39127257 -0.41744128 -0.4156414 -0.58565617 -0.47329745
-0.3780364 -0.41883558 -0.33062357 -0.49095017 -0.6488155 -0.47588205 -0.6259393 -0.38705787
-0.30707648 -0.63700074 -0.29669607 -0.38082016 -0.30015016 -0.55656266 -0.46982697 -0.3918637
-0.5232239 -0.39258885 -0.3573621 -0.29410768 -0.39316338 -0.3769279 -0.5492396 -0.40598378
-0.3502387 -0.21247911 -0.3235006 -0.27659735 -0.5218742 -0.4152758 -0.41384536 -0.5986836
-0.3023621 -0.2840747 -0.62838376 -0.6118561 -0.5337038 -0.5508442 -0.5114729 -0.481864
-0.1928596 -0.3754712 -0.33041802 -0.33811197 -0.57317644 -0.4216753 -0.5365785 -0.42156532
-0.46731022 -0.42302403 -0.43938333 -0.5189807 -0.5916972 -0.4490242 -0.41378114 -0.28345582
-0.5746079 -0.47346976 -0.4432581 -0.40708196 -0.3288377 -0.48289123 -0.35426658 -0.46927378
-0.7505489 -0.6189805 -0.44509256 -0.33634394 -0.29858512 -0.55832183 -0.12373698 -0.35290018
-0.24299473 -0.61529815 -0.47016805 -0.26706737 -0.34700793 -0.44230658 -0.36209783 0.36096573
-0.24304044 -0.23519889 -0.58106995 -0.38117605 -0.31302026 -0.37879652 -0.4974512 -0.33733997
-0.48425362 -0.7424956 -0.5482361 -0.30777794 -0.3877277 -0.43166992 -0.33350688 -0.32613295
-0.6041029 -0.4178724 -0.6494192 -0.37253058 -0.4633822 -0.59909946 -0.33426103 -0.4134355
-0.58298486 -0.5433335 -0.65811974 -0.48833808 -0.44627494 -0.3338535 -0.41332257 -0.2634047
-0.43648392 -0.5059638 -0.43418834 -0.4642379 -0.43487665 -0.6418077 -0.5475522 -0.2964046
-0.55101615 -0.38168028 -0.6594831 -0.35796523 -0.32416034 -0.5487442 -0.45615783 -0.3791286
-0.280565 -0.43186885 -0.5095625 -0.39589152 -0.23602141 -0.67991525 -0.33981594 -0.4386972
-0.3841936 -0.30410615 -0.35095185 -0.4675698 -0.5760715 -0.41217875 -0.5806717 -0.5995594
-0.87008715 -0.6194304 -0.76161027 -0.7455488 -0.54115766 -0.35075548 -0.74022025 -0.6573549
-0.43878725 -0.10119839 -0.7241619 -0.3803975 -0.33391464 -0.26949468 -0.32611492 -0.6608915
-0.45632988 0.13018773 -0.514483 -0.48246706 -0.50366396 -0.33840486 -0.5287999 -0.21192999
-0.5697744 -0.24098134 -0.3413444 -0.30304614 -0.43026847 -0.38445428 -0.5665248 -0.5221654
-0.39630404 -0.370519 -0.6608137 -0.42727968 -0.368763 -0.24890898 -0.6146337 -0.36337796
-0.4032542 -0.28738263 -0.24185841 -0.49292305 0.22720109 -0.92765504 -0.35591075 -0.4367505
-0.3405178 -0.42779082 -0.51224095 -0.46085337 -0.286542 -0.52139133 -0.5966993 -0.7325109

network_body._body_endoder.seq_layers.2.weight f4 [256, 256]
00000000: 4925 573e 15a6 2cbe 7936 183d 4377 02be
00000010: 1b5c 923e 96c5 0e3e cb73 5bbc 822a 2ebe
00000020: bec6 7ebe 166c 583e a596 d8bc d3b3 443d
00000030: f2c9 92bc 8c42 38be 2168 8bbd db2b 973e
00000040: f5af 3bbd ff88 28be ba48 043e be94 623d
00000050: 1702 e4bc 4a8b 2fbd 6e9a 6f39 a0cc 88bd
00000060: 2339 523d 72f5 06bd 4bbe a5be 4dec b4bd
00000070: 8157 9f3d 6bb6 293d 3865 8ebc e652 2ebe
00000080: 92d0 75bd 64ee 6fbd e101 733d 3fba 963d
00000090: 2cc3 143d 15c6 1bbc 9ee1 2ebe fa80 5dbd
000000a0: ce79 633b cd52 54be 252c 8cbd a50c c43c
000000b0: 8edf aabd c6bf 703e 7308 a33c 9125 e8bd
000000c0: 76f5 083d b48a 063c 17ba c5bd 3c8b 603d
000000d0: 95fe 15be e8ef bebd e84c 3a3e a8fb 013e
000000e0: d568 ccbd 4882 d73d 7bcc 703d 9e50 7ebd
000000f0: 300b 02bd 21ac 443d f8a0 6cbe 0b41 e2bd
00000100: 0a71 b53c 176c ae3d fffd 6d3d 65a9 9f3c
00000110: d9e3 7abd 0ec2 2d3e 7d5c 653d 73d9 473e
00000120: f44b c43c 29f5 c7be c99c 733d fb18 34be
00000130: 22ad cc3d c7e7 4a3d 9aea 84be 3333 44be
00000140: ecfe 293e d375 9c3c 1f42 953d 6f0f 373e
00000150: e971 3d3e 087c c9bd 2269 ae3d 1290 61ba
00000160: 6d0d f73b e200 71bb ba98 ee3d 947d 8ebe
00000170: f88b 25be b746 d33c 552e e7bb 0111 c83d
00000180: deab 0cbe b32b 0cbd 2904 223d fd4a 1d3e
00000190: 11bf 8f3d 9e4c 39be f682 29be 1d8e 4ebd
000001a0: 3cae 3bbe 061f 093b b919 8c3d f2a2 3cbd
000001b0: 7650 e3bd 8f9f e5bc a6c3 3f3d 95ea a43c
000001c0: 7a72 71bc 616a 62be a5d9 4cbd 0589 89bd
000001d0: 86b5 033e 5e00 8b3d 0cbd 423d 1eab b1bb
000001e0: e36c 73bd 4476 1e3e d083 9d3c 0c95 05bd
000001f0: 6f58 7b3e 7f7f 6b3e e650 503d 2a6d 02be
00000200: faf8 ad3d 7221 c6bc c763 853b 1e0a 7cbe
00000210: 3840 c338 7357 193e 8cf7 1fbe 1442 04be
00000220: 960b b4bd 2681 213d 92d0 c53c 6f33 94bd
00000230: 8ddc 153e dad7 203c b3af 003e fc62 51be
00000240: 5884 48be 43fe 6cbe 2e3d e6bd 9610 433e
00000250: df74 bebd d0b5 b93d 1ccf 26bd b171 873d
00000260: 950f f93d d773 c9bd fb01 b23d 1701 e13d
00000270: 1b37 e53d 29be bcbb bb39 3fbe fe0c 89be
00000280: 63d0 ebbd ae92 b53d 8837 8b3d 50a8 213e
00000290: 41ef 3e3e 8e2d ed3d 5650 f7bd c989 913d
000002a0: d3e9 0a3e 9078 e73c d6d1 dbbe 7184 d9bd
000002b0: 0eae 353e a37c 6abe 4d04 4f3e 7d58 03be
000002c0: 3e2b ba3d 3d85 14bd 9c2a e73d 8690 483e
000002d0: 5d72 7f3e f7b6 a53e 2d98 9b3d 93df 84be
000002e0: 6fef 39be a5fc 0f3c 39b6 533d 2d80 eebd
000002f0: 6370 583d a640 18be 35ba 09be 8ea8 333c
00000300: 075e 0cbe d9eb 9bbd d58f 733e 5e73 ec3d
00000310: 5809 ad3d d597 5abc ef07 183d 72a4 643e
00000320: 14f6 9a3d 1f3a a1bd af1d 3e3d 084e acbd
00000330: 4ee7 3d3e 006a 323d d87f 833d 3818 d23d
00000340: a509 483d 560a ca3d 0522 98bd af03 353e
00000350: f6f2 79bd ad4a a2bd b763 ccbd 5e59 2dbe
00000360: be33 323d fef9 953a 75e3 a5bd cc0f 5fbd
00000370: 5bb2 d03d 82d1 31bd b060 ab3d dc69 3cbd
00000380: 92bd 873d ab41 1e3c 3213 6a3e 97d9 23be
00000390: 4445 113d 8c0c cc3d ea30 61bd 6b97 04bd
000003a0: 1600 9bbc 5b42 a9bd 5317 8cbd 21a7 2ebe
000003b0: 735e 6fbe 3a57 87bc 14a7 b4bd a080 23bd
000003c0: 71ec 73bd 36d7 f1bd e9c6 8bbe 92e4 44bd
000003d0: 4469 89bd dabf 21bd a5ac 83bb 0ff9 af3d
000003e0: c87c 0c3e ce95 943d 701d 97bd 0877 6a3c
000003f0: b396 5d3e 18e7 9dbc 603f 19be 69e5 4abd
0.21010317 -0.1686023 0.037161324 -0.12740807 0.28585896 0.1394256 -0.013394306 -0.17008403
-0.24880502 0.21134982 -0.02643902 0.048023056 -0.01791856 -0.17994136 -0.068069704 0.29525647
-0.045822103 -0.1645851 0.12918368 0.055317633 -0.027833028 -0.042857446 0.00022850346 -0.06679654
0.05132402 -0.03294892 -0.32371745 -0.08834133 0.07780362 0.041433733 -0.01738225 -0.1702381
-0.06001336 -0.058576956 0.059327964 0.073597424 0.036318943 -0.009507676 -0.17078254 -0.05407808
0.0034710052 -0.20734711 -0.068443574 0.02393181 -0.08343421 0.23510656 0.01990149 -0.1133529
0.033437215 0.00821178 -0.096546344 0.054820284 -0.14647897 -0.09323102 0.181934 0.12693655
-0.099809326 0.10522896 0.058788758 -0.0620886 -0.03174895 0.048015717 -0.2310828 -0.11047562
0.022148628 0.0851671 0.058103558 0.019489953 -0.06125245 0.16968557 0.055996407 0.19516544
0.023961999 -0.3905423 0.059475694 -0.17587654 0.0999396 0.049537446 -0.25960237 -0.19160156
0.16601151 0.019099152 0.07288002 0.17876981 0.18500485 -0.0983811 0.08516146 -0.0008604537
0.0075394423 -0.0036774208 0.11650224 -0.27830184 -0.16166675 0.025790555 -0.0070550838 0.09768868
-0.13737437 -0.034221362 0.03955475 0.15360637 0.07018865 -0.18095633 -0.16553864 -0.0504285
-0.18328184 0.0020923032 0.06840844 -0.046053834 -0.11099331 -0.028030185 0.046817444 0.020131389
-0.014736766 -0.22110893 -0.05001225 -0.067155875 0.12862214 0.067871794 0.04754357 -0.00542201
-0.059430014 0.15474802 0.019227892 -0.032612845 0.24545453 0.22997855 0.0508584 -0.12736955
0.08494754 -0.02418587 0.0040707323 -0.24613234 9.310286e-05 0.14974765 -0.15621775 -0.12915832
-0.08791272 0.039429806 0.024147306 -0.07236373 0.14634915 0.009817088 0.12567024 -0.20447916
-0.19581735 -0.23143868 -0.11242138 0.19049296 -0.09299635 0.09067881 -0.04072486 0.06613482
0.12161175 -0.09836548 0.08691784 0.10986536 0.11192151 -0.0057599735 -0.18674366 -0.26767725
-0.11514356 0.088658676 0.06797701 0.15786862 0.18645956 0.115809545 -0.1207587 0.071063586
0.1356576 0.02825573 -0.4293353 -0.10620964 0.17742178 -0.22899108 0.20216484 -0.12826724
0.09090279 -0.03625988 0.11287424 0.19586381 0.2494597 0.32366154 0.075973846 -0.25951824
-0.18157743 0.0087882625 0.051687453 -0.11645541 0.052841555 -0.14868411 -0.13449939 0.01096548
-0.13707744 -0.07613344 0.23785336 0.11545442 0.08449048 -0.013341864 0.03711694 0.22328356
0.07566467 -0.07872414 0.046415027 -0.08413321 0.18545267 0.04355812 0.06420869 0.102585256
0.048837323 0.09865253 -0.07428364 0.17677186 -0.06102272 -0.079243995 -0.099799566 -0.16928622
0.043506376 0.0011442301 -0.081000246 -0.054458424 0.101902686 -0.043412693 0.08368051 -0.045999393
0.066279545 0.009659211 0.22858885 -0.16000973 0.035466447 0.099633306 -0.05497829 -0.032370966
-0.01892094 -0.082646094 -0.06840386 -0.17055942 -0.23375873 -0.016521085 -0.0882093 -0.03991759
-0.05955166 -0.11808626 -0.27300194 -0.048069544 -0.06709531 -0.039489605 -0.0040183836 0.08592426
0.13719475 0.072551355 -0.07378662 0.014310606 0.21639518 -0.019275233 -0.14965582 -0.04953519
