results/Run10/My Behaviour/My Behaviour-179400.pt (torch, 429343 bytes, 36 tensors)

network_body._body_endoder.seq_layers.0.weight f4 [128, 3]
000000 cf 8d 1c 3f 9d 63 5f bf 09 8f a1 3e ae f5 3c 3f
       0.6115388 -0.8726137 0.3155444 0.7381238
000010 10 51 89 3f 00 97 bb be 37 87 89 be b3 03 f1 be
       1.0727863 -0.3663864 -0.26860973 -0.47073135
000020 d9 b0 be be 07 ce 55 bf c7 7b 3f bf 84 5a 1d bf
       -0.372443 -0.835175 -0.74798244 -0.6146624
000030 1f 6e 71 3f 91 19 2c 3f d4 5d 0e bb 19 ee 1d 3f
       0.94308656 0.6722651 -0.0021723406 0.61691433
000040 78 88 a0 3e 0a b4 f7 3e 27 49 97 3e f2 30 b6 3e
       0.31354117 0.48379546 0.29547998 0.35584217
000050 3c 8f 23 bf 97 cf ac be 83 b3 0a bf 82 9b 1f bf
       -0.63890433 -0.33752128 -0.54180163 -0.6234666
000060 87 1b 83 3e 45 52 17 3f 95 59 0c 3f 5d 84 a8 be
       0.2560694 0.5910991 0.5482419 -0.32913485
000070 28 24 1b bf f7 51 a4 3d db 01 19 be ec 7b ad bf
       -0.60602045 0.08023446 -0.14942114 -1.3553443
000080 b2 5d 1b bf fb 75 d1 3e 59 58 0c 3f 31 a5 3f 3c
       -0.6068984 0.40910324 0.5482231 0.0116971
000090 44 b6 93 bd 8b 5e 62 bf c9 41 59 bd 64 b9 c7 3e
       -0.07212499 -0.8842551 -0.053041253 0.3900863
0000a0 aa bd fc 3d 7e 36 52 bf f1 d2 6d bf 36 6a 74 bf
       0.12340863 -0.821144 -0.92899996 -0.95474565
0000b0 33 0a 38 3f 97 1a 32 3f 2c 4f 92 bf 84 0f d1 bf
       0.7189056 0.6957182 -1.1430411 -1.633286
0000c0 97 5c e9 3e ca 4a 12 3f 8e 59 82 3e e9 91 bc 3e
       0.45578453 0.5714537 0.2545895 0.3683007
0000d0 3a eb 8a 3f 95 e0 19 3d f0 04 29 3f 1a 33 89 3f
       1.0853035 0.037567694 0.6602316 1.071872
0000e0 91 c7 19 bd 6c 04 8b b9 a9 5b 2c bf 07 05 3c 3e
       -0.037543837 -0.0002651544 -0.6732736 0.18361293
0000f0 41 73 30 be b6 20 a3 3f 1d d6 bc 3e 52 ff f3 bd
       -0.17231466 1.2744358 0.36882105 -0.11913933
000100 7d 0d fe be a5 6d f8 3e 0f 98 fd 3e 14 60 8c be
       -0.49619666 0.48521152 0.49530074 -0.27417052
000110 c1 a7 82 3e c6 f9 c9 3f ef 5e 30 3f b5 3c ab 3c
       0.2551861 1.577935 0.6889486 0.02090297
000120 72 0c a9 3e 09 2e 77 3e e6 40 1e bf 65 b3 8d 3f
       0.33017308 0.24138655 -0.6181778 1.1070372
000130 7d 95 91 bf 27 c0 e1 3d 12 52 e9 be 79 de 82 3d
       -1.1373745 0.11022978 -0.45570427 0.063900895
000140 cb 6c b7 be 0a 51 1f bf 56 b1 cf be 65 8a de be
       -0.3582519 -0.6223303 -0.40564984 -0.43464962
000150 c7 8a f6 bb b9 86 80 bf 46 22 14 bf ff fc b0 be
       -0.007523868 -1.0041114 -0.578648 -0.3456802
000160 98 62 ce 3e 78 5a 23 bf e8 a2 02 be 23 ce 91 bd
       0.40309596 -0.6380992 -0.12757456 -0.071193956
000170 c3 37 06 3f 84 14 a8 3d ad 21 41 be cc 9d ea 3e
       0.52428836 0.08207038 -0.18860503 0.45823514
000180 dd 74 50 be 63 da 15 3e f7 70 9b 3f 93 36 04 3c
       -0.2035708 0.14634089 1.2143849 0.008069652
000190 cc cd 18 3f 7a 75 46 be e5 90 e1 be 62 c2 ae 3e
       0.5968902 -0.19380751 -0.44055858 0.34132677
0001a0 28 2b 2a be b1 ea e5 be 3c 0b 79 bc 67 91 32 bf
       -0.16618025 -0.44905618 -0.015200432 -0.69753116
0001b0 31 6d 14 3d fd 1a 35 be a4 7f 0d 3e ca 39 ad 3e
       0.036236946 -0.17686076 0.13818222 0.33833152
0001c0 35 96 d4 be ab de 15 3f 11 92 f4 be 9a 2d fa 3d
       -0.4152085 0.5854289 -0.4776769 0.12215729
0001d0 d0 04 13 3e b9 23 1d be 6f 44 b1 be 2b a3 cb 3e
       0.14357305 -0.15345658 -0.34622523 0.39772925
0001e0 a1 9f 59 bd 9a b8 90 3d 4b 90 7b 3f f0 08 0c bf
       -0.05313075 0.0706646 0.9826705 -0.5470114
0001f0 32 e0 20 3f eb 17 5a bf c6 eb db 3e 6a ef 4a bf
       0.62842095 -0.85192746 0.42953318 -0.79271567
000200 68 b1 e7 bd f9 de 33 3f de 7f cf be 69 ec 05 bf
       -0.113131344 0.70262104 -0.40527242 -0.5231386
000210 38 4c 8d be b9 78 8d be fe e3 0f bf 70 71 83 3f
       -0.27597213 -0.27631167 -0.56207263 1.0268993
000220 1a 75 8a 3e 7e 44 43 bf fb be 63 bf fe fe 1a be
       0.27042466 -0.76276386 -0.8896329 -0.15136334
000230 26 34 40 3f 2d c2 e5 be 05 59 42 bf 67 a0 95 3e
       0.7507957 -0.44874707 -0.75917083 0.2922394
000240 d1 75 3b 3e 62 01 a2 be 1e ab 17 3e e7 19 cf 3c
       0.18306662 -0.3164168 0.1481137 0.025280906
000250 d2 e6 70 3f 7c e6 03 3f 5e fd c9 be 00 27 5b be
       0.94102204 0.51523566 -0.39451116 -0.21401596
000260 f2 cc c5 be f0 63 c6 3e db f8 1a 3f ad 20 45 be
       -0.38632923 0.3874812 0.60535973 -0.19250746
000270 2e 9a 51 bf 60 e9 17 3f e3 20 4f bf 16 96 26 be
       -0.81875885 0.59340477 -0.80909556 -0.1626819
000280 57 c2 83 3f 02 4d 24 bf 16 ad b1 b9 ce af 98 3f
       1.0293683 -0.64180005 -0.0003388903 1.1928651
000290 bc 7f 01 bf 5c 71 95 3e 52 61 f5 be e7 ff 5c 3d
       -0.5058553 0.2918805 -0.47925812 0.053954985
0002a0 f2 95 b5 3e c0 d3 86 bf 14 0e 2d 3f c8 5f 48 be
       0.35465962 -1.0533371 0.67599607 -0.19567788
0002b0 ee 41 85 3e 28 23 4a bf 4c 07 4e bf cf 8a 7e 3f
       0.26026863 -0.78959894 -0.80479884 0.99430555
0002c0 ec 12 38 3e a5 c2 90 3e e6 7f bb bf 79 0f 06 bf
       0.17975968 0.28273502 -1.4648407 -0.5236736
0002d0 04 3f aa be fe 4f 87 bf b5 5a 2f be 10 cf 2c be
       -0.33251202 -1.0571287 -0.17124446 -0.16875863
0002e0 69 40 68 be 80 f0 b6 3e 7d 11 18 bf 48 38 a6 3c
       -0.2268082 0.35730362 -0.59401685 0.020290509
0002f0 92 e8 1d bf 03 47 08 3f f7 28 e5 3e 89 c9 18 3e
       -0.61683 0.53233355 0.44757816 0.1492063
000300 3a 53 b8 be 42 20 33 3f 52 3b f8 3e c1 f0 6f bd
       -0.36000997 0.69971097 0.48482758 -0.05857921
000310 f8 c0 ef 3c 16 ba 46 be bb 82 63 be 96 6f c2 be
       0.02926682 -0.19406924 -0.22217838 -0.37975758
000320 50 65 04 be dd 08 ae 3d 07 ba 62 bc 62 86 6d be
       -0.12929273 0.08497784 -0.013838298 -0.23195794
000330 db ef d4 3d dd c1 99 be 29 67 39 3f ea b2 b9 be
       0.10397311 -0.30030718 0.72423035 -0.36269313
000340 4d 8d 0e be 9d 1c fa bf 1f 71 ff 3e ec 5c 17 be
       -0.1392109 -1.9539982 0.49890992 -0.1478154
000350 0f 17 85 3e d4 7a 1f 3e 93 ba 27 3f 90 50 b3 3e
       0.25994155 0.15574199 0.65519065 0.35022402
000360 a8 f8 3f 3e f9 0f 84 bf d3 be 25 bf e5 cb 33 3e
       0.18747199 -1.0317374 -0.647443 0.17558248
000370 38 e7 d5 be 89 66 18 bf ec a0 53 3e 75 da 8d 3d
       -0.41777968 -0.59531456 0.20666856 0.06926433
000380 d6 28 4a bf 2f d9 ac 3e b0 6a 4f bd 03 64 94 3e
       -0.7896856 0.33759448 -0.050638855 0.28982553
000390 92 5d 03 3f da 92 16 3f e1 e4 e0 be d7 fa 49 3f
       0.5131465 0.5881783 -0.4392462 0.78898376
0003a0 9b 4a 8b 3f 7c 30 07 3f 4d 10 09 3f 50 a9 b6 3d
       1.0882143 0.52808356 0.535405 0.089190125
0003b0 c9 4c 5d 3f ed 9f 6b 3e 58 21 3c be 35 b6 0b 3e
       0.8644529 0.23010226 -0.18372095 0.13643725
0003c0 ff 2a 56 3e b3 f7 71 be d5 93 82 be 92 87 cb 3e
       0.20914839 -0.23629646 -0.25503412 0.3975187
0003d0 ce 56 96 be 3b 49 d2 3e 2a 78 91 3b 47 0b ea 3f
       -0.29363102 0.41071495 0.0044393735 1.8284692
0003e0 1b 70 3d 3f 33 6a c3 bc 12 f0 a6 3f f3 6f 8b bd
       0.73999184 -0.02385435 1.3042014 -0.06808462
0003f0 66 71 0f bf 3f 78 af 3e 3b bd 27 be 38 b8 17 bf
       -0.5603241 0.34271428 -0.1638078 -0.5926547

network_body._body_endoder.seq_layers.0.bias f4 [128]
000000 b8 ff 1a ba 75 5b b5 b9 81 0a 2c b9 e8 d2 2c bb
       -0.0005912739 -0.0003459115 -0.00016407111 -0.0026370827
000010 f6 cc d4 ba a9 9f c3 ba 38 c6 0e 3a d3 70 af 3a
       -0.00162354 -0.0014924902 0.0005446407 0.0013385065
000020 ac 76 0b bb 4f fd 07 3b 93 ae 33 3a 82 76 84 ba
       -0.002128045 0.002075035 0.00068543217 -0.0010106119
000030 24 86 88 3a 6d 8f 56 ba 6b 7a 0b bb 00 dd a9 ba
       0.0010415954 -0.0008184824 -0.0021282684 -0.001295954
000040 94 36 d0 3a 77 92 38 ba ba 70 ba b9 84 5d 29 39
       0.0015885406 -0.0007040868 -0.00035560672 0.00016151933
000050 46 b4 dd ba a0 f0 f0 ba 55 1a 59 ba 99 42 ac ba
       -0.0016914688 -0.0018382259 -0.0008281817 -0.0013142406
000060 7e c8 bf 39 12 67 52 3a c6 5a 1f 39 53 4a fc ba
       0.00036579737 0.0008026223 0.00015197237 -0.0019248225
000070 cb d4 a7 b9 26 79 77 39 ed c2 39 3b 88 32 c9 b9
       -0.00032011265 0.00023600887 0.0028344945 -0.00038375356
000080 e1 0d 35 bc 83 96 60 ba f1 64 23 3b 3c cb e9 b9
       -0.011050672 -0.000856735 0.0024931992 -0.00044592645
000090 a0 04 6e bb 13 1d 56 3a 41 44 29 3c cb 21 f2 3b
       -0.0036318675 0.00081677845 0.010331214 0.0073892823
0000a0 4b 0f 00 3b 1b 60 d6 ba b6 41 dc b8 b4 51 ea 37
       0.0019540365 -0.0016355546 -0.00010502657 2.793302e-05
0000b0 ee 40 9c b9 59 91 89 ba 1a 8d 91 3b fd 0e 64 bb
       -0.00029803015 -0.0010495587 0.0044418694 -0.0034798973
0000c0 bd 62 ac ba 60 57 69 bb 6f b3 62 ba 76 51 b3 b9
       -0.0013151985 -0.0035605058 -0.00086479535 -0.00034202234
0000d0 88 13 32 bb dc 08 f5 3a 12 b6 6f ba dd 7f ec b9
       -0.0027172286 0.0018694657 -0.0009144257 -0.00045108693
0000e0 36 58 4e bc f3 de 38 3a 07 6d 5b bc 6a 99 85 b9
       -0.012594273 0.0007052265 -0.013392693 -0.0002548204
0000f0 5f e8 d9 3a 8f 79 9f 3a df da 1d 3a ce 6e 79 39
       0.0016625038 0.0012166965 0.0006021689 0.00023787768
000100 8a 87 94 bb b6 d3 8e ba 18 22 1e bb 7e e7 98 3a
       -0.004532759 -0.0010896835 -0.0024129208 0.001166567
000110 a7 e9 14 bb 1e 44 8e bb b7 95 94 3a 94 be cc 39
       -0.0022722275 -0.0043416163 0.0011336122 0.00039051904
000120 b0 4c aa ba f1 cb 46 bb 73 c0 88 ba 0c f7 89 3b
       -0.0012992825 -0.003033396 -0.0010433331 0.0042103585
000130 ac 03 c9 ba f5 2f 94 3a 44 86 47 3b e6 5f 17 bb
       -0.0015336177 0.0011305796 0.0030445019 -0.0023097931
000140 99 e0 9f b9 fd ef ec bb e5 f4 76 3b b8 b5 ce b6
       -0.00030494182 -0.0072307573 0.003768259 -6.1604333e-06
000150 18 e9 a5 bb fe 83 9a 39 d2 21 2f bb e4 03 4d bb
       -0.0050631873 0.0002947151 -0.002672304 -0.0031282837
000160 ba 20 24 ba b5 c1 97 3b ac fb 9b ba 33 41 ca ba
       -0.000626098 0.004631246 -0.0011900566 -0.0015430808
000170 4d 3c 53 3b df dd c3 bb 65 eb e3 3b 22 60 5a 39
       0.0032231987 -0.005977377 0.0069555514 0.00020825912
000180 01 ee b1 ba 5c 4a b0 ba a8 35 d7 b9 51 dc e5 3b
       -0.0013574959 -0.0013449895 -0.00041047973 0.007014789
000190 7c c2 0d bb 3b 39 02 bc 7d cb 86 38 fd b5 25 ba
       -0.0021630814 -0.007948215 6.4275206e-05 -0.0006321369
0001a0 cc ba 03 3b cd 1c f9 b8 30 26 da bb aa 26 97 39
       0.0020100353 -0.0001187861 -0.0066573843 0.0002882977
0001b0 81 64 c0 bb b0 a3 a4 3a 68 c1 9e bb a5 f1 c2 b9
       -0.005871356 0.001256099 -0.004844833 -0.00037182603
0001c0 6b 01 f1 ba 6a 89 05 bb 1d 8f 57 bb fe b4 c5 3a
       -0.0018387263 -0.0020376095 -0.0032891699 0.0015083847
0001d0 52 9b 23 b8 4a 2c 68 ba 18 31 aa bc fd c6 f7 bb
       -3.900688e-05 -0.0008856697 -0.020775363 -0.007561563
0001e0 a6 2c 1a ba f4 46 ea b9 05 b4 22 bb 36 59 de bb
       -0.0005881287 -0.00044684822 -0.0024826538 -0.006785537
0001f0 2f d0 28 bb 34 dd 8e 3a b1 9b 59 b9 ee 1d 89 37
       -0.0025758853 0.0010899664 -0.00020752732 1.634561e-05

network_body._body_endoder.seq_layers.2.weight f4 [128, 128]
000000 30 78 40 bc 82 9d c8 3c 4f 64 fa bc b5 0c af 3d
       -0.011747405 0.024489168 -0.030565409 0.085473455
000010 f2 e7 d7 3d 87 e0 b1 bd 8a 12 23 3b 57 55 a3 bd
       0.10542287 -0.08685403 0.0024882876 -0.07975262
000020 46 4b bf 3b 55 e1 41 bd 7c 4b d2 bb 1f bc 2c 3b
       0.0058378307 -0.047334034 -0.00641769 0.0026357246
000030 90 61 fa bd 6a bd 2a 3c f6 d3 84 3d ec ce 45 bd
       -0.1222564 0.010421136 0.06485741 -0.04829304
000040 bd dc 4c 3d 46 19 21 bc 4e 08 a4 bd 5c 69 4a bc
       0.0500152 -0.009832686 -0.080093965 -0.012354221
000050 e7 99 2d 3a 70 ae 8c ba 1d 1d 39 3e c1 12 5b 3b
       0.00066223595 -0.0010733139 0.18077512 0.0033427926
000060 f2 d6 cc 3c 50 09 e7 3c 2e 77 10 3c 69 9d 01 bd
       0.025004838 0.028202683 0.008817477 -0.03164426
000070 6c 0c af bc 9f 56 8d 3d cc 3a d2 3d c6 a0 e4 bd
       -0.021368228 0.06901287 0.10265121 -0.111634776
000080 7f d1 5d 3d 8a fa 3a be b4 89 9b bd 3c bb 24 3e
       0.05415487 -0.18259636 -0.07594624 0.16087049
000090 3d 94 8b 3d 10 d0 39 be b9 ee 8e bc 75 28 e5 3c
       0.068153836 -0.18145776 -0.017447816 0.027973393
0000a0 4f 86 72 bd 89 ad d9 3d e7 82 31 3e 15 e6 b4 bd
       -0.059210118 0.10628802 0.17335092 -0.08832947
0000b0 e9 4a b0 bd 5a 85 52 3d 4b 5f 3d be e3 e8 95 3c
       -0.08608038 0.051396705 -0.18493383 0.018299526
0000c0 50 2a d4 bc 3f 06 9c bd 05 1b 4e bd d5 16 f3 3d
       -0.025899082 -0.07618379 -0.050318737 0.11869589
0000d0 8a 8c c1 3d f2 67 e5 3c d1 5f 24 3e 9f 0f 17 bd
       0.09450634 0.028003667 0.16052176 -0.03688013
0000e0 57 8b ed bd 14 c6 81 3d 4b ff c9 bb ea fa 82 bd
       -0.115988426 0.063366085 -0.0061644665 -0.06395514
0000f0 4b ab 46 be 0f fc 10 be c7 3f 42 be 62 7e e4 3c
       -0.1940128 -0.14158653 -0.18969642 0.027892295
000100 cb 78 4d 3c 6c 92 15 be 7e 95 c5 3d 67 cc 69 bc
       0.012541006 -0.14606637 0.09647654 -0.014269925
000110 6c 6b ce 3d bc 39 67 3d 21 97 2a 3e 05 8b ef 39
       0.10079083 0.056451544 0.16659214 0.0004568921
000120 35 13 fc 3c ec e0 e9 3d 48 36 34 3c 29 0d dd bd
       0.030770877 0.114198536 0.01099927 -0.10793526
000130 c4 8f 26 3e d2 67 62 3d 2c 1c b4 bd cb 07 69 be
       0.1626578 0.055274792 -0.08794436 -0.22756879
000140 19 8c b0 bd 5e ca 0b 3d 6a e8 b9 bd 97 d5 10 3c
       -0.086204715 0.03412854 -0.090775326 0.008839986
000150 dc e8 14 bd f4 0b 42 bd 06 a4 4a 3d ec 21 a4 bd
       -0.036354885 -0.04737468 0.04947283 -0.080142826
000160 25 07 42 3d 36 d2 3c bd f7 0c a3 3d ba 00 62 3c
       0.047370095 -0.04609891 0.07961457 0.013794119
000170 43 fd 1f 3e 42 f8 54 3e 55 67 ef 3d ef 71 37 be
       0.15623955 0.20797828 0.11689631 -0.17914556
000180 e8 cc d4 3c 5a 27 a5 bd e0 2e c1 bd 28 bf e4 3a
       0.025976613 -0.08064146 -0.09432769 0.0017451989
000190 e3 2e c7 3d e5 df 12 be 8d 7b 8f 3d 8c b2 4b 3e
       0.0972574 -0.14343221 0.07005987 0.19892329
0001a0 d0 4d 40 bd ef b0 cb 3d d3 8d 1f bd cd 79 dc bd
       -0.046949208 0.09945857 -0.038953613 -0.10765419
0001b0 18 57 83 bd 85 bf 5a 3d 5f 07 b6 bc 14 95 31 bc
       -0.06413096 0.053405304 -0.022220312 -0.010838766
0001c0 e8 6a c2 bd bb b1 47 be af dd 86 bc e9 43 97 bc
       -0.09493047 -0.19501393 -0.016463129 -0.018465
0001d0 2e 62 18 bd 7c ff d6 bc f3 b2 76 bd 7e 07 40 bc
       -0.037203006 -0.026244871 -0.060229253 -0.011720536
0001e0 7c 68 10 be 52 a5 b3 bd 19 6b 6a 3e 26 df 83 3d
       -0.14102358 -0.08771767 0.22892417 0.064390466
0001f0 63 70 47 bd 0c 74 2b bb 6e 24 c1 bd c7 ec 92 3d
       -0.048691165 -0.0026161699 -0.094307765 0.07174068
000200 b2 eb 56 3d 28 e3 f3 bd a8 05 fb bd b9 c0 e1 3d
       0.05247087 -0.11908561 -0.12256938 0.11023087
000210 5b 96 77 bc 4c 5f b4 3d 52 12 7b 3c 2c c6 94 bd
       -0.015111531 0.08807239 0.015324192 -0.07264361
000220 38 16 64 3d a6 81 b4 bd 4d cf 6d bc 3a ad 18 3b
       0.055685252 -0.08813791 -0.014514756 0.002329661
000230 31 d6 1b 3d 7d 1b 08 3e 4f 83 f3 bc 92 17 87 3d
       0.038046066 0.13291736 -0.029725699 0.065962926
000240 74 b7 24 3c ac b7 50 3d 59 11 b7 3d 36 6c 27 3d
       0.010053504 0.050956413 0.08938856 0.040874682
000250 fd 8a 21 be 73 fd 10 3e 57 75 0e 3c 6b 9c 4e 3d
       -0.15775676 0.14159183 0.008694968 0.05044214
000260 92 1d ac bd 9a 0b 78 3d ba f4 91 3d fd 3a c7 bd
       -0.084040776 0.06055794 0.07126756 -0.09728048
000270 5a 7c e4 3d 65 b6 f1 bd 85 47 6d bd 1b 4f 4a bc
       0.11156531 -0.11802367 -0.057929534 -0.012347962
000280 95 62 82 3d 61 46 c8 bd f0 5f 08 bd 2f 8d c4 3c
       0.06366459 -0.09779049 -0.033294618 0.023993103
000290 ef d4 b5 bc 3a 11 1e 3e 06 ed 2f 3d 22 cf 5c 37
       -0.022196261 0.15436259 0.042950653 1.3161249e-05
0002a0 56 a7 32 bd bc 79 44 bc 71 79 c9 bc f4 58 8f 3d
       -0.043616615 -0.011991914 -0.02459404 0.06999388
0002b0 4f 32 10 3e 40 ca 02 bd 3c 95 0f be 22 53 65 be
       0.14081691 -0.031931162 -0.14021772 -0.22394994
0002c0 79 52 15 3e 6b 34 fb 3d 88 ca f2 bb f8 be 6a bd
       0.14582242 0.12265857 -0.0074093975 -0.05731103
0002d0 e4 c1 06 be b4 85 34 bd 1a 1f 2f 3e cc a1 f1 3a
       -0.13159901 -0.04407282 0.17101708 0.001843506
0002e0 18 2f 23 be aa 8e 88 bd 35 36 93 3d 94 a5 b4 bd
       -0.15935934 -0.06667836 0.071880735 -0.08820644
0002f0 86 d7 01 be fc 26 9a 3d 56 b3 59 bd 6a 9a 6d 3b
       -0.12679872 0.07526967 -0.053149544 0.0036255368
000300 9c 50 05 3d 14 09 97 3d 51 6e 34 bd ca 3d a3 3d
       0.03254758 0.073747784 -0.04405052 0.0797077
000310 2b ce 10 be ba 4f 4b bc 3d 3d 98 bd e6 79 33 3d
       -0.14141147 -0.012409145 -0.07433555 0.043817423
000320 b1 97 14 3d 89 e5 6c bd 2b 55 24 3e 21 65 c4 3c
       0.036277477 -0.05783609 0.16048114 0.023974003
000330 0b cf 1e 3d 8c b8 34 3d 5f ee d7 3d 6a 8f 8f 3e
       0.03877167 0.04412131 0.105435126 0.28039104
000340 fd 3e 60 3d c0 92 10 3e 25 f9 cb 3c c5 1b 4a bd
       0.05474757 0.1411848 0.024899075 -0.04934289
000350 87 99 7d 3d 03 91 a3 bc da 18 99 bd 1d 59 09 bc
       0.061913993 -0.019966608 -0.07475443 -0.008383063
000360 13 92 39 bd 6d d9 a2 3d a1 48 54 3d e2 c3 0a 3e
       -0.045305323 0.07951627 0.051827077 0.13551286
000370 b9 7e df 3d 75 c0 b4 bd a8 da d9 3d ec da 9d bd
       0.10912842 -0.08825771 0.106374085 -0.07707772
000380 d4 6f 6a bc d1 e1 b3 3d d4 26 fb bc 96 69 03 3e
       -0.014308888 0.087833054 -0.030658163 0.12833247
000390 4d 4f 24 be 1c 0b f7 bd f8 bb 3f bd 38 fe 0e bd
       -0.16045876 -0.12062666 -0.04681012 -0.03491041
0003a0 86 bb c7 bd 80 e6 c0 bc 88 87 c7 3d 36 9b 2c 3e
       -0.09752564 -0.023547411 0.097426474 0.16856083
0003b0 46 34 82 bd 31 8e 19 3d 8a c2 88 bc 47 ac 36 bd
       -0.063576266 0.03748912 -0.016694326 -0.04459789
0003c0 b4 f2 1c 3d 7f 7c 0c bc 66 f4 19 3d 7a 19 ac 3d
       0.038317397 -0.008574604 0.037586592 0.08403297
0003d0 bb 52 f3 bc 18 4e c3 bd 41 83 f9 bd b5 93 07 3e
       -0.029702535 -0.095363796 -0.12183238 0.1323994
0003e0 73 18 be bd 4e 17 5a be a9 2a 80 bd f5 68 9d bd
       -0.09282007 -0.21297953 -0.06258137 -0.076860346
0003f0 f1 98 25 bd ef 46 5e 3e bc 2e a9 3d 4c 49 93 3b
       -0.04042906 0.21706747 0.08260867 0.0044948217

network_body._body_endoder.seq_layers.2.bias f4 [128]
000000 73 80 c6 ba 30 5d a4 b9 9f 50 a6 3a 02 bb fa b9
       -0.0015144482 -0.00031349948 0.0012688822 -0.00047823047
000010 43 c7 38 3a 31 e5 b3 3a 07 c9 57 b9 a9 4a de b8
       0.0007048735 0.001372492 -0.00020578886 -0.000105996914
000020 52 0f 67 3b 6d 2a ec ba 24 0d c1 39 e8 e4 15 bb
       0.0035256934 -0.0018018015 0.0003682162 -0.0022872034
000030 68 04 c0 39 72 6c 8c 3a 38 66 4c b9 96 6f ab 3b
       0.00036624377 0.0010713472 -0.00019493036 0.005231808
000040 30 30 79 bb eb d7 37 bb b4 02 7b 3a a9 bd 56 bb
       -0.0038023107 -0.002805228 0.0009575293 -0.0032766855
000050 63 3a 8b bb 3c 57 3d ba 4b 7a 5c b9 f8 62 b1 ba
       -0.0042489036 -0.0007222777 -0.00021026393 -0.0013533523
000060 da f8 80 bb 51 57 83 3b 2e ee 98 ba b5 95 77 bb
       -0.0039359154 0.0040082117 -0.0011667663 -0.0037778441
000070 69 20 13 bb 68 0f ca 3a 3f 66 7f 3a aa 58 3c bb
       -0.0022449738 0.0015415968 0.0009742714 -0.0028739371
000080 74 df 09 bc c1 09 b6 39 67 d2 90 3b 0d e1 d6 ba
       -0.008415092 0.00034721012 0.004419613 -0.0016393975
000090 7e c0 91 ba bf b7 12 ba 17 eb ae ba 35 37 8f 3b
       -0.0011119989 -0.00055968383 -0.0013345209 0.004370595
0000a0 e7 90 ad bb c6 cb b5 bb ef 4a a1 ba aa c8 73 b8
       -0.0052968147 -0.0055479733 -0.0012305657 -5.8122598e-05
0000b0 37 85 81 bc e2 a7 6e bb e4 05 57 3b 71 e3 c7 b8
       -0.015810592 -0.0036415984 0.0032809908 -9.531424e-05
0000c0 8e 08 f6 3a 33 2d 6f bb b8 63 8f 3a bd 4c f3 b9
       0.001877086 -0.0036495447 0.0010939753 -0.00046405746
0000d0 c3 ab 8b ba 86 53 10 bb fc 38 5c bc 04 6f 9f bb
       -0.0010656047 -0.002202244 -0.0134413205 -0.004865529
0000e0 0f 13 90 bb 05 c1 e8 ba 22 a0 22 ba 30 6f b0 bb
       -0.004396803 -0.001775772 -0.0006203671 -0.0053843483
0000f0 df 4f 48 ba ab 93 29 bb f6 ad 27 bc 9f 53 47 3a
       -0.0007641296 -0.002587537 -0.010234347 0.0007603708
000100 60 52 0a 3b 5c c8 80 ba 7a 43 97 ba 49 03 bd ba
       0.0021106228 -0.0009825337 -0.0011540495 -0.0014420535
000110 07 b2 30 3b 6b b5 2c 3c ad b1 c2 bb a1 fd bc ba
       0.0026961581 0.0105413 -0.0059415908 -0.0014418849
000120 5f bf 7d bb 1c dc 8a ba d9 de 4e ba 1c 38 9a ba
       -0.0038718802 -0.0010594162 -0.0007891483 -0.001176599
000130 d5 24 56 b9 ca 70 1a bb 4d 21 0d bb d0 8e fc bb
       -0.00020422351 -0.0023565763 -0.0021534741 -0.0077074543
000140 73 61 5b b9 3d 63 ed ba 5a df 11 39 70 85 04 ba
       -0.0002092177 -0.001811124 0.00013911483 -0.0005055284
000150 9c 2e 84 3a d9 ac cd bb 2b 20 e1 b9 04 14 ed ba
       0.0010084691 -0.0062767086 -0.0004293931 -0.001808763
000160 66 50 28 3a 0d 26 b7 bb 0e e1 a7 ba c3 3d 8f ba
       0.00064206717 -0.005589253 -0.001280816 -0.0010928441
000170 c0 ea 53 bb 54 ea 99 3a 45 9c b6 ba 8c ef 10 3b
       -0.0032335967 0.0011742809 -0.001393207 0.0022115437
000180 4c ea c7 3a 54 ad 4f ba 36 20 92 ba 03 3a 6c ba
       0.0015252321 -0.0007922251 -0.0011148516 -0.000901133
000190 0d 45 0f bb 06 16 df bb 67 61 4c 3b e3 f1 85 ba
       -0.0021861226 -0.0068080453 0.0031185986 -0.0010219183
0001a0 7f fb d7 ba d0 2f d4 bb 65 3c 34 bc bb 1f 8c ba
       -0.001647815 -0.0064754263 -0.011000727 -0.0010690609
0001b0 40 fa c6 3a fd 13 0b 3a 8f c4 ed ba 05 98 df bb
       0.0015180781 0.00053054077 -0.0018140244 -0.006823542
0001c0 d4 fc ee ba 0a 81 f0 38 2b a8 2f bc 34 9a 9d ba
       -0.0018233308 0.00011468127 -0.010721247 -0.0012024106
0001d0 58 d5 44 3b a7 96 73 ba a9 2d 14 39 cb ee 79 3b
       0.003003439 -0.00092921633 0.0001413139 0.0038136716
0001e0 43 ca d1 bb ed 27 40 bc a5 87 b1 39 8c 49 f5 b7
       -0.0064022853 -0.011728269 0.00033861134 -2.9240524e-05
0001f0 32 7c 6b bb fc c4 81 3a 4d 24 e0 ba 9d 70 c5 b9
       -0.003593218 0.0009900625 -0.0017100662 -0.00037658671

action_model._continuous_distribution.log_sigma f4 [1, 2]
000000 2b 3b 77 3c 94 5b 9f 3c
       0.01508979 0.019452848

action_model._continuous_distribution.mu.weight f4 [2, 128]
000000 c5 a2 a7 3a 82 a7 e0 bc bb a0 a5 3c bf d3 9e 3c
       0.0012789598 -0.027423624 0.020218244 0.019388078
000010 81 1b 54 bc 5d 68 c1 3c e5 7b 11 3d 12 a5 23 3b
       -0.012946011 0.023609335 0.035518546 0.0024970216
000020 4c 8b 9b bc 1c 64 aa 3c 88 c5 05 3c 28 d6 48 bc
       -0.01898732 0.020799689 0.008164771 -0.01225809
000030 fb 33 7c 3c 03 fe ed 3a ba e1 db 3c 7b 6f af bc
       0.0153932525 0.0018157366 0.026841033 -0.021415463
000040 6c 0d 8f bc 9c 62 49 bc cf 9e c2 3c fa fd b2 ba
       -0.017462455 -0.012291577 0.023757366 -0.0013656013
000050 4c 7b ef bc 5e f9 21 bd 5e ee bb 3c 80 e1 b7 3b
       -0.029233597 -0.039544456 0.02294081 0.0056115985
000060 61 ad 5d 3c 98 cf 72 bc cd 20 9b bc 0d 68 17 bd
       0.013530106 -0.014820002 -0.01893654 -0.036964465
000070 1a d0 4b bd 33 03 9e bb 71 95 47 3c cd 78 94 3a
       -0.049759008 -0.0048221587 0.012181626 0.0011327505
000080 76 f8 b5 3c 90 2b 09 3c e9 8d cc bb dd 4b a9 3b
       0.022213202 0.0083722025 -0.006242503 0.0051665143
000090 5e e3 83 bc 75 3b 6f 3c 15 6c bb bc 7e 6b 88 bc
       -0.016099628 0.014601578 -0.022878686 -0.016652819
0000a0 d7 0d 3b 3c c7 c1 14 3c 87 b8 95 bc 65 b3 de bc
       0.011416874 0.009079403 -0.018276466 -0.027185151
0000b0 5b ca 85 bb 19 5a c1 3b fe eb cb bc 2b de 5a bc
       -0.0040829605 0.005900633 -0.024892803 -0.013358633
0000c0 74 eb 5f bc 71 81 7c 3c 5a e0 b2 ba 37 a8 44 3c
       -0.013666976 0.015411721 -0.0013647184 0.012002996
0000d0 01 b3 35 3b 43 87 5d 3a 84 89 8f 3b b0 9b 33 bc
       0.0027725103 0.00084506365 0.004380407 -0.010962412
0000e0 d5 43 f1 3c f6 ac 11 3a 89 6a 7e 3c d4 d7 9d bb
       0.02945129 0.0005557084 0.01552833 -0.0048169885
0000f0 ba 9d 49 bc cb bc 93 3b ba 14 6c 3c ae a7 0f bc
       -0.012305671 0.00450859 0.0144092385 -0.008768005
000100 92 d2 79 bc 82 66 d5 bb 9f 89 d4 bc 1f 7e 10 bd
       -0.015247958 -0.006512464 -0.02594453 -0.03527653
000110 45 2b a2 3c 85 1c 1f 3c 40 7a 92 3b 38 3d d3 bb
       0.019796023 0.009711389 0.0044701397 -0.006446507
000120 d8 68 13 bc 70 e4 0d 3b 39 06 8d 3c 8e ef 83 bc
       -0.008997165 0.0021651052 0.017214881 -0.01610544
000130 b2 3e f6 3c d5 30 21 bc be 5e d9 3c 7a 47 4f 3b
       0.030059192 -0.009838303 0.026534434 0.0031628297
000140 ab b3 0c 3c ac 88 6e bc 1f 30 8b 3c e6 ba 19 3c
       0.008587758 -0.014558952 0.01699072 0.009382939
000150 81 15 ca bb c3 30 a6 bb 92 08 87 bc 47 f3 84 3b
       -0.0061671142 -0.005071731 -0.016483579 0.004057321
000160 30 ba 3b 3c d0 44 05 39 2f 42 ba bc d0 a0 e7 ba
       0.011457965 0.00012709503 -0.022736637 -0.0017671827
000170 75 68 09 bd 98 fa ed 3c a9 d1 11 3c 8f 5c ad bc
       -0.033546884 0.029050156 0.0089000845 -0.0211623
000180 7f aa ef bb 0b c1 3f 3c da 5f ac bc 18 26 de ba
       -0.007314026 0.01170374 -0.0210418 -0.0016948609
000190 c4 26 f5 bb 23 67 1a bc c7 eb ff 3c 6a b3 86 bb
       -0.007481428 -0.009424004 0.031240357 -0.0041107433
0001a0 14 5c 03 bc 28 a3 3c 3c 98 51 cf ba e4 80 ef bb
       -0.008017559 0.011513509 -0.0015817164 -0.007309066
0001b0 cc 7a 6f 3b 59 12 54 3c c9 5e 07 bc 8b d6 4a bb
       0.0036541699 0.012943828 -0.008262345 -0.0030950631
0001c0 a8 0a c1 bc 9d 45 24 bb e3 22 77 3a e3 be b4 3a
       -0.023564652 -0.0025065907 0.0009427501 0.0013789799
0001d0 46 b0 ec bb 1e c7 d8 bc 4d 53 85 3c a5 b4 cb bc
       -0.007223162 -0.026462134 0.016275072 -0.024866411
0001e0 6d 7f 09 bb b4 c3 57 3c 8a db a5 bb 36 87 9d 3b
       -0.0020980493 0.013169218 -0.0050615715 0.004807378
0001f0 4c bf 14 bb 32 81 6d bc b2 12 ad 3c 3f 57 70 3c
       -0.002269703 -0.014496135 0.021127079 0.014669239
000200 79 8d 84 3c 25 69 18 bc a3 0a 13 bd c4 03 72 3c
       0.01618074 -0.009302412 -0.035898816 0.014771406
000210 ea 80 0a bc fa f4 ca 3a cf 8a 7d 3b ff dc ac bb
       -0.008453587 0.0015484386 0.0038687473 -0.005275368
000220 e1 55 87 bc 60 38 0c 3d f6 5b d6 bc 82 bd 69 bb
       -0.016520442 0.03423345 -0.026166897 -0.0035665934
000230 b3 c8 22 3c 9a 20 f4 bb 93 80 19 3c 71 7e b9 bc
       0.009935546 -0.0074501755 0.009369033 -0.0226433
000240 4b b7 9e 3c c9 b4 cf 3c fd 60 92 bc 18 79 ab 3a
       0.01937451 0.02535476 -0.017868513 0.0013082353
000250 30 a7 62 3c 38 59 45 bc 5b 5c a0 ba 1b 92 2e 3c
       0.013833806 -0.012045197 -0.0012234555 0.010654951
000260 7f b7 8c 3b 6e 3a 38 bc 8d 47 a4 3c 08 0e 80 ba
       0.0042943354 -0.0112443995 0.02005365 -0.0009769807
000270 27 a0 f5 3c 48 53 04 bd 7a 86 59 bb 95 6b ed b9
       0.029983593 -0.032305986 -0.0033191727 -0.00045284317
000280 8a b6 10 3d 1d c8 80 bc 7e 61 9e 39 e9 14 08 3c
       0.035330333 -0.015720421 0.00030208746 0.008305767
000290 b5 03 64 3a 63 58 98 bb bb d3 7e 3b 8d af 37 bc
       0.0008698062 -0.0046492084 0.0038883525 -0.011211288
0002a0 1e 23 15 3c af 2f a7 3c 8e 60 ac 3b 8e 7a d1 b9
       0.009102611 0.02040848 0.0052605337 -0.00039954897
0002b0 c2 51 f5 3c 9a c8 42 3c af ed 82 bb c9 22 5b bc
       0.029946212 0.011888647 -0.0039956192 -0.013374993
0002c0 59 90 b8 bc c8 ee 91 3b 75 8b 90 bc 3b 0f a1 bb
       -0.022529768 0.004453514 -0.017644623 -0.0049151457
0002d0 c4 db 8b ba a0 44 70 3b 46 b1 b2 3c 03 51 31 3c
       -0.0010670354 0.0036661997 0.021813046 0.010822537
0002e0 eb 0d 81 3d d2 5f 1c 3c 06 0b 84 3c 33 c4 9f bc
       0.06301483 0.00954433 0.016118538 -0.019502735
0002f0 ea 70 24 3d 1c 2d 31 bc 5b 31 98 3c 3f 0e 7b bc
       0.040146746 -0.010813978 0.018578222 -0.015323221
000300 8c 73 ad 3a b1 6e 12 bb 73 98 ef 3c 71 c9 52 3c
       0.0013233288 -0.002234381 0.029247498 0.01286541
000310 3f 9f e1 bb 7b fd a3 bc ae 57 1a 3c 47 a0 2c 3c
       -0.0068854387 -0.02001833 0.0094203185 0.01053626
000320 64 e6 37 3d d0 b3 c6 ba 57 67 c9 3c 91 8e 05 3d
       0.044897452 -0.001515979 0.02458541 0.032606665
000330 e0 e7 7c 3d 76 8d 26 3d 05 97 ea 3c 5e 15 d8 3c
       0.06174457 0.04066225 0.028636465 0.026377376
000340 e5 db 9c ba 7b 62 0e 3c f3 42 9a 3a 0b 80 02 3b
       -0.0011967389 0.008690472 0.001176922 0.0019912745
000350 5d df 55 bc 7b 32 62 3c 57 8e 64 bc 7b fe e3 3c
       -0.013053742 0.013805981 -0.013949952 0.027831307
000360 4e 85 13 bc 7a c2 67 ba a0 b8 aa 3c 47 9e e9 3c
       -0.00900395 -0.000884093 0.02083999 0.028517855
000370 87 85 1f bc 1f 15 06 bc 72 62 b1 3c 86 ee 56 3b
       -0.009736425 -0.008183747 0.021653388 0.003279598
000380 cd c8 ce bc a5 65 86 3d 9c c7 11 bb 50 8e 14 bb
       -0.025242234 0.06562356 -0.002224422 -0.0022667833
000390 07 bf 3c 3b 5c a4 8c 3c 0f 89 12 bc 61 58 42 3c
       0.0028800385 0.017168216 -0.00894381 0.0118618915
0003a0 08 83 c6 3b 65 ac 02 3d 1d 1c ef 3c 10 56 a4 b9
       0.0060581006 0.03190269 0.02918821 -0.0003134464
0003b0 ab c8 d0 bc 26 8a 2f 3b 31 39 06 3d 72 fa f7 3c
       -0.025486311 0.0026785224 0.032769386 0.030270789
0003c0 8d ad fe 3c 37 26 36 bc 2f 75 da 3c 6f 09 06 3d
       0.031088615 -0.01111751 0.026667206 0.03272384
0003d0 76 b5 ac bb 7e 45 bf ba ab 48 ce bc 4a b9 11 bc
       -0.0052706553 -0.0014592854 -0.025181135 -0.008894274
0003e0 c8 17 f9 3c 81 3a 6d 3c fa 57 3a bb 87 6b 55 3c
       0.030406848 0.01447928 -0.0028433786 0.013026125
0003f0 c8 99 07 3b 94 d3 83 bc 96 75 2e 3c e4 3b 95 3a
       0.0020691026 -0.0160921 0.010648152 0.0011385647

action_model._continuous_distribution.mu.bias f4 [2]
000000 f6 0f cf 39 09 d9 e7 ba
       0.00039494009 -0.0017688583

exp_avg f4 [128, 3]
000000 70 2b c1 b9 4c 99 f4 b8 a4 d7 d0 3a c5 6d 30 ba
       -0.00036844192 -0.000116633804 0.0015933407 -0.0006730224
000010 bb a6 ae 39 dc c8 14 3a db 28 b5 3a 5f 75 a5 38
       0.0003331209 0.00056756823 0.001382138 7.889675e-05
000020 72 10 b9 ba a2 a2 1d 3b 62 20 4d b9 ac 11 06 bb
       -0.0014119281 0.0024053236 -0.00019562387 -0.002045731
000030 63 bd a4 3a 2a c4 06 ba b8 22 75 ba 40 d9 bf 3a
       0.0012568649 -0.0005140925 -0.0009351182 0.0014636889
000040 6b 92 24 39 dd 90 48 3a a1 5b df ba 2e 26 c2 38
       0.00015694804 0.0007650981 -0.0017040857 9.2577524e-05
000050 86 4b 16 3b de 4f 3d bb e6 59 ac 39 ad 82 34 3b
       0.00229332 -0.0028886716 0.00032873376 0.002754371
000060 f9 a4 7e b9 aa 38 82 b9 0c f1 d7 ba 1a 09 66 39
       -0.00024284785 -0.0002483775 -0.0016475036 0.000219379
000070 67 3f c8 b8 e1 a3 c7 b9 d0 25 bd b9 60 b8 01 b9
       -9.548553e-05 -0.00038078337 -0.00036077062 -0.00012371084
000080 50 a8 6b 3a 00 58 ea 36 a2 92 a1 38 54 77 8c 39
       0.0008989619 6.983988e-06 7.704391e-05 0.00026791787
000090 34 56 73 39 b0 d7 47 37 7f df 67 ba 58 00 04 ba
       0.00023206399 1.1911543e-05 -0.0008845254 -0.00050354516
0000a0 be 4f 70 39 00 40 3a 38 fc 68 48 ba bf d6 20 3a
       0.0002291789 4.440546e-05 -0.00076450384 0.0006135515
0000b0 47 b5 05 3b 51 21 c3 3b 1c c0 51 b9 72 84 c5 bb
       0.002040224 0.0059548994 -0.0002000336 -0.0060277516
0000c0 0e 30 c6 bb 4b 2b 34 3a 6a 68 2e 3c 61 64 17 3b
       -0.006048209 0.0006872906 0.010645011 0.0023100602
0000d0 3d cb 15 ba 76 5b ab bb b0 0b 05 3a b8 ad 8f 38
       -0.0005714184 -0.005229409 0.0005075289 6.851129e-05
0000e0 b4 cc 3a bb a8 6b f9 b9 4a 38 ab b8 57 e5 2f ba
       -0.002850336 -0.0004757319 -8.1644e-05 -0.00067098945
0000f0 40 3a 86 39 28 8d 58 b8 dd 51 79 3a 31 f4 1b 3a
       0.0002560187 -5.1629875e-05 0.0009510795 0.0005949168
000100 27 1b ba 39 9f 2b 58 3a d7 b9 09 3b d6 59 a5 b9
       0.00035496915 0.0008246246 0.002101531 -0.00031538185
000110 f6 8f 61 bb 40 9f 1a ba 4e 24 98 39 b0 25 5a 39
       -0.0034418083 -0.0005898364 0.00029018748 0.0002080414
000120 c4 ca ea ba 48 74 bc b7 82 16 23 3b 1c 39 cb ba
       -0.0017913212 -2.2465494e-05 0.0024885242 -0.0015504691
000130 f8 8c b1 b8 19 90 c2 3a f9 c1 c2 b9 38 54 a6 b8
       -8.466275e-05 0.001484397 -0.00037147084 -7.931184e-05
000140 48 98 08 3a 60 b4 26 3a 60 42 8c 37 1d 1c 3e ba
       0.000521068 0.00063592754 1.6720209e-05 -0.0007252114
000150 b1 d2 5a 3b 90 1b 12 b9 0b ed 40 bb 88 ef 99 39
       0.0033389742 -0.00013933913 -0.0029438164 0.000293609
000160 67 ba d4 b9 28 1a 9e 39 42 e2 65 39 55 3f 8b b8
       -0.00040574672 0.00030155596 0.0002192343 -6.639833e-05
000170 57 5e 7a b9 cb 52 0b 3a 12 5c 2c 39 70 c0 43 b9
       -0.00023877002 0.00053147663 0.00016437497 -0.00018668338
000180 a4 18 9a b9 23 31 4f b9 32 1a db b8 d1 6d 9f 3a
       -0.00029391528 -0.00019759363 -0.00010447613 0.0012163465
000190 20 b4 15 38 66 4e cc ba 1b 35 87 ba 66 21 4a 3a
       3.5692123e-05 -0.0015587329 -0.0010315509 0.0007710665
0001a0 a9 ef a4 b9 ed fa 0d bb 88 ab e4 38 80 74 07 3b
       -0.00031459078 -0.0021664456 0.000109038374 0.0020668805
0001b0 bd 5f 91 ba ca 28 ea b8 58 12 83 ba 85 62 3f ba
       -0.0011091154 -0.00011165587 -0.0009999974 -0.00073007523
0001c0 b7 3a 46 b9 da 52 9e ba ae f0 55 b9 92 89 22 39
       -0.00018904624 -0.0012079135 -0.00020402923 0.00015500773
0001d0 f3 d8 02 ba 35 26 fe 39 a0 33 e4 b6 3e 24 28 ba
       -0.00049914344 0.00048475122 -6.8009394e-06 -0.0006414092
0001e0 60 14 93 39 4b 79 5e 39 24 d9 6c ba e8 e7 28 3b
       0.00028053205 0.00021216755 -0.0009035042 0.0025772993
0001f0 28 0f ca b8 db 16 2b bb a8 bd c9 ba 6e da 43 b8
       -9.634934e-05 -0.0026106152 -0.0015391605 -4.669505e-05
000200 a9 16 a1 3a c0 a8 99 b7 98 bc 33 b9 d4 d0 0b ba
       0.0012290078 -1.8317602e-05 -0.00017141027 -0.0005333547
000210 21 ab ee 3a 78 9d e4 37 b7 5f 06 bb e5 bc fd 3a
       0.0018208959 2.7253045e-05 -0.0020503828 0.0019358663
000220 49 8e a3 b9 2b 50 12 bb aa 81 67 ba df 8b 79 3a
       -0.00031195793 -0.0022325616 -0.0008831272 0.00095194386
000230 47 34 61 3a ba 29 07 3a d0 11 48 b9 75 14 0a 3a
       0.0008590859 0.0005156059 -0.00019080122 0.00052673306
000240 be 9c 83 3a d0 ee ef 38 46 b7 f9 ba a8 76 94 ba
       0.001004122 0.000114408904 -0.0019051812 -0.0011326866
000250 48 49 b0 38 4a 90 4f 3a 82 46 29 3a a0 37 fd 36
       8.405984e-05 0.0007917924 0.0006457345 7.546463e-06
000260 5c 3c 71 ba 80 db 84 38 17 2e 0d ba dc 0a 8a ba
       -0.00092024147 6.3351355e-05 -0.0005385591 -0.0010531801
000270 1a 9f 66 39 69 d2 c0 b9 6c f8 9a 3a ea aa 89 3a
       0.00021993779 -0.00036777862 0.0011823303 0.0010503207
000280 af 2d 00 b9 81 4e a4 ba 72 7f 6b 3b 0a a9 09 ba
       -0.0001222405 -0.0012535603 0.0035934118 -0.0005251324
000290 6a 1f 3c bb 80 33 47 39 5b b3 0f 39 0f a0 26 bb
       -0.0028705248 0.00018997304 0.00013704358 -0.0025424992
0002a0 80 86 02 36 c8 8b 0e b8 28 1f 94 b7 d4 53 85 bb
       1.9449799e-06 -3.398562e-05 -1.7657483e-05 -0.004068831
0002b0 a2 2f 31 3a 12 7f 4e 3b b7 bc 63 b9 8e 50 2c ba
       0.0006759112 0.0031508845 -0.00021718709 -0.0006573283
0002c0 41 da 4e 3a 5c 13 59 bb 0a fd ad b8 4c 6d 68 3b
       0.0007890799 -0.0033123111 -8.296415e-05 0.0035465537
0002d0 4f cb 4a ba c4 c7 ca b6 3e ee ea 3a 00 df 2d b9
       -0.0007735984 -6.043325e-06 0.0017923785 -0.0001658164
0002e0 4e a6 c7 38 24 00 f4 b9 c5 ed 8f bb c9 9d 5c 3a
       9.520036e-05 -0.0004653941 -0.004392358 0.0008415846
0002f0 7b 3b 68 3b 62 a2 a1 39 20 ba f6 b7 61 36 af ba
       0.0035435844 0.00030829298 -2.9412156e-05 -0.0013367647
000300 6a 47 be b9 b2 60 c5 b9 ba b8 51 ba 46 6a 72 3b
       -0.00036292832 -0.00037646812 -0.00080002437 0.0036989613
000310 d8 a5 54 b9 65 2f 4b bb cc a2 a2 b8 3c 87 94 b9
       -0.00020279677 -0.003100359 -7.755085e-05 -0.00028329517
000320 06 ab b7 3a f3 44 53 bb ec df fa 38 7f e1 51 3b
       0.0014012761 -0.0032237142 0.00011962638 0.0032025275
000330 72 21 28 ba 1a dc 0f 38 68 fb 88 b8 57 32 bc 3a
       -0.0006413675 3.4298842e-05 -6.5318134e-05 0.0014358264
000340 80 55 3f ba 73 14 87 b9 9b 14 23 bb a8 be a7 39
       -0.0007298812 -0.00025764442 -0.0024884108 0.00031994772
000350 69 8a 95 3b 48 d7 67 ba 4e 5f c2 b9 7d 04 48 ba
       0.004563619 -0.000884403 -0.0003707357 -0.00076300633
000360 a1 bb d1 3a b8 0f bc 37 75 c9 ad ba 5e 93 43 3a
       0.0016001352 2.2418666e-05 -0.0013258891 0.0007460619
000370 78 ad 11 b8 c6 76 38 ba 0b fd b3 3b 40 db 20 b7
       -3.473225e-05 -0.00070367416 0.0054928116 -9.587791e-06
000380 a5 05 bc bb 90 cf 3b b9 a2 a8 e2 b9 94 b9 8a b8
       -0.0057379776 -0.00017911033 -0.0004323172 -6.6149194e-05
000390 98 2c ec 39 10 c2 99 38 6a f9 f9 ba 43 35 f9 b9
       0.00045046653 7.3317555e-05 -0.0019071524 -0.00047532664
0003a0 1d 7d f4 39 99 3d 25 3a a0 a0 49 39 d0 74 f7 b6
       0.00046632523 0.0006303429 0.00019228691 -7.3747724e-06
0003b0 63 5e 29 3a f6 40 32 ba 18 c3 26 39 c0 93 87 3a
       0.0006460903 -0.0006799841 0.00015903672 0.0010343716
0003c0 51 82 04 3b f4 7e 1e b9 f7 23 02 bb dd 9c 99 b9
       0.0020219276 -0.00015115348 -0.0019857862 -0.00029299306
0003d0 08 3f 0d 39 55 e1 46 3a fb 1f 2c 3a a4 e0 59 3a
       0.00013470289 0.00075866777 0.0006566045 0.0008311367
0003e0 78 9d 2c b9 c2 69 00 bb d6 24 d2 39 70 bd 0b 3b
       -0.0001646186 -0.0019594287 0.00040081766 0.002132263
0003f0 0c 3d 5e 3a 3c 67 a1 ba 0e 0b f5 3a fe 68 8c bb
       0.00084777246 -0.0012314091 0.0018695311 -0.004284977

exp_avg_sq f4 [128, 3]
000000 09 28 b3 39 bd ce 94 35 7a a1 16 3a 23 31 83 38
       0.0003417137 1.1087028e-06 0.0005746108 6.255719e-05
000010 08 39 39 36 29 fd 22 39 4a ab e5 38 85 ec ea 34
       2.7600345e-06 0.00015543833 0.00010951476 4.3757987e-07
000020 e2 2b 9e 39 cd f2 9a 38 c0 84 9a 34 d2 b7 8c 39
       0.00030168804 7.3885174e-05 2.8781324e-07 0.00026839838
000030 28 bf c5 38 56 fe 98 36 94 73 33 39 a4 17 3c 38
       9.429298e-05 4.5595616e-06 0.00017113826 4.484471e-05
000040 fd 6a 06 37 ed 2b 99 38 a4 c8 85 38 7b ed f6 35
       8.011933e-06 7.30379e-05 6.3793064e-05 1.8397544e-06
000050 3d e8 ca 38 69 90 09 39 8a 47 00 36 a3 2e a9 39
       9.675368e-05 0.00013119135 1.9115128e-06 0.0003226894
000060 0d a3 9f 37 f6 2b 23 37 f2 ee 54 38 1d d7 3d 35
       1.9030203e-05 9.725793e-06 5.0767274e-05 7.072102e-07
000070 97 d2 93 33 39 0c 36 35 0d 5b 14 3a 03 e8 fd 35
       6.883527e-08 6.781807e-07 0.00056593196 1.8917493e-06
000080 1c 37 b6 3a 6f 0a cb 37 88 52 3b 36 35 d7 68 38
       0.0013901922 2.4204344e-05 2.791321e-06 5.5513538e-05
000090 fe cb 7e 37 2f 05 33 31 4f 27 84 38 fa 8b 7b 39
       1.5187075e-05 2.6050875e-09 6.301572e-05 0.0002398937
0000a0 85 27 83 36 36 89 0e 3a 0d 39 2e 36 53 ec d2 35
       3.908705e-06 0.0005437316 2.5961228e-06 1.5714999e-06
0000b0 56 21 8d 37 e9 40 ec 39 f1 47 9b 36 dd 9e 7f 3a
       1.6824033e-05 0.0004506179 4.627735e-06 0.00097511505
0000c0 ef 88 c3 39 ff 1d ed 37 27 8f 26 3a 4e 45 ff 39
       0.00037295322 2.826657e-05 0.0006353729 0.00048689026
0000d0 fb d9 ac 37 ba f1 81 3a b9 7d b7 39 43 11 d0 36
       2.0605503e-05 0.0009913959 0.0003499815 6.2008926e-06
0000e0 d6 5e 38 3a dd 47 50 35 91 40 28 33 e0 91 4b 36
       0.00070331746 7.7590613e-07 3.917427e-08 3.0334268e-06
0000f0 95 25 5f 37 4a e9 ce 36 79 f3 00 38 45 70 fa 35
       1.3300586e-05 6.166437e-06 3.074433e-05 1.8659126e-06
000100 0d 36 35 35 2d 23 90 36 47 e2 74 39 62 30 ac 36
       6.750641e-07 4.2956294e-06 0.00023353948 5.131632e-06
000110 db 97 e9 39 0a 3c 00 39 0c 91 94 36 50 25 71 39
       0.00044554364 0.00012229398 4.4276294e-06 0.00022997451
000120 0f 83 79 38 81 4a 93 35 f5 a3 fa 38 d5 be 92 38
       5.9488284e-05 1.0974037e-06 0.00011951468 6.997368e-05
000130 f5 38 37 35 54 dd 18 39 1c 98 56 37 bc 84 b5 35
       6.8255696e-07 0.00014578301 1.279081e-05 1.3524182e-06
000140 bb e6 33 38 b8 d9 6f 37 68 b4 3b 34 7e 2b 6a 38
       4.289181e-05 1.4296202e-05 1.7481364e-07 5.5830453e-05
000150 c6 0b 0f 39 c8 c3 b2 35 dd 5d a9 39 4f b4 15 38
       0.00013641929 1.3319013e-06 0.00032304125 3.5692294e-05
000160 28 a9 9f 36 ee ee 8e 38 95 7a eb 35 56 55 02 36
       4.7582616e-06 6.815592e-05 1.754454e-06 1.9421182e-06
000170 00 32 dd 36 7b d3 99 36 5e dc c0 36 92 c7 09 38
       6.592134e-06 4.584375e-06 5.7477e-06 3.284921e-05
000180 6c dd e6 36 2b ef 7c 36 06 99 00 38 b1 c1 93 38
       6.880311e-06 3.769014e-06 3.0660092e-05 7.045584e-05
000190 31 4b f4 36 08 7c 1b 39 71 94 a0 36 49 07 e1 36
       7.28052e-06 0.00014828157 4.7856524e-06 6.7063706e-06
0001a0 f6 0e 84 37 17 7b ea 38 87 90 1e 36 9d c5 99 39
       1.5742593e-05 0.00011180917 2.362796e-06 0.00029329667
0001b0 ed 21 1a 37 14 48 03 36 ef 4d f5 37 a0 a6 a4 36
       9.187014e-06 1.9562476e-06 2.9242567e-05 4.9069786e-06
0001c0 32 b9 a3 35 47 e2 79 37 41 59 bb 35 8a 74 8a 35
       1.2198345e-06 1.4894241e-05 1.3958562e-06 1.0315719e-06
0001d0 63 7f d1 36 69 c9 90 36 c9 f5 06 36 ae f7 81 37
       6.243515e-06 4.3149817e-06 2.0110622e-06 1.5493333e-05
0001e0 80 c9 b4 36 9f a0 b6 36 16 43 05 38 51 c6 d6 39
       5.3878757e-06 5.4427214e-06 3.177215e-05 0.00040965018
0001f0 ea bc 2f 37 98 49 7b 3a a0 4d 3c 38 55 32 d4 34
       1.0474798e-05 0.00095858565 4.4894987e-05 3.9524699e-07
000200 3e 9b d1 38 87 a9 6d 38 a5 75 08 36 77 8e 1e 39
       9.994813e-05 5.6663088e-05 2.0334057e-06 0.00015121126
000210 99 00 3f 38 cc 56 4a 35 3f 10 f1 38 33 6e 0e 39
       4.5538505e-05 7.537717e-07 0.000114948016 0.00013583228
000220 c6 eb 02 36 7c 5b a6 39 f8 ee fb 35 b7 28 45 36
       1.9508748e-06 0.00031730148 1.8770506e-06 2.9378987e-06
000230 0b 0a 11 37 d7 8b 7e 35 56 2c bc 33 38 b9 85 35
       8.645012e-06 9.482587e-07 8.762497e-08 9.963178e-07
000240 e4 56 d9 37 2a 21 23 35 df 6e 9b 37 b9 00 0a 36
       2.5908877e-05 6.077049e-07 1.8529068e-05 2.0564023e-06
000250 b2 a1 07 36 43 f7 a3 36 a3 19 5e 37 f8 44 5b 34
       2.0210687e-06 4.8865636e-06 1.32382e-05 2.0421055e-07
000260 aa ba 10 38 7c 02 03 3a 7c ab e1 36 12 a0 ae 3a
       3.450612e-05 0.00049976236 6.725486e-06 0.0013322851
000270 ae 1d fc 36 23 0b 68 35 5b f9 73 37 76 0b 5c 37
       7.5136404e-06 8.644294e-07 1.4541986e-05 1.311569e-05
000280 a9 bf 1c 36 56 58 cf 37 85 1d 1d 39 f8 af 83 36
       2.3357372e-06 2.4717458e-05 0.00014983684 3.9245897e-06
000290 7b 04 b7 39 0d f4 70 39 20 8c b4 35 1a 0c dd 39
       0.00034907818 0.000229791 1.3451827e-06 0.0004216142
0002a0 61 bc b1 35 90 82 17 34 dd 2a d5 35 2f e2 99 39
       1.3242353e-06 1.4110469e-07 1.5882212e-06 0.00029350954
0002b0 2c 0f cf 36 77 7d 30 3a f8 65 f9 35 ec 5b 8a 36
       6.170847e-06 0.0006732563 1.8581622e-06 4.1234216e-06
0002c0 21 cf 56 37 62 b5 3e 39 c6 fa 99 35 a0 ee c7 39
       1.280362e-05 0.00018187382 1.1472373e-06 0.00038134027
0002d0 1b c1 73 36 e7 75 76 32 62 76 df 37 43 bb 21 36
       3.6322224e-06 1.43458925e-08 2.6638798e-05 2.409987e-06
0002e0 99 ec 5c 35 ed e8 25 37 71 91 9e 39 19 05 91 36
       8.230068e-07 9.888999e-06 0.0003024447 4.32193e-06
0002f0 c4 5b 4f 3a f9 8c 40 37 a9 d6 f0 35 72 5c 94 37
       0.00079100975 1.1476915e-05 1.7943868e-06 1.7686023e-05
000300 90 10 03 36 16 5a 34 36 c0 e6 80 37 07 2d 8e 39
       1.9530162e-06 2.6874527e-06 1.536624e-05 0.000271179
000310 14 06 87 36 8b 50 2e 3a c2 83 6b 37 7d c9 06 33
       4.024021e-06 0.0006649575 1.4037769e-05 3.138256e-08
000320 05 cf 9e 38 86 fd 16 39 31 f2 16 36 75 03 c0 39
       7.5725875e-05 0.0001439956 2.2492716e-06 0.0003662367
000330 58 17 b4 35 ff 80 b1 35 eb 58 27 37 e2 15 21 37
       1.3417839e-06 1.322507e-06 9.9746785e-06 9.601443e-06
000340 2b 01 50 35 d4 95 ad 37 b8 78 83 38 b1 80 5b 36
       7.748774e-07 2.0692976e-05 6.2690524e-05 3.2708451e-06
000350 af 29 00 39 dc 3a 2d 37 b7 30 be 36 9a 84 b8 37
       0.0001222256 1.0325308e-05 5.6681124e-06 2.1996257e-05
000360 ed 62 a5 38 9b 56 07 35 ba 7c 56 39 99 47 92 37
       7.8862395e-05 5.0417447e-07 0.00020455095 1.7437897e-05
000370 bd 49 26 35 b0 a5 24 38 01 27 17 3a 6a 7d f5 36
       6.194712e-07 3.9254955e-05 0.0005766005 7.316169e-06
000380 03 fa ac 3a 5a d9 8e 37 58 d6 38 36 9a b7 67 37
       0.0013197068 1.7028931e-05 2.75429e-06 1.3811421e-05
000390 fc ab 8b 39 d8 d3 80 37 26 6a fb 39 07 39 45 37
       0.00026640284 1.5357436e-05 0.00047953537 1.1755393e-05
0003a0 46 bb 50 36 ce f2 15 38 42 1e 1f 37 78 a8 13 36
       3.1103423e-06 3.5750498e-05 9.4841835e-06 2.2002769e-06
0003b0 cd fa d3 36 92 33 5a 38 34 31 eb 34 96 aa b2 38
       6.317487e-06 5.202328e-05 4.380796e-07 8.5194755e-05
0003c0 a1 0b 63 38 88 1b 9e 35 72 18 cc 38 70 a0 4c 37
       5.4131848e-05 1.177993e-06 9.732031e-05 1.2196702e-05
0003d0 79 68 b2 35 76 92 30 37 07 d2 a7 37 a0 9e 8f 37
       1.3292439e-06 1.0524518e-05 2.0005753e-05 1.7120794e-05
0003e0 db bd a8 38 4d 46 38 38 43 1c 19 37 c7 a7 02 39
       8.0462276e-05 4.393449e-05 9.126091e-06 0.00012460268
0003f0 29 d3 e6 36 e1 a7 09 37 e2 1b a6 37 32 1b a0 39
       6.8791164e-06 8.204924e-06 1.9801726e-05 0.0003053784

exp_avg f4 [128]
000000 90 d9 d0 b6 48 4b 70 b6 24 63 ca 37 76 cc e7 37
       -6.2242107e-06 -3.5806606e-06 2.4126442e-05 2.7632555e-05
000010 52 e5 f3 37 fc 2f 72 37 bc e4 76 b8 84 bf 7e b8
       2.9074643e-05 1.4435496e-05 -5.8863996e-05 -6.0736682e-05
000020 90 bf dd b6 a6 d3 ed b6 e0 28 40 36 58 c1 f7 36
       -6.608614e-06 -7.0877895e-06 2.8634022e-06 7.383682e-06
000030 b5 82 93 37 c0 8a fc b6 05 73 f2 37 f6 00 0f 39
       1.758463e-05 -7.526338e-06 2.8902208e-05 0.000136379
000040 61 67 2c b9 d8 93 81 38 08 50 f4 37 09 ba 2f b7
       -0.0001644171 6.1787374e-05 2.9124334e-05 -1.04741275e-05
000050 78 17 da b6 e1 de 9a 37 f4 30 95 38 7c d5 9d b7
       -6.4996384e-06 1.8462017e-05 7.113992e-05 -1.881527e-05
000060 46 8b 44 b8 b2 93 2b b8 3d 69 84 b7 50 6f 74 36
       -4.685975e-05 -4.090713e-05 -1.5784632e-05 3.6423626e-06
000070 3e 60 91 38 c0 cf 09 b8 2c 95 0c b6 a8 ed 8d 35
       6.932065e-05 -3.2856828e-05 -2.0948455e-06 1.0574486e-06
000080 9b 57 94 37 58 00 89 38 d0 ed 89 b5 04 bd 36 b8
       1.768377e-05 6.532733e-05 -1.0276508e-06 -4.3568216e-05
000090 d0 1f 94 34 e9 5f 85 b7 66 f6 89 b7 22 11 dd b7
       2.7590295e-07 -1.5899497e-05 -1.644641e-05 -2.6353231e-05
0000a0 a2 3a 76 b7 77 22 c1 38 8b 31 03 b8 04 e4 1f 37
       -1.4676394e-05 9.209377e-05 -3.1278974e-05 9.5302275e-06
0000b0 07 0e ae 37 8a f4 34 38 7f 31 97 37 87 f3 9e 36
       2.0748948e-05 4.314309e-05 1.8023651e-05 4.7371173e-06
0000c0 b8 a9 a9 37 2c 08 fc b6 d8 da 97 37 84 e2 28 b8
       2.0225401e-05 -7.5111366e-06 1.810251e-05 -4.026528e-05
0000d0 1c 72 de b7 21 64 83 37 dd 29 88 38 90 ea 44 37
       -2.6517599e-05 1.5663043e-05 6.492783e-05 1.1737124e-05
0000e0 aa ea 57 b6 3a be ac b8 b4 ad 94 36 87 a2 a5 b8
       -3.217409e-06 -8.2370316e-05 4.4309654e-06 -7.898086e-05
0000f0 58 54 12 b8 89 ca e3 b6 48 ae 91 b8 fc bd 93 37
       -3.4887664e-05 -6.7887054e-06 -6.946601e-05 1.7612234e-05
000100 ac 42 8d b7 08 94 67 38 94 9a ca b7 ca 64 95 b8
       -1.6839556e-05 5.5212557e-05 -2.4152258e-05 -7.123647e-05
000110 1a 10 84 36 3a b6 e4 b6 07 46 88 b8 30 0e ad b5
       3.935781e-06 -6.8161435e-06 -6.498029e-05 -1.2893634e-06
000120 31 d6 0a 38 86 d7 3a 37 90 13 03 39 bf 4c f9 b7
       3.3101245e-05 1.1136644e-05 0.00012500421 -2.971885e-05
000130 90 8b 2b 37 cc 0a 0f 37 40 a1 14 35 38 37 be b6
       1.0224889e-05 8.525978e-06 5.5368946e-07 -5.6688696e-06
000140 9e 3b 49 38 89 83 d6 b6 ea 61 e1 b7 b0 6e 61 b6
       4.7977657e-05 -6.3930097e-06 -2.6867685e-05 -3.3592041e-06
000150 c8 35 b3 b6 dc a3 d0 b8 98 c9 57 b6 80 da a3 37
       -5.3408767e-06 -9.948734e-05 -3.215484e-06 1.9532861e-05
000160 80 f9 07 38 09 2d 37 b7 9a ca 83 b7 ec 78 8d 38
       3.2418873e-05 -1.0918136e-05 -1.571076e-05 6.7459274e-05
000170 6a 8b d6 b6 8e 11 af 37 72 8f 16 b7 90 d8 41 b7
       -6.393927e-06 2.08698e-05 -8.974095e-06 -1.1554119e-05
000180 ff d2 19 b8 c0 4e 36 37 b0 73 53 37 d0 dc 87 36
       -3.6674548e-05 1.0866381e-05 1.2603516e-05 4.0490195e-06
000190 5b 76 d4 37 1a 6c 68 37 cc d1 cf b7 47 e0 d6 38
       2.5327483e-05 1.3853447e-05 -2.4774017e-05 0.0001024609
0001a0 a0 58 f5 b5 80 15 51 36 23 ae 0a 37 e0 96 26 b5
       -1.8279716e-06 3.1155942e-06 8.265985e-06 -6.205937e-07
0001b0 ac db 4e 37 05 0c 01 b7 36 6e 34 b7 d6 2f 03 b7
       1.2329703e-05 -7.691798e-06 -1.07544965e-05 -7.819346e-06
0001c0 80 9b 5d 35 f9 ce 42 38 2b fe c2 37 7c 50 16 38
       8.25552e-07 4.6445963e-05 2.3244958e-05 3.5837744e-05
0001d0 e0 98 e4 b7 02 ed ba 37 e7 c8 5c 37 20 29 38 37
       -2.7250906e-05 2.2283293e-05 1.3159798e-05 1.097683e-05
0001e0 2c 60 1f 38 90 82 19 b6 40 06 3b 34 58 25 d9 35
       3.799812e-05 -2.2874774e-06 1.7418006e-07 1.6178628e-06
0001f0 1c e4 dc b5 1a e3 58 b8 11 08 1c b8 7c a0 a0 38
       -1.6457666e-06 -5.1709918e-05 -3.720081e-05 7.659287e-05
