results/Run-d1/TrucksBehavior/TrucksBehavior-28664.pt (torch, 586023 bytes, 46 tensors)

discrete_act_size_vector f4 [1, 3]
000000 00 00 c0 40 00 00 c0 40 00 00 c0 40
       6.0 6.0 6.0

network_body._body_endoder.seq_layers.0.weight f4 [128, 45]
000000 52 31 a8 bd 5b d6 b8 3d 12 aa 63 be 61 00 39 3e
       -0.08212532 0.0902526 -0.22232845 0.18066551
000010 f0 c2 87 bd 45 29 33 3e 78 7e 8a 3e 01 d1 ad 3d
       -0.06628978 0.17496212 0.27049613 0.0848713
000020 56 c6 56 3d 4a f6 1b 3e a1 ae 53 3d e1 c2 92 bb
       0.05243524 0.1523067 0.05168021 -0.004478798
000030 0e f9 37 be 42 60 20 3e 76 6a 37 be 16 ea 19 3e
       -0.179661 0.1566172 -0.17911705 0.15030703
000040 bf e5 98 3d 11 7f 5e be f3 dd dc bd 84 be c4 3c
       0.074656956 -0.2172816 -0.10784521 0.024016626
000050 b7 f4 77 bd 48 12 b7 bd a9 e7 b9 3d b5 dc f5 3c
       -0.060536113 -0.08939034 0.09077389 0.030012468
000060 47 25 e4 3d cc a9 9e 3d 02 50 ee 3d d2 ae 2e 3d
       0.111399226 0.0774723 0.11636354 0.04264719
000070 5e 6e a9 bd 64 82 25 be 67 5c 25 be 5a 50 8a 3e
       -0.08273004 -0.16163021 -0.1614853 0.27014428
000080 3a da 2b 3e a7 5b aa be 9d cc 48 3e 46 f0 c6 bc
       0.16782466 -0.3327305 0.19609304 -0.024284493
000090 28 da c1 bd 93 04 13 be 1b 79 90 bd 64 5d 85 3e
       -0.09465438 -0.14357214 -0.07054349 0.26047814
0000a0 a1 92 a9 bd 20 33 e3 3d 4a 7d 71 bd 3e e5 37 3e
       -0.0827992 0.11093736 -0.058957376 0.17958543
0000b0 03 8c 83 bd 61 ee 28 bd 57 6c 02 bc 3d 9c a7 3d
       -0.064231895 -0.04124296 -0.007960401 0.08184097
0000c0 bc 05 04 3d c0 9e cd bd ed 28 06 bd 52 bb 53 3c
       0.03223203 -0.10040045 -0.032753874 0.012923079
0000d0 f0 29 09 bd 7e 21 c9 be b9 ae b2 3d 14 14 55 3e
       -0.03348726 -0.39283365 0.08724732 0.2080844
0000e0 04 5c 13 be 94 ef 79 bd 47 8e f6 3d ae 9a 7b 3e
       -0.1439057 -0.061019495 0.12038856 0.24570724
0000f0 3b e5 cf bc 89 78 ae 3d 4f a1 c5 3c 1d ee ec 3c
       -0.02537786 0.08519084 0.02412477 0.028922135
000100 65 45 11 bd af 71 3b 3e cc b1 ae 3e af 8e c7 bd
       -0.03546657 0.18305086 0.34120023 -0.097440116
000110 0e 38 ab bd ce 2f 85 3b 82 1b 78 be d3 59 9a 3c
       -0.08360301 0.0040645367 -0.24229243 0.01884166
000120 46 ff 33 bd 81 2d 02 be 3e 4d e3 bc 88 55 f7 bd
       -0.04394462 -0.12712671 -0.027746793 -0.12076861
000130 b8 63 19 3d 99 9a 75 bc a8 47 b5 3d 8f f5 1e 3e
       0.037448615 -0.014990472 0.08851558 0.1552336
000140 ae cf 87 be 9d c5 64 3d fc 6a 0d 3d c9 3b b6 bc
       -0.26525635 0.05585252 0.034525856 -0.022245305
000150 de 71 46 3e 8a 9b b7 bd 9d f1 61 3d ce 22 4e 3e
       0.19379374 -0.089652136 0.05516206 0.20130464
000160 02 6d 5e 3c 60 18 a0 bd 84 d6 e8 bd 8f 0f 8c be
       0.013575794 -0.07817149 -0.113690406 -0.2735562
000170 97 91 87 bb e4 a8 54 be c4 24 06 3e 44 ac 0e 3e
       -0.0041372287 -0.20767552 0.13099962 0.13932902
000180 cf 21 c7 bd e9 5e 3f bc d8 70 70 be 2f e2 e7 3c
       -0.09723245 -0.011680343 -0.23480546 0.028306095
000190 dd 22 60 3e 3d 88 22 be 8f c7 eb 3c 40 11 3c 3e
       0.218883 -0.15872283 0.02878168 0.18365955
0001a0 db de 96 3e 61 3a 48 bd c4 8f 10 bc 33 dc 2c be
       0.294669 -0.0488838 -0.008823339 -0.16880874
0001b0 84 98 d7 3d 16 73 3a 3e c1 87 5d 3e 55 df ce bd
       0.10527137 0.18207964 0.21633817 -0.10101191
0001c0 d9 92 c7 be f7 a8 c9 3c ce 03 b4 3d 15 e4 38 3c
       -0.38979223 0.024616702 0.08789788 0.011284848
0001d0 78 66 7d 3e 4c be 50 3d 50 e5 c9 3c 38 d2 d8 3d
       0.2474612 0.05096273 0.024645478 0.10586971
0001e0 a8 41 01 3e 37 53 13 3b 03 6d 0e 3e e5 3a 29 3e
       0.12622702 0.002248002 0.13908772 0.16526373
0001f0 ff 5f 30 bd f3 c3 b1 3c 1d c4 5f 3d 0b 9b 31 3e
       -0.0430603 0.021699881 0.054630388 0.173443
000200 3d b8 a7 bc db d7 ac be 53 3a 97 bd 09 59 88 be
       -0.020473594 -0.33758435 -0.07384171 -0.26630428
000210 ac f0 fa 3d e9 dc af be d4 c7 4a bd f4 c8 4a bd
       0.12252936 -0.3434823 -0.049506977 -0.04950805
000220 97 01 60 bd 6d 04 0c 3c 25 7a 0d 3e a9 ba 2f bd
       -0.054689016 0.008545977 0.13816126 -0.042902622
000230 f9 c9 0b 3e 82 a2 55 bb 62 47 20 3e 22 8e ae 3d
       0.13651265 -0.0032598083 0.1565223 0.085232034
000240 07 12 e8 3e 53 db f3 3d 3e d7 b9 be 97 83 cc bd
       0.45326254 0.11907067 -0.3629703 -0.09986036
000250 15 be 5e bd 96 be 4c 3d 20 97 2f 3e 55 0e 58 be
       -0.054380495 0.049986444 0.17147493 -0.21099217
000260 59 8b 0d 3b 36 88 05 3d 92 38 a4 3e 10 a5 3d 3e
       0.002159795 0.032600604 0.3207441 0.18519998
000270 88 d4 97 3d 6d 5c de 3b 74 9d 51 be aa 15 17 be
       0.07413584 0.0067859204 -0.2047022 -0.14754358
000280 32 2b 1f be 52 de 29 be 90 41 05 3d dd de 08 be
       -0.15543821 -0.16588715 0.03253323 -0.13366266
000290 83 00 36 3c 79 bd ee bd 92 b4 d7 3d 6d 80 47 be
       0.01110852 -0.11657233 0.10532488 -0.19482584
0002a0 ce ea a4 3e 0f 8d 7d bd e5 42 6b 3d 87 a6 eb 3d
       0.32210392 -0.061902102 0.057436842 0.11506372
0002b0 53 45 11 be 50 84 89 be 99 80 95 3c e6 b8 09 ba
       -0.14186601 -0.2685876 0.018249797 -0.0005253687
0002c0 9b 16 f7 bd 5d 7e 22 3d b3 25 2b 3d d3 45 3f bd
       -0.120648585 0.03967129 0.041784 -0.04669745
0002d0 01 5d 84 3e b4 a9 2a bd c1 7c aa bc 90 e3 e6 bd
       0.25852206 -0.041665748 -0.02081144 -0.11273873
0002e0 0b c6 03 be af f1 db bd 84 13 fe 3d 75 d3 a3 3d
       -0.12868516 -0.10739457 0.12406066 0.079993166
0002f0 82 b6 13 be ed c6 45 bd bb 0f bd be 1d d8 9c 3c
       -0.1442509 -0.048285414 -0.36926064 0.01914602
000300 26 8b b9 3b cd 52 88 3d 74 0b 99 be ef e1 16 be
       0.0056623397 0.06656418 -0.2989155 -0.14734624
000310 c3 fb 4c be a5 1e 9f bd 95 45 45 3e da 82 c7 3d
       -0.20017914 -0.07769517 0.19264825 0.09741755
000320 b2 f5 00 3e 8c a8 77 3e ef 90 3f bd f7 43 fe 3d
       0.12593725 0.2418539 -0.04676908 0.12415307
000330 8e cb 78 bd 94 d4 eb bd c7 bf 9d 3d a8 d7 84 bd
       -0.060741 -0.115151554 0.07702594 -0.06486446
000340 13 09 49 3e ac 2f 8c bc b7 4c a0 bc 72 2b 46 be
       0.19632368 -0.017112575 -0.01956783 -0.1935251
000350 db 7e bf bd 31 8c 0f 3e 38 4b 5a bd 09 f1 0c be
       -0.09350368 0.14018323 -0.05329439 -0.13763823
000360 58 92 42 3d 2d 12 a9 bd dd 48 c5 3d 25 83 09 be
       0.047502846 -0.0825542 0.09633038 -0.13428934
000370 c9 8e 60 3e 04 c0 a7 be bb 68 37 3e f1 0a a1 3c
       0.21929468 -0.32763684 0.17911045 0.019658538
000380 60 92 3d bd 94 5e 26 3d 47 8f 69 3e 52 af ed 3d
       -0.046282172 0.04061754 0.22808562 0.11605705
000390 81 a9 8a 3d 30 77 41 be 2e a8 03 bd 9f b4 53 bd
       0.067706116 -0.18893123 -0.03214281 -0.051685926
0003a0 2d 2d fc 3d 7e 99 ea bd eb 10 13 bd 43 a3 6f 3e
       0.12313304 -0.114550576 -0.035904806 0.23402123
0003b0 78 64 72 3e f7 c1 ff bd 1b dc b4 3c f8 dc c7 bd
       0.23671138 -0.12488168 0.02207761 -0.09758943
0003c0 29 fe 22 bd 74 cb 72 3c 50 f1 9f bd 14 43 bd bc
       -0.039793167 0.014819015 -0.078096986 -0.023103274
0003d0 c4 39 44 bd 49 f7 b9 3d 36 fe 60 be 8c db 52 bd
       -0.047906652 0.09080369 -0.21971974 -0.051478907
0003e0 57 3e 22 3e a6 18 3c 3e 51 59 98 bd 9f 3f 54 be
       0.15844093 0.18368778 -0.07438911 -0.20727395
0003f0 3e 72 15 3d 2e e6 ec 3d c3 02 40 be c6 3d 21 3e
       0.036485903 0.11567341 -0.18751054 0.15746221

network_body._body_endoder.seq_layers.0.bias f4 [128]
000000 94 19 20 bb ac b3 e0 ba fa c1 1e bb 5c 12 1a bb
       -0.0024429308 -0.001714339 -0.0024224506 -0.0023509478
000010 bc 10 2f b8 00 00 00 00 09 f1 27 bb 00 00 00 00
       -4.1738836e-05 0.0 -0.0025625846 0.0
000020 00 00 00 00 85 23 e7 ba 00 00 00 00 87 9c 8c b8
       0.0 -0.0017634487 0.0 -6.704876e-05
000030 7e d5 37 bb 00 00 00 00 00 00 00 00 2b 8d 38 bb
       -0.0028050835 0.0 0.0 -0.0028160315
000040 89 f6 be ba 00 00 00 00 00 00 00 00 c0 63 36 bb
       -0.0014569323 0.0 0.0 -0.0027830452
000050 0c 02 a0 2f f7 e5 0b 39 00 00 00 00 5d c8 64 3a
       2.9105285e-10 0.00013341742 0.0 0.0008727366
000060 6d ae 47 38 00 00 00 00 85 35 11 3b 2d 5a 11 b9
       4.7607744e-05 0.0 0.0022157144 -0.0001386187
000070 e6 8c 27 ba 22 ca 31 3a 78 1d 80 8d 54 29 32 3b
       -0.000639154 0.00067821343 -7.895703e-31 0.0027185278
000080 67 ff 51 b9 42 fd c6 39 58 78 6d 39 00 00 00 00
       -0.00020026938 0.00037954195 0.00022646913 0.0
000090 03 ad 21 2e 40 da 39 bb f6 89 73 9d 76 90 39 3b
       3.6760827e-11 -0.0028358847 -3.2232106e-21 0.0028314865
0000a0 49 95 35 3b ed 52 dc 38 af d8 36 bb 47 ed 30 3b
       0.002770739 0.000105058636 -0.002790015 0.0026996897
0000b0 00 00 00 00 af d7 70 38 00 00 00 00 8e d7 b3 3a
       0.0 5.742133e-05 0.0 0.0013720857
0000c0 ec c1 36 bb 00 00 00 00 7c 0c b5 3a 1b e6 39 3b
       -0.0027886583 0.0 0.0013812925 0.0028365913
0000d0 2c d4 12 b9 f2 47 33 3b c9 9a a5 b8 8f d1 39 bb
       -0.00014002685 0.0027356115 -7.896644e-05 -0.0028353666
0000e0 45 93 e6 ba 02 e3 33 bb 00 00 00 00 aa b8 32 bb
       -0.0017591497 -0.002744854 0.0 -0.0027270713
0000f0 00 82 16 39 31 6f be 3a 00 00 00 00 09 e8 13 39
       0.00014353544 0.0014528987 0.0 0.00014105452
000100 00 00 00 00 22 b9 0a b9 6f 36 38 0e 84 12 3a bb
       0.0 -0.00013229673 2.270596e-30 -0.0028392384
000110 00 00 00 00 00 00 00 00 00 00 00 00 00 00 00 00
       0.0 0.0 0.0 0.0
000120 a0 1f 36 bb 10 34 38 3b 16 10 3a bb ee f7 38 3b
       -0.0027789846 0.0028107204 -0.0028390936 0.002822395
000130 e3 72 e5 39 3a 3b 2c 3b 00 00 00 00 00 00 00 00
       0.0004376388 0.002628042 0.0 0.0
000140 00 00 00 00 24 b2 39 3b ff 8f a1 b8 84 4e 02 39
       0.0 0.002833494 -7.7038996e-05 0.00012427015
000150 94 76 89 06 00 00 00 00 8b 4f 38 bb 00 00 00 00
       5.170791e-35 0.0 -0.0028123583 0.0
000160 ab c0 39 bb cc aa 37 bb e2 d3 18 b9 00 00 00 00
       -0.0028343599 -0.0028025387 -0.00014574782 0.0
000170 c1 99 18 b9 16 f3 38 3b da d7 d4 ba a7 0c 14 a0
       -0.00014553127 0.0028221062 -0.0016238645 -1.2540274e-19
000180 11 15 10 b9 14 94 2d 3b 4a bd 37 bb 00 00 00 00
       -0.00013740758 0.0026485967 -0.002803641 0.0
000190 00 00 00 00 00 00 00 00 73 b2 36 3b 00 00 00 00
       0.0 0.0 0.002787736 0.0
0001a0 00 00 00 00 ac af 11 ba 00 00 00 00 00 00 00 00
       0.0 -0.0005557488 0.0 0.0
0001b0 82 95 15 39 a6 57 96 b8 00 00 00 00 82 9f eb b8
       0.00014265443 -7.168883e-05 0.0 -0.00011235384
0001c0 00 00 00 00 b0 97 6e ba b4 f9 f7 38 00 00 00 00
       0.0 -0.00091015827 0.00011824389 0.0
0001d0 aa 02 8f 38 19 a7 c5 ba 00 00 00 00 44 4d dc b8
       6.8192676e-05 -0.0015079706 0.0 -0.00010504809
0001e0 4f 5d e6 ba 71 1e 34 b9 00 00 00 00 00 00 00 00
       -0.0017575416 -0.00017177478 0.0 0.0
0001f0 00 00 00 00 00 00 00 00 d7 42 89 3a 9f 4c ac 38
       0.0 0.0 0.001047219 8.215871e-05

network_body._body_endoder.seq_layers.2.weight f4 [128, 128]
000000 4d ae 41 bd 08 17 8e bd f7 33 d0 bd 52 39 41 bd
       -0.047285367 -0.069379866 -0.101661615 -0.047173806
000010 4e 4e fc bc a3 40 c5 3c 85 91 cc 3d 35 9d cf 3c
       -0.030799057 0.024078673 0.09988693 0.025343517
000020 55 71 7e bd 91 a6 2b 3e f5 57 ad bc 32 cb 0d bd
       -0.0621198 0.16762759 -0.021160105 -0.03461761
000030 6e 5f be 3d db f8 cb 3c 74 a3 5e bd d2 3f 88 3d
       0.092955455 0.024898937 -0.0543551 0.06652798
000040 77 4c 28 3c 26 bc c1 bd 35 d2 8b bc 8e 6e 29 be
       0.010272137 -0.094597146 -0.017068008 -0.1654608
000050 e2 e7 85 3b 52 75 b5 3d 87 fc 37 bd 1b ac ac 3c
       0.0040864805 0.08860268 -0.044918563 0.02107816
000060 cd 7b e9 bc a0 1c f0 3d 12 1e b8 3c 3d dc 03 3d
       -0.028501416 0.1172421 0.022475276 0.032192457
000070 d5 17 df 3d 25 78 6d bd 35 08 df 3d 75 89 d9 bd
       0.108932175 -0.057975907 0.10890237 -0.10621921
000080 a6 42 06 3e 2a d5 22 bd 6e 6d d1 bb 5e 8a 2a 3d
       0.13111362 -0.03975407 -0.006391219 0.041635863
000090 67 25 a6 3c e1 12 37 bd 2a 8f d8 bc 7e 45 df bd
       0.020281507 -0.04469574 -0.026435453 -0.109019265
0000a0 ea a2 ba 3d 2f 66 d9 3b 2b 14 79 3d f9 53 f3 3c
       0.09113105 0.0066344957 0.06081025 0.029703127
0000b0 bf aa 90 3d 2f 1e 63 bc 4a 66 3d 3d cf 05 b9 bc
       0.07063817 -0.013862177 0.04624013 -0.022585778
0000c0 0e 30 e3 3c a1 fc 69 bd d0 e3 92 3b a1 10 30 3c
       0.027732875 -0.05712569 0.004482724 0.010746152
0000d0 27 16 87 bd 45 ba fa 3a 1e d3 79 3c de 7d e5 3d
       -0.06596022 0.0019128999 0.015248088 0.11205648
0000e0 ae 36 ab bd d3 8d 44 bd b3 ed 24 bc 05 d3 9b bd
       -0.08360039 -0.047986817 -0.010066438 -0.07608608
0000f0 eb 11 40 bd cd d2 bf 3c 21 8a e5 bd 28 12 f2 bd
       -0.046892088 0.023415947 -0.112079866 -0.11819869
000100 af 83 df 37 a2 42 3a bd 93 c9 b9 3d 20 56 b3 bc
       2.6644992e-05 -0.045473702 0.0907165 -0.021891654
000110 1e 7f 8b 3d 11 d3 48 bc de 63 a5 3b 42 a8 8f bd
       0.06811355 -0.012257353 0.0050473055 -0.070145145
000120 39 5d 98 bd 74 03 9f bd ea 8e b4 3c 76 af ea bb
       -0.07439656 -0.077643305 0.022040803 -0.00716203
000130 2b 12 df 3d 8f c3 9b 3d 73 e9 02 3c d5 8f 00 be
       0.10892137 0.07605659 0.007990229 -0.12554868
000140 0a a5 68 3c 60 9f 18 bd 64 40 e4 3c fc a8 b0 3c
       0.014199505 -0.037261367 0.027862735 0.021564953
000150 ce ed 19 be ae 62 95 bc 95 74 61 bb 88 bf ae 3c
       -0.15032122 -0.01823553 -0.0034401764 0.021331564
000160 58 cb f2 bd 01 c4 ff bd 4a e1 8f bb d7 bf 43 3d
       -0.11855191 -0.12488557 -0.00439087 0.047790375
000170 21 02 2c bd c4 e1 7e 3b 1d 56 2a 3c 33 7e d7 bd
       -0.041994218 0.003889189 0.010396508 -0.105221175
000180 10 55 97 bc c5 7c 55 3e 3b ac 1d be 0d 87 29 bd
       -0.018473178 0.20848377 -0.15397732 -0.04138856
000190 ce 06 a7 3d 0c 8e 8c bd 5f 25 60 3b cd 87 2d be
       0.08155595 -0.06863031 0.0034201962 -0.16946335
0001a0 d3 13 dd 3d 2e 56 67 bc 11 84 3e be 1a 82 78 3c
       0.10794797 -0.014119668 -0.18605067 0.015167737
0001b0 10 04 a2 3c 2c 4e 08 be 44 f1 93 3d 7c 58 9e bd
       0.019777328 -0.1331107 0.07223752 -0.07731721
0001c0 fb 59 8d 3d 3c 45 2e 3d c6 3e be 3c 1f c4 46 3d
       0.06901928 0.042546496 0.023223292 0.04852688
0001d0 2f 31 2d 3e f8 47 68 bc b9 a0 6b 39 0c 88 09 3c
       0.16913293 -0.014177315 0.0002247122 0.0083942525
0001e0 bd 15 19 be 60 05 fe 3d e1 4c 88 3d db 84 42 bc
       -0.14949699 0.12403369 0.066552885 -0.0118724955
0001f0 f2 70 df 3d 28 e3 d3 bc 69 86 ee bd d2 e7 1e 3e
       0.109102145 -0.025865152 -0.116467305 0.1551812
000200 a3 4e df 3c 1c 03 9f bd ba df cf 3d 8f 93 30 bc
       0.027259177 -0.07764265 0.10150094 -0.010777368
000210 b2 85 08 3c fd 7f e1 bd 71 08 8d 3c 2b 9a 98 bd
       0.008332657 -0.1101074 0.01721594 -0.0745128
000220 ad 0a d6 bd ea 03 90 bd e0 ad eb 3d 4b c3 ee 3d
       -0.10451255 -0.070319965 0.115077734 0.11658343
000230 7f 6f 13 3d d4 50 6d 3c 29 29 0e bd d1 68 e2 3d
       0.035995003 0.014484603 -0.034707222 0.110551484
000240 62 9d 3c 3d 1e d9 3a bb cf a0 aa bd eb 59 71 3d
       0.04604853 -0.002851076 -0.08331453 0.058923643
000250 00 0b 97 bc 39 f3 05 3e f6 15 a5 3d c0 b2 56 3d
       -0.018437862 0.13081063 0.08060829 0.052416563
000260 15 1f 66 3d e8 41 1e bc f2 72 5c 3d 89 b1 c8 3d
       0.056181986 -0.009659268 0.053820558 0.09799487
000270 13 e0 9b bd 4f 97 64 be af 47 29 3c 9c ed c0 bd
       -0.07611098 -0.22323345 0.010332032 -0.094203204
000280 38 4c 51 3d b3 f0 9d bc 44 0c 58 bd 91 c6 9b 3d
       0.05109808 -0.019279813 -0.052746072 0.07606233
000290 ab d0 e3 3c 78 50 d0 bd b9 45 ce 3d 65 c6 a8 bc
       0.027809462 -0.10171598 0.10071892 -0.020602414
0002a0 ed 45 0f 3d bc ca f8 3d 07 0e 32 3d 3e bb 1a be
       0.034978796 0.121480435 0.04347041 -0.1511049
0002b0 c9 ae 2d 3d 52 1d 05 3d 88 f1 31 bd 69 8f 19 3d
       0.042403016 0.032498665 -0.043443233 0.037490282
0002c0 7a 45 bd 3d d6 fb 52 3c 15 02 d3 bc aa d3 28 bd
       0.09241767 0.012877425 -0.025757829 -0.041217484
0002d0 bc 6a 9d bd d9 e6 c7 bd 96 b7 ad 3c ed 4e e9 3b
       -0.076863736 -0.097608276 0.021205705 0.0071200044
0002e0 ad d1 10 be 55 32 db 3d c7 94 3f bd c9 d8 bb bd
       -0.14142485 0.107029594 -0.046772745 -0.09172208
0002f0 59 fe a3 3d f3 27 e9 bd 77 46 6b be a9 33 17 3d
       0.08007497 -0.11384573 -0.22976099 0.0369145
000300 37 fc 45 be ff ae fd bc cc c4 09 3c 0a 83 b4 3b
       -0.19334494 -0.030967234 0.008408736 0.005508785
000310 bd 21 d7 bc 57 be 69 bd 2a 39 76 bc aa 47 f0 bc
       -0.026261205 -0.057066288 -0.015028277 -0.029331047
000320 1a 91 db 3b 01 ee 6a 3d ca 26 b2 bc f8 44 14 3e
       0.006700647 0.057355884 -0.021747012 0.14479434
000330 b5 5f 13 bd 47 d1 ca bd b9 38 b8 bd e9 14 f0 bd
       -0.035979945 -0.09903198 -0.08995194 -0.11722738
000340 96 4d 0a 3d b3 d1 6c 3d 07 98 0d 3d d0 bf 86 bd
       0.033765398 0.057817172 0.034568813 -0.06579554
000350 22 eb 93 3d ff d4 61 3d 38 2f 3c 3e 71 27 ed 3c
       0.072225824 0.05513477 0.18377388 0.028949471
000360 32 b0 ef 3c 95 cf 12 bd 1f 9c 39 3d 1b e2 b1 bd
       0.029258821 -0.035842497 0.045314904 -0.08685704
000370 b3 51 a1 bd dd 65 ec 3c 40 61 53 3c 4f ae 95 3c
       -0.07876911 0.028857166 0.012901604 0.018271593
000380 18 96 0c bd 7d e1 0a be 2d 01 10 bd 5a a3 f4 3d
       -0.034322828 -0.1356258 -0.03515737 0.11945219
000390 d5 f0 81 bc 8d a1 57 3c 2b f0 2e ba 35 0b 23 3c
       -0.015861908 0.013161075 -0.0006673361 0.009951402
0003a0 82 95 45 3e da 94 80 3d ca 92 08 3d fa 18 17 bd
       0.19295314 0.06278391 0.033343114 -0.036889054
0003b0 20 86 9f bb f7 f4 9a 3c f4 52 22 3d 21 5e 46 be
       -0.004868284 0.018915636 0.03962989 -0.19371845
0003c0 3a 79 59 3d af 5c 58 3e 6a 08 f2 3d 5c 5d af 3d
       0.053094126 0.21129106 0.11818011 0.08562729
0003d0 e2 89 c9 3d 83 04 de bd 86 89 6a 3d 6c 99 b9 3d
       0.09840752 -0.10840704 0.05726006 0.09062466
0003e0 82 eb 8b bd e7 12 fb bc 40 d4 90 3d 18 df f3 bd
       -0.06832029 -0.030648662 0.070717335 -0.11907786
0003f0 e1 cf 0f bd 6c 4c b3 3b ef a1 6f 3c 65 20 88 bd
       -0.03511036 0.0054717567 0.01462601 -0.06646804

network_body._body_endoder.seq_layers.2.bias f4 [128]
000000 17 30 04 ba cd ea 35 bb db 5c 84 39 b9 5d 39 3b
       -0.00050425663 -0.002775836 0.00025246185 0.0028284623
000010 00 00 00 00 00 00 00 00 9a 76 b1 3a 59 0f 53 14
       0.0 0.0 0.0013539374 1.06558045e-26
000020 d7 bc 38 3b 00 00 00 00 40 42 45 37 93 ff 00 b9
       0.002818873 0.0 1.175754e-05 -0.0001230224
000030 44 d4 dd b3 d4 8e db b8 00 00 00 00 3b 0b 13 39
       -1.0329725e-07 -0.000104693376 0.0 0.00014023196
000040 00 00 00 00 00 00 00 00 53 1b 95 ba d4 d0 17 ba
       0.0 0.0 -0.0011375941 -0.00057913107
000050 8b c5 06 38 cd 5c b7 ba 00 00 00 00 00 00 00 00
       3.2132066e-05 -0.0013989449 0.0 0.0
000060 00 00 00 00 29 fb 0b 3b d2 c3 f9 24 35 cc fa 38
       0.0 0.002135942 1.0831827e-16 0.000119589655
000070 c1 33 02 b9 5b cf be 38 f3 f5 81 3a 45 0a be 3a
       -0.00012417046 9.098529e-05 0.0009915218 0.001449891
000080 00 00 00 00 00 00 00 00 b0 bd 34 3b a8 ec f5 98
       0.0 0.0 0.0027578883 -6.3569977e-24
000090 7e be c8 92 00 00 00 00 af 73 e6 ba 61 f7 cf ba
       -1.2668734e-27 0.0 -0.0017582084 -0.0015866571
0000a0 8f ec 28 bb 00 00 00 00 00 00 00 00 55 12 86 38
       -0.0025775766 0.0 0.0 6.3930325e-05
0000b0 83 68 2a b8 ba 10 2e ba f9 d0 e9 3a 00 00 00 00
       -4.0628493e-05 -0.00066400657 0.0017838768 0.0
0000c0 ec a3 ab 39 ce 08 96 8f 4c 42 1a 3a ac 98 e1 ba
       0.00032737793 -1.4794533e-29 0.0005884513 -0.0017211637
0000d0 00 00 00 00 85 9a 84 8b 00 00 00 00 00 00 00 00
       0.0 -5.1077046e-32 0.0 0.0
0000e0 00 00 00 00 0a 61 10 b9 00 00 00 00 f4 ff 0b 3b
       0.0 -0.0001376906 0.0 0.0021362277
0000f0 3b 05 3a 3b 00 00 00 00 c1 7c 34 bb 00 00 00 00
       0.0028384465 0.0 -0.002754018 0.0
000100 12 55 d6 38 2b 04 39 bb 5b d1 39 bb 00 00 00 00
       0.00010220161 -0.0028231244 -0.0028353545 0.0
000110 00 00 00 00 65 31 9d ba 00 00 00 00 00 00 00 00
       0.0 -0.001199287 0.0 0.0
000120 96 ca dd b8 fd f4 c4 9c 00 00 00 00 76 aa 39 3b
       -0.00010575836 -1.303352e-21 0.0 0.0028330362
000130 8d cf 82 b9 e5 f7 39 3b 00 00 00 00 53 10 1b 9f
       -0.0002495017 0.0028376516 0.0 -3.283603e-20
000140 ad 96 ce 39 1c 60 73 38 fd a1 c4 b8 00 00 00 00
       0.00039403644 5.8025224e-05 -9.376181e-05 0.0
000150 d3 19 e6 ba e2 cd 0b bb 00 00 00 00 a1 b2 38 3b
       -0.0017555304 -0.0021332433 0.0 0.0028182643
000160 00 19 3b 8e 2b bb 1d 3a 72 64 3a 3b 00 00 00 00
       -2.3061567e-30 0.0006016965 0.0028441218 0.0
000170 4e e6 34 3b 18 36 3a bb b6 f8 75 39 00 00 00 00
       0.0027603093 -0.002841359 0.00023457673 0.0
000180 ea 33 12 b9 1e 7b 5c ba 94 09 36 3b 32 43 56 3a
       -0.00013942985 -0.000841068 0.0027776705 0.0008173465
000190 e6 79 e6 ba 96 c0 e0 36 bf a1 a2 a5 00 00 00 00
       -0.0017583936 6.69814e-06 -2.8212124e-16 0.0
0001a0 1e 6e be ba a3 67 b9 3a 55 9a 2a 3b e1 e0 35 3b
       -0.0014528667 0.0014145266 0.002603193 0.0027752446
0001b0 2a c3 b8 b8 00 00 00 00 00 00 00 00 b7 21 d4 b7
       -8.810156e-05 0.0 0.0 -2.5288069e-05
0001c0 66 2a 36 3b 34 23 37 bb 96 2b 33 bb 26 8f 39 bb
       0.0027796268 -0.0027944567 -0.0027339212 -0.0028314083
0001d0 74 b3 7e 3a 78 a6 04 3b 54 dc 33 3b da 41 df 38
       0.00097160717 0.0020240825 0.0027444558 0.000106457344
0001e0 64 8c 2a 1a fb 4e 0d 39 00 00 00 00 00 00 00 00
       3.5268583e-23 0.0001347623 0.0 0.0
0001f0 85 32 34 3b 00 00 00 00 6d 95 d6 3a 09 78 39 bb
       0.0027495932 0.0 0.0016371437 -0.0028300306

action_model._discrete_distribution.branches.0.weight f4 [6, 128]
000000 ea 01 de bb 6a 2b ff 3b 32 f6 15 b9 12 75 bd bb
       -0.0067751305 0.007787158 -0.00014301462 -0.005781778
000010 ca e6 8c 3a 1d a5 66 3b ec 0e d6 3b 4d bb 89 ba
       0.0010749933 0.003519363 0.0065325405 -0.001050809
000020 1e 7a af 3c ae e5 0a bc ec d4 fa 3b 71 d2 11 bc
       0.021420535 -0.0084776115 0.007654777 -0.008900271
000030 af 90 9c 3c ed 48 90 bc b5 fd d8 bb cc 99 02 3c
       0.01911196 -0.017612899 -0.006622041 0.007971238
000040 b7 2d ce bb 7b a9 a2 ba 74 bd 24 b9 07 6c 93 bb
       -0.0062920707 -0.0012410128 -0.00015710836 -0.004498962
000050 5a a1 07 3c c2 0a f8 3a be aa 99 3c 1f d9 18 bb
       0.008278215 0.0018924105 0.018758174 -0.0023322774
000060 bf 2d c7 bb 9a 72 f7 ba 67 af ae bb d4 da a2 3b
       -0.0060784514 -0.0018878758 -0.005330968 0.004969934
000070 e0 70 bb ba f3 1f 7f 3a fa bf 62 bc 56 db 92 b9
       -0.0014300607 0.0009732239 -0.013839716 -0.00028010708
000080 63 49 3c bb 5f 07 84 3c 03 6f 95 bc 06 b9 83 bb
       -0.0028730265 0.016116796 -0.018241411 -0.0040198592
000090 d3 7e 36 bc 93 2f 1e bc 7e 14 03 3c 05 89 7b 3a
       -0.011138636 -0.009654897 0.008000491 0.00095953076
0000a0 fe da 43 bc 76 7e b7 bb ef 72 ab bb 87 a2 93 bc
       -0.011954067 -0.005599792 -0.005232207 -0.018021835
0000b0 42 c5 d6 bb 4c e5 f1 3b 48 a2 1b 3c 8f 26 df ba
       -0.0065542767 0.0073820706 0.00949914 -0.0017025041
0000c0 07 6c 6f b9 42 f8 10 3c 32 10 61 bb a8 39 97 3c
       -0.0002283306 0.008848252 -0.0034341929 0.01846011
0000d0 1c 2f 27 bc 4d 6d 85 bb 37 26 25 bb f3 84 23 3b
       -0.010204103 -0.0040718676 -0.002519978 0.002495107
0000e0 db 3e 68 3a 60 b1 07 3c 97 24 12 3b 13 37 3a 3a
       0.0008859464 0.008282036 0.0022299641 0.00071035436
0000f0 50 31 99 bc f4 81 83 3c de 9d e0 3b 9d 01 41 3c
       -0.018700272 0.016053177 0.0068547567 0.01178017
000100 fc df 05 bb 80 8b d3 bb be 4f 06 bc 80 9b 55 bc
       -0.0020427695 -0.0064558387 -0.008197723 -0.013037562
000110 fa 63 7a 3b cd 0b 66 bc 6a 28 3e bc 90 70 62 3c
       0.0038206563 -0.014040899 -0.011606315 0.013820782
000120 0b 54 a8 bb 51 ae a0 bc 0a e6 d3 3b 2a a0 73 bc
       -0.005136972 -0.01961437 0.006466632 -0.014869729
000130 b0 de e1 ba e0 b3 17 bc 85 18 e2 3b c0 d7 3f 3b
       -0.0017232504 -0.009259194 0.0068998956 0.0029272884
000140 e8 43 64 3a a2 d0 86 bc a2 99 9c 3a 09 4f 4c bc
       0.00087076286 -0.016456906 0.0011947642 -0.012470015
000150 8c 9c 3d bb 2f db 18 bb 1d 99 dd bb 36 57 b8 bc
       -0.002893242 -0.0023324003 -0.0067626373 -0.022502523
000160 33 48 8c b8 6b 1b 11 3a c5 2d 3f 3c 6e 4e a4 bb
       -6.6891684e-05 0.00055353966 0.011668627 -0.0050142324
000170 2b db 08 3b 98 a2 19 bc 39 a1 f0 3b ba 47 de ba
       0.0020882587 -0.009377144 0.007343438 -0.0016958632
000180 ac 29 ab ba 43 7a e7 bb a5 0c 12 bc b4 0f e7 bb
       -0.0013058684 -0.0070641353 -0.0089141475 -0.0070514325
000190 5b 6f 19 3b 98 14 01 3b 2d 09 3a bc 5e 8a 10 3c
       0.002341232 0.0019696113 -0.011354727 0.008822052
0001a0 a3 7d 26 3a 33 29 92 3b 9f 15 81 3b c5 a6 77 3c
       0.0006351119 0.0044604777 0.003939345 0.015115445
0001b0 55 aa 43 3c 6b e0 98 3c 9d 60 36 bc 22 15 a2 3b
       0.011942466 0.018661698 -0.011131433 0.004946367
0001c0 c8 51 f0 3b e3 f4 90 bb e6 b9 c9 3a 9e b2 04 3b
       0.007333968 -0.004423724 0.0015390485 0.0020248066
0001d0 55 34 68 bc 99 29 22 3b 0b 0c b5 3a ff 60 9f 39
       -0.014172633 0.0024744032 0.0013812793 0.0003039911
0001e0 60 1d f8 3b 09 d8 29 3c f5 79 4f 3c 3e b9 a4 b8
       0.007571861 0.010366448 0.012663354 -7.8546334e-05
0001f0 32 72 0a 3c 6f f6 09 3c 5e aa 19 ba d6 73 eb 3b
       0.008450078 0.008420571 -0.00058618735 0.0071854396
000200 49 df 01 3c 1a 2a 15 3c 02 ef 7f 3c 0a 1f 5c bc
       0.0079267705 0.009104276 0.015620949 -0.013435135
000210 ee 6f 0d 3b 7d d8 b7 ba 89 3c 49 3c 0a 17 10 bc
       0.0021581608 -0.001402631 0.012282499 -0.008794555
000220 f8 0a f3 ba af 93 9b 3c 0f b5 5b bc 14 c5 02 3b
       -0.0018542698 0.01899132 -0.013409867 0.0019953893
000230 cb f9 9f 3b ae 5d d0 3a 9d 11 d0 3b 31 76 b8 bb
       0.0048820726 0.0015897059 0.006349756 -0.005629324
000240 dd 03 8d bb eb f5 9d 3b 68 b8 16 3c 4e a3 54 3c
       -0.004303439 0.0048205755 0.009199239 0.012978388
000250 df a0 1f 3b d5 50 51 bb f7 4b 88 3b 4b 57 0b 3c
       0.0024357361 -0.0031939049 0.0041594463 0.008504699
000260 10 0b e7 3a 8e 3b c4 bb f0 91 52 3c 56 14 5b 3b
       0.0017627198 -0.005988545 0.012852177 0.003342887
000270 35 19 ae bc 26 42 9f 38 ec f4 be bb 9c ba 10 bc
       -0.021252254 7.594032e-05 -0.005827537 -0.008833554
000280 dd ef fc 3a 18 58 2f bc 77 bd 9a 3c bd 5f 62 bc
       0.0019297559 -0.0107021555 0.018889172 -0.013816771
000290 bc 43 80 bb 4f a9 96 3c 2e 00 9f 3c b6 8c c8 bb
       -0.0039143246 0.01839128 0.019409265 -0.0061202897
0002a0 9e 0b 0a bc 42 c7 80 3a 6f ef 38 bb 0b f5 de 3b
       -0.008425621 0.0009825008 -0.0028218885 0.0068041137
0002b0 ad 1f 83 bb ea 94 25 3c 07 a6 8b bc 55 69 e0 3b
       -0.004001579 0.010106305 -0.017046941 0.006848494
0002c0 94 39 b8 bb c1 07 a4 bc be 4a ad bb a4 45 a6 ba
       -0.005622098 -0.020023229 -0.005288451 -0.001268555
0002d0 e3 71 8f bb 0a 89 71 3c 1f 8d 3b 3c f2 a9 24 bc
       -0.00437759 0.014742145 0.01144722 -0.010050284
0002e0 13 75 a9 bb e7 f1 00 3c 1f f9 8c bb a1 96 47 3c
       -0.005171427 0.007870174 -0.0043021585 0.012181909
0002f0 a1 78 1b bc 3b 8d ba 3b 34 16 29 3c c8 94 c6 3b
       -0.009489209 0.0056931055 0.010320235 0.0060602166
000300 a3 5d f8 bb 57 1d 35 bc 38 c5 8c bc 5e e1 c6 bb
       -0.0075795217 -0.011054358 -0.017183885 -0.0060693463
000310 57 0d 6b 3c a6 30 12 3c d1 6e 0d 3c 11 02 18 3c
       0.014346442 0.0089227315 0.008632378 0.009277836
000320 80 63 49 bb ff 92 bc bb 9a 53 59 bb 03 48 e0 bb
       -0.0030729473 -0.005754828 -0.0033161403 -0.006844522
000330 c7 26 52 bc 8e 1f 00 bc 92 a6 87 3b 05 9d a4 3b
       -0.012826628 -0.007820023 0.00413973 0.005023601
000340 96 6a c3 bb 9a df ce bb 45 c2 81 3a 87 da 59 3c
       -0.005963634 -0.0063132765 0.0009899816 0.01329673
000350 d1 88 eb bb e9 4c aa ba 68 3c 39 39 03 c4 5e 3b
       -0.0071879406 -0.0012992892 0.00017665478 0.0033991344
000360 83 ae 6a bb a1 ee 04 3c 8d 47 4f 3b 8d 06 48 bc
       -0.0035809583 0.008113534 0.003162834 -0.012208593
000370 f3 61 34 3b f2 6c 2a bb 51 5e 99 3a fb e8 10 ba
       0.0027524203 -0.0026004878 0.0011701082 -0.0005527881
000380 e1 b1 5b bc c6 fd 15 bc ef c8 96 3c 39 b8 82 bc
       -0.013409109 -0.009154743 0.01840636 -0.015956985
000390 bb 74 2d 3b b4 b8 86 bc 30 c0 0b bc a7 cb 02 3c
       0.0026467282 -0.016445495 -0.008529708 0.007983125
0003a0 50 8c 2d bc 13 62 26 bc 44 71 cb 39 de 2f a1 bb
       -0.010592535 -0.010155219 0.00038803567 -0.0049190363
0003b0 b8 f5 40 3c 43 70 8e 3b a5 51 fd bb 37 bf 42 bc
       0.011777334 0.0043468787 -0.00773068 -0.0118864095
0003c0 7c 3f 54 3c 95 f8 3b 3c 8b 9a 2f bc e2 60 71 bb
       0.012954589 0.011472841 -0.010717998 -0.0036831428
0003d0 82 95 d0 39 99 dd a6 3b 2c f0 d5 3b 4a a6 4d bb
       0.00039784244 0.0050923345 0.006528875 -0.0031379634
0003e0 e2 81 41 bc fd 18 41 3c e2 2a fe bb 18 2d c6 bb
       -0.011810752 0.011785743 -0.007756577 -0.006047856
0003f0 35 65 2a bc 6f 33 12 bc 4d 3c 02 3c 8b 9a f4 3a
       -0.010400106 -0.008923396 0.007948947 0.001866178

action_model._discrete_distribution.branches.0.bias f4 [6]
000000 d9 7c e6 ba 16 d6 0e 33 06 29 4d 37 21 80 e6 ba
       -0.0017584815 3.325666e-08 1.2228504e-05 -0.0017585793
000010 ce 06 4a 21 1f 80 e6 3a
       6.844927e-19 0.001758579

action_model._discrete_distribution.branches.1.weight f4 [6, 128]
000000 b3 3e 81 3c 5f 33 31 bb 8e 86 4b bb 9f d3 36 3c
       0.015776968 -0.0027038676 -0.0031055543 0.011158853
000010 db 8e 58 3c 55 51 f2 3b 1a 89 7e 3c 75 5f 34 bb
       0.013217653 0.0073949494 0.015535617 -0.0027522717
000020 bb 73 8d bb b3 5d 08 3c ae 20 c3 3b e7 b8 eb 3b
       -0.0043167747 0.008323121 0.0059548235 0.007193673
000030 b3 b5 19 3c 7a 93 31 bc 0d f7 62 3c 37 ed 69 bc
       0.009381699 -0.010838384 0.013852847 -0.014277748
000040 a5 62 d9 bb 8a f7 ff 3b d0 34 4a bb 41 e1 c9 bb
       -0.006634074 0.0078114914 -0.0030854233 -0.0061608856
000050 2c 6c 15 3c 60 da bc ba 10 29 ea bb 58 88 dc 39
       0.0091200285 -0.0014408343 -0.0071460083 0.00042063254
000060 98 bd e4 3b 7c 03 63 3b 19 ce 11 3c bc 1a b4 bb
       0.006980609 0.0034639528 0.008899235 -0.005496351
000070 09 61 63 bc 64 99 c5 3b 7c 0a 68 b9 bb f1 8a bb
       -0.013878115 0.0060302485 -0.0002212915 -0.0042402423
000080 dd ef 08 3b 7a 51 55 bc 62 39 8f 3b 80 b4 57 3b
       0.0020894923 -0.013019914 0.0043708542 0.0032913983
000090 f8 11 fd 3b fb e8 ba bb e2 5a ab bc e4 95 81 3b
       0.0077230893 -0.005704043 -0.02091736 0.003954636
0000a0 7c cc 89 3c 68 90 db bb 26 32 2e 3b 02 47 c5 3b
       0.016821139 -0.006700564 0.0026580184 0.0060204277
0000b0 f8 a0 89 bb 10 70 7d 3b c8 29 0b bb ea 3d ed ba
       -0.004200097 0.003867153 -0.002123462 -0.0018100117
0000c0 20 3b de bb 98 17 4f 3b 46 42 40 bc 46 3e 9e bb
       -0.0067819506 0.0031599756 -0.011734551 -0.004829201
0000d0 39 44 87 bb da fd 2f 3c 4f 65 79 bb 1f e1 9c ba
       -0.004128006 0.010741675 -0.003805477 -0.0011968947
0000e0 02 34 67 3c 60 90 a3 3b dd df e4 b9 af 34 82 3a
       0.014111521 0.004991576 -0.0004365434 0.0009933914
0000f0 7e f5 0c bb 35 73 f4 ba fa 18 6a 3b 4b 4e 36 3c
       -0.002150863 -0.0018650057 0.0035720454 0.011127065
000100 e1 81 c0 bb 6c a6 06 3c 23 f0 08 bb 02 b7 5f 3c
       -0.005874858 0.008218389 -0.0020895086 0.013654472
000110 2c 4d 0b 3c 4b 0e 41 bc 37 41 7c 3c d9 df 14 3b
       0.008502286 -0.011783193 0.015396408 0.0022716431
000120 84 6f 0a bc 5b b0 25 3c db a4 d2 bb 1d b1 42 bc
       -0.008449439 0.010112847 -0.0064283437 -0.011883047
000130 9c 00 c6 3b 78 64 a9 3c 0b ce 5d bc d1 25 2d bb
       0.006042553 0.02067779 -0.013537894 -0.0026420245
000140 dd c8 56 bb 05 e4 98 3b 6a 19 a2 3b c6 67 43 bb
       -0.0032773532 0.004665854 0.0049468772 -0.0029816492
000150 63 8b 0d 3c 5e 4f 3e bb 7e d7 25 bb 62 51 69 bc
       0.008639189 -0.0029039006 -0.0025305445 -0.014240595
000160 c1 d1 12 3c 8d 46 8e bc 80 4c 74 3b 9a bd ac bb
       0.008961142 -0.017367626 0.0037277043 -0.0052716257
000170 d3 a1 83 3b 76 39 74 bb 49 b1 0a 3c 3c 2d a2 3b
       0.0040170937 -0.0037265695 0.00846512 0.00494924
000180 6f bb bc 3c d2 7d 53 bc 9c 8b 00 bc a0 2d ea 3a
       0.023038594 -0.012908416 -0.0078457855 0.001786638
000190 ae 04 1c bb 89 6b 62 bb 7f 4b 55 bc 0f 1a 8f 3b
       -0.00238065 -0.003454896 -0.013018488 0.00436712
0001a0 b7 f4 33 3c 37 91 ff 3b 1b be 50 bb 36 a7 b8 bb
       0.0109836375 0.0077992934 -0.0031851593 -0.0056351675
0001b0 0e 95 33 ba 62 b5 01 3c 01 3d 01 bc 75 0e 95 3c
       -0.0006850519 0.00791678 -0.00788808 0.01819537
0001c0 a9 77 45 bb 73 62 99 3b 02 cb 44 bc 6f 61 36 bb
       -0.0030131137 0.0046809255 -0.012011291 -0.002782907
0001d0 59 00 bd bb 42 ff 22 bc 91 f4 b6 3b 03 7f 05 3c
       -0.0057678637 -0.0099485535 0.005583354 0.008147958
0001e0 3d 72 93 3c 16 5f 57 bc 36 01 a8 ba a8 f1 20 3c
       0.017998809 -0.013145229 -0.0012817744 0.00982324
0001f0 b3 66 6b 3c 6b d1 19 3b cf f5 ba 3a a6 6c c5 bb
       0.014367747 0.002347077 0.001426393 -0.006024915
000200 a2 e5 76 bb d4 19 32 3c 89 71 18 bc f9 2a b5 3c
       -0.0037673493 0.010870416 -0.009304413 0.022115218
000210 12 82 f7 bb d7 5a 53 bc 00 42 fd 3b fd 58 f3 ba
       -0.0075533474 -0.012900076 0.007728815 -0.0018565949
000220 12 26 9c 3b 4a bf ab ba 50 3f 37 bc f1 7d a3 bc
       0.0047652805 -0.0013103273 -0.0111845285 -0.019957514
000230 2f 8a e6 3b 2a 3a ff bb e2 dc e5 bb c4 48 6c 3c
       0.0070355157 -0.007788916 -0.0070148567 0.014421646
000240 00 26 4f 3c af 54 95 3b df 31 73 3c c7 95 a1 3b
       0.012643337 0.004557214 0.014843433 0.004931185
000250 c4 4b 98 bb 3e af ae bb 40 e6 ab bb d8 f8 f8 3b
       -0.004647704 -0.005330949 -0.005245954 0.007598024
000260 32 f9 09 bc 19 b4 96 39 46 80 2d 3b 4c 06 2a 3c
       -0.008421229 0.00028744413 0.0026474162 0.010377478
000270 80 56 35 3a 1f 5c 8e 3b 15 21 03 3c 71 23 8b 3c
       0.00069174916 0.004344478 0.008003493 0.016984673
000280 de df b0 3a 4f 79 a9 bb 6e 4d 84 3c e1 3e b1 3c
       0.0013494452 -0.005171932 0.016150203 0.021636428
000290 e0 bb 2c bb ff 0f 44 3c 4a cd b5 ba 92 81 07 3c
       -0.00263571 0.011966704 -0.0013870385 0.008270638
0002a0 bf b1 10 3b 9c d5 92 3b 97 23 40 3b 02 0f 42 3c
       0.0022078601 0.0044810306 0.0029318088 0.011844398
0002b0 b3 47 54 ba 7f ae cf 3b b7 88 7d b8 8a 61 9f ba
       -0.0008097842 0.00633794 -6.0447226e-05 -0.0012159806
0002c0 f2 cc ac bb d3 8d db 3a 1f a5 76 3c 56 3d 14 3c
       -0.005273455 0.0016750641 0.015054016 0.009047827
0002d0 ab c9 a2 3b 74 bd ad bc 4b 06 26 3b 8b 47 29 3c
       0.0049678884 -0.021208502 0.002533334 0.010331999
0002e0 c6 23 b9 3a 85 b9 2e bb a3 8b 1c 3b 4a 41 08 bb
       0.0014125041 -0.0026660871 0.002388694 -0.0020790868
0002f0 8b 56 9a 3c f7 a9 19 3b 3c 85 0b b9 fd eb 67 bc
       0.018840095 0.0023447254 -0.00013305707 -0.014155385
000300 09 ac 9c 3c 95 9e 99 bc 19 74 10 3b 1d 5f 27 3b
       0.019125002 -0.018752376 0.0022041856 0.002553887
000310 62 c2 64 3b d7 02 d4 ba 36 58 ae 3b f2 8d 77 bc
       0.00349059 -0.0016175163 0.005320574 -0.015109526
000320 f7 22 88 bc 08 f0 0e bc e3 cc 3a 3c 55 50 42 3c
       -0.016618235 -0.00872422 0.011401388 0.011859973
000330 b2 48 68 3c 0d 65 e1 3b 4c 6e 90 3a 95 60 95 bb
       0.014177488 0.0068785013 0.0011019199 -0.0045586326
000340 1e 81 f6 bb 51 2e f4 bb 50 3e 06 3c 35 b3 6c 3b
       -0.007522716 -0.0074518104 0.008193567 0.0036117558
000350 60 e4 fb b9 cc fe 33 bc 30 b0 e8 3b ce 4c 54 3c
       -0.00048044603 -0.010986041 0.0071010813 0.012957765
000360 09 01 81 bb 11 31 17 3b 76 d4 2f 3a 6a cd 08 bc
       -0.003936891 0.0023070017 0.00067073794 -0.008349756
000370 b8 12 9a 3b 0f ba 11 ba 37 45 56 38 6b 05 99 3a
       0.0047019385 -0.0005559036 5.1086037e-05 0.0011674588
000380 93 74 68 bc ed 1e 98 3b 6d 8b 88 3c 80 74 ac bb
       -0.01418795 0.0046423585 0.016668046 -0.0052629113
000390 c4 ab d3 3b 83 fa b0 3b 7f 8e ed ba a5 7f 6e 3b
       0.006459685 0.005400957 -0.0018124132 0.0036392
0003a0 b4 c6 ec ba be d6 c6 3b 3a 79 f6 b7 80 5b a4 3c
       -0.0018064589 0.0060680797 -2.9381936e-05 0.020063162
0003b0 a0 9f 7c bc 96 bb 87 3b 8b 4c 4e 3c 06 ad 9c bb
       -0.015418917 0.004142235 0.012591491 -0.004781368
0003c0 94 70 12 3c cb fa d7 3b 83 a5 66 bb ce 88 2d 3b
       0.0089379735 0.006591176 -0.0035193868 0.0026479247
0003d0 fc ff 06 bc 89 39 34 bb 17 3a 4c 3c 6f ec 89 3c
       -0.008239742 -0.0027500114 0.012465022 0.016836373
0003e0 17 7e 1e 3c f5 da 40 3c 77 dd d8 bb c4 06 bb ba
       0.009673617 0.011770953 -0.0066181975 -0.0014268984
0003f0 e7 33 6c 3c ad d8 57 bb 3e d7 3f 3c b9 0f 72 3b
       0.014416671 -0.0032935545 0.011709033 0.003693564

action_model._discrete_distribution.branches.1.bias f4 [6]
000000 32 b6 c0 31 37 71 2a 3b 90 7a e6 ba 3b 7a 92 b9
       5.6086487e-09 0.0026007423 -0.0017584134 -0.0002793836
000010 1a 71 a8 34 cd df 65 34
       3.137473e-07 2.1408705e-07

action_model._discrete_distribution.branches.2.weight f4 [6, 128]
000000 a7 b1 8f bc c0 6f 13 3c d9 92 98 3c 3f 30 71 3c
       -0.017540766 0.008998811 0.01862471 0.014720975
000010 40 c5 cf bb 3b 41 18 3c eb e0 83 bb 6e 96 11 3c
       -0.0063406527 0.009292896 -0.004024615 0.008885963
000020 9f 02 0a bc 33 c4 86 3b 3e ca 85 3c 80 ce 25 bc
       -0.0084234765 0.0041127442 0.016331788 -0.010120034
000030 8b 90 42 3c d4 a5 00 3b d0 4b b2 bb c2 6a 73 3b
       0.011875282 0.0019630091 -0.0054411665 0.003714249
000040 27 43 bb bb 5a 1c 0f 3c bf 91 d6 bb 67 af c8 3b
       -0.0057147923 0.008734787 -0.006548136 0.006124425
000050 75 73 8a 3c 87 44 75 3b b8 f4 86 bb 75 12 3f 3b
       0.016900757 0.0037424879 -0.004118528 0.0029155288
000060 2f e6 6c 3c f5 46 15 bc e6 ac b5 bb eb c4 ff b8
       0.014459177 -0.009111156 -0.0055442927 -0.000121960264
000070 2d 3a 17 3c 85 da 80 3b a9 26 31 3c ac 71 1a 3c
       0.009230179 0.0039322996 0.01081244 0.009426516
000080 95 2c 63 bc bb 84 54 3b fb 9c 98 bb 86 f8 c5 3b
       -0.01386561 0.0032427746 -0.0046573854 0.006041589
000090 f7 3c 15 b9 ea eb 63 bb d7 90 89 3c 4f 3c 2e 3c
       -0.00014232458 -0.0034778067 0.016792698 0.010634496
0000a0 18 9e 66 3b 98 9b 2c 3c 1f 9b 29 bb 35 93 93 3c
       0.0035189446 0.010535143 -0.0025879813 0.01801453
0000b0 7e 9d 86 bb a5 e7 87 3c 14 b1 04 3c f8 cd a1 3b
       -0.00410813 0.016589949 0.008098859 0.0049378835
0000c0 5b 92 3e 3c f0 f4 e8 3b 37 b4 47 3a 14 1a ba bb
       0.011631574 0.007109277 0.00076181017 -0.0056793783
0000d0 13 42 88 3c 20 23 b5 3b f2 71 0b 3c 08 64 e9 bb
       0.01663307 0.005527869 0.008511053 -0.0071225204
0000e0 47 3a f0 bb 66 3d 92 3c ad 66 31 3c 23 ea a4 bb
       -0.007331166 0.017851543 0.0108277025 -0.005032794
0000f0 84 8c 8c ba 3b 0b 6e bc c2 f7 09 bb 82 2a fd ba
       -0.0010723029 -0.014529045 -0.0021052216 -0.0019315036
000100 df a0 36 3c f3 ae b8 bb db e6 3c bb 52 1c 68 3b
       0.011146753 -0.00563609 -0.0028824124 0.003541727
000110 4d ef 59 bc c2 89 6e bb 51 bb 36 3c bd e1 31 bc
       -0.013301683 -0.0036398028 0.011153058 -0.010857043
000120 55 b3 53 bb bb b8 c8 bb 7f 1a fd ba e1 83 28 bc
       -0.0032302935 -0.006125537 -0.0019310265 -0.010285349
000130 4b 12 25 3b 7a 6e 84 bc 4b 52 57 3b b3 43 96 3c
       0.0025187905 -0.01616596 0.0032855447 0.018342828
000140 df 2f 31 3a 82 30 17 3c 77 27 90 ba 49 7c b6 ba
       0.00067591475 0.009227874 -0.001099809 -0.0013922538
000150 df e3 7b 3b 2f 61 68 bc 9d 08 3c 3c 1e c7 47 3c
       0.0038435382 -0.014183327 0.011476663 0.012193469
000160 91 11 21 bc 19 34 0a bc 0f fd d5 3b e8 9d 18 bc
       -0.009830848 -0.008435273 0.006530411 -0.0093149915
000170 77 3b 03 bc ff d8 14 3c 17 62 51 bc 48 0a 57 bb
       -0.008009783 0.009084939 -0.012779734 -0.0032812525
000180 e8 99 7e 3c 9f b6 96 3b 76 2f 3b 3c e3 1f 80 3c
       0.015539624 0.004599407 0.01142489 0.015640205
000190 50 71 fc bb f1 30 9a b9 57 60 69 bb 47 ca ee bb
       -0.0077039376 -0.00029409633 -0.0035610402 -0.007287297
0001a0 0d 37 df b9 41 bc 81 bc 5f 7d df 3b 9d 61 f8 ba
       -0.0004257489 -0.015836837 0.0068203653 -0.001894999
0001b0 4e e1 ac 3c 55 be 69 3c 1a da 42 bc f5 17 25 bc
       0.021103527 0.01426657 -0.01189282 -0.010076513
0001c0 2a 0c 3d 3c ef 13 62 bc 68 fe 73 bc af 2a 22 3c
       0.011538545 -0.013798698 -0.014892198 0.009897872
0001d0 08 5b 30 3c 40 34 fe bb 0b 35 1f 3c c0 d0 cd 3c
       0.010763891 -0.0077576935 0.009717236 0.025123954
0001e0 65 7c 25 3a 91 96 3e bc ac 8a 02 3b 8f 27 23 3b
       0.0006312787 -0.0116325775 0.001991908 0.0024895405
0001f0 e4 c5 91 3b 90 66 99 bc 0b a7 bd bb fd 4a e8 3b
       0.004448639 -0.018725663 -0.0057877353 0.0070890174
000200 d8 b0 73 bc 00 b1 66 bc c7 99 f0 3a 18 a1 99 bc
       -0.014873706 -0.014080286 0.0018356376 -0.018753573
000210 e9 17 30 bc 01 ba 42 3b e0 bc 83 bb 3b 0e 3e bc
       -0.010747888 0.0029712918 -0.0040203184 -0.0116000725
000220 63 3f 85 3b ec 1a a6 bb f3 bb 08 3b 5a cf b5 39
       0.004066394 -0.0050691273 0.002086398 0.000346775
000230 6d 19 09 bb 76 f2 88 b9 d3 c5 53 3b eb 92 e2 3b
       -0.0020919696 -0.0002612059 0.0032313957 0.0069144866
000240 12 c0 08 bb b7 5f 1a 3c 2e 20 af bb 2f 80 f8 3a
       -0.0020866436 0.009422234 -0.0053444123 0.00189591
000250 6a 51 f5 3b 2b 4b 4e 3c 94 c3 8c 3c df 44 05 3c
       0.007486512 0.012591164 0.017183103 0.008134096
000260 57 d3 72 3b ed 3e c4 bb ed e9 6d 3b 91 bb 22 bb
       0.0037052238 -0.0059889467 0.003630276 -0.0024831037
000270 3e fc 18 3a 68 97 2f 3c 15 68 99 bb 15 23 b1 ba
       0.0005835927 0.01071725 -0.004681597 -0.0013514484
000280 25 ce db bc 66 02 31 bb 13 82 3f bc 48 5b d2 bb
       -0.026831696 -0.0027009486 -0.011688727 -0.006419573
000290 6b 5c c2 bc df ed 6d bb d0 17 5b 3c 1c 1d 07 bc
       -0.023725709 -0.0036305112 0.013372377 -0.008246686
0002a0 8b aa e7 3b 0b 42 d6 3a ae 83 0c bc 14 c4 01 3c
       0.007069891 0.0016346587 -0.008576317 0.007920284
0002b0 ca 0b 98 3b 4c f3 3a bc 37 be d7 3b 08 fd 56 bb
       0.0046400772 -0.011410546 0.0065839547 -0.0032804627
0002c0 b2 fa 5f bb 67 f5 48 b9 f7 a2 78 bc 5b 1a f6 3a
       -0.0034176526 -0.00019164906 -0.015175573 0.0018776165
0002d0 fa 1a fe bb ab 13 85 3b 23 ec 41 bc b3 f1 46 3c
       -0.0077546807 0.0040611825 -0.011836085 0.0121425865
0002e0 e7 f0 18 bc 2a 4b c6 3b b7 27 3c 3c 0b 06 74 3c
       -0.009334779 0.0060514407 0.011484078 0.014894019
0002f0 6d 50 8d 3b a2 9a 9e bb bb 82 aa 3b 2c 5c bd bb
       0.004312566 -0.004840211 0.0052035726 -0.00577881
000300 9d 57 85 3c 0b 1b a3 3b 4d fe 28 bc af d8 17 3b
       0.016277129 0.004977589 -0.010314536 0.0023169925
000310 4a 5d 3d 3c 67 70 42 bb 15 0c 4d bb e7 a8 4d bc
       0.011557886 -0.0029669048 -0.003128772 -0.0125524765
000320 62 f3 6e 3b 8a 32 50 bc cf ff eb ba 14 f7 0a bc
       0.0036460985 -0.012707362 -0.0018005314 -0.00848176
000330 b4 78 a9 3c 67 a5 11 bc c2 9c 52 3b 0e 1c 96 3b
       0.020687439 -0.008889533 0.0032136892 0.004580981
000340 4c a5 27 3b cf 64 ab bc c2 f7 11 3c e7 55 13 3a
       0.0025580702 -0.020922093 0.008909168 0.00056204054
000350 f4 f4 2d 3b b1 04 a4 ba 04 ec 28 3c ef 78 9c 3b
       0.0026543709 -0.0012513605 0.010310177 0.0047751586
000360 08 6a 13 3c f0 b8 0b bc 05 a6 58 bb 63 76 2f ba
       0.008997448 -0.008527979 -0.003305794 -0.0006693361
000370 00 fd 65 ba fa f8 11 3c 0d dd 0e bc 55 bd e4 3b
       -0.00087733567 0.008909458 -0.008719695 0.006980578
000380 a0 fd c5 3a 86 96 07 b9 df f9 27 bc 7d 31 63 3b
       0.0015105493 -0.00012930678 -0.010252445 0.0034666948
000390 e5 ce 37 3b 00 07 3a ba ec 8c 88 ba a8 a9 8a 3c
       0.0028046903 -0.000709638 -0.0010417975 0.016926602
0003a0 1a 94 75 bc 4f 35 28 bc 8b 2a d9 bb 02 d3 f6 3b
       -0.014988923 -0.010266616 -0.006627386 0.0075324783
0003b0 35 ae cc bb f4 d1 40 3c fe 55 a9 bb 56 6b a1 3b
       -0.006246353 0.011768807 -0.005167722 0.0049261255
0003c0 4f e6 19 bc 4c 10 4c bb 33 22 e4 3b 03 1e 1a bc
       -0.009393289 -0.0031137643 0.0069620847 -0.009406569
0003d0 4a 1d 1e 3b 57 de d4 bb db 31 1f bb 44 c7 4a 3b
       0.0024126344 -0.0064962315 -0.002429119 0.0030941525
0003e0 6e 4d c0 3b 3b 10 27 bc b4 fe 0f bb 47 f0 76 3b
       0.0058686053 -0.010196741 -0.0021971883 0.0037679838
0003f0 aa 83 5e 3c f1 9b 91 3b 3b 91 9c 3a cd c1 09 bc
       0.013581196 0.0044436385 0.0011945138 -0.008408022

action_model._discrete_distribution.branches.2.bias f4 [6]
000000 00 00 00 00 67 e3 1e 1b a6 7b 86 06 64 64 b4 0f
       0.0 1.3142931e-22 5.058688e-35 1.778804e-29
000010 0d 16 fe 12 4a 84 11 1c
       1.603509e-27 4.8147455e-22

exp_avg f4 [128, 45]
000000 d6 49 78 b5 d3 be f2 32 41 64 56 35 d0 e0 0c 38
       -9.2494645e-07 2.8259285e-08 7.98671e-07 3.3587974e-05
000010 24 56 e2 2a d4 4b ad 37 c5 02 59 b6 24 56 62 2a
       4.0205437e-13 2.0658517e-05 -3.2337132e-06 2.0102718e-13
000020 97 dd c4 37 00 00 00 00 81 33 09 38 8f a0 8f 38
       2.3468207e-05 0.0 3.2711312e-05 6.848678e-05
000030 e2 9f a1 38 00 20 2b 38 ac 04 c5 37 81 33 09 38
       7.706859e-05 4.079938e-05 2.3486406e-05 3.2711312e-05
000040 00 00 00 00 3c 72 86 38 b7 9b 7e 38 32 12 98 38
       0.0 6.410896e-05 6.070334e-05 7.251314e-05
000050 cf dc 1d 38 8f a0 8f 38 3c 72 86 38 00 00 00 00
       3.763736e-05 6.848678e-05 6.410896e-05 0.0
000060 33 fc db 37 80 7b aa 38 10 1d 41 38 e2 9f a1 38
       2.6224274e-05 8.129235e-05 4.6041852e-05 7.706859e-05
000070 b7 9b 7e 38 33 fc db 37 00 00 00 00 80 8c d1 38
       6.070334e-05 2.6224274e-05 0.0 9.992067e-05
000080 4a 43 77 38 00 20 2b 38 32 12 98 38 80 7b aa 38
       5.8952057e-05 4.079938e-05 7.251314e-05 8.129235e-05
000090 80 8c d1 38 00 00 00 00 dd df 33 38 ac 04 c5 37
       9.992067e-05 0.0 4.2885415e-05 2.3486406e-05
0000a0 cf dc 1d 38 10 1d 41 38 4a 43 77 38 dd df 33 38
       3.763736e-05 4.6041852e-05 5.8952057e-05 4.2885415e-05
0000b0 00 00 00 00 80 4b b2 b3 c7 79 ef 31 86 15 9b 33
       0.0 -8.302504e-08 6.96966e-09 7.221665e-08
0000c0 1a 8a 12 37 2a 78 eb 29 dd 46 b4 36 df 69 61 b5
       8.734432e-06 1.04569416e-13 5.3726676e-06 -8.3973094e-07
0000d0 2a 78 6b 29 37 cf cc 36 00 00 00 00 ba e8 0e 37
       5.2284708e-14 6.1037967e-06 0.0 8.518045e-06
0000e0 35 9a 95 37 3e 59 a8 37 84 3e 32 37 f5 36 cd 36
       1.7833992e-05 2.0068717e-05 1.0624182e-05 6.115874e-06
0000f0 ba e8 0e 37 00 00 00 00 21 0a 8c 37 b0 99 84 37
       8.518045e-06 0.0 1.6694017e-05 1.5807193e-05
000100 c6 65 9e 37 17 6e 24 37 35 9a 95 37 21 0a 8c 37
       1.888246e-05 9.800794e-06 1.7833992e-05 1.6694017e-05
000110 00 00 00 00 1c 23 e5 36 2e 93 b1 37 c5 25 49 37
       0.0 6.828819e-06 2.116858e-05 1.19893275e-05
000120 3e 59 a8 37 b0 99 84 37 1c 23 e5 36 00 00 00 00
       2.0068717e-05 1.5807193e-05 6.828819e-06 0.0
000130 44 44 da 37 5d c6 80 37 84 3e 32 37 c6 65 9e 37
       2.6019414e-05 1.535116e-05 1.0624182e-05 1.888246e-05
000140 2e 93 b1 37 44 44 da 37 00 00 00 00 94 5b 3b 37
       2.116858e-05 2.6019414e-05 0.0 1.1167391e-05
000150 f5 36 cd 36 17 6e 24 37 c5 25 49 37 5d c6 80 37
       6.115874e-06 9.800794e-06 1.19893275e-05 1.535116e-05
000160 94 5b 3b 37 00 00 00 00 59 91 d3 ae 33 1a ab 31
       1.1167391e-05 0.0 -9.620988e-11 4.9797335e-09
000170 0f 04 0a 31 5b 34 cb 36 16 59 a3 29 69 20 7a 36
       2.008395e-09 6.0559664e-06 7.254108e-14 3.7271768e-06
000180 30 81 1b b5 16 59 23 29 23 14 8e 36 00 00 00 00
       -5.792999e-07 3.627054e-14 4.234274e-06 0.0
000190 01 1e c7 36 76 71 50 37 fc 8f 6a 37 9c 59 f8 36
       5.934155e-06 1.2424183e-05 1.3981011e-05 7.401408e-06
0001a0 df f6 8e 36 01 1e c7 36 00 00 00 00 7b 1e 43 37
       4.2606694e-06 5.934155e-06 0.0 1.16300025e-05
0001b0 fe c0 38 37 99 b2 5c 37 42 1a e5 36 76 71 50 37
       1.1012189e-05 1.3154605e-05 6.8277886e-06 1.2424183e-05
0001c0 7b 1e 43 37 00 00 00 00 43 a1 9f 36 eb 6a 77 37
       1.16300025e-05 0.0 4.7573426e-06 1.4747241e-05
0001d0 85 21 0c 37 fc 8f 6a 37 fe c0 38 37 43 a1 9f 36
       8.352455e-06 1.3981011e-05 1.1012189e-05 4.7573426e-06
0001e0 00 00 00 00 94 0e 98 37 7f 6c 33 37 9c 59 f8 36
       0.0 1.81266e-05 1.0694493e-05 7.401408e-06
0001f0 99 b2 5c 37 eb 6a 77 37 94 0e 98 37 00 00 00 00
       1.3154605e-05 1.4747241e-05 1.81266e-05 0.0
000200 27 86 02 37 df f6 8e 36 42 1a e5 36 85 21 0c 37
       7.779839e-06 4.2606694e-06 6.8277886e-06 8.352455e-06
000210 7f 6c 33 37 27 86 02 37 00 00 00 00 d6 0c 67 b5
       1.0694493e-05 7.779839e-06 0.0 -8.6072885e-07
000220 dd 46 27 33 1b 27 47 35 0c ff 43 38 02 74 1d 2b
       3.8947167e-08 7.4190183e-07 4.6729154e-05 5.59386e-13
000230 9b 19 f1 37 7e e4 96 b6 02 74 9d 2a 8e f3 08 38
       2.8741362e-05 -4.4969483e-06 2.79693e-13 3.2651755e-05
000240 00 00 00 00 24 f6 3e 38 ce e7 c7 38 70 f4 e0 38
       0.0 4.5528766e-05 9.5322364e-05 0.000107266824
000250 82 2d 6e 38 ca 1b 09 38 24 f6 3e 38 00 00 00 00
       5.6786004e-05 3.2689226e-05 4.5528766e-05 0.0
000260 82 20 bb 38 ba 2f b1 38 74 a8 d3 38 01 b8 5b 38
       8.92291e-05 8.4489075e-05 0.00010092641 5.2385036e-05
000270 ce e7 c7 38 82 20 bb 38 00 00 00 00 71 17 19 38
       9.5322364e-05 8.92291e-05 0.0 3.6499874e-05
000280 94 48 ed 38 28 64 86 38 70 f4 e0 38 ba 2f b1 38
       0.000113145594 6.4082735e-05 0.000107266824 8.4489075e-05
000290 71 17 19 38 00 00 00 00 2c d4 11 39 1b 13 ac 38
       3.6499874e-05 0.0 0.00013907318 8.205158e-05
0002a0 82 2d 6e 38 74 a8 d3 38 94 48 ed 38 2c d4 11 39
       5.6786004e-05 0.00010092641 0.000113145594 0.00013907318
0002b0 00 00 00 00 0a 5b 7a 38 ca 1b 09 38 01 b8 5b 38
       0.0 5.968943e-05 3.2689226e-05 5.2385036e-05
0002c0 28 64 86 38 1b 13 ac 38 0a 5b 7a 38 00 00 00 00
       6.4082735e-05 8.205158e-05 5.968943e-05 0.0
0002d0 7e a3 53 2f 57 2f 00 22 22 99 37 af 7d 48 c4 2e
       1.9248422e-10 1.7372296e-18 -1.6698157e-10 8.9259246e-11
0002e0 57 2f 00 22 f9 49 48 af 12 b0 75 ad 57 2f 80 21
       1.7372296e-18 -1.8216174e-10 -1.3965733e-11 8.686148e-19
0002f0 03 fd de 2e 00 00 00 00 f0 76 1b 2f fa be a2 2f
       1.0140335e-10 0.0 1.4139423e-10 2.9603325e-10
000300 9b 23 b7 2f 76 e7 41 2f 7f 3e df 2e f0 76 1b 2f
       3.3312805e-10 1.7635479e-10 1.01519675e-10 1.4139423e-10
000310 00 00 00 00 c8 57 98 2f 09 40 90 2f 5b 50 ac 2f
       0.0 2.771101e-10 2.6238947e-10 3.1343714e-10
000320 52 e0 32 2f fa be a2 2f c8 57 98 2f 00 00 00 00
       1.62687e-10 2.9603325e-10 2.771101e-10 0.0
000330 ad 44 f9 2e 12 2d c1 2f da d1 5a 2f 9b 23 b7 2f
       1.1335408e-10 3.513852e-10 1.9901539e-10 3.3312805e-10
000340 09 40 90 2f ad 44 f9 2e 00 00 00 00 58 71 ed 2f
       2.6238947e-10 1.1335408e-10 0.0 4.3190584e-10
000350 ac 16 8c 2f 76 e7 41 2f 5b 50 ac 2f 12 2d c1 2f
       2.548196e-10 1.7635479e-10 3.1343714e-10 3.513852e-10
000360 58 71 ed 2f 00 00 00 00 80 d1 4b 2f 7f 3e df 2e
       4.3190584e-10 0.0 1.8537172e-10 1.01519675e-10
000370 52 e0 32 2f da d1 5a 2f ac 16 8c 2f 80 d1 4b 2f
       1.62687e-10 1.9901539e-10 2.548196e-10 1.8537172e-10
000380 00 00 00 00 00 00 00 00 00 00 00 00 00 00 00 00
       0.0 0.0 0.0 0.0
000390 00 00 00 00 00 00 00 00 00 00 00 00 00 00 00 00
       0.0 0.0 0.0 0.0
0003a0 00 00 00 00 00 00 00 00 00 00 00 00 00 00 00 00
       0.0 0.0 0.0 0.0
0003b0 00 00 00 00 00 00 00 00 00 00 00 00 00 00 00 00
       0.0 0.0 0.0 0.0
0003c0 00 00 00 00 00 00 00 00 00 00 00 00 00 00 00 00
       0.0 0.0 0.0 0.0
0003d0 00 00 00 00 00 00 00 00 00 00 00 00 00 00 00 00
       0.0 0.0 0.0 0.0
0003e0 00 00 00 00 00 00 00 00 00 00 00 00 00 00 00 00
       0.0 0.0 0.0 0.0
0003f0 00 00 00 00 00 00 00 00 00 00 00 00 00 00 00 00
       0.0 0.0 0.0 0.0
