results/Run-d1/TrucksBehavior/TrucksBehavior-192.pt (torch, 198695 bytes, 16 tensors)

discrete_act_size_vector f4 [1, 3]
0	0x40c00000	6.0
1	0x40c00000	6.0
2	0x40c00000	6.0

network_body._body_endoder.seq_layers.0.weight f4 [128, 45]
0	0x3d329a7f	0.04360437
1	0x3daa2d64	0.08309439
2	0xbd316b88	-0.04331544
3	0xbd78861c	-0.06067477
4	0x3e872750	0.2639718
5	0xba8946a3	-0.0010473322
6	0xbde15a69	-0.110035725
7	0xbddd9af2	-0.10820569
8	0x3e9543dd	0.29153338
9	0xbe0f2ad4	-0.13981181
10	0xbe607cfb	-0.21922676
11	0xbc8cefc8	-0.01720418
12	0x3e054485	0.1301442
13	0xbe1234d3	-0.14277963
14	0x3e955b05	0.29171005
15	0xbcf012eb	-0.029305896
16	0xbc2708b4	-0.010194946
17	0xbe1f51d6	-0.15558562
18	0x3cdaaf06	0.026694786
19	0xbdb40a8b	-0.087910734
20	0x3dc1e28b	0.09467038
21	0xbd836f33	-0.06417694
22	0xbdb41492	-0.08792986
23	0xbca2c019	-0.01986699
24	0x3e3d64ae	0.18495438
25	0xbd72469e	-0.059149377
26	0xbe2dc3da	-0.16969243
27	0x3c8fac50	0.01753822
28	0xbe1e942f	-0.15486215
29	0xbc9de689	-0.019274967
30	0x3d547b96	0.051875673
31	0x3d244d9b	0.040113073
32	0x3d79cb91	0.06098515
33	0xbe71ab52	-0.2360051
34	0x3e918fd2	0.2843004
35	0x3d82e515	0.0639135
36	0xbec68f72	-0.38781315
37	0x3d88e6a6	0.06684618
38	0x3cc63c74	0.024198748
39	0x3e70f183	0.2352963
40	0x3e833fff	0.25634763
41	0xbd375c1b	-0.044765573
42	0x3e2d0f7a	0.16900435
43	0x3da8ee2c	0.08248553
44	0x3e69b9fa	0.2282485
45	0x3cb2d4a3	0.021829909
46	0xbd819265	-0.06326751
47	0x3d027bee	0.03185647
48	0xbe81130d	-0.25209847
49	0x3deca39f	0.11554646
50	0xbdadb6b5	-0.08482114
51	0x3e16a3bb	0.14710896
52	0xbe1848b9	-0.14871491
53	0x3e3bca4c	0.18338889
54	0xbd5ef188	-0.05442956
55	0x3e9d590e	0.30732006
56	0xbe04655a	-0.12929288
57	0x3b298eca	0.0025872462
58	0x3d19e2c4	0.037569776
59	0xbdccb53c	-0.09995505
60	0x3dda9035	0.106720366
61	0x3ca06a85	0.019582042
62	0xbdafa9ab	-0.085772835
63	0x3d483427	0.04887786
64	0x3d850ee1	0.064969786
65	0x3dace7cf	0.084426515
66	0x3ea1188b	0.31464037
67	0x3d9b50e0	0.07583785
68	0x3d8e508d	0.069489576
69	0x3e7c3869	0.24630894
70	0xbe048fbe	-0.12945458
71	0xbe0255b0	-0.12728
72	0xbee1b1ac	-0.44080865
73	0x3cfca1e2	0.03083891
74	0x3e252939	0.16129006
75	0xbea8d9de	-0.3297872
76	0xbe0bc05b	-0.13647597
77	0x3d040fd0	0.032241642
78	0xbd1921c4	-0.037385717
79	0x3d409cef	0.047024664
80	0xbb9b9e0c	-0.0047490653
81	0x3ddf2e40	0.10897493
82	0x3e8c6f17	0.27428505
83	0x3e3504d9	0.1767763
84	0xbd061d6f	-0.032742914
85	0x3cde0a48	0.027104512
86	0x3d5f8564	0.05457057
87	0xbd7806ad	-0.06055324
88	0xbe029d67	-0.12755357
89	0xbdbaf60e	-0.091289625
90	0x3dbb5c00	0.09148407
91	0xbdec3833	-0.11534157
92	0x3cd1fe9e	0.025634106
93	0xbce53623	-0.027979916
94	0x3e272873	0.16324024
95	0xbe13f58e	-0.1444914
96	0xbd80a59f	-0.0628159
97	0xbd43b2be	-0.047777884
98	0x3ca610b3	0.020271635
99	0x3e925970	0.2858386
100	0x3d4e2b43	0.050334226
101	0xbc55c104	-0.013046507
102	0x3d1831e0	0.03715694
103	0xbe4107bb	-0.18850605
104	0xbcf0e42f	-0.029405681
105	0xbc500979	-0.012697571
106	0x3e5a2a67	0.21305238
107	0x3dc384f9	0.09546847
108	0xbe8868c6	-0.26642436
109	0xbe051031	-0.12994458
110	0xbe089aeb	-0.13340347
111	0x3d5aaba5	0.05338635
112	0xbe455246	-0.19269666
113	0xbe0587b4	-0.13040048
114	0xbdb06abd	-0.08614109
115	0xbdc90ae0	-0.09816527
116	0x3d61dce3	0.055142295
117	0x3d1cc71b	0.03827582
118	0x3c08e63e	0.008355675
119	0x3e0742bc	0.13209051
120	0xbd29c4ea	-0.041447558
121	0x3e23dd56	0.16002402
122	0x3b1e3491	0.0024140219
123	0xbcecaad8	-0.028890058
124	0x3e10ae95	0.14129098
125	0xbc94e741	-0.018176677
126	0x3d9ea929	0.077471085
127	0x3ea6dbc4	0.32589543
128	0x3e1b013d	0.15137191
129	0x3e415257	0.18879066
130	0xbe2dcd42	-0.16972831
131	0xbcc9de95	-0.024642268
132	0xbdf5ae05	-0.11996082
133	0x3e64a5e3	0.22328906
134	0xbe16bbdf	-0.14720105
135	0xbe3b477e	-0.18288991
136	0x3decee58	0.11568898
137	0x3eadb407	0.33926412
138	0xbd48a94b	-0.048989575
139	0xbe0ad074	-0.13556081
140	0xbd780ef8	-0.06056115
141	0x3d431b93	0.04763372
142	0x3dfedc41	0.12444354
143	0x3ce0b7ca	0.027431387
144	0xbd201eb4	-0.03909178
145	0x3dbcf24d	0.09225903
146	0x3df54119	0.11975307
147	0x3e165762	0.14681771
148	0xbc19d5dd	-0.009389368
149	0xbe5baaec	-0.2145192
150	0xbe0d933a	-0.13825694
151	0xbc874a08	-0.016514793
152	0x3e9f229f	0.310811
153	0x3d39dbf1	0.045375768
154	0xbe4774d7	-0.19478165
155	0x3d25dbea	0.04049293
156	0x3e5fb5fc	0.21846765
157	0xbd8e727d	-0.06955431
158	0x3e01af0e	0.12664434
159	0x3e3f00c5	0.18652637
160	0xbda7fb35	-0.08202211
161	0x3ddbaf9f	0.107268564
162	0x3dfad2b7	0.12247222
163	0xbce77bc9	-0.028257268
164	0xbe0d00df	-0.13769864
165	0x3e264cb7	0.16240202
166	0x3e34342d	0.17598028
167	0xbd2749c5	-0.040841836
168	0x3cafed16	0.021475356
169	0x3eac77bc	0.336851
170	0x3e03c567	0.12868272
171	0xbd47de55	-0.048796017
172	0xbdc24820	-0.09486413
173	0xbe875c9d	-0.26437846
174	0x3e2ec893	0.170687
175	0x3d9abb70	0.07555282
176	0x3e294c6d	0.1653306
177	0x3c903afd	0.017606253
178	0x3e372ccd	0.17888184
179	0x3db02fa5	0.086028375
180	0xbe83f548	-0.25773072
181	0xbdd28386	-0.10278992
182	0x3e44b9ff	0.19211577
183	0xbe1350da	-0.14386311
184	0x3e129d13	0.14317732
185	0xbd9c0a7d	-0.07619188
186	0xbe7c5a44	-0.24643809
187	0xbd9f8c2a	-0.07790406
188	0xbd6a7e6b	-0.057249468
189	0xbe51927b	-0.20466034
190	0x3e13e97b	0.14444534
191	0xbc1d32f9	-0.009594672
192	0xbd4e792a	-0.05040852
193	0xbe1baec8	-0.15203393
194	0x3d52d0a6	0.051468514
195	0x3c40e5db	0.011773552
196	0x3bd83171	0.0065976907
197	0x3c95ea68	0.01830025
198	0x3a051830	0.00050771516
199	0xbd74c15e	-0.05975472
200	0x3e13ab7c	0.14420885
201	0xbe6e0e3e	-0.2324762
202	0xbdbfb73c	-0.09361121
203	0xbb3bd1fd	-0.0028659098
204	0xbe3900ac	-0.18066663
205	0x3dca6ae6	0.098836705
206	0xbda3d4a9	-0.07999546
207	0xbd17f884	-0.037102237
208	0xbcb14716	-0.021640342
209	0x3d189517	0.03725156
210	0xbe268b9f	-0.16264199
211	0xbd883095	-0.06649891
212	0x3e060fee	0.13092014
213	0x3c51681d	0.01278117
214	0x3e3f7a8b	0.1869909
215	0xbda4c0d5	-0.08044592
216	0xbd9e8d2b	-0.077417694
217	0x3cb4046d	0.021974767
218	0xbe1928c5	-0.14956959
219	0x3a6b0739	0.0008965615
220	0x3d117bda	0.035518505
221	0x3cbff3b0	0.023431629
222	0xbd331768	-0.043723494
223	0x3e21b3c7	0.15791236
224	0xbdf5256a	-0.11970027
225	0xbe832e33	-0.25621185
226	0x3e4a2cec	0.19743699
227	0xbe5f7706	-0.21822748
228	0x3e4cb45d	0.19990678
229	0x3e6412a9	0.22272743
230	0xbdcc5788	-0.09977633
231	0xbe05fbfb	-0.13084404
232	0xbe0aabba	-0.13542071
233	0x3e1808cf	0.1484711
234	0x3da02e25	0.07821301
235	0x3da031eb	0.07822021
236	0x3eb683ba	0.35647374
237	0xbe20de0c	-0.15709704
238	0x3e601c46	0.21885785
239	0x3e0484c9	0.12941279
240	0x3de71cf5	0.1128482
241	0x3cadfcb9	0.021238672
242	0x3df3a3e8	0.11896497
243	0x3cc598ff	0.024120806
244	0xbdd5a7e1	-0.10432411
245	0xbe281f0d	-0.16418095
246	0x3de13cec	0.10997948
247	0x3dde9cfb	0.108697854
248	0xbdc19b59	-0.09453458
249	0x3e389833	0.1802681
250	0xbce389f7	-0.027775748
251	0x3e7382ab	0.23780315
252	0xbe87d5e5	-0.26530376
253	0x3db1c7cc	0.08680686
254	0xbc79cf90	-0.015247241
255	0xbc88d4d6	-0.01670305

network_body._body_endoder.seq_layers.0.bias f4 [128]
0	0x00000000	0.0
1	0x00000000	0.0
2	0x00000000	0.0
3	0x00000000	0.0
4	0x00000000	0.0
5	0x00000000	0.0
6	0x00000000	0.0
7	0x00000000	0.0
8	0x00000000	0.0
9	0x00000000	0.0
10	0x00000000	0.0
11	0x00000000	0.0
12	0x00000000	0.0
13	0x00000000	0.0
14	0x00000000	0.0
15	0x00000000	0.0
16	0x00000000	0.0
17	0x00000000	0.0
18	0x00000000	0.0
19	0x00000000	0.0
20	0x00000000	0.0
21	0x00000000	0.0
22	0x00000000	0.0
23	0x00000000	0.0
24	0x00000000	0.0
25	0x00000000	0.0
26	0x00000000	0.0
27	0x00000000	0.0
28	0x00000000	0.0
29	0x00000000	0.0
30	0x00000000	0.0
31	0x00000000	0.0
32	0x00000000	0.0
33	0x00000000	0.0
34	0x00000000	0.0
35	0x00000000	0.0
36	0x00000000	0.0
37	0x00000000	0.0
38	0x00000000	0.0
39	0x00000000	0.0
40	0x00000000	0.0
41	0x00000000	0.0
42	0x00000000	0.0
43	0x00000000	0.0
44	0x00000000	0.0
45	0x00000000	0.0
46	0x00000000	0.0
47	0x00000000	0.0
48	0x00000000	0.0
49	0x00000000	0.0
50	0x00000000	0.0
51	0x00000000	0.0
52	0x00000000	0.0
53	0x00000000	0.0
54	0x00000000	0.0
55	0x00000000	0.0
56	0x00000000	0.0
57	0x00000000	0.0
58	0x00000000	0.0
59	0x00000000	0.0
60	0x00000000	0.0
61	0x00000000	0.0
62	0x00000000	0.0
63	0x00000000	0.0
64	0x00000000	0.0
65	0x00000000	0.0
66	0x00000000	0.0
67	0x00000000	0.0
68	0x00000000	0.0
69	0x00000000	0.0
70	0x00000000	0.0
71	0x00000000	0.0
72	0x00000000	0.0
73	0x00000000	0.0
74	0x00000000	0.0
75	0x00000000	0.0
76	0x00000000	0.0
77	0x00000000	0.0
78	0x00000000	0.0
79	0x00000000	0.0
80	0x00000000	0.0
81	0x00000000	0.0
82	0x00000000	0.0
83	0x00000000	0.0
84	0x00000000	0.0
85	0x00000000	0.0
86	0x00000000	0.0
87	0x00000000	0.0
88	0x00000000	0.0
89	0x00000000	0.0
90	0x00000000	0.0
91	0x00000000	0.0
92	0x00000000	0.0
93	0x00000000	0.0
94	0x00000000	0.0
95	0x00000000	0.0
96	0x00000000	0.0
97	0x00000000	0.0
98	0x00000000	0.0
99	0x00000000	0.0
100	0x00000000	0.0
101	0x00000000	0.0
102	0x00000000	0.0
103	0x00000000	0.0
104	0x00000000	0.0
105	0x00000000	0.0
106	0x00000000	0.0
107	0x00000000	0.0
108	0x00000000	0.0
109	0x00000000	0.0
110	0x00000000	0.0
111	0x00000000	0.0
112	0x00000000	0.0
113	0x00000000	0.0
114	0x00000000	0.0
115	0x00000000	0.0
116	0x00000000	0.0
117	0x00000000	0.0
118	0x00000000	0.0
119	0x00000000	0.0
120	0x00000000	0.0
121	0x00000000	0.0
122	0x00000000	0.0
123	0x00000000	0.0
124	0x00000000	0.0
125	0x00000000	0.0
126	0x00000000	0.0
127	0x00000000	0.0

network_body._body_endoder.seq_layers.2.weight f4 [128, 128]
0	0x3dc52a77	0.0962724
1	0x3d043c1b	0.032283884
2	0xbe55c00a	-0.20874038
3	0xbc98477a	-0.01858877
4	0xbdc7cd67	-0.09755974
5	0x3c81cc33	0.01584444
6	0x3d841f86	0.06451325
7	0x3e2314b4	0.15925866
8	0xbddbf4ae	-0.10740028
9	0x3e1fe2d2	0.15613869
10	0x3b3914ce	0.002824116
11	0x3e5045ae	0.2033908
12	0x3e088fcd	0.13336106
13	0xbe0e6aa0	-0.13907862
14	0x3c09d142	0.008411707
15	0x3e7c7f29	0.24657883
16	0xbdb0c1fd	-0.0863075
17	0x3e329533	0.17439727
18	0xbc9d4348	-0.019197121
19	0x3d94dc84	0.072686225
20	0xbcfc480d	-0.030796075
21	0x3c8e6303	0.017381197
22	0x3d121362	0.035663016
23	0xbb9cdee2	-0.004787312
24	0xbc5e22ee	-0.013558133
25	0x3d1c3209	0.038133655
26	0x3d108c45	0.03529002
27	0x3db2f0e7	0.08737355
28	0x3dfac581	0.12244702
29	0xbd2a3608	-0.041555434
30	0xbd4d40fc	-0.050110802
31	0x3e256861	0.16153099
32	0xbd5093a3	-0.050922047
33	0xbc24f06b	-0.010067086
34	0xbdba6a3e	-0.09102295
35	0xbdc1c0d0	-0.09460604
36	0xbe4934a0	-0.19648981
37	0x3d8a5a36	0.067554876
38	0x3d8f3d9c	0.06994173
39	0x3ab64a19	0.0013907581
40	0x3cbceb3c	0.023061387
41	0x3b90059a	0.004395199
42	0xbc3562cc	-0.011070918
43	0xbc8fac3d	-0.017538184
44	0xbcfcf518	-0.030878589
45	0xbc2c7de0	-0.010528058
46	0xbc8b53c5	-0.017007718
47	0xbd8c99ce	-0.068652734
48	0x3dfe90f1	0.12429989
49	0xbcbba239	-0.022904502
50	0xbcaf161a	-0.021372844
51	0xbd554b63	-0.052073848
52	0xbe21c848	-0.15799057
53	0x3d7d2a27	0.061807778
54	0x3db85fe1	0.090026625
55	0x3a743cc2	0.0009316915
56	0x3dd9214b	0.10602053
57	0x3d9e1646	0.07719092
58	0xbdb38122	-0.087648645
59	0xbc8df6ed	-0.017329657
60	0x3ccdf427	0.025140835
61	0x3d251b17	0.040309038
62	0xbdcec342	-0.10095836
63	0x3c4cf793	0.012510198
64	0xbdb2ca49	-0.08729989
65	0xbe03f154	-0.12885028
66	0xbd608d30	-0.054822147
67	0xbdc4eaad	-0.09615073
68	0xbddd63fa	-0.10810085
69	0xbdc9201e	-0.09820579
70	0xbd2a0e83	-0.041517746
71	0x3d9d1246	0.07669501
72	0x3dc20bef	0.094749324
73	0xbd27e9ee	-0.040994577
74	0x3dfe06d3	0.12403645
75	0xbd866a64	-0.06563261
76	0xbd9a4f04	-0.07534602
77	0x3c1b2aba	0.009470636
78	0xbd084722	-0.033270963
79	0x3d2913f5	0.041278798
80	0x3dcf556f	0.10123717
81	0x3d4a2555	0.04935201
82	0xbd1e224f	-0.038606938
83	0x3d196e7e	0.03745889
84	0xbe4f0374	-0.20216161
85	0xbc5b1d14	-0.013373632
86	0x3c96c105	0.018402586
87	0x3c7af861	0.015318007
88	0x3d12457e	0.035710804
89	0xbe220aa9	-0.15824379
90	0xbccb7856	-0.024837654
91	0xbdb4b477	-0.088234834
92	0x3b981e36	0.0046422733
93	0xbdee7924	-0.116441995
94	0x3dd76657	0.10517567
95	0xbc86cb16	-0.01645426
96	0xbe182b3b	-0.14860241
97	0x3d871a18	0.06596774
98	0xbd8d2e08	-0.068935454
99	0xbd867745	-0.065657176
100	0x3d69b3e1	0.05705631
101	0xbd7b1b60	-0.061305404
102	0xbd969c34	-0.07354012
103	0x3ca18861	0.01971835
104	0xbc465441	-0.012105049
105	0xbd978590	-0.07398522
106	0xbdabb158	-0.08383435
107	0x3d9bbcee	0.07604395
108	0x3d647ca8	0.055782944
109	0xbc8dfeb7	-0.017333372
110	0x3da27d60	0.0793407
111	0xbde29dbe	-0.11065243
112	0xbd39ba6f	-0.045343813
113	0xbd539515	-0.051655848
114	0x3d54198f	0.051782187
115	0x3d2ee7af	0.04270142
116	0xbe0d0467	-0.1377121
117	0x3cd8657d	0.02641558
118	0x3d55475b	0.052070003
119	0x3ddb841b	0.107185565
120	0xbd9c1b37	-0.07622378
121	0xbd275120	-0.04084885
122	0xbc7c44d0	-0.015397266
123	0x3cf05a56	0.02933995
124	0xbd88d29c	-0.066807956
125	0xbdffcf10	-0.12490666
126	0x3d59d925	0.0531856
127	0x3df38572	0.11890687
128	0xbe436e95	-0.19085152
129	0x3d54dbc1	0.051967386
130	0xbdb6693b	-0.0890679
131	0xbd7b233e	-0.061312906
132	0xbdfadab8	-0.122487485
133	0xbd0b6753	-0.034034085
134	0x3d46f723	0.04857553
135	0x3e184294	0.14869148
136	0x3de5ad8f	0.11214744
137	0xbde1ff25	-0.11034993
138	0xbd0a90f0	-0.03382963
139	0x3c397727	0.011319912
140	0xbcb1bd23	-0.021696633
141	0xbcc46380	-0.023973227
142	0xbe48bfbe	-0.19604394
143	0xbd13ea41	-0.036112074
144	0xbcc0aa02	-0.023518566
145	0xbd44e1da	-0.04806695
146	0xbd62e497	-0.05539378
147	0xbc3c719c	-0.011501696
148	0xbd77cc60	-0.06049764
149	0xbc19ad02	-0.009379627
150	0x3e23b35b	0.15986387
151	0x3ca3ec56	0.020010155
152	0x3c54efc1	0.012996615
153	0xbbf13de6	-0.007362115
154	0xbd8e73ff	-0.06955718
155	0xbd0dd173	-0.034623574
156	0xbd22b524	-0.03972353
157	0xbe0761ed	-0.1322095
158	0xbd011403	-0.031513225
159	0x3d469767	0.048484232
160	0x3db784e1	0.089608915
161	0x3df03ff4	0.11730948
162	0x3d19ec22	0.03757871
163	0xbdda0dcc	-0.10647163
164	0x3dcdb082	0.10043432
165	0xbc79573c	-0.015218552
166	0x3e00eeb0	0.12591052
167	0x3c04e734	0.008111764
168	0xbe1ee4a9	-0.15516914
169	0xbd943aec	-0.07237801
170	0xbd43671c	-0.047705755
171	0x3c853f7a	0.01626562
172	0x3e0a7586	0.13521394
173	0x3d7562c1	0.059908632
174	0xbd09270d	-0.033484507
175	0x3dec1835	0.115280546
176	0xbcfd295e	-0.030903514
177	0x3c01037b	0.007874365
178	0xbc2094f0	-0.0098011345
179	0x3d70e472	0.058811612
180	0x3de52112	0.11187948
181	0xbe00f695	-0.12594064
182	0x3e39885f	0.18118428
183	0x3dc2da6f	0.09514319
184	0x3b48a27f	0.0030614433
185	0xbe811c0b	-0.25216708
186	0xbcc8cc59	-0.024511503
187	0xbe18063b	-0.14846127
188	0xbbf3c800	-0.0074396133
189	0x3d4a56a6	0.04939904
190	0xbdca19a6	-0.09868173
191	0x3dd343dd	0.10315678
192	0xbc52e7d4	-0.012872655
193	0x3cb71716	0.022349875
194	0x3dc6005d	0.09668038
195	0x3daef5c1	0.085429676
196	0xbdfb1b25	-0.12261037
197	0x3cbcc558	0.02304332
198	0xbdcd2bc4	-0.10018113
199	0x3c6dfa86	0.0145250615
200	0xbbbd361a	-0.0057742717
201	0x3db22940	0.08699274
202	0x3d3d3ea8	0.04620233
203	0xbd03386b	-0.032036226
204	0x3db5af51	0.088713296
205	0xbd642b8f	-0.055705603
206	0x3d008bcb	0.031383317
207	0x3e0fbe16	0.14037356
208	0xbcc073d3	-0.02349273
209	0x3cd6af10	0.026206523
210	0xbd900bd8	-0.07033509
211	0xbd0e8967	-0.034799006
212	0xbc893ba1	-0.016752066
213	0x3dc1bd30	0.09459913
214	0x3e159fba	0.14611712
215	0x3e282321	0.1641965
216	0x3e26c179	0.16284741
217	0x3cdbce4d	0.02683177
218	0xbce0daa8	-0.027448013
219	0xbd86127c	-0.06546494
220	0xbdcb5ed0	-0.099301934
221	0x3e6a558f	0.228842
222	0x3dbbe1c7	0.09173923
223	0x3cc4e9f2	0.024037335
224	0x3d19b4bb	0.037525874
225	0x3e16dcaf	0.14732622
226	0xbb9763fe	-0.0046200743
227	0xbdf9f167	-0.12204247
228	0x3d72fd19	0.059323404
229	0xbd960b6d	-0.07326398
230	0xbd38dc48	-0.04513195
231	0xbd491f8b	-0.049102347
232	0x3b78d54f	0.0037968939
233	0x3e3a0bd5	0.18168576
234	0x3cf7da48	0.030255452
235	0x3d877f2b	0.06616052
236	0x3cfc3faa	0.030792076
237	0xbe314d61	-0.17314674
238	0xbdf89eda	-0.121396735
239	0x3b76e3ea	0.0037672468
240	0x3c31054f	0.010804488
241	0xbd2661d5	-0.040620644
242	0x3e23c6f6	0.15993866
243	0xbbd5464d	-0.0065086246
244	0xbd98f311	-0.07468236
245	0xbda80748	-0.08204514
246	0x3cd8f9f9	0.026486384
247	0x3dd73940	0.105089664
248	0xbd85f075	-0.06540004
249	0x3dac86db	0.08424159
250	0xbd0777e7	-0.033073332
251	0xbdd9a6c9	-0.10627515
252	0x3d32874f	0.04358607
253	0xbda92d13	-0.0826055
254	0xbd73fea6	-0.059569024
255	0xbdce8083	-0.100831054

network_body._body_endoder.seq_layers.2.bias f4 [128]
0	0x00000000	0.0
1	0x00000000	0.0
2	0x00000000	0.0
3	0x00000000	0.0
4	0x00000000	0.0
5	0x00000000	0.0
6	0x00000000	0.0
7	0x00000000	0.0
8	0x00000000	0.0
9	0x00000000	0.0
10	0x00000000	0.0
11	0x00000000	0.0
12	0x00000000	0.0
13	0x00000000	0.0
14	0x00000000	0.0
15	0x00000000	0.0
16	0x00000000	0.0
17	0x00000000	0.0
18	0x00000000	0.0
19	0x00000000	0.0
20	0x00000000	0.0
21	0x00000000	0.0
22	0x00000000	0.0
23	0x00000000	0.0
24	0x00000000	0.0
25	0x00000000	0.0
26	0x00000000	0.0
27	0x00000000	0.0
28	0x00000000	0.0
29	0x00000000	0.0
30	0x00000000	0.0
31	0x00000000	0.0
32	0x00000000	0.0
33	0x00000000	0.0
34	0x00000000	0.0
35	0x00000000	0.0
36	0x00000000	0.0
37	0x00000000	0.0
38	0x00000000	0.0
39	0x00000000	0.0
40	0x00000000	0.0
41	0x00000000	0.0
42	0x00000000	0.0
43	0x00000000	0.0
44	0x00000000	0.0
45	0x00000000	0.0
46	0x00000000	0.0
47	0x00000000	0.0
48	0x00000000	0.0
49	0x00000000	0.0
50	0x00000000	0.0
51	0x00000000	0.0
52	0x00000000	0.0
53	0x00000000	0.0
54	0x00000000	0.0
55	0x00000000	0.0
56	0x00000000	0.0
57	0x00000000	0.0
58	0x00000000	0.0
59	0x00000000	0.0
60	0x00000000	0.0
61	0x00000000	0.0
62	0x00000000	0.0
63	0x00000000	0.0
64	0x00000000	0.0
65	0x00000000	0.0
66	0x00000000	0.0
67	0x00000000	0.0
68	0x00000000	0.0
69	0x00000000	0.0
70	0x00000000	0.0
71	0x00000000	0.0
72	0x00000000	0.0
73	0x00000000	0.0
74	0x00000000	0.0
75	0x00000000	0.0
76	0x00000000	0.0
77	0x00000000	0.0
78	0x00000000	0.0
79	0x00000000	0.0
80	0x00000000	0.0
81	0x00000000	0.0
82	0x00000000	0.0
83	0x00000000	0.0
84	0x00000000	0.0
85	0x00000000	0.0
86	0x00000000	0.0
87	0x00000000	0.0
88	0x00000000	0.0
89	0x00000000	0.0
90	0x00000000	0.0
91	0x00000000	0.0
92	0x00000000	0.0
93	0x00000000	0.0
94	0x00000000	0.0
95	0x00000000	0.0
96	0x00000000	0.0
97	0x00000000	0.0
98	0x00000000	0.0
99	0x00000000	0.0
100	0x00000000	0.0
101	0x00000000	0.0
102	0x00000000	0.0
103	0x00000000	0.0
104	0x00000000	0.0
105	0x00000000	0.0
106	0x00000000	0.0
107	0x00000000	0.0
108	0x00000000	0.0
109	0x00000000	0.0
110	0x00000000	0.0
111	0x00000000	0.0
112	0x00000000	0.0
113	0x00000000	0.0
114	0x00000000	0.0
115	0x00000000	0.0
116	0x00000000	0.0
117	0x00000000	0.0
118	0x00000000	0.0
119	0x00000000	0.0
120	0x00000000	0.0
121	0x00000000	0.0
122	0x00000000	0.0
123	0x00000000	0.0
124	0x00000000	0.0
125	0x00000000	0.0
126	0x00000000	0.0
127	0x00000000	0.0

action_model._discrete_distribution.branches.0.weight f4 [6, 128]
0	0xbb5df233	-0.0033866286
1	0xbc418af3	-0.011812913
2	0x3b1cc58b	0.0023921456
3	0xbc54c4ff	-0.012986421
4	0xbaa1beb1	-0.0012340156
5	0x3b877c3f	0.0041346843
6	0x3c5320d8	0.0128862485
7	0x3b8997a0	0.0041989833
8	0x3c3bb133	0.011455822
9	0x3caa0df6	0.02075861
10	0xbba9eba3	-0.005185561
11	0xbb5addcd	-0.0033396364
12	0xbc32c497	-0.0109111285
13	0x3c8deccc	0.017324828
14	0xbc5cd858	-0.013479315
15	0x3ca5ae15	0.02022461
16	0xbb96057c	-0.0045782905
17	0xbb267aac	-0.0025402708
18	0xbca69de7	-0.020338966
19	0xbcc7c4e7	-0.024385883
20	0xbc0e9183	-0.008701685
21	0x39e4d030	0.0004364266
22	0x3c3da4a3	0.011574897
23	0x3bdf0480	0.0068059564
24	0x3bcbbb75	0.006217415
25	0x3b12b116	0.0022383383
26	0x3ac3d9dc	0.0014942246
27	0xbb885bc0	-0.004161328
28	0xbc13a678	-0.009011857
29	0x3b402caf	0.0029323508
30	0xbb9fa656	-0.0048721237
31	0x3bc1678a	0.0059022354
32	0x3be5d622	0.007014052
33	0x3c56af5b	0.013103331
34	0xbb9e4cb6	-0.004830922
35	0xb85c332f	-5.2499756e-05
36	0x3c11cbcd	0.008898688
37	0x3c4204e0	0.011841983
38	0x3c852112	0.01625112
39	0x3b1b6de3	0.002371662
40	0x3c96453f	0.018343566
41	0xbb8d8ca7	-0.0043197456
42	0x3c1045f2	0.008805739
43	0x3b9ef796	0.004851292
44	0x3c83846c	0.016054355
45	0xbc38164b	-0.011235784
46	0xbc66ad15	-0.014079352
47	0xbb376855	-0.002798577
48	0xbb6745db	-0.003528944
49	0xbc3d4198	-0.011551283
50	0x3bd95cb0	0.0066333637
51	0x3a25b828	0.0006321692
52	0xba67b90a	-0.00088395237
53	0xbc2fd84b	-0.010732721
54	0x3be445f7	0.0069663483
55	0x3b620c1d	0.0034492083
56	0xb96d852b	-0.0002265169
57	0x3bf883d8	0.0075840764
58	0xb9d0857b	-0.00039772302
59	0x3c3d18a4	0.011541519
60	0xbb3621aa	-0.0027791061
61	0x3b45c5e6	0.003017777
62	0x3a83d03b	0.0010056564
63	0x3bf46ae2	0.0074590305
64	0x3c0bc96a	0.008531908
65	0xb918fe1f	-0.00014590517
66	0xbb50840f	-0.0031816994
67	0xbb803dd8	-0.0039136223
68	0xbad4b59a	-0.0016228438
69	0x3b2c0123	0.0026245795
70	0xbc28abce	-0.010294868
71	0xbbb43db4	-0.0055005196
72	0x3c5abab7	0.01335018
73	0xbb1348d9	-0.002247384
74	0xbbf2bf95	-0.0074080923
75	0xbc828e54	-0.015937008
76	0xbbfea2ab	-0.0077708564
77	0xbc2e9a92	-0.01065697
78	0xbc520ce7	-0.012820459
79	0x3b726697	0.0036987418
80	0xbc450887	-0.012025959
81	0xbc5c5398	-0.013447665
82	0xbbf90635	-0.007599617
83	0xbb19c7a3	-0.002346494
84	0xbc34a1e1	-0.011024923
85	0xbbb7d887	-0.005610529
86	0x3abbe94e	0.0014336498
87	0x3c2423bc	0.010018285
88	0x3b1bfbe3	0.002380126
89	0xba7775d0	-0.00094398577
90	0x3b2477fa	0.0025095926
91	0xbc165f56	-0.009178003
92	0x3bcdeb28	0.0062841363
93	0xbb8d9b82	-0.0043215165
94	0xbc9a5f91	-0.018844398
95	0xb9c2fe8d	-0.0003719222
96	0x3be97948	0.0071250536
97	0xbbff110f	-0.007784016
98	0x3c95b08f	0.018272666
99	0x3b84aa24	0.0040486027
100	0x3bc1025e	0.005890175
101	0x3c01e50f	0.007928147
102	0x3c2bb50d	0.010480178
103	0x3ba22f58	0.0049494915
104	0xba9cb591	-0.0011955966
105	0x3c085db8	0.008323126
106	0x3cacff61	0.021117868
107	0xbb179ce6	-0.002313429
108	0xbbf2a8ff	-0.0074054
109	0xbb665963	-0.0035148493
110	0xbc106fc8	-0.008815713
111	0x3ced6be7	0.028982116
112	0xbbf6be40	-0.007530004
113	0x3bdbc90d	0.0067073167
114	0xbc59f7e5	-0.013303732
115	0xbc748815	-0.014925023
116	0x3bbc16db	0.0057400293
117	0x3bd76c6a	0.0065742033
118	0xbacabb6e	-0.0015467235
119	0xbb2e5695	-0.00266019
120	0xbb57ab8b	-0.0032908644
121	0xbb8af38e	-0.0042404598
122	0x3b857f2a	0.004073997
123	0xbb923687	-0.0044620666
124	0xbc06a6c7	-0.008218474
125	0xbb765d22	-0.0037592133
126	0xbb9c3040	-0.004766494
127	0x3b220877	0.0024724284
128	0x3c019365	0.007908677
129	0x3af5e35b	0.0018759774
130	0x39f16025	0.00046038735
131	0xbcbde1f5	-0.023179034
132	0xbb7cf69b	-0.0038599137
133	0x3c6d4ed5	0.014484127
134	0xbb0e7b17	-0.0021740848
135	0xb990d4ff	-0.00027624515
136	0xba876c27	-0.0010331915
137	0x3c2305c7	0.009950108
138	0x3c3af23d	0.011410293
139	0xbc042ca0	-0.00806728
140	0x3c16e775	0.009210457
141	0x3b85b01f	0.004079833
142	0x3bdec6d7	0.006798606
143	0x3c183f87	0.00929249
144	0xbb9390a5	-0.004503327
145	0x373fbf97	1.1429095e-05
146	0x3b9d413b	0.004799036
147	0x3943c487	0.00018669861
148	0x3c20a6ae	0.0098053645
149	0x3a2e813b	0.000665683
150	0xbbf01835	-0.0073271045
151	0xbbb7877f	-0.005600869
152	0xbc303ae6	-0.01075623
153	0x3c56e515	0.013116141
154	0x3c2efd7c	0.010680553
155	0x3babc39f	0.0052418257
156	0xbbebf05a	-0.007200283
157	0x3c11ee1e	0.008906869
158	0x3bb090b3	0.0053883432
159	0xbceed800	-0.029155731
160	0x3c1ab3dd	0.009442297
161	0x3aa1ddcc	0.0012349426
162	0x3b81a196	0.00395603
163	0x3a74f67d	0.0009344591
164	0x3b787333	0.003791046
165	0x3b9d52d6	0.0048011346
166	0x39e69838	0.0004398243
167	0x3bf29ca7	0.0074039283
168	0xbc478547	-0.012177772
169	0x3c9e3afb	0.019315233
170	0x3adfb40f	0.0017067211
171	0xbb8474ab	-0.004042228
172	0x3a88aff2	0.0010428412
173	0x3c95f576	0.018305521
174	0xbab62cbf	-0.0013898833
175	0xbbb301e5	-0.0054628723
176	0x3b92acba	0.004476157
177	0xba011975	-0.0004924753
178	0xbab4492f	-0.001375472
179	0x3b1ec20b	0.0024224545
180	0x3c1c12b8	0.009525947
181	0xbc2739d3	-0.010206657
182	0x3c5f980b	0.01364709
183	0xbc25a00f	-0.010108962
184	0x3c98fab0	0.018674225
185	0xba089d7e	-0.00052114564
186	0x3c2d7e61	0.010589213
187	0xbbe25d33	-0.006908083
188	0x3c3d93da	0.011570895
189	0xbb9284bf	-0.004471391
190	0x3bff1952	0.007785001
191	0x3c2c1364	0.01050267
192	0x39bb90be	0.0003577526
193	0x3c427432	0.011868523
194	0xbc1b1a9a	-0.0094667915
195	0x3b185e6f	0.0023249646
196	0xbaa2aa01	-0.0012410284
197	0xbb4c4d04	-0.0031173835
198	0xbc2e3275	-0.010632147
199	0xbc04dc7b	-0.008109207
200	0xbc09578b	-0.008382688
201	0x3c247283	0.010037067
202	0xbc849e47	-0.016188754
203	0x3ca845eb	0.020541152
204	0x3a3b8bef	0.00071543356
205	0x3b0d0ae8	0.0021521393
206	0x3bab2308	0.005222682
207	0xbc1e5432	-0.009663628
208	0x3c496f00	0.012294531
209	0xbc3cf10a	-0.011532078
210	0x3bb51913	0.0055266707
211	0xbcbf5d71	-0.023359986
212	0x3b5b19e2	0.0033432175
213	0x399a5bd6	0.00029441592
214	0xbca3601a	-0.019943286
215	0x3b93865b	0.0045021004
216	0x3bf9ea9b	0.007626844
217	0x39b909f9	0.0003529338
218	0xbc9d2a4d	-0.01918521
219	0x3876a66b	5.880596e-05
220	0xbbc84688	-0.0061119236
221	0xbacbefcd	-0.0015559137
222	0xbc3d22f1	-0.011543975
223	0x3c26aaf1	0.010172592
224	0xbc52d077	-0.012867085
225	0xbb98a0e7	-0.004657853
226	0x394191c7	0.0001846022
227	0xb91294de	-0.00013979102
228	0x3bc0a816	0.0058794124
229	0xbca03c6d	-0.019560063
230	0xbc9b6ce5	-0.018972823
231	0xbc062b8d	-0.008189094
232	0xbb5ecdef	-0.0033997258
233	0x3c80330f	0.015649347
234	0xbb007123	-0.0019598685
235	0x3c8bc6a2	0.017062489
236	0x39b2ae5f	0.00034080722
237	0xbc0f4346	-0.008744067
238	0xbb82178f	-0.0039700936
239	0xbb2c9393	-0.0026333078
240	0xbc668603	-0.014070037
241	0xbc3bfbac	-0.0114735775
242	0xbb65d77b	-0.0035071063
243	0x3bdfc912	0.0068293894
244	0x3bde78f5	0.0067893215
245	0xbc72847f	-0.014802097
246	0x3ae45c20	0.0017422475
247	0xbba7977d	-0.0051144944
248	0xbc59c8e0	-0.013292521
249	0x3c0d8e39	0.008639866
250	0xbb0dcbfc	-0.0021636477
251	0xbc87174b	-0.0164906
252	0xbbb190b2	-0.0054188604
253	0x3bf8412f	0.00757613
254	0xbbac5ad6	-0.005259852
255	0xbc4c6e31	-0.012477444

action_model._discrete_distribution.branches.0.bias f4 [6]
0	0x00000000	0.0
1	0x00000000	0.0
2	0x00000000	0.0
3	0x00000000	0.0
4	0x00000000	0.0
5	0x00000000	0.0

action_model._discrete_distribution.branches.1.weight f4 [6, 128]
0	0x3b7c4b3a	0.0038496987
1	0x3bfe65f0	0.0077636167
2	0x3b1453eb	0.0022633027
3	0xba2ec4b8	-0.00066668866
4	0x3b98a151	0.0046579023
5	0xbaad7e24	-0.0013236445
6	0x3b2392be	0.0024959291
7	0xba2d4059	-0.0006609015
8	0x3980b417	0.0002454824
9	0xbc29912b	-0.010349552
10	0x3b78c7cf	0.0037960892
11	0x3b9096a1	0.0044124876
12	0xb927885f	-0.00015977163
13	0xbc4f6272	-0.012657749
14	0x3bff247f	0.007786333
15	0xbb1a3652	-0.0023530913
16	0xbc9e79ef	-0.019345252
17	0xbba9a021	-0.0051765596
18	0x3a5bc297	0.0008383183
19	0x3c0fb2e8	0.008770682
20	0x3c64a11d	0.013954428
21	0x3b4f98c2	0.0031676744
22	0x3c3e46fb	0.011613603
23	0x3a3809af	0.0007020486
24	0x3c7fcc55	0.015612681
25	0x3c8314eb	0.016001185
26	0x3cdd6607	0.02702619
27	0xbc0f6fc3	-0.008754673
28	0x3a4ce617	0.00078162685
29	0xbafac562	-0.0019132311
30	0xbc5dcf0b	-0.013538132
31	0x3b0daee8	0.0021619145
32	0xbc8c53b2	-0.017129753
33	0xbb1a908a	-0.0023584687
34	0xbb224c30	-0.002476465
35	0x3a02111e	0.0004961657
36	0x3c541598	0.0129446015
37	0xba11c6c9	-0.00055609323
38	0x3c5260f0	0.0128404945
39	0x3b4709c4	0.003037081
40	0xba4221fd	-0.00074055773
41	0xbb3c8ddb	-0.0028771076
42	0xbb1984d3	-0.0023425117
43	0xbc4bf41f	-0.01244834
44	0xbb029ee0	-0.0019931123
45	0xbbb816f5	-0.005617971
46	0x3a71e9cd	0.00092282594
47	0x3b53a937	0.0032296905
48	0x3a895e6f	0.0010480414
49	0x3c3bbdcb	0.011458824
50	0xbbca29b7	-0.0061695236
51	0xbb9109c3	-0.0044262125
52	0x3c9db147	0.019249571
53	0xbae389af	-0.0017359758
54	0x3ba5a367	0.0050548795
55	0x3b796a53	0.003805776
56	0xbb0517ef	-0.0020308455
57	0xbc0193b0	-0.007908747
58	0x3b136675	0.002249149
59	0xbc1b0ec0	-0.009463966
60	0x3b13f1d5	0.0022574563
61	0xbcbc76f5	-0.023005942
62	0x3cd14a72	0.025548194
63	0x3a0fa768	0.00054799626
64	0xbc35b386	-0.011090165
65	0x3b1d7f23	0.0024032078
66	0x3b221506	0.002473177
67	0xba71dc5d	-0.0009226257
68	0x3c052508	0.008126505
69	0xbbd180f0	-0.0063935444
70	0xbbf49b83	-0.0074648275
71	0x3b71b117	0.0036879235
72	0x390fedcf	0.00013726133
73	0x3b31f84b	0.002715605
74	0xbc05dcfd	-0.0081703635
75	0xbb80126a	-0.003908445
76	0x3c01703b	0.007900293
77	0x3bb78cfb	0.005601523
78	0xbad97bba	-0.001659266
79	0x3b7bcd00	0.003842175
80	0xbb5f575f	-0.0034079177
81	0x3af43b73	0.001863344
82	0xba647972	-0.00087156065
83	0xbbfdd9dd	-0.0077469186
84	0x3a9638a3	0.0011460971
85	0x3c01f2ca	0.007931421
86	0x3c35d530	0.011098191
87	0x3ba221bb	0.0049478686
88	0xbb1d5929	-0.0024009442
89	0xbbaedbdc	-0.005336268
90	0x3b4ff9b7	0.0031734535
91	0x3c35e929	0.011102953
92	0x3b0ad0d6	0.0021181605
93	0xbbc41f83	-0.005985202
94	0x3bfcfc0b	0.0077204756
95	0xbbe989fb	-0.0071270443
96	0xbcfd5603	-0.030924803
97	0xb8765b78	-5.8736157e-05
98	0xbc5d9fa2	-0.013526829
99	0xbc50770d	-0.012723696
100	0x3c9b7e5a	0.018981148
101	0x3c2bf288	0.010494836
102	0xbbec3a52	-0.0072091008
103	0x3be903ff	0.007111072
104	0x3bc44705	0.0059899115
105	0xbb35d695	-0.002774631
106	0x3b9ad878	0.004725512
107	0x39c31e03	0.0003721566
108	0x3b7305bd	0.0037082278
109	0xb99b5313	-0.000296258
110	0x3b8935cb	0.004187321
111	0xbba0a901	-0.0049029593
112	0x3c27bba8	0.010237612
113	0xbbde2933	-0.0067798137
114	0xbba9be6a	-0.00518017
115	0xbaa070f6	-0.0012240696
116	0x3c0fce9f	0.00877729
117	0x3b61b9ad	0.0034442947
118	0xbb9379af	-0.00450059
119	0xbb773b2a	-0.0037724474
120	0xbba78303	-0.0051120534
121	0x38030ba3	3.124367e-05
122	0x3c92dde6	0.017928075
123	0x3c195d91	0.009360687
124	0x3b9197b3	0.004443133
125	0x3c62116a	0.013798097
126	0x3c1452f2	0.009052979
127	0x3bda1cc0	0.0066562593
128	0x3be195ab	0.006884297
129	0x3b5bc3d0	0.0033533461
130	0xbc8a7181	-0.016899826
131	0xbb4488de	-0.0029988806
132	0x3b28c5dc	0.00257527
133	0x3af67687	0.0018803634
134	0x3b2c66ed	0.0026306466
135	0xbaf2dacd	-0.0018528342
136	0xbc5a1658	-0.013310991
137	0xba8f3743	-0.0010926503
138	0x3c3a82dd	0.011383739
139	0xbc39455d	-0.011308041
140	0xba67e9fb	-0.00088468165
141	0x3bfe3250	0.0077574626
142	0x3b906a29	0.0044071865
143	0x3c56bea7	0.0131069785
144	0xbc992f5d	-0.018699342
145	0x3bc2ce26	0.005944985
146	0xbb329d97	-0.0027254575
147	0x3b772532	0.003771138
148	0xbba817ed	-0.0051298053
149	0xbc3eacfc	-0.011637922
150	0x3b982d9b	0.0046441085
151	0xbc83099b	-0.015995791
152	0xbba4d35f	-0.00503008
153	0x3b7be4f2	0.0038436023
154	0xbb2fea31	-0.002684247
155	0xbac94e22	-0.0015358368
156	0xbbe9923a	-0.0071280273
157	0xbc874bbb	-0.016515603
158	0x3aed80bb	0.001812003
159	0x3bf7fdad	0.0075680823
160	0x3b848618	0.0040443055
161	0xbc13bb31	-0.009016798
162	0x3b2abcbc	0.0026052436
163	0xbbaf762c	-0.0053546634
164	0x3b837a99	0.0040124175
165	0x3c15e64d	0.009149146
166	0x39e21cef	0.00043127636
167	0xbb56d217	-0.0032779032
168	0x382d3bd1	4.1302123e-05
169	0x3b8b68f3	0.0042544543
170	0x3c9f1007	0.019416822
171	0xbc68f9b2	-0.014219688
172	0xbb4e85cf	-0.0031512862
173	0xbb8adf04	-0.0042380113
174	0xbc534225	-0.012894188
175	0xbad48835	-0.0016214909
176	0x3b892493	0.004185268
177	0xbb71b2bb	-0.0036880213
178	0x3b97f03c	0.0046367925
179	0xbc92f9b4	-0.017941333
180	0xbc6ba317	-0.014382145
181	0x3c08da30	0.008352801
182	0xbb63d435	-0.0034763936
183	0x3aed1a53	0.001808951
184	0xbc979380	-0.01850295
185	0x3c436309	0.011925467
186	0x3bb67f9f	0.005569413
187	0xbbf1b657	-0.007376473
188	0xbbcd5dc7	-0.0062672826
189	0xbc84c648	-0.01620783
190	0xbc61db1b	-0.013785149
191	0xbb0a8af9	-0.0021139963
192	0xb8928b6c	-6.987792e-05
193	0x3bdcc525	0.0067373686
194	0xbcadfc72	-0.02123854
195	0xbc3bbe23	-0.011458906
196	0x3c8b9ee5	0.01704354
197	0xbb2c3f1f	-0.002628274
198	0xbca974a6	-0.020685505
199	0xbc1b13a2	-0.00946513
200	0x3b806270	0.0039179847
201	0xbc424e64	-0.01185951
202	0xbc01cec9	-0.007922837
203	0x3c474d05	0.012164359
204	0xbc2ae77a	-0.010431165
205	0xbc086285	-0.00832427
206	0x3c8937db	0.016750267
207	0xbbc43017	-0.005987178
208	0x3ba438d1	0.005011656
209	0x3c3ccc55	0.011523326
210	0x3adcd8da	0.0016849295
211	0x3696e539	4.4970334e-06
212	0x3bbb2eef	0.005712382
213	0xbcab2a3a	-0.020894159
214	0xbbd23318	-0.0064147823
215	0x3b305e2c	0.00269116
216	0xba508675	-0.0007954606
217	0x3ad1f318	0.0016017882
218	0x3bcc3d3d	0.006232886
219	0x3b8670de	0.0041028103
220	0x3c1c6584	0.009545688
221	0xbb05b60b	-0.0020402696
222	0xbc0e886b	-0.008699517
223	0x3ba1c3dc	0.0049366783
224	0xbbde332f	-0.006781004
225	0xbc4fbe62	-0.012679668
226	0x3c01aa82	0.007914187
227	0x370056fa	7.649645e-06
228	0xb9ea0653	-0.0004463667
229	0xbc953d7f	-0.0182178
230	0xbc054d1d	-0.008136061
231	0x3c325d81	0.010886551
232	0xbc1590c4	-0.009128753
233	0x3b6c0e87	0.00360194
234	0xba903eee	-0.0011005083
235	0x3b1c0931	0.002380919
236	0xbbfaaae8	-0.007649768
237	0x3b9187f7	0.004441257
238	0x3afed6e5	0.0019442706
239	0x3b8134eb	0.003943076
240	0xba9e958e	-0.0012099014
241	0xbbc5f27d	-0.0060408697
242	0x397a5728	0.00023874326
243	0x3c4d23cb	0.012520741
244	0x3bf772a2	0.007551507
245	0xbb06ce9f	-0.0020569933
246	0xbb27024c	-0.0025483547
247	0xbbfff093	-0.007810661
248	0xbb837b08	-0.004012469
249	0x3c729917	0.014807007
250	0xba3a065c	-0.00070962845
251	0xbc2888cb	-0.01028652
252	0xbb75744d	-0.0037453354
253	0xbc53f7aa	-0.012937466
254	0x3c91fd3c	0.017820947
255	0xbb81c8c9	-0.003960703

action_model._discrete_distribution.branches.1.bias f4 [6]
0	0x00000000	0.0
1	0x00000000	0.0
2	0x00000000	0.0
3	0x00000000	0.0
4	0x00000000	0.0
5	0x00000000	0.0

action_model._discrete_distribution.branches.2.weight f4 [6, 128]
0	0xbbaff7e0	-0.005370125
1	0xbb970d89	-0.004609768
2	0xb985bd83	-0.00025508934
3	0x3ba96b6c	0.0051702764
4	0xbb323dbf	-0.0027197448
5	0xbbf1ac1f	-0.0073752548
6	0xbad57f4a	-0.0016288545
7	0x3b9dc57b	0.0048148013
8	0x3bc49d81	0.0060002212
9	0xbc5ab9d0	-0.013349965
10	0x3b13a4c2	0.0022528623
11	0x3c1474b2	0.009061025
12	0x3c21eb5a	0.009882772
13	0xbbd6e828	-0.006558437
14	0x3be4a627	0.0069778147
15	0xbc2a5f33	-0.010398674
16	0xbae5915b	-0.0017514633
17	0xbb4fcdfb	-0.0031708467
18	0x3bbe1cc9	0.0058017713
19	0xba962af8	-0.0011456897
20	0x3c542160	0.01294741
21	0xbb9321da	-0.0044901194
22	0x3c47b3fc	0.012188908
23	0x3c5292af	0.012852355
24	0x3aa0c51a	0.0012265772
25	0xbb51263f	-0.0031913666
26	0xbc2b8293	-0.010468143
27	0xbcad6ad7	-0.02116911
28	0xbbce8e2b	-0.006303569
29	0x3c84bf4a	0.016204495
30	0x3b04d532	0.0020268676
31	0xbbd0dc2d	-0.0063739032
32	0xb9420f38	-0.00018506951
33	0xbbb45494	-0.0055032466
34	0x3ccb7ded	0.02484032
35	0xbbf35870	-0.007426314
36	0xbc24263e	-0.010018883
37	0x3c21a001	0.009864808
38	0xbc130c7b	-0.008975144
39	0xbc312c47	-0.010813779
40	0xbaf273bd	-0.0018497627
41	0xbbea3e18	-0.0071485154
42	0x3c1cb200	0.009563923
43	0x3b73093d	0.0037084364
44	0x3c60849f	0.013703494
45	0x3bf1a82b	0.0073747835
46	0xba9e24fb	-0.0012065464
47	0x3b1ce025	0.0023937311
48	0x3bc39a86	0.0059693484
49	0xbc3256d9	-0.010884964
50	0xbb262d23	-0.0025356493
51	0x3cae33e3	0.021264976
52	0x3c04468f	0.008073463
53	0xbbc5faab	-0.006041845
54	0x3a5db030	0.0008456735
55	0x3bbda523	0.005787508
56	0xbbcaf9ae	-0.006194315
57	0xbbaba871	-0.0052385856
58	0xbc35760f	-0.011075511
59	0xb9c153a2	-0.0003687414
60	0xbbb181a1	-0.0054170643
61	0x3c5cbe4b	0.013473104
62	0xbb094cf4	-0.0020950409
63	0xbbab9b0a	-0.005236988
64	0xbc14d521	-0.009084017
65	0xbc50a885	-0.012735491
66	0x3b9b984b	0.0047483793
67	0x3a32ef69	0.0006825836
68	0x3b0b03d6	0.0021212003
69	0xbb452f9c	-0.0030088192
70	0xbb598fcf	-0.003319729
71	0xbb550a23	-0.0032507263
72	0x3c58b98d	0.0132278325
73	0x3b5fd382	0.0034153168
74	0x3be74b7a	0.007058558
75	0xbb629857	-0.0034575665
76	0x3c0a6b0b	0.008448373
77	0xbae47e60	-0.0017432682
78	0xbb6e5c2b	-0.0036370854
79	0xbc405b84	-0.011740569
80	0xbbecd722	-0.0072277943
81	0x3b0ff10f	0.002196375
82	0xbcb67d4b	-0.022276541
83	0x3c50ead0	0.012751296
84	0x3a409dc5	0.0007347728
85	0xbba9ee71	-0.005185895
86	0x3aab22fb	0.001305669
87	0x3a1bb263	0.00059393625
88	0xbbfa6abb	-0.007642118
89	0x3c591e8f	0.013251915
90	0xbc59848f	-0.013276233
91	0x3c273209	0.0102048
92	0xbc5852fb	-0.013203378
93	0xbbf496db	-0.0074642724
94	0x3a8e5a40	0.0010860637
95	0xbc947916	-0.018124145
96	0xbc32e880	-0.01091969
97	0xbbcbacf2	-0.006215685
98	0x3c7638eb	0.015028219
99	0xba7455f8	-0.00093206717
100	0x3c3ba0f0	0.011451945
101	0x3b25dfdb	0.002531043
102	0x3c3df1e0	0.011593312
103	0xbb5ad43f	-0.0033390669
104	0x3b18a895	0.0023293842
105	0x3bd010ba	0.00634965
106	0xbbc7edaf	-0.006101332
107	0xbbc02df7	-0.0058648544
108	0xb95736e5	-0.00020524448
109	0xbb97a7cf	-0.0046281586
110	0x3c55f8ba	0.013059789
111	0x3bdff76b	0.0068349144
112	0x3c3e5793	0.011617559
113	0xbc1a274b	-0.009408782
114	0xbc52da0f	-0.012869372
115	0xbad02ad8	-0.0015881909
116	0xbb803ebe	-0.0039137295
117	0xbaa4d4c2	-0.0012575614
118	0x39de0cf8	0.00042352802
119	0x3b0a7718	0.0021128114
120	0xba54f0e3	-0.0008123053
121	0x3c041163	0.008060786
122	0xbc50e8e3	-0.012750837
123	0x3b4a28e3	0.0030847124
124	0xbc08f192	-0.008358376
125	0xbb6744b2	-0.0035288748
126	0x3b4ed1af	0.0031558087
127	0xbc09c551	-0.00840886
128	0xbc773825	-0.0150890695
129	0xbc57bb90	-0.013167277
130	0xbc23fa7b	-0.01000845
131	0xbbb392a1	-0.005480126
132	0x3b77bb12	0.0037800712
133	0x3c199c5f	0.009375661
134	0xbc4338b0	-0.011915371
135	0xbb372ef4	-0.002795157
136	0xbc045770	-0.008077487
137	0xbc3a39a9	-0.011366286
138	0xbc3c6080	-0.011497617
139	0xbc939df2	-0.01801965
140	0xbb3546c5	-0.002766059
141	0x3b868331	0.0041049947
142	0x3c42e4f8	0.011895411
143	0xbc13f094	-0.009029526
144	0x3bcebd8f	0.0063092182
145	0xbc67f620	-0.014157802
146	0x3c47a202	0.012184622
147	0x3b85c063	0.004081772
148	0x3b9e1eaf	0.004825435
149	0xbb91fa83	-0.004454912
150	0xbbb1f08e	-0.0054302877
151	0x3c8117af	0.015758364
152	0xbb8d9bf6	-0.0043215705
153	0x3bc39eaa	0.005969842
154	0xbc9d9e1e	-0.019240435
155	0xba92661d	-0.0011169348
156	0xb88827f5	-6.492428e-05
157	0xba49c677	-0.0007697115
158	0xbbd3fe90	-0.006469555
159	0x3af0f1da	0.0018382624
160	0x3b5e5290	0.0033923723
161	0x3c27ba77	0.010237328
162	0x3c5a486f	0.013322934
163	0x3c14966f	0.009069069
164	0xbc64906d	-0.013950449
165	0xbca24a13	-0.019810712
166	0x3abf4577	0.0014592846
167	0x3a29e68e	0.00064811937
168	0xbba4fc09	-0.0050349277
169	0x3bf7af50	0.0075587407
170	0x3aa90458	0.0012894971
171	0x3c489735	0.012243082
172	0x3c7033a2	0.014660748
173	0xbc87a20c	-0.016556762
174	0xbb77e273	-0.0037824183
175	0xbc5a2b1a	-0.01331594
176	0x3c0b11a8	0.008488096
177	0xbc356e2d	-0.011073631
178	0xbc0b719b	-0.008510972
179	0xbba2c1ae	-0.004966936
180	0xbaa41596	-0.001251864
181	0x3abe5464	0.0014521
182	0xbbcde06f	-0.006282858
183	0x3ba01197	0.0048849094
184	0xbb81c393	-0.003960082
185	0xbc6f365b	-0.014600362
186	0xbb4db307	-0.0031387226
187	0x3bef150d	0.0072962106
188	0xbbaec88b	-0.005333965
189	0x3c18428b	0.009293209
190	0xbc30159b	-0.010747339
191	0x3c45839a	0.012055302
192	0xbbb1f7e5	-0.0054311627
193	0xbc8adcd0	-0.016950995
194	0x3c7e4243	0.015518728
195	0x3c0e265b	0.008676137
196	0x3b58fa48	0.0033108164
197	0x3bea3be5	0.0071482533
198	0x3b9db103	0.004812361
199	0xbbf99548	-0.0076166727
200	0xbc48dc4a	-0.012259552
201	0xbac552cb	-0.0015054581
202	0x3b9c4cce	0.004769898
203	0xbb596d23	-0.0033176623
204	0x39e46973	0.00043566115
205	0xbc8af5c7	-0.016962899
206	0xbb1c14cf	-0.0023816114
207	0x3a962697	0.0011455592
208	0x3af68515	0.0018807972
209	0x3cca10a7	0.024666144
210	0xbbcb8d34	-0.006211901
211	0x3a8d1449	0.0010763492
212	0xbb0b29b9	-0.0021234585
213	0xbbd97cf3	-0.0066372096
214	0x3c2a1aaf	0.010382338
215	0x3c3c22df	0.011482923
216	0xbb20a050	-0.0024509616
217	0x3ae8d862	0.0017764682
218	0xbc0d0403	-0.0086069135
219	0x3b69b4af	0.0035660674
220	0x3bbc4f4f	0.005746759
221	0x3b0829db	0.00207769
222	0xbc1066e7	-0.008813596
223	0xbbef2a7b	-0.0072987652
224	0xb8802283	-6.109944e-05
225	0x3addb6c5	0.0016915431
226	0xbb9ac646	-0.004723343
227	0x3c18b887	0.0093213385
228	0xbc01da09	-0.007925519
229	0xbbd93b32	-0.006629371
230	0x3c7f80a7	0.015594638
231	0x3ba0218f	0.004886813
232	0x3c95cbf2	0.018285725
233	0x3c18be15	0.009322663
234	0xbc48676a	-0.012231687
235	0x3bbd45f7	0.0057761627
236	0x3c06d232	0.008228825
237	0x3c1a9407	0.0094347065
238	0x3be7a338	0.0070690177
239	0xba6c89d8	-0.0009023226
240	0x3afe0f3d	0.0019383203
241	0xba80bbf8	-0.0009821644
242	0x3c152217	0.009102366
243	0xbbba4758	-0.0056847744
244	0x3a83c6b7	0.0010053728
245	0xba8774dd	-0.0010334511
246	0xbc7f2b2d	-0.015574259
247	0xbc0dec67	-0.00866232
248	0xbc0b6d66	-0.008509969
249	0xba977203	-0.0011554364
250	0x3a23e02a	0.00062513596
251	0xbc256237	-0.010094217
252	0x3b972063	0.004612015
253	0x3b0ff791	0.002196763
254	0x3c745aa3	0.014914188
255	0x3b0b27c7	0.0021233426

action_model._discrete_distribution.branches.2.bias f4 [6]
0	0x00000000	0.0
1	0x00000000	0.0
2	0x00000000	0.0
3	0x00000000	0.0
4	0x00000000	0.0
5	0x00000000	0.0

network_body._body_endoder.seq_layers.0.weight f4 [128, 45]
0	0xbebb820e	-0.3662266
1	0xbdae0f2e	-0.08498989
2	0x3e87c5b0	0.2651801
3	0x3e6c1023	0.2305303
4	0x3d8d68a1	0.06904722
5	0xbc24d32d	-0.010060114
6	0xbd399ff3	-0.045318555
7	0x3e20255e	0.15639254
8	0x3e5679cf	0.20944904
9	0xbd4b97ea	-0.049705423
10	0xbbd4f4b4	-0.0064988974
11	0xbdbccbaa	-0.09218533
12	0xbd84bcb2	-0.06481303
13	0xbe10e0e8	-0.14148295
14	0xbe8acfdf	-0.27111718
15	0x3c0319b4	0.008001734
16	0x3e25bcaa	0.16185251
17	0xbd7de10f	-0.06198221
18	0xbd6e3515	-0.05815609
19	0xbc69739c	-0.014248755
20	0x3c0f537d	0.0087479325
21	0x3e69b808	0.22824109
22	0xbe0767f3	-0.13223247
23	0xbd48a558	-0.04898581
24	0xbe0a6d3b	-0.1351823
25	0xbdfdeb18	-0.12398356
26	0xbe072267	-0.13196717
27	0xbc1ef32e	-0.009701533
28	0xbdd81882	-0.105515495
29	0xbdd78516	-0.10523431
30	0x3e5a3e2e	0.21312782
31	0xbe291cd2	-0.165149
32	0xbe1c1997	-0.15244137
33	0xbdff5dbe	-0.12469052
34	0xbd41b100	-0.04728794
35	0x3dcd7433	0.10031929
36	0x3d15525f	0.03645551
37	0x3de0b24a	0.10971506
38	0x3eb13f56	0.34618634
39	0x3d00d71d	0.031455148
40	0xbd0139ca	-0.031549253
41	0x3c7f6a47	0.015589303
42	0x3ac62797	0.0015118
43	0xba4f68eb	-0.00079120573
44	0x3e3aec36	0.1825417
45	0x3dbd16ac	0.0923284
46	0x3dc435f2	0.09580602
47	0x3c99a6bf	0.018756269
48	0xbdd49068	-0.10379106
49	0x3d890449	0.066902705
50	0xbd25f9e0	-0.040521502
51	0xbcf582b4	-0.02996955
52	0x3d387446	0.045032762
53	0xbe1b519d	-0.15167852
54	0xbc622e17	-0.013804934
55	0xbe4003dc	-0.18751472
56	0xbd83b417	-0.06430834
57	0xbcf1ea8c	-0.029530786
58	0xbdc6723a	-0.09689756
59	0x3dc60ce6	0.09670429
60	0x3e732fb7	0.2374867
61	0xbedd0b1a	-0.43172532
62	0x3db41148	0.08792359
63	0xbd785bc7	-0.0606344
64	0x3dffffed	0.12499986
65	0x3b99cc74	0.004693562
66	0x3e1ab7d3	0.15109186
67	0xbe0eed9a	-0.13957825
68	0xbcd764c1	-0.02629316
69	0xbe77afc7	-0.24188147
70	0xbe0315c6	-0.12801275
71	0xbe4a16cc	-0.19735259
72	0xbcbd4121	-0.023102345
73	0x3e194829	0.14968933
74	0xbe4089c0	-0.18802547
75	0x3e7cbe2f	0.24681924
76	0x3df1df4f	0.11810171
77	0x3d8bc3c1	0.068244465
78	0xbe32c6e4	-0.17458683
79	0x3e009959	0.12558497
80	0x3e307a89	0.17234243
81	0xbe3d4227	-0.18482266
82	0xbe1f5c8a	-0.15562645
83	0xbdfac118	-0.12243861
84	0x3eb3c10d	0.35108224
85	0xbe35a254	-0.17737705
86	0x3e1ea5f0	0.15492988
87	0x3e9a531a	0.30141526
88	0x3d543c94	0.051815584
89	0xbe657c6e	-0.22410747
90	0x3d8005c6	0.06251101
91	0xbe3b2f46	-0.18279752
92	0xbd919e52	-0.07110275
93	0x3df709fb	0.120624505
94	0xbd62c6b3	-0.055365276
95	0x3d065bb9	0.032802317
96	0xbde3179e	-0.11088489
97	0xbcdb8b6c	-0.02679988
98	0x3c12df57	0.008964381
99	0xbe3b0303	-0.18262868
100	0xbe1932cb	-0.14960782
101	0xbe124680	-0.14284706
102	0x3dff3a37	0.124622755
103	0x3e178380	0.14796257
104	0xbe65ba26	-0.22434291
105	0xbe52d6c7	-0.20589744
106	0x3d1f55a6	0.03890004
107	0x3d44f77e	0.04808759
108	0xbe3c53e0	-0.18391371
109	0xbe0884b8	-0.13331878
110	0xbe0051db	-0.12531225
111	0xbdade9c8	-0.08491856
112	0x3e1348d0	0.14383245
113	0x3e6fa49b	0.23402636
114	0xbdc0f5cf	-0.09421884
115	0xbdfb7f7c	-0.12280175
116	0x3cff597a	0.031170595
117	0xbdb99ea1	-0.09063459
118	0xbcab0716	-0.020877402
119	0xbe3c097f	-0.18362997
120	0x3cdf0359	0.027223276
121	0x3d84aa8f	0.06477844
122	0x3e1d6cbb	0.15373509
123	0xbe1b4ce8	-0.15166056
124	0x3ddd07c7	0.10792499
125	0xbc09d2a3	-0.008412036
126	0xbcca57f5	-0.024700144
127	0xbeb68d22	-0.3565455
128	0xbd6839bb	-0.05669568
129	0xbdc9da75	-0.098561205
130	0xbd129d04	-0.035794273
131	0xbdcb57b6	-0.09928839
132	0x3ead645e	0.33865637
133	0x3d3d0f52	0.04615719
134	0x3cf43160	0.0298087
135	0x3dfca93b	0.12336966
136	0xbe0ade51	-0.1356137
137	0xbe45d7e4	-0.19320637
138	0x3dbd2353	0.09235253
139	0x3d94f400	0.07273102
140	0x3c4ff1b1	0.012691901
141	0x3e89bef2	0.26903492
142	0x3e48e304	0.1961785
143	0xbe47631f	-0.19471405
144	0x3dedf428	0.11618835
145	0xbde01b9a	-0.109427646
146	0x3d3c60a4	0.0459906
147	0x3a14237c	0.00056510395
148	0xbda0b56c	-0.078471035
149	0x3e2abb0d	0.16672917
150	0xbec28967	-0.37995455
151	0xbd31b5bb	-0.043386202
152	0x3dcabed9	0.098996826
153	0xbd1847b6	-0.037177764
154	0xbd783c18	-0.060604185
155	0xbd15ecc2	-0.036602743
156	0x3d5389bc	0.051645026
157	0x3cb0df28	0.021590784
158	0x3e852798	0.2600677
159	0xbc163edf	-0.009170263
160	0xbd51efe9	-0.051254187
161	0x3e7ba458	0.24574411
162	0x3db7e117	0.08978479
163	0xbd70eb99	-0.058818433
164	0xbe5120e2	-0.204227
165	0xbdf8253c	-0.12116477
166	0x3e2ded74	0.16985112
167	0xbd113a0f	-0.03545576
168	0xbb432718	-0.002977794
169	0xbb0eb977	-0.0021778026
170	0xbcaf6153	-0.021408712
171	0x3def6919	0.11689968
172	0x3cde8d1a	0.027166892
173	0xbdf2f274	-0.118626505
174	0x3e58a94e	0.21158335
175	0xbd026b99	-0.031840894
176	0x3e09d161	0.13458778
177	0x3daf2e4c	0.08553752
178	0x3e7b2da1	0.24529125
179	0x3e3b4c31	0.18290783
180	0xbd989f9f	-0.0745232
181	0xbe8734ee	-0.2640757
182	0x3c81c3d3	0.015840447
183	0x3e231c26	0.15928707
184	0x3bc036c8	0.0058659054
185	0xbcbcba0e	-0.023037937
186	0xbca0fe84	-0.019652613
187	0x3e740fa4	0.23834091
188	0xbdac11db	-0.08401843
189	0x3e5dbcf3	0.2165411
190	0xbd1cb9ee	-0.038263254
191	0x3d759147	0.059953
192	0x3e8027f1	0.25030473
193	0xbdd5670a	-0.10420044
194	0x3bddd753	0.0067700534
195	0x3db23de6	0.087032124
196	0x3e2960d7	0.16540848
197	0x3d002e7b	0.031294327
198	0x3e4d9da2	0.20079663
199	0x3e1e1846	0.15438947
200	0x3e0839b9	0.1330327
201	0xbdea5b9b	-0.114432536
202	0x3e80f76b	0.25188765
203	0xbd252b46	-0.040324472
204	0x3ea955e3	0.3307334
205	0xbe1d61dc	-0.15369362
206	0xbd3016ff	-0.04299068
207	0x3b1bd1fb	0.002377628
208	0xbe477878	-0.19479549
209	0xbdb8ce83	-0.09023764
210	0xbde9299e	-0.11384891
211	0x3d8ef744	0.06980756
212	0xbdda73a3	-0.10666587
213	0xbdbd1417	-0.092323475
214	0xbd13de0a	-0.036100425
215	0xbb2333fb	-0.002490281
216	0xb9e53c22	-0.00043723086
217	0x3c161c6c	0.00916205
218	0x3de635b8	0.11240715
219	0x3e4bd1c0	0.19904232
220	0x3d01eea1	0.031721715
221	0x3e3f1ecf	0.18664096
222	0xbe6bcd0b	-0.23027436
223	0x3e2cf5a6	0.16890582
224	0xbd49f8c0	-0.049309492
225	0x3c412842	0.011789383
226	0x3e2498d5	0.16073926
227	0xbdca970d	-0.09892092
228	0x3e02dcbc	0.12779516
229	0x3e4fcca9	0.20292915
230	0xbd9836e6	-0.07432346
231	0xbe8545a7	-0.26029703
232	0xbd2297ea	-0.039695658
233	0x3e06c0b6	0.13159451
234	0xbce431bb	-0.027855745
235	0x3e1f67da	0.1556696
236	0xbe94812b	-0.29004797
237	0xbe0d96b9	-0.13827027
238	0xbccc858e	-0.024966028
239	0x3cc28f19	0.023749875
240	0x3ce83e49	0.028350012
241	0x3e4897ce	0.19589159
242	0xbd80fd3e	-0.06298302
243	0x3cae2114	0.021256007
244	0xbd7165fb	-0.058935147
245	0xbe1c53b0	-0.15266299
246	0x3dccbfb6	0.099975035
247	0xbcdf86f0	-0.027286023
248	0xbb8df314	-0.0043319557
249	0x3d19027d	0.03735589
250	0xbd5caa95	-0.053873617
251	0xbdc75739	-0.09733433
252	0x3ea4bc17	0.3217475
253	0x3deade99	0.114682384
254	0x3c7f4179	0.015579575
255	0x3d8068e7	0.062700085

network_body._body_endoder.seq_layers.0.bias f4 [128]
0	0x00000000	0.0
1	0x00000000	0.0
2	0x00000000	0.0
3	0x00000000	0.0
4	0x00000000	0.0
5	0x00000000	0.0
6	0x00000000	0.0
7	0x00000000	0.0
8	0x00000000	0.0
9	0x00000000	0.0
10	0x00000000	0.0
11	0x00000000	0.0
12	0x00000000	0.0
13	0x00000000	0.0
14	0x00000000	0.0
15	0x00000000	0.0
16	0x00000000	0.0
17	0x00000000	0.0
18	0x00000000	0.0
19	0x00000000	0.0
20	0x00000000	0.0
21	0x00000000	0.0
22	0x00000000	0.0
23	0x00000000	0.0
24	0x00000000	0.0
25	0x00000000	0.0
26	0x00000000	0.0
27	0x00000000	0.0
28	0x00000000	0.0
29	0x00000000	0.0
30	0x00000000	0.0
31	0x00000000	0.0
32	0x00000000	0.0
33	0x00000000	0.0
34	0x00000000	0.0
35	0x00000000	0.0
36	0x00000000	0.0
37	0x00000000	0.0
38	0x00000000	0.0
39	0x00000000	0.0
40	0x00000000	0.0
41	0x00000000	0.0
42	0x00000000	0.0
43	0x00000000	0.0
44	0x00000000	0.0
45	0x00000000	0.0
46	0x00000000	0.0
47	0x00000000	0.0
48	0x00000000	0.0
49	0x00000000	0.0
50	0x00000000	0.0
51	0x00000000	0.0
52	0x00000000	0.0
53	0x00000000	0.0
54	0x00000000	0.0
55	0x00000000	0.0
56	0x00000000	0.0
57	0x00000000	0.0
58	0x00000000	0.0
59	0x00000000	0.0
60	0x00000000	0.0
61	0x00000000	0.0
62	0x00000000	0.0
63	0x00000000	0.0
64	0x00000000	0.0
65	0x00000000	0.0
66	0x00000000	0.0
67	0x00000000	0.0
68	0x00000000	0.0
69	0x00000000	0.0
70	0x00000000	0.0
71	0x00000000	0.0
72	0x00000000	0.0
73	0x00000000	0.0
74	0x00000000	0.0
75	0x00000000	0.0
76	0x00000000	0.0
77	0x00000000	0.0
78	0x00000000	0.0
79	0x00000000	0.0
80	0x00000000	0.0
81	0x00000000	0.0
82	0x00000000	0.0
83	0x00000000	0.0
84	0x00000000	0.0
85	0x00000000	0.0
86	0x00000000	0.0
87	0x00000000	0.0
88	0x00000000	0.0
89	0x00000000	0.0
90	0x00000000	0.0
91	0x00000000	0.0
92	0x00000000	0.0
93	0x00000000	0.0
94	0x00000000	0.0
95	0x00000000	0.0
96	0x00000000	0.0
97	0x00000000	0.0
98	0x00000000	0.0
99	0x00000000	0.0
100	0x00000000	0.0
101	0x00000000	0.0
102	0x00000000	0.0
103	0x00000000	0.0
104	0x00000000	0.0
105	0x00000000	0.0
106	0x00000000	0.0
107	0x00000000	0.0
108	0x00000000	0.0
109	0x00000000	0.0
110	0x00000000	0.0
111	0x00000000	0.0
112	0x00000000	0.0
113	0x00000000	0.0
114	0x00000000	0.0
115	0x00000000	0.0
116	0x00000000	0.0
117	0x00000000	0.0
118	0x00000000	0.0
119	0x00000000	0.0
120	0x00000000	0.0
121	0x00000000	0.0
122	0x00000000	0.0
123	0x00000000	0.0
124	0x00000000	0.0
125	0x00000000	0.0
126	0x00000000	0.0
127	0x00000000	0.0
