results/Run-d1/TrucksBehavior/TrucksBehavior-19136.onnx (onnx, 102796 bytes, 11 tensors)

action_model._discrete_distribution.branches.0.bias f4 [6]
000000 2e b5 dc ba 2f d3 d5 3a 48 e4 09 3b 84 d2 a8 2d
       -0.0016838664 0.0016313548 0.0021040607 1.9192876e-11
000010 73 b3 55 19 c2 0e eb 31
       1.1048081e-23 6.841078e-09

action_model._discrete_distribution.branches.0.weight f4 [6, 128]
000000 41 e1 40 bc e0 85 2d bc c3 dd 25 3b 13 df 8e bb
       -0.011772455 -0.010591 0.0025309182 -0.0043600886
000010 95 10 33 3c 80 64 19 bc 87 64 1d 3a 66 82 2c 3c
       0.010929246 -0.00936234 0.00060040544 0.010529136
000020 06 41 be bb 45 aa 62 bc d4 87 81 3b 8f 9d bd bb
       -0.0058060912 -0.013834541 0.0039529596 -0.0057866047
000030 22 6a 84 bb e4 b0 ac 3a 28 56 98 3b c3 0a 64 3b
       -0.0040409723 0.0013175276 0.0046489425 0.0034796454
000040 40 71 5c 3c fa 1b 87 3a 19 07 fa 3a a0 5d a8 3c
       0.013454735 0.001030802 0.0019075602 0.020552456
000050 b9 7d 1c 3c d9 b6 64 3c 31 53 b9 bb 76 71 4a 39
       0.009551459 0.01395961 -0.005655669 0.00019306489
000060 73 52 94 b9 af c5 e6 3b 4f b5 71 bb 44 87 6a bc
       -0.0002829019 0.0070426087 -0.003688175 -0.014314476
000070 e7 d8 b2 39 17 c2 73 38 ef 1f 9f bc 56 8c e6 ba
       0.0003411241 5.8116475e-05 -0.019424407 -0.0017589431
000080 b5 98 2c bc 5f 54 05 3b b9 2c 02 3c 6a b9 28 3c
       -0.010534455 0.0020344479 0.007945233 0.010298112
000090 2f 6c 0c bc 5a b6 3e bb 4b c7 e7 b9 80 dd 72 bc
       -0.008570715 -0.002910039 -0.00044208238 -0.0148233175
0000a0 08 f7 6d 3c 00 e3 c6 3b 8a 6e f7 bb 53 a3 05 3c
       0.014524229 0.006069541 -0.007551019 0.008156615
0000b0 65 b4 ff 3a 9f 29 00 3b ae 9d 32 ba 0c c4 9d 3c
       0.0019508718 0.0019556058 -0.0006813657 0.019258521
0000c0 eb d0 82 bc 83 ca 00 3c 1b 3c fe 3b 15 33 c1 bb
       -0.01596876 0.007860783 0.00775863 -0.005895982
0000d0 31 b5 67 3c 18 d5 f9 3b 35 d6 09 bc 36 cf 88 bb
       0.0141423205 0.0076242797 -0.008412887 -0.004175092
0000e0 96 68 0e 3c 30 6b 1b 3c a2 92 ac bc 1f 7b 12 bc
       0.008691927 0.009486005 -0.021066014 -0.008940487
0000f0 f4 83 7a 3c e7 77 63 bb cf b7 6f 3c 4e 18 8b 3a
       0.015290249 -0.0034708919 0.014631226 0.0010612102
000100 b4 26 17 bc d7 4f 19 bc af 94 a2 3b 64 f4 9d bb
       -0.009225536 -0.009357414 0.004961572 -0.0048203934
000110 27 19 07 bc 28 4e 20 bb 1a 6c cc 3b 94 55 7b bb
       -0.008245743 -0.0024460647 0.0062384726 -0.003835057
000120 20 aa 2d bb db 68 11 bb 29 dd 2c 3b 9c 61 28 bb
       -0.0026499107 -0.0022187743 0.002637694 -0.0025692945
000130 4a 44 ed ba 59 97 0c bc 82 7e 11 bc 70 bb 07 bb
       -0.0018102017 -0.008581006 -0.0088802595 -0.0020711087
000140 7b 12 2a 3c ab 3e 38 3c 42 b4 1a bb e3 34 02 3c
       0.010380383 0.01124541 -0.0023605977 0.0079471795
000150 d7 d9 5d bc 7f 69 2f bc f0 0c 97 bb bb a6 f6 bb
       -0.013540707 -0.010706305 -0.0046096966 -0.0075272
000160 20 08 89 bb 9b 23 85 3a 4d a1 7c 3a c3 2f 24 3c
       -0.004181877 0.0010157706 0.0009637073 0.010021153
000170 64 91 25 3c 9a 74 a8 3b 4a da 6e 38 66 e2 3b b8
       0.010105465 0.005140853 5.694692e-05 -4.4795124e-05
000180 70 ca 81 bc de 35 de bb 90 55 12 3c cc a8 d4 b9
       -0.0158436 -0.006781324 0.0089315325 -0.00040561554
000190 7e 09 5e bc 0b 48 64 bc 8e ca e3 bb c6 96 d8 ba
       -0.013552068 -0.013933192 -0.0069516366 -0.0016524426
0001a0 82 4c 5f 3c c4 8f 46 bb 1e a2 5b bc b7 c3 17 bc
       0.013629081 -0.0030298093 -0.013405351 -0.009262971
0001b0 70 d2 c1 3b f5 b8 5b bc 8c 1f f4 bb a8 00 65 3c
       0.0059149787 -0.013410796 -0.0074500497 0.013977207
0001c0 cd e6 84 bc 8b 2c 81 bc 53 c6 d8 3b ea 73 d6 3b
       -0.016223336 -0.01576831 0.006615439 0.0065445798
0001d0 4e 70 93 3a 01 3a 91 bc 72 a9 bc 3a eb c9 72 3b
       0.0011248679 -0.017727854 0.001439376 0.0037046622
0001e0 1c 2c b2 3b 5a 17 d5 3b 22 9e 8c bc a5 84 a1 bb
       0.005437387 0.006503028 -0.017165247 -0.0049291425
0001f0 fb 0c 05 3c a5 61 1d 3c e2 b3 8a 3b a5 5b 10 3c
       0.008120771 0.0096058 0.0042328695 0.008810912
000200 74 14 34 bb 35 58 e8 bb d8 59 fa 3b 8f 57 5d 3c
       -0.0027478011 -0.007090593 0.0076401047 0.013509645
000210 b7 a4 20 bc cb d1 e6 3b 87 c3 42 3b b9 5a ed ba
       -0.009804896 0.0070440522 0.0029718594 -0.0018108702
000220 3d 66 0e 3c c9 18 81 38 57 ca f9 ba 27 bd 81 3c
       0.008691368 6.155816e-05 -0.0019057494 0.015837265
000230 af 61 2d bb 00 8d e7 bb e5 e3 db 3b 62 c7 0b bc
       -0.002645593 -0.007066369 0.0067105168 -0.008531423
000240 9b da b0 3c 99 1d 88 3a ca 72 d9 39 a0 e8 4d 3c
       0.021588614 0.0010384797 0.0004147499 0.012567669
000250 18 d6 de bb a5 40 d8 ba a8 82 eb b9 ce 80 1e 3a
       -0.0068004243 -0.0016498758 -0.0004492004 0.0006046415
000260 ea e4 14 bc 04 aa 43 3b 57 f8 62 3b 8c 9a da 39
       -0.0090877805 0.0029855976 0.0034632885 0.00041695347
000270 f7 1d a5 3a f9 05 3e 3c dd 95 13 3c 41 4c 66 3a
       0.0012597431 0.011598104 0.009007898 0.00087851664
000280 4f 25 83 bc 69 4d 83 bc 9a 10 a3 bb af 08 cf bb
       -0.016009001 -0.016028123 -0.0049763443 -0.006318174
000290 48 10 15 3c 53 94 03 3c ea 3d 6e 3c a5 1c 5d bc
       0.00909812 0.008030969 0.014541129 -0.013495599
0002a0 34 6f a8 bc da e5 87 bc 1f 0d 56 3c cd aa 83 bb
       -0.020560838 -0.016589094 0.013064652 -0.004018164
0002b0 40 ee ab bb dd 76 c7 bb 11 15 b7 3b 99 d1 8f 3b
       -0.0052469075 -0.0060871677 0.005587228 0.0043889997
0002c0 12 1d 9c 3a 8a fe 5c 3c cd 4e 43 bc 30 d8 3a 3c
       0.0011910519 0.013488421 -0.011920643 0.011404082
0002d0 d8 13 e2 3b 23 24 67 3c 47 de a3 b8 cd 3f 0b bc
       0.006899338 0.014107737 -7.813848e-05 -0.008499098
0002e0 f6 ec 91 3c 85 5a fa 39 ef 70 04 bc f7 2b 9a bc
       0.017813187 0.00047751158 -0.008083566 -0.018819792
0002f0 3f 57 a9 3c f4 07 62 bc 1f 0b 8f 3b 93 e1 cb bb
       0.020671485 -0.0137958415 0.0043653394 -0.006221959
000300 c1 23 37 3c c0 d0 f3 bb 6c 4f 85 bc e3 25 96 3b
       0.011177958 -0.0074406564 -0.016273223 0.004582153
000310 dc de 0b bc 7d 5d f8 3a 45 76 8f 3b d2 21 fa 3b
       -0.0085370205 0.001894876 0.0043781125 0.007633426
000320 1c 1e 70 3c d5 56 a5 3b 58 20 d0 bc 2c 97 ab ba
       0.014655616 0.0050457516 -0.025406048 -0.0013091317
000330 6a 0d e3 bb 4e ca 06 bc f1 97 72 bb ec 91 d1 3a
       -0.0069290893 -0.008226944 -0.0037016834 0.0015988923
000340 7a 02 6f b8 dc be 16 bb ef ed 3d 3b bb 08 fe 3a
       -5.6984347e-05 -0.0023001945 0.002898093 0.0019381264
000350 32 86 d9 39 b5 7e 97 bc 6f 2f 17 ba db 63 05 3b
       0.0004148945 -0.018493036 -0.0005767261 0.0020353708
000360 81 aa 27 bb 10 22 70 3b db d4 53 bc 3f 66 01 3c
       -0.0025583806 0.0036641397 -0.012929167 0.0078979125
000370 ee 4e 88 3b 13 c5 ce bb 01 58 24 3c 48 dc d5 bb
       0.0041598 -0.006310114 0.010030747 -0.0065265037
000380 06 25 14 bc 91 be 62 bb df 9f 01 bc e2 ce 87 3a
       -0.00904203 -0.003459845 -0.007911651 0.0010361338
000390 5b 42 a7 3c 48 75 39 3b 7a b5 04 bc 98 c6 39 3c
       0.020417383 0.0028298665 -0.008099908 0.011338852
0003a0 c8 92 cb 3b 72 75 4a 3a 8d 11 65 bc b8 54 8f 3c
       0.006212566 0.0007723189 -0.013981235 0.017496452
0003b0 77 e4 e3 bb b2 15 c5 3b 74 af 11 3b fb 9b a8 bb
       -0.0069547254 0.006014549 0.0022229822 -0.0051455474
0003c0 34 00 c5 3b bb d7 9e bc 66 49 6a bc 04 8a 1e bc
       0.006011987 -0.019389978 -0.014299726 -0.00967646
0003d0 ef 5b 60 3b 0c ac 6a bb 90 cc 62 3a b0 1c 14 bb
       0.0034234484 -0.0035808114 0.0008651698 -0.0022600107
0003e0 df de 39 bb 7d eb d2 bb 48 6f d3 b9 bf b0 c2 bb
       -0.0028361601 -0.006436764 -0.00040327967 -0.00594148
0003f0 a3 66 7a 3b 19 5a dd 3b 13 ad 58 ba 77 33 1e bc
       0.003820815 0.0067551252 -0.0008265536 -0.009655825

action_model._discrete_distribution.branches.1.bias f4 [6]
000000 0f 3f 53 12 4c 71 a3 ba 50 71 a3 3a f0 ba b2 33
       6.6657586e-28 -0.0012469678 0.0012469683 8.322775e-08
000010 7b ea 69 33 21 e5 ae 2d
       5.44628e-08 1.9883263e-11

action_model._discrete_distribution.branches.1.weight f4 [6, 128]
000000 c1 ec 2e bc 7d 78 f1 3a 5c 98 4b 3a ce fa 94 3b
       -0.010676564 0.0018422749 0.0007766539 0.0045465
000010 85 bb 04 3c 57 6c 93 3c 3b e1 83 bc b4 64 21 ba
       0.008101349 0.017995996 -0.01609861 -0.00061566685
000020 ad 66 12 bc 87 6c 8e 3b 57 d0 df b9 0f f7 0f bc
       -0.008935613 0.0043464336 -0.000426891 -0.008786931
000030 2b 62 c1 bb 2c da 02 bc c5 6f 3c bc 5f 46 86 bb
       -0.005901595 -0.007986587 -0.011501257 -0.0040977444
000040 d7 af c1 3a 65 5f a0 3c 4d fb 5e bc d6 be 20 bc
       0.0014777136 0.019576738 -0.013609719 -0.009811124
000050 47 7a 32 bc 54 b4 a8 3a 38 34 f2 3a 4d 27 f6 bb
       -0.010893411 0.0012871125 0.0018478697 -0.0075120092
000060 b0 10 a3 b9 1b 6e 2a 3c bc 60 21 3c be b9 82 bb
       -0.00031102216 0.010402228 0.009849723 -0.0039894274
000070 b8 82 da 3b d8 3c 1f bb d3 95 87 bc 12 b1 25 bb
       0.006668415 -0.002429774 -0.016550934 -0.0025282544
000080 b5 bf 71 bb 83 54 2e bb 7b 58 77 39 3f 24 03 39
       -0.0036887948 -0.0026600666 0.00023588717 0.00012506636
000090 2d a1 31 bc a2 58 d5 bb ab ba 0f ba c6 be 9b bb
       -0.01084165 -0.00651081 -0.0005482833 -0.0047529666
0000a0 33 54 28 bb 87 9e dc bb 3d 72 a8 38 9c 29 2d bb
       -0.0025684952 -0.006732765 8.032143e-05 -0.0026422506
0000b0 5b c8 d9 3b b2 cc d5 b9 b7 b3 8d bb 1a 60 d0 ba
       0.0066461987 -0.00040779036 -0.004324402 -0.0015897781
0000c0 5a f6 6e bc 05 90 ab bb 17 01 33 bc 02 2c cf 3a
       -0.014585102 -0.0052356743 -0.010925553 0.0015805962
0000d0 63 18 b4 b8 d7 19 c8 3b 3f a2 2a bc 43 9d 69 3b
       -8.587611e-05 0.006106596 -0.010414659 0.0035646714
0000e0 7b 54 9e b9 18 75 ce 3b 45 10 62 ba b5 63 c6 ba
       -0.0003019905 0.0063005798 -0.000862364 -0.0015135916
0000f0 2d 2d c0 bc 8d 27 e6 3a c1 37 93 3a 4b 29 6e bc
       -0.023459041 0.0017559394 0.0011231826 -0.014536212
000100 e0 18 f4 39 05 79 59 bc 80 ef da 3a af 20 d0 bb
       0.0004655784 -0.013273482 0.0016703457 -0.0063515524
000110 87 26 0f 3c ad ce 6d bc 10 63 61 3c 08 df 0d bc
       0.008737213 -0.014514607 0.0137565285 -0.008659132
000120 e4 be 1a bb b1 3d 02 bb 51 67 3b bc 49 a7 23 bb
       -0.0023612315 -0.0019873197 -0.011438207 -0.0024971536
000130 a4 cb 0b bc 4d 17 a7 3a 0f 51 08 bc c2 7c d3 bb
       -0.008532438 0.0012748033 -0.008320107 -0.0064540813
000140 5d c9 1d 3a ce ef c4 bb af 47 3a bc ee ca 43 3c
       0.000601908 -0.0060100323 -0.01136963 0.011950238
000150 f2 9f ef 3b 43 92 2c 3c 37 e0 47 3b 5f 3e 3e b8
       0.007312768 0.010532918 0.0030498633 -4.5357618e-05
000160 e2 ee c2 bb 8a e6 a2 3b bf 4b 08 bc e2 71 7e bb
       -0.005948887 0.00497133 -0.0083188405 -0.0038825204
000170 88 f3 5c 3b 97 0d 59 3b 70 f4 2f bc 72 93 7d bc
       0.0033714492 0.0033119672 -0.010739431 -0.015477048
000180 23 a6 04 bb ed 60 f9 b9 96 b1 b7 bb e3 6d b2 3a
       -0.0020240627 -0.00047565196 -0.0056058867 0.0013613071
000190 87 63 fa 39 68 f2 5b 3b 0f 5d 8f 3b 9f d9 0a 3a
       0.0004775787 0.0033561233 0.004375107 0.00052967103
0001a0 40 8d 01 bb 78 3d 1c bc 1d fc 06 3c 54 03 b9 39
       -0.001976803 -0.00953614 0.008238819 0.0003528843
0001b0 9d 29 15 3b d8 d1 cf 3b 8d 33 cc bc 8f 79 b1 3b
       0.00227604 0.006342154 -0.024926925 0.0054161022
0001c0 d2 c1 dc bb 2a 55 83 3b 75 eb 5f 3c 65 a8 d1 3b
       -0.0067369724 0.004007955 0.013666977 0.006398248
0001d0 b6 08 0b 3b 58 33 b2 ba 66 3c 1c 3b c5 9e 5d bc
       0.002121491 -0.0013595624 0.0023839711 -0.013526623
0001e0 ca 7c 6f bc 88 1c cd bb e7 1b a3 3b f2 e1 32 3a
       -0.014617154 -0.0062595047 0.0049776915 0.00068238296
0001f0 01 a4 31 3a f8 da d3 38 e2 4a 73 bc 90 8c 88 ba
       0.00067764526 0.0001010205 -0.014849396 -0.0010417867
000200 2d f3 26 3a a3 7f 01 bc b9 7c 48 ba 86 53 3e 3b
       0.00063686335 -0.007903966 -0.00076479797 0.0029041483
000210 85 9a e0 bb ce 7f 9a bb 3c 7c 0c 3c 57 f0 66 3c
       -0.0068543577 -0.0047149425 0.008574542 0.014095387
000220 7a 83 80 3c d7 ca 5c bb 91 54 a2 bb 3d 98 91 3c
       0.015687693 -0.0033690238 -0.0049539288 0.017772788
000230 cd 93 a8 b9 33 97 c0 bb a4 e9 85 bc 92 dd 1a 3c
       -0.00032153577 -0.0058773994 -0.01634676 0.009452241
000240 df 9c 02 3c ea 48 05 3b c9 ec 89 ba 05 86 87 bc
       0.007971971 0.002033765 -0.0010522838 -0.016543398
000250 60 e7 fa 3b bb 41 a8 bb 66 cc 04 3c 3c a3 49 3c
       0.0076569766 -0.005134789 0.008105373 0.0123069845
000260 04 02 30 3c b3 d4 2a 3c b7 c9 3f 3c b3 ee 0b bc
       0.010742668 0.010426688 0.011705807 -0.008540797
000270 98 81 89 3c 04 78 00 3c 0d 39 2e bb ed ee 2e 3c
       0.016785428 0.007841114 -0.0026584298 0.0106770815
000280 9f 80 13 3c 17 a9 9a 3b 52 0f 79 3c 00 d0 13 bc
       0.009002834 0.004719864 0.015201407 -0.009021759
000290 18 af 5f 3c 31 9c a6 ba 70 0a e2 3b c7 98 8d bb
       0.013652585 -0.0012711344 0.006898217 -0.004321191
0002a0 94 f4 36 bb b8 fe 7e 3c a8 9a c9 3b c3 de 1a bc
       -0.0027916776 0.015563659 0.0061524697 -0.009452525
0002b0 fa 8b 82 3a df 91 19 bc 53 c4 18 bc 50 87 79 3a
       0.0009959929 -0.009373157 -0.009324151 0.00095187593
0002c0 d0 bf 8b 3b 3e 9b 61 bc a1 c9 18 3c 31 a3 86 3a
       0.004264809 -0.013769923 0.009325416 0.0010272024
0002d0 b1 c6 32 3a a2 0f 3f 3b 07 c6 19 3b 88 49 cd 3c
       0.00068197685 0.0029153605 0.002346398 0.025059476
0002e0 14 37 36 bb 7e 2c 2d bc a8 d2 42 bc 52 eb d4 bb
       -0.0027803825 -0.01056969 -0.011891045 -0.006497779
0002f0 80 8c cf 3b ad 3c 60 bc d2 c2 4c 39 c8 70 91 bb
       0.0063338876 -0.013686341 0.00019527532 -0.0044384934
000300 d1 ce 0e 3c 0b 85 58 bc 5e d1 0b 3a 14 fb bd 3b
       0.008716301 -0.013215314 0.00053336273 0.005797753
000310 51 b2 00 bc b9 fb e9 bb ea 46 fb b9 18 33 38 ba
       -0.007855014 -0.0071406034 -0.00047927286 -0.00070266565
000320 fe b9 4c 3b 29 56 87 bb 9b 8b ba bb cd 48 6b 3c
       0.003123879 -0.004130144 -0.005692912 0.014360619
000330 07 0e 2f bc dd aa 43 bb f6 54 02 3c 91 2d a9 ba
       -0.010684497 -0.002985648 0.007954827 -0.0012907257
000340 4f 5d 99 bb 78 e7 e5 ba e9 8f 21 bb 07 cf 3b b9
       -0.0046803127 -0.0017540297 -0.0024652428 -0.00017910833
000350 af 39 78 bc 9a a9 af bb 6a 66 a4 bb 58 67 09 3c
       -0.015150472 -0.0053607943 -0.0050170915 0.0083864555
000360 09 5a 39 bb 42 da 18 bc 86 d3 c9 bb 44 9e 09 bc
       -0.0028282425 -0.0093293805 -0.0061592488 -0.00839955
000370 22 87 4d bb 88 b8 07 3c 7b 37 1f 3c 34 31 14 3b
       -0.0031361063 0.008283742 0.009717817 0.0022612335
000380 2a a4 01 3b 1b de d0 bb c7 1b 42 bc e8 b0 fa 3b
       0.0019781687 -0.0063741333 -0.011847443 0.0076504834
000390 ba b9 96 ba 6b 76 24 3c d7 c3 35 3c a4 7c c1 3a
       -0.0011499443 0.010037999 0.011094055 0.0014761877
0003a0 97 6e 07 3c 95 ee 41 3c e0 3f 57 bb e2 a5 28 3c
       0.008266113 0.011836668 -0.003284447 0.010293456
0003b0 e8 1d a8 ba 4c a7 18 bc cf 58 02 3b e4 10 2e bc
       -0.0012826296 -0.00931723 0.001988936 -0.010624144
0003c0 f1 74 d7 bb 90 e8 8c ba 55 0d c0 3b b5 cf 28 bc
       -0.00657522 -0.0010750461 0.0058609643 -0.010303427
0003d0 39 88 a8 3b 11 ac 61 3a 47 ed ac 3a cd 61 cf bb
       0.005143192 0.0008608709 0.0013193273 -0.0063287974
0003e0 30 16 44 bb a6 86 23 bc 37 29 08 bb 42 aa 4f 3c
       -0.0029920451 -0.009980833 -0.002077652 0.01267487
0003f0 78 14 9d 3b 73 a3 3b 3b 32 18 60 bb 7d 9d 02 bc
       0.0047937 0.002863136 -0.003419411 -0.007972118

action_model._discrete_distribution.branches.2.bias f4 [6]
000000 39 6d 9e ba 29 90 9e 3a 3b 38 fb 3a c7 fa c0 2b
       -0.0012086994 0.0012097406 0.0019166538 1.3712025e-12
000010 e0 08 9e 3a 1e 58 4b 1d
       0.0012057088 2.6912382e-21

action_model._discrete_distribution.branches.2.weight f4 [6, 128]
000000 78 71 8b 3a ef b9 c1 3b 51 6e dd bb d3 35 3d 3c
       0.0010638675 0.0059120576 -0.0067575355 0.011548477
000010 3f 5a 43 bc c2 7c 62 bc 83 93 c2 bb 29 94 74 3c
       -0.011923372 -0.01382369 -0.005937995 0.014927902
000020 ba ca cc 3a 4a 49 99 bb 72 b7 82 3b cc 5f 27 3c
       0.0015624382 -0.004677926 0.0039891535 0.010215711
000030 fd ef d5 3a f7 f1 9c 3b b4 fa 3f bc 03 00 0a ba
       0.0016322132 0.0047895866 -0.011717487 -0.0005264284
000040 c9 5d 94 3c 8b 54 a1 bb dc 32 d8 3b 97 19 a7 3b
       0.018111126 -0.0049234084 0.00659786 0.005099486
000050 c7 52 db 39 37 53 59 3c cb d0 6d 3a 89 95 a9 3b
       0.0004183261 0.013264469 0.0009071945 0.0051752967
000060 cc 48 29 3c e0 b8 76 bc c9 a1 3c 3c 55 50 66 3a
       0.0103322975 -0.015058726 0.011513182 0.0008785774
000070 5c ab 2d 3b bd 6a 53 b9 02 05 75 bb 76 5e f5 3b
       0.0026499843 -0.00020162291 -0.0037387018 0.0074880673
000080 a5 49 17 3c 50 0c 2f 3c 8f 1e 23 3a 61 40 8a 3a
       0.009233867 0.010684088 0.000622251 0.0010547751
000090 69 50 31 3b 49 ad ec 3b 22 7c 16 bc f8 00 2a bb
       0.0027055985 0.0072228056 -0.009184869 -0.0025940519
0000a0 2e f7 34 3c 41 dc 0f bc c9 bd 16 3b fd 11 e9 b8
       0.01104526 -0.00878054 0.0023001304 -0.000111136564
0000b0 de be 83 bc bd e3 5b bb b3 c2 90 bc b0 a4 3d bc
       -0.016082224 -0.003355249 -0.017670965 -0.011574909
0000c0 b1 48 0f 3c 21 b7 e4 bb 35 c1 dd bb 44 27 05 bb
       0.008745358 -0.0069798385 -0.006767417 -0.0020317594
0000d0 fb 00 ac bb aa 2a f6 3b c9 c6 0e ba 92 15 d7 ba
       -0.0052491403 0.00751241 -0.00054464914 -0.0016409627
0000e0 5e f7 16 3c 7e ba 8d bb dd ae 8d ba 9b a8 23 3c
       0.00921425 -0.00432521 -0.001080956 0.009988929
0000f0 9f 60 bb 3b de 41 12 3a f3 b3 dc b8 0f cb 1c bb
       0.0057183052 0.0005579273 -0.000105239356 -0.0023924743
000100 76 71 a2 bb 38 ec f0 3b 9d e7 a9 bc 19 21 9a bc
       -0.0049573733 0.007352378 -0.020740325 -0.01881461
000110 3b 16 53 bb a1 16 75 3a b4 a9 bc bc ee 5c 04 ba
       -0.0032209295 0.000934938 -0.02303014 -0.0005049248
000120 89 98 3d bb 75 13 91 3b 23 e0 6d 3b 0b 55 fa b8
       -0.002893003 0.0044273683 0.0036296926 -0.000119367694
000130 55 e5 6e bb 12 6c 8f 3a 46 e8 6d bc c3 c2 28 3b
       -0.003645261 0.0010942242 -0.01452071 0.0025750853
000140 90 b7 1d 3b c7 b9 7c bc 0f 0b b6 bb 07 56 68 bc
       0.002406571 -0.015425152 -0.0055555175 -0.014180667
000150 e2 50 61 3c 80 e0 46 3c ab 60 31 bc b5 13 d7 bc
       0.013752194 0.012138486 -0.01082627 -0.026254514
000160 86 4d 0c bc 63 ba d3 3b 53 f6 83 bc cb 5c 08 3c
       -0.008563405 0.006461428 -0.016108667 0.008322905
000170 56 e7 e5 bb fa 6b 47 3b 15 96 65 bc 08 f6 c9 bb
       -0.007016103 0.003042935 -0.014012833 -0.0061633624
000180 61 4f 01 3c 14 3a 21 3c b2 90 f1 bb 14 77 21 ba
       0.007892461 0.009840507 -0.0073719854 -0.00061594066
000190 75 55 0a 3a e5 5b 55 bb 5a 29 0a 3c 04 76 00 bc
       0.00052770163 -0.0032555994 0.008432711 -0.007840637
0001a0 2a 0f 03 bb fc b6 07 3c c7 a2 94 bb 44 57 10 3c
       -0.0019998052 0.008283373 -0.004536006 0.008809868
0001b0 11 d4 13 bc 6d 02 90 3b fc 03 2c 3a db 09 e5 3b
       -0.009022729 0.0043948204 0.0006561873 0.0069897003
0001c0 89 ee ef 3a 63 1d 22 bc b3 96 c9 3a 8c 4f 26 bc
       0.0018305342 -0.009894702 0.0015379995 -0.010150801
0001d0 77 b6 86 bc 9e 58 0e bc 83 8f 3f 3c 73 34 f0 3a
       -0.016444428 -0.00868812 0.011691931 0.0018326178
0001e0 11 97 b8 3b 37 e2 25 bc 5f 59 4d 3b e3 56 19 3b
       0.005633243 -0.010124735 0.0031333787 0.0023397736
0001f0 91 94 59 bb 16 00 57 bc cf ff 09 3b 85 e0 08 bc
       -0.0033200125 -0.013122579 0.0021057015 -0.008354311
000200 26 7f 49 3c b3 8d a4 bb 7d df 2c bb f2 44 c4 38
       0.012298381 -0.0050217747 -0.0026378327 9.3588504e-05
000210 d7 16 2e 3b db 6e 2b bc 56 cb 9f 3c 42 52 28 bb
       0.0026563907 -0.010463442 0.019506138 -0.0025683795
000220 8f df d2 bb 8b 63 7a 3c 01 0a 88 3a 8b 1d 94 bb
       -0.0064353417 0.015282522 0.0010378958 -0.0045201234
000230 87 0d 21 3c ad ba f8 bc 7b 6b 10 bb aa 02 13 ba
       0.009829885 -0.030362451 -0.002203672 -0.0005608002
000240 15 44 53 bc 7a 94 14 bc 32 78 e1 3b 78 23 84 3c
       -0.01289465 -0.009068603 0.0068807835 0.016130194
000250 ec 77 1f 3b 1f 45 0b 3c a3 70 01 bc d0 a5 8b 3c
       0.0024332954 0.0085003665 -0.00790039 0.017046839
000260 83 81 d0 39 17 1d 41 bc a8 a1 a2 bb eb d6 58 3c
       0.00039769345 -0.011786721 -0.0049631186 0.013234834
000270 93 e1 6e 3b 35 79 31 bc 44 dd 40 3c 92 d4 1e ba
       0.003645037 -0.010832121 0.011771504 -0.0006058897
000280 f2 72 e8 bb 2c c8 c0 bb 8b 3c cb bb 16 13 42 bb
       -0.0070937807 -0.0058832373 -0.0062022856 -0.0029613427
000290 ec 91 88 3b 02 1b 21 bc 0d eb ac bb 50 b4 f0 38
       0.004167786 -0.009833099 -0.0052770437 0.000114776776
0002a0 7f cc 23 3c 5b 6a 18 3b 41 e5 fd bb c3 9c 37 bb
       0.009997486 0.0023256752 -0.0077482765 -0.0028017021
0002b0 9c a3 a3 bb c2 58 da bb 87 e0 49 bc 99 ed 00 3b
       -0.004993869 -0.006663413 -0.012321598 0.001967287
0002c0 2a 04 81 3c 5c 2b 56 3c 48 2c 46 3b 63 aa a5 bb
       0.015749056 0.013071861 0.0030238796 -0.005055712
0002d0 df b1 7e 3b 96 fd c7 3c ea 4b a3 3b 8f c5 8c bc
       0.0038863344 0.024412911 0.004983415 -0.017184047
0002e0 ef fc b1 bb 61 14 45 3b c9 dc ce 3b 17 49 fe 3a
       -0.0054317634 0.0030071961 0.0063129407 0.0019400445
0002f0 0e 32 ca 3b 7a c0 85 bc 6b 88 e1 bb 62 a1 86 3c
       0.0061705178 -0.016327132 -0.0068827174 0.016434375
000300 d9 8a 21 3a e0 c1 ae 3a cc 0d 04 bc ab 5c ab 3b
       0.00061623525 0.0013332926 -0.00805993 0.0052295527
000310 99 8e 8d 3b 57 35 2b bb 85 c0 06 bc d6 ed 0a bc
       0.0043199775 -0.0026124322 -0.008224611 -0.008479556
000320 6a a1 8c bb 77 a5 15 bb 07 89 d1 3b 22 d6 73 bc
       -0.004291703 -0.002283422 0.0063945088 -0.014882596
000330 b9 dc 32 bc 97 dc 36 bc be 2d cf 3a b6 7c ba 3a
       -0.010916882 -0.011160991 0.0015806479 0.0014227841
000340 b7 30 33 3c 82 15 2c b9 bf f2 3c 3c 63 74 4b 3c
       0.0109369075 -0.0001641121 0.011532485 0.0124178855
000350 83 0f 8a 3c 43 08 5b bb c8 b5 9b 3c ab a5 4e 3c
       0.0168531 -0.0033421672 0.019007578 0.0126127405
000360 a7 b5 e5 bb f0 0f 4c 3c 63 20 79 bb 33 2c 38 3b
       -0.00701018 0.012454972 -0.0038013689 0.0028102517
000370 20 e4 91 ba 0f 83 2b 3a 42 79 a4 3b 61 f7 25 bb
       -0.0011130609 0.00065426616 0.005019338 -0.0025324451
000380 3d d6 1e 3c 77 6a 55 3a 73 5f a4 3b 2e 64 28 3c
       0.009694633 0.00081411697 0.0050162612 0.010277791
000390 7f c5 80 3b 08 53 cb 3b 84 b6 fd 3b b8 93 fa bb
       0.0039297934 0.0062049665 0.007742705 -0.007647004
0003a0 fd 25 44 3b 9c 12 2f 3c 9f 10 90 bb 38 b6 58 bb
       0.002992987 0.010685589 -0.0043965126 -0.0033067595
0003b0 49 57 03 bc f9 aa 48 3c 67 26 0c ba 90 db 64 3c
       -0.008016416 0.012247794 -0.00053462986 0.013968363
0003c0 e4 c0 b8 3b 5b bc 0e bb 56 fd f3 3a 1c a6 01 3c
       0.0056382287 -0.002177975 0.0018614929 0.007913139
0003d0 2f 6c 86 3c c9 9c 65 3c 42 a9 b3 3b 3f fc 19 bc
       0.016409008 0.014014431 0.0054828236 -0.009398519
0003e0 31 3c 67 b9 cf d1 46 3c 8c e3 a7 3b 30 cb 0c bc
       -0.000220523 0.012134983 0.0051235612 -0.008593366
0003f0 52 71 32 3a 8c 54 a9 3b e2 a5 de 3b 32 09 09 3b
       0.0006807047 0.0051675495 0.006794677 0.0020910022

discrete_action_output_shape f4 [1, 3]
000000 00 00 c0 40 00 00 c0 40 00 00 c0 40
       6.0 6.0 6.0

network_body._body_endoder.seq_layers.0.bias f4 [128]
000000 d7 94 12 3b 37 c6 98 ba 13 1f 03 bb c0 58 2c 3b
       0.0022366547 -0.0011655752 -0.0020007535 0.0026298016
000010 73 55 d6 39 ff f7 fb 39 00 00 00 00 00 00 00 00
       0.00040880925 0.00048059222 0.0 0.0
000020 8d 18 42 ba 00 00 00 00 00 00 00 00 00 00 00 00
       -0.0007404171 0.0 0.0 0.0
000030 00 00 00 00 71 ef 30 3b 72 00 2c 3b 00 00 00 00
       0.0 0.0026998187 0.0026245383 0.0
000040 12 7b 07 25 22 af 65 b2 e4 0b 0b 08 a3 e5 17 3b
       1.1751081e-16 -1.3369375e-08 4.184277e-34 0.0023177646
000050 12 21 96 06 00 00 00 00 f0 87 92 a4 37 ce 5e ba
       5.647232e-35 0.0 -6.3547694e-17 -0.00084993563
000060 00 00 00 00 18 f7 9e 3a e8 21 89 26 05 aa c4 b9
       0.0 0.0012128083 9.515475e-16 -0.00037510708
000070 00 00 00 00 12 cf 6c 3a 00 00 00 00 57 48 6c b0
       0.0 0.00090335414 0.0 -8.59591e-10
000080 d9 af fd ba 97 cb a1 39 f2 f4 83 3a dd 19 80 ba
       -0.0019354775 0.0003086 0.0010067506 -0.0009773333
000090 ed 6c ff 3a 7d 7e b5 ba 84 4f dc 3a 37 1b 18 39
       0.0019487418 -0.00138469 0.0016808365 0.00014505988
0000a0 00 00 00 00 00 00 00 00 ab 81 e3 ba 00 00 00 00
       0.0 0.0 -0.001735737 0.0
0000b0 f9 63 73 3a 0f df bf ba 24 4c 59 3a f2 10 21 bb
       0.00092846114 -0.001463862 0.0008289239 -0.002457675
0000c0 83 14 b8 3a f4 b8 0d 28 25 be 01 39 36 01 fa 3a
       0.0014044199 7.867178e-15 0.00012373233 0.0019073847
0000d0 00 00 00 00 00 00 00 00 1e 3b 2d 1b 9a c8 88 ba
       0.0 0.0 1.4329326e-22 -0.001043576
0000e0 8e c0 19 39 c5 20 42 3b 00 00 00 00 00 00 00 00
       0.00014662949 0.0029621583 0.0 0.0
0000f0 88 b1 ae ba 84 20 f8 ba 38 d4 31 bb 5f d3 e6 3a
       -0.0013328055 -0.0018930589 -0.002713455 0.0017610601
000100 be 8e b7 39 97 a8 17 3a ce 4d 19 3a e0 3b fb 37
       0.0003501083 0.0005785315 0.00058480806 2.9949413e-05
000110 25 6c 06 bb 86 54 b2 ba 9d bd bd 3a 00 00 00 00
       -0.0020511237 -0.0013605512 0.0014476065 0.0
000120 15 10 36 ba 00 00 00 00 e5 eb 32 3b 0f a3 f4 ae
       -0.00069451454 0.0 0.0027301249 -1.11248004e-10
000130 9c e4 a6 04 00 00 00 00 00 00 00 00 e0 88 5c ba
       3.9236357e-36 0.0 0.0 -0.000841273
000140 d4 c9 5a 3a 00 00 00 00 00 00 00 00 d3 2c 1e bb
       0.0008346115 0.0 0.0 -0.0024135604
000150 00 00 00 00 00 00 00 00 00 00 00 00 88 0e 9b b8
       0.0 0.0 0.0 -7.3936826e-05
000160 44 79 d7 39 93 61 f7 ba 00 00 00 00 00 00 00 00
       0.00041098346 -0.0018873684 0.0 0.0
000170 00 00 00 00 87 af 52 ba 00 00 00 00 bc 39 1d 3a
       0.0 -0.000803702 0.0 0.0005997678
000180 4d 9c 07 93 78 f8 01 3a ed b8 ba 3a 00 00 00 00
       -1.7116458e-27 0.0004957984 0.0014245786 0.0
000190 ab 71 21 bb 32 4e a1 b9 a3 e1 9f ba 21 19 5a b9
       -0.0024634402 -0.00030766573 -0.0012197982 -0.00020799461
0001a0 82 2c d4 3a 29 3d 12 3a e3 92 83 9f 57 31 92 3a
       0.0016187581 0.00055785716 -5.572366e-20 0.001115362
0001b0 a5 91 21 bb 00 00 00 00 00 00 00 00 58 2f f8 ba
       -0.0024653461 0.0 0.0 -0.0018935008
0001c0 00 00 00 00 bf 0b 18 3b 26 01 12 ba 31 3f 3d 3a
       0.0 0.002320036 -0.0005569629 0.0007219194
0001d0 9b 98 1a bb 85 95 68 b4 3c 33 35 3a 9a c7 84 ba
       -0.0023589495 -2.1661079e-07 0.00069122366 -0.0010130287
0001e0 46 16 2d 38 00 00 00 00 00 00 00 00 da 0e 87 3a
       4.1267158e-05 0.0 0.0 0.0010304109
0001f0 00 00 00 00 11 9a 39 3b 00 00 00 00 74 6b 00 3b
       0.0 0.002832059 0.0 0.0019595297

network_body._body_endoder.seq_layers.0.weight f4 [128, 45]
000000 e7 5e 30 3e a8 86 b1 bd da 33 14 3c c4 4a af 3d
       0.17223702 -0.08668262 0.0090455655 0.08559182
000010 e9 eb d9 3d 31 2b 20 3e 0a 72 07 be 55 0d 56 3e
       0.106406994 0.15641476 -0.13227096 0.20903523
000020 5c b8 03 3d ea 50 fe bd 4c e4 47 bd 39 4d a5 3e
       0.03215824 -0.12417777 -0.048801705 0.3228548
000030 98 fd 5d 3e a1 5c bc bd 79 d9 f9 3d 61 05 c0 bc
       0.2167877 -0.09197355 0.12199683 -0.023440065
000040 05 7e 82 bc 48 38 67 3e ec 56 89 bd ca 0a cb 3d
       -0.015929231 0.22580063 -0.06706032 0.09914167
000050 42 a4 91 be 0b 59 98 3d 6b d9 16 bd ba 76 a1 3a
       -0.2844563 0.074388586 -0.03682844 0.0012318708
000060 0d 2f ac 3d d7 80 a6 3d c5 d3 56 3c 4b f1 34 3d
       0.08407412 0.08130043 0.013112013 0.044175427
000070 1c 26 98 be ad 77 94 bd cb 5d 39 bc 14 67 41 be
       -0.29716575 -0.07249389 -0.011313866 -0.18886977
000080 10 05 32 3e 81 eb 32 be aa 15 30 3d 65 41 ef 3c
       0.17384744 -0.1747265 0.04298941 0.029205987
000090 b5 8e 9e 3e 26 3c 58 bd cd 6a a1 be be 57 25 bb
       0.30968252 -0.052791737 -0.31526795 -0.00252293
0000a0 6e e0 da bc f9 08 d5 3d 7b 9f 6b bd 76 2f 2b 3d
       -0.026718345 0.10402102 -0.05752514 0.04179331
0000b0 73 3f d7 bd 03 6c 18 3e 52 ed af 3d 18 38 a3 bd
       -0.10510149 0.14884953 0.08590187 -0.079696834
0000c0 f8 fd 31 bd 32 2f 15 be c5 72 3e be ed 95 ad 3d
       -0.043455094 -0.14568785 -0.18598469 0.08475862
0000d0 20 63 d9 bd f4 9e 63 3b ce a6 df 3d 99 05 16 be
       -0.1061461 0.0034732195 0.10920487 -0.14650573
0000e0 c9 35 07 3e 36 76 07 3d ca 26 09 3d 6c da 92 bc
       0.13204111 0.03307172 0.033484258 -0.017926417
0000f0 79 6f 92 bc ef 34 a9 bd 8a 92 2a 3e 7c f2 17 bc
       -0.01787542 -0.082620494 0.16657463 -0.009274121
000100 9e 5b 3e 3e 61 4c 4b 3c 40 0f ad bc 75 48 06 3e
       0.18589637 0.012408347 -0.021125436 0.13113578
000110 ed d2 b1 3e 58 da 9e bd 67 93 49 bd 01 fe 4b 3d
       0.34731236 -0.077564895 -0.04921284 0.049802784
000120 20 76 6c 3e 35 2f 9b bc 1c 78 ee 3c a1 6e fe bd
       0.23091936 -0.018943409 0.029110007 -0.124234445
000130 18 f8 4b be b9 74 cb 3e 12 5f 87 be 73 3b 68 3e
       -0.19918859 0.3973749 -0.2643972 0.22678928
000140 d9 cc 7f 3b 09 38 d2 bc 85 42 e5 be 3c d3 72 3d
       0.003903201 -0.025661485 -0.44777313 0.05928348
000150 dc 86 6f 3e 34 fe 0c be 01 21 58 3d b1 ac 17 bd
       0.23391289 -0.13768846 0.05276585 -0.037029926
000160 8c 2d 4e be bc 57 22 bc 89 4c e6 3d 29 80 d1 bd
       -0.20134562 -0.009908613 0.11245067 -0.10229523
000170 fb e5 13 3d 52 27 b5 3e 45 36 c4 3d b5 70 b7 3d
       0.036108 0.35381562 0.095806636 0.08957044
000180 65 41 46 be c8 2f 9f 3d 6e b3 e8 bd 6e 9a 4c 3e
       -0.19360884 0.077727854 -0.113623485 0.19980785
000190 f1 c2 ed bd ae 08 21 be a3 df d3 bd 80 5a 08 be
       -0.11609448 -0.15725967 -0.1034539 -0.13315773
0001a0 bf a9 f3 3d b8 f6 f5 3d c3 b6 24 bd 28 a9 c2 bd
       0.11897611 0.120099485 -0.040213358 -0.0950492
0001b0 20 11 97 bd 87 f1 56 bb 3f d3 c7 ba 83 12 9c 3d
       -0.07376313 -0.003279777 -0.0015245451 0.07620718
0001c0 b5 c5 7f bd ac d8 63 3e c8 b2 a5 3d 0e 59 92 be
       -0.062444407 0.22250623 0.080907404 -0.28583568
0001d0 fb 7d 29 bd c5 6b e4 3d a0 4a 8c 3e 78 d4 65 3c
       -0.04137991 0.11153368 0.27400684 0.014027707
0001e0 d5 64 04 be b6 72 a2 3d 30 bf 74 3c 2b 03 0b 3e
       -0.1292909 0.079320356 0.014938161 0.13575427
0001f0 84 61 ac bd 55 4d 07 bd 16 6e 87 3d b7 a8 29 3e
       -0.08417037 -0.033032734 0.06612794 0.16568266
000200 f5 a9 53 3e b1 35 cc bd d1 04 4d 3d b0 f2 93 bd
       0.20670302 -0.09971178 0.05005342 -0.07224023
000210 9d ac d2 3d 16 14 45 3e 47 bc ce 3d b6 bd 8a be
       0.102868296 0.19245943 0.10094505 -0.27097863
000220 30 e8 72 3e 0c d2 aa 3d b7 fa 97 3e 7a b4 1d be
       0.23721385 0.083408445 0.29683468 -0.15400878
000230 03 6b 0c 3e 62 fc 5b 3d 55 1d 8d 3d 73 68 9b 3d
       0.13712697 0.053707488 0.0689036 0.075882815
000240 f1 c0 d6 3e c3 5c 8a bd 68 31 9b 3e a0 df be 3d
       0.41944078 -0.06755974 0.3031113 0.09319997
000250 b8 32 36 3d 3d f1 15 bc 72 1d 8b 3d a3 78 99 bd
       0.044481963 -0.009151754 0.067927256 -0.07493713
000260 36 e3 b1 bc 6e 7f 49 3e f9 67 1a bd 94 bb a5 3d
       -0.021714788 0.19677517 -0.037696812 0.08092418
000270 15 c5 bd bd 30 64 98 3e a8 27 00 be 2b 21 16 3e
       -0.09266106 0.29763937 -0.12515128 0.1466109
000280 21 14 5e bd 53 25 ea 3d bc 12 cb bd 8e f6 da bd
       -0.054218415 0.114329 -0.09915683 -0.10691558
000290 d5 74 1a 3e 2f d0 58 bc 26 8d 86 bd dd 9b 86 bd
       0.1508363 -0.013233229 -0.06569891 -0.06572697
0002a0 45 15 ee 3d 91 84 a0 3d c2 b5 83 be f2 3c dc 3c
       0.116251506 0.07837785 -0.25724608 0.02688453
0002b0 59 b6 1b be d5 f6 a0 3d 01 68 6c be 61 32 40 3e
       -0.15206279 0.078595795 -0.2308655 0.18769218
0002c0 0e 31 1e be 02 42 9b bd b0 d6 8a 3c ae dc bb bd
       -0.154484 -0.07580949 0.016948074 -0.09172951
0002d0 6a 13 7e be 00 74 cd bc 2a cf 54 3e 18 f1 b7 bd
       -0.24812093 -0.025079727 0.20782152 -0.08981532
0002e0 a5 8c 82 bd 11 ff 0c 3e eb 3f fc bd 1c 6b 1f bd
       -0.06374482 0.13769175 -0.12316879 -0.038920507
0002f0 3e 07 43 3e b5 6e b2 be 9c 5c f8 3d 9a ff 4f 3e
       0.19045731 -0.34850088 0.12127039 0.20312348
000300 62 fe 1f be cf 93 41 bd 72 a7 04 be 54 fd 8a 3e
       -0.15624383 -0.047260102 -0.129545 0.271464
000310 a9 75 55 3d bb b5 50 3d 2a 53 73 bd 33 3f 46 bd
       0.052114163 0.05095456 -0.059405483 -0.048400115
000320 48 c3 04 3d 5a c9 4c 3e 75 84 20 3d 34 8f af bd
       0.032412797 0.19998685 0.03918882 -0.08572236
000330 2c 46 3b 3e e0 a3 e9 3d 9a 8f a9 3d 5f 77 e5 bc
       0.18288487 0.1140821 0.08279343 -0.028011022
000340 3e cd 6f 3d da c6 97 bd 86 8a 45 3e 72 0e 02 3d
       0.058545344 -0.07410975 0.19291124 0.031752057
000350 8d fe 79 bc e5 62 af 3c e4 3e f5 3d 23 6a e1 bd
       -0.015258444 0.021409461 0.11974886 -0.11006572
000360 a0 69 90 3c 4b 7a d7 3d 53 64 05 3e eb 3c 32 bd
       0.01762849 0.105213724 0.13026552 -0.043515127
000370 86 8a 11 3d bf 22 35 bd 19 91 a6 3e a3 80 2a 3c
       0.035532497 -0.04422259 0.32532576 0.010406646
000380 c0 d2 f6 bd 3f 77 85 3e 6b d5 71 3d 4c 25 05 be
       -0.12051916 0.2606754 0.05904142 -0.13002509
000390 38 35 20 3d 49 19 e4 bd 84 51 da 3d 41 7e e7 bd
       0.039113253 -0.11137635 0.10660079 -0.11303378
0003a0 8e 74 f9 3b de 86 77 3c 9d 8a 23 3e f2 d9 1f 3e
       0.0076127714 0.015107838 0.15970846 0.15610483
0003b0 70 c5 33 bd 4b 80 a7 bd 05 ee 91 3e 30 7a c7 bd
       -0.043889463 -0.08178767 0.28501907 -0.09740102
0003c0 62 ac ed 3c 72 d4 8d be cc 60 be 3d 79 49 2c 3e
       0.029012863 -0.27701145 0.09295806 0.16824903
0003d0 ac 1d 75 3e 2d 23 cc bc f5 1c c6 3d 55 0d b9 bd
       0.239371 -0.024919117 0.09673492 -0.09035746
0003e0 b3 24 a7 bd 65 30 6c bc 25 9a b8 bd 23 c6 1c 39
       -0.08161297 -0.014415835 -0.09013776 0.00014951131
0003f0 9a 3b 2a 3e da b4 6c 3d e9 a8 45 be a7 c9 4b be
       0.16624299 0.05778966 -0.19302715 -0.19901143

network_body._body_endoder.seq_layers.2.bias f4 [128]
000000 f3 47 0a 3b 00 00 00 00 fb 98 e5 ba 00 00 00 00
       0.0021100014 0.0 -0.0017516905 0.0
000010 00 00 00 00 e9 cc 62 ba d7 b0 3a 92 b4 c3 e7 ba
       0.0 -0.000865175 -5.8909223e-28 -0.0017682225
000020 81 b2 1d bb 18 6f b1 1a a6 47 26 bb 00 00 00 00
       -0.0024062695 7.3384966e-23 -0.0025372296 0.0
000030 00 00 00 00 00 00 00 00 a9 03 88 3a 00 00 00 00
       0.0 0.0 0.0010377067 0.0
000040 b7 4c d7 25 d3 2f 75 ba b9 4c 9d ba e1 d6 2d bb
       3.734854e-16 -0.00093531347 -0.0012001015 -0.0026525783
000050 1c 05 1d bb d6 98 1d bb 00 00 00 00 6d 09 16 3b
       -0.0023959344 -0.0024047396 0.0 0.0022893802
000060 00 00 00 00 e4 33 1e 3b 00 00 00 00 7f ee 25 3a
       0.0 0.0024139816 0.0 0.0006329789
000070 db d9 00 bb 7f 3f c0 ba 20 61 ed 3a 79 b8 ee b9
       -0.0019661102 -0.0014667361 0.001811061 -0.0004553234
000080 00 00 00 00 00 00 00 00 00 00 00 00 46 dc 2f 39
       0.0 0.0 0.0 0.00016771359
000090 be f0 8b 38 a6 12 dc b4 00 00 00 00 00 00 00 00
       6.672878e-05 -4.0991762e-07 0.0 0.0
0000a0 00 00 00 00 58 16 65 ba 26 f1 9e ba 00 00 00 00
       0.0 -0.0008738986 -0.0012126311 0.0
0000b0 00 00 00 00 34 a1 db ba 00 00 00 00 3d e1 c0 0a
       0.0 -0.0016756416 0.0 1.8573653e-32
0000c0 64 d2 69 ba 0b 5f 1f bb 00 00 00 00 8d 0e 65 ba
       -0.0008919595 -0.0024318125 0.0 -0.0008737825
0000d0 5d ac ab ba 00 00 00 00 0f 03 70 39 00 00 00 00
       -0.0013097633 0.0 0.00022889323 0.0
0000e0 00 00 00 00 00 00 00 00 96 31 00 3b 00 00 00 00
       0.0 0.0 0.0019560806 0.0
0000f0 9b a8 28 bb 17 21 28 3b 00 00 00 00 03 cf 15 ba
       -0.0025735262 0.0025654489 0.0 -0.0005714746
000100 76 c0 1d 3b 00 00 00 00 00 00 00 00 93 a4 30 3b
       0.0024071014 0.0 0.0 0.0026953563
000110 b8 f9 27 3b 04 49 5c ba 00 00 00 00 cf 57 9c 3a
       0.0025631022 -0.0008403214 0.0 0.0011928024
000120 e3 0d 80 3a 94 10 65 3a 00 00 00 00 1b 6d 27 3b
       0.0009769764 0.0008738127 0.0 0.002554721
000130 00 00 00 00 d8 15 8a 3a 93 0d 31 3b 1c c6 1f bb
       0.0 0.0010535074 0.0027016148 -0.0024379557
000140 db 70 08 ba e0 8c 74 33 59 42 c5 ba 00 00 00 00
       -0.0005204805 5.6938802e-08 -0.001504968 0.0
000150 00 00 00 00 97 72 7e b9 f3 01 d6 ba 00 00 00 00
       0.0 -0.00024266016 -0.0016327485 0.0
000160 01 55 20 3b 4c 55 18 b9 e0 d1 0c 19 39 8c 89 8d
       0.0024464729 -0.00014527625 7.280214e-24 -8.477034e-31
000170 c0 19 14 34 f7 9d fe ba 00 00 00 00 39 cd 81 ba
       1.3792942e-07 -0.0019425739 0.0 -0.000990308
000180 02 2f d3 39 2e 19 96 39 00 00 00 00 07 24 6c b6
       0.0004028008 0.0002862899 0.0 -3.518771e-06
000190 2b b8 c0 3a cd ae 27 3b 71 90 25 ba 3b 75 87 3a
       0.0014703324 0.0025586367 -0.0006315774 0.001033462
0001a0 f6 23 15 bb aa 18 59 b9 81 be 31 3b 00 00 00 00
       -0.002275703 -0.00020703921 0.0027121606 0.0
0001b0 f2 20 15 3b 51 7b 21 3b 82 eb 67 b8 c7 98 84 b9
       0.0022755233 0.0024640153 -5.5294026e-05 -0.0002529083
0001c0 0a 2d 8d 3a 08 42 56 1e 65 a5 c5 ba 3f 1a 73 3a
       0.0010770869 1.1342721e-20 -0.0015079199 0.00092736253
0001d0 00 00 00 00 28 7d 2d 3a 00 00 00 00 00 00 00 00
       0.0 0.0006618076 0.0 0.0
0001e0 09 89 b7 ba 00 00 00 00 3e 38 57 3a 00 00 00 00
       -0.0014002632 0.0 0.000820998 0.0
0001f0 aa 36 2a 3b 01 f8 a9 ba ec ef cf ba 79 63 85 3a
       0.0025972524 -0.0012967588 -0.0015864349 0.001017674

network_body._body_endoder.seq_layers.2.weight f4 [128, 128]
000000 77 33 bf 3d 19 27 51 3d 19 58 c9 bd 2d 1e df bd
       0.09335988 0.051062677 -0.098312564 -0.108944274
000010 e8 b9 1e 3e e1 b0 6d bd 78 8a f8 3c 1a 4e 1a 3e
       0.15500605 -0.058030013 0.030339465 0.15068856
000020 77 a1 5e bd bc 82 9f bc a8 9e a1 bc 69 9e 38 bc
       -0.054353204 -0.019471519 -0.019728974 -0.011268237
000030 71 ac 2d bd df ff c6 3d e4 41 c7 bc 0c 6a 3f 3d
       -0.04240078 0.09716772 -0.024323411 0.046731994
000040 ff 7f d9 3c f5 19 bb bd 97 df 9d bd 67 a1 61 3d
       0.026550291 -0.0913581 -0.07708662 0.055085566
000050 88 82 0f 3e 42 8c be bd 48 72 1b bd f5 44 c0 3b
       0.14014637 -0.09304096 -0.037950784 0.0058675953
000060 1b dd 05 bd 6e 39 07 bd ad 10 f3 bc a2 02 e2 bc
       -0.032681566 -0.033013754 -0.029671038 -0.027589146
000070 63 a9 42 3b a6 06 4c 3d 76 a0 a1 bd 3e 86 dc bc
       0.0029703013 0.049811028 -0.078919336 -0.02691948
000080 93 f5 fd 3c 17 18 c4 3c ae 70 45 3d bb da 10 be
       0.031000888 0.023937268 0.048203163 -0.14145939
000090 ad fb 2a be 6a ab 40 be bb 89 23 3e 2b 07 f6 bd
       -0.16697569 -0.1881539 0.15970509 -0.12013086
0000a0 6a 64 4b be 86 6c 04 be 08 2c af bc 4e 34 fa 3d
       -0.19862524 -0.12932023 -0.0213833 0.122170076
0000b0 5d 1b 79 3c b7 e3 72 ba cc 13 ad 3d 0e 91 0a be
       0.015204278 -0.00092654995 0.084510416 -0.13531896
0000c0 3e aa 95 bd 2b e1 a8 bd 8b a9 3a 3e 0b 25 66 3d
       -0.07307862 -0.082460724 0.18228738 0.05618767
0000d0 2e 49 cc bc 3e 10 35 3e 10 db 18 3e 95 0d 50 3c
       -0.024937239 0.17681977 0.14927316 0.012698551
0000e0 42 64 00 3d eb e0 2d 3e 40 79 7d 3d 02 ed 8a 3d
       0.031345613 0.1698033 0.06188321 0.06783487
0000f0 84 5e c8 3d 3d 0a 98 3d 06 ce 85 3d 77 09 e3 3d
       0.097836524 0.07423828 0.065334365 0.1108579
000100 8c 47 63 3c ec 1b 94 3d a9 d1 95 3c 4e 25 58 bd
       0.013872039 0.07231888 0.01828845 -0.05276995
000110 96 38 65 bd 52 b2 06 be c5 35 2f 3d 92 70 82 be
       -0.055962168 -0.13153961 0.042775888 -0.2547651
000120 07 68 8d bc c4 18 d2 bc 29 50 57 3e 9a ab 5e 3c
       -0.017261518 -0.025646575 0.21026672 0.013590718
000130 f3 57 ad bc d9 6d 69 3d 83 cf d6 bd 8b 88 12 3e
       -0.021160102 0.056989525 -0.104887985 0.143099
000140 4b 2f 01 bb ff d8 c8 bd 8a a5 23 be b1 88 80 be
       -0.0019712027 -0.09807014 -0.15981117 -0.25104287
000150 6b 13 62 3d d5 c0 43 3d ec b0 17 3e b3 61 1d 3e
       0.0551943 0.04779132 0.14813584 0.153693
000160 74 8d 38 bd e8 2f 90 bd 8b a5 94 3d 4a df 58 be
       -0.045056775 -0.070403874 0.07258137 -0.21178928
000170 5c 21 da bc c5 d1 4b 3e 15 1a f9 bb 52 5f eb 3d
       -0.026627235 0.1990424 -0.007601986 0.1149279
000180 19 93 dd bd 9e 6b e6 bd 87 91 52 bd d8 a0 07 3e
       -0.10819072 -0.11250995 -0.051408317 0.13244951
000190 bb 7f cf bc fa 9f 23 3d 0d 9a fb bd 90 e5 2f 3e
       -0.025329461 0.039947487 -0.12285242 0.17177415
0001a0 1d 58 66 bc 07 ff f1 3c 0e 70 13 3e c3 56 36 3e
       -0.014059094 0.029540552 0.14398214 0.17806534
0001b0 9a 49 ca 3d 0b d3 75 3d 86 a2 8c 3d a2 07 cf bd
       0.0987732 0.06001572 0.068669364 -0.10108878
0001c0 ae 5a 8d bc e4 db 62 bd d5 ab 1d 3c fc 67 9c bd
       -0.017255154 -0.055385485 0.0096234875 -0.07637021
0001d0 3d 79 cd 3d 1e 5a ee 3d e2 dd 29 bd 27 1d 90 3d
       0.1003289 0.11638282 -0.04147137 0.0703681
0001e0 7c 8a 19 bd 8c 25 d9 bd 0b c8 f2 3d 12 1b 37 bd
       -0.037485585 -0.106028646 0.118545614 -0.04470355
0001f0 3d d7 b8 ba d0 25 b0 3c e2 f8 ab bc 1f 13 99 3d
       -0.0014102232 0.021502405 -0.0209927 0.0747435
000200 11 c7 9b bc fb 82 df 3d ab 07 95 bd ed ff 53 3c
       -0.01901582 0.109136544 -0.07276853 0.012939435
000210 9e 16 0c 3e 69 0d 85 bd 4d a4 bf bd 88 a2 16 bd
       0.13680503 -0.064966984 -0.0935751 -0.036776096
000220 3e dc d0 bc 2c f9 31 bd 17 99 14 bc 75 3b 10 3d
       -0.025495645 -0.04345052 -0.009069703 0.035212953
000230 8c 6f 50 bd bc e8 8e bd 5e 03 15 3d 2d 81 7b bc
       -0.05088763 -0.06977984 0.036380164 -0.015350622
000240 20 c7 91 3d 57 2f 99 3d 7a 4f b8 ba e4 20 ff 3d
       0.07118058 0.074797325 -0.0014061772 0.12457445
000250 65 14 77 3a 40 52 41 3d 1c c7 ec 3d c5 df e8 3c
       0.0009425341 0.04719758 0.115614146 0.028427014
000260 47 00 7b 3a a1 20 77 3c 8a d2 ec 3c d0 fe 31 be
       0.00095749315 0.015083463 0.028908987 -0.1738236
000270 09 3e 3e bd 45 db b0 bd 09 08 11 bd a8 75 a0 bd
       -0.04644588 -0.08635572 -0.035408054 -0.07834941
000280 45 07 af 3d dd e0 09 3e 6a 3f 4e bd f8 42 66 be
       0.085463084 0.13464685 -0.050353445 -0.22486484
000290 a0 bb 22 3e 99 e0 b1 bd 1e f8 16 be a0 36 96 3d
       0.15891886 -0.08685417 -0.14743087 0.07334638
0002a0 0b 88 66 bd 5e 6e 55 3d 9e a3 82 3d 20 30 82 bd
       -0.056282084 0.052107207 0.06378864 -0.06356835
0002b0 40 f3 6c be 47 05 99 bc ba eb 83 3d 1b d7 d1 bd
       -0.23139668 -0.018679274 0.06441446 -0.10246106
0002c0 9b a1 23 3d e0 85 ba 3c a8 c6 47 bd 4b cb 94 bd
       0.03994904 0.022768915 -0.048773438 -0.072653376
0002d0 05 ee 0c 3b ea ec 13 bd 3b 5d a4 3d 57 60 c4 bc
       0.0021504175 -0.03611461 0.08025595 -0.02397172
0002e0 f0 8a b2 3d 8a a7 8f bd 0b f1 8b bd 20 91 8c 3d
       0.087179065 -0.070143774 -0.06833085 0.06863618
0002f0 41 f7 01 3e 15 58 a6 3d 6f d0 1b 3e ad 9c bc bb
       0.12691976 0.08122269 0.1521623 -0.005755982
000300 82 5d 22 be 33 e9 ea 3b ac 03 29 be 77 a4 d4 bc
       -0.15855983 0.007168913 -0.16505307 -0.02595733
000310 90 96 ec bd d5 a6 5b bc 94 9e a2 3b 44 a9 a5 3d
       -0.11552155 -0.013406475 0.0049627516 0.080889255
000320 07 9d b0 bd 2d 91 bf 3c 72 4a 79 bd 49 6c 46 bd
       -0.086237006 0.023384655 -0.060862012 -0.048443113
000330 ed 48 0e be d8 67 54 bd a7 c8 36 3d 0b 03 2a 3e
       -0.13895006 -0.051856846 0.04462495 0.16602723
000340 0c 66 ce bd ee 85 48 bd 85 39 e9 3c 4d 9e 04 bd
       -0.10078058 -0.04895585 0.02846981 -0.03237753
000350 19 b6 39 3d 20 ad 03 3d d1 d8 9e 3d 3a 4b 92 3b
       0.045339677 0.032147527 0.07756198 0.004464534
000360 4f 85 9d 3c 49 41 97 3d a0 2e 60 bd 26 5c 5f 3d
       0.019228606 0.07385499 -0.054731965 0.05453124
000370 12 65 2d 3d c5 f6 29 3d e7 a6 21 3d 71 57 19 bd
       0.042332716 0.041495103 0.03946581 -0.037436906
000380 27 ef e2 bd b2 13 10 3e 1f d1 9f 3d 10 d6 a5 3c
       -0.11080771 0.14070013 0.078035586 0.020243675
000390 ad 87 5d bc ab c1 6d 3d 9a ab 4d 3d 61 e9 1f be
       -0.013521117 0.058046024 0.05021248 -0.1561637
0003a0 64 f2 3c 3d bb 1f b9 bc 05 3c 17 3e 8a 88 fd 3d
       0.0461296 -0.022598138 0.1476899 0.123795584
0003b0 04 86 93 bd 3d fb 02 3e 94 a9 46 3d 13 71 d6 3c
       -0.07203296 0.12791152 0.048501566 0.026176965
0003c0 47 a4 f9 bd 57 fa 2e 3d 4e be c7 ba af 6b ec 3b
       -0.121895365 0.04271921 -0.001523921 0.0072149853
0003d0 3d 32 81 3c 63 97 f2 bd 8e 1c 8b bd a4 7a 19 bd
       0.015771026 -0.11845281 -0.06792556 -0.037470475
0003e0 36 cc e2 3d 55 aa 52 bc b5 33 46 3d 9b 65 b5 3d
       0.110741064 -0.012857993 0.048389155 0.0885727
0003f0 e7 ae 60 bd ed a4 c4 3c 7f 81 ab bd ea 75 31 3d
       -0.0548543 0.024004424 -0.08374309 0.043325342
