results/Run18/TrucksBehavior/TrucksBehavior-499981.onnx (onnx, 76223 bytes, 7 tensors)

action_model._continuous_distribution.log_sigma f4 [1, 2]
0.015059711 0.013801752
00000000: 02bd 763c be20 623c

action_model._continuous_distribution.mu.bias f4 [2]
-0.0006298309 0.0006209606
00000000: 3c1b 25ba f6c7 223a

action_model._continuous_distribution.mu.weight f4 [2, 128]
-0.036631607 -0.027135134 -0.0180241 -0.0062811323 -0.015073749 -0.020675173 -0.026628831 0.012885124
-0.009600174 -0.005224184 0.038157802 0.0003199492 -0.032655995 -0.00805814 -0.01691051 0.004690305
0.0036913746 -0.038406778 -0.009162147 -0.036482383 -0.011830198 0.00042430632 0.03758041 -0.028332364
0.014721571 -0.018965071 -0.04014839 -0.01104107 -0.019804422 0.04179105 0.0116041675 -0.0012898096
-0.019224443 0.042103697 -0.010662872 -0.014418517 0.006720633 -0.0397737 0.051133145 0.0150302
0.0022187897 0.0038862813 -0.00243719 -0.005559987 0.0010146614 0.035958216 0.016159244 -0.015913768
-0.02467633 0.0008906757 -0.010051987 0.021735657 0.011772241 -0.0014074172 0.017980322 -0.039371278
-0.011569762 -0.02038284 -0.0076150605 -0.01808323 -0.025874302 0.00568522 0.0060000527 -0.021281045
0.005408036 -0.02669066 0.010857962 0.016252164 0.038681034 0.011563501 0.0024856695 0.0062747463
0.011361174 -0.0018652965 -0.023357112 0.027816653 -0.010254188 -0.0072925086 0.015774736 -0.024363458
-0.0128328325 -0.00017795172 0.018043227 0.017180137 -0.017295953 -0.009719394 -0.0004242878 -0.040096417
-0.0104128355 0.007859202 -5.4743086e-05 -0.011897155 -0.012723718 0.0071305144 -0.0149151785 0.0040377034
0.00308781 0.014478216 -0.006537703 -0.012585836 -0.0118555855 0.0066996585 -0.012725077 -0.005754588
0.014321062 -0.009695553 -0.020153003 -0.00666465 0.009466428 -0.028876558 -0.020132221 0.012643538
0.020192046 -0.020375852 -0.0052570007 0.00929572 -0.007047775 0.051282983 0.0050544664 0.0060290094
-0.0002913029 0.018454779 -0.0006317375 -0.0119095845 -0.0018802693 0.020822957 -0.014658818 0.0005547633
0.012705351 0.014831376 0.0152295 -0.029774252 0.0054859 -0.014619696 0.0029360647 0.02066404
0.039152674 -0.0019387978 -0.007943839 -0.007646463 0.00025397923 -0.0033683567 0.008203982 -0.03452078
0.0024188894 -0.0087311175 -0.0056700073 0.05296252 -0.010768638 0.019872624 -0.000774422 0.02367225
-0.02576486 0.034489166 4.6614463e-05 -0.0021003692 -0.0016326604 0.0009780922 -0.03687451 -0.028946405
0.008754786 -0.006938425 -0.012236926 -0.0050442973 -0.0049888575 0.01947678 -0.0184596 0.01752313
-0.004503063 0.0075469376 0.02372337 0.011743415 0.026076991 0.0046342085 0.008494375 0.0154950395
0.02400138 -0.0092672855 -0.018217245 -0.00027421684 0.018543096 0.007709097 0.016351592 0.03785699
-0.0024046337 -0.01739571 -0.007875186 0.013304046 -0.03238953 -0.017705608 0.014071204 0.016709391
0.01989273 -0.029579213 -0.009142524 0.019198148 0.006466992 0.01180807 0.008708072 0.025965912
-0.026517693 0.0123059675 -0.03733056 -0.040336866 -0.036012232 0.02002322 -0.005165116 0.011023012
0.007033639 0.02720486 -0.022078453 0.038581677 0.009452139 0.0010355556 -0.009265693 0.0034949975
0.035356622 0.012472843 -0.00604847 -0.0186873 0.002231669 -0.008749412 0.0049915956 -0.002261481
0.028793177 -0.023389226 -0.027297731 -0.012042173 -0.024682295 0.026624937 -0.025344705 -0.016085349
-0.008542231 -0.009997717 -0.00977917 0.017211458 -0.027968286 -0.02052451 0.046833627 0.006476348
-0.0024781646 0.024305824 -0.012968746 0.01630283 -0.021573965 0.005181776 -0.0059155184 -0.010505384
0.0157429 -0.021007035 0.018512353 -0.005645828 0.0015125368 0.00042183092 0.00057703134 -0.017247634
00000000: 060b 16bd 804a debc 47a7 93bc f5d1 cdbb
00000010: e3f7 76bc fb5e a9bc b524 dabc 211c 533c
00000020: 0c4a 1dbc a22f abbb 5b4b 1c3d dbbe a739
00000030: 4bc2 05bd 4a06 04bc e987 8abc 21b1 993b
00000040: fdea 713b 6d50 1dbd d41c 16bc 8d6e 15bd
00000050: 72d3 41bc 6e75 de39 eaed 193d 4619 e8bc
00000060: be32 713c a35c 9bbc a372 24bd 9be5 34bc
00000070: e23c a2bc 182d 2b3d 681f 3e3c d40e a9ba
00000080: 947c 9dbc ed74 2c3d 54b3 2ebc a53b 6cbc
00000090: c138 dc3b bfe9 22bd fd70 513d 3a41 763c
000000a0: 1d69 113b fbb0 7e3b 43b9 1fbb 8d30 b6bb
000000b0: 63fe 843a ec48 133d 6460 843c 975d 82bc
000000c0: 0426 cabc 3c7c 693a 17b1 24bc fa0e b23c
000000d0: 5ce0 403c 1679 b8ba 784b 933c c743 21bd
000000e0: 198f 3dbc eaf9 a6bc c287 f9bb 4823 94bc
000000f0: 58f6 d3bc 154b ba3b 179c c43b 9655 aebc
00000100: e535 b13b 5fa6 dabc 98e5 313c 4223 853c
00000110: 0170 1e3d d774 3d3c 9de6 223b 639c cd3b
00000120: 3824 3a3c f77c f4ba 6a57 bfbc c0df e33c
00000130: 2f01 28bc fff5 eebb 053a 813c e095 c7bc
00000140: cd40 52bc 8d98 3ab9 64cf 933c 5cbd 8c3c
00000150: 3eb0 8dbc 183e 1fbc f272 deb9 243c 24bd
00000160: 999a 2abc e2c3 003c f19b 65b8 49ec 42bc
00000170: 2477 50bc 17a7 e93b cb5e 74bc b64e 843b
00000180: db5c 4a3b 0a36 6d3c 3a3a d6bb d334 4ebc
00000190: ee3d 42bc cf88 db3b d77c 50bc fc90 bcbb
000001a0: e3a2 6a3c 19da 1ebc e917 a5bc 2363 dabb
000001b0: 1419 1b3c 888e ecbc 54ec a4bc d826 4f3c
000001c0: ca69 a53c 42eb a6bc eb42 acbb 134d 183c
000001d0: 06f1 e6bb 1b0e 523d f09f a53b ff8e c53b
000001e0: 03ba 98b9 7a2e 973c 309b 25ba 6b20 43bc
000001f0: 5e73 f6ba e894 aa3c 8a2b 70bc 896d 113a
00000200: 1b2a 503c 4dff 723c 2785 793c 22e9 f3bc
00000210: 11c3 b33b 7387 6fbc fe6a 403b a247 a93c
00000220: 8e5e 203d 421f feba e026 02bc 2e8f fabb
00000230: 8428 8539 a6bf 5cbb ff69 063c a965 0dbd
00000240: 3b86 1e3b f60c 0fbc 78cb b9bb 3aef 583d
00000250: f16e 30bc eacb a23c 9502 4bba 4eec c13c
00000260: d410 d3bc 8344 0d3d e683 4338 59a6 09bb
00000270: fefe d5ba 5433 803a ba09 17bd 0321 edbc
00000280: 3c70 0f3c ba5b e3bb 637d 48bc a24a a5bb
00000290: 9279 a3bb c58d 9f3c 9638 97bc ab8c 8f3c
000002a0: 6e8e 93bb 4d4c f73b 8357 c23c 7467 403c
000002b0: 6a9f d53c 8fda 973b fe2b 0b3c e8de 7d3c
000002c0: 8b9e c43c d0d5 17bc 553c 95bc c3c4 8fb9
000002d0: b1e7 973c 989c fc3b c6f3 853c ee0f 1b3d
000002e0: 0f97 1dbb 7381 8ebc ed06 01bc 37f9 593c
000002f0: e2aa 04bd 5a0b 91bc e88a 663c 22e2 883c
00000300: 14f6 a23c 1b50 f2bc 86ca 15bc 6f45 9d3c
00000310: 10e9 d33b a376 413c 4dac 0e3c 77b6 d43c
00000320: a23b d9bc f89e 493c eee7 18bd 4538 25bd
00000330: 9081 13bd bc07 a43c 2240 a9bb dd99 343c
00000340: 717a e63b badc de3c dfdd b4bc d207 1e3d
00000350: 25dd 1a3c 7bbb 873a 22cf 17bc 540c 653b
00000360: 1bd2 103d e55a 4c3c 3e32 c6bb 1c16 99bc
00000370: 3141 123b b259 0fbc 8a90 a33b 5b35 14bb
00000380: abdf eb3c c39a bfbc 7e9f dfbc 894c 45bc
00000390: 8632 cabc 8a1c da3c b39f cfbc 6cc5 83bc
000003a0: b7f4 0bbc 77cd 23bc d038 20bc 0bff 8c3c
000003b0: bf1d e5bc 0423 a8bc 9ed4 3f3d 8b37 d43b
000003c0: b468 22bb 021d c73c dd7a 54bc 838d 853c
000003d0: e2bb b0bc e3cb a93b f7d6 c1bb c61e 2cbc
000003e0: 41f7 803c f216 acbc 38a7 973c a300 b9bb
000003f0: 5040 c63a 3029 dd39 eb43 173a e94a 8dbc

network_body._body_endoder.seq_layers.0.bias f4 [128]
0.0025305755 0.0 -0.003108753 0.0 -0.0050956677 -0.0032592714 0.0 0.0021794473
-0.004696735 -0.005110826 0.0014897515 0.0 -0.0025649182 -0.0023559784 -0.002463566 0.0021729043
0.0 2.44692e-31 0.0021654277 0.00020586408 0.00051141594 0.0 0.00029374502 -0.002283798
-0.008173366 0.0 0.0 0.0 -0.00025335434 6.4192756e-15 0.01048921 0.0
0.0 -0.0035855214 -0.0033292575 -4.6881824e-13 0.0022618354 -0.0008589453 -0.00075132033 0.0020292366
-0.003080035 0.0025346107 0.006855341 -0.0016823814 0.0020687883 -0.0014640965 -0.0035790873 0.00010030519
-0.0029531207 -1.9824152e-16 0.0 0.0 -0.007031052 0.0020042744 0.0011995499 0.0012338037
0.003266374 -0.0015915761 -3.5521933e-14 0.0019513435 -0.0014163398 -0.007796773 0.0 -0.0049364795
0.0009727859 0.0027582797 -2.214947e-29 0.0021780953 -0.00027694178 0.003314759 0.0023001258 0.0
-0.0023067 8.5933905e-29 -0.0012714938 0.0 0.0 0.005171851 -0.005101415 -0.0031323156
-0.0015375388 -3.4551838e-22 -0.001875927 -0.0068957186 0.0 0.0 -0.0052666217 -0.0015490641
8.721339e-21 -1.3726015e-25 0.002138454 -0.0014523404 0.0 -0.0031044001 0.00016095531 0.0
0.004047986 6.4824655e-28 0.0069929194 0.0020660476 0.0 -0.0060048467 -5.305133e-22 -0.00082842336
0.0 0.0020662965 0.002386535 0.00013486993 0.0 0.0 0.0 -0.0015922708
4.239778e-12 0.007424622 0.0023950126 0.0 0.0 0.002521876 0.0 -0.0029704291
-0.005887228 -0.0036882241 0.0 -0.002724097 0.0 0.0026560195 0.0025383227 0.0
00000000: 03d8 253b 0000 0000 38bc 4bbb 0000 0000
00000010: 8ff9 a6bb 8099 55bb 0000 0000 0fd5 0e3b
00000020: 12e7 99bb b778 a7bb c443 c33a 0000 0000
00000030: 3018 28bb c266 1abb c773 21bb 4967 0e3b
00000040: 0000 0000 6fd0 9e0c d9e9 0d3b 38dd 5739
00000050: 8b10 063a 0000 0000 ca01 9a39 c6ab 15bb
00000060: 95e9 05bc 0000 0000 0000 0000 0000 0000
00000070: a5d4 84b9 5e47 e727 efda 2b3c 0000 0000
00000080: 0000 0000 11fb 6abb ac2f 5abb eaf5 03ab
00000090: 4d3b 143b d82a 61ba 41f4 44ba f1fc 043b
000000a0: 6ada 49bb b61b 263b c5a2 e03b 5a83 dcba
000000b0: 8294 073b ede6 bfba 1f8f 6abb f05a d238
000000c0: 2589 41bb 928e 64a5 0000 0000 0000 0000
000000d0: bd64 e6bb 255a 033b 373a 9d3a 95b7 a13a
000000e0: aa10 563b 6f9c d0ba 00fa 1fa9 39c4 ff3a
000000f0: 7aa4 b9ba 137c ffbb 0000 0000 31c2 a1bb
00000100: 8f02 7f3a 41c4 343b 509f e08f 60be 0e3b
00000110: 7f32 91b9 6d3c 593b b5bd 163b 0000 0000
00000120: 012c 17bb 4bde d910 41a8 a6ba 0000 0000
00000130: 0000 0000 a178 a93b c529 a7bb 8947 4dbb
00000140: 3e87 c9ba 61da d09b aae1 f5ba 7bf5 e1bb
00000150: 0000 0000 0000 0000 a093 acbb f709 cbba
00000160: cfbd 241e 7aeb 2996 4e25 0c3b 755c beba
00000170: 0000 0000 3173 4bbb 1dc6 2839 0000 0000
00000180: f8a4 843b 0270 4d12 dc24 e53b 8766 073b
00000190: 0000 0000 4ec4 c4bb 7a56 209c 8d2a 59ba
000001a0: 0000 0000 b46a 073b 6a67 1c3b df6b 0d39
000001b0: 0000 0000 0000 0000 0000 0000 beb3 d0ba
000001c0: 862c 952c 3e4a f33b a5f5 1c3b 0000 0000
000001d0: 0000 0000 0f46 253b 0000 0000 88ab 42bb
000001e0: a6e9 c0bb 22b6 71bb 0000 0000 c486 32bb
000001f0: 0000 0000 9d10 2e3b fd59 263b 0000 0000

network_body._body_endoder.seq_layers.0.weight f4 [128, 13]
-0.07596198 -0.24287352 -0.543017 0.07440903 -0.18850848 0.37087768 0.06533238 -0.24135286
0.23379 -0.03502504 0.21826945 -0.4535595 0.055418175 0.09359336 -0.006385741 0.050160687
0.28767204 0.1440108 0.12735929 -0.17413887 -0.184711 0.14468475 0.038830113 0.087439954
0.23248458 -0.20841354 -0.34728122 -0.40807846 0.23001623 0.2884647 0.25879773 -0.2528019
-0.12190771 0.59876484 0.066714056 0.31321934 0.05072987 -0.537099 0.0008390393 -0.46933565
-0.14077707 0.41718826 0.15527776 -0.33721587 -0.4237118 0.37071443 -0.25733763 -0.25358608
-0.5342914 0.042305995 -0.37761417 -0.10400008 -0.25578496 0.04641582 -0.52153695 0.19906154
0.061097328 0.2940646 -0.39555246 0.061442774 0.4440069 0.39331642 0.13634378 0.22783437
0.23911215 0.049291678 0.20043156 -0.13001291 0.26778585 -0.23002312 -0.18808666 0.22851294
0.19715953 -0.4517244 0.1609531 -0.504273 0.21007828 -0.11400169 0.15928714 0.7952517
0.09349753 -0.1475993 -0.103317976 0.14253312 -0.787052 0.15470663 0.07741517 -0.45217642
0.018497584 -0.07961837 -0.29094023 0.20571326 -0.3295832 0.21074578 0.2279115 -0.15848075
-0.40176725 0.4851327 -0.049992796 0.27955708 0.56471825 -0.18992989 -0.13826023 0.19593367
0.011792251 -0.405342 -0.61742836 0.43037108 -0.34066135 0.044235013 -0.13713153 0.15734033
0.1209662 -0.4635269 0.033534855 -0.5491066 -0.28751567 -0.28903916 0.40202078 0.30194846
0.21454544 -0.42081392 0.11922242 -0.016900195 0.4317624 -0.045691155 -0.066352814 -0.5655821
0.26425308 0.1688374 -0.090846635 0.17411804 0.20078722 -0.079945475 0.14080402 0.2579191
-0.21662124 -0.1178321 -0.3937356 -0.12023431 -0.2943084 0.13850115 -0.37306345 -0.112607084
-0.28273752 0.11013846 0.22806692 -0.34809408 -0.07327673 0.13364206 -0.1598399 0.38162518
0.05878268 0.5033828 0.008919062 -0.48461032 0.107273206 -0.13099651 -0.32535478 0.36429933
0.27741838 0.13039103 -0.20665789 -0.41987342 -0.13530286 0.269435 -0.26410872 0.12739737
-0.07994057 -0.18727106 -0.043998994 -0.06412451 0.392907 0.12436755 0.091235995 -0.1301005
0.34578437 -0.19836706 -0.05753261 0.015657714 -0.4197552 -0.17232504 0.5221129 0.20792615
-0.046351943 0.020532912 0.518507 -0.020001687 -0.0056596734 0.66137177 -0.28142202 -0.014257201
0.42222625 -0.34464902 -0.13844234 0.85819346 -0.0015676089 -0.12906078 0.072629414 -0.23304752
-0.16644688 -0.40689757 0.006159822 -0.6908216 0.26438165 -0.20710813 0.1268381 0.14595418
0.17259488 -0.10673744 0.27833435 0.22550412 -0.15663287 -0.23259678 -0.2068224 0.053742204
-0.18143523 0.005775485 0.060861375 0.3037779 0.41966137 0.027500674 -0.33078763 0.22049256
-0.39133888 -0.13040128 0.86753285 -0.23127532 0.3989738 0.504432 0.23625624 0.42384124
0.21121709 -0.15713231 -0.16794194 -0.26638043 -0.115830466 0.5804454 0.03332288 -0.6138901
0.08826866 0.4993933 0.0191918 0.20965222 -0.19650123 -0.1794023 -0.3693617 -0.22198476
-0.63920546 -0.46103975 -0.10158497 0.14352062 0.23669171 0.11983122 0.6712089 0.061513714
00000000: f491 9bbd d6b3 78be 2a03 0bbf c363 983d
00000010: 5e08 41be aee3 bd3e fccc 853d 3425 77be
00000020: a566 6f3e 6b76 0fbd 0782 5f3e f338 e8be
00000030: 2bfe 623d e0ad bf3d 7a3f d1bb 4b75 4d3d
00000040: c049 933e 9177 133e 796a 023e 7651 32be
00000050: e124 3dbe 3d28 143e 530c 1f3d b813 b33d
00000060: 7010 6e3e 5c6a 55be d8ce b1be a9ef d0be
00000070: 6089 6b3e a5b1 933e 2381 843e 406f 81be
00000080: c0aa f9bd a748 193f 61a1 883d 495e a03e
00000090: 20ca 4f3d 527f 09bf f9f2 5b3a c34c f0be
000000a0: dd27 10be b399 d53e 2201 1f3e 8fa7 acbe
000000b0: c1f0 d8be 48ce bd3e c2c1 83be 09d6 81be
000000c0: 52c7 08bf 0d49 2d3d a556 c1be fefd d4bd
000000d0: 3ff6 82be 841e 3e3d 7283 05bf cad6 4b3e
000000e0: 3141 7a3d a38f 963e da85 cabe 6bab 7b3d
000000f0: df54 e33e c560 c93e b49d 0b3e 6a4d 693e
00000100: d1d9 743e 12e6 493d ee3d 4d3e 1b22 05be
00000110: 3a1b 893e 2e8b 6bbe ca99 40be 4cff 693e
00000120: 30e4 493e 6c48 e7be e4d0 243e 0918 01bf
00000130: c31e 573e b879 e9bd 2b1c 233e 9e95 4b3f
00000140: a27b bf3d 4524 17be 6098 d3bd 34f4 113e
00000150: 3d7c 49bf 6a6b 1e3e d88b 9e3d ab83 e7be
00000160: 3f88 973c f50e a3bd 1ef6 94be 7fa6 523e
00000170: 21bf a8be becd 573e a261 693e c748 22be
00000180: 70b4 cdbe 5063 f83e 3fc5 4cbd 1b22 8f3e
00000190: 6091 103f fb7c 42be 1794 0dbe d6a2 483e
000001a0: 4934 413c fd88 cfbe c90f 1ebf 9959 dc3e
000001b0: 2a6b aebe c62f 353d 356c 0cbe d31d 213e
000001c0: 21bd f73d 6653 edbe d85b 093d 4092 0cbf
000001d0: 4135 93be f1fc 93be abd5 cd3e fd98 9a3e
000001e0: cdb1 5b3e ec74 d7be e22a f43d 4772 8abc
000001f0: f60f dd3e a626 3bbd fce3 87bd fdc9 10bf
00000200: 2e4c 873e b6e3 2c3e cd0d babd 004c 323e
00000210: 2a9b 4d3e 74ba a3bd ee2e 103e f90d 843e
00000220: f5d1 5dbe f551 f1bd b697 c9be 683d f6bd
00000230: 97af 96be 3fd3 0d3e 2c02 bfbe 8b9e e6bd
00000240: f9c2 90be 4690 e13d 608a 693e 6339 b2be
00000250: 1c12 96bd 77d9 083e 12ad 23be 6064 c33e
00000260: 1cc6 703d b2dd 003f 4221 123c d81e f8be
00000270: 0eb2 db3d f323 06be e794 a6be 7185 ba3e
00000280: c809 8e3e 3a85 053e 209e 53be a6f9 d6be
00000290: d58c 0abe 62f3 893e 4239 87be 7574 023e
000002a0: e2b7 a3bd fcc3 3fbe 4a38 34bd b653 83bd
000002b0: 1b2b c93e 6ab4 fe3d f0d9 ba3d 1139 05be
000002c0: a60a b13e bc20 4bbe 50a7 6bbd 9b44 803c
000002d0: 27ea d6be fa75 30be 31a9 053f 98ea 543e
000002e0: 89db 3dbd a334 a83c e0bc 043f 94da a3bc
000002f0: c874 b9bb a94f 293f 8c16 90be 0997 69bc
00000300: 0a2e d83e d675 b0be d4c3 0dbe 91b2 5b3f
00000310: 3a78 cdba 8228 04be bbbe 943d 02a4 6ebe
00000320: 0d71 2abe e154 d0be 55d8 c93b afd9 30bf
00000330: 085d 873e 2714 54be d9e1 013e 0375 153e
00000340: b6bc 303e 2999 dabd d781 8e3e 8dea 663e
00000350: 5e64 20be da2d 6ebe 40c9 53be c920 5c3d
00000360: 28ca 39be 4840 bd3b c749 793d c788 9b3e
00000370: dbdd d63e 1849 e13c ff5c a9be cdc8 613e
00000380: 925d c8be ea87 05be a216 5e3f 70d3 6cbe
00000390: 4b46 cc3e 7522 013f 28ed 713e b801 d93e
000003a0: 4b49 583e 4be7 20be f9f8 2bbe 0463 88be
000003b0: 8638 edbd 1298 143f 927d 083d e727 1dbf
000003c0: 33c6 b43d 7bb0 ff3e 1f38 9d3c 12af 563e
000003d0: 9e37 49be 3db5 37be fa1c bdbe f94f 63be
000003e0: f8a2 23bf 670d ecbe c80b d0bd 12f7 123e
000003f0: 505f 723e 126a f53d 59d4 2b3f cef5 7b3d

network_body._body_endoder.seq_layers.2.bias f4 [128]
0.0 -2.0457547e-33 0.0 0.0 0.0024579938 0.0 0.003935435 -0.0015965806
0.002243404 0.0 0.0 -0.0033622019 6.3431915e-05 0.00079289195 -0.0011100611 1.5951649e-07
0.0 5.5814433e-23 6.616675e-05 0.0030240272 0.0012591385 -0.0009973873 0.0 0.0025092885
-0.0031975273 0.0 -0.0023959049 0.0 -0.00018644647 0.0 0.0 -0.0013245755
0.0024931268 -0.0027236668 0.0012490853 0.0032371494 -0.0030246272 0.0025824294 -0.0020555449 0.0
-0.0031202158 -0.0026456658 0.00042462783 -0.0024205092 0.0 -0.0011276517 -0.0015331402 -6.900499e-11
0.0024708826 -0.0032601682 0.001244453 0.0029682254 0.0 -0.0010767234 -0.0015602056 0.0
0.0 1.3378023e-19 0.001121696 0.0 -5.9081917e-06 -0.0029530884 0.0 0.0024935592
-1.3214242e-34 0.0 -0.0028303186 1.7062798e-14 0.0 0.0012117992 3.0154716e-25 0.0
-0.00022443905 -0.00029994472 -0.0034854212 -0.0031780556 0.0010804218 0.0023868245 -0.0024478105 2.3943068e-05
0.0011745085 0.0 -3.2180833e-33 -7.3966395e-22 -2.5473778e-31 -0.0022411956 -0.0007602981 0.0020845148
-1.2731631e-32 -0.0016616163 -0.0040524947 0.0013172143 -0.0015546749 -0.0028519284 -4.1576583e-34 -0.0024790145
-0.0012249325 -1.3953662e-18 -0.0012736695 0.0012725393 0.0012793473 -4.4075823e-19 -0.0023107242 -1.04584665e-32
0.0 0.00083132664 0.0012515718 0.0 -0.0030644848 0.0 0.0028001454 -0.0015701664
-1.8595234e-34 -2.020508e-18 0.0 0.0054394095 0.0037267038 0.0018719679 0.0 -0.0033786094
-0.0010522249 -0.002221885 -0.00072215975 0.0011038883 -0.0027928855 -0.0012048843 -1.5145713e-14 -0.002599751
00000000: 0000 0000 64f4 2989 0000 0000 0000 0000
00000010: 4b16 213b 0000 0000 d2f4 803b 5b44 d1ba
00000020: 1306 133b 0000 0000 0000 0000 6358 5cbb
00000030: c006 8538 14da 4f3a 787f 91ba 8f47 2b34
00000040: 0000 0000 76f3 861a 01c3 8a38 c22e 463b
00000050: ad09 a53a c4ba 82ba 0000 0000 e072 243b
00000060: 9b8d 51bb 0000 0000 9d04 1dbb 0000 0000
00000070: d880 43b9 0000 0000 0000 0000 619d adba
00000080: ba63 233b 8c7f 32bb 59b8 a33a 5b26 543b
00000090: d338 46bb fa3d 293b 52b6 06bb 0000 0000
000000a0: 897c 4cbb e862 2dbb 95a0 de39 68a1 1ebb
000000b0: 0000 0000 b6cd 93ba a6f3 c8ba 5bbe 97ae
000000c0: 88ee 213b 8ca8 55bb ea1c a33a 8f86 423b
000000d0: 0000 0000 d820 8dba d07f ccba 0000 0000
000000e0: 0000 0000 98f0 1d20 df05 933a 0000 0000
000000f0: fb3e c6b6 9a88 41bb 0000 0000 fb6a 233b
00000100: bca5 2f87 0000 0000 de7c 39bb 22b0 9928
00000110: 0000 0000 3cd5 9e3a 0ea6 ba16 0000 0000
00000120: 6657 6bb9 e641 9db9 aa6b 64bb ed46 50bb
00000130: f19c 8d3a 456c 1c3b 726b 20bb 59d9 c837
00000140: f7f1 993a 0000 0000 88ac 8589 ba8c 5f9c
00000150: 9355 a58c 06e1 12bb be4e 47ba 5b9c 083b
00000160: 7b36 848a 97ca d9ba caca 84bb 61a6 ac3a
00000170: 3cc6 cbba 6be7 3abb 7229 0a88 f676 22bb
00000180: ea8d a0ba 72eb cda1 42f1 a6ba 55cb a63a
00000190: c6af a73a c016 02a1 856f 17bb bf36 598a
000001a0: 0000 0000 63ed 593a c80b a43a 0000 0000
000001b0: 86d5 48bb 0000 0000 a582 373b 0bce cdba
000001c0: 4d2c 7787 5116 15a2 0000 0000 133d b23b
000001d0: b73b 743b d25c f53a 0000 0000 a96b 5dbb
000001e0: cfea 89ba 0b9d 11bb 524f 3dba 58b0 903a
000001f0: d808 37bb 35ed 9dba a36b 88a8 9660 2abb

network_body._body_endoder.seq_layers.2.weight f4 [128, 128]
-0.049796302 0.11226693 0.09927338 -0.081149906 0.12932852 -0.05150203 0.013058482 0.030558525
0.1371349 -0.038654372 -0.06431479 0.006035905 0.05485974 -0.028378548 -0.03673223 -0.010177851
-0.05379698 0.12857364 0.0024473662 0.06391972 0.079451084 -0.031245053 8.282569e-05 -0.073570706
0.12697098 0.009640309 -0.009199536 -0.07600293 -0.0816682 0.05928118 0.04449902 -0.025120823
0.0983151 -0.27263603 0.078654125 0.024591664 0.11156279 -0.03619809 0.060573697 -0.07041926
-0.0074671335 -0.026723772 0.14374137 -0.022301551 0.015999826 -0.110246316 0.09834837 -0.037009288
-0.0097812535 0.106712244 0.038129542 0.20176062 -0.081959605 0.12928063 -0.0052522654 -0.10145663
-0.11387189 -0.008925062 0.054072835 0.020279635 -0.13736936 -0.09143779 0.0676117 -0.07025627
0.20282762 0.22500855 -0.103319794 0.01967073 -0.08823161 -0.04391961 0.010597022 -0.15057473
-0.00077959395 -0.009455624 -0.016725302 0.18098255 0.014130525 -0.021670466 0.06556073 -0.038496356
-0.05216171 -0.13804604 -0.1459797 -0.03289286 -0.06865991 0.12662123 0.090797596 0.08719673
-0.072471686 0.020940145 0.010500985 0.023151306 0.105837435 0.12726943 -0.03496576 -0.13640462
-0.0050064265 0.083484285 0.024292331 -0.06250808 0.070306405 -0.097042024 0.23307732 -0.067286864
0.20794754 0.04841522 -0.057885982 0.054487072 0.035502806 0.1069132 0.0291189 0.093424454
-0.07609051 -0.13696522 -0.07583062 -0.061794743 0.066730075 0.18718623 -0.022509007 -0.0042476477
-0.0038985687 -0.17470965 0.09970663 0.024245298 0.03198216 0.086247064 -0.015446262 0.046358608
0.09175761 -0.09656846 -0.076798804 -0.16621359 -0.0358119 -0.06228766 0.05788453 0.09276517
0.09466445 -0.059939187 0.007905602 0.009753723 -0.0036977653 -0.05301295 0.100610584 0.12618853
-0.07069957 -0.117179416 -0.18215178 -0.17764652 -0.08263059 0.017184373 0.082898095 -0.05675571
0.10306615 0.1295796 0.07922633 0.031745363 -0.12431156 0.097122565 -0.14104664 -0.056316543
-0.026634267 -0.003330744 0.14994182 -0.17677663 0.07738373 -0.14499457 0.075417936 -0.0051499824
0.057488516 -0.05735316 -0.017716896 -0.2037597 -7.895129e-05 -0.049217276 -0.082039006 0.081072755
-0.09917213 0.037489425 0.0016461723 -0.1839726 -0.034488287 -0.075753815 -0.09846194 -0.0043517076
-0.00210861 -0.024456132 0.016930304 0.04862499 -0.09416608 0.0267965 0.006766009 0.030983796
-0.11585276 0.04625089 0.10642471 0.1377729 -0.20745386 -0.08098328 0.016203534 -0.0567854
-0.051345713 0.014252987 0.04366913 -0.073392294 -0.01959552 0.27883458 -0.041653495 -0.010145499
-0.070976295 -0.1214353 -0.116221964 -0.01837825 0.026240056 -0.11157726 -0.02077695 0.035312604
-0.08993263 -0.057580743 0.1107082 -0.04567443 0.08870251 0.07400794 0.058192696 0.011500673
-0.032089885 -0.02065235 -0.11042556 -0.049335305 0.03819024 0.15125425 -0.029403538 0.0055310586
-0.05072724 -0.13545364 -0.097994626 0.08065952 -0.008513336 0.007330711 -0.031037418 -0.021407608
-0.15018895 -0.0644963 -0.109781735 0.06480558 -0.08929388 0.020788614 0.060217515 -0.010670735
0.055318724 0.06555245 0.0025405001 0.026420627 -0.06420435 -0.011192239 0.1507816 -0.044979442
00000000: 35f7 4bbd 34ec e53d d84f cb3d ec31 a6bd
00000010: b26e 043e cbf3 52bd 3ef3 553c df55 fa3c
00000020: 176d 0c3e 0c54 1ebd 79b7 83bd d7c8 c53b
00000030: 9bb4 603d 217a e8bc 8974 16bd 00c1 26bc
00000040: 395a 5cbd cfa8 033e fe63 203b 58e8 823d
00000050: 40b7 a23d a0f5 ffbc b4b2 ad38 3dac 96bd
00000060: ae04 023e 63f2 1d3c a7b9 16bc 6da7 9bbd
00000070: a841 a7bd d3d0 723d 9b44 363d 2fca cdbc
00000080: 6d59 c93d f396 8bbe 6a15 a13d 7574 c93c
00000090: 087b e43d 7344 14bd 201c 783d f937 90bd
000000a0: dbae f4bb d0eb dabc f030 133e beb1 b6bc
000000b0: 1112 833c d2c8 e1bd df6a c93d 0d97 17bd
000000c0: 8d41 20bc f38b da3d b92d 1c3d 569a 4e3e
000000d0: 70da a7bd 2462 043e 321b acbb 7ec8 cfbd
000000e0: aa35 e9bd 6c3a 12bc 7a7b 5d3d 7a21 a63c
000000f0: 8eaa 0cbe bc43 bbbd 0178 8a3d 85e2 8fbd
00000100: 0bb2 4f3e a468 663e 5499 d3bd 8324 a13c
00000110: c6b2 b4bd 0de5 33bd 229f 2d3c 4330 1abe
00000120: aa5d 4cba c3eb 1abc 8003 89bc 7d53 393e
00000130: b883 673c 4386 b1bc b444 863d 5bae 1dbd
00000140: 84a7 55bd f15b 0dbe b47b 15be aaba 06bd
00000150: 919d 8cbd ffa8 013e 17f4 b93d 3394 b23d
00000160: 096c 94bd ab8a ab3c 530c 2c3c cfa7 bd3c
00000170: 4cc1 d83d eb52 023e 4238 0fbd a7ad 0bbe
00000180: f30c a4bb cff9 aa3d b600 c73c 3c04 80bd
00000190: cefc 8f3d f8bd c6bd d2ab 6e3e b2cd 89bd
000001a0: 33f0 543e 0a4f 463d da19 6dbd d62d 5f3d
000001b0: 646b 113d 4ff5 da3d c28a ee3c 5255 bf3d
000001c0: 57d5 9bbd 9c40 0cbe 164d 9bbd 7c1c 7dbd
000001d0: c7a9 883d bfad 3f3e cf64 b8bc da2f 8bbb
000001e0: 217f 7fbb 16e7 32be fd32 cc3d 139e c63c
000001f0: baff 023d 4da2 b03d 5212 7dbc 86e2 3d3d
00000200: 6aeb bb3d afc5 c5bd b148 9dbd e533 2abe
00000210: 80af 12bd 5821 7fbd 5418 6d3d aafb bd3d
00000220: 6fdf c13d cb82 75bd 8086 013c 14ce 1f3c
00000230: 3556 72bb 1b24 59bd ec0c ce3d 9137 013e
00000240: f0ca 90bd c3fb efbd ff85 3abe f8e8 35be
00000250: 3a3a a9bd 3ec6 8c3c 7ac6 a93d ad78 68bd
00000260: 5814 d33d 84b0 043e 6a41 a23d 6d07 023d
00000270: 0f97 febd 32e8 c63d 886e 10be 2dac 66bd
00000280: 1b30 dabc 9d48 5abb 598a 193e ef04 35be
00000290: 5c7b 9e3d 7579 14be b874 9a3d 2fc1 a8bb
000002a0: 1479 6b3d 26eb 6abd 0623 91bc 62a6 50be
000002b0: a792 a5b8 0e98 49bd 1104 a8bd 7909 a63d
000002c0: c21a cbbd 838e 193d 60c4 d73a 5063 3cbe
000002d0: 9743 0dbd d124 9bbd 6aa6 c9bd c598 8ebb
000002e0: 9b30 0abb 3a58 c8bc 6cb1 8a3c ff2a 473d
000002f0: 25da c0bd 5584 db3c 66b5 dd3b bbd1 fd3c
00000300: 3644 edbd 9371 3d3d 33f5 d93d 5714 0d3e
00000310: c96e 54be 90da a5bd 46bd 843c cf97 68bd
00000320: e24f 52bd 5c85 693c 67de 323d b34e 96bd
00000330: c986 a0bc 68c3 8e3e db9c 2abd 4f39 26bc
00000340: 055c 91bd 12b3 f8bd c805 eebd fc8d 96bc
00000350: 63f5 d63c 9e82 e4bd 6c34 aabc f3a3 103d
00000360: 992e b8bd c9d9 6bbd fbba e23d 1c15 3bbd
00000370: a9a9 b53d 7a91 973d 775b 6e3d 526d 3c3c
00000380: af70 03bd 1e2f a9bc cc26 e2bd d113 4abd
00000390: 5e6d 1c3d 65e2 1a3e b0df f0bc e23d b53b
000003a0: 5ec7 4fbd 5cb4 0abe 68b1 c8bd d230 a53d
000003b0: 857b 0bbc 7636 f03b 2f42 febc 025f afbc
000003c0: 22cb 19be a316 84bd 3fd5 e0bd cab8 843d
000003d0: b6df b6bd e24c aa3c a4a6 763d 4ed4 2ebc
000003e0: e395 623d 5d40 863d 857e 263b 1270 d83c
000003f0: 927d 83bd a75f 37bc 7e66 1a3e 5d3c 38bd
