results/Run8/My Behaviour/My Behaviour-284874.pt (torch, 429343 bytes, 36 tensors)

network_body._body_endoder.seq_layers.0.weight f4 [128, 3]
0	0x3f37279b	0.7154481
1	0xbe8c6cc4	-0.27426732
2	0x3d0f7ca4	0.035030976
3	0x3ebfe3ed	0.3747858
4	0x3eee070e	0.46489757
5	0x3f3b8f2f	0.73265356
6	0xbc16850c	-0.009186994
7	0x3eb6bed6	0.3569247
8	0xbeab7af4	-0.33492243
9	0xbf5f437d	-0.87212354
10	0xbf13d5b9	-0.5774799
11	0x3ee65816	0.4498908
12	0xbe109a1c	-0.14121288
13	0x3da74821	0.08168054
14	0xbf016dd2	-0.505582
15	0xbe6ee44d	-0.23329277
16	0x3f3f33ed	0.7468861
17	0x3e12da3d	0.14341064
18	0xbf276c5a	-0.65399706
19	0xbe16856c	-0.14699334
20	0x3f004aae	0.5011395
21	0x3f4afc35	0.7929109
22	0x3eae9902	0.3410111
23	0x3e75007f	0.2392597
24	0x3efd9d1c	0.49533927
25	0x3f5065be	0.81405246
26	0xbe8bc6c0	-0.27300072
27	0xbe03449e	-0.12819144
28	0x3f88cada	1.0686905
29	0xbc869ac5	-0.016431222
30	0x3e552646	0.20815381
31	0x3f659117	0.89674515
32	0x3f22b2dc	0.6355417
33	0x3e21cdf6	0.15801224
34	0x3eac7dc3	0.336897
35	0x3f505db7	0.81393
36	0x3e716cdf	0.23576687
37	0xbf342abf	-0.70377725
38	0x3f840233	1.0313171
39	0xbf5837ab	-0.8445994
40	0xbf9e5919	-1.237094
41	0xbe6a2e0f	-0.22869132
42	0x3eb8d271	0.36098054
43	0x3e6d5bbe	0.23179528
44	0x3bf56755	0.007489125
45	0xbed46ec0	-0.41490746
46	0xbe9a9d00	-0.30197906
47	0x3d67cb43	0.05659033
48	0x3f1ee852	0.6207324
49	0x3e936caa	0.28793842
50	0x3d70bb31	0.05877227
51	0x3ed77e8f	0.42088744
52	0xbefe7450	-0.49698114
53	0x3e2bcedd	0.16778131
54	0xbe63b824	-0.22238213
55	0x3f30eed2	0.6911441
56	0x3db3985f	0.08769297
57	0xbf701e29	-0.9379602
58	0xbdcc5e84	-0.09978965
59	0x3f23618c	0.6382072
60	0xbf5e9e48	-0.8696027
61	0xbf8708e7	-1.0549592
62	0x3edf5cfb	0.43625626
63	0xbeb4e0bc	-0.3532771
64	0x3f1f556b	0.6223971
65	0x3f4f744b	0.81036824
66	0xbf0bbf11	-0.5458842
67	0x3ec7e6ee	0.39043373
68	0x3ecbe0c5	0.39819923
69	0x3f1f0342	0.62114346
70	0xbf2cd8be	-0.6751822
71	0xbf383c2d	-0.7196682
72	0x3f0b472c	0.54405475
73	0xbf0841e1	-0.53225523
74	0x3da34f6b	0.07974132
75	0xbe242e5c	-0.1603331
76	0x3e6df482	0.23237804
77	0x3dfca716	0.123365566
78	0xbe13d5eb	-0.14437072
79	0x3ebb80ee	0.36621803
80	0x3f2e7e7f	0.6816177
81	0x3fe8734b	1.8160185
82	0xbe62c7eb	-0.22146575
83	0xbe19069e	-0.1494393
84	0x3e94f1df	0.29090783
85	0x3ebb721e	0.36610502
86	0x3e2bc47a	0.16774169
87	0xbe0be9ce	-0.13663408
88	0xbfa706cb	-1.3048948
89	0xbe145fed	-0.14489718
90	0xbe7fad35	-0.24968417
91	0x3e9e6ecf	0.30943915
92	0xbf80dda6	-1.0067642
93	0xbd79029e	-0.06079351
94	0xbdfeacb4	-0.12435284
95	0x3f7edcab	0.9955546
96	0x3e91d556	0.28483075
97	0xbea4d4df	-0.32193658
98	0xbebf3968	-0.37348485
99	0xbcc96ba5	-0.024587462
100	0xbd657d64	-0.056027785
101	0xbe794ec1	-0.24346448
102	0xbd30b2a2	-0.043139108
103	0xbf3ae42e	-0.73004425
104	0x3e28c3ba	0.16480914
105	0xbf0d10de	-0.5510386
106	0x3e99b399	0.30019835
107	0x3f3cb4b7	0.7371325
108	0xbeffd6bd	-0.4996852
109	0xbeeb2ca2	-0.4593249
110	0xbef9a3e9	-0.48757866
111	0x3f2ade7f	0.6674575
112	0xbedf46ea	-0.4360879
113	0x3e5e25bf	0.21694086
114	0xbf0d1023	-0.5510275
115	0xbf6de33f	-0.92924875
116	0xbf384cf7	-0.7199244
117	0x3f151486	0.5823444
118	0xbf293357	-0.66093963
119	0xbf4fa749	-0.8111463
120	0xbe77aa9b	-0.24186175
121	0xbef5d940	-0.4801731
122	0x3f25db94	0.64788175
123	0xbe870224	-0.2636882
124	0x3eb01a83	0.34395227
125	0x3f317d7a	0.6933209
126	0xbeb41211	-0.35170034
127	0x3e219d81	0.15782739
128	0xbef146d4	-0.4712435
129	0xbf120f04	-0.5705416
130	0x3e15dd44	0.14635187
131	0xbf2e5eb8	-0.6811328
132	0x3eb47337	0.35244152
133	0xbe9c7611	-0.30558828
134	0x3f1d6fa8	0.614985
135	0x3e698204	0.22803503
136	0xbca5ea4c	-0.020253323
137	0xbedc3e8a	-0.43016464
138	0xbc24858b	-0.010041605
139	0x3da29f47	0.07940536
140	0xbf91cd35	-1.1390749
141	0xbf08700e	-0.5329598
142	0xbf118543	-0.56843966
143	0x3f851f9a	1.0400269
144	0xbee7ed34	-0.4529816
145	0x3d614bbf	0.055003878
146	0xbf618a24	-0.8810141
147	0x3f329f3c	0.6977422
148	0xbed64127	-0.41846582
149	0x3db8df17	0.09026926
150	0x3f076ed4	0.52903485
151	0xbe67023d	-0.22559448
152	0xbf41adcd	-0.75655824
153	0xbf10257a	-0.56307185
154	0x3f62aac4	0.8854182
155	0xbe4ea247	-0.20179091
156	0x3ec14abe	0.37752336
157	0x3dd76b0b	0.10518464
158	0xbf039ce2	-0.5141126
159	0xbe956941	-0.29181865
160	0xbf349f05	-0.70555145
161	0x3d6f815c	0.058472976
162	0xbe442add	-0.19156976
163	0x3e2cdae1	0.1688037
164	0x3e12a773	0.1432169
165	0x3d8ebb39	0.06969304
166	0xbde8b2e6	-0.11362247
167	0x3f596485	0.84919006
168	0x3e921af3	0.28536186
169	0x3fa5f39f	1.2964972
170	0xbed35887	-0.41278479
171	0xbdd9c32f	-0.106329314
172	0xbd0a0df5	-0.033704717
173	0x3eb19085	0.34680572
174	0xbf895b9f	-1.0731086
175	0x3db971ce	0.0905491
176	0xbeca67fd	-0.39532462
177	0x3fa3c1e3	1.2793545
178	0xbd8737eb	-0.066024624
179	0x3f0da996	0.5533689
180	0x3f528acc	0.8224304
181	0x3db53618	0.08848208
182	0x3eac1a92	0.33614022
183	0xbf57a6f7	-0.84239143
184	0x3efd6fa0	0.49499226
185	0xbe4db436	-0.20088276
186	0xbe2410d2	-0.16022041
187	0x3e9682d4	0.2939669
188	0x3f45e8ab	0.7730815
189	0xbe863f3a	-0.26220113
190	0x3eab5725	0.33464924
191	0xbf3c92e3	-0.7366163
192	0x3f3ed5e3	0.74545115
193	0x3f2593a1	0.6467839
194	0xbf25e066	-0.6479553
195	0x3e925ea6	0.28587836
196	0xbf103f2c	-0.5634639
197	0xbf0a846c	-0.5410831
198	0x3dba83ac	0.09107146
199	0xbf05c3fb	-0.5225217
200	0xbdf85917	-0.121263675
201	0x3ed2b168	0.41150975
202	0x3eae3d0c	0.3403095
203	0xbedd172f	-0.4318175
204	0xbf76f91f	-0.9647388
205	0xbfb8fa84	-1.4451451
206	0x3e6c9270	0.23102736
207	0xbe8daa5e	-0.27669042
208	0xbe4a3710	-0.19747567
209	0x3ee22071	0.44165376
210	0xbe94c0a4	-0.29053223
211	0x3e628c66	0.2212387
212	0xbf908352	-1.1290076
213	0x3d692059	0.056915615
214	0xbf58e185	-0.84719115
215	0x3f2c38f0	0.6727438
216	0xbf09c78b	-0.53820103
217	0xbf8ae72c	-1.0851798
218	0xbf10dbad	-0.565852
219	0x3de34df4	0.11098853
220	0x3f119d80	0.5688095
221	0x3f16e126	0.589373
222	0x3fa1d660	1.2643547
223	0x3f333227	0.699984
224	0x3efc5503	0.4928361
225	0xbf482500	-0.7818146
226	0xbf634d5b	-0.8878991
227	0xbd4d1c22	-0.050075658
228	0x3d9cd42c	0.07657656
229	0x3f71013c	0.9414251
230	0x3d999b5a	0.07500334
231	0xbd59fc50	-0.05321914
232	0xbee6dc1f	-0.45089814
233	0x3e9c83e5	0.30569378
234	0xbcf3cc06	-0.029760372
235	0x3dbbd108	0.09170729
236	0xbf3e9c5f	-0.74457353
237	0x3effcb76	0.49959916
238	0x3f0fc5fa	0.56161463
239	0xbe3e7d63	-0.18602519
240	0xbdc296e9	-0.0950144
241	0xbf1bbddb	-0.6083657
242	0x3e595091	0.2122214
243	0xbf0f6cc6	-0.5602535
244	0xbe34b657	-0.17647682
245	0xbf04d711	-0.51890665
246	0x3f035803	0.5130617
247	0x3f8fff11	1.1249715
248	0xbe6b61d5	-0.22986539
249	0x3eb6eb1b	0.35726246
250	0xbd5203fc	-0.05127333
251	0x3df44cdf	0.119287245
252	0x3c55ac22	0.013041528
253	0x3e7d24e9	0.24721111
254	0xbf47baa4	-0.78019166
255	0xbdd1d9d1	-0.10246623

network_body._body_endoder.seq_layers.0.bias f4 [128]
0	0xbc4acbb2	-0.012377666
1	0x3b8eb8e1	0.0043555354
2	0xb942e955	-0.00018588205
3	0x3c83c6c5	0.016085992
4	0x38149663	3.542601e-05
5	0xbbdc3c48	-0.0067210533
6	0x3b0db9c3	0.0021625615
7	0x3c37050d	0.011170638
8	0x3b80dec2	0.003932805
9	0xbb73a81c	-0.0037179058
10	0x3bc91e8a	0.0061376737
11	0x3b6691a4	0.0035182023
12	0xbc0a4592	-0.008439438
13	0x3bba2ad4	0.005681375
14	0x3b765ae9	0.0037590808
15	0xbc48a00d	-0.01224519
16	0x3c32dbe7	0.010916687
17	0x3b38de4e	0.0028208676
18	0x3bbff5d4	0.0058581624
19	0xbc3f6219	-0.011681103
20	0xbc4d247a	-0.012520904
21	0x3c74b315	0.014935275
22	0x3b7d532c	0.003865431
23	0xbbbac503	-0.005699755
24	0xbc28a6f9	-0.010293716
25	0xbc721764	-0.014776085
26	0x3b15583d	0.002278819
27	0xbb0f2caa	-0.002184669
28	0x3c4e5fbc	0.012596067
29	0xbc1f2c5d	-0.009715167
30	0x3b70cae4	0.0036742026
31	0xbb949171	-0.0045339395
32	0xbc0181c8	-0.007904477
33	0x3b99ca33	0.0046932935
34	0xbc1b6a1c	-0.009485748
35	0x3c2d8994	0.010591883
36	0x3c36675d	0.011133042
37	0x3b08d491	0.0020878653
38	0x3c8fa179	0.01753305
39	0x3b8cf8af	0.0043021063
40	0xbc8a6116	-0.016891997
41	0xba94b12c	-0.0011344305
42	0x3c8d808e	0.017273214
43	0x3c1b9905	0.009496932
44	0xbc1e62e0	-0.009667128
45	0xbc45f57c	-0.012082454
46	0xbb0a20e1	-0.0021076726
47	0x3c6cd973	0.014456141
48	0x3b4cc057	0.0031242573
49	0xbbf887ff	-0.0075845714
50	0xbcacc78a	-0.021091241
51	0x3c9198ae	0.017772999
52	0xbc1adf4d	-0.009452653
53	0xbbb9218d	-0.0056497515
54	0x3c2cf36c	0.010556083
55	0x3b516c5e	0.003195546
56	0xbb68db3f	-0.0035531071
57	0x3c4e2766	0.0125826355
58	0x3bae12e1	0.005312309
59	0xbbb59e8e	-0.005542583
60	0xbb053f34	-0.0020331861
61	0xbc11a780	-0.008890033
62	0x3a9acf24	0.0011811
63	0x3b55b5a4	0.0032609487
64	0xbb9fe30a	-0.00487936
65	0x38f2f6f0	0.00011585455
66	0x3ca46528	0.020067766
67	0xbbe90f4f	-0.0071124206
68	0x3bd0b90b	0.006369715
69	0xba39a683	-0.0007082002
70	0xbc55d77c	-0.013051864
71	0x3c3f1c12	0.011664407
72	0x3c923678	0.017848238
73	0x3ae92c92	0.0017789772
74	0x3baad82d	0.0052137584
75	0xbc106e70	-0.008815393
76	0x3c880d4b	0.016607901
77	0x3c8b3296	0.016991895
78	0xbbbb6fc3	-0.00572011
79	0xbabaf610	-0.0014264006
80	0xba77add8	-0.0009448207
81	0x3c806af4	0.015676
82	0xbbc5487b	-0.0060206032
83	0x3c168d61	0.009188981
84	0xbb1dfc9b	-0.0024106863
85	0xbc759e47	-0.01499135
86	0x3b1a95bc	0.0023587784
87	0x3c2005c7	0.009767002
88	0xbbe6d4cf	-0.0070444117
89	0xbba22def	-0.0049493234
90	0xbc40da53	-0.011770803
91	0xbab6bb0d	-0.0013941244
92	0x3c224fc7	0.009906716
93	0xbc800d35	-0.015631298
94	0x3c7290af	0.014805003
95	0x3c685eba	0.014182741
96	0xbbf7b5ca	-0.0075595127
97	0xbbc8a396	-0.0061230166
98	0xbc006f05	-0.007838969
99	0x3be3aa26	0.0069477735
100	0x3c50863b	0.012727316
101	0x3d070bb5	0.03297015
102	0x3c458488	0.012055524
103	0xbc93c7bf	-0.018039582
104	0xbc23837d	-0.00998008
105	0xbc1e62cf	-0.0096671125
106	0xbc0a7c77	-0.008452526
107	0x3c7d41f3	0.015457618
108	0x3b9afca6	0.004729825
109	0xbbb025d1	-0.005375602
110	0xbc60fcf3	-0.013732183
111	0xbc9dddec	-0.01927086
112	0xbb8a2936	-0.0042163385
113	0xbc0a4d27	-0.008441246
114	0xbbe6cab4	-0.007043207
115	0x3b95bf19	0.0045698998
116	0xbc5edb28	-0.013602056
117	0x3c009b03	0.007849458
118	0xbc62f526	-0.013852393
119	0x3baf1ce3	0.0053440197
120	0xbbcb8de1	-0.0062119816
121	0xbbfa1086	-0.0076313643
122	0x3b15e17f	0.0022870002
123	0xbc11f817	-0.008909247
124	0xbc22b1eb	-0.009930114
125	0xbc099faa	-0.008399883
126	0x3ca7cbb1	0.02048287
127	0xbae30746	-0.0017320893

network_body._body_endoder.seq_layers.2.weight f4 [128, 128]
0	0xbcbf67b5	-0.023364881
1	0x3c1a1e88	0.009406693
2	0x3db5612c	0.08856425
3	0x3cf8f76c	0.030391417
4	0x3d49131a	0.049090482
5	0x3d24bb4e	0.04021769
6	0x3bf85aff	0.007579207
7	0x3dab71df	0.083713286
8	0xbdbb22bf	-0.09137487
9	0x3d73752e	0.059437923
10	0x3cd9eef0	0.026603192
11	0xbc190800	-0.009340286
12	0x3e04bfd7	0.12963806
13	0x3d34ae32	0.044111438
14	0x3d8f6c33	0.07003059
15	0xbe00849a	-0.12550583
16	0x3ca587c8	0.020206347
17	0xbe192f1b	-0.14959376
18	0xbd10105f	-0.035171863
19	0x3ba65efd	0.0050772415
20	0xbd6c5ba8	-0.057704598
21	0xbd0627ae	-0.032752685
22	0x3c84accf	0.016195683
23	0xbdb881fc	-0.090091676
24	0xbd17b98c	-0.037042186
25	0x3df2ad76	0.11849491
26	0xbdd6e786	-0.10493378
27	0xbc487110	-0.012233987
28	0x3e857bce	0.26071018
29	0xbde6953c	-0.11258933
30	0x3db696c8	0.08915478
31	0x3d95e385	0.073187865
32	0xbe3609e4	-0.1777721
33	0xbda6a9e2	-0.08137871
34	0x3e8904c0	0.26761436
35	0x3bc339d6	0.0059578223
36	0xbe18fd80	-0.14940453
37	0x3de4888d	0.111588575
38	0x3d9a02f8	0.075200975
39	0x3def738b	0.1169196
40	0xbd61eaf3	-0.055155706
41	0x3ce67960	0.028134048
42	0xbc746015	-0.014915486
43	0xbd7e6e4c	-0.062116906
44	0xbd68a16a	-0.05679456
45	0x3cf7f793	0.03026942
46	0xbc5f5274	-0.013630498
47	0xbda8df32	-0.08245696
48	0xbdb15986	-0.08659653
49	0xbc9cc681	-0.019137623
50	0xbd431185	-0.04762413
51	0x3d901b01	0.070364006
52	0xbcd018df	-0.025402484
53	0xbd8aa164	-0.06769064
54	0x3d915d51	0.07097877
55	0xbd2d52fa	-0.04231546
56	0x3d372ac3	0.044718515
57	0xbdd3963d	-0.1033139
58	0xbc8f0dd5	-0.01746265
59	0xbccdab5c	-0.025106125
60	0xbd0496d5	-0.032370407
61	0x3ccd3779	0.025050865
62	0x3d696f09	0.056990657
63	0xbdadb03f	-0.08480882
64	0xbb09c338	-0.00210209
65	0x3d5fbc0f	0.054622706
66	0x3e25d561	0.16194679
67	0xbd855311	-0.06509984
68	0xbd2c82a7	-0.042116787
69	0xbe1dfb71	-0.15427949
70	0x3de4d499	0.11173362
71	0x3cf1017d	0.029419655
72	0x3c29e361	0.010369153
73	0xbbafb7c2	-0.005362482
74	0x3d853c5e	0.06505655
75	0x3d4cedc7	0.05003145
76	0xbcb39cd8	-0.021925375
77	0xbd789b4f	-0.06069499
78	0x3e2857c2	0.16439727
79	0x3da697bd	0.081344105
80	0x3cd94065	0.026519964
81	0x3ddcee58	0.10787648
82	0xbd8bb381	-0.06821347
83	0xbd74d4eb	-0.059773367
84	0x3dd5d0f2	0.10440244
85	0x3db87447	0.09006553
86	0x3d3877ae	0.04503601
87	0xbd808d4a	-0.06276949
88	0xbcadb6c6	-0.021205317
89	0xbd6a6245	-0.057222623
90	0xbd0b6404	-0.03403093
91	0xbe27a2e4	-0.16370732
92	0x3cffa987	0.031208767
93	0x3c9d4a60	0.019200504
94	0x3e03cc0b	0.12870805
95	0xbce7af08	-0.028281704
96	0x3cb219cf	0.021740822
97	0xbd557f0e	-0.052123122
98	0x3c9bf30c	0.019036792
99	0x3ddfcc81	0.10927678
100	0xbc6e29f1	-0.014536367
101	0xbc221fd0	-0.00989528
102	0xbe001bdc	-0.12510628
103	0xbb1404fc	-0.0022585979
104	0x3d054c73	0.03254361
105	0xbc3a2a84	-0.011362676
106	0xbe0b1074	-0.13580495
107	0x3dc5b40d	0.096534826
108	0xbce45031	-0.02787027
109	0x3b8b8281	0.0042575006
110	0xbd185067	-0.037186053
111	0x3c48e0de	0.012260644
112	0x3e0ae87a	0.13565245
113	0xbde8d37c	-0.113684624
114	0xbc048a13	-0.00808956
115	0x3daa3155	0.083101906
116	0x3e0ce348	0.13758576
117	0xbcfbb76e	-0.030727115
118	0x3daa2e04	0.08309558
119	0x3e99501f	0.2994394
120	0xbd13c130	-0.03607291
121	0xbd243d35	-0.040097434
122	0xbd1b8858	-0.037971824
123	0xbace6b7c	-0.0015748586
124	0x3d67c17b	0.056581
125	0xbe0d339c	-0.13789219
126	0xbd44c990	-0.048043787
127	0xbdc251da	-0.09488268
128	0xbbf6326b	-0.0075133345
129	0x3dcff4b8	0.10154098
130	0xbdb737c1	-0.08946181
131	0xbe174661	-0.14772941
132	0xbda1119c	-0.07864687
133	0xbe293a00	-0.16526031
134	0x3d86da9a	0.06584664
135	0xbe703c29	-0.2346045
136	0x3e21614f	0.15759777
137	0x3d080e39	0.03321669
138	0xbc878010	-0.016540557
139	0xbdb38742	-0.08766033
140	0xbe08024d	-0.13282128
141	0xbdbfee7f	-0.093716614
142	0x3d80da99	0.06291694
143	0xbdbdd0f6	-0.09268372
144	0x3d36dfa7	0.044646885
145	0x3e50db51	0.20396163
146	0xbd2fc560	-0.04291284
147	0x3d1d41ef	0.038392957
148	0x3d07ae2e	0.033125095
149	0xbe0c3972	-0.13693789
150	0xbd5232f2	-0.051318116
151	0xbd60dbae	-0.054897003
152	0x3d20281a	0.039100744
153	0xbd44eb8c	-0.048076198
154	0x3cfe8572	0.031069491
155	0xbd8a4ed6	-0.06753318
156	0xbd6c91bc	-0.05775617
157	0x3d631694	0.055441454
158	0x3df1fbd4	0.118156105
159	0x3dfa77fc	0.122299165
160	0x3ceade51	0.028670462
161	0xbd797486	-0.06090214
162	0xbd89dafc	-0.06731221
163	0xbcac98c1	-0.021068932
164	0xbd4bc553	-0.04974873
165	0xbded6e79	-0.115933366
166	0xbcaefb5d	-0.021360094
167	0xbdc1f6fb	-0.09470936
168	0x3ddf3ea9	0.10900623
169	0xbe0d22a0	-0.1378274
170	0xbcbfcbcd	-0.02341261
171	0xbdc5f420	-0.09665704
172	0xbc4ffa31	-0.012693928
173	0xbdf9dc4b	-0.12200221
174	0x3db28b33	0.087179564
175	0xbd5849e1	-0.05280483
176	0x3e7c4924	0.24637276
177	0x3c4673aa	0.012112537
178	0x3d863c67	0.065544896
179	0xbded92f5	-0.116002955
180	0x3e1fef51	0.15618636
181	0xbd5116cc	-0.05104713
182	0xbe29a532	-0.16566923
183	0x3c9cab1a	0.019124556
184	0xbda98559	-0.08277387
185	0xbdd38b7c	-0.10329339
186	0xbd43be4f	-0.047788914
187	0xbdb8ef1e	-0.09029983
188	0x3cbd88f3	0.023136592
189	0x3df6f761	0.120589025
190	0xbe314993	-0.17313223
191	0xbe0fc254	-0.14038974
192	0xbbdc6982	-0.0067264447
193	0x3c10e50d	0.008843672
194	0x3c410d8b	0.011783014
195	0x3e03ca50	0.12870145
196	0x3d788e4a	0.060682572
197	0xbc872d37	-0.016501052
198	0x3df07abc	0.1174216
199	0xbd3c7add	-0.04601561
200	0xbc34b9d5	-0.011030634
201	0x3da844ce	0.082162485
202	0x3d5f3977	0.054498162
203	0x3d3256a0	0.043539643
204	0xbdee5ab3	-0.11638393
205	0xbdb760a7	-0.08953982
206	0xbe94937e	-0.29018778
207	0xbc20424b	-0.0097814305
208	0xbd2a4456	-0.041569076
209	0xbe4992af	-0.19684862
210	0xbd3d7f99	-0.046264265
211	0xbd7e7abe	-0.062128775
212	0x3e0a0376	0.13477883
213	0x3e5b225a	0.21399823
214	0xbd0a04bb	-0.033695918
215	0x3e05aeac	0.13054913
216	0xbc881e6b	-0.016616067
217	0xbd8b4233	-0.06799736
218	0x3dc9e791	0.09858621
219	0xbdcf5cca	-0.1012512
220	0xbd5a1023	-0.053238045
221	0xbd7eecaf	-0.062237438
222	0xbe1d6c2f	-0.153733
223	0xbc02f5a9	-0.00799314
224	0xbd4f4960	-0.050607085
225	0xbcbe5ed4	-0.023238577
226	0xbd95911f	-0.0730307
227	0x3e34c102	0.17651752
228	0x3d364be3	0.044505965
229	0xbd1c3337	-0.03813478
230	0xbe0ca131	-0.13733365
231	0xbdecb26c	-0.11557469
232	0xbdce58be	-0.1007552
233	0xbc0b07e4	-0.008485768
234	0x3ca35920	0.019939959
235	0xbe249541	-0.16072561
236	0xbd8fa17c	-0.070132226
237	0x3ab5c8f1	0.0013869089
238	0xbe11368d	-0.14180966
239	0x3ddad277	0.10684674
240	0x3db3393a	0.087511495
241	0xbd804b8c	-0.062644094
242	0x3d69577f	0.05696821
243	0x3c90555d	0.01761883
244	0xbc08fcef	-0.008361085
245	0x3e386cca	0.1801025
246	0x3d2f36f3	0.042777013
247	0x3cbf60c9	0.02336158
248	0x3d5bedb6	0.053693496
249	0x3d8ed547	0.06974273
250	0xbcdbe8d0	-0.026844412
251	0x3cead549	0.028666155
252	0xbc7b1cc9	-0.015326687
253	0x3dbdc8e4	0.092668325
254	0x3e0103f5	0.12599166
255	0x3d590fe7	0.05299368

network_body._body_endoder.seq_layers.2.bias f4 [128]
0	0xbc24291f	-0.01001957
1	0x3cb3c33d	0.021943683
2	0xbb2a68ad	-0.0026002333
3	0xbc1380bc	-0.009002861
4	0x3ba9dbd6	0.005183677
5	0xbb0c1565	-0.0021375057
6	0x3bf3d407	0.007441047
7	0x3b8c300b	0.004278188
8	0x3c6e6444	0.014550272
9	0x3c7f9b10	0.015600935
10	0xbc40d0b7	-0.0117685115
11	0xbc23ecb1	-0.010005162
12	0xbc42c8af	-0.011888667
13	0x3bc718f9	0.006075975
14	0xbc9c3079	-0.019066082
15	0x3c4866e6	0.012231564
16	0xbc90ca2f	-0.017674534
17	0x3ba9dc20	0.0051837116
18	0xb985d149	-0.00025523666
19	0x399606e5	0.00028615366
20	0xbbfb720d	-0.007673508
21	0x3c6ab1f0	0.01432465
22	0x3c835b45	0.016034732
23	0xbc24490f	-0.010027184
24	0xbbdf3c35	-0.006812597
25	0xbd042c19	-0.032268617
26	0xbc3a66e4	-0.01137707
27	0x3b3e5766	0.0029043793
28	0xbc0130ad	-0.00788514
29	0xbc32c68a	-0.010911593
30	0xbbd4f1f6	-0.0064985706
31	0xbbfc1013	-0.007692346
32	0x3b92a812	0.004475602
33	0xbb615156	-0.0034380755
34	0xbbe25e65	-0.0069082254
35	0x3a26629c	0.00063470914
36	0x3c86d9be	0.01646125
37	0xbc82d83e	-0.015972253
38	0xbb934afc	-0.004495023
39	0xbc4ee880	-0.0126286745
40	0xbad67f0a	-0.0016364765
41	0xbb74bd11	-0.0037344138
42	0xbc69d39a	-0.014271641
43	0x3a80b5a0	0.0009819753
44	0x3b2673dc	0.0025398647
45	0x3bf6fe52	0.0075376416
46	0x3b955c98	0.004558157
47	0x3c3256db	0.010884966
48	0x3bbbf33b	0.0057357824
49	0xbd160024	-0.036621228
50	0xbb9eb0cf	-0.0048428546
51	0x3c4e6cef	0.012599214
52	0xbc8664b4	-0.01640544
53	0x3c1051f2	0.0088086
54	0xbbeddb8b	-0.0072588376
55	0x3c3854d5	0.011250694
56	0x3b64d010	0.0034914054
57	0x3b97f4e4	0.0046373475
58	0xbbcf1d06	-0.0063205985
59	0xbc34be89	-0.011031755
60	0x3bb01b00	0.0053743124
61	0x3ab6855a	0.001392524
62	0xbcdb3a77	-0.026761277
63	0x3c425dd5	0.011863192
64	0xbbecbce6	-0.007224667
65	0xbc5f3521	-0.013623507
66	0xbc80c624	-0.01571948
67	0x3bf8384d	0.007575071
68	0x3c164626	0.009171998
69	0xbb9a22f0	-0.004703872
70	0x3c81adf4	0.015830018
71	0x3c3576db	0.011075701
72	0xbbcbadef	-0.006215803
73	0xbc26cf9e	-0.010181336
74	0xbc997282	-0.01873136
75	0x3c622873	0.013803589
76	0xba6a831e	-0.00089459296
77	0x3c2adaba	0.010428125
78	0xbc827e3f	-0.01592934
79	0xbc5747fc	-0.013139721
80	0xbb75cf37	-0.0037507543
81	0xbc1dadb9	-0.009623938
82	0x3bc2140d	0.0059228004
83	0x3c36ee5d	0.011165229
84	0xbc18b0d4	-0.009319503
85	0xbc5c94c5	-0.013463204
86	0xbacef341	-0.0015789048
87	0xbc5982b9	-0.013275796
88	0xbad87983	-0.0016515706
89	0x3b5429d9	0.0032373576
90	0x3b8de8bd	0.004330723
91	0x3bdcdda9	0.006740291
92	0x3c4a7c3d	0.012358722
93	0xbc97d584	-0.01853443
94	0x3c6ea054	0.014564592
95	0xbba5ef57	-0.005063932
96	0x3bb89f10	0.005634196
97	0x3b9c3da9	0.0047680927
98	0x3c8573ca	0.016290564
99	0x3c4c2337	0.012459568
100	0x3c6cc469	0.014451125
101	0xbbdf6073	-0.0068169176
102	0x3bf3da09	0.0074417633
103	0x3c46020d	0.01208545
104	0x3bf8d836	0.0075941337
105	0xbacd7418	-0.0015674857
106	0xbb8d693f	-0.004315525
107	0xbc68905d	-0.014194575
108	0x3c34dc48	0.011038847
109	0x3ab4395e	0.0013750007
110	0xbbfe1d4f	-0.0077549587
111	0xbb0f4951	-0.0021863768
112	0x3c6659fc	0.01405954
113	0xbc016f8f	-0.007900133
114	0x3bb94ca1	0.005654887
115	0xbc541414	-0.01294424
116	0x3aac605c	0.0013151276
117	0xbc52996b	-0.0128539605
118	0x3b0413f2	0.002015349
119	0xbbdbf63a	-0.006712702
120	0x3ad2e9a6	0.0016091361
121	0xbc726c9f	-0.014796405
122	0x3c0ab45c	0.008465853
123	0x3c78566d	0.015157324
124	0xbc98fd42	-0.01867545
125	0x3c16e4db	0.009209837
126	0xbbe16c69	-0.0068793786
127	0xb958359a	-0.00020619333

action_model._continuous_distribution.log_sigma f4 [1, 2]
0	0xbdb73db9	-0.089473195
1	0x3d9685a2	0.07349707

action_model._continuous_distribution.mu.weight f4 [2, 128]
0	0x3c00babf	0.007857024
1	0x3b4f36c7	0.0031618343
2	0x3b0320f6	0.002000866
3	0x3ce6ebb1	0.028188558
4	0x3c352f98	0.0110587105
5	0x3d01ab5f	0.031657573
6	0xbb14b9a1	-0.0022693651
7	0x3b04aa8c	0.0020243255
8	0xbc100a10	-0.008791462
9	0xbc1ebdbd	-0.009688792
10	0x3d2c60de	0.042084567
11	0x3c171d0c	0.009223234
12	0x3b5f4175	0.0034066115
13	0x3b9c3731	0.0047673215
14	0x3ba9fc0d	0.0051875175
15	0xbca70455	-0.020387808
16	0x3b2c83e2	0.0026323725
17	0xbccdff40	-0.025146127
18	0x3bdc1044	0.006715806
19	0xbb7f970e	-0.0038999948
20	0xbb057cd7	-0.00203686
21	0xbd14d9fd	-0.036340702
22	0xbc465dc9	-0.012107321
23	0x3d34c247	0.04413059
24	0x3cba2a1e	0.022725161
25	0x3d82a0d6	0.06378333
26	0x3cc50b17	0.02405314
27	0xbc87a09f	-0.016556082
28	0x3c1fcbb8	0.00975316
29	0xbb19ca86	-0.002346666
30	0x3b485049	0.0030565432
31	0x3bbca1e5	0.005756604
32	0xbc9b26b8	-0.018939361
33	0xba4a92d9	-0.00077275705
34	0x3bee006c	0.007263234
35	0xb9a1beb2	-0.00030850392
36	0xbc88670d	-0.016650701
37	0x3b9451d5	0.0045263567
38	0x3d1779dd	0.036981452
39	0x3bc0a895	0.0058794715
40	0x3bca1069	0.006166507
41	0xbc3dd929	-0.01158742
42	0x3c1c2edb	0.009532656
43	0xbd063cee	-0.03277295
44	0x3c3471e0	0.011013478
45	0x3a725c59	0.0009245328
46	0x39bf7941	0.000365207
47	0xbb3872a5	-0.0028144505
48	0xbd30d5df	-0.043172713
49	0x3cef279b	0.02919369
50	0x3c84c148	0.016205445
51	0xbc25b231	-0.010113285
52	0x3c94bbeb	0.018156013
53	0xbc2c18c4	-0.010503951
54	0x3bdbc286	0.0067065386
55	0xbbf81ba2	-0.0075716535
56	0x3b3fa12f	0.002924036
57	0xbc07c6d4	-0.00828715
58	0x3c2455e9	0.010030248
59	0x3c9c84b9	0.019106256
60	0xbc4d862a	-0.012544194
61	0xbc7d6321	-0.015465529
62	0x3c6ab781	0.014325977
63	0xbd3da56a	-0.04630033
64	0xbbf269f8	-0.0073978864
65	0x3d0db748	0.03459862
66	0x3c86ff8c	0.016479276
67	0xbbde8375	-0.0067905732
68	0xbd19eb06	-0.03757765
69	0x3c14ec2e	0.009089513
70	0xbc4e85b4	-0.0126051195
71	0xbba033cb	-0.0048889867
72	0x3c7f4775	0.0155810015
73	0x3ccad24d	0.024758482
74	0x3c2b277d	0.010446426
75	0xbc904909	-0.01761295
76	0xbb1bd770	-0.0023779534
77	0xbc493790	-0.012281314
78	0x3c211dfc	0.009833809
79	0xbb79ff62	-0.0038146605
80	0x3bebf380	0.0072006583
81	0x3a37bf7c	0.00070094294
82	0xbce8bbef	-0.028409926
83	0xbb71dce0	-0.0036905333
84	0x3cd1e463	0.025621599
85	0x39b373a4	0.000342277
86	0x3c4d88cf	0.012544825
87	0x3b953712	0.004553684
88	0x3b9654a4	0.0045877267
89	0xbbcd8069	-0.006271411
90	0xbc1fa9f2	-0.009745108
91	0xbc34dc57	-0.011038861
92	0xbca618ee	-0.02027556
93	0x3c3637d5	0.01112171
94	0xb9ca7412	-0.00038614922
95	0x3a8f2270	0.0010920297
96	0xbc99dd5a	-0.018782306
97	0xbb7ba6b9	-0.0038398935
98	0xbc61f4ab	-0.013791244
99	0x3b825d44	0.0039784033
100	0xbbea4fd9	-0.007150632
101	0x3c7e51e2	0.015522452
102	0xba8dd8d2	-0.0010822064
103	0xbd005733	-0.03133316
104	0xba9923b9	-0.001168362
105	0x3cc17397	0.023614688
106	0xba7d8650	-0.0009671198
107	0x3ba3569c	0.00498469
108	0x3c5e8b0b	0.013582955
109	0xbb4290dd	-0.0029688396
110	0x3cdf5531	0.027262302
111	0x3c4e69e5	0.012598489
112	0xbcaea5d3	-0.021319306
113	0x3bd339ec	0.006446114
114	0xbcca3a97	-0.024686141
115	0x3c7775f5	0.015103807
116	0xbb25ddf8	-0.0025309306
117	0x3cd02ca1	0.025411906
118	0xbcdfef5d	-0.027335817
119	0x3b876668	0.004132081
120	0xbc8563a7	-0.01628287
121	0x3c855885	0.016277561
122	0xbc014c75	-0.007891764
123	0xbc47ec90	-0.012202397
124	0x3c2395b5	0.009984423
125	0x3c725ed3	0.014793116
126	0x3cbb5ae3	0.022870487
127	0x3c1579b0	0.009123251
128	0x376ce8cc	1.4120898e-05
129	0x3cb3c275	0.02194331
130	0x3b1c02bb	0.0023805338
131	0x3c4f120f	0.012638583
132	0x3cfba48b	0.030718109
133	0x3d195951	0.037438694
134	0x3d1a6ecd	0.037703324
135	0x3c57b908	0.0131666735
136	0x3c766ce4	0.01504061
137	0x3b98e40d	0.0046658576
138	0xbb2e0c4d	-0.0026557625
139	0xbbc33da6	-0.005958277
140	0xbcca24b9	-0.024675714
141	0x3cb302aa	0.021851856
142	0xbbf531e5	-0.0074827545
143	0x3ae487cb	0.0017435489
144	0xbb2f20f5	-0.0026722525
145	0xbcdda159	-0.027054476
146	0x3b97ea3c	0.004636077
147	0x3c721d08	0.014777429
148	0xbc1ccb0a	-0.009569893
149	0x3c197b4b	0.009367774
150	0x3d10fdfb	0.035398465
151	0x3c080a55	0.008303245
152	0xbc898dd5	-0.016791264
153	0xbdb8b900	-0.09019661
154	0x3c82630b	0.015916368
155	0xbcb3c6f4	-0.021945454
156	0x3af39021	0.0018582382
157	0xbc9927b9	-0.018695699
158	0x3b1a308b	0.002352747
159	0xbb1559b7	-0.002278907
160	0xbc8b93eb	-0.017038306
161	0xbd188834	-0.03723927
162	0xbc374974	-0.011186946
163	0xbcac4336	-0.021028142
164	0x3cc9c12a	0.02462824
165	0xbcff647f	-0.03117585
166	0x3c8cd32c	0.017190538
167	0xbc23d1fb	-0.009998794
168	0xbc452557	-0.012032828
169	0xbc3d2857	-0.011545262
170	0xbaf68e81	-0.001881078
171	0xbd0c64b3	-0.03427572
172	0x3c782fd1	0.015148119
173	0x3cba4508	0.022737995
174	0x3bc7f11a	0.0061017396
175	0x3c0ff139	0.008785539
176	0xbd107dba	-0.035276152
177	0xbd7f6904	-0.06235601
178	0xbcf7877a	-0.030215967
179	0x3d0b7154	0.034043625
180	0x3b7aeef6	0.0038289404
181	0xbc047c71	-0.00808631
182	0x3bc41509	0.005983953
183	0x3c220b1b	0.009890343
184	0xbd25797c	-0.04039906
185	0x3cf17733	0.029475784
186	0xbc17c116	-0.009262344
187	0xbced2da3	-0.028952425
188	0xbbd91b51	-0.006625571
189	0xbc8edd02	-0.01743937
190	0x3c1adaf8	0.00945162
191	0xba55e465	-0.00081593386
192	0xbca751ed	-0.020424807
193	0x3c2c7c9a	0.010527754
194	0xbca6006f	-0.020263879
195	0x3c93ba25	0.018033097
196	0xbc4242fe	-0.0118567925
197	0xbd109db0	-0.035306633
198	0xbc3cd97b	-0.011526461
199	0xbc5a3c77	-0.01332008
200	0xbc77b011	-0.015117661
201	0xbcf5885a	-0.029972244
202	0xbc6ad06d	-0.014331919
203	0x3ca67a47	0.020321978
204	0xbb813b5f	-0.003943845
205	0xbc14232f	-0.009041592
206	0xbcb11e2a	-0.021620829
207	0xbc0f93d1	-0.0087632695
208	0x3c6d092c	0.014467519
209	0x3cc1f5b4	0.02367673
210	0xbbfb5c5a	-0.0076709213
211	0x38f57cd0	0.000117057585
212	0x3bceeeb0	0.006315075
213	0xbc30ea4c	-0.010798048
214	0xbc6a6f6e	-0.0143087935
215	0xbbd3bee0	-0.006461963
216	0x3bc8722d	0.0061171264
217	0x3b98cdaf	0.0046631913
218	0x3d0fab1c	0.035075292
219	0xbbcf0874	-0.0063181464
220	0xbbb733d3	-0.0055908947
221	0xbcaab7c9	-0.020839589
222	0x3c4ab253	0.012371617
223	0xbca06da9	-0.01958354
224	0x3ab52d1f	0.0013822651
225	0xbc79c984	-0.015245799
226	0x3c3c886b	0.011507134
227	0x3d14df2e	0.036345653
228	0x3c9e9d20	0.019362032
229	0xbc64689a	-0.013940955
230	0xb97c53a4	-0.00024063751
231	0xbafc6467	-0.0019255996
232	0x3b37f1d0	0.0028067715
233	0x3ca8db3c	0.020612352
234	0xbc475029	-0.012165108
235	0x3a55a86e	0.0008150403
236	0x3cfb79b6	0.030697685
237	0xbcba6cab	-0.022756895
238	0xbc09d49b	-0.0084125055
239	0x3c7085ee	0.014680369
240	0xba192c7e	-0.00058431167
241	0xbccc929a	-0.024972249
242	0x3cb0a453	0.02156273
243	0x3b16b389	0.0022995195
244	0xbbf29afa	-0.0074037286
245	0x3bd0d67a	0.006373224
246	0xbc8fd68f	-0.017558364
247	0xbc2266e0	-0.009912223
248	0xbbf64700	-0.007515788
249	0xbc7704a1	-0.015076787
250	0x3c037a2c	0.0080247335
251	0x3d182c1d	0.037151445
252	0xbcaf4983	-0.021397358
253	0xbd1eb2e9	-0.03874484
254	0x3c18e7e2	0.009332629
255	0x3c8bc165	0.017059991

action_model._continuous_distribution.mu.bias f4 [2]
0	0xbc52c39c	-0.01286402
1	0x3c275fbc	0.010215696

exp_avg f4 [128, 3]
0	0xbb071c30	-0.0020616166
1	0xb9ebccc9	-0.0004497527
2	0xbbab78e3	-0.0052329167
3	0xbb7afd62	-0.0038298
4	0xba9dfcce	-0.0012053491
5	0xba34b052	-0.0006892729
6	0xbac145ed	-0.0014745571
7	0xba297c28	-0.0006465339
8	0xbb21d566	-0.0024693846
9	0x3adeafcd	0.0016989649
10	0xb980dbf0	-0.0002457793
11	0xb8cfb210	-9.903696e-05
12	0xb9e15738	-0.00042980327
13	0xb85e1f6a	-5.295818e-05
14	0x3b39e376	0.0028364337
15	0xbb5e641d	-0.0033934184
16	0xba33bb12	-0.0006856184
17	0xba2dca28	-0.000662955
18	0x39cfaf10	0.00039612548
19	0xb8ad790e	-8.271831e-05
20	0x3a0e937d	0.00054388476
21	0x3b712848	0.003679769
22	0x3a913433	0.0011078179
23	0x3a94ea9b	0.0011361422
24	0x3b0b40d1	0.002124835
25	0x39c76ca3	0.00038037178
26	0xbb218e3e	-0.0024651433
27	0xbbde7176	-0.006788428
28	0xbb091e9e	-0.002092279
29	0xbb53eb98	-0.003233647
30	0xbb83ef40	-0.0040263236
31	0xba8da4ce	-0.0010806562
32	0x3ac25643	0.0014826733
33	0xbb33d7c1	-0.0027441832
34	0xba38479c	-0.00070297136
35	0xbac82cd2	-0.0015272147
36	0x3ae5e1cc	0.0017538606
37	0x3ab0730a	0.0013462019
38	0x3b1c56c6	0.0023855432
39	0x391ae5e0	0.0001477222
40	0xb9ad7d8d	-0.00033090674
41	0xb98e4b9a	-0.00027140678
42	0xba116fa2	-0.00055479456
43	0xb9406658	-0.00018348673
44	0xba37ccf1	-0.00070114346
45	0xbb1a1f2d	-0.0023517117
46	0x39914fc0	0.00027715974
47	0x3a23b431	0.0006244807
48	0xbabed447	-0.0014559113
49	0xba3ae8d8	-0.00071300333
50	0xba32d662	-0.00068221067
51	0xbb3481bb	-0.0027543146
52	0xba385431	-0.00070315885
53	0xbaaf2dad	-0.0013365053
54	0x3a151e10	0.00056883786
55	0xba105850	-0.00055063237
56	0xbb19de77	-0.0023478547
57	0xbb43815a	-0.0029831738
58	0x389a6030	7.3612086e-05
59	0x39711330	0.00022990699
60	0xb895c338	-7.141236e-05
61	0x384e4b82	4.918455e-05
62	0xba185576	-0.00058110745
63	0x3bdd5d78	0.006755527
64	0x38eb6780	0.000112249516
65	0x3b4b7180	0.0031042993
66	0x3b484039	0.0030555858
67	0xb87c5cd0	-6.016792e-05
68	0xba998aa0	-0.0011714287
69	0x38f85bd0	0.00011842663
70	0xb717f990	-9.058407e-06
71	0xbb188cb8	-0.0023277234
72	0x3ada10a5	0.001663704
73	0x3a5738a1	0.00082100375
74	0xbb5bb058	-0.0033521857
75	0xbb29b99f	-0.0025897992
76	0x3a4578c1	0.00075329473
77	0xbaf07013	-0.0018343948
78	0xbbd818be	-0.0065947464
79	0xba24fbdd	-0.0006293634
80	0x3ae7cdcf	0.0017685237
81	0x3b398681	0.002830893
82	0x3a731b20	0.00092737563
83	0x3b925e3b	0.0044667996
84	0x3ab8b5b8	0.0014092242
85	0x3923ff04	0.00015639892
86	0x3afad4e4	0.0019136933
87	0xbacd8de6	-0.0015682548
88	0xb7508498	-1.2428638e-05
89	0xbad0cc1f	-0.0015929973
90	0x39e05b24	0.00042792514
91	0x390a4a0b	0.00013188289
92	0x39a7e508	0.00032023364
93	0x3ae5123c	0.0017476748
94	0x3b174cf9	0.002308665
95	0x3b7d30dd	0.003863386
96	0xb95dc19c	-0.00021148328
97	0xb8222560	-3.8658618e-05
98	0x3affe6c4	0.001952373
99	0x392e23f8	0.00016607333
100	0x37b942c8	2.2084816e-05
101	0x39981e80	0.00029014423
102	0xba63beb8	-0.0008687782
103	0xb907f2fe	-0.00012965125
104	0xbaaac31a	-0.0013028115
105	0xbad3bdd7	-0.0016154599
106	0x38b2e1fa	8.529793e-05
107	0x3a8725c8	0.0010310942
108	0xbb0a2352	-0.0021078181
109	0x3961ef36	0.00021546785
110	0x3a90130c	0.0010992005
111	0x3aa2906f	0.0012402664
112	0x3a011b91	0.0004925067
113	0x3b3c5e4e	0.0028742733
114	0x3a0ed76a	0.00054489693
115	0x38c42f1d	9.354784e-05
116	0x3a9bcf82	0.0011887404
117	0x3b1f5ec5	0.0024317962
118	0x39e4d936	0.00043649384
119	0xbaa7cc02	-0.0012801888
120	0xbb0065a8	-0.0019591842
121	0x3970831a	0.00022937023
122	0xbba50a55	-0.005036632
123	0xbbd60d2a	-0.006532331
124	0xbb0e9d65	-0.0021761295
125	0xbbd58e1c	-0.006517185
126	0x3a47c390	0.00076203886
127	0xb92d97dc	-0.00016555138
128	0x39840d48	0.00025186897
129	0xba9564e7	-0.0011397869
130	0x384c5d44	4.872425e-05
131	0x3adeed24	0.0017007929
132	0xbb8474c8	-0.0040422417
133	0xbabbf5f7	-0.0014340271
134	0xbb54c002	-0.0032463078
135	0xbb4b00f2	-0.0030975905
136	0xbaa766fb	-0.001277178
137	0xbae5f105	-0.0017543143
138	0xb8d50060	-0.00010156701
139	0x3807eef9	3.240907e-05
140	0x3996bc04	0.00028750312
141	0x3b8af66e	0.0042408025
142	0xb9f91287	-0.00047506785
143	0x395e53e7	0.00021202826
144	0x3a849b7f	0.0010117142
145	0xb8b9153b	-8.825442e-05
146	0x37d3b890	2.5239104e-05
147	0x3afa6419	0.0019103318
148	0x3a05457f	0.0005083903
149	0xba0c41d6	-0.00053503865
150	0x3a89e8bf	0.0010521634
151	0x39cad709	0.00038688656
152	0xb9a98206	-0.00032331067
153	0x3a8167d2	0.000987286
154	0xb9addb0b	-0.0003316033
155	0x3b4f00c1	0.0031586143
156	0x3af30e6b	0.0018543726
157	0x3a02aa57	0.0004984489
158	0xba609e26	-0.0008568488
159	0x391ec9c8	0.00015143224
160	0xb95e7349	-0.00021214517
161	0xbacd9dee	-0.0015687326
162	0x3a301840	0.0006717481
163	0x37dd11a0	2.635346e-05
164	0xb916bdf8	-0.00014375884
165	0xba685db6	-0.00088640617
166	0xb98ce794	-0.0002687542
167	0x3a422aed	0.0007406909
168	0xbb87355a	-0.004126233
169	0xbae7490a	-0.0017645669
170	0xba88b6b5	-0.0010430428
171	0x3a520333	0.0008011341
172	0xb9c3c7d8	-0.00037342194
173	0x3988d5cc	0.00026099232
174	0x3b875b28	0.0041307397
175	0xba0d2b3c	-0.00053851656
176	0x3a8a40d3	0.0010547884
177	0x3bb32644	0.005467208
178	0x3aecf730	0.0018079039
179	0x3a793132	0.0009505927
180	0x3b11c7c8	0.0022244323
181	0x3a2b3aff	0.00065319234
182	0x38501360	4.960911e-05
183	0xbb3b82ae	-0.0028611827
184	0x399a1024	0.00029385195
185	0x39240fa4	0.00015646085
186	0xbb668d24	-0.0035179341
187	0xba7f0f7b	-0.0009729785
188	0xbb243396	-0.0025055162
189	0xb98a2d80	-0.0002635531
190	0x3877fb98	5.9123704e-05
191	0x3add2829	0.001687293
192	0xb9efe726	-0.0004575785
193	0xb815533c	-3.5601886e-05
194	0xbb478c94	-0.0030448781
195	0x3a9a1136	0.0011754397
196	0x379b9e10	1.8551043e-05
197	0xbad45327	-0.0016199098
198	0x3999abe6	0.00029310508
199	0xb65ef6d8	-3.322426e-06
200	0xba25e9ce	-0.000632909
201	0xbb0eef05	-0.0021809947
202	0xba632e19	-0.0008666232
203	0xbb8baf9c	-0.0042628776
204	0x3ba7f997	0.005126189
205	0xb9f8645c	-0.0004737702
206	0xbaa479a1	-0.0012548455
207	0xbb246895	-0.002508675
208	0x3939713c	0.00017685158
209	0x3a9f01ab	0.0012131234
210	0xb91da8d7	-0.00015035585
211	0xb87944c8	-5.9430284e-05
212	0xbac0d5d8	-0.0014712168
213	0x3b59472c	0.0033153994
214	0xb9c7cbbf	-0.0003810804
215	0x3ae1abfe	0.0017217395
216	0x39a7e01e	0.00032019702
217	0x388a6e61	6.6009125e-05
218	0x3a705c8c	0.0009169064
219	0x3b2ef400	0.0026695728
220	0x3ad1d8f5	0.0016010093
221	0x3b848c37	0.004045035
222	0x3aa04287	0.0012226858
223	0x39b3c9bd	0.00034291847
224	0x3b75f3f2	0.0037529436
225	0x3a855929	0.0010173667
226	0x3952f832	0.0002011962
227	0x394567e0	0.0001882608
228	0x3b328132	0.002723765
229	0x38e9a188	0.00011140393
230	0xb7fc4a00	-3.00752e-05
231	0x3b0bd593	0.0021337017
232	0xb94cbc29	-0.00019525051
233	0x3a00b0d4	0.0004909162
234	0x39e8eecb	0.00044428403
235	0x376ac0dc	1.399239e-05
236	0xbafaa636	-0.0019123021
237	0xbaf31d19	-0.00185481
238	0xba26bd06	-0.0006360564
239	0xbb0fadab	-0.0021923583
240	0xbb1bbb9e	-0.0023762952
241	0xb76a4450	-1.3963392e-05
242	0xbab5324b	-0.0013824193
243	0x3aa82a21	0.0012829938
244	0xb997c7e9	-0.0002894991
245	0x39b5e986	0.00034697
246	0xbaf70e00	-0.0018848777
247	0xba38c053	-0.00070477015
248	0xbb4c11fd	-0.0031138652
249	0xba686ffe	-0.0008866786
250	0xb92fa9b7	-0.00016752524
251	0x3b5d410e	0.00337607
252	0xb8b56f4a	-8.651482e-05
253	0xb8a8ba71	-8.045592e-05
254	0xb9d0bb46	-0.0003981238
255	0x399c99dd	0.00029869276

exp_avg_sq f4 [128, 3]
0	0x3a26fc82	0.0006370024
1	0x387baf27	6.0006187e-05
2	0x3987d823	0.0002591024
3	0x3a3cd655	0.0007203569
4	0x38a3f782	7.8185476e-05
5	0x39847ac6	0.00025268475
6	0x3896c811	7.189823e-05
7	0x371d17ca	9.363468e-06
8	0x39a5b3ca	0.00031605206
9	0x385c0d6d	5.246459e-05
10	0x3556c6de	8.00106e-07
11	0x38220def	3.8636786e-05
12	0x36b32f6e	5.3401372e-06
13	0x343de116	1.7683882e-07
14	0x3911702a	0.00013870062
15	0x3a0c39bd	0.000534918
16	0x38633860	5.417352e-05
17	0x391686a9	0.0001435528
18	0x388dc4b0	6.76004e-05
19	0x3609e455	2.0547498e-06
20	0x3877604d	5.8979076e-05
21	0x3983b87f	0.00025123727
22	0x37d548d0	2.5425485e-05
23	0x38a3b812	7.8067314e-05
24	0x3915d7ab	0.0001429009
25	0x376b167a	1.4012325e-05
26	0x39889157	0.00026048228
27	0x3aa53407	0.0012604006
28	0x390dbe03	0.00013517593
29	0x3a712be4	0.00091999606
30	0x3aeb961b	0.0017973812
31	0x394925ee	0.00019182984
32	0x39ee05ce	0.00045399222
33	0x3956f0ff	0.00020498408
34	0x37b90260	2.2054825e-05
35	0x38e9df95	0.00011151951
36	0x3965a4e2	0.00021900565
37	0x37ad6c2b	2.0673577e-05
38	0x38a20633	7.725917e-05
39	0x3996cb8d	0.00028761887
40	0x3631b5cf	2.6480882e-06
41	0x39f1d92c	0.00046128908
42	0x388f3cc7	6.830092e-05
43	0x36f0bf24	7.174809e-06
44	0x38362a68	4.3431675e-05
45	0x3937151c	0.00017460104
46	0x360491fe	1.9754511e-06
47	0x38e8e8d6	0.00011105991
48	0x3936ecbc	0.00017445063
49	0x379fcffa	1.9051124e-05
50	0x39173be8	0.00014422799
51	0x39a26949	0.0003097749
52	0x3809cbff	3.285333e-05
53	0x39073f63	0.00012898217
54	0x3a30e853	0.0006748486
55	0x384d3bf5	4.8931648e-05
56	0x39be214c	0.00036264432
57	0x390db85c	0.00013515487
58	0x36c00117	5.722173e-06
59	0x3926b867	0.00015899689
60	0x38852e86	6.3506e-05
61	0x35a7aeac	1.2493306e-06
62	0x3871ab96	5.761868e-05
63	0x3a3da01b	0.00072336354
64	0x3803cc08	3.1422853e-05
65	0x3a1247e8	0.0005580173
66	0x396bebdc	0.00022499211
67	0x36a8a0cb	5.025509e-06
68	0x3931fb19	0.00016973577
69	0x39acae89	0.00032936435
70	0x3821a4d2	3.8538892e-05
71	0x39148ca7	0.00014166777
72	0x3a422344	0.00074057677
73	0x38917402	6.935747e-05
74	0x3993a481	0.0002816059
75	0x398ed594	0.0002724348
76	0x36dd3706	6.592719e-06
77	0x39d3676b	0.00040322109
78	0x3a0dea15	0.0005413604
79	0x379d09c8	1.8720413e-05
80	0x39b5fb12	0.00034710072
81	0x398dc1ca	0.00027038
82	0x37e676f5	2.747353e-05
83	0x394de308	0.00019634899
84	0x3a05f646	0.0005110245
85	0x384aba92	4.833431e-05
86	0x393f2e0f	0.00018232338
87	0x387384ba	5.8059326e-05
88	0x33f9656a	1.1613413e-07
89	0x399b1bda	0.00029584655
90	0x372b2da8	1.0203024e-05
91	0x35de7b35	1.6576147e-06
92	0x39f61b46	0.00046941097
93	0x3ad4ca16	0.0016234543
94	0x39142bb1	0.00014130656
95	0x3a7381ef	0.0009289076
96	0x3747b986	1.190452e-05
97	0x35ca0e36	1.5054309e-06
98	0x38ddbc71	0.00010573201
99	0x35dd6b25	1.6496966e-06
100	0x33a42eb3	7.64534e-08
101	0x38540189	5.054617e-05
102	0x381db74b	3.760242e-05
103	0x34255a16	1.5399596e-07
104	0x386bcac7	5.6217217e-05
105	0x3923b707	0.00015613074
106	0x36ece83c	7.0603837e-06
107	0x39588392	0.00020648379
108	0x39453de4	0.0001881044
109	0x35ccba92	1.5253484e-06
110	0x397b216d	0.00023949677
111	0x38c35b57	9.315338e-05
112	0x37293bfc	1.0087151e-05
113	0x37fecc3d	3.0374265e-05
114	0x38706f9f	5.7324414e-05
115	0x3410f2e7	1.3499412e-07
116	0x3977e771	0.00023641974
117	0x39618cba	0.00021510097
118	0x37d38070	2.5212968e-05
119	0x39834263	0.0002503573
120	0x39f61ec4	0.00046943699
121	0x371d6461	9.3813005e-06
122	0x3a115b3c	0.0005544906
123	0x3af1369e	0.0018403118
124	0x393e8b53	0.00018171714
125	0x3a6b88f9	0.0008984949
126	0x38def823	0.00010632004
127	0x358d0131	1.0505665e-06
128	0x39f95ce4	0.0004756219
129	0x382b63e0	4.0862593e-05
130	0x350e674c	5.304944e-07
131	0x39950fb4	0.00028431194
132	0x3a2fa9c5	0.0006701018
133	0x38911946	6.918846e-05
134	0x39566f83	0.00020450172
135	0x39834304	0.00025036198
136	0x37fb39e4	2.994849e-05
137	0x389c46e3	7.451863e-05
138	0x36b46841	5.376555e-06
139	0x351cd349	5.842199e-07
140	0x392dbb9e	0.00016568459
141	0x3925e637	0.00015821388
142	0x36647f84	3.4048871e-06
143	0x391a076e	0.00014689352
144	0x3736df2f	1.0900009e-05
145	0x342408f0	1.5276942e-07
146	0x372a811e	1.0162852e-05
147	0x3894464b	7.070283e-05
148	0x3700a116	7.6669e-06
149	0x37d33edc	2.5182431e-05
150	0x37478c3d	1.1893976e-05
151	0x35c6c6ea	1.4810041e-06
152	0x379a6517	1.8405304e-05
153	0x3930e2bd	0.00016869135
154	0x36224195	2.4178055e-06
155	0x39dba908	0.00041896873
156	0x39054bd1	0.00012712112
157	0x377065bb	1.4328801e-05
158	0x38e65aa8	0.00010984141
159	0x3899237d	7.302219e-05
160	0x359acc69	1.1533385e-06
161	0x39180e61	0.00014501206
162	0x39001cda	0.0001221778
163	0x360e93a7	2.1245594e-06
164	0x386b16be	5.6049546e-05
165	0x38fc9712	0.000120444354
166	0x36b07787	5.2591236e-06
167	0x3884b224	6.327432e-05
168	0x3a663631	0.0008781879
169	0x38d10cd9	9.96829e-05
170	0x399ba768	0.0002968863
171	0x38bcef21	9.00908e-05
172	0x36939dbd	4.3993045e-06
173	0x388aeec3	6.6248256e-05
174	0x395526e8	0.00020327757
175	0x363c2545	2.8035877e-06
176	0x3a153b80	0.0005692765
177	0x3ace458b	0.0015737278
178	0x392bf292	0.00016398195
179	0x3a29ee73	0.000648237
180	0x39006b66	0.0001224704
181	0x3764be94	1.3634231e-05
182	0x382b5617	4.0849754e-05
183	0x38dd7eda	0.00010561729
184	0x3692ab71	4.3710975e-06
185	0x391dc520	0.00015046122
186	0x39cc4a3a	0.00038965215
187	0x381a1001	3.6731366e-05
188	0x394fa625	0.00019802952
189	0x36e1d516	6.730329e-06
190	0x353a8c9f	6.949503e-07
191	0x3910e448	0.00013817952
192	0x3a1549ba	0.0005694885
193	0x387d19a4	6.034378e-05
194	0x398c58f9	0.0002676917
195	0x36da99e8	6.5148233e-06
196	0x34567082	1.9971233e-07
197	0x3884911d	6.32128e-05
198	0x3665efb7	3.4263192e-06
199	0x32f98a9e	2.9050451e-08
200	0x389342e5	7.021966e-05
201	0x39ac9e3d	0.00032924293
202	0x38165804	3.5844758e-05
203	0x39ed41f2	0.00045253296
204	0x39944259	0.00028278193
205	0x368481a0	3.948997e-06
206	0x3969e3dd	0.00022305497
207	0x38ef4f23	0.000114111484
208	0x36397238	2.7633632e-06
209	0x38911748	6.918475e-05
210	0x3695cd89	4.4644735e-06
211	0x3527e227	6.2541443e-07
212	0x399a59c3	0.00029440047
213	0x39fa5f9b	0.00047754947
214	0x380139a5	3.0809682e-05
215	0x39c9ff12	0.0003852775
216	0x38d1c972	0.00010003419
217	0x34447995	1.8298154e-07
218	0x38e6a379	0.00010997704
219	0x3a423403	0.0007408263
220	0x389bba8a	7.4257216e-05
221	0x39a90177	0.00032235283
222	0x391a65c3	0.00014724494
223	0x3770f612	1.43624075e-05
224	0x38d49a97	0.00010137742
225	0x393afc22	0.00017832269
226	0x36935691	4.391019e-06
227	0x39785321	0.00023682091
228	0x38c4252e	9.3529336e-05
229	0x375bf314	1.3110013e-05
230	0x393c522d	0.0001795969
231	0x388e309d	6.7801426e-05
232	0x3608a914	2.0363996e-06
233	0x3879c3e7	5.9548674e-05
234	0x36d3c66c	6.3113894e-06
235	0x353220e4	6.635803e-07
236	0x399e52d9	0.00030197835
237	0x3933c246	0.00017143143
238	0x3795e476	1.786857e-05
239	0x38bf1be6	9.112786e-05
240	0x38d58925	0.000101821766
241	0x3527d882	6.252741e-07
242	0x38b1bd90	8.4753265e-05
243	0x37d9f227	2.5981177e-05
244	0x3542a4f9	7.25107e-07
245	0x38e3c29f	0.000108604545
246	0x38ad99b5	8.277913e-05
247	0x371eeed5	9.473141e-06
248	0x38c778a9	9.511534e-05
249	0x3842e7a3	4.6468933e-05
250	0x36b9b87f	5.534908e-06
251	0x3842ccfd	4.6444115e-05
252	0x35afee83	1.3107932e-06
253	0x3519d785	5.7310564e-07
254	0x38a2fe26	7.772101e-05
255	0x35a21120	1.2074925e-06

exp_avg f4 [128]
0	0xb7639d38	-1.356686e-05
1	0xb818a70a	-3.639519e-05
2	0xb7d95524	-2.5908063e-05
3	0xb8179f4c	-3.6149562e-05
4	0xb78766aa	-1.614106e-05
5	0x37c15435	2.3046605e-05
6	0x378892d4	1.6280836e-05
7	0x37920f03	1.7411547e-05
8	0x36502088	3.101335e-06
9	0xb8886d89	-6.505388e-05
10	0xb7c03d45	-2.2916714e-05
11	0xb83d9dd6	-4.5208108e-05
12	0x38b64980	8.692127e-05
13	0x369a5c28	4.600286e-06
14	0xb74063fd	-1.1467372e-05
15	0x38714b90	5.752925e-05
16	0xb81040eb	-3.4392735e-05
17	0xb77c868e	-1.5051699e-05
18	0xb8bf357c	-9.117552e-05
19	0x389378ce	7.032008e-05
20	0x37bb5276	2.2330536e-05
21	0xb898ca0a	-7.2855575e-05
22	0xb89e2160	-7.540244e-05
23	0x366b24f8	3.5039247e-06
24	0x3772d5ca	1.4474101e-05
25	0x38a33ffb	7.784363e-05
26	0x38b1353d	8.449934e-05
27	0x3866f556	5.506476e-05
28	0xb7309931	-1.0526085e-05
29	0x3844af35	4.6893216e-05
30	0x35ad58f4	1.2915393e-06
31	0x390ba7ee	0.00013318632
32	0xb72c121c	-1.0256215e-05
33	0x36c3dd2f	5.837202e-06
34	0x378a5f64	1.6495302e-05
35	0xb7990bfd	-1.8244604e-05
36	0x380d1fbc	3.3646575e-05
37	0x378db162	1.689111e-05
38	0xb81a065c	-3.6722384e-05
39	0x37b99f67	2.2127946e-05
40	0x383e427e	4.5361456e-05
41	0xb912f746	-0.00014015762
42	0xb80e3d42	-3.391249e-05
43	0x3760d2d8	1.3400531e-05
44	0xb7ddbd2a	-2.643334e-05
45	0xb8110850	-3.4578436e-05
46	0xb5bc50f8	-1.4030657e-06
47	0xb89464a9	-7.075939e-05
48	0xb7f154dc	-2.8768955e-05
49	0x37035ade	7.829365e-06
50	0x36dfc714	6.6690936e-06
51	0xb8d6c936	-0.00010241794
52	0x380013f8	3.0536175e-05
53	0xb78b920c	-1.66381e-05
54	0xb8123ad3	-3.4863897e-05
55	0x36c41232	5.8433734e-06
56	0x3795e78e	1.787001e-05
57	0xb834ef68	-4.313831e-05
58	0xb909480b	-0.00013092176
59	0x38b38f29	8.562051e-05
60	0x37310f6e	1.0553615e-05
61	0x38ccc7e2	9.764709e-05
62	0xb8a5f18f	-7.912807e-05
63	0x364dc5f6	3.066261e-06
64	0x380cf28d	3.3604494e-05
65	0x379cdc1e	1.869915e-05
66	0xb784a4f2	-1.5812435e-05
67	0x377c1a36	1.5026473e-05
68	0xb8ba1d5c	-8.87464e-05
69	0x3891440a	6.926812e-05
70	0x3638f064	2.7558062e-06
71	0xb8ae01b5	-8.2972845e-05
72	0xb7fb06cd	-2.9924699e-05
73	0x38d6f69e	0.00010250251
74	0x38014405	3.0819345e-05
75	0xb799880a	-1.830237e-05
76	0xb887b8bc	-6.471711e-05
77	0xb826c093	-3.9756833e-05
78	0xb7400768	-1.1445816e-05
79	0xb80e4e5d	-3.392842e-05
80	0xb71a0693	-9.180646e-06
81	0xb7f5fcca	-2.932399e-05
82	0xb657cac8	-3.215553e-06
83	0x37c6192e	2.3615165e-05
84	0x36e16aa4	6.717937e-06
85	0xb6a778c6	-4.9910477e-06
86	0xb5117330	-5.418433e-07
87	0x37003948	7.642731e-06
88	0x37faa17e	2.9877523e-05
89	0x382a43b2	4.0594205e-05
90	0x38db640c	0.00010461369
91	0x37fb0bd2	2.9927036e-05
92	0xb38b5000	-6.487244e-08
93	0x3669c528	3.4834466e-06
94	0xb896dc50	-7.193594e-05
95	0x36048b20	1.9750514e-06
96	0xb59331d4	-1.0966855e-06
97	0x385df13a	5.2915166e-05
98	0x3727a4d8	9.992356e-06
99	0xb851af97	-4.9993014e-05
100	0xb81e5cf9	-3.7756723e-05
101	0x3653c216	3.1554423e-06
102	0xb8ae8245	-8.321231e-05
103	0x382865a3	4.0148978e-05
104	0x36bb585b	5.58332e-06
105	0x389854b0	7.263699e-05
106	0x373314d9	1.0674085e-05
107	0xb888bc96	-6.520112e-05
108	0x37049f38	7.904884e-06
109	0xb87c136f	-6.009958e-05
110	0x368ef057	4.259909e-06
111	0x36dae380	6.5233908e-06
112	0x38898f3c	6.5593485e-05
113	0xb8078eef	-3.2319625e-05
114	0xb5e3d228	-1.6973981e-06
115	0xb8580f0a	-5.151242e-05
116	0x39418a67	0.00018457473
117	0x3876f7d9	5.8881797e-05
118	0x38978c7a	7.226407e-05
119	0xb7503d18	-1.2411991e-05
120	0x388cef4c	6.720293e-05
121	0x3892d398	7.001235e-05
122	0xb89fd8ea	-7.622114e-05
123	0xb73ff349	-1.1441131e-05
124	0xb75d38e4	-1.3185872e-05
125	0x3847dd51	4.7651414e-05
126	0xb8fbcb7d	-0.00012006515
127	0x36731d13	3.6226745e-06

exp_avg_sq f4 [128]
0	0x33cad32c	9.44477e-08
1	0x33b480eb	8.405353e-08
2	0x32806b63	1.4949995e-08
3	0x326cf3fd	1.37924845e-08
4	0x31f530c9	7.1359847e-09
5	0x335df00c	5.1673894e-08
6	0x32c99455	2.3466933e-08
7	0x32fa0f2f	2.9110735e-08
8	0x32cc4da8	2.378404e-08
9	0x3422f2a7	1.5175702e-07
10	0x342cc306	1.6089697e-07
11	0x330e1365	3.307959e-08
12	0x32d7f269	2.513953e-08
13	0x338ebd65	6.646841e-08
14	0x328a2ece	1.6086599e-08
15	0x33332b7b	4.171623e-08
16	0x330b76e4	3.247159e-08
17	0x3346b3ee	4.6264113e-08
18	0x33e9e9ed	1.0892459e-07
19	0x333f380f	4.4521638e-08
20	0x329b1592	1.8054184e-08
21	0x345a6a40	2.0341486e-07
22	0x33706c52	5.597787e-08
23	0x32ba9f8d	2.1725805e-08
24	0x33f4182a	1.1366531e-07
25	0x340b3c5b	1.2967341e-07
26	0x33e2aa05	1.05548715e-07
27	0x33205914	3.733392e-08
28	0x339c37ed	7.274489e-08
29	0x32ae59c6	2.029709e-08
30	0x3285165f	1.5493411e-08
31	0x34a35fad	3.043073e-07
32	0x3130eb4b	2.574512e-09
33	0x310db7b9	2.0622635e-09
34	0x32bd6db1	2.2052378e-08
35	0x33a768e1	7.795621e-08
36	0x331f7b7c	3.713238e-08
37	0x32279efa	9.7568265e-09
38	0x329b69b9	1.8092452e-08
39	0x32ac6725	2.007034e-08
40	0x34407484	1.7923782e-07
41	0x34a1a095	3.0105426e-07
42	0x32ecf98c	2.7587497e-08
43	0x325f96a8	1.3014564e-08
44	0x339d5f9e	7.328275e-08
45	0x32a52af7	1.9228066e-08
46	0x3201def0	7.559478e-09
47	0x335ec87e	5.187075e-08
48	0x312adcc1	2.486374e-09
49	0x3221155c	9.37629e-09
50	0x310a2454	2.0102293e-09
51	0x333e91c3	4.4370392e-08
52	0x3248ceee	1.16885825e-08
53	0x3315b964	3.4860378e-08
54	0x32ea5e23	2.7283994e-08
55	0x32b06c57	2.0538364e-08
56	0x33ab51b8	7.9776726e-08
57	0x32e04fa3	2.6113247e-08
58	0x33481040	4.6580908e-08
59	0x34684c51	2.1634447e-07
60	0x327f341f	1.48548045e-08
61	0x32ea67f1	2.7288452e-08
62	0x339a6213	7.1890234e-08
63	0x31d1f269	6.1102594e-09
64	0x3367f992	5.401086e-08
65	0x316bd51e	3.4318144e-09
66	0x31385922	2.682619e-09
67	0x33353b0f	4.219606e-08
68	0x3393c747	6.881469e-08
69	0x32d1729f	2.4382926e-08
70	0x32197558	8.932453e-09
71	0x340fb857	1.3384975e-07
72	0x32c6df1f	2.3151697e-08
73	0x33ee62cf	1.1100712e-07
74	0x3311d369	3.395272e-08
75	0x334e80e3	4.8080334e-08
76	0x331dc6d2	3.6735237e-08
77	0x32be9abb	2.2189274e-08
78	0x32307b83	1.0272632e-08
79	0x32c40daa	2.2823617e-08
80	0x32e88df6	2.7072911e-08
81	0x31f9ac54	7.2664452e-09
82	0x324491b0	1.1441827e-08
83	0x3276f771	1.4375346e-08
84	0x31109e2a	2.1044664e-09
85	0x3113cd34	2.150796e-09
86	0x319a2444	4.486113e-09
87	0x3257b4c4	1.2555748e-08
88	0x3162f523	3.3026673e-09
89	0x33274585	3.8945945e-08
90	0x33930db4	6.8477135e-08
91	0x33073d41	3.1487847e-08
92	0x3355fd73	4.9823438e-08
93	0x32d27901	2.4502244e-08
94	0x33db1cdc	1.0203232e-07
95	0x33aaba5e	7.950142e-08
96	0x319a1b66	4.4851047e-09
97	0x3438a456	1.719612e-07
98	0x32676b40	1.34703555e-08
99	0x33d424ad	9.8786906e-08
100	0x3223a9f3	9.526491e-09
101	0x323e6ab2	1.1083715e-08
102	0x33d200e6	9.7790505e-08
103	0x337cc3e6	5.885149e-08
104	0x31f8e391	7.2436213e-09
105	0x322be90b	1.0006498e-08
106	0x321c64a9	9.103283e-09
107	0x331d25b4	3.6588702e-08
108	0x3210cfb2	8.429128e-09
109	0x3367de88	5.398627e-08
110	0x30f51ced	1.7834317e-09
111	0x31d9fa18	6.3439636e-09
112	0x3311ce43	3.3948037e-08
113	0x329b417e	1.8074157e-08
114	0x30a2c3bf	1.1842686e-09
115	0x32b9e0f8	2.1639138e-08
116	0x343af2ae	1.7410886e-07
117	0x3384d36d	6.185187e-08
118	0x32f9f48a	2.9098619e-08
119	0x3193fda1	4.3070973e-09
120	0x33e91ec5	1.0855505e-07
121	0x331a0344	3.585889e-08
122	0x33f03af4	1.11865944e-07
123	0x335b459c	5.105322e-08
124	0x31c9425e	5.857415e-09
125	0x3301ecb0	3.025042e-08
126	0x331bbd60	3.6260985e-08
127	0x31c52513	5.7376695e-09
