results/Run3/My Behaviour.onnx (onnx, 71103 bytes, 7 tensors)

action_model._continuous_distribution.log_sigma f4 [1, 2]
0.02055626 0.021976925
00000000: 9a65 a83c f408 b43c

action_model._continuous_distribution.mu.bias f4 [2]
0.0060639633 0.008126238
00000000: 36b4 c63b ea23 053c

action_model._continuous_distribution.mu.weight f4 [2, 128]
0.02688033 0.00489959 0.014888666 -0.028267123 -0.014570617 0.0041404753 -0.029913465 0.015396797
0.009275027 -0.041603927 -0.012791969 -0.0011105023 -0.008581357 -0.0087087 0.013390542 -0.0090997545
-0.021925388 0.020388057 -0.017884737 0.005597373 -0.012890483 -0.019345127 0.015510219 -0.03531782
0.030909793 -0.026916755 0.021758944 0.0009636946 0.02087546 -0.015323041 0.016579073 -0.009917322
-0.013785548 -0.02444974 0.016339695 -0.026939575 -0.0046580797 0.018788733 -0.030461075 0.023888538
0.014985121 -0.012568862 -0.007622636 0.010877032 0.008949029 -0.0040749367 0.037760206 -0.009468072
0.0035507611 0.0034432898 -0.005977792 0.009116503 0.024848498 0.0023235455 -0.023768863 -0.006488524
-3.3623008e-05 0.0019895367 0.01843653 -0.010975265 -0.019849932 -0.015068736 0.0131576145 -0.0014382179
0.019421242 0.024093784 -0.010977971 0.04431181 -0.021967694 -0.027548982 -0.0067051956 -0.004372536
0.038879853 -0.0015831781 -0.010683954 -0.032027163 -0.0044959337 -0.011886371 -0.006328327 -0.0005693948
0.003483755 0.0035017978 -0.009684867 0.0025073218 -0.0020810785 0.01196836 0.024243928 0.02591188
-0.033058714 0.022205915 -0.02177001 -0.004816923 -0.003807923 -0.021568293 -0.012552558 0.013128183
0.014678607 0.014872835 -0.04475075 -0.025935939 -0.0008136031 0.027056836 0.005106297 -0.0046166964
-0.0134211825 -0.030248335 0.012596755 -0.0063623628 -0.006997628 -0.015012652 -0.01987904 -0.021992369
-0.010441399 0.0019384356 -0.0028025229 0.02513841 0.020995997 -0.015303369 -0.027595507 0.0022653642
0.012442207 0.012976606 -0.02541869 0.013359471 0.0033144513 0.008455977 -0.015658336 -0.016273784
0.021873353 0.003479774 0.009272571 0.037930947 -0.014674977 0.009193279 -0.008497727 -0.006265154
0.03422967 -0.0010359894 -0.016202403 -0.013198479 0.013633295 -0.010347304 -0.0051971907 -0.016370881
0.03324449 0.011397458 0.0008852671 0.016107762 -0.0022237252 -0.021432884 0.0011326633 -0.011287126
-0.019914152 0.00076541485 -0.0035301717 -0.0251264 0.022289155 0.01225144 0.009861872 0.017640812
0.010799954 0.013781916 -0.0047453586 -0.0031876452 -0.0038910538 -0.019082313 -0.025974607 0.005396844
-0.007832714 0.0005863423 0.0488307 -0.0226683 0.023249103 -0.01826926 -0.006059006 0.030227786
0.04072373 -0.0030675952 -0.010663192 -0.041122478 0.02606171 0.0012080577 -0.034629136 0.03346686
-0.032170903 -0.007412263 0.017123694 0.0014237189 -0.010604871 -8.379313e-05 0.03173174 -0.016464507
0.025042748 0.016929105 -0.0069598663 0.013662927 -0.008413005 -0.011841885 0.029508727 0.023255227
-0.018181503 0.005524043 0.00797188 0.023985317 0.01715588 -0.0034838414 -0.017285252 -0.008297826
0.005618576 -0.026172811 -0.02523261 -0.005879316 -0.026005076 -0.01828292 0.016607944 0.01149225
-0.005371665 0.031986814 0.0134164365 -0.019573005 0.022602241 0.012215081 -0.0027702146 0.012653817
0.012992099 0.024436502 0.0077050566 0.040021315 -0.019750172 -0.010071722 -0.011199486 0.0024731637
0.009894448 -0.034126014 0.02398907 0.012151332 0.0127097145 -0.025994733 0.0035337948 0.012213989
-0.009921493 -0.01029407 -0.022738246 -0.026635677 0.014089566 -0.018028004 -0.020576071 0.008313483
0.0040189833 -0.0016919917 -0.0030574966 0.0044721807 -0.00775493 0.0043882737 -0.0021684146 0.0145111745
00000000: 2334 dc3c bd8c a03b 97ef 733c 7490 e7bc
00000010: 99b9 6ebc d3ac 873b 150d f5bc d942 7c3c
00000020: 48f6 173c e168 2abd 6895 51bc 468e 91ba
00000030: d298 0cbc efae 0ebc 0164 5b3c 2317 15bc
00000040: df9c b3bc db04 a73c 0383 92bc 2b6a b73b
00000050: 9b32 53bc ac79 9ebc 931e 7e3c 6ba9 10bd
00000060: 8936 fd3c 8780 dcbc d03f b23c 73a0 7c3a
00000070: 0303 ab3c 7e0d 7bbc d6d0 873c 437c 22bc
00000080: c7dc 61bc d24a c8bc d3da 853c 62b0 dcbc
00000090: cea2 98bb d4ea 993c 8189 f9bc e5b1 c33c
000000a0: 2784 753c a1ed 4dbc 4ec7 f9bb 9435 323c
000000b0: f39e 123c 0c87 85bb 72aa 1a3d f91f 1bbc
000000c0: e3b3 683b d1a8 613b 5be1 c3bb 635d 153c
000000d0: 148f cb3c a046 183b ebb6 c2bc af9d d4bb
000000e0: 6e06 0db8 e362 023b 3508 973c 99d1 33bc
000000f0: 539c a2bc dce2 76bc 0993 573c 9682 bcba
00000100: 4c19 9f3c 5460 c53c f3dc 33bc 4d80 353d
00000110: 98f5 b3bc 67ae e1bc 42b7 dbbb 7e47 8fbb
00000120: 7b40 1f3d a482 cfba c00b 2fbc ea2e 03bd
00000130: a052 93bb 0ebf 42bc db5d cfbb 7043 15ba
00000140: b64f 643b 6b7e 653b 47ad 1ebc e151 243b
00000150: b462 08bb f116 443c 349b c63c 2745 d43c
00000160: 9368 07bd 2ee9 b53c 0557 b2bc 47d7 9dbb
00000170: 598e 79bb fdaf b0bc 3fa9 4dbc 9717 573c
00000180: 8a7e 703c 31ad 733c 904c 37bd 9b77 d4bc
00000190: fb47 55ba 4ca6 dd3c b952 a73b a847 97bb
000001a0: 85e4 5bbc 5bcb f7bc 9f62 4e3c 5e7b d0bb
000001b0: 5c4c e5bb a0f7 75bc 5ed9 a2bc 5729 b4bc
000001c0: 6712 2bbc 1b13 fe3a 88aa 37bb 11ef cd3c
000001d0: ccff ab3c fbba 7abc f90f e2bc 8176 143b
000001e0: 66da 4b3c d59b 543c db3a d0bc afe1 5a3c
000001f0: 4437 593b f08a 0a3c e945 80bc 9950 85bc
00000200: bf2f b33c ec0c 643b fbeb 173c 7b5d 1b3d
00000210: 516f 70bc 689f 163c 0d3a 0bbc ec4b cdbb
00000220: 6934 0c3d 09ca 87ba e7ba 84bc 6f3e 58bc
00000230: 2f5e 5f3c bd87 29bc 324d aabb 3a1c 86bc
00000240: 602b 083d 67bc 3a3c 4511 683a 6df4 833c
00000250: ebbb 11bb 0494 afbc e075 943a a3ed 38bc
00000260: 0123 a3bc 1fa6 483a 745a 67bb e1d5 cdbc
00000270: bf97 b63c 44ba 483c b093 213c 7783 903c
00000280: 4af2 303c 8ccd 613c f47e 9bbb d0e7 50bb
00000290: 0d01 7fbb 8352 9cbc b3c8 d4bc 02d8 b03b
000002a0: c954 00bc c4b4 193a b302 483d dfb2 b9bc
000002b0: e774 be3c 6aa9 95bc a08a c6bb 43a0 f73c
000002c0: edcd 263d b509 49bb abb4 2ebc 0b70 28bd
000002d0: 5e7f d53c b157 9e3a 48d7 0dbd 8c14 093d
000002e0: a3c5 03bd 92e2 f2bb fd46 8c3c 149c ba3a
000002f0: 0ec0 2dbc 18ba afb8 24f9 013d 93e0 86bc
00000300: 7326 cd3c e8ae 8a3c 970f e4bb 78da 5f3c
00000310: b3d6 09bc 7704 42bc 49bc f13c bf81 be3c
00000320: 60f1 94bc 0803 b53b 7d9c 023c db7c c43c
00000330: 7d8a 8c3c 2951 64bb cd99 8dbc 9bf3 07bc
00000340: 081c b83b 5d68 d6bc 9eb4 cebc 47a7 c0bb
00000350: 9908 d5bc 10c6 95bc 620d 883c fd49 3c3c
00000360: cb04 b0bb 9b04 033d 9dd0 5b3c 9157 a0bc
00000370: 5628 b93c c321 483c 7d8c 35bb f551 4f3c
00000380: d0dc 543c 0f2f c83c b37a fc3b 64ed 233d
00000390: 1dcb a1bc dd03 25bc 0d7e 37bc cd14 223b
000003a0: 531c 223c b8c7 0bbd ba84 c43c 6116 473c
000003b0: 683c 503c e8f2 d4bc 3d97 673b 2f1d 483c
000003c0: c28d 22bc 75a8 28bc 8f45 babc 1033 dabc
000003d0: ecd7 663c 77af 93bc 268f a8bc 4635 083c
000003e0: adb1 833b d2c5 ddba 4860 48bb 5f8b 923b
000003f0: 111d febb 82cb 8f3b f61b 0ebb 47c0 6d3c

network_body._body_endoder.seq_layers.0.bias f4 [128]
0.0015031297 -6.662469e-05 0.010836166 0.0028431169 -0.010174992 0.0027153655 -0.008318281 0.005231063
0.0006571023 0.0037324966 0.0018174667 -0.0015819313 -0.0021677013 -0.00045729647 -0.0022671924 -0.012434092
-0.0011404622 0.0037415081 -0.01032021 0.0037866659 -0.008443647 0.01067169 -0.0028181875 0.010002447
0.011982726 0.00032287583 -0.0010831356 -0.010045261 -0.0059133116 -0.0030538037 -0.0060857483 -0.004423517
-0.003026965 0.002866033 -0.0054938104 0.0008159022 -0.0023799392 -0.0044226414 -0.006896974 0.002928475
0.011937472 -0.003971394 -0.002973488 -0.0023236047 -0.005554865 0.0040312014 0.00036296816 -0.011019661
0.016443197 -0.012210828 -0.0031535393 0.0030060008 -0.0069256634 -0.0006765899 -0.0025181652 -0.013510341
0.0045183976 9.62144e-05 0.0071243905 0.0032546623 0.0007131349 -0.0036924342 0.005421294 0.002907234
-0.0052518295 -0.004103066 -0.0019358842 0.005079797 -0.0021789705 -0.0047029476 0.008703731 -0.012774354
-0.0032367047 0.00069276616 -0.004361206 7.12234e-05 -0.013029031 0.002797691 -0.00016626231 -0.0067923637
-0.0044933986 -0.0043604206 -0.011479177 -0.0038986136 0.007210886 0.0013995825 0.0021497847 -0.007576858
0.00087798433 0.0020057093 0.00865619 0.0021030882 0.001260648 0.008875289 0.005132384 -0.006869903
-0.0069359606 -0.002700383 1.7157093e-06 0.0007136912 -0.00356938 0.008171493 -0.0030303437 -0.0011168713
-0.0020847954 0.0019308309 -0.0030551632 0.007025365 -0.015494555 -0.0040306654 -0.0071517313 -0.0046747443
0.0037143424 0.001195387 0.006842516 -0.0033965171 0.012423367 -0.010422422 0.0044528143 0.009702398
-0.0058446876 0.0077864225 -0.0062821438 -0.001056749 -0.009274336 -0.0024955117 0.0031986164 -0.0059212367
00000000: aa04 c53a dcb8 8bb8 2d8a 313c 9653 3a3b
00000010: 02b5 26bc 46f4 313b 6649 08bc 5669 ab3b
00000020: 6441 2c3a e79c 743b 1038 ee3a ce58 cfba
00000030: fe0f 0ebb 4bc1 efb9 2d95 14bb 5db8 4bbc
00000040: 907b 95ba 1734 753b 1916 29bc b629 783b
00000050: 3957 0abc 50d8 2e3c 57b1 38bb 4ee1 233c
00000060: 3253 443c a947 a939 00f8 8dba e194 24bc
00000070: 74c4 c1bb 5322 48bb f56a c7bb 26f3 90bb
00000080: 0c60 46bb 0ed4 3b3b 6c05 b4bb 45e2 553a
00000090: c1f8 1bbb ceeb 90bb 0300 e2bb a8eb 3f3b
000000a0: 6395 433c 7822 82bb dade 42bb 9e47 18bb
000000b0: 9605 b6bb 2b18 843b c34c be39 cf8b 34bc
000000c0: e2b3 863c ed0f 48bc 9cab 4ebb 5300 453b
000000d0: adf0 e2bb 2e5d 31ba cd07 25bb 7a5a 5dbc
000000e0: 110f 943b b6c6 c938 b873 e93b 2c4c 553b
000000f0: acf1 3a3a c4fc 71bb 1ca5 b13b 4b87 3e3b
00000100: 8a17 acbb 0373 86bb 7fbd fdba 6d74 a63b
00000110: 0fcd 0ebb 2f1b 9abb 189a 0e3c 864b 51bc
00000120: e51e 54bb c09a 353a 73e8 8ebb c65d 9538
00000130: b877 55bc 7759 373b b356 2eb9 7a92 debb
00000140: 5c3d 93bb dce1 8ebb 2813 3cbc e27f 7fbb
00000150: 4c49 ec3b 3272 b73a 67e3 0c3b 4b47 f8bb
00000160: 8828 663a 3872 033b b1d2 0d3c f7d3 093b
00000170: 543c a53a a969 113c 8f2d a83b ec1c e1bb
00000180: 0e47 e3bb e9f8 30bb 5347 e635 0117 3b3a
00000190: 42ec 69bb bae1 053c bb98 46bb fb63 92ba
000001a0: 10a1 08bb ef13 fd3a 2239 48bb 0835 e63b
000001b0: e0dc 7dbc ac13 84bb 1259 eabb 992e 99bb
000001c0: 536c 733b 88ae 9c3a 2f37 e03b 1a98 5ebb
000001d0: 618b 4b3c cec2 2abc eae8 913b cff6 1e3c
000001e0: cb84 bfbb 3f25 ff3b 71da cdbb 9d82 8aba
000001f0: 62f3 17bc bd8b 23bb e19f 513b ef06 c2bb

network_body._body_endoder.seq_layers.0.weight f4 [128, 3]
-0.22842771 0.03102229 0.060370907 0.3456569 0.7408941 -0.29384762 -0.51665986 -0.65290594
0.46260527 0.45518818 0.62435305 1.0215709 -0.37262142 -0.2971632 -0.22401756 0.19726282
0.40738115 0.49761724 -0.30268097 -0.21973813 0.4412532 0.074655674 -0.026589122 0.6007926
-0.77956414 -1.5668564 -0.7267675 0.22006251 0.35415053 0.048615262 0.61971116 0.32533184
0.35057405 0.3066792 -0.6166851 -0.73626655 0.16290234 0.69299495 0.12690854 -0.56470525
0.8310449 -0.5685266 0.18401766 0.8046811 -0.3830663 -0.26826686 0.015740972 0.1174525
0.20460567 0.12415906 0.13312328 -0.06400753 0.567398 -0.34072232 -0.0037852537 0.7096867
0.49433675 0.25595936 -0.6681235 -0.8674153 -0.23085445 0.024599064 0.5460581 -0.46816248
-0.26277664 0.42791605 -0.0061628493 -0.002476188 -0.07655622 -0.54174316 0.5564002 0.67181766
-0.7592937 -0.5451338 0.06660145 0.17718299 0.37688503 0.18384156 -0.51285774 0.11078402
-1.0897161 -0.5408231 -0.41703585 0.91414344 0.08270015 -0.92475605 -0.71988595 0.38101462
-0.9589447 -0.3944163 -0.7266403 -0.875062 -0.5983601 0.49219853 -0.8518692 -0.8829868
0.043000028 -0.54095715 0.14966963 0.25706208 0.176379 -0.42311198 -0.31872293 0.18235636
-0.15417333 -0.45186737 -0.32978648 -0.8399757 0.4979393 -0.64831823 1.1028776 -0.114237376
-0.25108588 -0.5759531 -0.4383841 0.6421511 0.878188 -0.11852544 0.45685044 -0.87557906
-0.69738454 -0.5869948 0.18659726 0.09631303 -0.7526646 0.83655816 0.86806405 0.45018724
-0.6949619 0.9308455 -0.6138854 0.70947754 -0.050423477 -0.8073449 -0.4256315 -0.2363985
0.2701867 -0.10147573 0.18453501 -0.3450491 -0.37475362 -1.0964208 0.1721037 -1.3075547
-0.80675244 0.1455357 -0.09679442 -0.3231712 -0.439089 0.074634224 0.23587298 1.374196
0.34471202 0.2588286 0.848989 0.18879277 0.5439776 -0.4519023 0.78628606 0.42577735
-0.10210895 0.7346176 0.40460372 1.064368 0.00044700736 -0.32325068 0.33142725 -0.07571687
-0.63060445 0.6556164 -1.018468 0.33890736 1.2392503 -1.280458 -0.35845414 0.8281164
-0.42185962 0.5802789 -0.05041085 -0.25057063 0.104691915 0.025619267 -1.211102 -1.0182352
-0.6675746 -0.4169948 -0.79824233 0.29509968 0.38016862 0.46510434 0.5317193 -0.22966668
-0.15139677 0.564699 0.28811017 -1.2952988 -0.91720444 -0.71851647 0.95450044 0.44591755
-0.38259196 1.0357916 1.309291 0.31947905 0.0020469078 -0.8305534 -0.35589677 -0.0009893276
-0.3820326 0.80934453 -0.26493427 0.00812114 0.33899766 -1.6249157 0.24752061 -0.45072734
0.054061476 -0.16477107 -0.6643746 1.2675563 -0.2243716 -0.32557845 1.0473986 -0.11081429
0.4656644 -0.00049680553 0.5751796 -0.10782093 -0.18316868 0.042953752 -0.034186363 0.42301282
0.092908345 -0.028360272 0.53464794 0.016617216 0.58938646 0.89562094 -1.0408853 0.38261637
-0.09986749 0.5755084 -2.3573892 0.10219441 -0.43458784 1.4342672 -0.43003932 -0.7851946
0.55348134 0.03749821 -1.0296952 0.022088952 -0.41140193 -0.08736565 0.4587808 0.58953726
00000000: f4e8 69be 7522 fe3c 7c47 773d f1f9 b03e
00000010: 3cab 3d3f 3273 96be d243 04bf d824 27bf
00000020: 99da ec3e 6d0e e93e 9ad5 1f3f d6c2 823f
00000030: 3cc8 bebe c625 98be dc64 65be 44ff 493e
00000040: 4394 d03e b0c7 fe3e 00f9 9abe 0803 61be
00000050: f0eb e13e 13e5 983d 6ed1 d9bc 8bcd 193f
00000060: 8491 47bf c08e c8bf 6f0d 3abf 1158 613e
00000070: 3853 b53e cc20 473d 64a5 1e3f e591 a63e
00000080: 717e b33e 0e05 9d3e 13df 1dbf f77b 3cbf
00000090: dfcf 263e 1e68 313f 50f4 013e 8690 10bf
000000a0: 5cbf 543f f68a 11bf 206f 3c3e 95ff 4d3f
000000b0: 4421 c4be 465a 89be 36f3 803c f08a f03d
000000c0: 2684 513e 1b47 fe3d 7851 083e 6116 83bd
000000d0: ff40 113f 2873 aebe 0512 78bb 07ae 353f
000000e0: b519 fd3e 1b0d 833e 240a 2bbf ee0e 5ebf
000000f0: 1c65 6cbe fa83 c93c 77ca 0b3f feb2 efbe
00000100: a98a 86be d017 db3e baf1 c9bb 8a47 22bb
00000110: 82c9 9cbd aeaf 0abf 3e70 0e3f 3efc 2b3f
00000120: 1261 42bf e48d 0bbf 5766 883d 756f 353e
00000130: 13f7 c03e f640 3c3e a54a 03bf bbe2 e23d
00000140: d17b 8bbf 6273 0abf b985 d5be 4e05 6a3f
00000150: b25e a93d d0bc 6cbf 724a 38bf 5914 c33e
00000160: 667d 75bf eff0 c9be 1905 3abf 1004 60bf
00000170: 212e 19bf 7201 fc3e 1a14 5abf 6c0b 62bf
00000180: cc20 303d 2b7c 0abf ff42 193e a49d 833e
00000190: b29c 343e 22a2 d8be a72f a3be a0bb 3a3e
000001a0: 9ddf 1dbe 295b e7be c6d9 a8be a608 57bf
000001b0: e6f1 fe3e 2ff8 25bf 182b 8d3f 49f5 e9bd
000001c0: 548e 80be aa71 13bf e173 e0be 0464 243f
000001d0: eed0 603f 77bd f2bd 4de8 e93e f325 60bf
000001e0: cb87 32bf 4b45 16bf 5a13 3f3e c43f c53d
000001f0: a1ae 40bf ad28 563f 7239 5e3f f17e e63e
00000200: 06e9 31bf e44b 6e3f 9827 1dbf 52a0 353f
00000210: d988 4ebd 28ae 4ebf 5fec d9be 7312 72be
00000220: e955 8a3e 82d2 cfbd bff6 3c3e 47aa b0be
00000230: b5df bfbe 8457 8cbf f43b 303e f45d a7bf
00000240: 5487 4ebf 4f07 153e 273c c6bd b276 a5be
00000250: 46d0 e0be d4d9 983d b088 713e a8e5 af3f
00000260: 187e b03e 2f85 843e 5857 593f e452 413e
00000270: 1e42 0b3f bd5f e7be 0b4a 493f 7dff d93e
00000280: 7f1e d1bd e60f 3c3f 3828 cf3e 363d 883f
00000290: 505c ea39 1d81 a5be d5b0 a93e 7211 9bbd
000002a0: 4b6f 21bf 7ad6 273f 295d 82bf 4485 ad3e
000002b0: c19f 9e3f 0ce6 a3bf 4d87 b7be 70ff 533f
000002c0: fcfd d7be 288d 143f 9c7b 4ebd cb4a 80be
000002d0: b768 d63d 7fdf d13c 6405 9bbf 8855 82bf
000002e0: 2be6 2abf 5880 d5be 9c59 4cbf 4e17 973e
000002f0: 76a5 c23e 2822 ee3e c21e 083f be2d 6bbe
00000300: c107 1bbe 1d90 103f 2d83 933e 5acc a5bf
00000310: e9cd 6abf b2f0 37bf 245a 743f 4e4f e43e
00000320: 18e3 c3be d294 843f d996 a73f c292 a33e
00000330: 6a25 063b 269f 54bf 1a38 b6be 53ac 81ba
00000340: c799 c3be 3431 4f3f 77a5 87be 880e 053c
00000350: 1a91 ad3e 3dfd cfbf 0b76 7d3e bcc5 e6be
00000360: 916f 5d3d bfb9 28be 7414 2abf 493f a23f
00000370: abc1 65be 38b2 a6be 2811 863f 9af2 e2bd
00000380: 906b ee3e 0e3c 02ba f83e 133f 38d1 dcbd
00000390: 9290 3bbe 46f0 2f3d 0007 0cbd 2395 d83e
000003a0: bb46 be3d cd53 e8bc b0de 083f d420 883c
000003b0: 08e2 163f 6a47 653f bb3b 85bf 4be6 c33e
000003c0: 5487 ccbd 8554 133f 77df 16c0 4e4b d13d
000003d0: 4c82 debe 1196 b73f 1d2e dcbe 8302 49bf
000003e0: f4b0 0d3f b997 193d 0dcd 83bf e4f3 b43c
000003f0: 46a3 d2be c3ec b2bd 51e5 ea3e eaeb 163f

network_body._body_endoder.seq_layers.2.bias f4 [128]
0.005194936 0.0030410786 0.002353993 0.013307512 -0.006205515 0.010471991 -0.004150986 0.00067775557
0.0059582675 -0.015034021 -0.017447498 -0.0051933904 0.0051376284 -0.0077534714 0.0024217032 -0.006179402
0.0005484795 0.006191031 -0.005503852 0.0055029057 -0.0056923064 -0.009866103 0.0035182326 -0.0076330313
0.005461642 -0.017568672 0.007918677 -0.009645049 0.0071313437 0.017443446 0.004337001 0.0010256856
-0.00072968984 0.0032885603 0.0033236542 -0.0013919842 -0.0076875114 -0.000103540326 -0.024997965 0.0067917267
0.0010114226 -0.0058335816 0.01138414 -0.0030404928 0.00760559 -0.0058024297 0.0074512903 0.010906721
0.0062563354 -0.0017259523 -0.015099404 -0.0011949894 0.005285486 0.009063304 -0.016585179 0.008171107
-0.003714804 -0.011815668 0.007207507 -0.005057196 -0.0063704746 -0.002006677 0.0049857977 -0.013357313
0.0063362783 0.006643547 -0.0049338983 0.003444691 -0.022200894 -0.018583864 0.0073553156 0.0030265548
0.0076323794 0.0019407623 -0.00064670073 -0.0040216655 0.004504279 -0.006863326 -0.006274793 -0.006503611
0.007208474 -0.00912674 -0.009699213 -0.005370658 -0.0057023717 -0.00561595 0.015169627 0.0035115075
-0.0056104246 0.024832623 -0.0020944169 -0.007943732 0.00448622 -0.0014886686 -0.018133184 0.0041090203
0.023987884 0.026380327 -0.008134894 0.003356076 -0.009010363 0.000837912 -0.010449442 -0.0041703223
-0.0022636016 -0.009864735 0.011977164 0.004742216 0.0026498116 -0.014137102 -0.006862007 0.013795807
-0.013919816 -0.008658929 -0.012171986 -0.0028676356 0.007469236 -0.02482344 -0.011881403 0.019108254
0.0043349466 0.009016338 -0.0057002935 0.011378859 -0.00772561 0.013163241 -0.024986194 0.013985925
00000000: 483a aa3b d54c 473b 7345 1a3b c007 5a3c
00000010: a257 cbbb b792 2b3c ff04 88bb 68ab 313a
00000020: 923d c33b 4151 76bc 0eee 8ebc 512d aabb
00000030: 8d59 a83b d510 febb 70b5 1e3b 957c cabb
00000040: d6c7 0f3a 22de ca3b a859 b4bb b851 b43b
00000050: 8786 babb 6fa5 21bc 2692 663b 821e fabb
00000060: 93f7 b23b 2dec 8fbc 57bd 013c 4506 1ebc
00000070: 0cae e93b 8fe5 8e3c 671d 8e3b 4c70 863a
00000080: a848 3fba e384 573b aad1 593b 3d73 b6ba
00000090: 85e7 fbbb ca23 d9b8 88c8 ccbc 228d de3b
000000a0: b691 843a a127 bfbb 8b84 3a3c 0143 47bb
000000b0: 5038 f93b 4f22 bebb f429 f43b 1bb2 323c
000000c0: f201 cd3b 5939 e2ba 7e63 77bc 31a1 9cba
000000d0: df31 ad3b 417e 143c a4dd 87bc 1be0 053c
000000e0: 1274 73bb 8196 41bc f32c ec3b d6b6 a5bb
000000f0: 6abf d0bb 7482 03bb e75f a33b a2d8 5abc
00000100: 8ea0 cf3b 1db2 d93b 8aac a1bb 53c0 613b
00000110: a6de b5bc 303d 98bc dc04 f13b 2a59 463b
00000120: 0a19 fa3b 2d61 fe3a 5a87 29ba 2dc8 83bb
00000130: a198 933b c0e5 e0bb c79c cdbb 3e1c d5bb
00000140: 1035 ec3b 5288 15bc 73e9 1ebc 58fc afbb
00000150: f6da babb 0106 b8bb 078a 783c 5221 663b
00000160: a7d7 b7bb c96d cb3c 7c42 09bb 6d26 02bc
00000170: 2401 933b 6e1f c3ba 0b8c 94bc f6a4 863b
00000180: 3d82 c43c 8e1b d83c 3848 05bc 9df1 5b3b
00000190: 34a0 13bc 53a7 5b3a 2334 2bbc 33a7 88bb
000001a0: ef58 14bb b39f 21bc de3b 443c 9764 9b3b
000001b0: 76a8 2d3b 4e9f 67bc b0da e0bb cf07 623c
000001c0: f10f 64bc 2ede 0dbc 026d 47bc f1ee 3bbb
000001d0: 7ec0 f43b 875a cbbc 37aa 42bc ea88 9c3c
000001e0: 2b0c 8e3b 43b9 133c 87c9 babb 656e 3a3c
000001f0: 1d27 fdbb a2aa 573c d9af ccbc 3925 653c

network_body._body_endoder.seq_layers.2.weight f4 [128, 128]
0.045335162 -0.11720252 -0.0073484546 0.17415074 0.021631734 -0.023140272 -0.10090331 0.06448884
-0.15148143 0.050259694 -0.014780024 0.065231904 -0.12489718 -0.022832843 -0.04366238 0.020179508
0.062031653 0.060608823 -0.03239253 0.1981175 -0.073179945 0.08873883 0.16711561 0.010272536
0.10427845 0.08214507 -0.18938895 -0.1503785 0.055435218 0.01911262 0.020431587 -0.07939741
0.004967778 0.0027576748 0.1569073 -0.052973922 0.06303291 0.07662891 -0.013753685 0.15883766
-0.0874164 -0.07108473 0.13475806 -0.18023972 0.11425949 0.078955464 -0.0037833822 0.09195722
-0.023726039 -0.0028975045 -0.0771617 -0.07745652 0.03247013 0.079968534 0.0045392835 0.16461481
0.11227238 -0.021897094 0.03291734 0.13804291 0.13205203 -0.06435796 0.09384627 0.15333863
0.1268976 -0.13348456 -0.043060966 0.12099319 0.008843054 -0.031865083 -0.087579235 -0.03661053
-0.15210986 0.11829789 -0.16112587 0.011123586 0.025840351 0.06119977 0.12810217 0.0699972
0.10687828 -0.0011336025 -0.061652824 -0.09384637 0.04212895 -0.015699023 0.20707898 -0.1259024
0.027393555 0.008373906 -0.011479066 0.07881988 0.11641907 0.011354164 -0.0054692016 0.035343375
-0.02949599 -0.056575675 -0.038824182 -0.0007409658 -0.06471415 -0.042207893 -0.08459737 0.0903332
-0.04589312 0.18497665 -0.12124729 -0.13294174 -0.079113595 0.015737396 0.039710134 -0.037492175
-0.011498872 0.09266184 0.08439258 0.055230718 -0.021329029 -0.15938687 0.031431764 -0.08601803
0.022450503 -0.03844907 -0.055093806 -0.0026356243 -0.07300369 0.060759686 -0.0494915 0.10290143
0.088196635 0.07021828 -0.22335625 0.05853899 -0.037265204 0.03630165 -0.13479045 0.025778756
0.24176712 0.0075573833 -0.102299124 -0.024482608 0.05250557 -0.051919468 -0.022131063 0.09165135
-0.04006238 -0.0029463037 -0.020654706 0.10279045 0.038094994 0.17372146 -0.007537563 -0.08518832
0.051891513 -0.019742586 0.04383813 -0.12671463 -0.08340141 -0.1008096 -0.022045953 -0.101565324
-0.056808803 -0.13355976 0.16182962 -0.092627846 -0.23692226 -0.0053154374 -0.11275263 -0.2111946
0.13103844 0.10590176 -0.02871779 0.06330663 -0.097429775 -0.09313054 -0.053065255 -0.05903575
0.21801259 0.10313964 -0.009308051 -0.0024416707 -0.1720841 0.043453354 0.06308701 -0.20632565
0.017224297 0.027075214 -0.06339496 0.07106103 0.12500083 -0.025738468 -0.052906185 -0.010666585
0.07113361 -0.07793957 0.087462306 -0.098631345 0.05070712 -0.031083874 -0.046448 -0.039134767
-0.04373783 0.0677796 0.024396844 0.049965475 -0.029892204 -0.18755607 0.16836666 0.04042173
0.00094761135 0.24055715 0.03311875 -0.12055489 -0.13080509 0.065906264 0.07145465 -0.03278058
-0.03058488 0.05251124 0.021485198 0.14039302 0.016357055 0.01146407 0.08549054 -0.23406693
-0.017468084 -0.06762008 0.082557775 0.054634824 -0.092107564 -0.0761847 -0.061822563 0.07691498
-0.030569408 0.016171733 -0.010461507 -0.051998727 0.07394121 -0.043797694 -0.06963747 -0.0039368737
-0.11175955 -0.061944067 -0.08311422 -0.04353032 0.033102956 0.096290655 0.16731112 0.20749381
-0.08291199 0.036857113 -0.059994027 0.07392848 0.030332701 -0.010932001 -0.104059905 -0.029642431
00000000: 5db1 393d e007 f0bd 4ecb f0bb 9254 323e
00000010: 0935 b13c ab90 bdbc 65a6 cebd ba12 843d
00000020: f31d 1bbe 1cdd 4d3d ea27 72bc 4e98 853d
00000030: 18ca ffbd f10b bbbc 53d7 32bd 7f4f a53c
00000040: e714 7e3d f540 783d 08ae 04bd 50df 4a3e
00000050: 5edf 95bd b4bc b53d 5b20 2b3e 244e 283c
00000060: f18f d53d ad3b a83d 2def 41be d2fc 19be
00000070: 0a10 633d 1292 9c3c 2560 a73c 1c9b a2bd
00000080: bec8 a23b 1bba 343b 4fac 203e 2ffb 58bd
00000090: 6617 813d 9eef 9c3d 2357 61bc 57a6 223e
000000a0: 5f07 b3bd df94 91bd 04fe 093e c390 38be
000000b0: e100 ea3d 67b3 a13d 9ff2 77bb 1154 bc3d
000000c0: 1c5d c2bc 0fe4 3dbb f406 9ebd 86a1 9ebd
000000d0: 66ff 043d 8bc6 a33d 45be 943b c990 283e
000000e0: 10ef e53d 8961 b3bc 55d4 063d 1f5b 0d3e
000000f0: a638 073e 1bce 83bd 7932 c03d cd04 1d3e
00000100: 72f1 013e 2db0 08be b260 30bd 47cb f73d
00000110: 75e2 103c f684 02bd be5c b3bd ecf4 15bd
00000120: b0c2 1bbe 2a46 f23d 2efe 24be b43f 363c
00000130: 25af d33c 9cac 7a3d 372d 033e b15a 8f3d
00000140: 00e3 da3d 6395 94ba ac87 7cbd 8732 c0bd
00000150: 688f 2c3d 3d9b 80bc 830c 543e 8fec 00be
00000160: 7368 e03c b532 093c b112 3cbc 516c a13d
00000170: 1f6d ee3d d106 3a3c fd36 b3bb 37c4 103d
00000180: 93a1 f1bc e5bb 67bd 1b06 1fbd 603d 42ba
00000190: da88 84bd 2fe2 2cbd 6341 adbd 9d00 b93d
000001a0: 6dfa 3bbd 856a 3d3e 8050 f8bd e121 08be
000001b0: 4f06 a2bd b6eb 803c 18a7 223d 6591 19bd
000001c0: c465 3cbc 7ec5 bd3d 04d6 ac3d 9b39 623d
000001d0: 37ba aebc 5036 23be 98be 003d 392a b0bd
000001e0: 1eea b73c c67c 1dbd 0baa 61bd 70ba 2cbb
000001f0: f582 95bd 26df 783d 99b7 4abd fcbd d23d
00000200: 70a0 b43d 9ace 8f3d 80b7 64be 94c6 6f3d
00000210: 66a3 18bd 0ab1 143d 8206 0abe f82d d33c
00000220: cd91 773e eda3 f73b 3482 d1bd c08f c8bc
00000230: 1510 573d 82a9 54bd 344c b5bc b4b3 bb3d
00000240: 7318 24bd c616 41bb 0f34 a9bc cd83 d23d
00000250: 7f09 1c3d 0ae4 313e a9fd f6bb 3777 aebd
00000260: 328c 543d 34bb a1bc 9c8f 333d 7bc1 01be
00000270: 5cce aabd 4375 cebd b799 b4bc 7b01 d0bd
00000280: 59b0 68bd e4c3 08be aab6 253e abb3 bdbd
00000290: c09b 72be 1f2d aebb daea e6bd 6643 58be
000002a0: f12e 063e 06e3 d83d 9241 ebbc e8a6 813d
000002b0: 4389 c7bd 39bb bebd f45a 59bd 78cf 71bd
000002c0: b13e 5f3e e03a d33d cc80 18bc 7004 20bb
000002d0: d036 30be 25fc 313d c333 813d 0847 53be
000002e0: f819 8d3c d7cc dd3c 37d5 81bd 7288 913d
000002f0: 3800 003e 7bd9 d2bc 28b4 58bd e6c2 2ebc
00000300: 80ae 913d c89e 9fbd 701f b33d 3bff c9bd
00000310: 45b2 4f3d 9ca3 febc 4240 3ebd c74b 20bd
00000320: 7026 33bd 08d0 8a3d e4db c73c 99a8 4c3d
00000330: 7fe0 f4bc b30e 40be 4f68 2c3e 4291 253d
00000340: 1f69 783a 9d54 763e 87a7 073d 7be5 f6bd
00000350: c5f1 05be ddf9 863d d156 923d ee44 06bd
00000360: 248d fabc 0716 573d ba01 b03c 30c3 0f3e
00000370: 3bff 853c cbd3 3b3c aa15 af3d 3eaf 6fbe
00000380: 3a19 8fbc 667c 8abd 0d14 a93d c4c8 5f3d
00000390: e4a2 bcbd b906 9cbd a839 7dbd 9a85 9d3d
000003a0: b26c fabc 957a 843c be66 2bbc 9efc 54bd
000003b0: 7d6e 973d 3665 33bd 179e 8ebd e400 81bb
000003c0: 31e2 e4bd 10b9 7dbd ca37 aabd d94c 32bd
000003d0: f796 073d 0934 c53d 9b53 2b3e 4279 543e
000003e0: c3cd a9bd 7cf7 163d 4cbc 75bd d167 973d
000003f0: 497c f83c 231c 33bc 5c1d d5bd afd4 f2bc
