results/NEWRun2/TrucksBehavior.onnx (onnx, 596830 bytes, 15 tensors)

86 f4 [45]
0	0x4355ea93	213.9163
1	0x3d1be568	0.038060576
2	0x434b7905	203.47273
3	0x435a815a	218.50528
4	0x3d195462	0.03743399
5	0x433a7387	186.45128
6	0x435c8d21	220.55128
7	0x3d198d91	0.037488524
8	0x43434ed6	195.30795
9	0x3a82e78c	0.0009987219
10	0x3e6e242d	0.23255987
11	0x3ef94b30	0.48690176
12	0x3f0c44c1	0.5479241
13	0x3e948bd1	0.2901292
14	0x3e2b049a	0.16700974
15	0x3e6e242d	0.23255987
16	0x3a82e78c	0.0009987219
17	0x3ee95cb4	0.4557854
18	0x3edcf6ab	0.43156943
19	0x3f03f9e3	0.5155317
20	0x3e8900d5	0.26758447
21	0x3ef94b30	0.48690176
22	0x3ee95cb4	0.4557854
23	0x3a82e78c	0.0009987219
24	0x3e3eeb6f	0.18644498
25	0x3f13fced	0.5780781
26	0x3ea79ffd	0.3273925
27	0x3f0c44c1	0.5479241
28	0x3edcf6ab	0.43156943
29	0x3e3eeb6f	0.18644498
30	0x3a82e78c	0.0009987219
31	0x3f35e276	0.71048677
32	0x3ed696e2	0.4191199
33	0x3e948bd1	0.2901292
34	0x3f03f9e3	0.5155317
35	0x3f13fced	0.5780781
36	0x3f35e232	0.7104827
37	0x3a82e78c	0.0009987219
38	0x3e9c230d	0.30495492
39	0x3e2b0456	0.16700873
40	0x3e8900d5	0.26758447
41	0x3ea79ffd	0.3273925
42	0x3ed696e2	0.4191199
43	0x3e9c230d	0.30495492
44	0x3a82e78c	0.0009987219

action_model._discrete_distribution.branches.0.bias f4 [6]
0	0x3eee1e5d	0.4650754
1	0x3eb6c09f	0.35693833
2	0x3f0920ad	0.53565484
3	0x3f1da38c	0.6157768
4	0xbd80bde6	-0.0628622
5	0xc0679217	-3.6182916

action_model._discrete_distribution.branches.0.weight f4 [6, 256]
0	0xbfa71142	-1.3052142
1	0xbb735411	-0.0037128965
2	0xbc4814f5	-0.012212028
3	0x3c3889bb	0.011263306
4	0xbcb48c93	-0.022039687
5	0xb69104c0	-4.3218897e-06
6	0xbb6f4675	-0.0036510502
7	0x3ec9e3b9	0.3943155
8	0xbbfd5a08	-0.00773168
9	0xbce9a100	-0.028519154
10	0x3c70be8c	0.014693867
11	0xbcef419d	-0.029206092
12	0x3c75ddf1	0.015006528
13	0xbc3c9912	-0.011511104
14	0xbc7a8ba1	-0.015292079
15	0x3c382e47	0.011241502
16	0xbb8cbc6c	-0.0042949226
17	0x3d093d9e	0.03350603
18	0xbbc2bb1a	-0.0059427144
19	0x3c8f4034	0.01748667
20	0xbc9ea64a	-0.019366402
21	0x3b78fb6f	0.0037991663
22	0xbcba335c	-0.022729568
23	0x3c66ceb9	0.014087372
24	0xbc75f0e2	-0.015011044
25	0x3bb19830	0.0054197535
26	0xbbbdd39d	-0.0057930485
27	0xbb97d1d0	-0.004633166
28	0xbfb0dc2e	-1.3817194
29	0x3bb60d6f	0.0055558006
30	0xbeb946ee	-0.36186928
31	0xbca17049	-0.019706862
32	0xbcf7ad68	-0.030234054
33	0x3c9c6a26	0.019093584
34	0x3d3437e4	0.043998614
35	0xbb649660	-0.003487967
36	0xbb0fa5ab	-0.0021918814
37	0xbcc1ded2	-0.02366582
38	0xbc89cdcb	-0.016821763
39	0x3c50cf7d	0.012744782
40	0xbaa9724a	-0.0012927738
41	0xb94753d6	-0.0001900935
42	0x3c06b74f	0.008222415
43	0xbd08bdd1	-0.033384148
44	0x3b4683ed	0.0030291036
45	0x3c3aa415	0.011391659
46	0x3b977cc9	0.00462303
47	0x3c6be2ea	0.014397362
48	0x3c6b9a15	0.014379998
49	0x3acd5f9a	0.001566875
50	0x3bfa4d0c	0.0076385792
51	0x3bd0ca15	0.0063717463
52	0xbcf026f6	-0.029315453
53	0x3ac42f2d	0.0014967673
54	0x3c245828	0.010030784
55	0xbcc7a277	-0.024369461
56	0x3ed3006a	0.41211253
57	0x3c23719e	0.009975819
58	0xbc5121c3	-0.012764397
59	0x3bcdc40b	0.0062794737
60	0xbc8fec09	-0.017568605
61	0x3c483baa	0.012221256
62	0x3c045d86	0.008078938
63	0xbcce98cf	-0.02521935
64	0xbc5fbf86	-0.013656503
65	0xbe8aa664	-0.2708007
66	0x3c907156	0.017632168
67	0xbc0ca9ad	-0.008585376
68	0x3c3feae2	0.011713715
69	0xbb6b2db9	-0.0035885407
70	0xbb5c4bca	-0.003361451
71	0xbe91fae7	-0.28511736
72	0xbabc355e	-0.0014359166
73	0x3c6c42a7	0.014420188
74	0xbc5f6de0	-0.013637036
75	0xbaf0eeb9	-0.0018381692
76	0x3d0d84f2	0.034550615
77	0x3cbe5991	0.023236068
78	0x3a8911fc	0.001045763
79	0xbc0dd2c1	-0.008656205
80	0xbbc6856f	-0.006058387
81	0xbc933785	-0.01797081
82	0xbcd038f2	-0.025417779
83	0xbb55038f	-0.0032503342
84	0xbb7048a4	-0.003666439
85	0xbc990cdc	-0.01868289
86	0x3c0c5672	0.008565532
87	0xbda6c89a	-0.081437305
88	0xbb8506d3	-0.0040596514
89	0x3c31f5f0	0.010861859
90	0x3cf1e658	0.029528782
91	0x3c974055	0.018463293
92	0xbd437391	-0.047717635
93	0x3c0e66a2	0.008691462
94	0xbc71f68c	-0.014768254
95	0x3c279067	0.010227299
96	0xbba8a83b	-0.0051470078
97	0x3b82a19a	0.0039865496
98	0xbba014fe	-0.004885315
99	0x3cbcf7d3	0.02306739
100	0xbc9f2d9e	-0.019430932
101	0xbb550bf2	-0.003250834
102	0xbbaeea21	-0.005337969
103	0xbd31393f	-0.043267485
104	0xbba3360b	-0.0049808077
105	0x3ce2a5bb	0.027666917
106	0xbc99915a	-0.018746067
107	0xbe845644	-0.25847065
108	0xbc3a4a75	-0.011370291
109	0xbc11603e	-0.008873044
110	0x3c843714	0.016139545
111	0xbc52066c	-0.012818914
112	0x3ca272a6	0.01983006
113	0xbcfa389a	-0.030544568
114	0x3b6e6e65	0.0036381718
115	0xbca771a0	-0.020439923
116	0xbc7333b3	-0.014843869
117	0x3c823e7c	0.015898935
118	0xbcd421c1	-0.025895001
119	0xbc974012	-0.018463168
120	0x3cd31c04	0.025770195
121	0x3c1e508c	0.009662759
122	0x3c8587ef	0.01630017
123	0xbd45b753	-0.048270535
124	0x3ce4941c	0.027902655
125	0xbd144f2d	-0.03620832
126	0xbc22cf02	-0.00993705
127	0xbacd2b01	-0.0015653075
128	0x3c962122	0.018326346
129	0x3d3568be	0.044289343
130	0xbca30f10	-0.019904643
131	0xbc26a0b5	-0.0101701515
132	0xbb69d658	-0.0035680737
133	0xbc2b1427	-0.010441816
134	0xbc929377	-0.017892582
135	0x3c24f1fa	0.010067457
136	0x3c4cb697	0.012494705
137	0xbcb91001	-0.02259064
138	0xba2ff168	-0.00067116925
139	0x3b8ac931	0.0042354097
140	0xbc2cc0b8	-0.010543995
141	0x3bf45559	0.0074564633
142	0xbb507706	-0.0031809225
143	0xbcc52f9e	-0.024070557
144	0x3c0d60ca	0.008629033
145	0xbbd1f119	-0.006406915
146	0x3cea792b	0.02862223
147	0xbcb20746	-0.021731984
148	0xbb8c0353	-0.004272857
149	0x3ce06c7b	0.027395478
150	0xbb88c65d	-0.0041740374
151	0xbc156573	-0.009118426
152	0x3c0cebc8	0.0086011365
153	0xbcd9336c	-0.026513778
154	0xbf19ff18	-0.6015487
155	0xbc751751	-0.014959172
156	0xbc9e4806	-0.019321453
157	0xbb357dfe	-0.0027693505
158	0x3c4feab7	0.012690238
159	0xbb97f3b8	-0.004637208
160	0xbd0c1b39	-0.03420565
161	0x3cc7a936	0.024372678
162	0xbc0e4b32	-0.00868492
163	0x39d86d34	0.00041280093
164	0x3bb1118e	0.005403704
165	0x3c9c6eba	0.019095767
166	0xbbb2890d	-0.0054484666
167	0xbc8cfc23	-0.017210072
168	0x3c2b4397	0.010453126
169	0x3c89794a	0.016781468
170	0xb90ea511	-0.00013603667
171	0xbc47c029	-0.012191811
172	0xbc8d6e7b	-0.017264595
173	0xbba720bc	-0.005100338
174	0x3c60414f	0.013687446
175	0xbc4adcff	-0.012381791
176	0x3b3d3377	0.0028869787
177	0x3ce1a100	0.027542591
178	0xbcbb212c	-0.022842966
179	0xbcef8e3b	-0.029242625
180	0xbcaff9d1	-0.021481426
181	0x3b4affcb	0.0030975218
182	0xbcb8c603	-0.022555357
183	0xbcfb7eb2	-0.030700061
184	0xbc1be68b	-0.009515415
185	0x3c8b56c1	0.01700914
186	0xbc83626c	-0.016038142
187	0xbb881413	-0.0041527837
188	0xbc80a442	-0.015703324
189	0x3e8d4c72	0.27597386
190	0xbc326ac5	-0.010889714
191	0xbca49d4a	-0.020094533
192	0xba8b810d	-0.0010643319
193	0x3c0e2f0c	0.008678209
194	0xbc67fa5f	-0.014158814
195	0xbbead585	-0.007166567
196	0xbd024777	-0.031806435
197	0x3c13d79c	0.009023573
198	0xbc57d5c0	-0.013173521
199	0x3c24cfd7	0.0100593185
200	0xbb8b72c7	-0.004255626
201	0x3b1358a9	0.0022483265
202	0xbc300a2b	-0.010744612
203	0x3c91d74e	0.01780286
204	0x3ba9565e	0.0051677665
205	0xbb5962f7	-0.003317056
206	0xbc7d0878	-0.015443914
207	0xbbe2cde6	-0.0069215177
208	0x3e4a083b	0.19729702
209	0x3c683a27	0.014174021
210	0x3c515563	0.012776705
211	0xbafd4d16	-0.0019325342
212	0xbc5962e3	-0.013268205
213	0xba830a70	-0.0009997617
214	0x3ba83892	0.005133697
215	0x3c1c0e50	0.009524897
216	0xbcfb5487	-0.030679954
217	0xbc2d12bd	-0.01056355
218	0x3d5c6826	0.05381026
219	0xbc2ab078	-0.01041805
220	0xbb65ef7f	-0.0035085378
221	0xbcb62255	-0.022233168
222	0xbb3bfcb3	-0.0028684556
223	0xb9f8af6c	-0.00047432946
224	0xbbe802e1	-0.0070804213
225	0xbbcabe85	-0.0061872625
226	0xbcca0182	-0.024658922
227	0xbb256289	-0.0025235733
228	0x3b59e96d	0.0033250705
229	0xbd1d980c	-0.03847508
230	0x3c857698	0.016291901
231	0x3c8604d3	0.016359722
232	0x3b6fc016	0.0036582998
233	0xbc6b4678	-0.014360063
234	0xba3f9819	-0.0007308736
235	0xbbe0f9f5	-0.0068657347
236	0xbc1a407f	-0.009414791
237	0x3bdcacdd	0.006734474
238	0x3c69e52e	0.014275832
239	0x3d179922	0.037011273
240	0x3c8f2e5d	0.017478162
241	0x3d2f402b	0.042785805
242	0xbcb94f97	-0.02262096
243	0xbc6a21e9	-0.014290311
244	0xbcab8603	-0.020937925
245	0xbb144d59	-0.002262911
246	0xbbabad35	-0.0052391537
247	0xbc03c47d	-0.008042452
248	0xbc282a0f	-0.010263934
249	0x3c8579e4	0.016293474
250	0xbd3b732a	-0.045764126
251	0x3b39afac	0.0028333468
252	0xbdca6ed2	-0.098844185
253	0x3cbe098f	0.023197917
254	0x3d0bd86f	0.034141954
255	0xbc1fd48c	-0.009755265

action_model._discrete_distribution.branches.1.bias f4 [6]
0	0x3fb0c932	1.38114
1	0x3f38b8be	0.72156894
2	0xbef2c9da	-0.47419626
3	0x3e303165	0.17206343
4	0xbe259e20	-0.16173601
5	0xc064487e	-3.5669246

action_model._discrete_distribution.branches.1.weight f4 [6, 256]
0	0x3e95d1d7	0.29261658
1	0xbc449440	-0.011998236
2	0xbb63d145	-0.0034762186
3	0xbca59654	-0.020213284
4	0xbab6c532	-0.0013944267
5	0xbc7d557d	-0.0154622765
6	0xbca4f2f8	-0.020135388
7	0xbdac5b8e	-0.084159
8	0xbc488bae	-0.0122403335
9	0xbbe5cdcf	-0.0070130597
10	0xbbee28fc	-0.0072680693
11	0xbc7c30a1	-0.015392453
12	0xbcd072ae	-0.025445309
13	0xbc42ae1b	-0.01188233
14	0xbbf4e9d1	-0.007474162
15	0xbcabe537	-0.020983322
16	0x3b5b4b06	0.0033461466
17	0xc00992a2	-2.1495748
18	0x3b67e5fd	0.0035384886
19	0x3cdcf4b6	0.026972156
20	0x3baef397	0.0053390968
21	0xbc4f279d	-0.012643722
22	0x3cb7d128	0.0224386
23	0xbd157f0e	-0.036498122
24	0xbccd87a4	-0.025089093
25	0xbc314234	-0.010819007
26	0x3a06496c	0.0005122635
27	0xbc86e97c	-0.016468756
28	0xbeaa3c5e	-0.33249182
29	0x3c01f93e	0.007932959
30	0xbf49c6d7	-0.7881903
31	0xbcbd979a	-0.023143578
32	0xbcc443c7	-0.0239581
33	0xbd225898	-0.03963527
34	0xba40921a	-0.00073459896
35	0xbb33cafa	-0.0027434216
36	0xbcaf372a	-0.021388609
37	0xbc2d0d3b	-0.010562236
38	0xbca55c00	-0.02018547
39	0xbc126530	-0.008935258
40	0x3c09d7ba	0.00841325
41	0x3c929189	0.017891662
42	0x3c0a4b13	0.008440751
43	0xbcf6c4cb	-0.030123135
44	0x3ba5ac9d	0.0050559775
45	0x3c2524fd	0.0100796195
46	0xbc6edc41	-0.01457888
47	0x3b626678	0.003454594
48	0xbcdda238	-0.027054891
49	0x3d204e72	0.03913731
50	0xbce751a6	-0.028237175
51	0xbcd69e42	-0.02619851
52	0xbc2b97bb	-0.010473187
53	0xb9f9ad7d	-0.0004762224
54	0xbc05496d	-0.008135182
55	0x3caa7872	0.020809386
56	0x3f0101e0	0.50393486
57	0x3c0cb30f	0.008587613
58	0x3c9e5294	0.019326486
59	0xbba1915f	-0.0049306597
60	0x3c10e3e8	0.0088434
61	0xbcba9203	-0.022774702
62	0xbccd593b	-0.025066962
63	0xbc89adc0	-0.016806483
64	0xbc373f39	-0.011184507
65	0xbeefc587	-0.4683039
66	0x3c511418	0.012761138
67	0x3b228924	0.002480098
68	0xbada8639	-0.0016672082
69	0xbc995b3e	-0.018720265
70	0xbcdcead2	-0.02696744
71	0xbd916467	-0.07099228
72	0xba6c0eda	-0.00090048986
73	0x3c1989bb	0.009371216
74	0xbba76195	-0.005108068
75	0xbcb1fdfd	-0.021727556
76	0x3cdf7ba1	0.02728063
77	0xbb63db23	-0.0034768067
78	0xbb119fc5	-0.0022220474
79	0x3c60c535	0.013718893
80	0xbc8ed547	-0.017435683
81	0x3c941c59	0.018079923
82	0xbc902eab	-0.017600378
83	0xbc852a63	-0.016255563
84	0xbcf76d57	-0.030203504
85	0x3b0ad053	0.00211813
86	0xbc083299	-0.008312845
87	0xbdb77eb5	-0.08959714
88	0x3c00538b	0.007832418
89	0x3c764da4	0.015033159
90	0x3c8c047a	0.017091978
91	0x3c92be4d	0.017913008
92	0x3b1bd715	0.0023779322
93	0xbd3672db	-0.04454313
94	0xbc87e277	-0.016587479
95	0x3b58421f	0.0032998396
96	0xbc3115f9	-0.010808461
97	0xbc099f8c	-0.008399855
98	0xbc18c42f	-0.009324118
99	0x3c27bcf1	0.010237918
100	0xbb854ca6	-0.004067975
101	0xbc057259	-0.008144938
102	0xbc850ccc	-0.016241454
103	0xbce27942	-0.02764571
104	0xbca683db	-0.020326545
105	0xbc57db51	-0.013174848
106	0xbc8da1b0	-0.017289013
107	0xbe39c996	-0.18143305
108	0xba37ed67	-0.00070162717
109	0xbd071a49	-0.03298405
110	0xbcd2e944	-0.025745995
111	0xbc530efb	-0.01288199
112	0xbc8b8ec5	-0.017035851
113	0xbd029b20	-0.03188622
114	0xbd013735	-0.03154679
115	0xbc065f7b	-0.008201475
116	0xbc286aaf	-0.010279342
117	0x3c111629	0.008855381
118	0xba88ad4a	-0.0010427621
119	0xbba3a024	-0.0049934555
120	0x3c596fe8	0.013271309
121	0xbcb0ce24	-0.02158267
122	0xbc836e23	-0.016043728
123	0xbd9d26e7	-0.07673436
124	0x3c480935	0.012209226
125	0x3c344236	0.011002114
126	0xbd5ea8b7	-0.054360118
127	0x3cbbf8e1	0.022945823
128	0x3c8adb2f	0.016950218
129	0x3da7c7c4	0.08192399
130	0x3ccc4343	0.024934417
131	0xbca9627c	-0.020676844
132	0xbb60ed8c	-0.0034321276
133	0xbcaf917b	-0.021431675
134	0x3c7c70fb	0.015407796
135	0xbc921eea	-0.017837007
136	0x3cee00b9	0.029053079
137	0xbbe17407	-0.0068802866
138	0xbc72908e	-0.014804972
139	0xbbcf2134	-0.006321097
140	0x3c088475	0.0083323615
141	0xbd7fb9e0	-0.062433124
142	0xbd2e4052	-0.04254181
143	0x3c193591	0.00935115
144	0xbd218590	-0.039434016
145	0x3c985e0a	0.018599529
146	0xbc111980	-0.008856177
147	0xbc816701	-0.015796186
148	0xbc0d1081	-0.008609892
149	0x3c581643	0.013188901
150	0x3cad7db5	0.021178106
151	0xbc20f5ad	-0.009824199
152	0xbc7b3177	-0.015331618
153	0x3d138c65	0.036022563
154	0xbdeead32	-0.11654128
155	0xbc903331	-0.017602535
156	0x3c1f7a50	0.009733751
157	0xbccbf85c	-0.0248987
158	0x3c2dd3dd	0.010609594
159	0xbd1af336	-0.0378296
160	0xbc881ef6	-0.016616326
161	0x3c202536	0.009774497
162	0xba419bc2	-0.00073855754
163	0x3c42b95f	0.011885016
164	0xbc0182c1	-0.007904709
165	0x3c677f95	0.014129539
166	0xbc964448	-0.018343106
167	0xbb315d3f	-0.0027063636
168	0xbcdec2aa	-0.027192432
169	0xbcd87cde	-0.026426729
170	0xbcd21f8d	-0.02564981
171	0xbc465e6a	-0.012107471
172	0x3d2d358c	0.042287394
173	0xbc878d6c	-0.016546927
174	0xbca6c2f6	-0.020356636
175	0xbc63fcfb	-0.013915296
176	0xbc59de0b	-0.013297568
177	0x3c01b196	0.007915875
178	0xbc1fe040	-0.009758055
179	0xbccbbcdf	-0.024870334
180	0xbd482c5c	-0.04887043
181	0xbc24393a	-0.0100234095
182	0x3b945668	0.004526902
183	0xbd3039d3	-0.043023895
184	0xbcd62641	-0.026141288
185	0x3bbb91cb	0.005724167
186	0xbc9b491c	-0.01895576
187	0xbce5ed21	-0.028067173
188	0x3c07a57f	0.008279203
189	0x3edac400	0.4272766
190	0xbc92f6d3	-0.01793996
191	0xbc6cfe8a	-0.014464984
192	0xbbea7522	-0.0071550766
193	0xbbd9b7e1	-0.0066442345
194	0xbc5c04d4	-0.0134288855
195	0x3b89f32a	0.0042098956
196	0xbc05114b	-0.008121799
197	0xbd111db5	-0.03542872
198	0xbc57f4a5	-0.013180886
199	0x3b3a0007	0.0028381364
200	0x3c375a22	0.011190923
201	0xbc932228	-0.017960623
202	0x3bec7b22	0.007216827
203	0xbd86a694	-0.06574741
204	0xbc2789c3	-0.010225716
205	0xbcd92694	-0.026507653
206	0x3c61d491	0.01378359
207	0xbc619959	-0.013769471
208	0xbda0a735	-0.07844392
209	0x3c5cd911	0.013479487
210	0x3c5a71c7	0.013332791
211	0xbbda501f	-0.006662383
212	0xbc34699a	-0.0110115055
213	0xbcec7172	-0.028862689
214	0xbafff6ba	-0.0019528486
215	0xbc4276cc	-0.011869144
216	0xbbf115de	-0.007357343
217	0x3a7b3509	0.0009582793
218	0x3d6126d1	0.05496866
219	0x3c06cc91	0.008227483
220	0x3b236f0b	0.0024938013
221	0x3c8735ed	0.016505206
222	0xbcbac954	-0.022801079
223	0xbcfa86e5	-0.0305819
224	0xbcc04830	-0.023471922
225	0xbd638dd0	-0.055555165
226	0x3b0d6343	0.0021574057
227	0x3bac83e3	0.0052647456
228	0xbcb2aec0	-0.021811843
229	0x3b8ab523	0.004233019
230	0xbcd9c779	-0.026584374
231	0x3b5904fb	0.003311454
232	0x3beab2ab	0.007162412
233	0x3c5337e1	0.012891741
234	0xbc28112b	-0.010257999
235	0xbd085d2d	-0.033291984
236	0xbd1f7442	-0.03892923
237	0x3c3ca28f	0.011513366
238	0xbcec49d1	-0.028843792
239	0xbab8aee8	-0.0014090212
240	0xbb70c43f	-0.0036738066
241	0xbd03d1cd	-0.032182503
242	0xbcfa4647	-0.030551089
243	0x3d86e15f	0.06585955
244	0x3becd88b	0.0072279624
245	0xbc14a79b	-0.009073163
246	0x3c34759d	0.011014369
247	0xbd80bf11	-0.06286443
248	0x3b97568f	0.004618473
249	0xbc1e87fc	-0.009675976
250	0xbca16cd2	-0.01970521
251	0xbb022bb6	-0.001986248
252	0xbe324638	-0.17409599
253	0x3cfb6792	0.030689035
254	0xb9bc5cbe	-0.00035927253
255	0xbd004a71	-0.031320993

action_model._discrete_distribution.branches.2.bias f4 [6]
0	0x3f00b88a	0.50281584
1	0x3f7075d9	0.9392982
2	0x3e9e0052	0.3085962
3	0x3ebfa62c	0.37431467
4	0xbe4be19f	-0.19910286
5	0xc06c464a	-3.69179

action_model._discrete_distribution.branches.2.weight f4 [6, 256]
0	0x3f10c02f	0.5654325
1	0xbc140207	-0.0090336865
2	0xb63fdf20	-2.8591094e-06
3	0xbbba6243	-0.0056879832
4	0xbca9f662	-0.020747367
5	0xbcaad34c	-0.020852707
6	0xbbf2f7e5	-0.0074148052
7	0xbe9af689	-0.30266216
8	0x3bfe0134	0.0077516083
9	0xba330b11	-0.0006829957
10	0x3c8fde0c	0.017561935
11	0x3c97a8cf	0.018513111
12	0xbc85a94e	-0.016316082
13	0xbc07070f	-0.008241429
14	0x3ab432a5	0.0013748003
15	0xbbf882f3	-0.0075839697
16	0x3bfb7456	0.0076737804
17	0x3db2075b	0.08692809
18	0x3baa104d	0.0051899315
19	0xbb5d8cac	-0.003380577
20	0xbc650469	-0.013978102
21	0xbb20c896	-0.002453362
22	0x3a7cbc4f	0.0009641097
23	0xbcac8ebd	-0.021064157
24	0xbbd1b5ec	-0.0063998606
25	0xbcbf3f94	-0.023345746
26	0x3c468673	0.012117016
27	0x3c7ab078	0.0153008625
28	0xbe137fa9	-0.14404167
29	0xbc5d1064	-0.013492677
30	0xbf2b1017	-0.66821426
31	0x3b69a2cd	0.0035650015
32	0xbb4a0caa	-0.0030830302
33	0xbcaca4ce	-0.021074679
34	0x3bad534a	0.00528947
35	0xba9b3cc4	-0.0011843671
36	0xbc3104dc	-0.010804381
37	0xbce32e7e	-0.02773213
38	0xb891d68b	-6.9541005e-05
39	0xbb41c549	-0.0029567054
40	0xbb6ad5a5	-0.0035832908
41	0x3b8722e9	0.0041240347
42	0xbc2408a0	-0.010011822
43	0x3b1b8ceb	0.0023735117
44	0xbbde58be	-0.0067854812
45	0x3c6ab81c	0.014326122
46	0x3b92b945	0.0044776523
47	0x3c4208c3	0.011842909
48	0xbcd8170e	-0.02637818
49	0x3c4f8848	0.012666769
50	0x3c701980	0.014654517
51	0xbca0c70b	-0.019626161
52	0xbc52c3c1	-0.012864054
53	0x3b6c7588	0.0036080796
54	0x3bb8a5eb	0.0056350133
55	0x3b373613	0.0027955815
56	0x3ebcbcc3	0.36862764
57	0xbb25e482	-0.0025313203
58	0xba550b5e	-0.0008126999
59	0xbc7c8d90	-0.0154146105
60	0x3b83feae	0.004028163
61	0x3c4ef961	0.012632699
62	0xbadc4b33	-0.0016807079
63	0x3a3492d0	0.0006888332
64	0x3b8845aa	0.004158695
65	0xbea12a49	-0.31477574
66	0xbcd423b4	-0.02589593
67	0xbc4b86ad	-0.012422246
68	0x3af81da6	0.0018929734
69	0x3c1721e1	0.009224386
70	0xbc4e450d	-0.012589705
71	0xbe267343	-0.16254906
72	0x3c1dfe02	0.00964308
73	0xbc190958	-0.009340607
74	0xbc265d71	-0.010154114
75	0xbbcbe2ee	-0.0062221205
76	0x3bdd89c4	0.0067608077
77	0x3b442a1c	0.0029932326
78	0xbc2cd561	-0.01054892
79	0xb9f976ee	-0.0004758159
80	0x3c14eea0	0.009090096
81	0x3c35393b	0.011061008
82	0x3b67824c	0.0035325466
83	0x3b07a8b9	0.0020699932
84	0xbc39ad57	-0.011332831
85	0xbc8222a7	-0.015885664
86	0x3c958a18	0.018254325
87	0xbd81f40f	-0.063453786
88	0x3bc75aa5	0.0060838037
89	0x3b84bb20	0.0040506274
90	0xbb95d1fc	-0.004572151
91	0xbb9cd53a	-0.004786161
92	0x3c947f66	0.018127155
93	0xbd098af3	-0.033579778
94	0x3be33449	0.006933723
95	0x3ab9bf62	0.0014171416
96	0xbc9e62a9	-0.019334154
97	0x3c3ad081	0.01140225
98	0x3bd0f83b	0.0063772476
99	0xba962de3	-0.0011457767
100	0xbc853b8e	-0.01626375
101	0x3c14dede	0.009086339
102	0x3b3ed35f	0.0029117686
103	0x3bc7bf67	0.006095815
104	0x3bc9fa9d	0.0061639086
105	0xbcb81768	-0.022472098
106	0x3c22c2dc	0.009934153
107	0xbe791d45	-0.24327572
108	0x395c67a9	0.00021019451
109	0x3b94ac20	0.0045371205
110	0x3b2b2c49	0.0026118925
111	0xba4781b3	-0.0007610574
112	0xbcb08c49	-0.021551268
113	0xbc3de737	-0.01159077
114	0xbb9339bd	-0.004492967
115	0xbbace615	-0.0052764514
116	0xba8f6e97	-0.0010942993
117	0xbb2cf336	-0.0026390082
118	0x3a9dff46	0.0012054227
119	0x3c2fa227	0.0107198125
120	0xbcfc09a9	-0.030766325
121	0xba60715c	-0.0008561814
122	0xbc834ab0	-0.016026825
123	0xbd622972	-0.055215307
124	0x3c23efc4	0.010005895
125	0xbc8a8a33	-0.016911602
126	0xbc67efb8	-0.0141562745
127	0x3c030c62	0.007998558
128	0xbbaa24be	-0.0051923683
129	0x3d88b573	0.06675234
130	0xbbd36a2e	-0.0064518666
131	0x3bda06aa	0.0066536264
132	0xbbe5810a	-0.007003908
133	0x3b9d8357	0.0048069167
134	0xbaca0b2e	-0.0015414709
135	0x3a9b8b84	0.001186714
136	0xbc7e8dfa	-0.01553678
137	0xbace0918	-0.0015719263
138	0xbc9d090a	-0.01916935
139	0x3b0f7cb6	0.0021894402
140	0x3c8b8876	0.017032843
141	0xbd3af4f3	-0.045643758
142	0xbcb09b4a	-0.021558423
143	0x3a02d489	0.00049907767
144	0xbc9378dd	-0.018001968
145	0x3bb8c38d	0.005638546
146	0xbbc7d4c0	-0.00609836
147	0xbba9def6	-0.0051840497
148	0x3bec577c	0.0072125774
149	0xbb4a86f9	-0.0030903204
150	0xbbb7ce52	-0.005609312
151	0xbc0f54dc	-0.008748259
152	0x3c0a8f62	0.008457037
153	0x3c77459a	0.015092278
154	0xbf3672e8	-0.71269083
155	0x3a4ae2f9	0.000773951
156	0xbc471f5a	-0.012153471
157	0xbc22218e	-0.009895695
158	0xbcb5069a	-0.022097874
159	0xbb314dde	-0.002705447
160	0x3af6b322	0.0018821696
161	0xb90a6b2e	-0.00013200633
162	0x3c12d5ba	0.008962089
163	0xbbefbfdc	-0.0073165726
164	0xbb9d4ab0	-0.004800163
165	0x3c971bc6	0.01844586
166	0xbbe3d206	-0.006952527
167	0x3b0de609	0.0021652004
168	0xbcebcc46	-0.028783929
169	0xbcc628a3	-0.024189299
170	0x3b29a44f	0.002588529
171	0xbc641a1d	-0.0139222415
172	0x3c4965f3	0.012292373
173	0xbb6fb548	-0.0036576558
174	0xbc4e18a0	-0.012579113
175	0xbc8574f2	-0.016291115
176	0xb9f21900	-0.00046176463
177	0x3ae686b7	0.0017587756
178	0x3c31e4fe	0.010857819
179	0xbc970322	-0.018434111
180	0xbcb75502	-0.022379402
181	0x3c0eb415	0.008709927
182	0x3d04f81c	0.032463178
183	0x3c3a2468	0.011361219
184	0x3b8bf857	0.004271548
185	0xbcd46114	-0.025925197
186	0xbbb03b89	-0.005378191
187	0x3aa780da	0.001277949
188	0x39f05302	0.00045838213
189	0xbfea1241	-1.8286821
190	0x3c07f4e0	0.008298129
191	0x3ca5a6a8	0.02022107
192	0xbca26d27	-0.019827439
193	0xbc45b754	-0.012067635
194	0x3b6a0adb	0.0035712037
195	0x3be79fa7	0.0070685926
196	0xbc6760b4	-0.014122177
197	0xbc7a09cb	-0.015261124
198	0xbc0f84ee	-0.00875972
199	0xbc46d488	-0.012135632
200	0xbc2ec0a5	-0.010666047
201	0xbcb0f6bd	-0.021602029
202	0xbaf65a5f	-0.0018795243
203	0xbd05324f	-0.03251868
204	0xbc50bb42	-0.012739958
205	0x3c234ee8	0.009967543
206	0x3b424bcf	0.0029647236
207	0xbca1eb0e	-0.019765403
208	0x3ea4ac14	0.32162535
209	0xbc38b043	-0.011272493
210	0xbccf9ae2	-0.025342409
211	0xbc70aafa	-0.0146892015
212	0x3c8452aa	0.016152699
213	0xbc7d030d	-0.015442622
214	0x3b87e81d	0.004147543
215	0xbc9120ba	-0.0177158
216	0x3ae7ea02	0.0017693641
217	0x3bdb01b1	0.0066835512
218	0x3eff61c7	0.49879286
219	0xbbca8dea	-0.0061814683
220	0xbbf35b0a	-0.007426624
221	0xbc4aa78f	-0.012369051
222	0x3c5c55fb	0.013448234
223	0xbc7787e8	-0.015108086
224	0xbbff6e04	-0.0077950973
225	0xbceacfe5	-0.028663585
226	0xbc66b779	-0.014081829
227	0x3aab16d2	0.0013053066
228	0xbbb823fc	-0.005619524
229	0xbb6b0fe6	-0.003586763
230	0xbbb38dff	-0.0054795737
231	0x3c2eb518	0.010663293
232	0xbca5d174	-0.020241477
233	0x3b5bb01a	0.0033521713
234	0x39b50114	0.00034523814
235	0xbc2f9e35	-0.010718872
236	0xbc965f4c	-0.018355988
237	0xbb63c598	-0.0034755226
238	0xbcab58cc	-0.020916365
239	0x3bd581cf	0.0065157185
240	0xbc3321d6	-0.01093336
241	0xbd0a0850	-0.033699334
242	0xbaac2c47	-0.0013135754
243	0x3d063c02	0.03277207
244	0x3cc73cef	0.024321048
245	0xbaf3e70b	-0.0018608285
246	0xbc1d7e23	-0.009612593
247	0xbc9ff204	-0.019524582
248	0x3ab63dc5	0.0013903907
249	0xbc67a64c	-0.014138769
250	0x3ce4e9d7	0.027943535
251	0x3c5ec033	0.013595629
252	0xbd0b3dc5	-0.033994455
253	0x3c847a95	0.016171733
254	0xbca4b94f	-0.020107893
255	0xbb259afa	-0.0025269375

discrete_action_output_shape f4 [1, 3]
0	0x40c00000	6.0
1	0x40c00000	6.0
2	0x40c00000	6.0

network_body._body_endoder.seq_layers.0.bias f4 [256]
0	0xbc7f805c	-0.015594568
1	0x3c8473c8	0.01616849
2	0xbb976693	-0.004620382
3	0xbc8440a3	-0.016144102
4	0xbb91a405	-0.0044446015
5	0xbb56a866	-0.0032754182
6	0x3aedd5e3	0.0018145408
7	0x3cc7e8ed	0.02440306
8	0xbbdbcbe9	-0.0067076576
9	0xbbea65ac	-0.0071532335
10	0x3b1d490d	0.002399984
11	0x3b9591b6	0.0045644892
12	0xbcb1b149	-0.021690981
13	0xbbd9fcef	-0.0066524665
14	0xbc6c81e4	-0.014435265
15	0x3adf2e83	0.0017027411
16	0xbc5abc49	-0.013350555
17	0xbc41fac0	-0.011839569
18	0x3c28e462	0.010308357
19	0x3c068abf	0.008211791
20	0x3ca8ff69	0.020629602
21	0xbbcf2fb9	-0.0063228277
22	0xbc6f70eb	-0.014614324
23	0xbbb56c0a	-0.005536561
24	0x3be01cd9	0.0068393764
25	0x3ad71099	0.0016408145
26	0x3bc23452	0.005926647
27	0xbbdb90e4	-0.006700622
28	0x3b3ceedb	0.0028828892
29	0xbc3a028b	-0.011353145
30	0x3be6766c	0.00703316
31	0xbb993a94	-0.0046761725
32	0xbb52b74e	-0.0032152715
33	0xbbececb3	-0.007230365
34	0x3c9c454f	0.019076018
35	0x3b98e6f8	0.0046662055
36	0x3c00e2f4	0.00786661
37	0x3c391aa4	0.0112978555
38	0x3c8d2387	0.017228855
39	0xbb7bdc08	-0.003843071
40	0xbc4391f6	-0.011936655
41	0xbc04e1a0	-0.008110434
42	0x3b34523a	0.002751483
43	0xbc0e5f04	-0.008689646
44	0xbb9bddef	-0.004756681
45	0x3b412d65	0.002947652
46	0xbbb0085d	-0.0053720907
47	0x3c7b580e	0.015340818
48	0x3ab9f02e	0.0014185959
49	0x3a61d121	0.00086142315
50	0x3c43f25b	0.0119596375
51	0xbaef4e52	-0.0018257594
52	0x3a369735	0.00069652806
53	0xbc622b31	-0.013804243
54	0xbc48b490	-0.012250081
55	0x3c88a2cd	0.016679192
56	0xba1467aa	-0.0005661199
57	0xbb9f6240	-0.0048640072
58	0x3c1a1170	0.0094035715
59	0xbbbc743a	-0.00575116
60	0x3bdda9bd	0.006764619
61	0x3be114c2	0.0068689296
62	0x3bb322d1	0.005466797
63	0xbc38b8fc	-0.011274572
64	0x3bdd0f95	0.0067462423
65	0xbc673ab6	-0.014113119
66	0xbc1cd783	-0.009572866
67	0x3bc85d60	0.006114647
68	0x3abaf59b	0.001426387
69	0xbc116e90	-0.008876458
70	0x3c1b7322	0.009487899
71	0xbbc12036	-0.0058937324
72	0x3aae6201	0.0013304354
73	0xbb36602a	-0.0027828314
74	0x3abffe4f	0.0014647933
75	0xbe514706	-0.2043725
76	0x3c5397a8	0.012914576
77	0xbc388bf5	-0.011263837
78	0xbc267e2e	-0.0101619195
79	0xbc5aad42	-0.013346972
80	0x3b1210b9	0.00222878
81	0x3bb974e2	0.0056596855
82	0x3c4a2ec9	0.012340256
83	0xbae99833	-0.0017821848
84	0x3b5c113d	0.003357961
85	0xbbb499f8	-0.0055115186
86	0xba573eca	-0.00082109554
87	0x3b9cbec0	0.0047834814
88	0x3b009d65	0.0019625064
89	0x3a82551c	0.0009943577
90	0x3c13afcf	0.009014084
91	0xbbe6d5ce	-0.0070445305
92	0xbc012afc	-0.007883783
93	0x3c573093	0.01313414
94	0xbbe5bfb6	-0.007011379
95	0x3b8bbc5e	0.0042643985
96	0xbc43764f	-0.011930062
97	0x3a340b59	0.0006868146
98	0xbc6f5d12	-0.014609592
99	0xbbcbf0c8	-0.0062237717
100	0x3c861306	0.016366493
101	0xbc129ea3	-0.008948955
102	0x3ac2db04	0.0014866297
103	0xb983cf10	-0.0002514054
104	0xbc5ca5eb	-0.013467292
105	0x3bb03a1f	0.0053780223
106	0x3c96f73f	0.018428443
107	0x3b40ce28	0.0029419754
108	0xbc42c4af	-0.011887713
109	0xbea76e2b	-0.3270124
110	0x3bc834c8	0.0061098076
111	0xbb7265ee	-0.0036987024
112	0x38b83cc0	8.785119e-05
113	0xbb276940	-0.0025544912
114	0x3c813e48	0.015776768
115	0xbb493445	-0.003070132
116	0xbc1fe227	-0.009758509
117	0x3bad0cb7	0.0052810567
118	0x3b804734	0.003914738
119	0x3aa4c79d	0.0012571696
120	0xbabb51f6	-0.0014291394
121	0x3c94f79e	0.01818448
122	0x3c889ad1	0.016675385
123	0x3c20e352	0.009819822
124	0x39ff4723	0.0004869039
125	0xbb4dfbe4	-0.0031430656
126	0x3ab37758	0.0013692183
127	0xbb63f2f4	-0.0034782263
128	0x3bd203cc	0.006409144
129	0x3b71a180	0.0036869943
130	0x3c3106b6	0.010804823
131	0x3c9f2d00	0.019430637
132	0xbc677f2b	-0.01412944
133	0x3b10115a	0.0021982999
134	0x3c53dccc	0.01293106
135	0xbb8e0e53	-0.0043352037
136	0xbc385ef7	-0.01125311
137	0xbca83714	-0.020534076
138	0xbb6e0eda	-0.003632477
139	0xbc4d14ce	-0.012517167
140	0x3b7f094c	0.0038915453
141	0xbc3766ef	-0.011193975
142	0x3c97796b	0.018490514
143	0x3c65bc23	0.014021906
144	0x3bbf481b	0.005837453
145	0xbb05aab2	-0.0020395932
146	0xbba8f7f9	-0.005156514
147	0xbeaf5c82	-0.34250265
148	0x3b65901f	0.003502853
149	0x3c06d849	0.008230277
150	0xbacd77fd	-0.0015676018
151	0xbe9bc052	-0.30420166
152	0xb9c7bef1	-0.000380985
153	0xbc25f9f3	-0.010130393
154	0xbbd706fa	-0.006562111
155	0x3cac58b2	0.021038387
156	0x3b962ba6	0.00458284
157	0x3b9fe8be	0.00488004
158	0x3c1be336	0.0095146205
159	0xbe6d66e0	-0.23183775
160	0xbbc42492	-0.005985805
161	0xbb967c52	-0.004592457
162	0x3b74fadd	0.0037380971
163	0xbdd3da5d	-0.10344384
164	0xbbd8ca7a	-0.006615934
165	0xbafbcb06	-0.0019210286
166	0xbb9c9d9f	-0.004779532
167	0xbc7777a7	-0.015104211
168	0x3ba98dfe	0.0051743975
169	0x38d61961	0.000102090424
170	0xbc7c57fc	-0.0154018365
171	0xbb81ace1	-0.0039573763
172	0x3ce4b4fc	0.027918331
173	0xbc940088	-0.01806666
174	0xbb1b339d	-0.0023681887
175	0x3c8209c5	0.0158738
176	0x3c133ee2	0.00898716
177	0xb94b67b8	-0.00019398227
178	0x3b7717e8	0.0037703458
179	0x3bed18b2	0.00723561
180	0xbc62a3aa	-0.013832966
181	0x3b994294	0.004677126
182	0xbc0f729e	-0.008755354
183	0xbbe8b059	-0.0071011004
184	0x3a870a73	0.0010302797
185	0xbc31448a	-0.010819564
186	0xbdd641ff	-0.104618065
187	0xbc957489	-0.018244045
188	0x3c1f57be	0.009725509
189	0xbc7c408b	-0.015396248
190	0x3c4138a9	0.011793294
191	0x3cba492c	0.02273997
192	0xbbe635cb	-0.0070254556
193	0x3b80961b	0.003924144
194	0xbe98ac0a	-0.29818755
195	0x3c238e30	0.009982631
196	0x3cb25a88	0.021771684
197	0x3c1aa3de	0.009438483
198	0x3973b2ca	0.0002324089
199	0xbc7527d4	-0.014963109
200	0xbb2a2179	-0.0025959893
201	0x3b05bca4	0.0020406628
202	0xbbfeb5e3	-0.0077731474
203	0xbc7df168	-0.01549945
204	0x3b8e208b	0.0043373755
205	0x3a9072cf	0.0011020544
206	0x3c1fefb3	0.009761739
207	0x3be298d2	0.0069151903
208	0xba0bc521	-0.00053318037
209	0x3b1e308e	0.0024137828
210	0xb9ba8e01	-0.00035582486
211	0xbb312466	-0.0027029752
212	0xbb9caf10	-0.0047816113
213	0xbb84ba23	-0.0040505095
214	0xbc83b66b	-0.016078195
215	0xbc295373	-0.010334837
216	0xbe8d334d	-0.27578202
217	0x3b2b30cf	0.0026121621
218	0x3abb149c	0.001427311
219	0xbb453b9c	-0.0030095344
220	0xbbc2ab32	-0.005940818
221	0xbb2d8eac	-0.0026482744
222	0x3b3976a7	0.0028299482
223	0x3c3b32fe	0.011425732
224	0x3c02b64a	0.007978031
225	0x3bf37917	0.0074302065
226	0xbbe44c64	-0.0069671143
227	0x3b100206	0.0021973862
228	0xbe6da78e	-0.23208448
229	0xbc94e18e	-0.01817396
230	0xbc7c2b3d	-0.015391168
231	0x3c9341cd	0.017975712
232	0x39989f77	0.0002911051
233	0x3c31354e	0.0108159315
234	0xbbbd66ab	-0.0057800612
235	0xbbdd45e3	-0.006752716
236	0x3ba8ee7a	0.0051553817
237	0xbc00ad58	-0.007853828
238	0xbc5ef42e	-0.013608022
239	0xbc51efff	-0.012813567
240	0xbb233521	-0.0024903493
241	0x38c9300d	9.593377e-05
242	0x3bb89265	0.005632686
243	0xbc6ca66d	-0.014443976
244	0xbafc5ddd	-0.0019254048
245	0x38dd7001	0.000105589635
246	0x3bc42a5f	0.0059864963
247	0xbbc21915	-0.0059234
248	0xbe4d5e1b	-0.2005543
249	0xbc10d34a	-0.008839438
250	0x3b954638	0.00455549
251	0x3ba1e542	0.0049406597
252	0x3b90660f	0.0044066976
253	0xbb48353f	-0.0030549315
254	0xbbd0ae50	-0.006368436
255	0xb9eb2572	-0.00044850592

network_body._body_endoder.seq_layers.0.weight f4 [256, 45]
0	0x39e8ba65	0.00044389363
1	0xbb94dd65	-0.004542994
2	0xbafb3179	-0.0019164524
3	0xbb8abc44	-0.004233869
4	0xbd184b84	-0.037181392
5	0x3bf9f257	0.007627766
6	0x3a3f87aa	0.00073062873
7	0xbbedadc9	-0.007253383
8	0xbaf476c9	-0.0018651123
9	0xbe10ef34	-0.14153749
10	0x3e00bf79	0.12573041
11	0x3cb0f91a	0.021603156
12	0xbe0b9274	-0.13630086
13	0xbdbc974a	-0.092085436
14	0xbd47f2c7	-0.048815515
15	0xbdd24169	-0.10266382
16	0x3e48f8d0	0.19626164
17	0x3dbd27ab	0.09236082
18	0xbda623c9	-0.08112294
19	0x3e14261f	0.14467667
20	0xbd34e6fc	-0.044165596
21	0x3e75fbff	0.2402191
22	0x3d8c6f8d	0.06857214
23	0x3dfb8526	0.122812554
24	0xbdefe065	-0.11712722
25	0x3ea07c1e	0.31344694
26	0x3e87b376	0.26504105
27	0xbd441b4a	-0.047877587
28	0xbcd929bc	-0.026509158
29	0xbe44b14f	-0.19208263
30	0x3cae33f1	0.021265002
31	0xbd5c5e76	-0.053801022
32	0xbe85b475	-0.2611424
33	0xbde01605	-0.109417
34	0x3e0110ac	0.12604016
35	0xbe050c30	-0.1299293
36	0x3cbe2fe1	0.02321619
37	0x3cb31234	0.021859266
38	0xbe0529f1	-0.1300428
39	0x3cf32abb	0.029683461
40	0xbc687c33	-0.014189768
41	0x3e8c78e7	0.2743599
42	0x3e02889c	0.12747425
43	0x3e820a7f	0.25398633
44	0x3dbfc185	0.09363083
45	0x3acdec7c	0.0015710737
46	0xbc516427	-0.012780226
47	0xbbef8c32	-0.0073104138
48	0xbbdd2793	-0.0067491024
49	0xbd1a0c67	-0.037609484
50	0x3bdbd7a1	0.0067090546
51	0xbba9eb9b	-0.005185557
52	0xbb162e03	-0.0022915609
53	0x3b026330	0.0019895546
54	0xbc8ae610	-0.016955405
55	0xbd384417	-0.04498681
56	0x3cd6dcfb	0.026228419
57	0xbdc57510	-0.096414685
58	0xbea846f3	-0.3286663
59	0xbeb22d5a	-0.34800225
60	0x3eb7c9da	0.35896188
61	0xbce38796	-0.027774613
62	0xbc26bf13	-0.010177392
63	0xbc851c09	-0.01624872
64	0x3df9606d	0.12176595
65	0xbda26801	-0.079299934
66	0xbdd18c5e	-0.10231851
67	0x3dabe191	0.08392633
68	0xbb18ac26	-0.0023295968
69	0x3984eb22	0.0002535219
70	0x3d6f7a0f	0.058466014
71	0xbc8400ff	-0.016113756
72	0x3d2411dc	0.040056095
73	0xbe2eeed5	-0.17083295
74	0xbdd99166	-0.10623436
75	0xbe50e152	-0.20398453
76	0x3d064e0e	0.032789283
77	0xbdec46c3	-0.11536934
78	0xbd09d237	-0.033647742
79	0xbdcb22aa	-0.09918721
80	0xbe8045b3	-0.25053176
81	0x3cda3d20	0.026640475
82	0xbc2c23aa	-0.01050655
83	0xbd6578fa	-0.056023575
84	0xbb8a8f8d	-0.0042285384
85	0xbe3da175	-0.18518622
86	0x3cc6278e	0.024188783
87	0xbe1648da	-0.14676228
88	0x3d8244fb	0.06360813
89	0x3dc61374	0.09671679
90	0x3bbdce00	0.0057923794
91	0xbb596a62	-0.0033174981
92	0xbbeb4182	-0.00717944
93	0xbc5361d5	-0.012901743
94	0xbd0ed58a	-0.034871615
95	0x3b16928f	0.002297554
96	0xbb67054a	-0.0035250955
97	0xbce51186	-0.027962457
98	0x3a119e8c	0.00055549364
99	0x3e04e0e8	0.1297642
100	0xbe5cd394	-0.21565086
101	0xbd9ba190	-0.07599175
102	0xbe156030	-0.14587474
103	0x3be471b0	0.0069715604
104	0xbd98dd22	-0.07464053
105	0x3cdc71f1	0.0269098
106	0x3e5a3c09	0.21311964
107	0x3d1d8861	0.03846014
108	0x3e023c8e	0.12718412
109	0x3d34e342	0.044162042
110	0xbd110ed2	-0.035414524
111	0xbb4a5aea	-0.0030876943
112	0x3eb57550	0.35441065
113	0xbd35c632	-0.044378467
114	0x3ebc3019	0.36755446
115	0x3d808ebe	0.06277226
116	0xbe2d20e2	-0.16907075
117	0xbe30cbea	-0.17265287
118	0xbdbd5537	-0.09244769
119	0xbee94edb	-0.45567974
120	0x3e1e1dd7	0.1544107
121	0x3d835f46	0.06414656
122	0x3e23b0c6	0.15985402
123	0xbd88c450	-0.06678069
124	0xbe489cde	-0.1959109
125	0xbd6549bb	-0.055978518
126	0x3e59fb3a	0.21287242
127	0x3d829396	0.06375806
128	0xbe21c782	-0.15798762
129	0xbc843e12	-0.016142879
130	0x3ced2850	0.028949887
131	0xbd3f096f	-0.046639856
132	0x3e927bdc	0.28610122
133	0x3dad747a	0.08469482
134	0x3e99945a	0.29995996
135	0x3b64d4d3	0.0034916892
136	0xbcf6e024	-0.030136175
137	0xbb6cdb15	-0.0036141325
138	0xbc5358f0	-0.012899622
139	0xbd1ca3cf	-0.038242158
140	0xb9b15afd	-0.00033827862
141	0xbb5b7334	-0.0033485414
142	0xbcd55bf6	-0.026044827
143	0xbb4e80f1	-0.003150996
144	0xbc92a4b7	-0.017900808
145	0xbe66ca75	-0.22538169
146	0xbae1d6c7	-0.0017230146
147	0xbdd8e67d	-0.10590837
148	0xbe4425b4	-0.19155008
149	0x3d969453	0.07352509
150	0x3dee316d	0.11630521
151	0xbdda594c	-0.10661563
152	0x3dab58bd	0.08366535
153	0x3d5931c3	0.053025972
154	0x3d263c83	0.040585052
155	0x3c207742	0.009794058
156	0x3e10cf9d	0.14141698
157	0x3e6936e2	0.22774842
158	0xbd448c9d	-0.04798566
159	0x3b30bdb2	0.0026968536
160	0x3da2426f	0.079228275
161	0x3db811bc	0.089877576
162	0xbe1eb136	-0.15497288
163	0xbde8efef	-0.11373889
164	0xbe456009	-0.19274916
165	0xbce6baff	-0.028165339
166	0xbe6a4c74	-0.22880727
167	0xbd8b034f	-0.067877404
168	0x3daa4ba8	0.083152115
169	0xbc9edde9	-0.019392924
170	0xbdb08bfb	-0.08620449
171	0x3d31dc2f	0.043422874
172	0x3d9b7b28	0.075918496
173	0xbd4864c9	-0.04892424
174	0x3e3f2681	0.18667032
175	0xbd6e9285	-0.0582452
176	0x3e73227f	0.23743628
177	0x3da1212c	0.07867655
178	0x3ae79d18	0.0017670719
179	0x3dbf2bc0	0.093345165
180	0xbaa6c6a3	-0.0012723993
181	0xbba22c8a	-0.004949157
182	0x3b2d6dcf	0.0026463156
183	0x3b921d3c	0.0044590514
184	0x3d026cf5	0.03184219
185	0xbc227241	-0.009914936
186	0x3bafe7ff	0.0053682323
187	0xbcda9df6	-0.02668665
188	0xbb69fb8c	-0.0035702912
189	0x3da81f96	0.082091495
190	0xbe19271e	-0.14956328
191	0x3daaa410	0.08332074
192	0x3ca81b17	0.02052073
193	0xbe963b08	-0.29341912
194	0xbc809acc	-0.015698813
195	0x3d1ac564	0.037785903
196	0xbe0fb991	-0.14035632
197	0xbd8ac0e5	-0.06775073
198	0x3e002e09	0.12517561
199	0x3d2d8998	0.042367548
200	0xbdb4ccb7	-0.08828109
201	0x3dd74d04	0.105127364
202	0xbe74234f	-0.23841594
203	0x3e0481da	0.1294016
204	0xbdaaff25	-0.08349446
205	0x3d361c90	0.044460833
206	0x3dc0d7c7	0.09416156
207	0xbe114520	-0.14186525
208	0xbdefa843	-0.11702015
209	0x3e303e60	0.17211294
210	0xbd2b4435	-0.041813094
211	0x3e403c75	0.18773063
212	0x3d1252e5	0.035723586
213	0x3d19d3f0	0.037555635
214	0xbd8e89fa	-0.06959911
215	0x3e0204db	0.12697165
216	0x3df353b3	0.11881199
217	0xbd1123cc	-0.03543453
218	0x3e649f59	0.22326411
219	0xbe33d037	-0.17559896
220	0xbd368015	-0.044555742
221	0x3e1cc544	0.15309626
222	0xbd16bbb9	-0.03680012
223	0x3cf51c8b	0.029920837
224	0xbe91a774	-0.2844807
225	0x3c2bb7b9	0.010480815
226	0x3ba2f356	0.0049728556
227	0x3ab60ae3	0.0013888743
228	0xbc8c60b3	-0.017135954
229	0xbd11ddbe	-0.03561186
230	0xbb66888a	-0.0035176598
231	0xbb92fad0	-0.0044854656
232	0xbcc49344	-0.023996003
233	0xbb265644	-0.0025381008
234	0xbe6feca8	-0.23430121
235	0xbd635cda	-0.055508472
236	0xbe009d8d	-0.12560101
237	0xbb2f2234	-0.0026723268
238	0x3d6b1ff1	0.05740351
239	0x3e383762	0.17989877
240	0x3ce1558a	0.027506609
241	0x3b8b1ada	0.0042451443
242	0x3ca4d624	0.020121641
243	0xbcfa861f	-0.030581532
244	0xbd837477	-0.06418698
245	0xbd3edf01	-0.04659939
246	0x3d06db30	0.032923877
247	0xbe6f19f3	-0.23349743
248	0xbd758f8f	-0.05995136
249	0x3d840bf0	0.064475894
250	0x3d290759	0.041266773
251	0x3d95334a	0.07285173
252	0xbd23e65d	-0.040014613
253	0x3d28033e	0.041018717
254	0xbe180267	-0.14844666
255	0x3e9c7d6c	0.3056444

network_body._body_endoder.seq_layers.2.bias f4 [256]
0	0xbac4bf9b	-0.0015010716
1	0xbe92360d	-0.28556862
2	0x3c5cdde7	0.01348064
3	0xbc785a27	-0.015158213
4	0x3b3ee0f9	0.0029125793
5	0x3ba139e1	0.00492023
6	0xbbf9b720	-0.007620707
7	0xbc3086ee	-0.010774357
8	0x3c00e587	0.007867224
9	0xbc5b4cdf	-0.013385027
10	0xbc87f197	-0.016594691
11	0x3beaaeb5	0.00716194
12	0xbc2e844d	-0.01065166
13	0x3c4b959f	0.012425809
14	0xbc504e0c	-0.01271392
15	0xbba90dab	-0.0051591
16	0x3ba6b319	0.005087268
17	0x3db8c2c6	0.09021525
18	0xbc0e9a24	-0.008703742
19	0xbb871209	-0.004122023
20	0xbc0ec201	-0.008713246
21	0x3c0331ab	0.008007447
22	0xbc0d49c3	-0.008623543
23	0xbc39c0c8	-0.011337467
24	0xbe376f4a	-0.17913547
25	0x3a8becaa	0.001067539
26	0xbc9a9930	-0.018871874
27	0xbb07cf28	-0.002072284
28	0x3be9b18b	0.0071317605
29	0xbda8a605	-0.08234791
30	0xbc5e05df	-0.013551204
31	0xbaaf1703	-0.0013358298
32	0x3ab63231	0.0013900456
33	0xbb8c686a	-0.004284908
34	0x3c328d54	0.010897953
35	0xbc2cff36	-0.010558894
36	0xbc4cdd7e	-0.01250398
37	0xbc0f01d7	-0.008728466
38	0xbbdf9c90	-0.0068240836
39	0xbc23de4b	-0.010001729
40	0x3a1d2b2f	0.00059955096
41	0xbbb00b45	-0.005372437
42	0x3b897179	0.004194435
43	0x3c1065ae	0.008813305
44	0xbb892ef8	-0.0041865073
45	0xb9e05f19	-0.00042795463
46	0x3a17a94e	0.0005785421
47	0xbba09e56	-0.0049016876
48	0x3b42e51a	0.0029738606
49	0xbc86dc09	-0.016462343
50	0x3c0e49d1	0.008684591
51	0x3c4b5a0d	0.0124116065
52	0xbb95ae26	-0.0045678793
53	0xbc3775e7	-0.011197544
54	0xbc101e86	-0.00879634
55	0x3a6875c4	0.0008867646
56	0xbbc0c7b1	-0.00588318
57	0x380cb10a	3.354348e-05
58	0x3b106fbe	0.002203926
59	0x3ad6a271	0.0016375316
60	0xbaad5a27	-0.001322572
61	0xbae3377e	-0.0017335264
62	0x3bd91f7d	0.006626068
63	0x3bce9cf2	0.0063053304
64	0xbaf546b4	-0.0018713088
65	0xbb8baad6	-0.0042623086
66	0x3accc636	0.0015623036
67	0x3b28a3d6	0.002573242
68	0xbc050880	-0.008119702
69	0x3b8e1582	0.00433606
70	0x3b2543fb	0.0025217521
71	0xbc57e73b	-0.013177688
72	0xbc8b9e39	-0.01704322
73	0x3c7d503c	0.015461024
74	0xbba722a3	-0.0051005646
75	0xba81c1cc	-0.0009899675
76	0x3ae2f78d	0.0017316208
77	0x3bd3c052	0.0064621354
78	0xbbd5618a	-0.0065118717
79	0xbb60d839	-0.0034308566
80	0x3b19fc9f	0.0023496521
81	0xbaee74c5	-0.0018192759
82	0xbbbb789c	-0.005721165
83	0xbbc905ae	-0.0061347103
84	0xbcafd387	-0.021463169
85	0xbb0be1ad	-0.002134423
86	0x3bd259a6	0.0064193783
87	0x3c656f92	0.014003651
88	0x3bd0a5b2	0.0063674087
89	0x3c1691f9	0.009190076
90	0x3c1f7511	0.009732501
91	0xbc4ff9fb	-0.012693877
92	0x3b1c957d	0.0023892813
93	0xbb241e03	-0.0025042302
94	0xbaeeba04	-0.0018213396
95	0xbc5ceef2	-0.013484703
96	0xbb0b942f	-0.002129804
97	0xbc2dfac1	-0.010618866
98	0x3c554e5c	0.013019171
99	0x3c49df2c	0.012321275
100	0x3bc5f460	0.0060410947
101	0x3c0a49b6	0.008440426
102	0xba88bdc3	-0.001043253
103	0xbb98c12a	-0.004661699
104	0x3c0831c5	0.008312647
105	0x387ee552	6.077189e-05
106	0xbc233997	-0.009962461
107	0xbbaccfd8	-0.0052738003
108	0x3c158f8e	0.009128464
109	0x3bf83b96	0.0075754626
110	0x3bb32bd3	0.0054678707
111	0x3c565f67	0.013084269
112	0x3c251d31	0.010077761
113	0x3c8e1913	0.01734594
114	0x3c2c17e2	0.010503741
115	0xbbc577f7	-0.006026264
116	0x3b3b99be	0.0028625573
117	0x3bc384c9	0.005966757
118	0xbacaae2b	-0.0015463283
119	0x3b9f684f	0.0048647295
120	0x3b6104e3	0.0034335188
121	0x3bda386f	0.0066595594
122	0xbba44c49	-0.0050139767
123	0xbaa7dfdc	-0.0012807804
124	0xbc059cb3	-0.008155036
125	0xbb554398	-0.003254151
126	0xbbf1eb7b	-0.007382808
127	0xbb63fc9a	-0.0034788013
128	0xbaf7260c	-0.0018855943
129	0x39da4229	0.00041629493
130	0x3a5d8c41	0.00084513804
131	0x3a68f90b	0.0008887208
132	0xbd85ea3c	-0.06538817
133	0xbb9ff50f	-0.004881508
134	0x3be61601	0.007021666
135	0xb914a268	-0.00014174881
136	0x39a5da16	0.0003163374
137	0xbb3b75d5	-0.002860417
138	0x3b8b0630	0.004242681
139	0xbbd568c2	-0.0065127322
140	0x3bbc3af4	0.0057443324
141	0x3b20258d	0.0024436445
142	0xbbcdca0c	-0.0062801894
143	0x3c0100f0	0.007873759
144	0xbaaf1393	-0.0013357274
145	0xbc5a9e6b	-0.013343434
146	0x3b54dcb5	0.0032480184
147	0x3c9d7c17	0.01922421
148	0xbbc4eaa6	-0.0060094176
149	0x3af7b567	0.0018898667
150	0x3b971cff	0.004611611
151	0xbc1ef2d4	-0.009701449
152	0x383eacb6	4.546038e-05
153	0xbb0fea35	-0.0021959667
154	0xbea721e7	-0.32643053
155	0xbec5058f	-0.38480803
156	0x3b156b55	0.002279957
157	0x3b2e89f0	0.002663251
158	0xbbea0ddb	-0.007142765
159	0xbe68da37	-0.22739492
160	0x3adb44be	0.0016728861
161	0xbc33f690	-0.010984078
162	0x39830cfc	0.0002499594
163	0x3ac11640	0.0014731362
164	0x3c3b9fc2	0.011451663
165	0x3bbb8ed1	0.005723812
166	0x3b87a983	0.0041400804
167	0xbc332b3f	-0.010935604
168	0xbc59b5a0	-0.013287932
169	0xbbf130b7	-0.0073605436
170	0x3be264ea	0.0069090025
171	0x3b098278	0.0020982306
172	0xbb74a9ee	-0.0037332731
173	0xbed74bc8	-0.42050004
174	0xbb248ff7	-0.0025110224
175	0xbbc4e576	-0.006008799
176	0x3c07c85b	0.008287515
177	0xba819f93	-0.0009889476
178	0x3a4d0cc9	0.00078220345
179	0xbbf21690	-0.0073879436
180	0x3b3ffdd8	0.002929559
181	0xba27cdf9	-0.0006401237
182	0xbc16f84a	-0.00921447
183	0x3c390221	0.0112920115
184	0x3c39f420	0.011349708
185	0xbb583ca9	-0.003299514
186	0xbbb1a896	-0.0054217083
187	0xbba74a80	-0.0051053166
188	0x3a2fc883	0.0006705599
189	0xbb42fa84	-0.002975137
190	0xbb9d5002	-0.0048007974
191	0x3b53d3a4	0.0032322193
192	0xbc3e7f63	-0.011627051
193	0xbc5e2d76	-0.013560643
194	0xbbeaa374	-0.0071605984
195	0xb9a4e87f	-0.0003145374
196	0xbbf1d6d5	-0.0073803463
197	0xbba998ee	-0.0051757013
198	0xbb9d0453	-0.0047917753
199	0xbbdc31fb	-0.0067198253
200	0xbaf6d919	-0.0018833011
201	0x3ab68dcf	0.001392776
202	0xbc98ce8c	-0.018653177
203	0x3b9696f7	0.004595633
204	0xbaa12e11	-0.0012297054
205	0x3c894e33	0.016760921
206	0xbbacecc5	-0.0052772486
207	0x3c3b5d1a	0.011435771
208	0xbb93db62	-0.0045122365
209	0xbb843899	-0.0040350673
210	0xbbdf4769	-0.0068139327
211	0x3b835597	0.004008006
212	0xbb12969f	-0.002236761
213	0x3b3435e9	0.0027497953
214	0x3b36f97a	0.0027919696
215	0xbbeb5845	-0.0071821534
216	0x3bb1b4d1	0.0054231663
217	0xbc9f3e28	-0.019438818
218	0xbc42bc2e	-0.011885686
219	0x3c570ede	0.013126103
220	0xbbdedc55	-0.006801168
221	0xbc8476fb	-0.016170016
222	0xbb110bd6	-0.00221323
223	0xbc545581	-0.012959839
224	0xbc0dd188	-0.008655913
225	0xbc198f0a	-0.009372482
226	0x3bb26677	0.0054443437
227	0xbb5f64e6	-0.003408724
228	0x3ace78a6	0.0015752509
229	0x3bbdb891	0.0057898243
230	0xbbb0d25c	-0.0053961705
231	0x3c14e13a	0.009086901
232	0x3b744fa0	0.0037278906
233	0xbc1b8ddc	-0.009494271
234	0xbeaa41ae	-0.33253235
235	0xba4bc101	-0.0007772595
236	0x3b6cf5be	0.0036157216
237	0x3a0e6d21	0.00054331316
238	0xbc1d5cee	-0.009604676
239	0x3b70d1e0	0.003674619
240	0xbbe88bdd	-0.007096751
241	0x3ae9250e	0.0017787532
242	0x3c8305c6	0.015993964
243	0x3a475ee0	0.0007605385
244	0xbbf36c81	-0.007428706
245	0x3b30fa4f	0.0027004664
246	0x3ad2803c	0.0016059945
247	0xbefe56f0	-0.49675703
248	0x3affd270	0.0019517671
249	0xbc5a02a7	-0.013306296
250	0x38c4e033	9.387769e-05
251	0xbc658e84	-0.014011029
252	0xbdb62bc6	-0.08895068
253	0xbc62d122	-0.013843806
254	0xbb7df421	-0.0038750248
255	0xba5e3e7e	-0.000847794
