results/NEWRun6/TrucksBehavior/TrucksBehavior-499928.onnx (onnx, 621598 bytes, 15 tensors)

86 f4 [69]
0	0x3fdc33e2	1.7203333
1	0x3fd9f1f0	1.7026958
2	0x3fd380e5	1.652371
3	0x3ab96080	0.0014143139
4	0x3ea89e69	0.32933357
5	0x3f3083f0	0.6895132
6	0x3f46a33e	0.7759284
7	0x3ed255d0	0.41081095
8	0x3e72294c	0.23648566
9	0x3ea89e69	0.32933357
10	0x3ab96080	0.0014143139
11	0x3f253c1e	0.64544857
12	0x3f1c74b4	0.61115575
13	0x3f3ae500	0.73005676
14	0x3ec20379	0.37893274
15	0x3f3083f0	0.6895132
16	0x3f253c1e	0.64544857
17	0x3ab96080	0.0014143139
18	0x3e872ed6	0.2640292
19	0x3f518b71	0.81853396
20	0x3eed5b20	0.46358585
21	0x3f46a33e	0.7759284
22	0x3f1c74b4	0.61115575
23	0x3e872ed6	0.2640292
24	0x3ab96080	0.0014143139
25	0x3f80c68a	1.0060589
26	0x3f17f14c	0.59352565
27	0x3ed255d0	0.41081095
28	0x3f3ae500	0.73005676
29	0x3f518b71	0.81853396
30	0x3f80c68a	1.0060589
31	0x3ab96080	0.0014143139
32	0x3edd15fb	0.43180832
33	0x3e72294c	0.23648566
34	0x3ec20379	0.37893274
35	0x3eed5b20	0.46358585
36	0x3f17f14c	0.59352565
37	0x3edd15fb	0.43180832
38	0x3ab96080	0.0014143139
39	0x3fa34048	1.2753992
40	0x3fbaafdc	1.4584918
41	0x3fa2e351	1.2725621
42	0x3fbf6296	1.4951961
43	0x3fa2cb6f	1.2718333
44	0x3fc2725f	1.5191153
45	0x3fa2f20b	1.2730116
46	0x3fc45260	1.5337639
47	0x3fa3fd38	1.2811651
48	0x3fc48914	1.5354333
49	0x3fa5658a	1.2921612
50	0x3fc4fe9b	1.53902
51	0x3fa6705f	1.3003043
52	0x3fc52d51	1.5404454
53	0x3fa826b8	1.3136816
54	0x3fc503de	1.5391805
55	0x3faa15ae	1.3287866
56	0x3fc50b91	1.5394155
57	0x3faba110	1.3408527
58	0x3fc4f4fc	1.5387263
59	0x3fad962d	1.3561455
60	0x3fc51e78	1.5399923
61	0x3faf9321	1.3716775
62	0x3fc4f886	1.5388343
63	0x3fb1663f	1.3859328
64	0x3fc52aea	1.5403721
65	0x3fb367b3	1.4016021
66	0x3fc53909	1.5408031
67	0x3fb5a351	1.4190465
68	0x3fc57b82	1.5428317

action_model._discrete_distribution.branches.0.bias f4 [6]
0	0x3fb2b057	1.3960065
1	0xbdd817f5	-0.105514444
2	0xbf151cd5	-0.5824712
3	0x3ecdedb9	0.4022043
4	0x3cdababd	0.026700372
5	0xc0017469	-2.02273

action_model._discrete_distribution.branches.0.weight f4 [6, 256]
0	0x3e084c7f	0.13310431
1	0xbe99af7f	-0.30016705
2	0xbd89aed5	-0.067228
3	0xbeff356e	-0.4984545
4	0xbc4a22cf	-0.012337401
5	0x3d74f3b1	0.059802715
6	0x3b3b1a69	0.0028549677
7	0x3c344677	0.011003128
8	0xbca7a96f	-0.020466534
9	0xbed9e8b5	-0.42560354
10	0xbda71b75	-0.08159534
11	0xbe470377	-0.19434915
12	0x3e402126	0.18762645
13	0x3d622dfb	0.05521963
14	0x3d03efee	0.032211237
15	0xbc9ad815	-0.018901864
16	0xbdb14c1f	-0.08657097
17	0x3ca4b0c6	0.020103823
18	0x3b3646df	0.0027813239
19	0xbea35e3d	-0.31907836
20	0x3d154565	0.036443133
21	0x3d758c74	0.0599484
22	0x3d537b39	0.051631186
23	0xbd897416	-0.06711595
24	0x3f4496ce	0.7679261
25	0x3d359a39	0.04433653
26	0x3d32dfce	0.043670468
27	0xbcbd4844	-0.023105748
28	0xbdaa9095	-0.08328358
29	0xbd6cb4ea	-0.05778972
30	0x3edd17b7	0.43182155
31	0x3c1144b3	0.008866477
32	0x3d9ceb70	0.07662094
33	0xbbcaa07e	-0.006183683
34	0xbe40cd8c	-0.1882841
35	0x3e0efc8c	0.13963526
36	0x3daf6c23	0.08565547
37	0x3e3015ff	0.17195891
38	0x3d1e8f7d	0.03871106
39	0xbe48c399	-0.19605865
40	0xbde93971	-0.11387909
41	0x3e2a231d	0.16614957
42	0x3da1b742	0.07896282
43	0x3c8fb93e	0.017544385
44	0x3d5ede46	0.054411195
45	0xbefa6c71	-0.4891086
46	0x3da0019e	0.078128085
47	0xba5495c6	-0.0008109476
48	0x3dda2ae4	0.10652712
49	0xbd6ad909	-0.057335887
50	0x3bebb950	0.007193722
51	0xbc8322f9	-0.016007887
52	0xbe3e0828	-0.18557799
53	0xbd919b52	-0.07109703
54	0xbd1e3235	-0.0386221
55	0xbde733d8	-0.11289185
56	0x3e089d98	0.13341367
57	0x3e747b8f	0.23875259
58	0xbc94bfb3	-0.018157816
59	0xbe4aac7f	-0.19792365
60	0x3d3bb58f	0.045827445
61	0xbeac03f1	-0.33596757
62	0xbde01a1e	-0.109424815
63	0x3daa9517	0.08329218
64	0xbd254844	-0.04035212
65	0x3d0b456e	0.03400176
66	0x3d3a4446	0.045475267
67	0x3ce82275	0.028336743
68	0xbdf957d2	-0.121749535
69	0xb84ef71e	-4.9344373e-05
70	0xbd865044	-0.06558278
71	0x3d2b8379	0.04187343
72	0x3e9c105c	0.3048123
73	0x3d53b12e	0.051682644
74	0xbe833f9d	-0.2563447
75	0xbd352ac9	-0.044230256
76	0x3a1d46ce	0.00059996254
77	0x3e1333d1	0.14375235
78	0x3ed75b3a	0.42061788
79	0x3e8c071f	0.27349183
80	0xbcb321ad	-0.021866644
81	0x3b0e242b	0.0021689038
82	0xbe3d135a	-0.18464413
83	0x3e474979	0.19461621
84	0xbdc0b014	-0.09408584
85	0x3b0e257f	0.002168983
86	0x3dba224a	0.09088571
87	0x3c79259e	0.015206723
88	0x3cb3ec45	0.021963248
89	0xbd79cbff	-0.06098556
90	0xbdf73fc4	-0.12072709
91	0x3eb396da	0.35076028
92	0xbe4e5dad	-0.20152922
93	0x3f25ba98	0.64737844
94	0xbd871b3e	-0.06596993
95	0xbda8f1bd	-0.08249233
96	0xbe3150d9	-0.17315997
97	0x3dbd4869	0.09242327
98	0xbda7d7f7	-0.08195489
99	0x3ca753ce	0.020425703
100	0xbd5c0f4f	-0.053725537
101	0xbe4ff3c9	-0.2030784
102	0x3e1ab78f	0.15109085
103	0xbe2d8234	-0.169442
104	0xbc01bf68	-0.00791917
105	0x3da28a29	0.07936508
106	0x3e327baf	0.17429994
107	0xbef656a8	-0.48112988
108	0x3ece3468	0.40274358
109	0x3e3c6b1b	0.18400232
110	0xbe02ea24	-0.1278463
111	0x3cb523fb	0.022111883
112	0x3f02136d	0.5081089
113	0xbd99fd52	-0.0751902
114	0xbe4bb388	-0.19892704
115	0xbdbae901	-0.09126473
116	0x3e2fce0c	0.17168444
117	0x3e9d2312	0.3069082
118	0x3d61aa05	0.055093784
119	0xbe047ca7	-0.12938176
120	0xbeda3e0f	-0.42625472
121	0x3f740f89	0.95336205
122	0x3e192008	0.14953625
123	0x3eb8854f	0.36039206
124	0x3d6bcafd	0.05756663
125	0xbe0504ea	-0.12990156
126	0xbd2a0e15	-0.041517336
127	0x3d03610f	0.032074984
128	0x3d669a03	0.05629922
129	0x3c43e707	0.011956937
130	0x3d445692	0.047934122
131	0x3e5c5e47	0.21520339
132	0xbd5c89ea	-0.053842463
133	0x3e38c6c4	0.18044573
134	0x3af1ec16	0.00184572
135	0x3f46d0b2	0.77662194
136	0x3d806116	0.06268518
137	0xbe11b18a	-0.14227882
138	0xbe951d6e	-0.29124016
139	0x3d25b0fa	0.04045198
140	0x3ea0c294	0.3139845
141	0xbbb73f56	-0.005592267
142	0xbdcaeadf	-0.09908079
143	0xbe614229	-0.21997894
144	0x3bbabc9c	0.0056987535
145	0x3d0c55fd	0.034261692
146	0xbd7315fe	-0.059347145
147	0x3eb31569	0.34977272
148	0xbe5e93d1	-0.21736075
149	0x3dd887b7	0.105727606
150	0xbc443704	-0.011976007
151	0x3b897e92	0.0041959966
152	0xbe4bdb20	-0.19907808
153	0xbe826c4a	-0.25473243
154	0xbd0f2cdf	-0.0349549
155	0x3d70d938	0.058800906
156	0x3e5989d6	0.21243986
157	0x3e804791	0.250546
158	0x3b8dcb4a	0.0043272125
159	0xbbaf415e	-0.0053483685
160	0x3bf234cc	0.007391548
161	0xbec5c333	-0.38625488
162	0xbdc928f3	-0.098222636
163	0x3c814f0a	0.01578476
164	0x3d9d7041	0.07687426
165	0x3bdaefc0	0.0066814125
166	0x3c688951	0.014192895
167	0xbdab6989	-0.083697386
168	0xbe7d51a3	-0.24738173
169	0x3c9758d0	0.018474966
170	0xbe580f0e	-0.21099493
171	0xbc10c485	-0.008835916
172	0xb994d449	-0.00028386925
173	0x3cd52d1a	0.026022483
174	0xbc7f5711	-0.015584723
175	0xbd4a8215	-0.049440462
176	0xbe3c01f0	-0.18360114
177	0x3e91e1ab	0.28492483
178	0xbdfbffa9	-0.12304623
179	0xbe3ddf11	-0.18542124
180	0x3f39bae2	0.72550786
181	0xbd7a5649	-0.061117444
182	0x3e07d769	0.13265766
183	0x3ea2c39f	0.31789872
184	0xbd06990d	-0.032860804
185	0x3cbe6a41	0.023244025
186	0x3d2b90b6	0.041886054
187	0xbde741aa	-0.11291821
188	0xbdb64731	-0.089002974
189	0x3d548bd2	0.051891156
190	0x3d0765cd	0.03305607
191	0x3e6a9c7c	0.22911257
192	0xbeccb3e8	-0.39981008
193	0xbd46173a	-0.048361994
194	0xbd72b72f	-0.05925673
195	0xbcbc169b	-0.022959998
196	0x3cac55f6	0.021037083
197	0x3d8b42f4	0.0679988
198	0xbdb0aaa9	-0.08626301
199	0xbd91900f	-0.07107555
200	0x3d8eadc4	0.06966737
201	0x3abd168b	0.0014426274
202	0x3f205d87	0.6264271
203	0xbe635536	-0.22200474
204	0x3e2f9c47	0.17149459
205	0xbe6e0d0f	-0.23247169
206	0xbd867986	-0.065661475
207	0x3d898aa6	0.06715898
208	0xbe28f5a4	-0.16499954
209	0x3e86379b	0.262143
210	0xbdb17727	-0.08665305
211	0x3e52ffe6	0.2060543
212	0xbc989be7	-0.018629028
213	0x3d312618	0.04324922
214	0x3f011caf	0.5043439
215	0x3d8c0c29	0.06838257
216	0x3d57b905	0.052666683
217	0x3e044b2e	0.12919304
218	0x3eef5ae8	0.46749043
219	0x3e97558c	0.29557455
220	0xbe0a4c36	-0.13505635
221	0x3c733477	0.014844052
222	0x3f12f247	0.57400936
223	0x3c91496b	0.017735204
224	0x3ed34b94	0.412686
225	0x3badf010	0.0053081587
226	0x39abaf81	0.00032746422
227	0xbe2300b2	-0.15918234
228	0x3c8a714b	0.016899725
229	0xbde4928f	-0.11160766
230	0x3d86a5f2	0.0657462
231	0xbe132926	-0.14371166
232	0x3f23292c	0.637347
233	0x3ed3cf87	0.41369268
234	0xbde00914	-0.109392315
235	0x3d95cbff	0.073143
236	0x3ccddb40	0.02512896
237	0x3d46e9d2	0.048562832
238	0xbd54fd67	-0.051999476
239	0x3cc18f9d	0.02362805
240	0x3c6adf3d	0.014335451
241	0xbe858a8d	-0.26082268
242	0xbd6fe32f	-0.05856627
243	0xbcdc18f0	-0.02686736
244	0x3e41b754	0.1891759
245	0xbdf90e84	-0.12160972
246	0x3d0a2dfc	0.03373526
247	0xbe3169fa	-0.17325583
248	0xbe33fbf7	-0.17576586
249	0xbdad9a44	-0.084766895
250	0xbe0749cb	-0.13211744
251	0xbe0a7b80	-0.13523674
252	0xbd901fe0	-0.0703733
253	0xba37af6a	-0.0007007035
254	0x3d264e65	0.040602107
255	0xbda0103d	-0.07815597

action_model._discrete_distribution.branches.1.bias f4 [6]
0	0x3f93677b	1.1515955
1	0xbe02e4b2	-0.12782553
2	0xbe059229	-0.13044037
3	0x3ecd6753	0.40117893
4	0x3da4ef78	0.080534875
5	0xbff95586	-1.9479225

action_model._discrete_distribution.branches.1.weight f4 [6, 256]
0	0xbde7e7d9	-0.11323518
1	0xbd99d721	-0.07511736
2	0xbd740684	-0.059576526
3	0xbe976ac1	-0.29573634
4	0x3ed39953	0.41327915
5	0x3c934728	0.017978266
6	0xbe3a78d3	-0.18210153
7	0xbc1a42d9	-0.009415352
8	0x3db98da1	0.09060217
9	0xbf6e5ebb	-0.931133
10	0x3cfd67d2	0.030933294
11	0xbcd63bf1	-0.02615163
12	0x3deba807	0.11506658
13	0x3e03bd9d	0.128653
14	0x3ddb6bdd	0.10713933
15	0x3e97ced7	0.29649994
16	0x3ba2e9d2	0.004971721
17	0x3b65e6f8	0.0035080295
18	0x3d0e7509	0.034779582
19	0x3dc3beb7	0.0955786
20	0xbdf3702d	-0.1188663
21	0xbe02f05a	-0.12787
22	0xbdb84900	-0.08998299
23	0xbcf92117	-0.030411286
24	0xbd12862c	-0.035772488
25	0x3de654d0	0.112466455
26	0xbd47831b	-0.048709016
27	0xbd4a3303	-0.049365055
28	0x3dc9f9bd	0.09862087
29	0xbdd317e9	-0.10307295
30	0x3dd38bee	0.10329424
31	0x3dde7c82	0.10863592
32	0x3e1cbbc1	0.15305997
33	0xbd92a0a7	-0.07159548
34	0x3e05ced9	0.13067187
35	0xbe0f0468	-0.13966525
36	0x3daf1954	0.08549753
37	0xbd863d39	-0.06554646
38	0x3e288356	0.1645635
39	0xbc96ccbe	-0.018408176
40	0xbc83a36d	-0.016069138
41	0x3d87970c	0.06620607
42	0xbe1ec65c	-0.15505356
43	0xbddb3444	-0.10703328
44	0xbcdcd5c0	-0.026957393
45	0xbfa38245	-1.277413
46	0x3e837df0	0.2568202
47	0xbd8d40cb	-0.06897124
48	0x3e876479	0.26443842
49	0x3e065778	0.13119304
50	0xbca9d60c	-0.020731948
51	0xbd7d422f	-0.061830696
52	0x3d259e6e	0.040434293
53	0x3f197515	0.5994428
54	0xbd7bf5dc	-0.061513767
55	0x3e5886ae	0.21145126
56	0x3e1b22cf	0.15149997
57	0x3e8df6f0	0.2772746
58	0x3c9a4bd3	0.018834984
59	0x3c55b2e9	0.013043144
60	0xbccda95a	-0.025105167
61	0x3e5b96f7	0.21444307
62	0x3b91364f	0.004431523
63	0xbd0b7146	-0.034043573
64	0xbd938e26	-0.07204847
65	0x3e164467	0.14674531
66	0x3cd5d833	0.026104068
67	0x3dc95232	0.09830131
68	0xbcdc9bf4	-0.026929833
69	0x3d3744f5	0.044743497
70	0x3ede2feb	0.43395934
71	0xbd4030f8	-0.0469217
72	0x3c2e2669	0.010629275
73	0xbdc611b8	-0.09671348
74	0x3ef9d737	0.48797008
75	0xbe7b960f	-0.24568962
76	0x3e08474c	0.13308448
77	0x3dadf5a7	0.0849412
78	0x3e873d22	0.26413828
79	0x3ed6c364	0.41945946
80	0x3d54962e	0.051901035
81	0x3ca73bd8	0.020414278
82	0x3e8279c9	0.2548354
83	0x3eb8870c	0.36040533
84	0xbd0f16ae	-0.03493374
85	0x3b35c394	0.0027734982
86	0x3d1d1b3e	0.03835606
87	0xbcbdc2be	-0.02316415
88	0xbd277d01	-0.040890697
89	0xbd927827	-0.071518235
90	0x3d7bba79	0.06145713
91	0x3ea600eb	0.32422575
92	0x3e825378	0.25454307
93	0x3e996289	0.2995799
94	0xbc328942	-0.010896983
95	0xbcaa64eb	-0.020800075
96	0x3e3c9712	0.18417004
97	0x3d5ecfaa	0.054397263
98	0x3d99179c	0.07475206
99	0x3c55f110	0.013057962
100	0xbeafcef7	-0.3433759
101	0x3c7cdc67	0.015433407
102	0x3e742513	0.23842268
103	0x3e38ea48	0.18058121
104	0xbd60c580	-0.05487585
105	0x3da3dff8	0.08001703
106	0xbbde9244	-0.0067923386
107	0x3f2e2bd2	0.68035614
108	0x3ebaa755	0.3645579
109	0x3e501578	0.2032069
110	0xbc706304	-0.014672045
111	0x3b7d2d40	0.0038631707
112	0x3d813db4	0.06310597
113	0x3edb6ba9	0.42855576
114	0x3e7e5dfa	0.24840537
115	0xbd8e74a9	-0.06955845
116	0x3b29d033	0.002591145
117	0x3e92721f	0.28602692
118	0xbe083dda	-0.13304844
119	0xbe3b27e6	-0.18276939
120	0xbf19e8d8	-0.60120916
121	0x3ebd51e6	0.36976546
122	0x3d8538a0	0.06504941
123	0x3eb0f873	0.34564552
124	0x3ddbe69f	0.10737347
125	0x3dde0cde	0.10842298
126	0x3e910d41	0.28330424
127	0xbcb2443d	-0.021761054
128	0x3cda5be5	0.026655147
129	0x3cf3ca89	0.029759662
130	0x3dc9a4b6	0.09845869
131	0xbbf51089	-0.007478778
132	0xbd899e1a	-0.067196086
133	0x3c83fc5c	0.016111545
134	0xbe05b8d0	-0.13058782
135	0xbdcee75b	-0.10102721
136	0x3d842863	0.06453016
137	0x3db9e67a	0.09077163
138	0xbf42f6a8	-0.7615762
139	0x3dfd0001	0.12353516
140	0x3f147dec	0.5800464
141	0x3e18a7fc	0.14907831
142	0x3db4bb6e	0.08824812
143	0xbce69d61	-0.028151216
144	0xbd58b96a	-0.0529112
145	0xbcb889fe	-0.022526737
146	0x3d0d813f	0.034547087
147	0xbe3daf0f	-0.18523811
148	0x3dcf1fa0	0.10113454
149	0x3e5d4f83	0.21612363
150	0xbdd6d8ab	-0.10490545
151	0x3c990160	0.018677413
152	0xbe7c3466	-0.24629363
153	0xbe85fa41	-0.2616749
154	0xbd49e5e3	-0.049291503
155	0x3dce15ba	0.10062738
156	0x3e0bea67	0.13663636
157	0x3c92a5bd	0.017901296
158	0xbcce37fb	-0.025173178
159	0xbd1503ce	-0.03638058
160	0x3d97f433	0.07419624
161	0xbe99ba3b	-0.30024895
162	0xbc777fa8	-0.015106119
163	0xbbbd6fd7	-0.0057811546
164	0x3e10f73e	0.14156815
165	0x3e02a0cd	0.12756653
166	0xbce1582e	-0.027507868
167	0x3eb84e18	0.3599708
168	0xbd508194	-0.050904825
169	0x3d1643e0	0.036685824
170	0x3d9a24f4	0.075265795
171	0xbda0c6a4	-0.07850388
172	0x3d802cba	0.06258531
173	0x3d8727da	0.06599398
174	0x3ccf145b	0.025278261
175	0x3e210942	0.15726188
176	0xbdbe3ba0	-0.09288716
177	0x3dd6aa90	0.10481751
178	0x3c408235	0.011749794
179	0x3bda2b0d	0.006657964
180	0x3ecf0a90	0.40437746
181	0x3e28697f	0.16446494
182	0xbe8ddebf	-0.27709004
183	0xbde577ab	-0.112044655
184	0x3e3758a7	0.17904912
185	0xbe82fbb3	-0.25582656
186	0x3d0cbda8	0.034360558
187	0x3c53e07b	0.012931938
188	0x3d291780	0.041282177
189	0x3d83dada	0.06438227
190	0xbd4197a3	-0.047263753
191	0x3ef9417b	0.4868277
192	0xbe3b5c61	-0.18296959
193	0x3ce65737	0.02811776
194	0xbd3926e9	-0.045203123
195	0x3d8fecca	0.07027586
196	0x3d8ecf18	0.06973094
197	0x3cc9044d	0.024538184
198	0x3e36cb7e	0.17851064
199	0x3e6148bc	0.22000402
200	0x3d9678d0	0.07347262
201	0xbc92cedc	-0.017920904
202	0x3e2cdaf5	0.168804
203	0xbf063243	-0.52420443
204	0xbcb91bee	-0.022596326
205	0x3e9e50ff	0.3092117
206	0xbd8b372c	-0.067976326
207	0x3c9d54ff	0.019205568
208	0xbdd03579	-0.10166449
209	0x3c27843b	0.010224397
210	0x3d365591	0.044515196
211	0x3d381836	0.044944964
212	0xbd56f559	-0.052480076
213	0x3ad6c1ce	0.0016384663
214	0x3f5bb782	0.85826886
215	0xbddb63e3	-0.10712411
216	0xbc1672e8	-0.009182669
217	0x3e4ab19e	0.19794318
218	0x3e5c2316	0.21497759
219	0xbd61c1b9	-0.05511639
220	0x3f2771c1	0.6540795
221	0xbd626d5f	-0.055280086
222	0xbd425ad3	-0.047449898
223	0x3cf36e23	0.029715603
224	0x3db055f3	0.086101435
225	0x3e426fa2	0.18987897
226	0xbb2c8932	-0.0026326892
227	0x3f38c8b0	0.72181225
228	0x3eb35310	0.3502431
229	0x3e22fda9	0.15917076
230	0xbd299cb8	-0.041409224
231	0x3dc6a81f	0.09700035
232	0xbeb3b9d6	-0.3510272
233	0xbe169f01	-0.14709093
234	0x3e9045c3	0.28178224
235	0x3e8b2b35	0.27181402
236	0x3dfb731c	0.12277815
237	0xbd961b59	-0.07329435
238	0xbc9c7697	-0.019099517
239	0xbd5038df	-0.050835487
240	0xbc0f7fc3	-0.008758488
241	0xbecf1ba1	-0.40450767
242	0x3d3eb865	0.04656257
243	0x3d43b31e	0.04777824
244	0xbd332e35	-0.04374524
245	0xbf0dc688	-0.5538106
246	0x3e153be8	0.14573634
247	0x3d41c50d	0.047307063
248	0xbd8aab12	-0.0677091
249	0xbccbf499	-0.024896907
250	0xbdadf7c5	-0.08494524
251	0x3e8da755	0.27666727
252	0x3e1a68f2	0.15079096
253	0x3de140ff	0.10998725
254	0x3e3a537a	0.18195906
255	0xbe0a2bfe	-0.13493344

action_model._discrete_distribution.branches.2.bias f4 [6]
0	0x3f76df95	0.9643491
1	0x3ecf19b6	0.40449303
2	0xbdc80a37	-0.09767573
3	0x3da5b503	0.08091166
4	0x3e2f09d7	0.17093597
5	0xc0055781	-2.0834658

action_model._discrete_distribution.branches.2.weight f4 [6, 256]
0	0x3dd23c26	0.10265379
1	0x3d700b02	0.058604248
2	0x3e4d3e31	0.20043255
3	0xbe368fb9	-0.17828263
4	0xbebb45d3	-0.3657671
5	0x3d8de88d	0.06929121
6	0xbd9a87cb	-0.07545432
7	0x3e19788c	0.14987391
8	0x3d3300e8	0.043702036
9	0x3e0405d8	0.12892854
10	0xbc8d981a	-0.017284442
11	0xbd5e617f	-0.0542922
12	0x3d4cd0cc	0.05000381
13	0x3da68052	0.08129944
14	0xbe7984b5	-0.2436703
15	0x3d7a7d24	0.0611545
16	0x3c7b712b	0.015346806
17	0x3ca8514a	0.020546574
18	0xbce3bcc8	-0.027799979
19	0xbee64dad	-0.44981137
20	0x3da1891d	0.078874804
21	0x3df7f1d2	0.121066704
22	0x3da941e3	0.0826452
23	0x3d92031e	0.07129501
24	0x3cd5452a	0.026033957
25	0x3b89d9d5	0.004206876
26	0xbcc1d521	-0.023661198
27	0xbd6e5828	-0.05818954
28	0xbd9a84f1	-0.07544888
29	0x3c32932d	0.010899347
30	0x3d8df9dd	0.06932423
31	0x3cf82ddf	0.03029531
32	0xbd218763	-0.039435755
33	0x3d894619	0.06702823
34	0xbdc45067	-0.09585648
35	0x3e68fa87	0.22751819
36	0x3ea6d8e4	0.3258735
37	0x3e8f57d2	0.2799669
38	0x3cef897b	0.02924036
39	0x3da950fa	0.08267398
40	0x3e450baf	0.19242738
41	0x3e2d8f35	0.1694916
42	0x3dc2a43a	0.0950398
43	0xbc217301	-0.009854079
44	0x3d50d8fc	0.050988182
45	0xbeb05a99	-0.3444412
46	0x3dc08945	0.09401182
47	0x3d15cc46	0.036571763
48	0xbe364459	-0.1779951
49	0x39a3457a	0.00031141547
50	0x3c65afa4	0.014018927
51	0xbca1da52	-0.019757424
52	0xbb9c41cf	-0.004768587
53	0xbeb7e28e	-0.35915035
54	0xbd44f00f	-0.0480805
55	0x3e0c35ad	0.1369235
56	0x3d7db026	0.061935566
57	0xbe946e21	-0.28990272
58	0x3c9b8244	0.018983014
59	0x3e190784	0.14944273
60	0x3df26c61	0.11837078
61	0xbe1751a6	-0.1477724
62	0xbd1a680c	-0.037696883
63	0xbd3502f9	-0.044192288
64	0x3e16f04f	0.14740108
65	0x3ce46627	0.027880741
66	0x3d8ebfff	0.06970214
67	0x3e805f7f	0.25072858
68	0x3b9a53b1	0.004709684
69	0x3e66b6a0	0.22530603
70	0xbce46d07	-0.02788402
71	0x3d4c2c3e	0.04984688
72	0x3d9ae664	0.07563475
73	0xbc8ffd04	-0.017576702
74	0xbeae7a4d	-0.34077683
75	0x3e19c7b6	0.1501759
76	0x3de5671b	0.112013064
77	0x3e42a5b2	0.1900852
78	0xbe8e655f	-0.27811715
79	0x3eae569b	0.3405045
80	0xbd326739	-0.043555472
81	0x3d8de6da	0.06928797
82	0xbe09a2a5	-0.1344095
83	0x3d58c9b0	0.05292672
84	0x3ce02491	0.027361186
85	0x3e15cfb1	0.14630009
86	0x3d32ed84	0.043683544
87	0xbd21488b	-0.039375823
88	0x3c257cfd	0.0101006
89	0x3d52ab45	0.051432867
90	0xbc474ada	-0.012163842
91	0x3df9d2d7	0.12198418
92	0xbec2fdf4	-0.38084376
93	0x3de7de83	0.113217376
94	0xbe833671	-0.25627473
95	0x3d05d9b6	0.03267833
96	0x3dfafcb3	0.1225523
97	0x3e05d72a	0.1307036
98	0x3a18550d	0.00058110134
99	0xbc238842	-0.009981217
100	0x3f8f56fa	1.1198418
101	0xbdfb3522	-0.12265994
102	0x3e0f478f	0.13992141
103	0xbe1fed97	-0.15617977
104	0x3eadb680	0.339283
105	0x3db4373c	0.087995976
106	0x3ec0bb26	0.37642783
107	0xbeb1ca8f	-0.34724852
108	0x3e8796dc	0.26482284
109	0x3dd60a28	0.10451156
110	0xbe267ccc	-0.16258544
111	0x3cf56c02	0.029958729
112	0x3d1b8d5f	0.03797662
113	0x3c53d132	0.012928294
114	0xbd949d28	-0.07256538
115	0x3e52e40d	0.20594807
116	0xbc8c7c70	-0.01714918
117	0x3d8ec536	0.06971209
118	0x3d30eb63	0.043193232
119	0x3ecb0cfd	0.39658347
120	0xbeae342c	-0.3402418
121	0x3e7fedf9	0.24993123
122	0x3d9c3185	0.076266326
123	0x3e20246b	0.15638892
124	0x3c93caa6	0.018040966
125	0xbe08249e	-0.13295218
126	0x3e61aa20	0.22037554
127	0x3c893ad4	0.016751684
128	0x3ddbbb5a	0.10729094
129	0x3ee09466	0.4386322
130	0x3ea48df4	0.32139552
131	0x3f101d98	0.56295156
132	0x3dc0a692	0.09406771
133	0x3e757805	0.23971565
134	0x3d0c800e	0.03430181
135	0xbdc96662	-0.09833981
136	0x3ded9bff	0.116020195
137	0xbd2ad885	-0.041710395
138	0xbf25bb98	-0.6473937
139	0x3d9a6f21	0.075407274
140	0x3f2a2fc5	0.6647914
141	0x3d84e946	0.06489806
142	0xbcd95c9e	-0.026533421
143	0x3e589b41	0.21152975
144	0x3df80f86	0.12112336
145	0x3dcbad4d	0.09945164
146	0x3e355fb8	0.17712295
147	0x3f116e2a	0.5680872
148	0xbd29d498	-0.04146251
149	0xbd476b59	-0.04868636
150	0x3dd603a3	0.104499124
151	0x3d390926	0.04517474
152	0xbe5c6158	-0.21521509
153	0x3e131735	0.14364322
154	0x3a045761	0.0005048421
155	0xbdeffa25	-0.11717633
156	0x3d889bdb	0.06670352
157	0xbc283029	-0.0102653885
158	0x3ccf4a5a	0.025304008
159	0x3ea0e718	0.3142631
160	0x3d871816	0.06596391
161	0x3e813a83	0.25239953
162	0x3d6bba90	0.057550967
163	0xbccc3ca6	-0.024931263
164	0x3d7ba59e	0.06143724
165	0xbde4728f	-0.11154663
166	0xbc407bfc	-0.01174831
167	0xbdeeb685	-0.116559066
168	0xbdc1cddd	-0.094630934
169	0x3c66b4e2	0.014081212
170	0x3e12043b	0.14259426
171	0x3e5d552f	0.21614526
172	0x3c84becb	0.016204258
173	0x3c894046	0.01675428
174	0x3c9dcbc4	0.019262202
175	0xbcba3eb2	-0.022734974
176	0x3e35d27d	0.17756076
177	0x3e366918	0.17813528
178	0x3e853032	0.26013333
179	0x3e1834b1	0.1486385
180	0x3ef5113d	0.47864714
181	0xbd9b81d9	-0.07593126
182	0xbc63d173	-0.013904917
183	0xbe6acb51	-0.22929122
184	0xbd021ba3	-0.031764638
185	0x3f1e182c	0.61755633
186	0x3d88775c	0.06663391
187	0xbd83a6a9	-0.06428272
188	0x3daa20c7	0.08307033
189	0x3d93c83d	0.07215927
190	0x3d27cc40	0.040966272
191	0xbddbcd14	-0.10732475
192	0xbf3dfa6b	-0.7421023
193	0x3e168fd8	0.1470331
194	0x3df416ae	0.11918388
195	0xbc7f40eb	-0.0155794425
196	0xbca9c124	-0.02072198
197	0x3d2f27ce	0.04276257
198	0xbccd9e8c	-0.025100015
199	0xbe365575	-0.17806037
200	0x3da01c10	0.078178525
201	0x3d988643	0.074474834
202	0x3f2f4f67	0.68480533
203	0xbed97993	-0.42475566
204	0x3d417bc4	0.047237173
205	0x3db42f9d	0.08798144
206	0xbcced020	-0.025245726
207	0x3e0de1ab	0.13855617
208	0xbcc941c6	-0.024567496
209	0x3e0792c9	0.13239588
210	0x3d994474	0.074837595
211	0xbdaed61f	-0.08536934
212	0xbba4beb8	-0.0050276183
213	0x3e008168	0.12549365
214	0x3ee2209f	0.44165513
215	0x3cbd26a2	0.02308971
216	0x3d5c147d	0.053730477
217	0x3e13dcfa	0.14439765
218	0x3e68543f	0.22688387
219	0xbc828a33	-0.01593504
220	0xbec608d9	-0.38678625
221	0xbca17e0f	-0.01971343
222	0x3e700d4a	0.2344257
223	0x3c5871bf	0.013210713
224	0x3e907111	0.28211263
225	0xbdb9563c	-0.09049651
226	0x3dd703e6	0.104987904
227	0x3dff85c6	0.12476687
228	0x3e633e3b	0.22191708
229	0xbd6c9e7b	-0.057768326
230	0x3e9cb856	0.30609387
231	0x3eb06b5a	0.34456903
232	0xbd539701	-0.05165768
233	0x3de87520	0.11350465
234	0xbeb2d948	-0.34931397
235	0x3d9c01f3	0.07617559
236	0x3dec1401	0.11527253
237	0xbe297c50	-0.16551328
238	0x3dd17045	0.10226492
239	0x3d765a88	0.06014493
240	0x3cebff40	0.028808236
241	0x3f0fd3f9	0.5618282
242	0x3cf05202	0.02933598
243	0x3d2cce10	0.042188704
244	0x3e061f05	0.1309777
245	0x3e48a4ee	0.19594166
246	0xbc561c05	-0.013068204
247	0x3d4807c0	0.048835516
248	0x3eb7155b	0.3575848
249	0x3d3e8a07	0.046518352
250	0xbe64c27f	-0.2233982
251	0xbdb66eb3	-0.08907833
252	0x3d8a7a4b	0.06761607
253	0x3ec54cd9	0.38535193
254	0x3d711aad	0.05886333
255	0xbd52d8b8	-0.05147621

discrete_action_output_shape f4 [1, 3]
0	0x40c00000	6.0
1	0x40c00000	6.0
2	0x40c00000	6.0

network_body._body_endoder.seq_layers.0.bias f4 [256]
0	0xbfebf292	-1.8433402
1	0xbfd4648e	-1.6593187
2	0xbf9d7a72	-1.2302992
3	0xbfb08775	-1.3791338
4	0xbffa5de9	-1.9559909
5	0xbfde8bb8	-1.7386389
6	0xbfe9adfb	-1.825622
7	0xbfbc3c67	-1.4705933
8	0xbff346f7	-1.9006032
9	0xbea06334	-0.31325686
10	0xbfd7e3d1	-1.6866399
11	0xbf8c5c83	-1.0965732
12	0xbf7c267a	-0.9849621
13	0xbf9c4ccc	-1.2210937
14	0xbe9e6573	-0.30936775
15	0xbfb31e74	-1.3993669
16	0xbffcd5e8	-1.9752779
17	0xbf6418c2	-0.8910028
18	0xbf875101	-1.0571595
19	0xbfb991ad	-1.4497582
20	0xbf835b07	-1.0262154
21	0xbfe368ab	-1.7766317
22	0xbfddc874	-1.7326798
23	0xbfab75fa	-1.3395379
24	0xbf8ba6df	-1.09103
25	0xbf00ae32	-0.502658
26	0xbf92a697	-1.1457089
27	0xbfa86d6b	-1.3158392
28	0xbf1184e4	-0.568434
29	0xbfde0dd8	-1.7347975
30	0xbfc735a2	-1.5563242
31	0xbff41441	-1.9068681
32	0xbf492e57	-0.78586334
33	0xbfd08d27	-1.6293076
34	0xbf934bc6	-1.1507499
35	0xbf9f83da	-1.2462113
36	0xbfb1518c	-1.3853011
37	0xbfbf6e9e	-1.4955633
38	0xbfb81e1d	-1.438419
39	0xbf5d478a	-0.86437285
40	0xbf46fd31	-0.7773009
41	0xbfb951d8	-1.4478102
42	0xbff3fea9	-1.9062091
43	0xbfdcf217	-1.726138
44	0xbff0101a	-1.8754914
45	0xbff32899	-1.8996764
46	0xbf906477	-1.128066
47	0xbfe3fbae	-1.7811182
48	0xbfd79ab4	-1.6844087
49	0xbf9356cc	-1.1510863
50	0xbfcd4af2	-1.6038496
51	0xbfdf3fb6	-1.7441318
52	0xc00a4ccf	-2.160938
53	0xbf682e03	-0.9069521
54	0xbf323bc9	-0.69622475
55	0xbfdb6584	-1.7140355
56	0xbf88ae9c	-1.0678287
57	0xbfc848b7	-1.5647191
58	0xc0012681	-2.017975
59	0xbef18eb3	-0.47179183
60	0xbf95fd48	-1.171792
61	0xbfadfce8	-1.3592806
62	0xbfcedc6e	-1.616102
63	0xbfbe066a	-1.4845707
64	0xbfa28391	-1.2696401
65	0xbfcb92d6	-1.5904186
66	0xbfde08c0	-1.734642
67	0xbfd539dd	-1.6658283
68	0xbfea4c57	-1.8304547
69	0xbf9e706f	-1.2378062
70	0xbfe040f9	-1.7519828
71	0xbfd1d6c2	-1.6393664
72	0xbf504fb8	-0.8137164
73	0xbfeb7ef7	-1.8398122
74	0xbf31b597	-0.6941771
75	0xbfe4b3cc	-1.786737
76	0xbfec4f8e	-1.8461778
77	0xbfcf8977	-1.6213826
78	0xbe9b484d	-0.303286
79	0xbfbe8e38	-1.4887152
80	0xbff04814	-1.8771996
81	0xbfd35c90	-1.6512623
82	0xbfd36265	-1.6514403
83	0xbfe493c2	-1.7857592
84	0xbf73f639	-0.9529758
85	0xbfceceae	-1.6156824
86	0xbf910408	-1.1329355
87	0xbf8231a9	-1.0171405
88	0xbfe30f4d	-1.7739044
89	0xbfea76c1	-1.8317491
90	0xbfa0079e	-1.2502325
91	0xbfdb78f0	-1.7146282
92	0xbf84c8c5	-1.037377
93	0xbfd48b6f	-1.6605052
94	0xbfe2ebc0	-1.7728195
95	0xbfe00d3a	-1.7504036
96	0xbf81de4b	-1.0145963
97	0xbe8b805d	-0.2724637
98	0xbfd4e156	-1.6631267
99	0xbfed2526	-1.8526962
100	0xbf94ec68	-1.1634645
101	0xbf87caf4	-1.0608811
102	0xbfe87579	-1.816085
103	0xbfb26263	-1.3936275
104	0xbfd45530	-1.6588497
105	0xbf601a37	-0.8754
106	0xc0019ebb	-2.0253131
107	0xbfe50638	-1.7892523
108	0xbfb88037	-1.4414128
109	0xbfc6e9ea	-1.5540135
110	0x3e24a8aa	0.16079965
111	0xbff007c5	-1.8752371
112	0xbf260fe5	-0.64868003
113	0xbfa94856	-1.32252
114	0xbfd9703f	-1.698738
115	0xbfe936ec	-1.8219886
116	0xbfb2384b	-1.3923429
117	0xbfd69158	-1.6763105
118	0xbf8d1613	-1.1022362
119	0xbf607023	-0.8767111
120	0xbfa34362	-1.2754939
121	0xbfe447be	-1.7834394
122	0xbfbdd969	-1.4831973
123	0xbfba43dc	-1.4551959
124	0x3fb49fb1	1.4111234
125	0xbf9ebdfe	-1.2401731
126	0xbf943ace	-1.1580446
127	0xbfde925d	-1.7388417
128	0x3fc4f090	1.5385914
129	0xbfbc8248	-1.4727259
130	0xbfd8719b	-1.690967
131	0xbf388c11	-0.72088724
132	0xbf895527	-1.0729111
133	0xbfe9c195	-1.8262202
134	0xbdd6414b	-0.104616724
135	0xbf8004ef	-1.0001506
136	0xbf56e018	-0.8393569
137	0xbf2ee764	-0.68321824
138	0xbf908cf6	-1.1293018
139	0xbf99b9dc	-1.2009845
140	0xbfacfd1d	-1.3514744
141	0xbfea83b5	-1.8321444
142	0xbfe1c708	-1.7638865
143	0xbf5422d5	-0.8286565
144	0x3e71cf1e	0.23614165
145	0xbf46023b	-0.77347153
146	0xbfd6b7f1	-1.6774884
147	0xbf736493	-0.9507534
148	0xbfb76a0b	-1.4329237
149	0xbf13e1d6	-0.57766473
150	0xbfcc98e6	-1.5984161
151	0xbf3ce6d1	-0.737897
152	0xbfde95e1	-1.738949
153	0xbfe7e5ff	-1.8117064
154	0xbf96e175	-1.1787554
155	0xbf4c2b5f	-0.7975368
156	0xbfbcc4c6	-1.474755
157	0xbfd8ea26	-1.6946456
158	0xbff530ad	-1.915548
159	0xbfe311f4	-1.7739854
160	0xbfe99d13	-1.825106
161	0xbf8bd9a9	-1.09258
162	0xbfc37523	-1.5270122
163	0xbfce8a3f	-1.6135939
164	0xbfc6f62d	-1.5543877
165	0xbfce6891	-1.6125661
166	0xbfcc30fd	-1.595245
167	0xbfb172ef	-1.38632
168	0xbfccd650	-1.6002903
169	0xbef58fd6	-0.479613
170	0xbf48a514	-0.7837689
171	0xbf9bcbad	-1.2171532
172	0xbfa01934	-1.2507691
173	0xbfdfe989	-1.7493144
174	0xbfe12dbe	-1.7592084
175	0xbfb0215b	-1.3760179
176	0xbfd63508	-1.6734934
177	0xbfab00c6	-1.3359611
178	0xbfa5ea8d	-1.2962204
179	0xc000a4c5	-2.0100567
180	0xbfdebbc4	-1.7401052
181	0xbf94c2ea	-1.1621983
182	0xbfefecd6	-1.8744152
183	0xbfe19248	-1.7622766
184	0x3fdfa425	1.7471968
185	0xbfd7c42c	-1.6856742
186	0xbfe799c2	-1.8093798
187	0xbfc34fbe	-1.525871
188	0xbfa7ead2	-1.3118536
189	0xbfd6f80a	-1.6794446
190	0xbf8afdd4	-1.0858712
191	0xbfea63d7	-1.8311719
192	0xbf4be690	-0.79648685
193	0xbfb6a003	-1.4267582
194	0xbfc891a8	-1.5669451
195	0xc0028479	-2.0393355
196	0xbfe5b304	-1.7945256
197	0xbfb45bed	-1.4090554
198	0xc000d6fd	-2.0131218
199	0xbebeac31	-0.37240747
200	0xbff1adbb	-1.8881143
201	0xbfd3e23f	-1.655342
202	0xbfcce501	-1.6007386
203	0xbf3675a9	-0.71273285
204	0xbf3776f4	-0.71665883
205	0xbfdccea4	-1.7250562
206	0xbfa57cdd	-1.292873
207	0xbed3d22b	-0.41371283
208	0xbfcf7c18	-1.6209745
209	0xbfeff511	-1.8746663
210	0xbf097e23	-0.53708094
211	0xbf9f229d	-1.2432438
212	0xbf98fb16	-1.1951625
213	0xbf773368	-0.96562815
214	0xbfaa2909	-1.3293773
215	0xbff61526	-1.9225204
216	0xbfb96432	-1.4483702
217	0xbfeedde9	-1.8661472
218	0xbd8f96fc	-0.0701122
219	0xbfc279e1	-1.5193444
220	0xbfb34fc9	-1.4008723
221	0xbf726da4	-0.9469855
222	0xbe5b1466	-0.213945
223	0xbf889f0c	-1.0673537
224	0xbf7bd4ca	-0.98371565
225	0xbfd6e3d1	-1.6788274
226	0xbe8efc36	-0.27926797
227	0xbfbd43ad	-1.4786278
228	0xbff7b2f8	-1.9351492
229	0xbece4374	-0.40285838
230	0xc0051078	-2.0791302
231	0xbfd0c6d3	-1.6310676
232	0xbf9e6c6f	-1.2376841
233	0xbfbb6d72	-1.4642775
234	0xbfeb5bed	-1.8387429
235	0xbfa2def6	-1.2724292
236	0xbeead23d	-0.45863524
237	0xbfadba98	-1.3572569
238	0xbff5af11	-1.9194051
239	0xbfe99934	-1.8249879
240	0xbf2b10a5	-0.6682227
241	0xbfba9fe2	-1.4580042
242	0xbfed797b	-1.8552698
243	0xbfbe8fe2	-1.488766
244	0xbfb36a77	-1.4016865
245	0xbf586f8f	-0.84545225
246	0xbfd6c0a8	-1.6777544
247	0xbfedaa15	-1.856753
248	0xbfced693	-1.6159233
249	0xbfb1dac0	-1.3894882
250	0xbf78341d	-0.9695452
251	0xbff75aca	-1.9324582
252	0xbfe4cf1e	-1.7875707
253	0xbfd8a3c3	-1.6924976
254	0xbfa33e5a	-1.2753403
255	0xbfa46f91	-1.2846547

network_body._body_endoder.seq_layers.0.weight f4 [256, 69]
0	0xbe219a78	-0.15781581
1	0xbce8aa79	-0.0284016
2	0x3e9de74e	0.30840534
3	0xbc2f370d	-0.0106942775
4	0xc00bcde9	-2.1844428
5	0xbff7fd4d	-1.9374176
6	0xc007125d	-2.1104958
7	0xbff3aa7d	-1.9036404
8	0xbff21858	-1.8913679
9	0xbfeea404	-1.8643804
10	0xbe4a6694	-0.19765693
11	0xbfede03a	-1.8584054
12	0xbfef8ad3	-1.8714241
13	0xc0029e52	-2.040913
14	0xbff9fdad	-1.9530541
15	0xbfe0b391	-1.7554799
16	0xbfede2e6	-1.8584869
17	0x3d2a42d0	0.041567624
18	0xbff327a3	-1.8996471
19	0xbffe3eb6	-1.9862888
20	0xbffb85a8	-1.9650164
21	0xbff64b47	-1.9241723
22	0xc001f058	-2.0302944
23	0xbfd91fb7	-1.6962804
24	0x3e3f1df2	0.18663767
25	0xc00203bf	-2.0314786
26	0xbfd8776f	-1.6911448
27	0xc0102357	-2.252157
28	0xc0011d3e	-2.0174098
29	0xc00e6e2a	-2.2254739
30	0xc0035426	-2.052011
31	0x3d8bab08	0.06819731
32	0xc009fe85	-2.1561596
33	0xbffcd69e	-1.9752996
34	0xbffed37a	-1.9908288
35	0xc0065c58	-2.0993862
36	0xbff5ad5b	-1.9193529
37	0xbff8ce4e	-1.9437959
38	0x3dd6e7c2	0.10493423
39	0x3ee08408	0.43850732
40	0x3d531d92	0.051541872
41	0x3ed4b331	0.41542962
42	0x3da89834	0.082321554
43	0x3c8b1f5b	0.016982725
44	0xbe61b200	-0.22040558
45	0x3dfd0d9a	0.1235611
46	0x3e71b0a1	0.23602535
47	0x3e5e415e	0.21704623
48	0xbe872c2b	-0.26400885
49	0xbe9b7b63	-0.30367574
50	0xbe41750e	-0.18892309
51	0x3e98a85c	0.29815948
52	0xbe660855	-0.22464116
53	0xbcd83253	-0.026391184
54	0x3e6474f7	0.22310244
55	0x3e10f7e9	0.1415707
56	0xbeff8bcd	-0.49911347
57	0xbe9bca61	-0.3042784
58	0x3e97f01c	0.29675376
59	0xbcca9338	-0.024728402
60	0xbe4c87e7	-0.19973718
61	0xbdc2d8c2	-0.095139995
62	0x3e54deba	0.20788088
63	0xbe39c231	-0.18140484
64	0x3f143bd0	0.57903767
65	0xbdb1212d	-0.08648906
66	0xbee8063b	-0.45317253
67	0x3d8423d9	0.0645215
68	0x3e36c29f	0.1784768
69	0x3d769fac	0.06021087
70	0x3f044251	0.5166369
71	0x3f605d05	0.87641937
72	0xbd7e0ba1	-0.06202281
73	0xbfde2d4b	-1.7357572
74	0xbfed98a9	-1.8562213
75	0xbfe3c740	-1.7795181
76	0xbfe75057	-1.8071393
77	0xbff9de64	-1.9520993
78	0xbfef9f85	-1.8720556
79	0xbd3add9f	-0.04562151
80	0xbfc9062e	-1.5705011
81	0xbff0264c	-1.8761687
82	0xbff51553	-1.9147133
83	0xbfe9479a	-1.8224976
84	0xbff4a181	-1.9111787
85	0xbfcae788	-1.5851908
86	0x3ce97a84	0.028500803
87	0xbfded688	-1.740922
88	0xbfebfa4b	-1.8435758
89	0xbfc3610a	-1.5263989
90	0xc0002996	-2.0025382
91	0xbfdd6ec4	-1.7299428
92	0xbfcbfdd8	-1.5936842
93	0xbc1b262f	-0.009469553
94	0xbfd3007e	-1.6484525
95	0xbfc2a61c	-1.5206943
96	0xbfdc773b	-1.7223886
97	0xc00323cd	-2.04906
98	0xbfefb0e7	-1.8725861
99	0xbfe5b78a	-1.7946637
100	0xbe6799ee	-0.22617313
101	0xbfe889a1	-1.8167001
102	0xbfde290b	-1.7356275
103	0xbff1fd32	-1.8905394
104	0xbfd8a734	-1.6926026
105	0xbfe6c78a	-1.8029644
106	0xbfda7d21	-1.7069436
107	0x3eae604f	0.34057853
108	0xbe903344	-0.28164113
109	0x3e29e1ea	0.16590086
110	0xbe13e256	-0.14441809
111	0xbdd206d2	-0.10255207
112	0xbe292276	-0.16517052
113	0xbdf2b3bb	-0.11850687
114	0x3dfa96c3	0.12235787
115	0x3da0f097	0.07858389
116	0xbe8c1f5c	-0.27367675
117	0xbd54216f	-0.051789697
118	0x3d9fb4ac	0.07798132
119	0xbe5f8b78	-0.21830547
120	0xbea0f31b	-0.31435475
121	0xbe312f31	-0.17303158
122	0x3c03c7f3	0.008043277
123	0x3e03c13b	0.1286668
124	0xbe8df86d	-0.27728596
125	0x3bb3545e	0.005472704
126	0x3e5c4f20	0.21514559
127	0x3d823c44	0.06359151
128	0x3e4f5937	0.20248877
129	0x3e823ac5	0.25435463
130	0x3ef747bf	0.48296925
131	0x3e319c67	0.17344819
132	0xbc6d8b99	-0.014498615
133	0x3dfed61b	0.12443181
134	0xbeab0328	-0.33400846
135	0xbe8a607d	-0.2702674
136	0xbd99f573	-0.07517519
137	0x3d97967c	0.074017495
138	0xbe9ace38	-0.30235457
139	0x3e830f57	0.2559764
140	0x3db32668	0.0874756
141	0x3d47628c	0.048677966
142	0xbfb56b0e	-1.4173295
143	0xbfc9f631	-1.5778257
144	0xbfa14b05	-1.2601019
145	0xbfb3c6ce	-1.4045045
146	0xbf977c2e	-1.1834772
147	0xbfaa7d44	-1.3319478
148	0xbe56addc	-0.2096476
149	0xbfb71f04	-1.430634
150	0xbfa7c4aa	-1.3106892
151	0xbf9fdb3a	-1.2488778
152	0xbfb2b7ed	-1.396238
153	0xbf9eec01	-1.2415773
154	0xbfa5309a	-1.2905457
155	0xbe61ecc2	-0.22062972
156	0xbfaa4b93	-1.3304313
157	0xbfa33258	-1.2749739
158	0xbfac6c8b	-1.3470625
159	0xbf9eebd0	-1.2415714
160	0xbf960114	-1.1719079
161	0xbfb659a7	-1.424611
162	0x3d94c5f3	0.07264318
163	0xbfa3b5ff	-1.2789916
164	0xbfa308f9	-1.2737113
165	0xbf9e320e	-1.2359025
166	0xbfa41a2a	-1.2820485
167	0xbfca7740	-1.5817642
168	0xbfa990ab	-1.3247274
169	0xbc3c3db4	-0.011489321
170	0xbfb43921	-1.4079934
171	0xbfbf1410	-1.4927998
172	0xbfa1a631	-1.2628843
173	0xbf9ca0b1	-1.2236539
174	0xbf98826f	-1.1914805
175	0xbfaa198d	-1.3289047
176	0xbe6f6033	-0.23376541
177	0x3edabed5	0.42723718
178	0xbd34125a	-0.043962814
179	0xbe352bd6	-0.17692503
180	0xbef6e25d	-0.48219576
181	0x3e691241	0.2276087
182	0xbd0ba320	-0.034091115
183	0xbe36b26e	-0.17841503
184	0xbea22552	-0.31669098
185	0xbe5ab00c	-0.21356219
186	0x3ed70d1d	0.42002192
187	0xbe42ae78	-0.19011867
188	0x3e9ad71a	0.30242234
189	0xbd9585e4	-0.07300928
190	0x3d496210	0.049165785
191	0x3cdc9217	0.02692513
192	0x3dc2282b	0.09480318
193	0x3e99536c	0.29946458
194	0xbea94f8f	-0.3306851
195	0x3dfbb607	0.12290578
196	0xbeb323f2	-0.34988362
197	0x3f455572	0.77083504
198	0xbedfc6ae	-0.43706268
199	0xbdeca305	-0.11554531
200	0xbd1867a9	-0.037208233
201	0x3c950d01	0.018194677
202	0x3cfd2c86	0.03090502
203	0xbe10b547	-0.14131652
204	0xbd5b29c3	-0.053506624
205	0x3f01d543	0.50716037
206	0x3d90c762	0.07069279
207	0xbdef6a68	-0.11690217
208	0x3ceea375	0.029130677
209	0xbdf9ed5f	-0.12203478
210	0xbd9b1b9d	-0.07573626
211	0xbfaef8c0	-1.3669662
212	0xbfca396c	-1.5798774
213	0xbfc5b189	-1.5444804
214	0xbfc4463b	-1.5333933
215	0xbfb23ff8	-1.3925772
216	0xbfaad904	-1.3347478
217	0xbdff07c1	-0.12452651
218	0xbfa42d5d	-1.2826344
219	0xbfd3820d	-1.6524063
220	0xbfa72000	-1.3056641
221	0xbfd4313c	-1.6577525
222	0xbfb68230	-1.425848
223	0xbfb8d245	-1.4439169
224	0xbe0cf440	-0.13765049
225	0xbfb0f19b	-1.3823732
226	0xbfa731cd	-1.3062073
227	0xbfae7a96	-1.363116
228	0xbfcde289	-1.6084758
229	0xbfb5fe75	-1.4218279
230	0xbfd16583	-1.6359104
231	0xbe69d2a2	-0.22834256
232	0xbfca11e8	-1.5786715
233	0xbfbbfef0	-1.4687176
234	0xbfb19d7d	-1.3876187
235	0xbfab7278	-1.3394308
236	0xbfba362f	-1.4547786
237	0xbfa59a98	-1.2937803
238	0x3babc4e4	0.005241977
239	0xbfa72f76	-1.3061359
240	0xbfbc00e8	-1.4687777
241	0xbfdc138a	-1.7193463
242	0xbfc41ed4	-1.5321908
243	0xbfa885eb	-1.3165869
244	0xbfb21f36	-1.3915775
245	0xbe1419e6	-0.14463004
246	0xbe73eee3	-0.23821597
247	0xbe96b05b	-0.29431424
248	0x3d445e35	0.047941405
249	0xbe837527	-0.25675318
250	0x3dc95ac4	0.09831765
251	0x3f08f123	0.53492945
252	0xbe5370ed	-0.20648547
253	0x3ed96ad4	0.42464316
254	0x3ed0ac93	0.40756664
255	0x3e3499e2	0.17636827

network_body._body_endoder.seq_layers.2.bias f4 [256]
0	0xbf48edba	-0.7848774
1	0xbf447962	-0.76747715
2	0xbf239ad2	-0.6390811
3	0xbf262b3c	-0.6490972
4	0xbf1f0578	-0.6211772
5	0xbf33fca2	-0.7030736
6	0xbf265017	-0.6496596
7	0xbf239315	-0.63896304
8	0xbf155035	-0.5832551
9	0xbf132427	-0.5747704
10	0xbf36601e	-0.71240413
11	0xbf04c8fd	-0.51869184
12	0xbf33f0cd	-0.7028931
13	0xbf624389	-0.883843
14	0xbf4935a2	-0.7859746
15	0xbf1accfb	-0.60469025
16	0xbf3f5d3e	-0.7475165
17	0xbf5d9622	-0.8655721
18	0xbf108e59	-0.56467205
19	0xbf7ebaed	-0.99503976
20	0xbf32cbd7	-0.69842285
21	0xbf41a7f3	-0.75646895
22	0xbf4a8658	-0.7911124
23	0xbf6bdc85	-0.9213336
24	0xbf48ebff	-0.784851
25	0xbf4e8043	-0.8066446
26	0xbf442238	-0.76614714
27	0xbf65a7c0	-0.8970909
28	0xbf515c95	-0.81781894
29	0xbf0d85ae	-0.55282104
30	0xbf381392	-0.7190486
31	0xbf4264c4	-0.75935006
32	0xbefdfbc5	-0.49606147
33	0xbf1c8229	-0.6113611
34	0xbf02e500	-0.51130676
35	0xbeefdca5	-0.46848026
36	0xbf3b318e	-0.7312249
37	0xbef4648e	-0.47732967
38	0xbf3533fe	-0.7078246
39	0xbf71a4d8	-0.94392157
40	0xbf018135	-0.5058778
41	0xbf69f115	-0.91383487
42	0xbf7eb25b	-0.994909
43	0xbf2c7e76	-0.67380464
44	0xbf36054d	-0.7110184
45	0xbebb188b	-0.36542162
46	0xbeae770b	-0.34075198
47	0xbf59f2d0	-0.8513613
48	0xbf296cbc	-0.6618154
49	0xbf3e18cb	-0.7425658
50	0xbf5684c5	-0.8379634
51	0xbf3ef2f0	-0.74589443
52	0xbf522be2	-0.8209821
53	0xbf3cc97c	-0.7374494
54	0xbf29a340	-0.66264725
55	0xbf2e8538	-0.68172026
56	0xbf3ddeb5	-0.7416795
57	0xbf65feb5	-0.8984178
58	0xbf556913	-0.83363456
59	0xbf0ce633	-0.55038756
60	0xbf7e52fe	-0.99345386
61	0xbf7ad000	-0.9797363
62	0xbf6f8c39	-0.9357334
63	0xbf5b940d	-0.8577278
64	0xbf12c182	-0.5732652
65	0xbf7f09f2	-0.9962455
66	0xbf0342b0	-0.5127363
67	0xbf0a97b2	-0.5413772
68	0xbf819c20	-1.012577
69	0xbf3fb54b	-0.74886006
70	0xbf5d50d1	-0.8645144
71	0xbf44e1cb	-0.7690703
72	0xbf567827	-0.8377709
73	0xbf38b5bc	-0.72152305
74	0xbf5eecbd	-0.87079984
75	0xbf243596	-0.64144266
76	0xbf728126	-0.94728315
77	0xbf626045	-0.88428146
78	0xbf1a96ca	-0.60386336
79	0xbf960cf0	-1.1722698
80	0xbf3607c0	-0.71105576
81	0xbf646a1e	-0.8922442
82	0x3e6b0055	0.22949345
83	0xbf3e37f2	-0.74304116
84	0xbf071ca6	-0.5277809
85	0xbf34a40e	-0.7056283
86	0xbf5dc534	-0.86629033
87	0xbf175f27	-0.59129566
88	0xbf438e9b	-0.76389474
89	0xbf36c864	-0.7139952
90	0xbf2cbd3d	-0.67476255
91	0xbf157960	-0.5838833
92	0xbf71dc2b	-0.94476575
93	0xbf3dd6ff	-0.74156183
94	0xbf2a0c8c	-0.66425395
95	0xbf7947c6	-0.9737514
96	0xbf6d08e1	-0.92591673
97	0xbec2a7b0	-0.3801856
98	0xbf6c4ea3	-0.9230749
99	0xbf35a0f1	-0.709487
100	0xbf8184b7	-1.0118626
101	0xbf3e09c6	-0.74233663
102	0xbf5dd82c	-0.8665798
103	0xbf1fe027	-0.62451404
104	0xbf221e23	-0.63327235
105	0xbf874326	-1.0567367
106	0xbf2e289d	-0.6803072
107	0xbf5cda81	-0.8627091
108	0xbedb5f6f	-0.42846248
109	0xbf8ba8a1	-1.0910836
110	0xbebcc414	-0.36868346
111	0xbf1d92bf	-0.6155204
112	0xbf4501e2	-0.76956
113	0xbf5326ef	-0.8248128
114	0xbf4bdda6	-0.79635084
115	0xbf40bf1d	-0.75291616
116	0xbf53c6a8	-0.82725
117	0xbf3b35df	-0.73129076
118	0xbf489cb7	-0.7836413
119	0xbf83d82f	-1.0300349
120	0xbf632c93	-0.8873989
121	0xbf30558c	-0.68880534
122	0xbf24606f	-0.64209646
123	0xbf23fe76	-0.6406015
124	0xbf8f49d2	-1.1194403
125	0xbf7c8b62	-0.9865018
126	0xbf5159e7	-0.81777805
127	0xbf3b39a0	-0.73134804
128	0xbecbfbde	-0.39840597
129	0xbf10c46f	-0.56549734
130	0xbf3ebba9	-0.74505097
131	0xbf027344	-0.5095713
132	0xbf79c6f5	-0.9756921
133	0xbf699f40	-0.9125862
134	0xbf307799	-0.6893249
135	0xbf33f72d	-0.70299035
136	0xbf1f0f53	-0.6213276
137	0xbf3ebf38	-0.74510527
138	0xbeef5b86	-0.46749514
139	0xbf7d9b95	-0.99065524
140	0xbf82140b	-1.0162367
141	0xbf56cc04	-0.83905053
142	0xbf0a2eaf	-0.53977484
143	0xbf46eed6	-0.77708185
144	0xbf1c3855	-0.61023456
145	0xbf539589	-0.8265005
146	0xbf26379e	-0.64928615
147	0xbf246e27	-0.6423058
148	0xbf4ff163	-0.812277
149	0xbf491bc3	-0.78557986
150	0xbf668932	-0.90053093
151	0xbf3f1a7b	-0.7464978
152	0x3f248f07	0.6428074
153	0xbf3587e0	-0.70910454
154	0xbf7ad563	-0.9798185
155	0xbf7b035c	-0.98052
156	0xbf32bb68	-0.6981721
157	0xbf74c84e	-0.9561814
158	0xbf50dab0	-0.8158369
159	0xbf5970c0	-0.8493767
160	0xbef8d95c	-0.48603332
161	0xbf1c280d	-0.6099861
162	0xbf69de3c	-0.9135473
163	0x3c029bb6	0.007971695
164	0x3f926b8a	1.1439068
165	0xbf45100a	-0.769776
166	0xbf7cc9c1	-0.9874535
167	0xbf0287d1	-0.5098849
168	0xbf22232a	-0.63334906
169	0xbeff82b3	-0.49904403
170	0xbef54ddd	-0.47910967
171	0xbf52127c	-0.82059455
172	0xbf19a0fd	-0.60011274
173	0xbf2540f4	-0.64552236
174	0xbf4f2490	-0.80915165
175	0xbf23ded0	-0.6401186
176	0xbf29a7d1	-0.6627169
177	0xbee1de9c	-0.4411515
178	0xbf51180f	-0.81677336
179	0xbf55ad9a	-0.8346802
180	0xbf4a680d	-0.7906502
181	0xbf42b0a1	-0.76050764
182	0xbf568389	-0.83794457
183	0xbf8bf6be	-1.0934675
184	0xbf207416	-0.62677133
185	0xbf458377	-0.77153724
186	0xbed992d8	-0.42494845
187	0xbf3f5087	-0.7473225
188	0x3ea9e197	0.33179924
189	0xbf253e11	-0.6454783
190	0xbf201f36	-0.62547624
191	0xbf2ca2a5	-0.67435676
192	0xbf5e1430	-0.86749554
193	0xbf759cbf	-0.959423
194	0xbf2ea135	-0.6821473
195	0xbf4827d9	-0.781858
196	0xbf30f373	-0.69121474
197	0xbf2fe04f	-0.6870164
198	0xbcb1fb0f	-0.02172616
199	0xbf47d64e	-0.7806138
200	0xbf6b7f83	-0.9199144
201	0x3e2f25a0	0.17104197
202	0xbf55b257	-0.8347525
203	0xbf12c29e	-0.5732821
204	0xbf2785b3	-0.65438384
205	0xbf5f5062	-0.8723203
206	0xbf6280e7	-0.8847794
207	0xbf4037e7	-0.750853
208	0xbf4885fc	-0.78329444
209	0xbf1809c1	-0.59389883
210	0xbf28ffab	-0.6601512
211	0xbf380fd2	-0.7189914
212	0xbf198910	-0.59974766
213	0xbf2ffd18	-0.68745565
214	0xbf6288a0	-0.88489723
215	0xbf411146	-0.7541698
216	0xbf3d7c75	-0.7401803
217	0xbf3e820e	-0.744172
218	0xbebeb0e4	-0.37244332
219	0xbf2a49a4	-0.66518617
220	0xbf195d7c	-0.5990827
221	0xbf4a2e34	-0.7897675
222	0xbf1b07b3	-0.60558623
223	0xbf7e672d	-0.99376184
224	0xbeea84a1	-0.45804313
225	0xbf5115f3	-0.81674117
226	0xbf1c0fa3	-0.6096136
227	0xbf45aaa6	-0.77213514
228	0xbf41cada	-0.7570015
229	0xbf221a8c	-0.6332176
230	0xbf1b805c	-0.60742736
231	0xbf3cbc5d	-0.7372492
232	0xbf858e8f	-1.043413
233	0xbefe2f26	-0.49645346
234	0xbf461da8	-0.77389
235	0xbf3cee84	-0.73801446
236	0xbeff87fb	-0.49908432
237	0xbf6915ba	-0.9104878
238	0xbf34e83c	-0.7066686
239	0xbf0ab479	-0.5418163
240	0xbf22676f	-0.6343908
241	0xbf0889be	-0.5333518
242	0xbef5e742	-0.48027998
243	0xbf25c4f4	-0.6475365
244	0xbf59935b	-0.8499047
245	0xbf31ba53	-0.69424933
246	0xbf2e6c06	-0.6813358
247	0xbf0f167b	-0.5589368
248	0xbf57ecb2	-0.84345543
249	0xbf3c165e	-0.7347163
250	0xbed42ddd	-0.4144124
251	0xbf47b114	-0.78004575
252	0xbf67b8a5	-0.9051612
253	0xbf590bb6	-0.84783494
254	0xbf358f0e	-0.7092141
255	0xbf117cce	-0.5683106

network_body._body_endoder.seq_layers.2.weight f4 [256, 256]
0	0x3d898220	0.067142725
1	0x3e9f27e9	0.31085137
2	0xbeaf96e2	-0.34294802
3	0x3f0f3152	0.5593463
4	0x3e53550c	0.20637912
5	0x3e6905b0	0.22756076
6	0xbed85320	-0.4225092
7	0xbe95dee7	-0.29271623
8	0x3ca9b46e	0.020715918
9	0xbec0aff3	-0.3763424
10	0x3e1dd281	0.15412332
11	0x3cce8a0a	0.025212307
12	0xbe61c944	-0.22049433
13	0xbe15440e	-0.14576742
14	0x3e23bfa3	0.15991072
15	0xbe834289	-0.256367
16	0xbe91c6ac	-0.28471887
17	0xbebb80e9	-0.36621788
18	0x3e94ff05	0.29100814
19	0xbe2209d8	-0.15824068
20	0xbf39b0ab	-0.725352
21	0x3eaa8c32	0.33310086
22	0x3f2922fe	0.6606902
23	0xbe301ec8	-0.17199242
24	0x3e5b568d	0.21419735
25	0xbe952613	-0.2913061
26	0x3ed48995	0.41511217
27	0xbda2d23f	-0.079502575
28	0x3d8c7af4	0.06859389
29	0x3f1d009a	0.6132904
30	0x3f1dc9d4	0.6163609
31	0x3ea34f51	0.3189645
32	0x3da34392	0.079718724
33	0xbeae571a	-0.34050828
34	0x3e716206	0.23572549
35	0x3e7d15d0	0.24715352
36	0x3f24ed66	0.6442474
37	0x3e9a2d58	0.3011272
38	0x3d970e94	0.073758274
39	0xbec627aa	-0.38702136
40	0xbe76ab63	-0.24088816
41	0xbefdd23d	-0.49574462
42	0x3e92fc16	0.2870795
43	0x3eb5f827	0.35540888
44	0x3ea9e6d1	0.3318391
45	0x3f11a5c4	0.56893563
46	0xbd37894f	-0.044808682
47	0x3edc8d51	0.43076566
48	0x3f37d636	0.71811235
49	0x3e92f101	0.28699496
50	0x3eca0320	0.3945551
51	0x3e57f8b8	0.21090972
52	0x3f3b0aa6	0.73063123
53	0x3ea413d0	0.32046366
54	0xbedbc4bc	-0.42923534
55	0x3cf7f0e3	0.03026623
56	0xbe8b39e5	-0.27192608
57	0x3ef27369	0.47353676
58	0x3f11f847	0.57019466
59	0x3c84d28d	0.01621368
60	0x3af35192	0.0018563739
61	0x3c5cc9e8	0.013475873
62	0x3ecb9708	0.39763665
63	0x3e46c9bf	0.19412898
64	0x3f0f8147	0.56056637
65	0x3e96845c	0.29397857
66	0xbe3c0dc1	-0.18364622
67	0xbb9d7b52	-0.0048059607
68	0xbe27de23	-0.16393332
69	0xbdf4b28b	-0.11948117
70	0x3ec3a351	0.38210538
71	0x3f49933d	0.7874029
72	0x3e93e9f2	0.28889424
73	0x3ea9661d	0.3308572
74	0xbe7109c6	-0.23538885
75	0x3ebe8619	0.37211683
76	0x3ebf50c4	0.37366307
77	0xbdfde1bc	-0.12396571
78	0xbea02a0f	-0.31282088
79	0xbcfa6973	-0.03056786
80	0x3e829749	0.25506046
81	0x3e4fa529	0.20277847
82	0xbcbd948b	-0.02314212
83	0xbe9bcb9f	-0.30428788
84	0xbe25878e	-0.16164991
85	0x3eeb9f13	0.46019801
86	0x3e091ab1	0.13389088
87	0x3d7064b2	0.05868978
88	0x3dd803e5	0.10547618
89	0x3e0bdd9f	0.1365876
90	0x3d95690f	0.07295429
91	0xbe7455ba	-0.23860827
92	0x3e5a74b7	0.21333586
93	0x3f40c483	0.75299853
94	0x3df2e635	0.11860315
95	0x3f05e591	0.52303416
96	0xbebc4970	-0.36774778
97	0x3dace137	0.08441394
98	0x3e670859	0.22561778
99	0x3f1a1f5a	0.6020409
100	0xbe20958b	-0.15682046
101	0xbe77f028	-0.24212706
102	0x3f08744a	0.53302443
103	0xbeff0e25	-0.4981548
104	0x3e23a7b1	0.15981938
105	0x3e8c8c69	0.27450874
106	0x3f0564c0	0.5210686
107	0x3dafbc71	0.08580864
108	0x3ecc620b	0.3991855
109	0xbee631ab	-0.4495977
110	0xbe3ef6b0	-0.18648791
111	0x3e303727	0.17208539
112	0xbc8c9b66	-0.017163943
113	0x3f1de4dd	0.6167734
114	0xbf197915	-0.5995038
115	0x3f1069a1	0.56411177
116	0x3f1781f8	0.5918269
117	0x3e8868f0	0.2664256
118	0xbe044973	-0.12918644
119	0x3e843186	0.25819033
120	0xbe82d517	-0.255532
121	0x3e52e59a	0.20595399
122	0x3e8a2ee9	0.26988915
123	0x3d74fa8e	0.05980926
124	0xbec65ada	-0.3874119
125	0x3f385565	0.720053
126	0x3ef0e60c	0.47050512
127	0xbefaf2da	-0.49013406
128	0xbf4dace9	-0.80341965
129	0xbec105a3	-0.37699613
130	0x3e95a5cc	0.29228055
131	0xbe2295eb	-0.15877502
132	0xbeb1652c	-0.346475
133	0x3e86a677	0.26298878
134	0x3bb2691c	0.005444659
135	0x3d732083	0.059357177
136	0xbe92034c	-0.2851814
137	0xbe275ec5	-0.16344745
138	0xbd5e26a2	-0.054236062
139	0x3dfe1745	0.12406782
140	0xbe400d8a	-0.18755165
141	0xbcdafbba	-0.02673136
142	0xbdbd49ca	-0.0924259
143	0x3b85e9ad	0.004086694
144	0xbe336942	-0.17520621
145	0xbed28064	-0.4111358
146	0x3e4baff2	0.19891337
147	0xbdb233aa	-0.087012604
148	0x3efb848e	0.4912457
149	0xbe723c52	-0.23655823
150	0x3f085ac1	0.5326348
151	0xbe95b139	-0.29236773
152	0x3eaae732	0.33379513
153	0x3e2b0109	0.16699614
154	0xbe8e6b2c	-0.2781614
155	0xbf1d7528	-0.6150689
156	0xbd67e1c8	-0.056611806
157	0xbea4a98e	-0.3216061
158	0x3ebfdc24	0.3747264
159	0x3f2c51f8	0.67312574
160	0xbc8e31a8	-0.017357662
161	0x3e1e6850	0.1546948
162	0x3ede65f2	0.43437153
163	0xbe58e0d3	-0.21179514
164	0x3dab60ac	0.08368048
165	0x3e26cfb0	0.16290164
166	0x3d5c61c2	0.053804167
167	0xbe4dddb6	-0.20104107
168	0x3ead4b6d	0.33846608
169	0xbeaecef2	-0.34142262
170	0xbd2c56a6	-0.042074822
171	0x3e1fdebd	0.15612312
172	0xbda857a7	-0.08219843
173	0xbd6677c9	-0.05626658
174	0x3ea4836e	0.32131523
175	0xbde09530	-0.10965955
176	0x3f0c47e1	0.5479718
177	0xbe3bb4b1	-0.18330647
178	0x3e897190	0.26844454
179	0x3d840186	0.06445603
180	0x3e840e49	0.2579215
181	0x3eccf481	0.40030292
182	0xbf1a8ea5	-0.6037391
183	0x3ee6ae88	0.45055032
184	0xbebcc934	-0.36872256
185	0x3e697514	0.22798568
186	0x3d7d3a1f	0.061823007
187	0xbe00ba68	-0.12571108
188	0x3ebca0a7	0.36841318
189	0x3ef7197d	0.48261634
190	0x3f2c04f8	0.6719508
191	0xbd902859	-0.07038946
192	0x3e069006	0.13140878
193	0xbd083614	-0.033254698
194	0x3e976b48	0.29574037
195	0xbf27ecfb	-0.6559598
196	0x3ee77359	0.4520519
197	0x3d88f948	0.066881716
198	0x3e39bc81	0.18138315
199	0x3e882eac	0.26598108
200	0x3f17ce02	0.5929872
201	0x3e839543	0.25699815
202	0x3e1384c3	0.14406113
203	0x3d1a867e	0.037725918
204	0xbe10ed0c	-0.14152926
205	0xbdd2ab44	-0.102865726
206	0x3e8af04c	0.27136457
207	0xbe66f04a	-0.225526
208	0x3e916961	0.2840071
209	0xbdfeea00	-0.12446976
210	0xbe8c0a1a	-0.27351457
211	0xbe23ff6c	-0.16015404
212	0xbe8ad873	-0.27118263
213	0x3d532602	0.05154992
214	0x3d8ac840	0.06776476
215	0x3d965807	0.07341009
216	0xbe169c0a	-0.14707962
217	0x3d6c5419	0.05769739
218	0xbe35ff20	-0.17773104
219	0xbf2dcedc	-0.6789377
220	0x3eeade37	0.4587266
221	0xbe86f98e	-0.2636227
222	0x3da82e55	0.08211962
223	0xbf0d706e	-0.5524968
224	0xbe84dd63	-0.25950155
225	0x3e8e6aa5	0.27815738
226	0xbf1f532b	-0.6223628
227	0x3cee4c03	0.02908898
228	0x3d82bae4	0.06383303
229	0xbefa0f54	-0.4883982
230	0x3d9395bd	0.07206295
231	0xbecc7f11	-0.39940694
232	0xbe1ee452	-0.15516785
233	0x3d737649	0.059438977
234	0xbc66c528	-0.014085092
235	0x3e8f6c3d	0.28012267
236	0xbe3a3183	-0.1818295
237	0x3eb239f0	0.34809828
238	0xbcbec73c	-0.023288362
239	0x3ec4f617	0.38469002
240	0xbf0106b8	-0.50400877
241	0x3f141627	0.578463
242	0x3e2ccad0	0.16874242
243	0x3ebfa61a	0.37431413
244	0x3dd9ceab	0.10635122
245	0xbe90eb9a	-0.2830475
246	0x3d3d3442	0.046192415
247	0x3f1af8c1	0.6053582
248	0x3e242833	0.1603096
249	0xbe05d45c	-0.1306929
250	0xbd4872b2	-0.048937507
251	0x3e14ab8e	0.14518568
252	0xbe500182	-0.20313075
253	0x3d1a3223	0.03764547
254	0x3ee04c67	0.4380829
255	0x3ee4dc4b	0.4469932
