results/NEWRun9/TrucksBehavior.onnx (onnx, 621598 bytes, 15 tensors)

86 f4 [69]
1.5665535 1.6132598 1.6373402 0.0011527342 0.26842275 0.5619865 0.63241905 0.33485043
0.19275577 0.26842275 0.0011527342 0.5260717 0.49812144 0.5950315 0.30884847 0.5619865
0.5260717 0.0011527342 0.21519653 0.6671842 0.37786224 0.63241905 0.49812144 0.21519653
0.0011527342 0.8200187 0.48375204 0.33485043 0.5950315 0.6671842 0.8200187 0.0011527342
0.35196334 0.19275577 0.30884847 0.37786224 0.48375204 0.35196334 0.0011527342 1.2956618
1.3735558 1.3077912 1.4131334 1.317673 1.4358671 1.3234258 1.4558902 1.3327991
1.4642043 1.341112 1.4713213 1.3516732 1.4739475 1.361365 1.476866 1.370887
1.4783025 1.3806915 1.4827164 1.3896376 1.4836228 1.3985304 1.4846911 1.407674
1.4865695 1.4167886 1.4891515 1.4246676 1.493504
00000000: d384 c83f 4c7f ce3f 5d94 d13f 5717 973a
00000010: b56e 893e 59de 0f3f 37e6 213f 8471 ab3e
00000020: c561 453e b56e 893e 5717 973a a3ac 063f
00000030: c609 ff3e fc53 183f 6321 9e3e 59de 0f3f
00000040: a3ac 063f 5717 973a 7b5c 5c3e 95cc 2a3f
00000050: 2977 c13e 37e6 213f c609 ff3e 7b5c 5c3e
00000060: 5717 973a bfec 513f 59ae f73e 8471 ab3e
00000070: fc53 183f 95cc 2a3f bfec 513f 5717 973a
00000080: 8a34 b43e c561 453e 6321 9e3e 2977 c13e
00000090: 59ae f73e 8a34 b43e 5717 973a 3fd8 a53f
000000a0: add0 af3f b465 a73f 8ee1 b43f 82a9 a83f
000000b0: 7eca b73f 0466 a93f 9c5a ba3f 2999 aa3f
000000c0: 0c6b bb3f 8fa9 ab3f 4254 bc3f a103 ad3f
000000d0: 50aa bc3f 3541 ae3f f209 bd3f 3a79 af3f
000000e0: 0439 bd3f 80ba b03f a7c9 bd3f a5df b13f
000000f0: 5ae7 bd3f 0b03 b33f 5c0a be3f a92e b43f
00000100: e947 be3f 5459 b53f 849c be3f 825b b63f
00000110: 242b bf3f

action_model._discrete_distribution.branches.0.bias f4 [6]
1.6781348 0.0877045 -0.48443705 0.26920247 0.07132932 -2.5829983
00000000: 1fcd d63f 6b9e b33d 2208 f8be e8d4 893e
00000010: 1b15 923d d84f 25c0

action_model._discrete_distribution.branches.0.weight f4 [6, 256]
0.03895041 0.65426356 1.4342879 0.20609827 0.048245024 0.25338122 -0.041795008 0.025272116
0.067162275 0.09738875 -0.040431485 0.049944777 -0.041402563 -0.0769722 -0.16353329 0.024789194
-0.016831413 -0.0047325157 0.15799543 -0.010677579 0.6503483 -0.5883295 0.05229831 0.0042086155
-0.19645493 -0.019880775 0.031610023 0.049110536 -0.031440195 0.63583535 0.005006096 0.030247038
-0.045870747 0.82479227 -0.0019567332 0.352346 1.5662556 0.23213075 0.09136211 0.13191462
-0.05709836 -0.020502012 0.09147113 -0.25151572 -0.03210376 -0.023052067 0.28803253 0.15717408
-0.03151365 1.5222956 -0.047469195 -0.023413895 -0.022953067 0.3019821 0.13394876 0.20814422
0.06710547 -0.06265027 0.103552826 0.25215143 0.16685075 0.053244915 0.13889362 0.023237074
0.39757735 -0.010711321 0.09983811 -0.0033380906 -0.053106602 -0.006328248 0.108539365 -0.006665548
0.07972656 0.04073492 0.30580685 -0.07276339 -0.0070913467 0.01841644 -0.080866486 -0.069755234
-0.1829581 -0.083419666 -0.018069651 0.16070959 0.116172485 0.0853054 0.13172533 0.25702327
-0.21257824 0.04405986 0.055372547 0.05854938 0.18810956 -0.1738019 0.041958496 -0.032222394
-0.16840403 -0.90981084 0.003930316 0.21791938 0.10175629 0.1448276 -0.027162936 0.21915153
0.19738062 0.5218571 -0.17015648 -0.036976233 0.021470983 -0.026370129 0.069091864 0.02697167
0.3363931 0.2301343 -0.25085583 -0.036866024 0.0371518 0.068567365 -0.023097165 -0.037381094
0.01024149 0.09891466 0.07543536 0.013052415 -0.036619402 0.008325161 -0.06658008 0.07415718
0.097654596 0.2308793 0.12233095 0.13616797 0.09496202 -0.014732321 -0.021450596 0.23406647
0.090950064 0.16391715 0.23560268 0.40950766 -0.0733765 0.3030464 -0.2655873 0.038206536
-0.0113603 -0.033249486 0.09950535 0.009192211 0.09099912 -0.09466839 -0.14898705 0.13199596
0.16863254 0.095473036 0.18122675 0.05012924 -0.11907888 0.0004613612 0.03295078 0.08839624
0.09639362 0.13737829 0.04850585 0.09223942 0.3139707 -0.2152571 0.094458625 0.027556831
0.14486572 0.1469642 0.19077073 0.29378268 0.16231075 0.01433769 -0.14514692 0.24109621
0.1003531 -0.046918597 0.12171848 0.15748829 -0.07457897 0.13318364 0.5604435 -0.027962204
0.0480516 0.13193087 0.049281217 -0.10634995 0.0565511 0.17904973 0.07222717 0.05943415
0.3197399 -0.030814234 0.37940082 -0.026673561 0.013145491 0.13774021 0.075914904 0.5328829
-0.0029034258 -0.04938216 0.3011129 -0.07429396 -0.030678093 0.23876199 0.042025823 -0.066168986
0.41896495 -0.06447752 0.13705294 0.06401309 -0.1395359 -0.13764255 -0.119500205 0.017154278
-0.062842205 0.2475818 0.0056637954 1.3726392 0.5088585 0.073109634 0.21496527 -0.14836182
0.0701732 0.13785337 -0.1280834 0.10893317 -0.004850359 -0.09259942 0.14507774 0.09711073
0.009415536 -0.014977204 -0.05615198 0.10974855 -0.04812081 0.14161539 0.024313955 0.56831586
0.13742003 0.06979748 -0.066205874 -0.008947302 0.08041771 0.1476075 0.16938376 0.22327037
-0.8286182 -0.03265066 0.46601248 0.08096475 0.09767701 0.13938425 0.23754202 -0.109440155
00000000: 778a 1f3d d17d 273f bf96 b73f 6d0b 533e
00000010: 939c 453d 2fbb 813e 3e31 2bbd 7807 cf3c
00000020: 608c 893d c173 c73d 7c9b 25bd e592 4c3d
00000030: bc95 29bd 9aa3 9dbd 4575 27be b512 cb3c
00000040: 08e2 89bc 3813 9bbb 8ec9 213e 03f1 2ebc
00000050: 3a7d 263f c39c 16bf c136 563d 6de8 893b
00000060: 7b2b 49be 02dd a2bc 8379 013d 2128 493d
00000070: 6fc7 00bd 1bc6 223f 2d0a a43b a3c8 f73c
00000080: f7e2 3bbd 9625 533f 893c 00bb b266 b43e
00000090: 107b c83f afb3 6d3e 0f1c bb3d a014 073e
000000a0: f8df 69bd d6f3 a7bc 3755 bb3d abc6 80be
000000b0: 3b7f 03bd b0d7 bcbc 0079 933e 3ef2 203e
000000c0: 7514 01bd 95da c23f 0f6f 42bd 7fce bfbc
000000d0: 1208 bcbc 669d 9a3e dd29 093e c223 553e
000000e0: 986e 893d c94e 80bd 8113 d43d fe19 813e
000000f0: ecda 2a3e 5717 5a3d 213a 0e3e ad5b be3c
00000100: 428f cb3e 897e 2fbc ec77 cc3d dec3 5abb
00000110: 4f86 59bd 315d cfbb e349 de3d ab6a dabb
00000120: ae47 a33d a9d9 263d b792 9c3e f904 95bd
00000130: 875e e8bb 13de 963c 549d a5bd d5db 8ebd
00000140: 5e59 3bbe eed7 aabd ce06 94bc 0e91 243e
00000150: d7eb ed3d 99b4 ae3d 01e3 063e 8e98 833e
00000160: 1cae 59be 1d78 343d 53ce 623d 7ad1 6f3d
00000170: cb9f 403e 20f9 31be acdc 2b3d a1fb 03bd
00000180: 1b72 2cbe 5de9 68bf e1c9 803b 4226 5f3e
00000190: 9a65 d03d b04d 143e ce84 debc 4269 603e
000001a0: 251e 4a3e 6d98 053f 803d 2ebe 6474 17bd
000001b0: eae3 af3c 2b06 d8bc 0980 8d3d b1f3 dc3c
000001c0: b73b ac3e 53a8 6b3e 2d70 80be d400 17bd
000001d0: 7c2c 183d 0c6d 8c3d 4436 bdbc eb1c 19bd
000001e0: eccb 273c c593 ca3d db7d 9a3d ccd9 553c
000001f0: 3afe 15bd 4266 083c 235b 88bd b8df 973d
00000200: 22ff c73d a06b 6c3e a688 fa3d 9e6f 0b3e
00000210: 737b c23d d55f 71bc 29b9 afbc 1faf 6f3e
00000220: 0744 ba3d e6d9 273e d441 713e fdaa d13e
00000230: 6b46 96bd e628 9b3e 0ffb 87be 757e 1c3d
00000240: 8d20 3abc 9d30 08bd 76c9 cb3d ed9a 163c
00000250: bf5d ba3d 80e1 c1bd 1090 18be f329 073e
00000260: 02ae 2c3e 5e87 c33d 8193 393e 5154 4d3d
00000270: a1df f3bd dae2 f139 66f7 063d 1609 b53d
00000280: 056a c53d e5ac 0c3e 12ae 463d 05e8 bc3d
00000290: c5c0 a03e 5b6c 5cbe 8673 c13d ddbe e13c
000002a0: ae57 143e c97d 163e 6759 433e af6a 963e
000002b0: ca34 263e a1e8 6a3c 65a1 14be ede1 763e
000002c0: ed85 cd3d b72d 40bd 8a47 f93d 9c44 213e
000002d0: dcbc 98bd 4b61 083e 3a79 0f3f fe10 e5bc
000002e0: c1d1 443d e318 073e 1adb 493d 01ce d9bd
000002f0: 20a2 673d d058 373e d7eb 933d 3971 733d
00000300: f3b4 a33e 226e fcbc d340 c23e 8382 dabc
00000310: 2f60 573c c50b 0d3e 4679 9b3d 046b 083f
00000320: 6747 3ebb f344 4abd 782b 9a3e 6f27 98bd
00000330: a050 fbbc 067e 743e 4523 2c3d 9b83 87bd
00000340: 9382 d63e ca0c 84bd 9b57 0c3e 4c19 833d
00000350: 80e2 0ebe 2bf2 0cbe 86bc f4bd 2187 8c3c
00000360: 6ab3 80bd 1586 7d3e 5c97 b93b a4b2 af3f
00000370: 8d44 023f 81ba 953d db1f 5c3e 29ec 17be
00000380: f7b6 8f3d 6f29 0d3e 4b28 03be 5b18 df3d
00000390: c3ef 9ebb c4a4 bdbd 428f 143e fee1 c63d
000003a0: 9f43 1a3c f262 75bc 9eff 65bd d9c3 e03d
000003b0: 541a 45bd a003 113e 0f2e c73c 267d 113f
000003c0: d6b7 0c3e fbf1 8e3d f296 87bd b497 12bc
000003d0: 0ab2 a43d 6c26 173e f072 2d3e fda0 643e
000003e0: 5320 54bf b3bc 05bd 3099 ee3e d9d0 a53d
000003f0: e20a c83d bfba 0e3e 373e 733e 2922 e0bd

action_model._discrete_distribution.branches.1.bias f4 [6]
1.3458887 -0.04114132 -0.21631287 0.34014204 0.23169538 -2.627579
00000000: 1546 ac3f cd83 28bd 1f81 5dbe 1927 ae3e
00000010: 8e41 6d3e 412a 28c0

action_model._discrete_distribution.branches.1.weight f4 [6, 256]
-0.08360499 0.711693 0.31247255 -0.16873306 -0.04570404 0.1002674 -0.1631456 -0.05066019
-0.021014737 -0.1825834 -0.006559364 -0.0075626085 0.017505664 -0.1322248 -0.20561692 -0.0014995973
0.030993382 -0.16535924 -0.3027044 -0.031615004 0.5536026 0.056625765 0.11043431 0.010852138
-0.15518187 -0.080453105 0.007805661 -0.10188448 -0.029763458 0.3954239 -0.061942663 -0.008877282
-0.027689356 0.4458192 -0.0830748 -0.041366972 0.09796422 -0.06134767 0.15501544 0.21466927
0.07959435 0.14158109 -0.046038453 0.20086847 -0.04496607 -0.049588636 0.014208776 -0.09374231
-0.027449114 0.3418579 -0.049104754 -0.024204548 -0.23729753 0.3101532 0.28503248 0.1043871
0.010624025 0.042667508 -0.031199647 0.17019087 -0.052209508 0.1598258 0.28243947 0.5513973
-0.27177322 0.018525135 -0.092733875 -0.071879014 -0.12451518 -0.0032209763 0.117697194 -0.1254509
-0.018827198 -0.124013886 0.490522 -0.026631285 0.060223777 0.209318 0.14658827 -0.03393219
0.2542847 0.4343291 0.07615644 -0.2587678 -0.1429702 0.07516987 -0.116515994 0.033522837
0.08064435 -0.14290234 -0.03826622 -0.032974638 -0.003632513 -0.041479986 -0.093822055 0.17097785
-0.004398828 0.63290334 -0.0033744595 0.14392559 -0.0031472722 0.035237417 0.0028609175 0.22095253
0.066730455 0.4180385 -0.19669494 -0.06336133 0.24804527 0.03914935 -0.04219921 0.14034587
0.24773414 0.14008819 0.60673803 -0.029257243 0.032728005 0.18755844 -0.03165435 -0.0027317207
-0.033022262 0.24744956 -0.074273124 0.008815267 -0.05002716 -0.07939518 0.0066639488 0.46581125
0.29048982 -0.7038642 -0.01252042 -0.06361039 -0.25881055 -0.045555647 0.08015085 0.2650332
-0.0046901554 0.06510842 0.12582672 0.3918656 0.17912349 0.053781506 0.020031476 0.15669991
-0.10623347 -0.020642722 0.0979849 0.06652041 -0.29511172 -0.086516805 -0.05902258 0.12531671
0.65640664 -0.008761181 0.37258363 0.021597182 0.0076448745 0.115361266 -0.046909593 -0.33001956
-0.013374931 0.0012927791 0.050981067 0.028761066 0.5420337 0.31367192 -0.046838466 -0.047960643
0.42519242 0.18428624 -0.3972241 -0.0017510448 0.05624152 0.55934 -0.050154585 -0.23386721
0.061463434 0.10310989 -0.09330365 0.2764839 0.002215488 0.21258986 -0.516683 -0.060223386
-0.032709204 0.07569053 -0.06997369 0.0070124897 0.016096609 0.19967446 0.015129149 0.3327479
0.31899127 0.027170727 0.39592582 -0.050651684 0.013878084 -0.037997007 -0.013852913 0.46320462
-0.058786836 -0.06835829 -0.04185865 0.05866348 -0.0076417383 0.2672874 0.07819008 0.066814214
0.5790521 0.013911464 0.056069404 -0.07704996 -0.28480285 -0.2278515 -0.087642744 -0.054719932
0.23101057 -0.32367715 -0.043300685 1.0936639 -0.2766297 0.38698146 0.017774738 -0.33021286
0.043646477 -0.1650423 -0.02625649 0.3345973 0.29387406 -0.06506204 -0.1484338 0.08589457
0.10265474 0.08994599 -0.06007709 -0.15496862 -0.04217836 -0.036620602 0.12652878 0.291873
-0.013283243 -0.30810413 0.29493004 -0.08058899 -0.11082418 -0.15823302 -0.18628138 -0.044185013
-1.7346276 0.018957827 0.38008893 -0.08280126 0.06722002 -0.11803043 -0.083768964 -0.01297808
00000000: 1839 abbd 8331 363f 67fc 9f3e 5cc8 2cbe
00000010: 2934 3bbd ff58 cd3d a40f 27be 0f81 4fbd
00000020: 1927 acbc 25f7 3abe efef d6bb c2cf f7bb
00000030: 0a68 8f3c f065 07be 3e8d 52be 238e c4ba
00000040: d5e5 fd3c ef53 29be 12fc 9abe bc7e 01bd
00000050: e6b8 0d3f 6bf0 673d 622b e23d 2acd 313c
00000060: ffe7 1ebe 99c4 a4bd a1c6 ff3b cfa8 d0bd
00000070: 7fd2 f3bc 0075 ca3e 97b7 7dbd 0572 11bc
00000080: cad4 e2bc 6a42 e43e 1f23 aabd 6a70 29bd
00000090: 77a1 c83d b247 7bbd 5ebc 1e3e 43d2 5b3e
000000a0: 5d02 a33d a2fa 103e d192 3cbd 77b0 4d3e
000000b0: 582e 38bd 741d 4bbd edcb 683c f8fb bfbd
000000c0: f7dc e0bc 0008 af3e 1122 49bd 9e48 c6bc
000000d0: 20fe 72be 66cc 9e3e c7ef 913e e7c8 d53d
000000e0: 6410 2e3c 20c4 2e3d 6796 ffbc 8446 2e3e
000000f0: a3d9 55bd 60a9 233e e89b 903e 6028 0d3f
00000100: dc25 8bbe 06c2 973c 42eb bdbd 4e35 93bd
00000110: d101 ffbd 0417 53bb 3a0b f13d 3376 00be
00000120: 7f3b 9abc fefa fdbd b325 fb3e da29 dabc
00000130: 35ad 763d 7557 563e 3c1b 163e 7bfc 0abd
00000140: 9b31 823e 6260 de3e e8f7 9b3d 377d 84be
00000150: c866 12be a9f2 993d f09f eebd 3e4f 093d
00000160: dd28 a53d fe54 12be 0abd 1cbd 6a10 07bd
00000170: 750f 6ebb ebe6 29bd c725 c0bd d114 2f3e
00000180: 0b24 90bb f405 223f 0926 5dbb 3b61 133e
00000190: 7742 4ebb 1c55 103d 3b7e 3b3b 6141 623e
000001a0: faa9 883d 2409 d63e 666a 49be 96c3 81bd
000001b0: 94ff 7d3e 125b 203d 14d9 2cbd d4b6 0f3e
000001c0: 05ae 7d3e 4773 0f3e 2f53 1b3f e3ac efbc
000001d0: cd0d 063d 520f 403e fea7 01bd ab06 33bb
000001e0: 5a42 07bd 6b63 7d3e 821c 98bd e96d 103c
000001f0: 48e9 4cbd f199 a2bd 415d da3b d07e ee3e
00000200: 15bb 943e 7230 34bf 7322 4dbc 2a46 82bd
00000210: d182 84be 8f98 3abd 2126 a43d 6eb2 873e
00000220: e0af 99bb 9057 853d b8d8 003e 9ca2 c83e
00000230: 266c 373e ff49 5c3d 0d19 a43c f175 203e
00000240: ef90 d9bd ed1a a9bc 4fac c83d da3b 883d
00000250: e218 97be b92f b1bd a9c1 71bd 0653 003e
00000260: 440a 283f 0e8b 0fbc 48c3 be3e 93ec b03c
00000270: db81 fa3b 8742 ec3d 4624 40bd 53f8 a8be
00000280: 8722 5bbc 7872 a93a 86d1 503d 549c eb3c
00000290: b8c2 0a3f 9b99 a03e b1d9 3fbd 6172 44bd
000002a0: d2b2 d93e 88b5 3c3e f560 cbbe 5083 e5ba
000002b0: 825d 663d e830 0f3f e56e 4dbd e37a 6fbe
000002c0: 15c1 7b3d 472b d33d fc15 bfbd 4c8f 8d3e
000002d0: b931 113b 28b1 593e 5645 04bf ccac 76bd
000002e0: 16fa 05bd a303 9b3d 5e4e 8fbd 07c9 e53b
000002f0: 09dd 833c 7677 4c3e 40e0 773c ef5d aa3e
00000300: d352 a33e 2595 de3c cab6 ca3e 2478 4fbd
00000310: e760 633c c0a2 1bbd 54f7 62bc 2829 ed3e
00000320: 77ca 70bd 6eff 8bbd fa73 2bbd 1e49 703d
00000330: 8c67 fabb e5d9 883e 1f22 a03d e4d5 883d
00000340: c23c 143f e9ec 633c 08a9 653d 5fcc 9dbd
00000350: aed1 91be e751 69be 0a7e b3bd 0222 60bd
00000360: 098e 6c3e 03b9 a5be 0f5c 31bd 2efd 8b3f
00000370: 68a2 8dbe 6f22 c63e 549c 913c a911 a9be
00000380: a6c6 323d d900 29be da17 d7bc 5650 ab3e
00000390: a976 963e 3f3f 85bd 08ff 17be 7ee9 af3d
000003a0: a63c d23d 9a35 b83d 6513 76bd 18b0 1ebe
000003b0: 37c3 2cbd 7cff 15bd c390 013e 6170 953e
000003c0: f6a1 59bc d3bf 9dbe 1201 973e d70b a5bd
000003d0: caf7 e2bd d607 22be 8cc0 3ebe 58fb 34bd
000003e0: 4708 debf 724d 9b3c 049b c23e b593 a9bd
000003f0: a6aa 893d f0b9 f1bd 108f abbd 03a2 54bc

action_model._discrete_distribution.branches.2.bias f4 [6]
1.059766 -0.1567634 -0.39477685 0.33675784 0.54474133 -2.6290839
00000000: 6aa6 873f 9686 20be 3120 cabe 866b ac3e
00000010: 2b74 0b3f e942 28c0

action_model._discrete_distribution.branches.2.weight f4 [6, 256]
-0.0025195845 0.8275036 0.31015906 -0.18587236 0.052627336 -0.09195144 -0.040834706 0.07499517
-0.03877452 0.057507258 -0.025962638 0.037530735 0.05698867 0.014200127 0.19106226 0.0677446
0.040470514 -0.023589633 -0.66131705 -0.019298306 0.7076307 -0.70195466 0.073049076 -0.086841576
0.15966822 0.19102988 0.056509383 0.028578263 0.02082762 -0.044867504 0.04916806 -0.013030435
0.014356045 0.09801207 0.13199134 0.18159308 0.55639815 0.22113082 0.2004002 -0.008341768
0.078525536 0.06265102 0.0684612 -0.018089477 0.05280983 -0.028509157 0.038627654 0.2075084
0.026898453 0.5251661 0.20233746 0.016186317 -0.007655954 0.08364336 -0.029271107 0.086709425
0.04771475 0.07284565 -0.0782742 0.089472815 0.12992148 0.02306205 -0.10817172 0.1857167
0.108312614 0.053249165 0.026693892 0.04239573 0.07054344 0.059123453 0.12239924 0.044959646
0.16915932 0.06388598 0.7275346 -0.022150485 0.063257314 -0.20111695 -0.010066087 0.15128416
0.035702504 -0.24327631 -0.0073401476 0.02217834 0.052307934 0.064758204 0.20397156 -0.057502955
0.05331685 0.113340504 -0.025395 0.16225596 0.38804838 -0.06534349 -0.10733845 0.04187806
0.09212287 -0.9982882 0.07830947 0.25696412 0.08491731 -0.0977881 0.012356882 0.29764137
0.076284625 -0.064495705 -0.29867613 0.058316406 0.08477471 0.012623276 -0.08905406 0.02231691
-0.16574463 0.46017438 -0.15812896 0.07236624 0.037527204 0.41888478 0.028450472 0.07000917
0.0066711553 0.052277528 0.048410375 0.09339993 0.082631074 0.08767326 0.07437552 0.2974513
0.09219307 -0.49504045 0.06437329 0.10656604 0.15420377 0.0057415823 0.06966181 0.23151696
0.06344878 0.04587107 0.41886315 0.6514225 0.14537579 0.14675523 0.020071715 0.02784822
0.1543439 0.029162273 -0.022335825 0.010621528 0.11990153 0.006886617 0.050010506 -0.032147948
0.37880066 0.11569552 -0.13966012 -0.043608997 0.0686024 0.122088045 0.047590036 0.042366117
-0.03092939 -0.009823101 0.03889592 -0.0823114 0.10647854 0.05183834 0.0027421534 -0.001104938
-0.14984362 0.02114838 0.018331375 0.2199632 0.021763436 -0.1393374 0.018802263 0.1605258
0.020088563 0.19381653 -0.10283978 0.44436476 0.05757021 0.08105932 -0.02096321 -0.06802436
0.0331902 0.22766824 0.0069126105 0.11440052 0.12607849 0.11798351 0.030240912 -0.03362643
0.25263932 0.12311029 0.17581882 0.0153753245 -0.05276603 0.24569492 -0.0073417476 -0.05017517
0.24020532 0.0840981 0.066507116 0.011967571 -0.0044982973 0.060314566 -0.0416524 -0.030404529
0.20299968 0.023532327 0.0003027149 0.0071599083 0.090390146 0.13302192 -0.111052215 0.032865778
-0.10817956 -0.026143353 0.021160036 1.1287062 0.19781819 -0.15736969 -0.0691357 0.08181757
-0.018150404 0.032835603 -0.05130043 0.21967672 0.13441765 -0.021754177 0.16835777 0.030081073
0.121495746 0.05377877 -0.047720324 0.1922699 0.020753078 0.09752759 -0.027129713 0.27174878
0.13693205 0.14011376 0.16559716 0.021189746 0.07268912 -0.024138035 0.015794368 0.0979047
-1.1883068 0.013256448 0.4499864 -0.04564402 0.09790273 0.09761284 0.5448098 0.102959044
00000000: 9d1f 25bb 47d7 533f 2bcd 9e3e 5355 3ebe
00000010: c38f 573d 0951 bcbd 4b42 27bd 1197 993d
00000020: 08d2 1ebd bb8c 6b3d 99af d4bc d4b9 193d
00000030: f46c 693d a6a7 683c d3a5 433e aebd 8a3d
00000040: 69c4 253d 0c3f c1bc 134c 29bf 7b17 9ebc
00000050: 4927 353f 4db3 33bf c19a 953d ffd9 b1bd
00000060: 1180 233e 569d 433e 6276 673d f61c ea3c
00000070: af9e aa3c fdc6 37bd 7364 493d 9b7d 55bc
00000080: 9e35 6b3c 8dba c83d bd28 073e 89f3 393e
00000090: 1c70 0e3f 1e70 623e b635 4d3e e9ab 08bc
000000a0: ffd1 a03d 2e4f 803d 6335 8c3d 6230 94bc
000000b0: 1f4f 583d 098c e9bc 0838 1e3d 157d 543e
000000c0: 255a dc3c 4971 063f 8d31 4f3e 2b99 843c
000000d0: ccde fabb 364d ab3d f6c9 efbc b694 b13d
000000e0: 8b70 433d 1a30 953d 394e a0bd 863d b73d
000000f0: 230a 053e a0ec bc3c 2289 ddbd 852c 3e3e
00000100: 01d3 dd3d cc1b 5a3d 26ad da3c 25a7 2d3d
00000110: 1479 903d 6f2b 723d 74ac fa3d 9b27 383d
00000120: 1a38 2d3e a7d6 823d b53f 3a3f ef74 b5bc
00000130: 0d8d 813d 9af1 4dbe 3bec 24bc 3cea 1a3e
00000140: ca3c 123d 6d1d 79be 9f85 f0bb 5aaf b53c
00000150: d840 563d f39f 843d ecdd 503e 3888 6bbd
00000160: c562 5a3d 111f e83d 2d09 d0bc 6d26 263e
00000170: 47ae c63e cfd2 85bd 43d4 dbbd 5488 2b3d
00000180: eaaa bc3d d18f 7fbf b760 a03d cd90 833e
00000190: 20e9 ad3d 2145 c8bd 8574 4a3c 7364 983e
000001a0: 1d3b 9c3d 5316 84bd 14ec 98be 2fdd 6e3d
000001b0: 5d9e ad3d dbd1 4e3c fa61 b6bd f4d1 b63c
000001c0: f6b8 29be fa9b eb3e 8fec 21be c034 943d
000001d0: 20b6 193d 1178 d63e f710 e93c f860 8f3d
000001e0: b599 da3b f620 563d f549 463d 7648 bf3d
000001f0: 7b3a a93d 0a8e b33d 3152 983d 894b 983e
00000200: b8cf bc3d f175 fdbe 25d6 833d 4c3f da3d
00000210: 98e7 1d3e e223 bc3b daaa 8e3d c812 6d3e
00000220: 6ff1 813d 4ee3 3b3d 3b75 d63e a0c3 263f
00000230: 64dd 143e 0147 163e 706d a43c f321 e43c
00000240: 540c 1e3e b8e5 ee3c 9ff9 b6bc eb05 2e3c
00000250: ef8e f53d 21a9 e13b d1d7 4c3d 91ad 03bd
00000260: 29f2 c13e c6f1 ec3d 1003 0fbe 599f 32bd
00000270: 6a7f 8c3d 4c09 fa3d c5ed 423d 1888 2d3d
00000280: a25f fdbc 12f1 20bc 5451 1f3d e192 a8bd
00000290: 6c11 da3d 7054 543d b3b5 333b 91d3 90ba
000002a0: 9b70 19be 5e3f ad3c ae2b 963c 083e 613e
000002b0: 3c49 b23c 77ae 0ebe 3407 9a3c e060 243e
000002c0: c590 a43c d777 463e aa9d d2bd c783 e33e
000002d0: bece 6b3d 6e02 a63d 0abb abbc 5b50 8bbd
000002e0: 72f2 073d dd21 693e 2e83 e23b d24a ea3d
000002f0: b81a 013e 57a1 f13d cabb f73c debb 09bd
00000300: f159 813e 3f21 fc3d d909 343e c9e8 7b3c
00000310: 3121 58bd 7397 7b3e 0b93 f0bb 7b84 4dbd
00000320: 62f8 753e a03b ac3d e234 883d a213 443c
00000330: 7466 93bb 680c 773d b59b 2abd eb12 f9bc
00000340: 26df 4f3e dec6 c03c b5b5 9e39 aa9d ea3b
00000350: 781e b93d e636 083e 586f e3bd 449e 063d
00000360: 3f8d ddbd 962a d6bc d057 ad3c 7279 903f
00000370: da90 4a3e 8525 21be 0597 8dbd f88f a73d
00000380: 28b0 94bc a07e 063d 6620 52bd eff2 603e
00000390: c8a4 093e d135 b2bc fb65 2c3e 956c f63c
000003a0: c3d2 f83d 2147 5c3d 6376 43bd 67e2 443e
000003b0: 5c02 aa3c 8cbc c73d 223f debc a822 8b3e
000003c0: ea37 0c3e fb79 0f3e 4d92 293e 1e96 ad3c
000003d0: 09de 943d 21bd c5bc 3163 813c 4282 c83d
000003e0: 701a 98bf 9331 593c 9e64 e63e 39f5 3abd
000003f0: 3a81 c83d 3ee9 c73d a878 0b3f 31dc d23d

discrete_action_output_shape f4 [1, 3]
6.0 6.0 6.0
00000000: 0000 c040 0000 c040 0000 c040

network_body._body_endoder.seq_layers.0.bias f4 [256]
0.30405846 -1.5385427 -1.0399762 -0.8301989 -1.4543655 -0.5464872 -0.9115821 -1.0739325
-1.4938425 0.42180964 -0.99137783 -1.137804 -0.6371749 -1.7799468 -0.9171366 -0.8539292
-0.75421077 1.3106805 -1.6071256 -1.6242936 -0.7207359 -1.8162687 -1.4144602 -0.7369048
0.07009173 -1.8614657 -1.458466 -1.2384436 0.2114955 -1.240436 -1.6694034 -1.5058767
-1.6943859 -1.2954128 -1.0991336 1.0520014 -1.2330832 0.19317698 -1.4289837 -1.4324318
0.51136285 -0.78572017 -1.6176535 -0.78961915 -1.6728061 -0.7775156 -1.0067446 -1.8589177
-1.5433182 0.7101652 -1.4731262 -1.2623936 -0.96534216 -0.9162053 -1.9247473 -1.9291391
-0.6969931 -1.5716163 -1.4365231 -1.4942815 -0.7467945 -1.3653203 -1.4591492 -0.3632502
-1.4452341 -1.8137805 -1.3584172 -1.10619 -1.1764967 -0.5846438 -0.9731573 -1.886505
-1.0620921 -1.629174 -1.5757664 -1.2399682 -1.664137 -0.65868354 -0.9279814 -0.6540069
-1.7222533 -1.020214 -1.136769 -1.8433478 -1.528116 -0.38163042 -0.6447466 -1.7833755
-0.46583566 -0.82061124 -1.667523 -1.1577618 -0.6233965 -1.8047006 -1.2902074 -1.3321055
-1.34395 -0.2777125 -0.86511254 0.62386024 -1.1911172 1.5190728 -1.6249851 -1.0434732
-1.2294097 -0.25303695 -1.5824784 -1.2129908 -1.4655138 -0.35359988 -1.6964315 -0.26134324
-1.7411988 -1.3725872 -1.2169855 -1.3554058 -1.5414317 -1.4257586 0.3797792 -1.4817216
-1.3365216 0.8183339 0.051315293 -1.3485615 -1.227464 -0.24933872 -1.7395669 -1.2349945
-1.0431316 0.88748777 -1.882998 -1.3479208 -1.3377851 -1.3833814 -0.4495758 -0.720937
-1.2745053 -1.3719546 0.97354925 -1.5163996 -1.1553531 -1.4960536 -2.0664942 -0.43508267
-0.37602296 -1.2358421 -1.967246 0.3886958 -1.3292 -0.78077525 -1.2682217 -1.5767708
-1.6489009 -0.25892165 -1.5912588 -1.463038 -1.4819874 -1.7485249 -1.6791681 -1.1604509
0.2455417 -0.63559955 -0.34831852 -1.2626978 -0.3862823 -0.22881731 -0.11105951 -1.4914839
-1.7618537 -0.9795798 -0.9116665 -0.20712581 -1.8894584 0.3242297 -1.3692162 -1.5173385
-1.3975257 -1.6274755 -0.48870084 -1.0139513 -1.8853558 -1.1530625 -1.7178154 -1.8507295
-0.0035201302 1.6254212 -1.7688302 -1.6931275 -1.2195692 -1.2903159 -1.5098199 -1.0331161
-1.994239 -1.7252938 -1.5007385 -0.9713422 -1.5038528 -1.697775 -0.7112538 -1.4425341
0.8138731 -1.1286712 -1.4976648 -0.04381841 -0.6062595 -1.0188376 -1.7259871 -1.4534271
-1.5293379 -1.2502692 -1.4215282 -0.9538553 -0.81429106 -0.87515783 -1.6277994 -1.7540804
-1.1904329 -0.83375275 -0.047780633 -1.9129926 -1.5550562 -0.07157833 -1.602604 -0.74114287
0.8060149 -1.4184508 -1.5249461 -1.7216743 -1.5450273 -1.2781268 -1.616916 -1.3440334
-1.3927655 -1.1878259 -1.2158834 -1.32391 -1.8572663 -1.1805018 -0.67928934 -1.5960523
-1.7745875 -1.1650618 -1.5594114 -1.0787636 -0.94482166 -1.5369018 -0.81217456 -1.2528075
-0.7759948 -1.8875146 -0.980616 -1.6482782 -1.3647753 -1.2882383 -1.6572098 -1.9490714
00000000: 8dad 9b3e f8ee c4bf f11d 85bf ea87 54bf
00000010: a628 babf 96e6 0bbf 725d 69bf 9f76 89bf
00000020: 3b36 bfbf 6ff7 d73e f0ca 7dbf 90a3 91bf
00000030: e51d 23bf 4cd5 e3bf 77c9 6abf 1b9b 5abf
00000040: f513 41bf 61c4 a73f 4bb6 cdbf dae8 cfbf
00000050: 2682 38bf 7e7b e8bf 080d b5bf cba5 3cbf
00000060: 418c 8f3d 8244 eebf 04af babf 5285 9ebf
00000070: 4792 583e 9bc6 9ebf 03af d5bf 91c0 c0bf
00000080: a3e1 d8bf 16d0 a5bf 69b0 8cbf fba7 863f
00000090: acd5 9dbf 30d0 453e f0e8 b6bf ed59 b7bf
000000a0: ade8 023f f524 49bf 450f cfbf 7b24 4abf
000000b0: 831e d6bf 430b 47bf 02dd 80bf 04f1 edbf
000000c0: 738b c5bf 63cd 353f 668f bcbf 1d96 a1bf
000000d0: aa20 77bf 6e8c 6abf 1f5e f6bf 08ee f6bf
000000e0: 246e 32bf b92a c9bf fddf b7bf 9e44 bfbf
000000f0: ed2d 3fbf d1c2 aebf 67c5 babf eefb b9be
00000100: 6efd b8bf f629 e8bf 9de0 adbf a297 8dbf
00000110: 7297 96bf 37ab 15bf d620 79bf ff78 f1bf
00000120: a2f2 87bf c688 d0bf b7b2 c9bf 47b7 9ebf
00000130: 7102 d5bf 7c9f 28bf 3090 6dbf ff6c 27bf
00000140: cc72 dcbf 5f96 82bf a681 91bf d2f2 ebbf
00000150: 4e99 c3bf 1065 c3be 1d0e 25bf a645 e4bf
00000160: 0382 eebe 9413 52bf 6571 d5bf 8a31 94bf
00000170: ea96 1fbf 6e00 e7bf 8425 a5bf 6f82 aabf
00000180: 8e06 acbf 5530 8ebe 0478 5dbf 4eb5 1f3f
00000190: 8776 98bf fa70 c23f 83ff cfbf 8890 85bf
000001a0: 4c5d 9dbf 0f8e 81be a78e cabf 4843 9bbf
000001b0: f595 bbbf 0b0b b5be ab24 d9bf c8ce 85be
000001c0: 9adf debf f0b0 afbf 2ec6 9bbf f07d adbf
000001d0: a24d c5bf 427f b6bf 6b72 c23e 0ea9 bdbf
000001e0: 2413 abbf 557e 513f fc2f 523d aa9d acbf
000001f0: 8a1d 9dbf a652 7fbe 21aa debf 4d14 9ebf
00000200: 5685 85bf 6632 633f 1406 f1bf ab88 acbf
00000210: 8b3c abbf a412 b1bf cd2e e6be 548f 38bf
00000220: fd22 a3bf 359c afbf 863a 793f 6219 c2bf
00000230: 9ce2 93bf af7e bfbf 7141 04c0 28c3 debe
00000240: 1586 c0be 1330 9ebf b8ce fbbf 2303 c73e
00000250: 3a23 aabf e3e0 47bf 1755 a2bf a0d3 c9bf
00000260: 2f0f d3bf 6191 84be 5eae cbbf d444 bbbf
00000270: c3b1 bdbf aacf dfbf fbee d6bf a889 94bf
00000280: 496f 7b3e a7b6 22bf ce56 b2be 15a0 a1bf
00000290: cbc6 c5be 164f 6abe 2b73 e3bd f2e8 bebf
000002a0: 6c84 e1bf bec5 7abf fa62 69bf ca18 54be
000002b0: c6d9 f1bf 6f01 a63e 7a42 afbf 2638 c2bf
000002c0: 1fe2 b2bf 1e51 d0bf ff36 fabe 28c9 81bf
000002d0: 5753 f1bf 8d97 93bf 60e1 dbbf b4e4 ecbf
000002e0: fcb1 66bb cd0d d03f 0769 e2bf 67b8 d8bf
000002f0: d81a 9cbf 1229 a5bf c741 c1bf 263d 84bf
00000300: 3943 ffbf 6dd6 dcbf 3318 c0bf e2a9 78bf
00000310: 407e c0bf b150 d9bf bb14 36bf f5a4 b8bf
00000320: fd59 503f 4c78 90bf 7bb3 bfbf ef7a 33bd
00000330: d333 1bbf 4569 82bf 25ed dcbf e609 babf
00000340: 58c1 c3bf d208 a0bf a3f4 b5bf dc2f 74bf
00000350: 6175 50bf 580a 60bf bb5b d0bf b585 e0bf
00000360: 1b60 98bf d270 55bf a0b5 43bd f1dc f4bf
00000370: 150c c7bf a997 92bd 2122 cdbf 8abb 3dbf
00000380: fe56 4e3f cc8f b5bf 6f31 c3bf d35f dcbf
00000390: 74c3 c5bf a999 a3bf 1af7 cebf 4909 acbf
000003a0: 2446 b2bf ae0a 98bf 11a2 9bbf e275 a9bf
000003b0: e7ba edbf af1a 97bf e8e5 2dbf 714b ccbf
000003c0: af25 e3bf bf20 95bf cb9a c7bf ed14 8abf
000003d0: d5df 71bf 33b9 c4bf acea 4fbf ff5b a0bf
000003e0: 98a7 46bf 149a f1bf a609 7bbf c8fa d2bf
000003f0: f5b0 aebf fee4 a4bf 731f d4bf 2c7b f9bf

network_body._body_endoder.seq_layers.0.weight f4 [256, 69]
0.010921689 -0.36308908 0.7863126 -0.015719002 0.2571866 0.3676752 0.45148256 0.19068784
0.35909584 0.34406376 0.014278733 0.42764258 0.42542896 0.20538676 0.50114757 0.36021197
0.4231246 0.26694062 0.41117954 0.2664834 0.20443392 0.44003233 0.18053041 0.24723405
0.13042665 0.35466656 0.3426888 0.4995511 0.47418174 0.55308455 0.57572556 0.013762504
0.32910925 0.28508666 0.21017504 0.24606876 0.41028702 0.4673216 -0.14359477 0.19078603
-0.31984788 0.26169166 -0.20970012 0.41084877 0.3173667 0.1599875 0.10606898 0.27752316
0.14516142 -0.08359053 -0.21538813 -0.09415371 -0.038443435 -0.249117 -0.20337164 -0.056231372
-0.17135167 0.19999215 -0.49027973 0.1625785 -0.33223933 -0.93679196 -1.2182338 0.14022067
-0.012344493 -0.13581537 -0.1506155 -0.115220934 0.37755048 0.36682037 -0.16057086 0.32399315
0.2139324 -1.7102115 -1.5278394 -1.8350896 -1.7193435 -1.6607146 -1.3938498 0.037503257
-1.5577033 -1.670853 -1.8219817 -1.591356 -1.700556 -1.7449651 0.15201837 -1.7200743
-1.7710589 -1.8642858 -1.6625284 -1.5496265 -1.4679443 -0.04516291 -1.7496368 -1.702943
-1.850165 -1.7376828 -1.7745119 -1.6582402 -0.13919559 -1.5999196 -1.7594373 -1.704005
-1.8697284 -1.4678193 -1.6130462 -0.08949583 -0.04718798 -0.08378701 -0.3663516 -0.03550025
-0.5340775 0.16679223 -0.18239167 0.3283278 0.01916887 0.4176591 0.23951551 -0.29081604
-0.48904788 0.28750166 0.18861905 -0.27260104 -0.09751914 -0.19043848 -0.30119112 -0.57725453
0.108253844 0.33941066 -0.4684195 -0.08157491 -0.11134577 -0.25834405 -0.59487224 -0.21560782
-0.68673086 -0.16199183 0.5190513 0.14903012 0.7286068 0.13395128 -1.001498 -1.0571048
-1.0795174 -1.0390981 -1.0390453 -1.3108238 0.050002113 -1.1290898 -1.2174225 -1.1433233
-1.066517 -1.3518949 -1.0678828 -0.17706645 -1.0648685 -1.1280419 -1.3422314 -1.1857488
-1.2204064 -1.0706589 -0.022771727 -1.2694541 -1.1149534 -1.0682985 -1.2654709 -1.0543157
-1.0740422 0.07192285 -1.1409667 -1.2035897 -1.3583053 -1.2260352 -1.2589654 -1.1528428
0.14120948 -0.09716664 0.08943566 -0.52646655 -0.9259545 -0.910003 -0.069719516 0.23598582
0.018832898 -0.28003418 -0.13594382 -0.55885154 0.033145286 0.3484741 0.2892457 -0.08114377
-0.4818662 0.1869846 -0.987376 -0.10366902 -0.55941224 0.014969033 -0.30147183 -0.11261819
-0.039337963 0.74777395 0.4699067 0.16760133 -0.11732949 -0.3669272 0.08665829 0.41991982
0.737056 -0.10944359 -0.15230997 -1.0558628 -1.0237609 -1.097783 -0.7842134 -1.0695019
-0.84997743 -0.14370236 -1.0826582 -0.8536416 -1.0954776 -0.9313402 -0.8690482 -0.96160746
-0.12501095 -1.0070101 -1.0738336 -0.86180395 -0.8719331 -0.8111502 -1.0264785 -0.03024573
-1.1247746 -1.0186352 -0.9494388 -0.8405361 -0.8072263 -0.7969318 -0.061071906 -1.0641111
-0.8474083 -1.0130268 -0.9051351 -1.0771989 -0.8900417 -0.0402395 -0.4945053 0.26298568
0.078351095 -0.5362583 0.24009526 -0.57121986 0.16386536 -0.11934699 -0.06395344 0.35349542
00000000: e2f0 323c d0e6 b9be c84b 493f 23c5 80bc
00000010: f6ad 833e ec3f bc3e b928 e73e ac43 433e
00000020: 69db b73e 2029 b03e 59f1 693c f8f3 da3e
00000030: d3d1 d93e e850 523e 354b 003f b46d b83e
00000040: caa3 d83e 71ac 883e 2086 d23e 8370 883e
00000050: 2057 513e eb4b e13e f7dc 383e ec2a 7d3e
00000060: 908e 053e db96 b53e e874 af3e 29c5 ff3e
00000070: f3c7 f23e f396 0d3f c062 133f 207c 613c
00000080: 0281 a83e e1f6 913e 2038 573e 73f9 7b3e
00000090: 2411 d23e c744 ef3e 820a 13be 6a5d 433e
000000a0: 1ac3 a3be 73fc 853e a1bb 56be c55a d23e
000000b0: e37d a23e c3d3 233e b23a d93d 8417 8e3e
000000c0: 32a5 143e 8331 abbd b58e 5cbe a9d3 c0bd
000000d0: dd76 1dbd 8718 7fbe a840 50be de52 66bd
000000e0: d076 2fbe beca 4c3e f205 fbbe fa7a 263e
000000f0: 461b aabe 99d1 6fbf 16ef 9bbf 0296 0f3e
00000100: 8e40 4abc 2f13 0bbe f33a 1abe f4f8 ebbd
00000110: 4c4e c13e e1cf bb3e b06c 24be 6ee2 a53e
00000120: 1811 5b3e 36e8 dabf 3e90 c3bf 37e4 eabf
00000130: 7313 dcbf 4c92 d4bf ac69 b2bf 049d 193d
00000140: d262 c7bf 83de d5bf b236 e9bf 8eb1 cbbf
00000150: d2ab d9bf 045b dfbf b4aa 1b3e 652b dcbf
00000160: 0fb2 e2bf eba0 eebf bbcd d4bf 295a c6bf
00000170: 99e5 bbbf befc 38bd 19f4 dfbf 09fa d9bf
00000180: 35d2 ecbf 646c debf 3523 e3bf 3741 d4bf
00000190: 4a89 0ebe 2aca ccbf 3e35 e1bf d61c dabf
000001a0: 4353 efbf 81e1 bbbf 4c78 cebf 9749 b7bd
000001b0: 2f48 41bd 8698 abbd 7092 bbbe b668 11bd
000001c0: 4eb9 08bf 95cb 2a3e e2c4 3abe 951a a83e
000001d0: 0908 9d3c 6ad7 d53e 8e43 753e d7e5 94be
000001e0: 7c64 fabe 6b33 933e 5a25 413e 5d92 8bbe
000001f0: 1db8 c7bd 4e02 43be b935 9abe f4c6 13bf
00000200: 31b4 dd3d 3cc7 ad3e aed4 efbe bf10 a7bd
00000210: 4009 e4bd ac45 84be 8c49 18bf 4cc8 5cbe
00000220: 98cd 2fbf 30e1 25be 8ce0 043f 5a9b 183e
00000230: fa85 3a3f 862a 093e 1631 80bf 364f 87bf
00000240: a02d 8abf 2b01 85bf 70ff 84bf 13c9 a7bf
00000250: 04cf 4c3d 0486 90bf 80d4 9bbf 6b58 92bf
00000260: a183 88bf e40a adbf 62b0 88bf e850 35be
00000270: 9c4d 88bf ad63 90bf 3dce abbf 9ec6 97bf
00000280: 4736 9cbf 5a0b 89bf c68b babc 797d a2bf
00000290: cbb6 8ebf 01be 88bf f3fa a1bf d1f3 86bf
000002a0: 377a 89bf 4a4c 933d 320b 92bf 3a0f 9abf
000002b0: f3dc adbf b9ee 9cbf c725 a1bf 5a90 93bf
000002c0: 3899 103e 4eff c6bd 0b2a b73d 83c6 06bf
000002d0: 5b0b 6dbf f5f5 68bf 1bc9 8ebd 44a6 713e
000002e0: 7347 9a3c a460 8fbe db34 0bbe e510 0fbf
000002f0: 5ac3 073d 326b b23e 0318 943e b42e a6bd
00000300: 2bb7 f6be e478 3f3e acc4 7cbf 6c50 d4bd
00000310: a435 0fbf ad40 753c 845a 9abe 5ea4 e6bd
00000320: d820 21bd 1d6e 3f3f 9c97 f03e af9f 2b3e
00000330: 724a f0bd e2dd bbbe e779 b13d bbff d63e
00000340: b4af 3c3f f623 e0bd 25f7 1bbe 8326 87bf
00000350: 990a 83bf 2784 8cbf 36c2 48bf 70e5 88bf
00000360: 1f98 59bf b626 13be 8b94 8abf 4288 5abf
00000370: 9c38 8cbf 506c 6ebf f179 5ebf e82b 76bf
00000380: df02 00be b5e5 80bf 6173 89bf 2f9f 5cbf
00000390: 0237 5fbf 8aa7 4fbf a663 83bf e5c5 f7bc
000003a0: 9df8 8fbf a362 82bf 6c0e 73bf 602d 57bf
000003b0: 62a6 4ebf b903 4cbf 8926 7abd cb34 88bf
000003c0: c0ef 58bf ddaa 81bf efb6 67bf a7e1 89bf
000003d0: c6d9 63bf 2dd2 24bd cc2f fdbe 0fa6 863e
000003e0: 8a76 a03d 3948 09bf 88db 753e 773b 12bf
000003f0: 52cc 273e 326c f4bd 05fa 82bd 5afd b43e

network_body._body_endoder.seq_layers.2.bias f4 [256]
-0.67979616 -0.80315304 -0.5898181 -0.8534272 -0.6287133 -0.41896626 -0.72133297 -0.42180538
-0.8445984 -0.76359934 -0.8770474 -0.92716354 -0.59710914 -0.5379561 -0.5736058 -0.7926583
-0.49235496 -0.38192365 -0.7998446 -0.371211 -0.4793028 -0.54049903 -0.6285428 -0.6360829
-0.6195157 -0.50497746 -0.6841407 -0.43592206 1.3676387 -0.42692968 -0.3084622 -0.46291652
-0.73666656 -0.53096634 -0.47123244 -1.000522 -0.66870457 -0.76836896 -0.691749 -0.7031308
-0.68516266 -0.5047079 -0.46865928 -0.74840736 -1.0696605 -0.58869827 -0.63219535 -0.6669637
-1.0902293 -0.79103726 -1.0465581 -0.77474815 -0.55357444 -0.81661993 -1.1320075 -0.7972016
-0.5502294 -0.71866304 -0.6376652 -0.9160857 -0.7222574 -0.6223332 -0.5405653 -0.4959385
-1.0287696 -0.5721946 -0.49856254 -0.6890024 -0.5150699 -0.46698406 -0.85561955 -0.9904857
-0.7424203 -0.6760828 -0.55666226 -0.47729188 -0.723397 -0.72370446 -0.67996615 -0.6206535
-0.57082635 -0.6423912 -0.7465845 -0.5846563 -0.65519536 -0.6054525 -0.61149657 -0.56092507
-0.638504 -0.80751246 -0.38296837 -0.7998916 0.22030336 -0.44889653 -0.60196286 -0.48524424
-0.80975276 -0.96132445 -0.491772 -0.4363529 -0.6910201 -0.30086997 -0.5305355 -0.8535205
-0.51417947 -0.8330243 -0.70687914 -0.24893048 -0.47916722 -0.4768643 -0.68202794 -0.4796446
-0.44593856 -0.62251836 -0.4207634 -0.5409803 -0.733124 -0.5954668 -0.9742641 -0.50572747
-0.8095362 -0.7359835 -0.82537997 -0.47311515 -0.4098768 -0.5822979 -0.5227589 -0.5225873
-0.5859398 -0.55003554 -0.7667138 -0.51518315 -0.8228488 -0.6428879 -0.8197301 -0.4954612
-0.6646625 -0.79776394 -0.57855165 -0.7345874 -0.82704026 -0.84106004 -0.65512556 -0.03742348
-0.7005423 1.0514336 -0.7930336 -0.86928165 -0.70520467 -0.522796 -0.5623168 -0.5618409
-0.47741628 -0.7938655 -0.54764575 -0.6964378 -0.43406847 -0.75224483 -0.55241597 -0.35822895
-0.52840215 -0.7041151 -0.77864194 -0.63161623 -0.23651582 -0.07065374 -0.7052986 -0.6571701
-0.669505 -0.81358856 -0.6206991 -0.5338377 0.7085181 -0.8283837 -0.72352135 -0.5570878
-0.6579726 -0.61422193 -0.8320027 -0.7843412 -0.81410503 -0.3392483 -1.000736 -0.9512248
-0.8026729 -0.70807344 -0.37865716 -0.7139207 -0.5270804 -0.57773036 -0.47871992 -0.98749
-0.68544436 -0.5658889 -0.7813884 -0.8096397 -0.8177338 -0.6265584 -0.8505339 -0.6948448
-0.72735184 -0.75765353 -0.70073456 -0.88824975 -0.81555 -0.6199689 -0.44983363 -0.38195708
-0.47680977 -0.72880566 -0.7638885 -0.7114265 -0.7725026 -0.8083553 -0.542914 -0.579514
-0.7998096 -0.5483196 -0.4198857 -0.5304058 -0.449176 -0.8009382 -0.9741871 -0.8213947
-0.8330422 -0.3563118 -0.73631316 -0.7062082 -0.5391724 -0.26959172 -0.37241182 -0.80175745
-0.70872337 -0.7914359 -0.30634966 -0.6332546 -0.12776248 -0.42550573 -0.6445814 -0.5037856
-0.6291945 -0.5587199 -0.5155096 -0.5560721 -0.80763716 -0.6023443 -0.48657012 -0.6959628
-0.47511393 -0.51313674 -0.5662109 -0.8441386 -0.7017046 -0.7948184 -0.67916745 -0.7351558
00000000: 1f07 2ebf 709b 4dbf 52fe 16bf 347a 5abf
00000010: 5bf3 20bf bf82 d6be 47a9 38bf e0f6 d7be
00000020: 9a37 58bf 3f7b 43bf 2e86 60bf 975a 6dbf
00000030: 25dc 18bf 7eb7 09bf d4d7 12bf a8eb 4abf
00000040: f315 fcbe 7f8b c3be 9ec2 4cbf 5e0f bebe
00000050: 2d67 f5be 255e 0abf 2ee8 20bf 54d6 22bf
00000060: 9598 1ebf 3446 01bf d823 2fbf 2d31 dfbe
00000070: c90e af3f 8796 dabe c2ee 9dbe 6503 edbe
00000080: 2e96 3cbf 69ed 07bf 6145 f1be 1b11 80bf
00000090: 3930 2bbf d4b3 44bf 7616 31bf 6100 34bf
000000a0: d266 2fbf 8934 01bf 1cf4 efbe a097 3fbf
000000b0: a3ea 88bf eeb4 16bf 8ed7 21bf 22be 2abf
000000c0: a28c 8bbf 6b81 4abf 9ef5 85bf e555 46bf
000000d0: 0eb7 0dbf 010e 51bf 9fe5 90bf 6715 4cbf
000000e0: d5db 0cbf 4dfa 37bf 073e 23bf 9884 6abf
000000f0: dce5 38bf 3b51 1fbf 7d62 0abf a7eb fdbe
00000100: b9ae 83bf 587b 12bf 9743 ffbe 7662 30bf
00000110: 9fdb 03bf 8918 efbe e209 5bbf 7990 7dbf
00000120: 420f 3ebf c313 2dbf 6b81 0ebf 9a5f f4be
00000130: 8c30 39bf b244 39bf 4312 2ebf 26e3 1ebf
00000140: ad21 12bf c073 24bf 2920 3fbf 09ac 15bf
00000150: e2ba 27bf effe 1abf 0a8b 1cbf c998 0fbf
00000160: 0075 23bf 23b9 4ebf 6e14 c4be b2c5 4cbf
00000170: 3497 613e c4d5 e5be 3d1a 1abf ef71 f8be
00000180: f54b 4fbf 5c19 76bf 8ac9 fbbe a669 dfbe
00000190: b1e6 30bf a10b 9abe 2dd1 07bf 5280 5abf
000001a0: 44a1 03bf 1541 55bf 08f6 34bf a2e7 7ebe
000001b0: 6855 f5be 8f27 f4be 6299 2ebf fa93 f5be
000001c0: 0f52 e4be 5d5d 1fbf 4d6e d7be af7d 0abf
000001d0: 04ae 3bbf 8370 18bf 5f69 79bf 5b77 01bf
000001e0: c43d 4fbf 6a69 3cbf 1a4c 53bf 263c f2be
000001f0: 5fdb d1be 7a11 15bf 87d3 05bf 48c8 05bf
00000200: 2700 16bf 21cf 0cbf 5b47 44bf 0be3 03bf
00000210: 38a6 52bf 4d94 24bf d5d9 51bf 17ad fdbe
00000220: 5227 2abf 423a 4cbf f61b 14bf eb0d 3cbf
00000230: e9b8 53bf b64f 57bf 4fb6 27bf 5d49 19bd
00000240: bd56 33bf 6095 863f 4004 4bbf 3e89 5ebf
00000250: 4b88 34bf f5d5 05bf fef3 0fbf ced4 0fbf
00000260: e86f f4be c53a 4bbf 8332 0cbf bf49 32bf
00000270: 393e debe 1e93 40bf 226b 0dbf c969 b7be
00000280: 5d45 07bf e340 34bf 1455 47bf 9ab1 21bf
00000290: 3431 72be e8b2 90bd 738e 34bf 4d3c 28bf
000002a0: ae64 2bbf 5747 50bf 23e6 1ebf 96a9 08bf
000002b0: 7161 353f f410 54bf b238 39bf 4e9d 0ebf
000002c0: e470 28bf a63d 1dbf 21fe 54bf 96ca 48bf
000002d0: 3069 50bf f4b1 adbe 1e18 80bf 7883 73bf
000002e0: f97b 4dbf 4d44 35bf 5adf c1be 82c3 36bf
000002f0: beee 06bf 23e6 13bf c71a f5be 25cc 7cbf
00000300: 4879 2fbf 18de 10bf 1209 48bf 8c44 4fbf
00000310: 0157 51bf 2266 20bf 97bc 59bf 59e1 31bf
00000320: bb33 3abf 95f5 41bf 5763 33bf 5664 63bf
00000330: e3c7 50bf 48b6 1ebf 9850 e6be e18f c3be
00000340: 6920 f4be 0293 3abf 328e 43bf 0c20 36bf
00000350: bbc2 45bf 5ff0 4ebf 69fc 0abf 085b 14bf
00000360: 52c0 4cbf ac5e 0cbf 42fb d6be adc8 07bf
00000370: 66fa e5be 490a 4dbf 5364 79bf ec46 52bf
00000380: 4142 55bf 806e b6be 057f 3cbf 10ca 34bf
00000390: 3407 0abf ed07 8abe c3ac bebe fa3f 4dbf
000003a0: e56e 35bf 8b9b 4abf ddd9 9cbe f91c 22bf
000003b0: 2bd4 02be e3db d9be 4903 25bf 18f8 00bf
000003c0: e412 21bf 4408 0fbf 70f8 03bf be5a 0ebf
000003d0: 4fc1 4ebf 3c33 1abf b81f f9be 9e2a 32bf
000003e0: 2242 f3be ee5c 03bf 33f3 10bf 7819 58bf
000003f0: eaa2 33bf 3879 4bbf ebdd 2dbf 2c33 3cbf

network_body._body_endoder.seq_layers.2.weight f4 [256, 256]
-0.053005546 0.2586786 -0.28777638 -0.19958048 0.019599732 -0.2135045 -0.27490985 0.23651123
-0.14132519 -0.17773494 -0.55108505 -0.023253543 -0.37553215 0.16522777 -0.6715132 0.006398239
0.08030366 -0.48155764 -0.10730927 -0.012593846 0.52943087 -0.07364007 0.0026048198 -0.33651936
-0.24858744 0.37632972 -0.2611084 0.2984772 -0.005664995 0.16979548 0.45469463 0.48603553
-0.022293027 -0.26963225 0.06831526 -0.2744216 -0.10268626 -0.12806545 0.5377829 0.19164667
-0.101363234 0.17375317 0.5294992 -0.069236904 0.6922785 -0.2578377 0.12378856 1.0104048
0.20548783 -0.4796511 0.15226273 0.29139882 0.12441209 -0.22571295 0.1592203 0.06372624
-0.5140856 0.39199382 0.08942954 -0.051695213 -0.26765615 0.20165056 -0.17712367 -0.42894125
0.029892135 -0.20498697 0.83226323 0.16006462 0.20319521 0.23848796 0.22554661 0.31543425
-0.6038324 0.113116615 0.34092897 0.1902245 -0.36456025 0.076906115 -0.15511304 0.009956534
0.39956325 -0.7475446 0.19687411 0.28151405 0.043000296 -0.09289465 0.12334719 0.42326272
-0.8664451 -0.08798692 0.47816724 -0.16834754 -0.7714097 -0.06547983 0.1360226 0.11454063
0.21993594 -0.15684728 -0.14466669 -0.21959619 -0.015719285 -0.2553781 -0.21827556 -0.5733327
-0.50311905 0.0782023 -0.008069432 0.32119802 -0.045186747 -0.14485525 0.23922783 0.08368702
-0.2907816 0.3089437 0.20897482 -0.11385344 0.17569184 0.4194729 -0.40432808 -0.10028532
-0.64928794 -0.092426516 -0.42741808 0.2284971 -0.032678142 -0.042334802 -0.03508428 -0.1833269
0.025263626 -0.08583783 0.22121713 0.035788752 0.13326952 -0.08643057 -0.5235825 -0.06741525
0.033061963 -0.07741166 0.07138277 0.19900002 -0.24552551 0.046510685 -0.18096466 -0.06193997
-0.19935513 0.025997115 -0.057730775 0.037648845 -0.041451156 -0.18817343 0.12376166 -0.20236878
0.42531723 -0.22558561 0.023762474 0.3583631 0.11073873 -0.24730225 0.009350537 -0.0853745
-0.275569 0.05448331 0.054917213 -0.31919003 0.0042628027 -0.24457443 -0.3363787 0.20413083
0.26312158 0.13132766 0.31804058 0.19503021 0.26770973 -0.942149 0.35100976 -0.04745174
0.18067996 0.33275476 -0.1797047 -0.2266548 0.19808544 -0.1579341 -0.050319303 -0.32532826
-0.24306768 -0.14299868 0.53514725 -0.013369336 -0.21344852 -0.18569615 0.6661546 -0.19204624
0.92835706 0.21544659 0.018179907 -0.23979321 0.18964957 0.16985334 0.51893526 0.2729098
-0.3527507 0.1664678 0.04711951 -0.5701399 -0.26977456 -0.43788934 0.23049806 0.026138227
0.3927901 -0.556982 0.023574632 -0.59213394 -0.10233897 0.024847688 0.010061528 0.075968266
0.15215097 0.17643563 0.060297355 0.08875245 0.042572252 -0.3466685 -0.013645838 -0.33680117
-0.3703069 0.3053455 -0.063531265 -0.18511015 0.07812185 -0.753329 0.1334316 0.3120808
0.34814712 0.34974357 0.34842616 -0.09914818 0.033764686 0.7081848 -0.061116453 0.05329109
0.041443784 -0.5049859 0.20597142 0.202865 0.7357944 -0.17598966 -0.10866666 -0.18695407
-0.20687558 0.07146157 0.07011021 -0.04897764 0.4619124 0.22514917 -0.019984147 -0.13526168
00000000: 581c 59bd 8571 843e 6d57 93be d35e 4cbe
00000010: 9e8f a03c eca0 5abe fcc0 8cbe 0030 723e
00000020: 8db7 10be 2600 36be e913 0dbf 377e bebc
00000030: c045 c0be 7831 293e 4ae8 2bbf 52a8 d13b
00000040: 3f76 a43d b98e f6be f6c4 dbbd 6b56 4ebc
00000050: c888 073f 9bd0 96bd a0b5 2a3b 444c acbe
00000060: b58d 7ebe 4aae c03e 00b0 85be 01d2 983e
00000070: 6ca1 b9bb dede 2d3e bccd e83e a6d9 f83e
00000080: de9f b6bc 3d0d 8abe dfe8 8b3d fd80 8cbe
00000090: 2d4d d2bd 9723 03be 24ac 093f 063f 443e
000000a0: 8797 cfbd 5aec 313e 428d 073f 14cc 8dbd
000000b0: 2a39 313f 4e03 84be db84 fd3d f254 813f
000000c0: 676b 523e d494 f5be c3ea 1b3e 3a32 953e
000000d0: c4cb fe3d 4c21 67be a50a 233e e782 823d
000000e0: 1d9b 03bf 6ab3 c83e d626 b73d 5cbe 53bd
000000f0: 3a0a 89be 7c7d 4e3e e85f 35be 309e dbbe
00000100: 5ae0 f43c 1be8 51be 340f 553f fbe7 233e
00000110: 6812 503e 3036 743e b1f5 663e 9980 a13e
00000120: c394 1abf afa9 e73d 3e8e ae3e 36ca 423e
00000130: a4a7 babe f480 9d3d f4d5 1ebe bb20 233c
00000140: 8e93 cc3e 155f 3fbf 5e99 493e 9c22 903e
00000150: 1421 303d 8d3f bebd 749d fc3d e4b5 d83e
00000160: 59cf 5dbf 7c32 b4bd 56d2 f43e 4c63 2cbe
00000170: 1b7b 45bf 4a1a 86bd 8249 0b3e 4794 ea3d
00000180: e336 613e 939c 20be 8123 14be d3dd 60be
00000190: bbc5 80bc ebc0 82be a183 5fbe efc5 12bf
000001a0: 69cc 00bf 8728 a03d a735 04bc 1174 a43e
000001b0: bd15 39bd ef54 14be 24f8 743e 1a64 ab3d
000001c0: 53e1 94be de2d 9e3e 7ffd 553e fe2b e9bd
000001d0: 90e8 333e 27c5 d63e 1704 cfbe 6462 cdbd
000001e0: bc37 26bf 1d4a bdbd 8bd6 dabe 25fb 693e
000001f0: 84d9 05bd 4267 2dbd 89b4 0fbd 0cba 3bbe
00000200: aaf5 ce3c bfcb afbd be86 623e 3a97 123d
00000210: ce77 083e 8302 b1bd 8109 06bf 0211 8abd
00000220: fb6b 073d 018a 9ebd 2131 923d a9c6 4b3e
00000230: 0a6b 7bbe fd81 3e3d cd4e 39be c4b4 7dbd
00000240: c023 4cbe e7f7 d43c 1b77 6cbd ad35 1a3d
00000250: b0c8 29bd 89b0 40be c176 fd3d c339 4fbe
00000260: 2ec3 d93e eaff 66be 85a9 c23c 5e7b b73e
00000270: fdca e23d cd3c 7dbe ff32 193c d3d8 aebd
00000280: 6117 8dbe e429 5f3d dff0 603d e06c a3be
00000290: fbae 8b3b b871 7abe d439 acbe ac07 513e
000002a0: dfb7 863e c27a 063e 37d6 a23e 00b6 473e
000002b0: 4011 893e ad30 71bf 8db7 b33e c15c 42bd
000002c0: 2b04 393e d55e aa3e 8204 38be 3218 68be
000002d0: e9d6 4a3e 7ab9 21be 9d1b 4ebd 6d91 a6be
000002e0: bce6 78be 3f6e 12be 69ff 083f 0f0b 5bbc
000002f0: 4092 5abe 2227 3ebe 1c89 2a3f c5a7 44be
00000300: cfa8 6d3f 089e 5c3e 07ee 943c 5a8c 75be
00000310: 7f33 423e 09ee 2d3e f1d8 043f d5ba 8b3e
00000320: bd9b b4be 8976 2a3e 6300 413d b0f4 11bf
00000330: e41f 8abe 0833 e0be af07 6c3e d61f d63c
00000340: c91b c93e 5f96 0ebf 961f c13c 1796 17bf
00000350: 1897 d1bd 618d cb3c 1bd9 243c 4095 9b3d
00000360: 77cd 1b3e 8bab 343e 5cfa 763d d8c3 b53d
00000370: 3e60 2e3d 897e b1be cb92 5fbc 3471 acbe
00000380: de98 bdbe 3f56 9c3e ae1c 82bd 848d 3dbe
00000390: 59fe 9f3d 2bda 40bf 4ba2 083e 0ec9 9f3e
000003a0: 5740 b23e 9711 b33e ea64 b23e 330e cbbd
000003b0: d74c 0a3d 994b 353f 3f55 7abd c247 5a3d
000003c0: f5c0 293d c246 01bf 2cea 523e d8bb 4f3e
000003d0: 065d 3c3f a236 34be a08c debd e370 3fbe
000003e0: 31d7 53be 725a 923d f195 8f3d c79c 48bd
000003f0: c87f ec3e 818d 663e cbb5 a3bc 0a82 0abe
