results/ppo/My Behaviour/My Behaviour-2162.onnx (onnx, 72127 bytes, 7 tensors)

action_model._continuous_distribution.log_sigma f4 [1, 2]
000000 00 00 00 00 00 00 00 00
       0.0 0.0

action_model._continuous_distribution.mu.bias f4 [2]
000000 00 00 00 00 00 00 00 00
       0.0 0.0

action_model._continuous_distribution.mu.weight f4 [2, 128]
000000 eb ff 4e 39 48 a6 0a bc bf cd b5 bb 33 74 59 3b
       0.00019741028 -0.008462496 -0.0055482085 0.0033180832
000010 4a ec 88 bb 1d b7 f8 bb 4b 71 31 bc 39 d5 ad bc
       -0.0041785585 -0.007590188 -0.010830234 -0.021219837
000020 68 d6 f2 bb 07 86 8a 3c 0e 26 21 bc 0f a0 59 bc
       -0.007410813 0.016909612 -0.009835733 -0.01328279
000030 58 d8 ca 3c 9a 2e 0e bb 93 74 8a 3c 63 27 ab 3b
       0.024761364 -0.0021695257 0.01690129 0.005223201
000040 8b 29 80 3c 83 d1 17 bc ca fe 72 bc a2 f7 09 3c
       0.01564481 -0.00926626 -0.014831254 0.008420857
000050 81 19 0d bd 4b ac 90 3b 97 5b 03 3c 4b d7 4f 3c
       -0.03444815 0.00441507 0.008017442 0.012685607
000060 c3 43 c3 bc 28 0c 4b bc c5 ea 30 bb 4e 2f 18 3c
       -0.023836022 -0.012393035 -0.0026995402 0.009288622
000070 92 36 b8 3c a7 68 b6 3c bf f2 ea 3c fb b7 4d 3c
       0.022486959 0.022266699 0.028680203 0.012556071
000080 80 11 69 3a 15 23 ec 3c 49 b6 cc bb ff 06 fe bc
       0.00088908523 0.028825322 -0.006247316 -0.031009195
000090 37 82 72 bc ab e0 70 ba 8c 04 30 3c f5 78 19 3c
       -0.014801553 -0.00091887516 0.010743272 0.009367217
0000a0 aa c8 c6 3b 58 af 95 b9 e1 39 1c 3c 74 5f ca bc
       0.0060664015 -0.00028550136 0.009535284 -0.024703719
0000b0 da ac 12 bc f7 ac c5 bb c6 a5 b5 bc 26 a1 0f 3a
       -0.008952344 -0.006032582 -0.022173773 0.000547903
0000c0 d2 01 f0 3c c2 e2 c9 bb ff f8 a6 bc 67 a5 e7 bb
       0.029297743 -0.006161065 -0.020382402 -0.007069278
0000d0 c9 d5 44 3d 0f 29 c5 3c 31 27 0f bb 86 6e 23 3c
       0.048055444 0.02406743 -0.0021843428 0.009975081
0000e0 c5 ee 0f 3c d8 51 da 39 d6 1e 4b bc 3a c6 3a ba
       0.008784954 0.00041641179 -0.012397489 -0.0007124875
0000f0 b1 ae 34 3c a3 2f bb bc 1f c4 5a bc 9b c4 26 bc
       0.011027978 -0.022849863 -0.013352423 -0.01017871
000100 bb 33 c6 3b a0 56 dc ba 4f aa 1c bd 30 24 fd bb
       0.006048647 -0.0016810484 -0.038248356 -0.007725261
000110 ce bf 15 bc 95 9a 8a bc 56 57 36 3d 21 f6 96 3c
       -0.009139968 -0.016919414 0.044516884 0.01842791
000120 c9 93 b4 3c ab 60 7d ba c2 db b7 39 4e 3b 1a 3b
       0.022043126 -0.0009665589 0.00035068212 0.0023533884
000130 7f 1a 86 3c 63 e5 2d bc 93 a6 4e 3c 8e 4c af 3c
       0.016370056 -0.010613772 0.012612957 0.021398809
000140 50 98 58 3b 6e eb a1 bb c2 52 21 bb a5 35 6c 3c
       0.003304977 -0.0049413955 -0.0024615978 0.014417087
000150 3f 10 9c bc ef f7 f3 3c d0 89 77 bb 6c 4e b9 3c
       -0.019050715 0.02978131 -0.0037771352 0.022620402
000160 30 fc 66 3a 1b 22 ee 3b 32 1e 6f bc 7f f8 09 3b
       0.00088113826 0.0072672493 -0.0145946015 0.0021052656
000170 70 5e 71 bc d7 eb 46 bd 7c ad 00 3a 20 33 17 bd
       -0.014731988 -0.04856476 0.00049086637 -0.03691399
000180 2b 80 50 3a 90 be 6f 3b 7b 0f 43 ba e7 83 6b bc
       0.0007953669 0.003658209 -0.00074409664 -0.01437471
000190 cd 12 a0 3c f0 75 b3 ba c3 93 a2 3a da f3 11 3d
       0.019540215 -0.0013691764 0.0012403656 0.035632946
0001a0 a3 bf 31 bc 17 78 0e 3c 44 28 3a 3c 8d 38 69 bb
       -0.010848912 0.008695624 0.011362139 -0.0035586685
0001b0 9d 75 2d bc 7f 24 97 bc 2a db 05 bb ae d7 42 3c
       -0.010587123 -0.01845002 -0.0020424821 0.011892242
0001c0 8a 84 ea ba 0e 61 01 bd af 16 07 bc 1a 54 4d bc
       -0.0017892283 -0.0315867 -0.008245154 -0.012532258
0001d0 ab 37 d7 bb c3 75 a0 b9 cb 86 d5 3c f3 13 95 bc
       -0.0065679154 -0.00030605317 0.02606525 -0.01819799
0001e0 60 4a 00 3d 68 3e eb 3c dc 15 27 bd f3 e0 77 39
       0.03132093 0.028716281 -0.04079233 0.00023639556
0001f0 1f c7 24 bc 98 64 f6 bc 7b fb 6f 3c 8f 5f db 3b
       -0.01005724 -0.030077264 0.01464736 0.006694741
000200 16 52 07 3c 1b 1e 58 bc b9 1b ab bc 67 77 af 3c
       0.008259317 -0.013190771 -0.020887243 0.02141924
000210 8a 62 9d 3c eb 89 16 3c df 68 91 bb 04 09 b5 3c
       0.019212026 0.009188156 -0.0044375504 0.022099026
000220 93 4e e8 3c fb 71 f6 bb 2f 43 05 3c bf 7a 9c 3c
       0.02835778 -0.0075209117 0.008133694 0.019101499
000230 04 c8 87 bc 43 b8 60 ba a3 41 03 bc 72 2e 19 bc
       -0.016574867 -0.0008572379 -0.0080112545 -0.009349452
000240 41 42 a9 3c 39 47 b2 bc a6 ea 0d 3c 69 16 0c 3c
       0.020661475 -0.021762477 0.008661902 0.008550265
000250 7e 48 06 bd 50 dd 14 3d 75 14 dc 3a 93 f4 24 3d
       -0.032783978 0.036343873 0.0016790765 0.040272307
000260 56 4e b0 3c 6f 8a 94 bc 9b 33 b8 3b 5d 15 b1 bc
       0.021521728 -0.018132417 0.005621386 -0.021616632
000270 df 30 04 3b 7f d0 9e bc 88 b0 75 3c 6f 88 16 bb
       0.002017073 -0.019386528 0.014995702 -0.0022969504
000280 77 df a2 3c 52 53 e2 bb 75 e0 e8 bc 45 73 c9 bb
       0.019881947 -0.006906905 -0.028427342 -0.0061477744
000290 82 bd b8 3c 35 f1 c1 bc a3 07 db 3c 45 75 dd bb
       0.022551302 -0.023674587 0.02673704 -0.0067583644
0002a0 40 24 22 3c a3 a9 db 3b 9f 2a 1d 3c 67 c4 82 bb
       0.009896338 0.006703572 0.009592681 -0.003990698
0002b0 67 01 20 3c 16 5b be bb 8b dc b4 3c 73 30 ab bc
       0.009765959 -0.005809198 0.02207782 -0.020897126
0002c0 17 14 38 3b 0b 17 e6 3b c7 ee 09 3c 43 23 b9 3c
       0.0028088146 0.00702179 0.008418745 0.022599822
0002d0 bb e2 22 3d a3 7b f8 b8 cb ff 97 bc 8b 99 8f bc
       0.03976701 -0.00011848591 -0.018554589 -0.01752927
0002e0 5b f8 57 3c 58 d5 74 3c fb 57 89 3c 2e 98 29 3c
       0.013181771 0.014943443 0.016765585 0.010351224
0002f0 8b 49 cd bc 81 f1 b0 bc d5 74 c3 3c b3 e8 d0 3b
       -0.025059482 -0.021599533 0.02385942 0.006375396
000300 3a 73 65 bc bf 3e a4 3b 07 d8 0b 3d 24 16 a7 bb
       -0.014004523 0.0050123627 0.034141567 -0.005099075
000310 8f 69 9b 3c f9 5d 99 3c 1e ad 42 3b 5d 6b 9d bc
       0.018971233 0.018721567 0.0029705237 -0.019216234
000320 cb 2b d5 3c b7 5f a3 bc 2b ef fe ba 5b e4 80 bc
       0.026021859 -0.019943101 -0.001944994 -0.015733888
000330 48 28 72 3a 32 75 31 bc ea bb e6 bb 65 06 5e bc
       0.000923757 -0.010831164 -0.007041444 -0.013551329
000340 55 6a ce 3c 17 43 65 3b dd b1 88 bc bf e2 51 3c
       0.025197187 0.0034982616 -0.016686374 0.012810408
000350 7d a3 1a 3d a7 6b b2 ba 33 ff 28 3c 0b 79 19 3c
       0.03775357 -0.0013612405 0.0103147505 0.009367238
000360 37 62 83 3c 20 cb f5 bb 50 e2 ac 3c 1c 93 8c 3c
       0.016038043 -0.007501021 0.021104008 0.017159991
000370 5a f3 0e 3b d5 2e d1 3c ef a9 e5 3c 34 36 a1 bc
       0.002181253 0.025535027 0.028035132 -0.019679166
000380 13 29 44 bc af 69 66 3c f6 6c 3f bd fd 33 04 bd
       -0.0119726835 0.014063283 -0.046734773 -0.032276142
000390 61 83 b3 3b 0d f5 d8 bb 87 1e 44 bc 69 cf 42 bc
       0.005478308 -0.006621009 -0.011970169 -0.011890271
0003a0 9f 9e a9 bb 15 b6 18 3c ec 0e b6 ba fb f7 ca 3b
       -0.00517638 0.0093207555 -0.0013889945 0.0061941124
0003b0 2e 4c 1e bb c9 2c 10 bc 63 98 db 3b f7 37 c1 bc
       -0.0024154293 -0.00879974 0.0067015155 -0.023586256
0003c0 6d d4 98 3b 20 51 92 bb f2 af f4 3c 83 70 0b bc
       0.004663995 -0.0044652373 0.029869054 -0.008510712
0003d0 7b ac fa 3c c6 74 1c bd db ae 1d 3c 7d 6a 61 bc
       0.030599823 -0.0381973 0.009624208 -0.013758299
0003e0 47 59 61 3c da 8b 57 3b b3 06 81 bc 7d cf 9e 3a
       0.0137541955 0.0032889755 -0.015750265 0.001211628
0003f0 5d e0 e9 3c cf 5b c3 bb be 12 02 bd 48 83 9e 3b
       0.028549368 -0.005961872 -0.031756155 0.0048374273

network_body._body_endoder.seq_layers.0.bias f4 [128]
000000 00 00 00 00 00 00 00 00 00 00 00 00 00 00 00 00
       0.0 0.0 0.0 0.0
000010 00 00 00 00 00 00 00 00 00 00 00 00 00 00 00 00
       0.0 0.0 0.0 0.0
000020 00 00 00 00 00 00 00 00 00 00 00 00 00 00 00 00
       0.0 0.0 0.0 0.0
000030 00 00 00 00 00 00 00 00 00 00 00 00 00 00 00 00
       0.0 0.0 0.0 0.0
000040 00 00 00 00 00 00 00 00 00 00 00 00 00 00 00 00
       0.0 0.0 0.0 0.0
000050 00 00 00 00 00 00 00 00 00 00 00 00 00 00 00 00
       0.0 0.0 0.0 0.0
000060 00 00 00 00 00 00 00 00 00 00 00 00 00 00 00 00
       0.0 0.0 0.0 0.0
000070 00 00 00 00 00 00 00 00 00 00 00 00 00 00 00 00
       0.0 0.0 0.0 0.0
000080 00 00 00 00 00 00 00 00 00 00 00 00 00 00 00 00
       0.0 0.0 0.0 0.0
000090 00 00 00 00 00 00 00 00 00 00 00 00 00 00 00 00
       0.0 0.0 0.0 0.0
0000a0 00 00 00 00 00 00 00 00 00 00 00 00 00 00 00 00
       0.0 0.0 0.0 0.0
0000b0 00 00 00 00 00 00 00 00 00 00 00 00 00 00 00 00
       0.0 0.0 0.0 0.0
0000c0 00 00 00 00 00 00 00 00 00 00 00 00 00 00 00 00
       0.0 0.0 0.0 0.0
0000d0 00 00 00 00 00 00 00 00 00 00 00 00 00 00 00 00
       0.0 0.0 0.0 0.0
0000e0 00 00 00 00 00 00 00 00 00 00 00 00 00 00 00 00
       0.0 0.0 0.0 0.0
0000f0 00 00 00 00 00 00 00 00 00 00 00 00 00 00 00 00
       0.0 0.0 0.0 0.0
000100 00 00 00 00 00 00 00 00 00 00 00 00 00 00 00 00
       0.0 0.0 0.0 0.0
000110 00 00 00 00 00 00 00 00 00 00 00 00 00 00 00 00
       0.0 0.0 0.0 0.0
000120 00 00 00 00 00 00 00 00 00 00 00 00 00 00 00 00
       0.0 0.0 0.0 0.0
000130 00 00 00 00 00 00 00 00 00 00 00 00 00 00 00 00
       0.0 0.0 0.0 0.0
000140 00 00 00 00 00 00 00 00 00 00 00 00 00 00 00 00
       0.0 0.0 0.0 0.0
000150 00 00 00 00 00 00 00 00 00 00 00 00 00 00 00 00
       0.0 0.0 0.0 0.0
000160 00 00 00 00 00 00 00 00 00 00 00 00 00 00 00 00
       0.0 0.0 0.0 0.0
000170 00 00 00 00 00 00 00 00 00 00 00 00 00 00 00 00
       0.0 0.0 0.0 0.0
000180 00 00 00 00 00 00 00 00 00 00 00 00 00 00 00 00
       0.0 0.0 0.0 0.0
000190 00 00 00 00 00 00 00 00 00 00 00 00 00 00 00 00
       0.0 0.0 0.0 0.0
0001a0 00 00 00 00 00 00 00 00 00 00 00 00 00 00 00 00
       0.0 0.0 0.0 0.0
0001b0 00 00 00 00 00 00 00 00 00 00 00 00 00 00 00 00
       0.0 0.0 0.0 0.0
0001c0 00 00 00 00 00 00 00 00 00 00 00 00 00 00 00 00
       0.0 0.0 0.0 0.0
0001d0 00 00 00 00 00 00 00 00 00 00 00 00 00 00 00 00
       0.0 0.0 0.0 0.0
0001e0 00 00 00 00 00 00 00 00 00 00 00 00 00 00 00 00
       0.0 0.0 0.0 0.0
0001f0 00 00 00 00 00 00 00 00 00 00 00 00 00 00 00 00
       0.0 0.0 0.0 0.0

network_body._body_endoder.seq_layers.0.weight f4 [128, 5]
000000 ca 6e 9d 3e 65 e6 25 bf 21 ba 9d bd 68 34 36 3f
       0.30748588 -0.6480468 -0.07701517 0.71173716
000010 a6 43 a1 3d e2 06 3d be a9 ee 96 3c bf 44 93 3e
       0.07874231 -0.18459657 0.018424349 0.28763387
000020 e0 ba b2 be 63 1e 9b be 65 dd 4b bf c1 79 a6 be
       -0.349082 -0.3029662 -0.79634696 -0.32514766
000030 32 fa 35 3e bf 16 97 be 9a 57 2b 3f 81 4e 67 3e
       0.17771223 -0.2950954 0.66930544 0.2258854
000040 6a 06 12 3e 71 34 93 be 71 52 42 3e 21 0d 9f 3e
       0.1426026 -0.28750947 0.18976761 0.31064704
000050 10 10 8f 3e b7 17 ff 3d 8e 31 3e bd a7 a8 05 3f
       0.27941942 0.12455695 -0.046433978 0.5221047
000060 94 39 4d be 7c af 87 3e 2b ab 96 bf f9 d0 fa 3a
       -0.20041496 0.2650107 -1.1770986 0.0019135765
000070 f5 b4 fd bc e7 92 8d 3e 68 a8 02 3d bc a7 a6 3d
       -0.030970076 0.2765114 0.031898886 0.081374615
000080 d1 0c dd bd 77 31 80 3e 99 2c 20 3e c6 24 af 3f
       -0.1079346 0.2503774 0.15642013 1.3683097
000090 e7 0c 2c be dc 23 64 bf 50 38 3a 3d 69 78 af 3c
       -0.16801797 -0.8911722 0.04546386 0.02141972
0000a0 78 1f 9f 3e 2a 3e 89 3e 70 d3 7a 3f 9f 7d 54 be
       0.31078696 0.2680524 0.9797888 -0.20751046
0000b0 bf ad 12 be d7 9e ad be 6d 38 21 be a3 75 08 bf
       -0.14324091 -0.33910248 -0.15744181 -0.533045
0000c0 35 70 82 be 35 d7 a6 3e a1 88 28 bf 85 12 1f be
       -0.25476232 0.32586065 -0.6583348 -0.15534408
0000d0 1c 84 a7 be b3 05 a5 be eb e3 ab 3c b7 49 3d 3f
       -0.3271798 -0.3223091 0.020982703 0.73940605
0000e0 07 e0 32 3f 06 c2 3f be 58 cb cc bd 35 ba 8a 3d
       0.6987309 -0.18726358 -0.09999722 0.067737974
0000f0 31 d6 ac 3e a1 dd 44 bf 64 dc 8c be bc 1e 3e bf
       0.33757165 -0.7690068 -0.27511895 -0.74265647
000100 d2 80 6e be c5 ae c6 be bc 82 82 3e c9 b9 3f 3c
       -0.23291329 -0.38805214 0.25490367 0.0117020095
000110 e3 90 1c 3f 6d 94 94 3f 1c 20 b5 3e 5c a1 81 3e
       0.6115858 1.1607796 0.3537606 0.2531842
000120 75 d8 be bb 56 02 ab be ea d8 f6 be 09 56 ad be
       -0.0058241435 -0.3340022 -0.48212367 -0.33854702
000130 0e c9 90 3c 76 3a 17 bf 45 ad 44 3e 41 e4 75 be
       0.017673995 -0.5907358 0.19206722 -0.24012853
000140 6f 9c 07 3d 12 ea 48 3e 85 ee 23 bd cd ff a7 3e
       0.03310817 0.1962054 -0.04002239 0.32812348
000150 b2 8b 51 3d 31 2d ca 3d b9 f0 91 3e f0 39 db 3e
       0.051158614 0.09871901 0.2850397 0.4281764
000160 07 78 85 3d 80 d9 c0 3e 7f e3 30 3e dc 64 38 3e
       0.06517034 0.3766594 0.17274283 0.18007225
000170 c8 21 a4 3d 94 29 d9 be 15 7c f2 be ea 45 3b 3d
       0.08014256 -0.42414534 -0.47360292 0.045720972
000180 9d 52 d2 be b6 87 8c 3e 75 7e 11 bf dd c5 8f bd
       -0.41078654 0.2744729 -0.56833583 -0.07020161
000190 21 b2 a1 3e e0 f3 6b be e6 aa 0d bf 9f 64 90 3d
       0.31581214 -0.2304225 -0.55338895 0.07050442
0001a0 1f ab 13 be 6d 6e 0a bf 09 f5 98 bd 7b f3 c7 3e
       -0.14420746 -0.54074746 -0.07468612 0.39052948
0001b0 eb 85 8e bd 8c 1a 06 bf 98 6d a1 3e bb 5b 89 bf
       -0.069591366 -0.5238426 0.31528926 -1.0731119
0001c0 7f 84 19 3e 3f 3c 0d bf 43 91 9c be 63 f3 c0 bd
       0.1499195 -0.55170053 -0.30579576 -0.09421422
0001d0 3a c9 c5 be a6 20 14 bf c3 2a 00 3f c5 a4 ed bd
       -0.38630086 -0.5786232 0.5006525 -0.11603693
0001e0 6a 40 1f bf 47 2e fa 3d 0b f2 a5 bd 63 90 c9 be
       -0.62207663 0.12215858 -0.08102807 -0.3936797
0001f0 1e 06 27 3f f7 f9 b7 3e e3 a7 7b 3e 13 f6 c1 be
       0.6524371 0.35932896 0.24575762 -0.37883052
000200 48 1c 3a be 1f 01 f6 bc 25 4f 18 be 9e 46 0c 3e
       -0.18174851 -0.030029831 -0.14873941 0.13698813
000210 71 a3 6d bf be b9 ac bd 49 9a 27 be 58 a1 1b 3e
       -0.92827517 -0.08433865 -0.16367449 0.15198267
000220 0c 63 15 bd e2 eb e8 bd ed d8 86 be 1d ba 41 3e
       -0.03647141 -0.11373116 -0.26337376 0.18918653
000230 fe b0 46 3e c2 bc d9 3e 88 dd ed be 87 68 a4 3d
       0.19403455 0.42526823 -0.46458077 0.080277495
000240 63 4d 9e 3e e6 26 33 3e 58 f9 27 3f 89 56 4b 3d
       0.30918416 0.17495307 0.65614843 0.049643073
000250 9c c3 10 3f 88 bc 2b 3e 8c e8 ae be e9 22 10 bf
       0.56548476 0.16771138 -0.34161794 -0.5630327
000260 a1 bd 18 bf 61 95 dc 3e 53 22 bc 3d ac f1 59 3e
       -0.5966435 0.43082717 0.09186234 0.21283597
000270 e9 43 16 be 19 b1 8d be 81 2d 05 3f 29 79 a0 be
       -0.14674343 -0.27674177 0.5202256 -0.31342438
000280 04 93 cb 3e 94 af 81 bd 87 c6 3d bf 1f ee 32 bf
       0.39760602 -0.06332317 -0.74131054 -0.69894594
000290 46 1b 20 be dc 6f a0 3e 88 a5 0a 3f c9 26 bf bc
       -0.15635404 0.31335342 0.5415883 -0.023333924
0002a0 ae f6 04 bf b7 81 e2 3e fd fa c0 3e 70 d3 93 3d
       -0.51938903 0.4423959 0.3769149 0.07218063
0002b0 74 d9 ba be 8c af bc be ed f7 d1 3e d9 7a 2f be
       -0.3649403 -0.36852682 0.41009465 -0.17136706
0002c0 d8 60 c4 be 3f 8a f8 3e 29 0f fa bd 89 76 88 3e
       -0.38355136 0.48542973 -0.12209923 0.26652935
0002d0 cc 7d 42 be 8f a6 70 3e 0b cc e3 be 7c c1 88 3d
       -0.189933 0.23501037 -0.4449161 0.06677529
0002e0 20 8e 0c 3f 6a 20 17 3f 1e 38 9b bd ed 67 00 3f
       0.54904366 0.59033835 -0.07579063 0.5015858
0002f0 55 2a 87 3d ba 70 b2 3e 34 74 a2 3d a5 bd 4e 3c
       0.06599871 0.3485163 0.0793232 0.012618457
000300 b6 38 d8 be 8e fa 33 3f af 01 9b be b5 a5 42 3f
       -0.42230767 0.7030419 -0.30274722 0.760341
000310 5e 96 3c bf ab 4a 9e 3e 56 5b c4 be 16 16 65 be
       -0.7366694 0.30916342 -0.38350934 -0.22371706
000320 d0 4b 7a be 50 0b e9 be 80 17 a8 3e 7d c8 97 be
       -0.24442983 -0.45516443 0.3283043 -0.29645148
000330 6a ad 2a bf 12 84 49 3d 86 95 43 3e 8c c4 61 3c
       -0.6667086 0.049198218 0.19100007 0.013779771
000340 f1 f3 f1 3d d1 d6 cb 3e 3e 65 49 bf bd 19 b0 3e
       0.11814106 0.3981233 -0.7867011 0.34394637
000350 9e b6 03 bf 0b ce 82 3e 6c 74 39 bf be f0 c0 3e
       -0.51450527 0.25547823 -0.7244327 0.37683672
000360 46 25 84 3e 6f 45 38 3e 72 b1 89 bf e8 c7 58 3d
       0.25809687 0.17995237 -1.0757277 0.05292502
000370 8c bd b3 3e 96 11 a6 3e 6b 5c 5d 3d 60 83 3b bf
       0.3510555 0.32435292 0.054043215 -0.7324734
000380 33 f3 2a 3f 96 29 41 3d f8 b6 ac be 0e fc 56 3d
       0.6677734 0.0471588 -0.33733344 0.05248647
000390 d3 e1 be 3e 67 c3 97 3e 83 b3 15 be 99 3f 89 3e
       0.37281665 0.29641268 -0.1461926 0.26806334
0003a0 ba 83 b2 3d 7d d3 e0 3e fd 49 04 bf 64 42 34 3d
       0.08716531 0.43911353 -0.516754 0.044008628
0003b0 da c6 6b be 95 ae 39 be 92 60 2f 3e 2e f4 f9 3d
       -0.23025075 -0.18133004 0.17126682 0.12204777
0003c0 df 33 da 3e 8d ed f7 be a9 1c 8d be 3c ad ba bd
       0.426177 -0.48423424 -0.27560928 -0.09115073
0003d0 27 48 8d 3e ad 25 3a 3f 95 b8 69 be 70 c1 f3 bd
       0.2759411 0.7271374 -0.22824319 -0.1190213
0003e0 81 e6 b6 3e 04 a5 6a 3f 69 f4 43 bd b6 ac 9d be
       0.35722736 0.91658044 -0.04784051 -0.3079583
0003f0 d1 c7 ee 3e 3c 53 b1 bc cc 3a 29 be cb 2a b5 3e
       0.46636823 -0.021646135 -0.16526335 0.3538421

network_body._body_endoder.seq_layers.2.bias f4 [128]
000000 00 00 00 00 00 00 00 00 00 00 00 00 00 00 00 00
       0.0 0.0 0.0 0.0
000010 00 00 00 00 00 00 00 00 00 00 00 00 00 00 00 00
       0.0 0.0 0.0 0.0
000020 00 00 00 00 00 00 00 00 00 00 00 00 00 00 00 00
       0.0 0.0 0.0 0.0
000030 00 00 00 00 00 00 00 00 00 00 00 00 00 00 00 00
       0.0 0.0 0.0 0.0
000040 00 00 00 00 00 00 00 00 00 00 00 00 00 00 00 00
       0.0 0.0 0.0 0.0
000050 00 00 00 00 00 00 00 00 00 00 00 00 00 00 00 00
       0.0 0.0 0.0 0.0
000060 00 00 00 00 00 00 00 00 00 00 00 00 00 00 00 00
       0.0 0.0 0.0 0.0
000070 00 00 00 00 00 00 00 00 00 00 00 00 00 00 00 00
       0.0 0.0 0.0 0.0
000080 00 00 00 00 00 00 00 00 00 00 00 00 00 00 00 00
       0.0 0.0 0.0 0.0
000090 00 00 00 00 00 00 00 00 00 00 00 00 00 00 00 00
       0.0 0.0 0.0 0.0
0000a0 00 00 00 00 00 00 00 00 00 00 00 00 00 00 00 00
       0.0 0.0 0.0 0.0
0000b0 00 00 00 00 00 00 00 00 00 00 00 00 00 00 00 00
       0.0 0.0 0.0 0.0
0000c0 00 00 00 00 00 00 00 00 00 00 00 00 00 00 00 00
       0.0 0.0 0.0 0.0
0000d0 00 00 00 00 00 00 00 00 00 00 00 00 00 00 00 00
       0.0 0.0 0.0 0.0
0000e0 00 00 00 00 00 00 00 00 00 00 00 00 00 00 00 00
       0.0 0.0 0.0 0.0
0000f0 00 00 00 00 00 00 00 00 00 00 00 00 00 00 00 00
       0.0 0.0 0.0 0.0
000100 00 00 00 00 00 00 00 00 00 00 00 00 00 00 00 00
       0.0 0.0 0.0 0.0
000110 00 00 00 00 00 00 00 00 00 00 00 00 00 00 00 00
       0.0 0.0 0.0 0.0
000120 00 00 00 00 00 00 00 00 00 00 00 00 00 00 00 00
       0.0 0.0 0.0 0.0
000130 00 00 00 00 00 00 00 00 00 00 00 00 00 00 00 00
       0.0 0.0 0.0 0.0
000140 00 00 00 00 00 00 00 00 00 00 00 00 00 00 00 00
       0.0 0.0 0.0 0.0
000150 00 00 00 00 00 00 00 00 00 00 00 00 00 00 00 00
       0.0 0.0 0.0 0.0
000160 00 00 00 00 00 00 00 00 00 00 00 00 00 00 00 00
       0.0 0.0 0.0 0.0
000170 00 00 00 00 00 00 00 00 00 00 00 00 00 00 00 00
       0.0 0.0 0.0 0.0
000180 00 00 00 00 00 00 00 00 00 00 00 00 00 00 00 00
       0.0 0.0 0.0 0.0
000190 00 00 00 00 00 00 00 00 00 00 00 00 00 00 00 00
       0.0 0.0 0.0 0.0
0001a0 00 00 00 00 00 00 00 00 00 00 00 00 00 00 00 00
       0.0 0.0 0.0 0.0
0001b0 00 00 00 00 00 00 00 00 00 00 00 00 00 00 00 00
       0.0 0.0 0.0 0.0
0001c0 00 00 00 00 00 00 00 00 00 00 00 00 00 00 00 00
       0.0 0.0 0.0 0.0
0001d0 00 00 00 00 00 00 00 00 00 00 00 00 00 00 00 00
       0.0 0.0 0.0 0.0
0001e0 00 00 00 00 00 00 00 00 00 00 00 00 00 00 00 00
       0.0 0.0 0.0 0.0
0001f0 00 00 00 00 00 00 00 00 00 00 00 00 00 00 00 00
       0.0 0.0 0.0 0.0

network_body._body_endoder.seq_layers.2.weight f4 [128, 128]
000000 a8 47 4c 3c 77 36 f9 bb cf 38 21 bb d8 49 78 bd
       0.012468256 -0.0076053697 -0.002460051 -0.060617298
000010 4a c8 8b bc 84 90 29 bd b3 0f d8 3d a3 25 12 3e
       -0.017063279 -0.041397586 0.105498694 0.1427217
000020 6c 81 89 bd bc bb ed bd 83 ab d9 bd 97 72 6f 3d
       -0.067141384 -0.11608073 -0.106284164 0.05845889
000030 a6 c6 65 bd 7e b0 9e bd a0 81 9c bd 5b 83 24 bd
       -0.05609765 -0.07748507 -0.076419115 -0.040164333
000040 d8 d1 08 be ae 67 0f bd ff d8 15 3e 79 b4 6f 3c
       -0.13361299 -0.035010986 0.14633559 0.01463043
000050 38 e9 a7 3d ce 27 20 3e 0b c5 11 3e 80 6e ed 3c
       0.0819878 0.15640184 0.14235322 0.028983355
000060 8e be f9 3c 7d bc f1 3d 37 42 cd bc 1e 16 3f bd
       0.030486371 0.118035294 -0.025055988 -0.046651952
000070 20 fb 12 bd 4f e5 42 3c 1d 46 ba 3d 06 eb 72 3b
       -0.035884023 0.011895492 0.09095404 0.0037066354
000080 5f 56 17 ba dc 1b aa bd 34 d5 89 3d ca 6f 3a 3d
       -0.0005773063 -0.08306095 0.067301184 0.045516767
000090 f0 62 70 bd 40 8d 16 3e 1d 87 e9 bd e9 dc 9a bd
       -0.058688104 0.1470232 -0.11402724 -0.075616665
0000a0 0f 7c fb 3c 5c ff de 3c 23 bd 2b 3d 4f 6e 5d 3d
       0.030698804 0.027221374 0.04192842 0.054060277
0000b0 3c 16 48 bc 11 40 60 bc e5 21 ea bd 85 09 d3 bc
       -0.012212332 -0.01368715 -0.11432246 -0.025761375
0000c0 40 2f 01 3e 4d 3e 84 3d 5f 5f 08 3e 89 58 d8 bd
       0.1261568 0.064571954 0.13317631 -0.10563762
0000d0 27 0e 97 bd 68 61 25 bd f4 0e 8d bd 12 c1 87 3d
       -0.07375746 -0.040376097 -0.06887618 0.06628622
0000e0 78 35 77 3c 10 fc 83 bd 9d 4e 1b 3e a8 f0 ce 3c
       0.015088432 -0.064445615 0.15166707 0.025261238
0000f0 cc 23 21 bd 4d 4e 83 bd 19 12 3c 3d 9f 57 2e bd
       -0.03934078 -0.06411419 0.045915697 -0.04256403
000100 64 e3 b5 3d e6 88 b4 bd 50 52 8d 3d 64 41 38 3e
       0.08881262 -0.08815174 0.069004655 0.17993695
000110 fe 72 39 be 86 fa ca bc ff 73 7a 3c 71 72 9e bb
       -0.18110272 -0.024777662 0.015286445 -0.00483542
000120 17 91 d2 3c bc 6e ba 3d 51 b5 55 bd ad 47 c9 bd
       0.02570395 0.09103152 -0.05217487 -0.09828124
000130 73 5c 7a 3d d5 29 e3 3d f1 24 8a bd b8 e0 22 3e
       0.061123323 0.11091963 -0.06745327 0.15906036
000140 3a 99 4f bd cd 5e c1 bc 94 60 7a bd 04 36 91 3d
       -0.050683238 -0.023604775 -0.06112726 0.07090381
000150 9e ff 09 bd 47 d3 d0 3c 99 54 22 be 93 17 81 3d
       -0.03369104 0.02549137 -0.15852584 0.063033246
000160 8b 02 d9 bc 55 d2 9d 3c a6 24 a5 3d 9d c0 f5 3c
       -0.02649047 0.019265333 0.08063631 0.029999072
000170 72 89 aa bc ec fc 1a 3d 97 fd c7 bc 68 90 54 bd
       -0.020817492 0.03783886 -0.024412913 -0.05189553
000180 f7 18 1a bd 90 00 6e 3d 8d 67 7f be a8 f8 6d bd
       -0.037621465 0.058106005 -0.24941845 -0.058098465
000190 bd d7 06 3e d6 08 32 bb 6d 52 c0 bc 24 38 d0 3d
       0.13168235 -0.002716591 -0.023476804 0.10166958
0001a0 1b f3 1f 3d 5d 6a 06 bd 44 ec 8f 3d 1f ee d4 3d
       0.039050203 -0.03281628 0.07027486 0.103969805
0001b0 c5 79 6d 3d d7 41 3a 3d f6 cb c2 ba 89 4b 80 bd
       0.057977457 0.045472946 -0.001486181 -0.06264407
0001c0 fa a7 b7 bd cc 4e 84 bd 97 25 a5 bc f5 5a a4 bc
       -0.08967586 -0.06460342 -0.020159526 -0.020062903
0001d0 d2 c0 a2 3d 88 b5 73 bd 5f 75 bd 3d e2 73 d1 ba
       0.07946934 -0.059499294 0.092509024 -0.001597997
0001e0 af c9 26 bd d1 29 45 bd e1 b0 ba 3d 33 1f 00 be
       -0.040719684 -0.048135582 0.09115768 -0.12511902
0001f0 e1 94 d8 bd 52 f1 96 3d b3 84 17 bd 88 47 00 3e
       -0.105752714 0.07370247 -0.036991786 0.12527287
000200 94 e9 af bc d4 ae 91 bd 4c 25 6f 3d c5 f0 1b 3c
       -0.021473683 -0.07113424 0.05838518 0.009517853
000210 0d 9c 68 3e 08 c4 54 3d 96 37 76 bc a5 4a 0c 3e
       0.22715779 0.051944762 -0.015027901 0.1370035
000220 c5 d8 c0 bd b8 0c 9a bd cb ed bd bd cb a4 ca bd
       -0.094163455 -0.07521957 -0.09273871 -0.09894713
000230 e9 7f d2 bc 39 56 f5 bc 02 ab ac 3d a8 aa a7 bd
       -0.025695758 -0.02994834 0.08431055 -0.08186847
000240 34 51 ab bc 0f 9e d6 3d 84 80 15 3d 77 72 41 be
       -0.020912744 0.10479366 0.036499515 -0.18891321
000250 a3 27 dd bc f7 4b b5 3d 41 19 4e be f6 29 03 3e
       -0.02699644 0.0885238 -0.20126821 0.12808976
000260 09 80 b5 bd 22 54 02 bb 71 33 8a 3a 4b da f6 bd
       -0.088623114 -0.0019886573 0.0010543895 -0.12053355
000270 e1 c4 13 3c de e2 56 3e 21 2e 2b bd fe 7d 62 bd
       0.009019108 0.2098498 -0.04179204 -0.055295937
000280 35 8d 94 3d 26 ce b0 bc 1d 4e 2d bd e8 1d 26 be
       0.072534956 -0.021582674 -0.042310823 -0.16222346
000290 de 91 8c 3d ef 90 38 bd 30 fa 99 3d 41 2d 04 3d
       0.068637595 -0.045060094 0.075184226 0.03226972
0002a0 ac e4 ac 3d 02 fd fb 3d 36 cc 33 bd b7 51 c4 bb
       0.08442053 0.12304117 -0.043895923 -0.0059911865
0002b0 f8 2b d4 bd 7a 11 81 3e 1d 9e 6c bd d4 55 31 bd
       -0.10359949 0.25208646 -0.057767976 -0.043294743
0002c0 f0 73 8f 3c 44 f1 c0 bd cd 3a b7 3c a0 63 8f bd
       0.017511338 -0.09421018 0.022366906 -0.07001424
0002d0 2e f4 41 be 1a 71 97 3d 5a 5b a2 bc e1 ff 09 3b
       -0.18940803 0.07394619 -0.01981895 0.0021057057
0002e0 43 24 f0 bb de 47 1a 3e c9 ce 34 bd cd b1 a4 bc
       -0.0073285415 0.15066478 -0.04414252 -0.020104313
0002f0 b7 65 f9 bd 61 56 aa bd 1b 1a 65 be 4d a2 96 bc
       -0.12177604 -0.08317257 -0.2237324 -0.018387938
000300 e7 56 b7 3d 2a 66 41 3d b6 5f d2 bd de 83 02 be
       0.08952122 0.047216572 -0.10272162 -0.12745616
000310 b8 7f fc 3d cc f7 3b 3e d6 ef 5e 3e 56 48 2d 3e
       0.12329048 0.18356246 0.21771178 0.16922125
000320 07 bd 33 3e 7b 44 0e 3d c0 a2 9c bd 01 91 10 3d
       0.17552577 0.034733277 -0.076482296 0.035294537
000330 9c 8a 17 bd 79 f8 b1 bd 32 fc 18 bd 17 0b 05 3e
       -0.036997423 -0.086899705 -0.037349887 0.12992512
000340 d2 53 77 bd c9 57 2c bd f4 8e 15 bd 13 e3 8b bc
       -0.06038267 -0.042075906 -0.036513284 -0.01707605
000350 98 4e f3 3d 3f 0c 30 bd 1a ce ba bd ec 27 54 3d
       0.11880225 -0.04298043 -0.09121342 0.051795885
000360 9a 70 0a bd cd 46 02 3d d8 ab e5 3c 7e b9 ca bd
       -0.03379879 0.031805802 0.028036043 -0.09898661
000370 59 0b 8b bd 13 91 3d 3d 03 a0 8d ba 7e e8 0a bd
       -0.06789274 0.04628093 -0.0010805133 -0.033913128
000380 98 eb 10 bd 01 96 c7 bd 8e 73 fb bc af d8 75 3a
       -0.03538093 -0.09745408 -0.03069475 0.00093782967
000390 3b 6e 1a 3d 68 14 27 bc da 8c 0a bd a2 ce 90 bd
       0.03770278 -0.010197736 -0.033825733 -0.07070662
0003a0 f2 14 29 bd a7 42 4d bd 89 e7 45 3e 07 f1 4a 3d
       -0.04127974 -0.050112393 0.19326605 0.049546268
0003b0 8f 82 25 3d be 41 2c bc 2e b8 94 3a 1e ce 88 3c
       0.040407714 -0.010513721 0.0011346394 0.016699847
0003c0 5b 2d ce 3d ad 52 61 3b 02 c5 b5 3b 0b f3 8b bc
       0.100672446 0.0034381554 0.005547167 -0.017083665
0003d0 58 3d 89 bd 27 f5 02 be c2 1d 82 bd a5 49 77 3d
       -0.067011535 -0.1278883 -0.06353332 0.060372967
0003e0 cf ac 74 bd db 82 7d bc b0 89 39 3e 67 85 09 3d
       -0.059735116 -0.015473093 0.1811893 0.033574488
0003f0 61 0d 10 bd c7 e5 69 bd 9b e3 2f bd 9b 76 d0 bb
       -0.03516901 -0.0571039 -0.04294167 -0.006361795
