results/ppo/My Behaviour/My Behaviour-83125.pt (torch, 429279 bytes, 36 tensors)

network_body._body_endoder.seq_layers.0.weight f4 [128, 3]
0	0x3f889c67	1.067273
1	0xbe32b607	-0.1745225
2	0xbf3d9894	-0.7406094
3	0xbe269c50	-0.16270566
4	0xbecdee2f	-0.40220782
5	0xbdd1d5dc	-0.102458686
6	0xbe5ddd3a	-0.21666422
7	0x3ecc4d76	0.39902848
8	0xbe9ee93a	-0.31037313
9	0xbda39654	-0.07987657
10	0x3e8899f8	0.2667997
11	0xbee50de0	-0.44737148
12	0x3ea7e35e	0.32790655
13	0xbee6aca9	-0.45053604
14	0x3e4ba8db	0.19888632
15	0xbf0356b8	-0.513042
16	0xbd79e41e	-0.061008565
17	0x3de2c983	0.110735916
18	0xbe2e0597	-0.1699432
19	0xbec7edbf	-0.39048573
20	0x3f1bc131	0.6084166
21	0xbf89b9b3	-1.0759796
22	0x3eb0dd5b	0.3454388
23	0x3f13ef07	0.577866
24	0x3f2c6ed5	0.67356616
25	0x3eb9519e	0.3619508
26	0xbf3dff82	-0.74218
27	0x3eae4bc1	0.3404217
28	0x3fa4ffaf	1.2890528
29	0xbf6cbef2	-0.9247886
30	0xbf092125	-0.535662
31	0xbea7a8c5	-0.32745948
32	0x3f1709e0	0.58999443
33	0x3f96675d	1.1750294
34	0x3d944055	0.07238833
35	0x3e200f1a	0.15630761
36	0xbdf29f5e	-0.11846803
37	0x3f1e828f	0.61917967
38	0xbf841c6e	-1.0321176
39	0xbf315ee2	-0.69285405
40	0xbeafa3d9	-0.34304693
41	0xbf0834ab	-0.53205365
42	0xbe60f716	-0.21969256
43	0xbf8a7afe	-1.0818784
44	0xbd26de2b	-0.04073922
45	0x3cb8504a	0.022499222
46	0x3f27e4b3	0.6558334
47	0xbe165cd6	-0.14683852
48	0x3f47265b	0.777929
49	0x3f4e82db	0.8066842
50	0xbefd2d43	-0.49448594
51	0xbc20314c	-0.009777378
52	0xbef76871	-0.4832187
53	0x3f222a82	0.6334611
54	0xbde24ad7	-0.11049431
55	0xbf0e2047	-0.55518
56	0xbe551df9	-0.20812215
57	0x3d933d9f	0.07189488
58	0xbf2aa92d	-0.6666439
59	0xbf260350	-0.64848804
60	0xbe511ad4	-0.2042039
61	0x3ef34e7c	0.47520816
62	0x3e65bb03	0.2243462
63	0xbd01664b	-0.031591695
64	0x3daa8324	0.08325794
65	0x3e23d76d	0.16000147
66	0x3eee3b12	0.46529442
67	0xbe6b3592	-0.22969654
68	0x3e7d2695	0.24721749
69	0x3ea9bb0c	0.33150518
70	0xbe8c1320	-0.2735834
71	0x3dfc4908	0.12318617
72	0x3e512bca	0.2042686
73	0x3e8fb2b5	0.2806603
74	0x3f4639e1	0.77432066
75	0xbf1d3388	-0.61406755
76	0xbf8a4d59	-1.0804855
77	0xbf341cc1	-0.70356375
78	0x3f22b04a	0.63550246
79	0xbe13705f	-0.14398335
80	0xbe9db693	-0.30803356
81	0x3d507365	0.0508913
82	0x3e218c6c	0.15776223
83	0x3ed49d26	0.41526145
84	0xbf92403d	-1.1425854
85	0x3f071ca3	0.5277807
86	0xbf3a6089	-0.7280355
87	0x3fb5f86b	1.4216436
88	0x3e17e4fa	0.14833441
89	0x3d9f8ebb	0.077908956
90	0x3d130b17	0.035899248
91	0x3eb786b6	0.35844964
92	0x3e048bdc	0.12943977
93	0x3df5a3a5	0.11994103
94	0x3ec995e3	0.39372167
95	0xbf2026e7	-0.6255936
96	0xbe8f03d3	-0.27932605
97	0x3ee4168d	0.44548455
98	0xbe8e9fda	-0.27856332
99	0x3f0ba66a	0.545508
100	0xbe492e4d	-0.19646569
101	0xbe63a115	-0.22229417
102	0xbc16d725	-0.009206568
103	0x3fa0b4c2	1.2555163
104	0x3faaca0e	1.3342912
105	0x3f5ca167	0.8618378
106	0xbe1422ae	-0.14466354
107	0x3eccec18	0.40023875
108	0x3f6c1682	0.92221844
109	0xbe330dc3	-0.17485718
110	0xbde839e7	-0.11339169
111	0x3e18dc9e	0.14927909
112	0x3d0658bf	0.03279948
113	0x3ea25031	0.31701806
114	0xbad2c0bd	-0.0016079169
115	0x3efce230	0.49391317
116	0xbf04b9ce	-0.51846015
117	0xbc9b9166	-0.01899023
118	0xbe0d8173	-0.13818912
119	0x3e5afc33	0.21385269
120	0xbec37f93	-0.3818327
121	0xbf2527ac	-0.6451366
122	0xbe6cad03	-0.23112874
123	0xbf100cef	-0.56269735
124	0x3f9664c6	1.1749504
125	0x3e26186f	0.16220258
126	0x3f11c7a8	0.56945276
127	0x3f8c72b6	1.0972507
128	0xbeb3ad89	-0.35093334
129	0xbf35f3f6	-0.7107538
130	0xbf3b2ac3	-0.73112124
131	0x3f29fe7d	0.66403943
132	0xbec78c6f	-0.3897433
133	0xbe6bcfbb	-0.23028462
134	0xbf0ae55e	-0.54256237
135	0x3fa6e33d	1.3038098
136	0x3f2a9292	0.666299
137	0x3f828e56	1.0199687
138	0x3fae724b	1.362863
139	0x3dc7791f	0.09739899
140	0xbece971a	-0.40349656
141	0x3d75be63	0.05999602
142	0xbf7c17b8	-0.9847369
143	0x3d634fa5	0.055495877
144	0x3ddba1a5	0.107241906
145	0xbe051a2d	-0.12998267
146	0xbd694937	-0.05695459
147	0x3ca3f93d	0.020016307
148	0xbdb1eaee	-0.086873874
149	0x3f21dbbf	0.6322593
150	0xbfa37b3c	-1.2771983
151	0xbf04a06b	-0.5180728
152	0xbf58fdbb	-0.8476216
153	0x3e1443c2	0.14478973
154	0xbf0e4d86	-0.5558704
155	0xbad7527d	-0.0016427782
156	0xbf946b5a	-1.1595261
157	0x3e49d948	0.19711792
158	0xbe1611f8	-0.14655292
159	0xbf086973	-0.532859
160	0xbfa8151a	-1.313144
161	0x3e55cba0	0.20878458
162	0x3e47760b	0.19478624
163	0xbf8f701a	-1.1206086
164	0x3ebb2745	0.36553398
165	0x3ed9ffc1	0.42577937
166	0xbf61b852	-0.88171875
167	0xbf9d21c9	-1.2275935
168	0x3d4d52f4	0.05012794
169	0xbd3bb66c	-0.045828268
170	0x3f4150f8	0.75514174
171	0x3f2c6be9	0.6735216
172	0x3e0f9ab8	0.14023864
173	0x3faa0a85	1.328446
174	0x3dbe35fa	0.09287639
175	0x3e51c11c	0.20483822
176	0x3eb84442	0.35989577
177	0xbf8453d2	-1.033808
178	0x3f0a3e70	0.5400152
179	0xbea1d6a5	-0.31609073
180	0x3ed6a147	0.4191992
181	0xbf992168	-1.196332
182	0xbf07ce0d	-0.53048784
183	0xbd3a4f21	-0.04548562
184	0xbee77b2b	-0.45211157
185	0x3e9a6d1d	0.30161372
186	0xbf929c56	-1.145396
187	0xbe558edc	-0.20855278
188	0x3e7971d3	0.24359827
189	0x3d0aa718	0.03385076
190	0x3f1e9d94	0.61959195
191	0x3f349eb0	0.7055464
192	0x3daf9eaa	0.08575185
193	0xbee7574d	-0.45183793
194	0x3eb76dd5	0.35825983
195	0xbf2be987	-0.6715321
196	0xbf421695	-0.7581571
197	0xbdeedcd1	-0.11663211
198	0x3e603bc1	0.21897794
199	0xbee9b0b1	-0.45642617
200	0xbcde8155	-0.02716128
201	0x3f7ee3a8	0.99566126
202	0xbdfd97e8	-0.123824894
203	0xbe97707f	-0.29578015
204	0x3de42227	0.111393265
205	0x3fd24ead	1.643026
206	0x3f097f48	0.5370984
207	0x3f29b67c	0.66294074
208	0xbdbb2e00	-0.09139633
209	0xbf00614a	-0.5014845
210	0xbe99822d	-0.2998213
211	0xbef7bf5f	-0.48388192
212	0xbe9f3040	-0.310915
213	0x3f650844	0.8946574
214	0xbf3680e7	-0.7129044
215	0xbf8ad97c	-1.0847621
216	0xbe3a48f2	-0.18191889
217	0x3eacf8a0	0.33783436
218	0x3eef6852	0.46759278
219	0x3f82ffb5	1.0234286
220	0x3d2db7aa	0.042411484
221	0x3f7d4e22	0.98947346
222	0x3df335f5	0.11875526
223	0xbe6e28ba	-0.23257723
224	0x3ee59bd9	0.44845465
225	0x3f9a62e9	1.2061435
226	0xbed44fbe	-0.41467088
227	0x3fa1fb72	1.265486
228	0xbd5ce197	-0.053926077
229	0xbf9de599	-1.2335693
230	0x3d88a292	0.06671633
231	0xbd013cb5	-0.031552035
232	0x3e88b8be	0.26703447
233	0xbe46e576	-0.1942347
234	0xbc9c0dba	-0.019049514
235	0xbdc5821e	-0.096439585
236	0xbd18b992	-0.03728635
237	0xbde31c68	-0.110894024
238	0xbf6a7f18	-0.9160018
239	0xbf1af367	-0.6052765
240	0xbedafd0b	-0.4277118
241	0xbdfde8a8	-0.12397891
242	0xbdb008ac	-0.08595404
243	0x3f87a3bb	1.0596842
244	0x3f06497d	0.52455884
245	0xbe39628b	-0.18103997
246	0x3dba4b6d	0.090964176
247	0xbe28929a	-0.16462174
248	0x3e16287e	0.14663884
249	0xbeec78ce	-0.46185917
250	0x3c5a3e60	0.013320535
251	0x3f5a118c	0.85183024
252	0x3efa7c18	0.489228
253	0xbf3936e7	-0.723494
254	0x3f4bd1b4	0.79616857
255	0xbe93d6b8	-0.28874755

network_body._body_endoder.seq_layers.0.bias f4 [128]
0	0xbbb16d20	-0.00541462
1	0x399fb876	0.00030464277
2	0x3aa90270	0.0012894403
3	0x3b10d1e7	0.0022097768
4	0x3a254aaa	0.00063053763
5	0x3aa327c8	0.0012447769
6	0xbb68fe56	-0.0035551987
7	0xb9bb7a26	-0.00035758427
8	0x3ba44bdb	0.0050139255
9	0xbb898843	-0.004197152
10	0xba6ee079	-0.00091124285
11	0x3b8db495	0.0043245056
12	0xba842f4e	-0.0010084899
13	0xbba5b8b5	-0.005057419
14	0x39d009c7	0.00039680136
15	0x39c3f1b5	0.00037373384
16	0x3b020627	0.0019840093
17	0x3a78a97a	0.0009485703
18	0xb99a5c2e	-0.00029441848
19	0x3903aa66	0.00012556612
20	0xbbba130b	-0.0056785396
21	0xbacb162f	-0.0015494282
22	0x3b62ed5a	0.0034626336
23	0xbabcd1de	-0.0014405807
24	0xbba15ea0	-0.0049246103
25	0x3a3f53c6	0.0007298555
26	0xbae20961	-0.0017245227
27	0xbb1dfc5e	-0.0024106721
28	0xbb6f44bd	-0.0036509477
29	0xba4b2b16	-0.0007750256
30	0x3b3075c6	0.0026925667
31	0xbadee5fc	-0.0017005797
32	0x3b116406	0.0022184863
33	0xbbc35f0e	-0.005962259
34	0xbaf783f9	-0.0018883935
35	0x3b195dc7	0.0023401843
36	0x3aa28f89	0.0012402396
37	0xbb204364	-0.002445423
38	0x382b6e47	4.087228e-05
39	0xbb1a1c93	-0.0023515567
40	0xbbc66273	-0.0060542165
41	0xbb094304	-0.0020944485
42	0x3b338007	0.0027389543
43	0x3ad624c4	0.0016337861
44	0xbb477e7a	-0.0030440376
45	0x3a289aa5	0.0006431735
46	0x3ac2fc38	0.0014876192
47	0x3b78347c	0.003787308
48	0x3b3df6af	0.0028986146
49	0xbbb6a06a	-0.005573322
50	0xbb8ed4a8	-0.0043588467
51	0xbb8afae2	-0.0042413333
52	0xbb46b323	-0.0030319176
53	0xbb1d93f2	-0.002404448
54	0xbb8da1fe	-0.0043222895
55	0xbac22565	-0.001481217
56	0xbb925f86	-0.0044669537
57	0xbb28343e	-0.0025665904
58	0x3bdf2ecb	0.006810998
59	0xbae95298	-0.0017801104
60	0x3aca3eab	0.0015430053
61	0xbbd1033e	-0.0063785603
62	0xb9d189a3	-0.00039966134
63	0xbc1c04c3	-0.00952262
64	0xba87d046	-0.0010361753
65	0xb96947f6	-0.00022247419
66	0xbb3eedca	-0.0029133433
67	0xba2952fc	-0.0006459204
68	0xbb9ad258	-0.004724782
69	0xbbe50294	-0.0069888327
70	0xbbdc6ec2	-0.0067270705
71	0xbb973a84	-0.00461513
72	0x3b84aa1c	0.004048599
73	0xba462f26	-0.0007560126
74	0xbb3a114c	-0.0028391657
75	0x3a8594fb	0.0010191494
76	0x39d4e8ea	0.00040609326
77	0xbb0a26c3	-0.0021080233
78	0xba18bb07	-0.0005826209
79	0xbb424ff3	-0.0029649704
80	0xbc01ed93	-0.007930177
81	0xbbedfe1f	-0.0072629596
82	0xba9f5097	-0.0012154755
83	0xbb02301a	-0.0019865097
84	0xbb33c668	-0.0027431492
85	0x3adbd190	0.0016770829
86	0x39c42eb8	0.0003741884
87	0x3ae912da	0.0017782107
88	0x39538770	0.00020172982
89	0xbbd30abe	-0.0064404896
90	0x3aa717a9	0.001274814
91	0x3b553eb3	0.0032538592
92	0x3b0f9565	0.0021909114
93	0xb97c29f9	-0.00024048229
94	0xbb5393d9	-0.003228417
95	0x3999eb49	0.00029357735
96	0x3b9e7ec7	0.0048368904
97	0xbb37f0fc	-0.0028067222
98	0xbb370595	-0.002792691
99	0xbb2ce095	-0.0026378979
100	0xb936a31a	-0.00017417633
101	0xba9eeb69	-0.0012124601
102	0xbb8969d7	-0.0041935253
103	0xbb1fafe9	-0.0024366325
104	0x3b176b99	0.0023104905
105	0x3ad7cb24	0.0016463739
106	0x3b0ced32	0.0021503684
107	0xbb02216a	-0.0019856342
108	0xba8facaf	-0.0010961498
109	0xb9a443e3	-0.00031331097
110	0x3b69fea5	0.0035704758
111	0xbbda7dd4	-0.006667832
112	0x3b395882	0.0028281515
113	0xbb864578	-0.004097637
114	0xba2d9601	-0.00066217786
115	0xbb7ea15b	-0.00388535
116	0xbb2689ad	-0.002541165
117	0x3acc36ec	0.0015580333
118	0xbb1a835a	-0.0023576827
119	0x3b5756ca	0.0032858127
120	0xbb4a1dec	-0.0030840589
121	0x3bdc8e35	0.0067308196
122	0x37f9d1ad	2.9780751e-05
123	0xbbd665ea	-0.006542911
124	0xbaa00a5c	-0.0012210119
125	0xbb872bf3	-0.004125112
126	0x3bbb212d	0.005710742
127	0xbba4c1c5	-0.005027982

network_body._body_endoder.seq_layers.2.weight f4 [128, 128]
0	0x3e4ed72e	0.20199272
1	0x3ca05f72	0.019576762
2	0x3cac31cb	0.021019837
3	0x3daa9e13	0.083309315
4	0x3ce18615	0.027529756
5	0xbe197cd5	-0.14989026
6	0x3d98e53d	0.07465599
7	0x3a57cd1a	0.00082321616
8	0x3e02934a	0.12751499
9	0xbe35236a	-0.1768929
10	0xbd8b1fbb	-0.067931615
11	0xbdaa0c76	-0.08303158
12	0xbc83f979	-0.016110169
13	0x3e394b84	0.18095213
14	0x3d229c20	0.039699674
15	0x3dfc6a83	0.12325003
16	0x3decd2fe	0.11563681
17	0x3d483267	0.048876192
18	0x3ce07bad	0.027402723
19	0xbdc546f5	-0.096326746
20	0x3e4e2e15	0.20134766
21	0xbd2a00af	-0.04150456
22	0x3daf4f47	0.08560043
23	0x3cf136af	0.02944502
24	0x3d36aec0	0.04460025
25	0x3dafe46f	0.08588492
26	0x3d389eef	0.045073446
27	0xbd9e8d32	-0.077417746
28	0xbe142171	-0.14465882
29	0x3d882c1c	0.06649038
30	0xbdfad874	-0.122483164
31	0xbd0df97d	-0.03466176
32	0x3e0f6669	0.1400391
33	0xbd432460	-0.04764211
34	0x3d857fd0	0.06518519
35	0x3d17ed34	0.03709145
36	0xbcf885c6	-0.030337226
37	0xbd9f3acf	-0.07774889
38	0xbcf81deb	-0.030287703
39	0xbd76f001	-0.06028748
40	0x3d931f79	0.07183737
41	0x3d4e8b6b	0.050425928
42	0x3dbf970b	0.09354981
43	0xbc05dd0e	-0.008170379
44	0xbbe07863	-0.0068502887
45	0xbc610b96	-0.013735672
46	0xbe0fcd56	-0.14043173
47	0x3d1a4459	0.037662838
48	0x3cdcac55	0.026937643
49	0x3d8aa607	0.067699485
50	0xbe37c592	-0.17946461
51	0x3e1098fd	0.1412086
52	0xbc80dc99	-0.01573019
53	0xbd8d8220	-0.06909585
54	0xbd9841f8	-0.074344575
55	0xbdc778f1	-0.097398646
56	0xbcb090e9	-0.021553474
57	0x3dda0ca9	0.10646946
58	0x3e4f82a2	0.20264676
59	0x3d1232e1	0.035693053
60	0x3bef95f1	0.0073115756
61	0x3c6143a8	0.013749041
62	0xbe157248	-0.14594376
63	0x3cca473f	0.024692176
64	0xbd4a33a7	-0.049365666
65	0x3cd381aa	0.025818665
66	0xbca8da7b	-0.020611992
67	0x3d4369a1	0.047708157
68	0x3dd8b424	0.10581234
69	0x3e0ab341	0.13544942
70	0xbd461e53	-0.048368763
71	0x3cbc8f8e	0.023017671
72	0x3d7ee259	0.06222758
73	0xbdc1fa8c	-0.09471616
74	0xbe1355de	-0.14388224
75	0x3dc700f1	0.097169764
76	0xbd3b06ee	-0.045660906
77	0xbc986a23	-0.018605297
78	0x3bb79173	0.0056020557
79	0x3d40b2ff	0.047045704
80	0x3ba44dc1	0.005014152
81	0xbe0f1592	-0.13973072
82	0x3d294903	0.041329395
83	0xbc21e4c3	-0.009881201
84	0x3d82827e	0.06372546
85	0x3c2fc662	0.0107284505
86	0x3dadc449	0.08484704
87	0xbd5e45af	-0.054265674
88	0xbdf6dd02	-0.12053873
89	0xbd3d997d	-0.046288956
90	0xbdb4d435	-0.08829538
91	0x3d4d3ea6	0.050108574
92	0x3c033220	0.008007556
93	0xbceab585	-0.028651008
94	0x3d716632	0.05893535
95	0xbdc0b599	-0.09409637
96	0xbdc3dba3	-0.09563377
97	0x3e0981cb	0.13428418
98	0x3d8aa003	0.06768801
99	0x3d587a14	0.052850798
100	0xbd975058	-0.07388371
101	0xbd3d7ff2	-0.046264596
102	0x3ca5bd85	0.020231972
103	0x3de6088c	0.11232099
104	0x3e0d17a6	0.13778552
105	0xbe4b0e96	-0.19829783
106	0xbe21f18a	-0.15814796
107	0x3d2bd13f	0.0419476
108	0x3d9f386c	0.077744335
109	0x3d2de83a	0.042457797
110	0x3d27911d	0.040909875
111	0xbdc846cd	-0.09779129
112	0x3d453eae	0.04815548
113	0xbd5383bb	-0.0516393
114	0xbc96bfba	-0.01840197
115	0x3d66ce19	0.056348894
116	0xbe1370f7	-0.14398561
117	0xbcb4b4bc	-0.022058837
118	0xbe60ec3d	-0.21965118
119	0xbd4a4cc1	-0.049389604
120	0xbe1fff73	-0.1562479
121	0xbe0de6e0	-0.13857603
122	0xbd026e75	-0.03184362
123	0xbd916d9a	-0.07100983
124	0xbd68ad33	-0.0568058
125	0x3ddbedb1	0.107386954
126	0xbe085490	-0.13313508
127	0x3a5aad19	0.00083418336
128	0xbe1b6fa3	-0.15179305
129	0x3d8fc702	0.070203796
130	0x3d155112	0.036454268
131	0x3daaf6c4	0.08347848
132	0x3b365b04	0.0027825246
133	0xbd38ec49	-0.045147214
134	0x3c9ebbbf	0.019376634
135	0xbd82a32a	-0.06378777
136	0x3caa8757	0.020816488
137	0x3d1e3998	0.038629144
138	0xbcd22863	-0.025654024
139	0x3d6e0d3c	0.05811809
140	0x3dfcd150	0.12344611
141	0xbb129f52	-0.0022372794
142	0x3d8e6ca6	0.06954317
143	0xbd145c74	-0.036220983
144	0x3db635d8	0.08896989
145	0xb9a60f4a	-0.00031673379
146	0x3dd26c96	0.102746174
147	0x3d986bdb	0.07442447
148	0xbb570fe1	-0.003281586
149	0x3db71971	0.089403994
150	0x3cc3ec91	0.023916515
151	0xbe51c979	-0.20487012
152	0x3df0587e	0.117356285
153	0xbd7903ee	-0.060794763
154	0xbdadb879	-0.08482451
155	0xbd900612	-0.07032408
156	0x3d8415de	0.06449483
157	0x3d497934	0.049187854
158	0xbdf5f374	-0.120093256
159	0x3c15f440	0.009152472
160	0xbe25d1ee	-0.16193363
161	0x3d579e1e	0.052641027
162	0x3e0cd716	0.13753924
163	0xbc34aa15	-0.011026879
164	0xbc818820	-0.01581198
165	0xbe10e54c	-0.1414997
166	0xbd899f64	-0.067198545
167	0x3df5d98a	0.12004383
168	0xbdc3d6b3	-0.09562435
169	0xbd4d39ea	-0.05010406
170	0xbcc92a83	-0.024556404
171	0xbd273057	-0.040817585
172	0xbd036007	-0.032074
173	0xbb88dbca	-0.0041765915
174	0x3d50ed26	0.051007412
175	0xbda8debe	-0.0824561
176	0xbd34ef5b	-0.04417358
177	0x3dca2152	0.098696366
178	0xbd635958	-0.055505127
179	0x3dea0a13	0.11427703
180	0x3d44e8ad	0.04807346
181	0x3dc17dfe	0.09447859
182	0xbdff46b0	-0.124646544
183	0x3cdb7c44	0.026792653
184	0x3d87949f	0.06620144
185	0xbc5f2003	-0.013618472
186	0xbd1d2a48	-0.0383704
187	0x3a4a9fa9	0.00077294797
188	0x3c951251	0.01819721
189	0xbbc06acf	-0.0058721076
190	0xbdee94d0	-0.116494775
191	0x3e170ba6	0.14750537
192	0xbcd88439	-0.026430236
193	0x3ade3615	0.0016953374
194	0xbad3fc41	-0.00161732
195	0xbddc96ac	-0.10770926
196	0xbd72318a	-0.059129275
197	0x3e52ca85	0.20585068
198	0xbd5faf3d	-0.05461048
199	0xbd1ffdd8	-0.039060444
200	0xbd76108c	-0.060074374
201	0xbc6d40f5	-0.014480819
202	0x3cf64d4d	0.030066157
203	0xbdb9281b	-0.09040853
204	0x3d85aa86	0.065266654
205	0x3c5e2504	0.01355863
206	0x3d9f1f93	0.07769694
207	0x3c466447	0.012108869
208	0x3ce45b78	0.027875647
209	0xbd15d581	-0.036580566
210	0xbdb51553	-0.08841958
211	0xbb7159af	-0.0036827137
212	0x3c843d61	0.016142549
213	0xbc233c1d	-0.009963063
214	0xbd2c373f	-0.042044874
215	0x3b8dc83d	0.004326849
216	0x3cd44f60	0.025916755
217	0xbde69441	-0.11258746
218	0x3db77dca	0.08959539
219	0xbd8d2e02	-0.06893541
220	0xbd3bd119	-0.045853708
221	0x3e0b0149	0.13574709
222	0xbe6ddfc6	-0.23229894
223	0x3dc71f89	0.09722812
224	0xbcbe5bfc	-0.023237221
225	0x3c69c983	0.014269236
226	0x3d0aa5d5	0.033849556
227	0xbe12af26	-0.14324626
228	0xbd4b6456	-0.049656235
229	0x3d9bcfad	0.076079704
230	0x3beb309e	0.0071774265
231	0xbd390800	-0.045173645
232	0x3e132356	0.14368948
233	0x3dfd2185	0.12359909
234	0xbc0a1937	-0.008428863
235	0x3db520e7	0.08844166
236	0xbc9f2286	-0.019425642
237	0x3e0327d1	0.12808158
238	0x3de36f22	0.11105181
239	0x3cf4de77	0.029891236
240	0xbc6a5b6b	-0.014304022
241	0xbe907aa8	-0.2821858
242	0xbcd4510a	-0.025917549
243	0xbd97510f	-0.073885076
244	0xbc2d5f2c	-0.010581773
245	0x3d3c5f22	0.045989163
246	0xbd147a77	-0.036249604
247	0x3c2328f8	0.009958498
248	0xbdea6c16	-0.11446397
249	0x3e279878	0.16366756
250	0x3dae626f	0.085148685
251	0x3e456712	0.192776
252	0xbd036bf2	-0.032085367
253	0x3d9a178d	0.07524023
254	0x3d05cf7e	0.032668583
255	0x3dd50d8b	0.10402974

network_body._body_endoder.seq_layers.2.bias f4 [128]
0	0x3a2a02d1	0.0006485405
1	0x39745c4a	0.00023304034
2	0xbb39cdad	-0.0028351352
3	0xbace37f5	-0.0015733229
4	0x3b9b7500	0.004744172
5	0xbb315fa5	-0.0027065065
6	0xb78099de	-1.5330439e-05
7	0x3a531cfb	0.00080533297
8	0xbb8e1917	-0.004336487
9	0x3c4b3f63	0.012405249
10	0x39ab68ef	0.00032693843
11	0x39dd0e40	0.00042163022
12	0x3a94c70e	0.0011350827
13	0xbb574cae	-0.00328521
14	0xbb0b7822	-0.0021281322
15	0x39bbe464	0.00035837584
16	0x3aaa10c9	0.0012974973
17	0xbb6a29bd	-0.0035730444
18	0xba796a7f	-0.00095144653
19	0xbb118c25	-0.0022208777
20	0xba331064	-0.00068307505
21	0x3aff5007	0.0019478806
22	0x3ac88058	0.0015297038
23	0x3a36746d	0.0006960098
24	0xbc1a9265	-0.009434317
25	0xbb6b9e07	-0.0035952346
26	0xba969bbe	-0.0011490507
27	0x38f7abe7	0.00011809897
28	0xbb7deeee	-0.003874715
29	0xba3cb8f8	-0.00071991934
30	0xbabe6153	-0.0014524854
31	0xbb8ca41b	-0.004292024
32	0x38e365ad	0.00010843142
33	0xbb3c2c98	-0.0028713103
34	0xbb744b06	-0.0037276163
35	0xbb41765e	-0.0029520015
36	0xbad660f1	-0.0016355795
37	0xbb95720f	-0.004560716
38	0xbb14550b	-0.0022633697
39	0xbb199d0d	-0.0023439557
40	0x3a4fa9d2	0.00079217285
41	0x39920f66	0.00027858763
42	0x3b4dc000	0.0031394958
43	0x3ac02ff2	0.0014662726
44	0x3b2de072	0.0026531485
45	0x3b315ac0	0.0027062148
46	0x37a58bb8	1.9734594e-05
47	0xbb8462ef	-0.004040114
48	0x3ac5a4d6	0.0015079032
49	0x3b69b7d9	0.003566256
50	0x3b9e0369	0.004822184
51	0x3be4afaf	0.006978951
52	0xbba6856e	-0.005081824
53	0x3abcafbf	0.0014395638
54	0xba05c4cd	-0.0005102873
55	0xbbb8f2ca	-0.005644177
56	0xbc1fa141	-0.009743036
57	0xbb89c53a	-0.0042044194
58	0xbb5f4043	-0.0034065403
59	0xbb73f947	-0.0037227438
60	0xbb4f2636	-0.003160847
61	0x3addb91f	0.0016916132
62	0xbb84a27e	-0.004047691
63	0x3b50ea08	0.0031877775
64	0x3b8749c6	0.0041286675
65	0xb7fe3da6	-3.0307867e-05
66	0xbbd198d0	-0.0063963905
67	0xbb8dbb9d	-0.0043253438
68	0xba332117	-0.0006833239
69	0x398bea8a	0.0002668689
70	0xba47f8ab	-0.0007628302
71	0x3a1d7cb6	0.0006007658
72	0xbc061d4f	-0.008185699
73	0xbb0ddd35	-0.0021646742
74	0x3b28f8c2	0.0025783037
75	0xbb1a695f	-0.0023561341
76	0xbb1f2b3d	-0.0024287247
77	0xbb071d4a	-0.0020616823
78	0xbb5fae75	-0.0034131084
79	0xbbba9443	-0.0056939437
80	0xbb2fa822	-0.0026803096
81	0xbb12334f	-0.0022308414
82	0x3c0ab811	0.008466736
83	0xbb2e59bb	-0.0026603776
84	0xbb8b77bd	-0.0042562173
85	0x3b765eca	0.003759312
86	0xba346bf8	-0.00068825437
87	0x3ad1695d	0.0015976835
88	0xbb7e5eef	-0.003881391
89	0xbb22bf64	-0.0024833316
90	0x3bbb5293	0.0057166307
91	0xba8d8a8e	-0.0010798739
92	0x3a5e389f	0.0008477065
93	0xba10815e	-0.0005512441
94	0x3a3948b6	0.0007068025
95	0x39a95d4b	0.000323037
96	0xbb072ebd	-0.0020627223
97	0x3b80389e	0.0039129993
98	0x3b7de3bc	0.0038740477
99	0x3b7aebca	0.0038287514
100	0xbb078d0c	-0.0020683436
101	0xbc23210e	-0.009956611
102	0xbb3cc5b5	-0.0028804366
103	0xbb5249b7	-0.0032087395
104	0xbb964f9e	-0.004587128
105	0xbb05e61b	-0.0020431343
106	0xbb9bc147	-0.004753265
107	0xba582f18	-0.00082467636
108	0x3ad21ffa	0.0016031258
109	0xbb5c0453	-0.0033571913
110	0xba7f756a	-0.0009744974
111	0xbb9081ae	-0.0044099903
112	0x3b61b790	0.0034441687
113	0xb9cd49ee	-0.0003915573
114	0xbb133c2c	-0.0022466285
115	0x3b45074d	0.0030064166
116	0xbb4781d7	-0.003044238
117	0x39c8ed17	0.00038323618
118	0x3811c09c	3.4750075e-05
119	0xbb031192	-0.0019999486
120	0xbb86c92c	-0.004113337
121	0x39e4b1ab	0.00043619922
122	0xb9befc9c	-0.00036427833
123	0xb912a356	-0.00013984492
124	0x39bf718b	0.00036514955
125	0xbaac256f	-0.0013133715
126	0x3b23cb85	0.0024993133
127	0xba8383ec	-0.0010033823

action_model._continuous_distribution.log_sigma f4 [1, 2]
0	0x3ce97dc7	0.028502358
1	0xbb9e869b	-0.0048378236

action_model._continuous_distribution.mu.weight f4 [2, 128]
0	0x3c91bd95	0.017790595
1	0xbaf6f66d	-0.0018841751
2	0x39cb2d9b	0.00038753156
3	0x3aecd0f1	0.001806764
4	0x3d06a353	0.032870602
5	0x3ca9944b	0.020700594
6	0x3c7abd3e	0.015303908
7	0xbb6a070c	-0.0035709767
8	0x3ce42ca3	0.027853316
9	0x3c73e036	0.014884999
10	0x3ad3c64b	0.0016157118
11	0xbd01cf6f	-0.031691965
12	0x3bd9e9b1	0.0066501726
13	0xbc709c97	-0.014685771
14	0x3c5386fb	0.0129106
15	0x3c596474	0.013268579
16	0xbc2aa37a	-0.010414952
17	0x3b997264	0.004682826
18	0xbbe142d4	-0.0068744216
19	0xbbc92fc5	-0.006139728
20	0xbbc8b2fd	-0.0061248527
21	0x3c5960f6	0.013267746
22	0x3bc0133f	0.0058616693
23	0xbcffeb34	-0.031240083
24	0xbafaf7aa	-0.0019147296
25	0xbcd86fd3	-0.02642051
26	0xbbdc8cf7	-0.0067306715
27	0x3ce1565c	0.027507
28	0x3bc1747a	0.0059037777
29	0xbb461164	-0.0030222768
30	0x3cbfd624	0.02341754
31	0x3c21a007	0.009864814
32	0xbc4220c7	-0.011848635
33	0xbada5944	-0.0016658683
34	0x3cbae0ef	0.022812335
35	0x3c248792	0.010042088
36	0xbb69d91e	-0.003568239
37	0x3bcd5a05	0.0062668347
38	0xbcaef381	-0.021356346
39	0xbb872301	-0.004124046
40	0x3c6b9cde	0.014380662
41	0x3bb223c2	0.0054363916
42	0xbc4de154	-0.012565929
43	0x3b6d1122	0.0036173542
44	0x3c93f678	0.018061861
45	0xbb8a5c69	-0.004222442
46	0x3b909510	0.004412301
47	0x3c9d91fa	0.019234646
48	0xbca91922	-0.020641867
49	0xbc54bd57	-0.012984595
50	0xbcacd7b6	-0.021098953
51	0xbcab35b6	-0.020899635
52	0x3b2bc5e6	0.0026210486
53	0x3bdcd67b	0.0067394353
54	0xbc07305b	-0.008251275
55	0xbc2276dd	-0.0099160345
56	0xbd0164be	-0.031590216
57	0x3cbb5bad	0.022870863
58	0x3b751466	0.0037396192
59	0x3b5f4d29	0.003407309
60	0xbcd29fe5	-0.02571101
61	0xbc68c883	-0.014207962
62	0xbc1043e2	-0.008805247
63	0x3b7b23b7	0.0038320848
64	0xbadb4ed6	-0.0016731869
65	0xbcc75a0c	-0.02433493
66	0xbc72edaa	-0.014827171
67	0x3c2fb8fe	0.010725258
68	0xbc365e0e	-0.011130823
69	0xbbd0cde2	-0.0063721994
70	0xbcaebf34	-0.021331407
71	0x3c86d7f6	0.0164604
72	0x3a827fe8	0.0009956332
73	0xbbee1d2b	-0.0072666607
74	0xbc5c7ce5	-0.013457512
75	0xba1b0b4c	-0.0005914464
76	0xbb4efbee	-0.0031583267
77	0xbacfa773	-0.001584275
78	0xbc99966d	-0.018748486
79	0x3cfe26b8	0.031024322
80	0x3c06325e	0.008190719
81	0x3cb1bd53	0.021696722
82	0x3bb1eb90	0.0054296926
83	0xbb89e000	-0.004207611
84	0x3bcd4af6	0.0062650396
85	0xbc3d0b78	-0.011538379
86	0x3b8948e2	0.0041895965
87	0xbc658017	-0.01400759
88	0xbbadca71	-0.005303674
89	0xbb994f2d	-0.004678628
90	0x3d40b69e	0.047049157
91	0xbc38f021	-0.01128772
92	0x3ce8628b	0.028367301
93	0xbb757df3	-0.0037459105
94	0x3bbdbdcb	0.0057904474
95	0xba13258d	-0.00056132005
96	0xbb80f2a1	-0.0039351736
97	0x3ce6a8f0	0.028156728
98	0xbd12224a	-0.03567723
99	0xbd25b609	-0.040456805
100	0x3c9332a7	0.017968489
101	0xbc8d4a1a	-0.017247248
102	0xba6c9f70	-0.00090264436
103	0x3d232b48	0.039836198
104	0x3c193ef7	0.009353391
105	0xba3319cd	-0.0006832153
106	0xbb5c8b7e	-0.003365248
107	0x3c5f11bc	0.013615068
108	0xbd28e088	-0.041229755
109	0x3d17da7a	0.03707359
110	0x3c8ad28a	0.016946096
111	0x3c2fe4e6	0.010735726
112	0x3c9e05ea	0.01928993
113	0xbc7112ec	-0.014713984
114	0x3d1a50c3	0.037674677
115	0xbb3eabe3	-0.0029094152
116	0x3bfb3348	0.0076660253
117	0xbc9ff616	-0.019526523
118	0x3c15cb13	0.009142655
119	0xbcfeaca6	-0.031088185
120	0xba489b31	-0.000765252
121	0x3bf2668a	0.0073974775
122	0xbc3630ea	-0.01112006
123	0x3ca35b98	0.019941136
124	0xbbffd0ef	-0.0078068892
125	0xba35a0e6	-0.0006928578
126	0xbcb4bb24	-0.022061892
127	0xbbc9710e	-0.0061475104
128	0x3c9ccbd7	0.019140167
129	0xbb0414d2	-0.0020154011
130	0xbca8332a	-0.02053221
131	0xbd1cce23	-0.038282525
132	0xbbc01578	-0.0058619343
133	0xbc402e75	-0.011729826
134	0x3c156be0	0.009119958
135	0x3c661e35	0.014045288
136	0xbba42c14	-0.0050101373
137	0xbb046528	-0.0020201895
138	0x3bdc0b3f	0.006715208
139	0xbca2c638	-0.019869909
140	0x3c88c8c0	0.016697288
141	0xbbbf6c8a	-0.0058417963
142	0x3bae415c	0.00531785
143	0xbd1779bb	-0.036981326
144	0xbc406b5c	-0.0117443465
145	0x3a5d907f	0.00084520126
146	0x3bcbd7e1	0.006220803
147	0x3ba58ae6	0.0050519584
148	0xbc1a7461	-0.009427161
149	0xbcd87f01	-0.026427748
150	0x3c9bb1e9	0.019005733
151	0xbb491cac	-0.0030687256
152	0xbca14cdb	-0.019689968
153	0xbc80475c	-0.015659027
154	0x3c8e2f7e	0.01735663
155	0x3d6d7809	0.057975803
156	0x3ccc96bc	0.02497422
157	0xbbfb416b	-0.0076677105
158	0x3cc6efc6	0.024284255
159	0xbd02f30f	-0.03197008
160	0xba761679	-0.0009387504
161	0xbcb1433b	-0.021638503
162	0xba44ed11	-0.0007512132
163	0xbb2c5ba3	-0.0026299737
164	0xbb8fae4c	-0.0043847915
165	0xbbdf4395	-0.0068134763
166	0x3d375ba4	0.04476513
167	0x3c839a82	0.016064886
168	0xbbb267e7	-0.005444515
169	0x3c17e828	0.009271659
170	0x3b32bdad	0.00272737
171	0x3c433387	0.011914141
172	0x3c5fce88	0.013660081
173	0x3a4f1cb5	0.0007900701
174	0xbcc6422d	-0.024201477
175	0xbcf94051	-0.030426176
176	0x3bc28a38	0.005936887
177	0x3ae36db0	0.0017351415
178	0x3c6fea68	0.014643289
179	0xba8ad266	-0.0010591268
180	0x3cab15da	0.020884443
181	0x3cae61a6	0.021286797
182	0xbc629a2a	-0.013830701
183	0x3c334cf4	0.01094364
184	0xbd2bdbf8	-0.041957825
185	0xbd025735	-0.03182145
186	0xbce74014	-0.028228797
187	0xbc30e446	-0.010796612
188	0xbcfea947	-0.031086577
189	0xbc399ece	-0.011329366
190	0x3c3fdb22	0.01170996
191	0xbcecebe3	-0.028921073
192	0x3c3a66e8	0.011377074
193	0xbbc45de0	-0.005992636
194	0x3b5b85f8	0.00334966
195	0xbc2bf9ae	-0.01049654
196	0xbc544ed6	-0.012958249
197	0xbc63f69a	-0.013913775
198	0x3d476d74	0.048688367
199	0x3bebb3e3	0.007193075
200	0xbb45cc0b	-0.0030181434
201	0xbd162d74	-0.03666444
202	0x3c91d28e	0.017800596
203	0x3c2e01a7	0.010620511
204	0xbd022841	-0.03177667
205	0x39f57b0f	0.00046821727
206	0x3d287996	0.04113158
207	0xbcfaaa48	-0.030598775
208	0x3b5a433d	0.0033304237
209	0xbb854f33	-0.004068279
210	0x3c56c239	0.01310783
211	0xbcf4d224	-0.02988536
212	0xbca4a6ae	-0.02009901
213	0x3cfca163	0.030838674
214	0x3ac13e29	0.0014743257
215	0xbb99d3c4	-0.004694434
216	0x3b08c8f2	0.0020871726
217	0x3c57dd8b	0.013175379
218	0xbc315751	-0.0108240405
219	0xbc8c0846	-0.017093789
220	0xbb7e552b	-0.0038808088
221	0xbc8a3a13	-0.016873395
222	0x3d57a956	0.052651726
223	0x3bb41115	0.0054952004
224	0xbc185db0	-0.009299681
225	0x3c342b3f	0.010996639
226	0x3bfac49b	0.0076528317
227	0xbbd4ba36	-0.0064919246
228	0x3bea2a71	0.0071461727
229	0xbc28652a	-0.010278026
230	0x3cb3b692	0.021937642
231	0x3aec784c	0.0018041222
232	0xbc5b8742	-0.013398947
233	0xbc861e43	-0.016371852
234	0x3b8ae22d	0.004238388
235	0x3ca7b401	0.020471575
236	0xba4dba75	-0.00078479137
237	0x3b8f6ed1	0.004377224
238	0x3c429279	0.011875742
239	0xb91df6a4	-0.00015064568
240	0xba327fb5	-0.0006809191
241	0xbb849c79	-0.0040469733
242	0x3c99ad15	0.01875929
243	0x3cdc72bc	0.026910178
244	0x3c47f109	0.012203463
245	0x3ac490c0	0.0014996752
246	0xbcaf0159	-0.021362947
247	0xbd08b7e1	-0.033378486
248	0xbc34faee	-0.011046154
249	0x3c713d5d	0.014724103
250	0x3aa0cbf4	0.0012267814
251	0x3c987f04	0.018615253
252	0xbc134fe0	-0.008991212
253	0xba16ddc7	-0.00057550933
254	0xbcf56f2d	-0.02996024
255	0x3bc83e1d	0.00611092

action_model._continuous_distribution.mu.bias f4 [2]
0	0xbb490f3b	-0.0030679244
1	0x3b260f37	0.0025338659

exp_avg f4 [128, 3]
0	0x3aab5886	0.0013072647
1	0xb2f39abf	-2.8359294e-08
2	0x3aa7bd59	0.0012797519
3	0xb988eb6e	-0.0002611535
4	0x3315c065	3.4866748e-08
5	0x3a6c9108	0.0009024297
6	0xba4cac76	-0.0007807681
7	0x30edc484	1.7299873e-09
8	0x37c8d8c8	2.3942805e-05
9	0xbaa84ee4	-0.0012840894
10	0x33024c35	3.0337294e-08
11	0x385a3b8a	5.20307e-05
12	0xbc2c3077	-0.010509602
13	0x33af62bf	8.167034e-08
14	0x3c3aa902	0.011392834
15	0xbb958d67	-0.0045639756
16	0x33390373	4.3076806e-08
17	0x3bef8a7b	0.0073102093
18	0x3c4d00de	0.012512414
19	0x3427c703	1.5625487e-07
20	0x3c53b670	0.012921914
21	0xbc101cc3	-0.00879592
22	0x33734cfe	5.664787e-08
23	0x3b6a184c	0.0035720048
24	0xb98ae44a	-0.000264915
25	0x3234079c	1.0479109e-08
26	0xbad36dd5	-0.0016130755
27	0x37b5a345	2.165291e-05
28	0xb2081025	-7.919913e-09
29	0xb8b92c9a	-8.829795e-05
30	0xbc0f20bc	-0.008735832
31	0xb2ee0d63	-2.7712934e-08
32	0xbbb068a1	-0.0053835665
33	0xb8cfffd6	-9.918182e-05
34	0x32485c5a	1.16625305e-08
35	0xbb632c96	-0.0034664026
36	0xb9cf5627	-0.00039546305
37	0xb32a52b9	-3.9656445e-08
38	0x39a2c7d5	0.00031047934
39	0xbafc874b	-0.0019266395
40	0xb35fd51a	-5.211505e-08
41	0xb9d78be8	-0.00041112234
42	0x391070d4	0.00013774942
43	0xb349e6ce	-4.7008875e-08
44	0x3a382779	0.0007024925
45	0xb9fe1130	-0.0004845946
46	0xb310bb81	-3.3698146e-08
47	0x38399ce0	4.425354e-05
48	0x3a07d3ed	0.0005181421
49	0x30a6a488	1.2124852e-09
50	0xbad1ee37	-0.0016016428
51	0xbc89b50b	-0.01680996
52	0x3314b386	3.462221e-08
53	0x3b0d8830	0.0021596067
54	0xbb80e167	-0.00393312
55	0xb3845c8a	-6.163562e-08
56	0x39ae9f92	0.00033306755
57	0xba2fb060	-0.0006702002
58	0x3301addc	3.0193277e-08
59	0x374edbd0	1.2329736e-05
60	0xba07abdd	-0.0005175451
61	0x334a52cc	4.7107093e-08
62	0xbae68e1a	-0.0017589957
63	0x3b976c13	0.0046210377
64	0x33cfe515	9.6808584e-08
65	0xbb8f991c	-0.0043822657
66	0xbb5b80c2	-0.0033493494
67	0x3410dbe9	1.3491048e-07
68	0x3c0d9978	0.008642547
69	0x3b19bd24	0.0023458684
70	0x33bc49ce	8.767857e-08
71	0x3be179a2	0.006880955
72	0x3c5d0a3a	0.013491208
73	0xb49e8e34	-2.953326e-07
74	0xbb4848fa	-0.0030561076
75	0xb9d5f658	-0.00040810066
76	0x325ef112	1.2976914e-08
77	0x3a9ed0b6	0.0012116644
78	0xba90d40e	-0.0011049525
79	0x32d2a5da	2.4522638e-08
80	0x3a6a20ae	0.0008931261
81	0xbaeb9f1a	-0.0017976493
82	0xb2cb8934	-2.3694703e-08
83	0xbacc9508	-0.001560838
84	0x393f1dc8	0.00018226274
85	0xb2f9f447	-2.90985e-08
86	0xbb215db6	-0.0024622506
87	0x3aa0d86e	0.0012271532
88	0xb30d6820	-3.2923822e-08
89	0x3c0473e1	0.008084268
90	0xbbc4f616	-0.006010781
91	0x33a5ddc4	7.72375e-08
92	0x3a8abc83	0.0010584745
93	0x399b7967	0.00029654356
94	0x33236290	3.8041037e-08
95	0xb6ad2b60	-5.1608513e-06
96	0xbb2f7a1a	-0.002677566
97	0xb3111ebd	-3.37884e-08
98	0x39b948e0	0.00035340246
99	0xb9c930a8	-0.0003837396
100	0xb21de22e	-9.19003e-09
101	0x3a414c96	0.0007373778
102	0x3b147bad	0.0022656724
103	0xb3618d98	-5.2515674e-08
104	0xbc2a507c	-0.0103951655
105	0xbbe51abb	-0.006991712
106	0xb42349f4	-1.5207462e-07
107	0x3b8079c4	0.0039207656
108	0x3a74b7d8	0.0009335256
109	0x326d5d09	1.3816369e-08
110	0x3b98e3c2	0.0046658227
111	0x3b8970ce	0.0041943556
112	0x33445d58	4.5719702e-08
113	0x3c8881aa	0.016663391
114	0xba769c0c	-0.0009407408
115	0x331a6533	3.594796e-08
116	0x39882d3c	0.00025973644
117	0xb94c1ac4	-0.00019464927
118	0x337c449a	5.8735715e-08
119	0x3c3a989d	0.011388925
120	0x3b17dc2e	0.0023172009
121	0xb0e5fbb0	-1.6733477e-09
122	0x39cfd76a	0.00039642613
123	0xbbf60799	-0.00750823
124	0x330c78e1	3.270623e-08
125	0x3cf9e28c	0.030503534
126	0x3b0f33fb	0.002185105
127	0xb312ea4a	-3.420636e-08
128	0xbb34e990	-0.0027605034
129	0xbc110628	-0.008851565
130	0x33178d06	3.5285687e-08
131	0x3b5c94de	0.0033658068
132	0x3afe1120	0.0019383766
133	0x31aaa85a	4.9667905e-09
134	0xb9a455b1	-0.00031344363
135	0xbacbf12c	-0.0015559546
136	0xb382b8b2	-6.0871926e-08
137	0xbc6b2ad7	-0.0143534755
138	0x39679f0f	0.0002208913
139	0xb2d3d844	-2.466198e-08
140	0xbb0c135b	-0.0021373841
141	0xbc816360	-0.015794456
142	0x3488d1e1	2.548468e-07
143	0xbaf96fa8	-0.0019030469
144	0xbac5d279	-0.0015092633
145	0x33127acd	3.410496e-08
146	0xbafd21b8	-0.0019312417
147	0x3bf755bd	0.0075480626
148	0xb3f709ac	-1.1503593e-07
149	0x3c38bb7b	0.011275168
150	0x3b6a7fb8	0.0035781693
151	0x322f3d40	1.0200267e-08
152	0xba675d3b	-0.0008825843
153	0x3924e688	0.00015726138
154	0xb2dfd258	-2.605627e-08
155	0x3b6a90a4	0.003579178
156	0xbbbaed50	-0.0057045594
157	0x323d569c	1.1020941e-08
158	0x3c8f2736	0.017474752
159	0xbb8ca1ef	-0.004291765
160	0x319684f8	4.3806914e-09
161	0x3b18c555	0.0023310978
162	0xbb0abdf4	-0.002117035
163	0x330b8ccf	3.2491524e-08
164	0x3bc8d0fc	0.0061284285
165	0x3a94d09a	0.0011353672
166	0x3223db36	9.5376915e-09
167	0xb94992b5	-0.00019223506
168	0x3c303df7	0.010756961
169	0xb3930924	-6.8468836e-08
170	0x3b8261c3	0.0039789393
171	0x3b3040bb	0.002689405
172	0xb3cb0d9d	-9.4554004e-08
173	0x3bcaecbb	0.0061927713
174	0xbc4006ea	-0.011720398
175	0x345639f9	1.9951393e-07
176	0xbae00c2c	-0.0017093471
177	0xbacfa742	-0.0015842693
178	0x322096ff	9.347558e-09
179	0x3ac05612	0.0014674088
180	0xb913dd80	-0.00014101528
181	0x32ce0f65	2.3988557e-08
182	0xbab365c0	-0.001368694
183	0x3b81e34f	0.003963865
184	0xb4871866	-2.5163462e-07
185	0x3c4e4ced	0.012591583
186	0x3a0d03f0	0.000537931
187	0xb437af25	-1.710692e-07
188	0xbbe9eb3a	-0.007138637
189	0x3c1d15f9	0.009587758
190	0xb489f905	-2.5699424e-07
191	0x3c65e7ae	0.0140322875
192	0x3c22318a	0.009899506
193	0x2e238f00	3.718892e-11
194	0xbc359e2f	-0.011085077
195	0xbb794006	-0.0038032546
196	0x33e11f6d	1.0483095e-07
197	0x3c8a940d	0.0169163
198	0x3a6ff0a1	0.0009152983
199	0x323d52bc	1.10200595e-08
200	0x3a94bd6b	0.0011347955
201	0x3b81c37a	0.00396007
202	0xb2785909	-1.4455744e-08
203	0x3c5a9d2e	0.013343139
204	0x3c12bdfe	0.0089564305
205	0xb49ebc16	-2.9566644e-07
206	0x3adadb18	0.0016697375
207	0x3a0447b6	0.0005046086
208	0xb28edec5	-1.663228e-08
209	0x3b08815e	0.0020829062
210	0x3a210f76	0.00061439665
211	0x3290f5aa	1.6875521e-08
212	0x3adcb14c	0.0016837507
213	0xb970bbbc	-0.0002295812
214	0x32c197c3	2.253717e-08
215	0xb96bfca2	-0.0002250546
216	0xbc41c7f5	-0.011827459
217	0x3488d6e9	2.5488342e-07
218	0xbbac9c22	-0.005267636
219	0xba20a964	-0.0006128757
220	0xb45ea6d7	-2.0736057e-07
221	0xbc311ce0	-0.010810107
222	0x3c2ae846	0.010431355
223	0xb3512fe2	-4.8705154e-08
224	0x3b1146e4	0.0022167498
225	0x3a5b7dd4	0.0008372937
226	0xb2de279f	-2.5862219e-08
227	0x3b42f341	0.0029747041
228	0x3b008d9a	0.001961565
229	0x339ffc94	7.449958e-08
230	0x3bc11624	0.005892532
231	0xbaacbe4a	-0.0013179269
232	0xb3512cb7	-4.8702272e-08
233	0x38837029	6.267458e-05
234	0x3aeb90fc	0.0017972286
235	0x324123c0	1.1242207e-08
236	0xb7dbe0d6	-2.6211532e-05
237	0x3b53e207	0.0032330768
238	0x32a1771a	1.8797028e-08
239	0xb9d97242	-0.00041474594
240	0x3b04a766	0.0020241379
241	0x31ef1dd0	6.9592048e-09
242	0xbb93586d	-0.004496625
243	0x3c13f8fa	0.009031529
244	0xb3baae26	-8.6929774e-08
245	0x3ca60afd	0.020268911
246	0xbba9b2b5	-0.0051787742
247	0x33336b4c	4.177427e-08
248	0xbb431342	-0.0029766117
249	0xbc0a3b5e	-0.008437006
250	0xb3a5fb36	-7.729106e-08
251	0x3b66fb01	0.0035244825
252	0x3c26bd17	0.0101769185
253	0xb4ad2e02	-3.2257236e-07
254	0xbba68a92	-0.005082437
255	0xbb06efd5	-0.0020589728

exp_avg_sq f4 [128, 3]
0	0x37d78cc0	2.5695539e-05
1	0x255ad8c0	1.8981924e-16
2	0x37214f56	9.61482e-06
3	0x37233ab1	9.729222e-06
4	0x26a12e26	1.1184128e-15
5	0x35dcfbf1	1.6464602e-06
6	0x35e7389d	1.7227318e-06
7	0x24f818b5	1.0759471e-16
8	0x351748e7	5.635797e-07
9	0x3849fed9	4.815948e-05
10	0x25ebba64	4.0892305e-16
11	0x3737eebe	1.09632365e-05
12	0x3a0f1d14	0.000545935
13	0x27fb36c1	6.972586e-15
14	0x3bf5bf4d	0.0074996115
15	0x37f0cf22	2.8706683e-05
16	0x27692f19	3.2360777e-15
17	0x3970ef36	0.00022977297
18	0x3a81e94d	0.0009911448
19	0x27d639a6	5.9459434e-15
20	0x3c4cb5e4	0.012494538
21	0x39fba71d	0.0004799896
22	0x28a52bc7	1.8337665e-14
23	0x3bdbfae9	0.0067132604
24	0x38ca4ab7	9.646027e-05
25	0x26318686	6.1591524e-16
26	0x37d22f7c	2.5056062e-05
27	0x374a5ce3	1.2061765e-05
28	0x2432efdc	3.8800766e-17
29	0x367fe515	3.8131304e-06
30	0x39d11509	0.0003987926
31	0x2754671d	2.9476808e-15
32	0x3bb8409b	0.005622936
33	0x3894110e	7.0603666e-05
34	0x2553d26c	1.8372626e-16
35	0x3a421765	0.0007403999
36	0x3845eb47	4.718758e-05
37	0x27a20041	4.4964308e-15
38	0x37549dd1	1.2672929e-05
39	0x370f0e94	8.526858e-06
40	0x2628bed4	5.854533e-16
41	0x36ae1c2b	5.1888833e-06
42	0x370e73e5	8.490843e-06
43	0x2697d073	1.053423e-15
44	0x3711e059	8.6949085e-06
45	0x389047eb	6.879851e-05
46	0x257d8848	2.1990426e-16
47	0x3794a8cd	1.7721579e-05
48	0x3894bcf5	7.092386e-05
49	0x25cfb35a	3.603031e-16
50	0x382a6f88	4.063503e-05
51	0x3ac2bddc	0.0014857608
52	0x28e3287d	2.5219622e-14
53	0x3ca1dd32	0.019758794
54	0x37fd3f7f	3.0189518e-05
55	0x26a26ae6	1.1269983e-15
56	0x3719bb70	9.163152e-06
57	0x37fa7154	2.9855095e-05
58	0x250e43c6	1.2339499e-16
59	0x36f21ef8	7.2157673e-06
60	0x3793e67e	1.7631097e-05
61	0x263c70bc	6.5378386e-16
62	0x3931903f	0.00016933771
63	0x3954c459	0.0002029104
64	0x27ccf18c	5.688326e-15
65	0x3b3bd426	0.0028660386
66	0x390e4961	0.00013569511
67	0x26ed2086	1.6453994e-15
68	0x3a807168	0.0009799423
69	0x39588d83	0.00020652082
70	0x268b488c	9.664726e-16
71	0x3b16d76b	0.0023016583
72	0x39d1d592	0.0004002271
73	0x287a9f7f	1.3912373e-14
74	0x3bb1866f	0.005417637
75	0x36eadee0	6.9996895e-06
76	0x2682062f	9.022238e-16
77	0x361b51c7	2.31444e-06
78	0x39162fb2	0.00014322883
79	0x26133a4d	5.107988e-16
80	0x38253f6f	3.9398143e-05
81	0x399a02dc	0.000293753
82	0x2757a612	2.992727e-15
83	0x3b774892	0.0037732464
84	0x36d2b39b	6.2793965e-06
85	0x261e6d59	5.4965456e-16
86	0x363bd146	2.7986985e-06
87	0x3814191a	3.5309327e-05
88	0x25ded404	3.8654529e-16
89	0x39592592	0.00020708729
90	0x39b03be8	0.0003361397
91	0x27837d6f	3.64958e-15
92	0x3b510032	0.0031890986
93	0x38d5cb29	0.00010194473
94	0x2621052b	5.58651e-16
95	0x37c1e001	2.3111703e-05
96	0x36b52ad9	5.3992085e-06
97	0x262200d5	5.620617e-16
98	0x36139de7	2.1996618e-06
99	0x3823ecc5	3.9082737e-05
100	0x25afd71d	3.0503427e-16
101	0x37cee7fa	2.4665136e-05
102	0x38f840e8	0.00011837651
103	0x273f81c4	2.657692e-15
104	0x3ab31345	0.0013662359
105	0x39c658e2	0.00037831726
106	0x277167be	3.3501707e-15
107	0x3b8b9f66	0.004260945
108	0x3898e8c5	7.2912815e-05
109	0x24bef56b	8.281512e-17
110	0x3aa37ffd	0.0012474057
111	0x3959763f	0.00020738783
112	0x26e14c88	1.5633255e-15
113	0x3ac56f80	0.0015063137
114	0x385b33b2	5.2261814e-05
115	0x262e6ec5	6.05185e-16
116	0x373ecaf2	1.1372134e-05
117	0x38383b1e	4.3924076e-05
118	0x269af652	1.0752662e-15
119	0x39ff2308	0.0004866349
120	0x3783da79	1.5718151e-05
121	0x26d244d4	1.4590333e-15
122	0x367f6e50	3.8062171e-06
123	0x3a443d20	0.0007485915
124	0x284731c9	1.10575145e-14
125	0x3c67c5fd	0.014146325
126	0x39c20b22	0.00037010858
127	0x27070572	1.8737965e-15
128	0x38e689f5	0.00010992951
129	0x3998627b	0.00029065073
130	0x27744cc0	3.3903409e-15
131	0x3b92bf42	0.004478366
132	0x373156fe	1.0570277e-05
133	0x26c58443	1.3705471e-15
134	0x364f1edf	3.0863373e-06
135	0x399a47b4	0.00029426592
136	0x27399e5a	2.575975e-15
137	0x3b616a80	0.0034395754
138	0x3882c203	6.2350206e-05
139	0x2512012b	1.2663877e-16
140	0x38e13425	0.00010738549
141	0x3b019d2d	0.0019777522
142	0x2844a87f	1.0916722e-14
143	0x3cbb8655	0.022891203
144	0x3819bae8	3.6652113e-05
145	0x25090aeb	1.1886555e-16
146	0x38680227	5.5315115e-05
147	0x39f18a05	0.00046069935
148	0x2740a875	2.6736673e-15
149	0x3b9e5ab4	0.00483259
150	0x37e7a949	2.7616175e-05
151	0x275e6681	3.0864256e-15
152	0x36d8af29	6.457693e-06
153	0x3999c2a1	0.00029327444
154	0x2601507a	4.486493e-16
155	0x3b154280	0.0022775233
156	0x382ccb12	4.119712e-05
157	0x27ea41f1	6.501954e-15
158	0x38f44bb3	0.00011648927
159	0x384a335f	4.8208396e-05
160	0x2791f280	4.0508504e-15
161	0x3a1ed766	0.00060593185
162	0x37eaffec	2.8014147e-05
163	0x26599fb9	7.5503463e-16
164	0x39f23203	0.000461951
165	0x37501df1	1.2404737e-05
166	0x244bfc40	4.4232272e-17
167	0x36631750	3.3839206e-06
168	0x397766a6	0.00023593995
169	0x27e69df5	6.400908e-15
170	0x3b296bdd	0.0025851645
171	0x3951e970	0.00020018755
172	0x266e419b	8.266175e-16
173	0x3b294bd5	0.0025832553
174	0x3a01594a	0.00049342646
175	0x27f9805f	6.9250564e-15
176	0x3b6297ed	0.0034575418
177	0x36599601	3.2422834e-06
178	0x26465f55	6.882425e-16
179	0x3697f7ff	4.529021e-06
180	0x38d0f378	9.9635625e-05
181	0x25f07ace	4.171658e-16
182	0x37c15ecf	2.3051542e-05
183	0x39a3942e	0.00031200185
184	0x27cb826e	5.648523e-15
185	0x3b87bf6c	0.0041426923
186	0x3827ba66	3.99895e-05
187	0x27d2d1de	5.8514247e-15
188	0x3a697125	0.00089051045
189	0x3a0ed6fe	0.00054489064
190	0x2802f2a6	7.269066e-15
191	0x3ba43765	0.0050114864
192	0x3a04edcb	0.00050708343
193	0x27a2179b	4.4989626e-15
194	0x3c060349	0.008179494
195	0x38dc5f96	0.00010508222
196	0x2882c43e	1.4518006e-14
197	0x39023c5d	0.00012420253
198	0x389555fc	7.1208895e-05
199	0x25c24ad0	3.370433e-16
200	0x3a8d33c7	0.0010772877
201	0x38d7ff8d	0.00010299599
202	0x264179c3	6.7125344e-16
203	0x399ead5f	0.0003026528
204	0x3a628a02	0.00086417806
205	0x282d4b46	9.6197515e-15
206	0x3c1d09d4	0.009584863
207	0x386f597d	5.7065383e-05
208	0x26532cd9	7.326611e-16
209	0x3794950f	1.7712386e-05
210	0x37416e93	1.15294415e-05
211	0x2675a0c7	8.5219344e-16
212	0x35eff792	1.787894e-06
213	0x37918aa0	1.73499e-05
214	0x24bd6abd	8.2146506e-17
215	0x3676fed6	3.680519e-06
216	0x3aa829bf	0.0012829824
217	0x2804a8f7	7.36411e-15
218	0x3c882b0a	0.016622085
219	0x398790fd	0.0002585723
220	0x2798fbb2	4.2461364e-15
221	0x3b4b6076	0.0031032837
222	0x3a51f0d6	0.00080086046
223	0x278aadb7	3.8491036e-15
224	0x3c1a7a98	0.009428643
225	0x3903eae5	0.00012580639
226	0x26b9376d	1.2851977e-15
227	0x3a94c4fb	0.0011350209
228	0x39609cd6	0.0002142073
229	0x27e86be8	6.4509928e-15
230	0x3af496fe	0.0018660722
231	0x37ad3260	2.0646665e-05
232	0x25917ee5	2.5239477e-16
233	0x36b6c3b3	5.446805e-06
234	0x379269d0	1.7453829e-05
235	0x26d4b7b3	1.4760247e-15
236	0x368a8924	4.1286858e-06
237	0x3867ab0c	5.523399e-05
238	0x2622a696	5.6430807e-16
239	0x37465d47	1.18234375e-05
240	0x35c4b5d6	1.4656059e-06
241	0x25b19980	3.080862e-16
242	0x371f76ca	9.504796e-06
243	0x3a5bff0c	0.0008392192
244	0x273e2a30	2.6390667e-15
245	0x3beb5b2a	0.0071824985
246	0x3915e189	0.00014293766
247	0x270f881d	1.9919024e-15
248	0x3af8be30	0.0018977579
249	0x39b87bf8	0.0003518758
250	0x282538bf	9.171645e-15
251	0x3b8a74f2	0.0042253667
252	0x3a5051c6	0.00079467555
253	0x282ef7b5	9.712653e-15
254	0x3c149f8b	0.009071241
255	0x367d9d7b	3.7791604e-06

exp_avg f4 [128]
0	0x38436462	4.658511e-05
1	0x375423b7	1.26445e-05
2	0xb55a7679	-8.138373e-07
3	0xb73fadc4	-1.1424945e-05
4	0x3977b1a6	0.00023621935
5	0x371fbc32	9.520956e-06
6	0xb91f55b2	-0.00015195346
7	0x396dfece	0.00022697003
8	0xb8864d08	-6.403966e-05
9	0xb6469306	-2.9589878e-06
10	0x39184a37	0.00014523497
11	0xb6eb16c0	-7.006194e-06
12	0xb836d353	-4.3588992e-05
13	0x3807fa2e	3.2419506e-05
14	0x3826d683	3.9777264e-05
15	0xb79f49c2	-1.8988623e-05
16	0x37e8a2f8	2.7732443e-05
17	0x3982db68	0.00024959003
18	0x380b6e93	3.3243163e-05
19	0xb70a8755	-8.25695e-06
20	0x3736a3dc	1.0886197e-05
21	0xb92391db	-0.00015599227
22	0xb81b66a9	-3.705049e-05
23	0xb900b978	-0.00012276124
24	0xb8934be9	-7.0236456e-05
25	0xb8151d54	-3.5551682e-05
26	0xb7848246	-1.579629e-05
27	0x38ba5f9b	8.886979e-05
28	0xb4e0a100	-4.1840394e-07
29	0xb7ddd159	-2.6442738e-05
30	0xb8c6f78e	-9.4874864e-05
31	0xb7c9a27c	-2.403673e-05
32	0x38249eb6	3.9248458e-05
33	0xb76a391a	-1.3960782e-05
34	0x3818887c	3.6366735e-05
35	0x3917711f	0.00014442623
36	0x351557bc	5.5634496e-07
37	0xb771fe7d	-1.4423972e-05
38	0xb7fbca2f	-3.001568e-05
39	0xb6a7564e	-4.987035e-06
40	0xb7d06ec1	-2.4847106e-05
41	0x398f3988	0.0002731795
42	0x3888ec2c	6.528976e-05
43	0x38c7b138	9.522069e-05
44	0xb8164213	-3.5824323e-05
45	0xb8a1b66b	-7.711056e-05
46	0x373a9791	1.1121753e-05
47	0xb83e0aad	-4.5309473e-05
48	0xb869901c	-5.568574e-05
49	0x38d6309b	0.00010213369
50	0xb7d2ab3f	-2.5113693e-05
51	0x38856249	6.360241e-05
52	0x38aefb48	8.343771e-05
53	0x38d912e3	0.00010350884
54	0xb79c0d4c	-1.8602841e-05
55	0x36b42982	5.36925e-06
56	0xb8d58dda	-0.000101830534
57	0x3862597e	5.3965945e-05
58	0xb89aec2b	-7.387282e-05
59	0x37e9aaea	2.7855353e-05
60	0xb8048c22	-3.160176e-05
61	0x398d1228	0.00026907143
62	0x37071e8c	8.053739e-06
63	0x396c0699	0.00022509172
64	0xb952e7ae	-0.00020113468
65	0xb7aa9814	-2.0336396e-05
66	0x374ae16b	1.20926225e-05
67	0xb882e0db	-6.240766e-05
68	0x39a267dc	0.0003097643
69	0x382647ae	3.964424e-05
70	0x377778cd	1.4750473e-05
71	0xb60fad04	-2.1409369e-06
72	0xb89d575e	-7.502617e-05
73	0x38b084c1	8.417061e-05
74	0xb8e7a80d	-0.0001104624
75	0xb7163161	-8.952194e-06
76	0xb90999bc	-0.00013122609
77	0x37323174	1.0621141e-05
78	0xb83bee4e	-4.4806213e-05
79	0x370d96a9	8.439333e-06
80	0xb7880e82	-1.621922e-05
81	0x394197c4	0.00018462451
82	0x390793e2	0.00012929694
83	0x3955d8b2	0.00020393988
84	0x390b7a94	0.00013301737
85	0x3743385a	1.1636026e-05
86	0xb8fcefc6	-0.00012060958
87	0xb8d706f2	-0.000102532926
88	0x38b7b2ce	8.759425e-05
89	0x38426e94	4.635619e-05
90	0x37f67dc9	2.9384059e-05
91	0x38a8f2a9	8.056063e-05
92	0x3876a761	5.8806854e-05
93	0xb8106bf6	-3.4432822e-05
94	0x382ea138	4.163498e-05
95	0xb7fde830	-3.0268071e-05
96	0x3764703a	1.3615989e-05
97	0x39786a56	0.00023690736
98	0xb73e5f18	-1.1347023e-05
99	0xb90e41ac	-0.0001356664
100	0xb7fdf55e	-3.0274208e-05
101	0xb92f67b8	-0.00016727939
102	0x37f8e6fe	2.9671468e-05
103	0xb829b5f2	-4.046219e-05
104	0x38ae1034	8.2999846e-05
105	0xb9041192	-0.00012595046
106	0x3895a3cb	7.1353825e-05
107	0x382e1e64	4.1513136e-05
108	0x3836d3af	4.3589327e-05
109	0xb8ab11a7	-8.1572034e-05
110	0x386cad18	5.642799e-05
111	0xb7750a66	-1.4605559e-05
112	0x369d79aa	4.693128e-06
113	0x392beb47	0.00016395478
114	0xb7b32eb8	-2.1360218e-05
115	0x388f0bff	6.821006e-05
116	0x3941a06d	0.00018465678
117	0x3809cc31	3.2853513e-05
118	0xb91683fa	-0.0001435428
119	0x37da9c03	2.6060274e-05
120	0xb90b6e08	-0.00013297063
121	0xb8d175a2	-9.9878074e-05
122	0xb65eb106	-3.318362e-06
123	0x38238d07	3.899357e-05
124	0xb8073753	-3.2238033e-05
125	0x39a41376	0.00031295017
126	0xb8757de8	-5.852981e-05
127	0x381fdb4c	3.811279e-05

exp_avg_sq f4 [128]
0	0x314d2547	2.9852616e-09
1	0x31270155	2.4302456e-09
2	0x2ff8ec95	4.527904e-10
3	0x31a0054f	4.6572164e-09
4	0x340b860e	1.2994153e-07
5	0x322d0881	1.0071859e-08
6	0x3448c4d7	1.8698061e-07
7	0x34067b3c	1.2524555e-07
8	0x322d7696	1.0096889e-08
9	0x30d98cd6	1.5828856e-09
10	0x33dddc38	1.0331172e-07
11	0x31c13d1a	5.6239857e-09
12	0x3221dfd6	9.422328e-09
13	0x311b8467	2.263073e-09
14	0x313f9efe	2.7884535e-09
15	0x32029c45	7.6025275e-09
16	0x32006337	7.473139e-09
17	0x34b46e2b	3.360777e-07
18	0x31dcadbf	6.4225953e-09
19	0x3161cf8b	3.2859784e-09
20	0x319edd25	4.6235464e-09
21	0x33423eb8	4.5226187e-08
22	0x32f5f3b8	2.8632584e-08
23	0x331414b5	3.4477768e-08
24	0x33ecca61	1.1026419e-07
25	0x3120a52f	2.337696e-09
26	0x32859f68	1.5555727e-08
27	0x339f04e0	7.404901e-08
28	0x30d48d50	1.5465194e-09
29	0x31ad34ac	5.0409508e-09
30	0x3382daa5	6.093368e-08
31	0x322c2c22	1.0021752e-08
32	0x31054459	1.9392898e-09
33	0x31ad8bc2	5.0508513e-09
34	0x3303ce92	3.068869e-08
35	0x33900b8e	6.707624e-08
36	0x32834811	1.528318e-08
37	0x330e1615	3.3082035e-08
38	0x31ab8262	4.991578e-09
39	0x323f00bb	1.1117829e-08
40	0x318818cf	3.9609414e-09
41	0x3425181b	1.5375592e-07
42	0x3333289f	4.171363e-08
43	0x339c5585	7.279872e-08
44	0x315efe9a	3.2449976e-09
45	0x3336fa02	4.2602558e-08
46	0x31cbaed8	5.927955e-09
47	0x34e45476	4.2529763e-07
48	0x3186eb63	3.9266737e-09
49	0x33a317b5	7.594591e-08
50	0x31eba7c8	6.8584747e-09
51	0x3358f48c	5.0513833e-08
52	0x320cc95c	8.194856e-09
53	0x32af8aa1	2.0435722e-08
54	0x32232b7b	9.497735e-09
55	0x30ee9c10	1.7361135e-09
56	0x3356686a	4.9920722e-08
57	0x334063d8	4.479429e-08
58	0x33c4aa8f	9.157986e-08
59	0x307f65d9	9.2913194e-10
60	0x323d0cc7	1.1004153e-08
61	0x33bfc16f	8.929316e-08
62	0x32c43d6f	2.284534e-08
63	0x33d18366	9.756222e-08
64	0x33f54954	1.142204e-07
65	0x32e73112	2.6914254e-08
66	0x3272268a	1.4095017e-08
67	0x324b8f42	1.1848728e-08
68	0x3459d404	2.028683e-07
69	0x31fb9ada	7.322666e-09
70	0x3144516c	2.8568037e-09
71	0x30dfae3c	1.6274906e-09
72	0x348a9d80	2.58191e-07
73	0x3387aa25	6.3173765e-08
74	0x3423dfad	1.5261931e-07
75	0x32a7fdaa	1.9556712e-08
76	0x33435fdc	4.548916e-08
77	0x312ece0a	2.5437452e-09
78	0x3182d30f	3.8074925e-09
79	0x31b67fb4	5.3114153e-09
80	0x300c681b	5.1079646e-10
81	0x33c354ff	9.095856e-08
82	0x331a4f17	3.592785e-08
83	0x33b57e2b	8.451419e-08
84	0x344a4548	1.883792e-07
85	0x3076fbf5	8.985233e-10
86	0x32eeaf44	2.7786548e-08
87	0x33c8ac08	9.344518e-08
88	0x33ad1be9	8.061017e-08
89	0x312d7ba4	2.5245095e-09
90	0x32072373	7.866094e-09
91	0x32bf4700	2.2267614e-08
92	0x318ece96	4.15623e-09
93	0x323ea381	1.1096632e-08
94	0x3150450b	3.030723e-09
95	0x3200e177	7.501845e-09
96	0x311ab9a0	2.2515465e-09
97	0x3393d533	6.8840016e-08
98	0x312a3575	2.4768643e-09
99	0x33895f46	6.39689e-08
100	0x31a0d978	4.681336e-09
101	0x344a58c3	1.8845007e-07
102	0x3199e6c5	4.4791215e-09
103	0x32c37ec7	2.275864e-08
104	0x34070d7b	1.2577759e-07
105	0x32e30144	2.6426854e-08
106	0x323892dc	1.0743602e-08
107	0x3136be88	2.659279e-09
108	0x32cabf80	2.360298e-08
109	0x32496468	1.172257e-08
110	0x336d5413	5.5257328e-08
111	0x3314dcf4	3.465989e-08
112	0x31df8e2c	6.5063173e-09
113	0x33cea034	9.621763e-08
114	0x31c55669	5.7432783e-09
115	0x33d2d070	9.8168016e-08
116	0x3425aea0	1.543035e-07
117	0x3211e58c	8.492304e-09
118	0x33d34a32	9.838949e-08
119	0x3402ef39	1.2194222e-07
120	0x3513f20c	5.511399e-07
121	0x338dc43c	6.601519e-08
122	0x315d1e88	3.2177088e-09
123	0x33ea0dc1	1.0898976e-07
124	0x312e355b	2.5350662e-09
125	0x334bca87	4.7448818e-08
126	0x312a439f	2.4776694e-09
127	0x31c8d105	5.844529e-09
