results/ppo/My Behaviour/My Behaviour-7864.onnx (onnx, 72127 bytes, 7 tensors)

action_model._continuous_distribution.log_sigma f4 [1, 2]
0	0x00000000	0.0
1	0x00000000	0.0

action_model._continuous_distribution.mu.bias f4 [2]
0	0x00000000	0.0
1	0x00000000	0.0

action_model._continuous_distribution.mu.weight f4 [2, 128]
0	0xbc207dad	-0.009795588
1	0xbc1fe4d4	-0.009759147
2	0xbc49fcf8	-0.012328379
3	0xbc86a905	-0.016438017
4	0x3be693d2	0.0070366645
5	0x3a57b133	0.0008228004
6	0x3cffb1fb	0.031212797
7	0x3becf04f	0.0072307955
8	0x3c4477bc	0.0119914375
9	0x3c1f0b65	0.0097073065
10	0x3c5d1d38	0.013495736
11	0x3c50005f	0.012695401
12	0xbc92e5db	-0.01793187
13	0xbcc55be0	-0.024091661
14	0x3cc265e6	0.02373023
15	0x3bb8a103	0.0056344285
16	0xb9f2feb7	-0.00046347614
17	0xbc3b2790	-0.011423007
18	0xbb8005a7	-0.003906924
19	0x3c9eb2ea	0.019372422
20	0x3c214bdd	0.009844747
21	0x3d1f6628	0.038915783
22	0xbc25dd40	-0.010123551
23	0x3d173ceb	0.03692333
24	0x3a8711b0	0.0010304954
25	0x3cbcaaad	0.023030603
26	0xbc838118	-0.016052768
27	0x3c055d93	0.008139986
28	0x3caa0e93	0.020758903
29	0x38b7d087	8.764961e-05
30	0x3c17eb4a	0.009272406
31	0xbc4cbfbb	-0.012496884
32	0xbd0d7920	-0.034539342
33	0xbbb28040	-0.0054474175
34	0xbb9bb3df	-0.004751667
35	0x3cb04e7c	0.0215218
36	0xbb8a2823	-0.0042162105
37	0xbc88f074	-0.01671622
38	0xbc6c5bb7	-0.014426163
39	0xb92ac0b7	-0.00016284255
40	0xbd253685	-0.040335197
41	0x3c26f455	0.010190089
42	0xbc8c27f8	-0.017108902
43	0xbc78393d	-0.015150365
44	0x3a01a17b	0.0004945022
45	0x3c8af2f9	0.016961562
46	0x3ba9d2e3	0.0051826104
47	0x3c7c5912	0.015402095
48	0xbb9ed74f	-0.004847444
49	0xbc2d65b8	-0.010583334
50	0xbc6b2278	-0.01435148
51	0x3c7977c5	0.015226309
52	0x3c22651b	0.009911801
53	0xbd361304	-0.04445173
54	0x3bbb4e69	0.0057161343
55	0x3b52af7f	0.003214806
56	0xbcb5786d	-0.02215215
57	0xbabcec86	-0.0014413751
58	0x3bd2a3c3	0.0064282133
59	0x3ce28053	0.02764908
60	0x3bf72220	0.00754191
61	0xbc051a55	-0.008123954
62	0xba7802fd	-0.00094608945
63	0xbc4aabdb	-0.012370075
64	0x3c9c7882	0.019100431
65	0xbb4a86d7	-0.0030903125
66	0xbc868746	-0.016421925
67	0x3cd27f2b	0.025695404
68	0x3cf3f472	0.029779647
69	0xbc4d5f10	-0.012534872
70	0x3d21d35b	0.039508205
71	0x3c744d33	0.014910984
72	0x3bd44400	0.006477833
73	0x3b178803	0.002312184
74	0xbc786222	-0.015160115
75	0xbb96a553	-0.004597345
76	0x3cdb059a	0.02673607
77	0x39acacf8	0.00032935268
78	0x3d04777b	0.032340508
79	0xbc3a25c6	-0.011361545
80	0xbca1fa29	-0.019772606
81	0xbcddcbed	-0.027074778
82	0x3b6d3f02	0.0036200886
83	0xbb09536f	-0.0020954271
84	0x3c3c55ef	0.011495098
85	0xbce9dde3	-0.028548187
86	0x3c661b7b	0.014044638
87	0xbcd9f367	-0.026605321
88	0x3c2daf37	0.0106008565
89	0xbd01b8fb	-0.03167055
90	0x3c3cdc23	0.011527094
91	0xbcc04e33	-0.023474788
92	0xbc12a998	-0.008951567
93	0xbc2d6328	-0.010582723
94	0xbba1cde3	-0.0049378737
95	0xbc951c8b	-0.018202087
96	0x3b92e1c8	0.0044824816
97	0xbc4fc590	-0.01268138
98	0x3cf2c56a	0.02963515
99	0xbcb71878	-0.022350535
100	0x3b4163cc	0.0029508946
101	0xbcd7ae37	-0.02632819
102	0xba05c107	-0.00051023107
103	0xbd0082be	-0.031374685
104	0xbc8ce0b3	-0.017196989
105	0xbc061211	-0.008183018
106	0x3c91816f	0.017761914
107	0x3b892e37	0.0041864174
108	0xbc3319a9	-0.010931411
109	0xba848047	-0.001010903
110	0x3cdce9e3	0.026966995
111	0x3ad16ed3	0.0015978463
112	0xbc869c3c	-0.01643192
113	0xbc7d3613	-0.015454787
114	0x3ac716ff	0.0015189348
115	0x3c928f76	0.017890673
116	0x3c58af8a	0.0132254455
117	0x3c96595f	0.018353162
118	0x3c8edf6d	0.017440522
119	0xba204d87	-0.0006115068
120	0x3bd91e1d	0.0066259042
121	0xbcde8765	-0.02716417
122	0xbc638b8d	-0.013888252
123	0x3b8393a3	0.0040154024
124	0xba901663	-0.0010993
125	0xbbbed085	-0.0058231973
126	0xba26d41c	-0.0006364004
127	0x3c9919d9	0.018689083
128	0xb99a0453	-0.0002937639
129	0x3c2de523	0.0106137125
130	0x3c2a396c	0.010389667
131	0x3c9e56fb	0.019328585
132	0xbc1dac64	-0.009623621
133	0x3ca8c7c8	0.020603076
134	0x3bac0681	0.0052497988
135	0xb7bd87fb	-2.2593877e-05
136	0xbc8c3603	-0.017115599
137	0x3c7079fd	0.014677522
138	0xbd0bd51c	-0.034138784
139	0xbbb102a3	-0.0054019256
140	0xbc8ad70b	-0.016948244
141	0x3c38de1e	0.011283426
142	0xbc2e44a6	-0.010636484
143	0xbbeede22	-0.007289664
144	0x3b6c86ed	0.0036091164
145	0x3ccd70ba	0.025078166
146	0xbb37a880	-0.0028024018
147	0x3d1ca433	0.03824253
148	0xbc3a3681	-0.011365534
149	0xbc18289e	-0.009287028
150	0xbcea79b5	-0.028622488
151	0xbc93c521	-0.018038334
152	0x3b1abfce	0.002361286
153	0x3adcf0d5	0.0016856442
154	0xbb49de8b	-0.0030802812
155	0x3c95ffc3	0.018310433
156	0x3cdc3688	0.026881471
157	0xbb3f4bab	-0.0029189389
158	0x3c3a317a	0.011364335
159	0xbc3e2219	-0.011604809
160	0xbab1f2d4	-0.0013576397
161	0xbd251a6e	-0.04030841
162	0xbc2aaa57	-0.010416589
163	0x3c42580e	0.011861814
164	0x3c2af010	0.010433212
165	0x3bb7339f	0.0055908705
166	0x3b0b82e2	0.002128773
167	0xbc6a685d	-0.014307109
168	0xbc51bf32	-0.012801932
169	0xbbd12c48	-0.0063834526
170	0x3cf00d02	0.029303078
171	0xbc4035e0	-0.011731595
172	0xbcaff122	-0.021477286
173	0xbb48b897	-0.0030627602
174	0xbd0540e0	-0.032532573
175	0x3c0e703c	0.008693751
176	0xbaf6a870	-0.0018818509
177	0x3c33fb65	0.01098523
178	0xbc18c0f5	-0.009323348
179	0xbc8d822f	-0.01727399
180	0xbcc9ce9a	-0.024634648
181	0xbc2be121	-0.010490687
182	0x3c70985b	0.014684762
183	0x3b66c97f	0.0035215316
184	0x3d01f3fb	0.03172682
185	0xbb94603d	-0.004528074
186	0x3b46a78f	0.0030312275
187	0xbc5e8d32	-0.013583468
188	0xbb8d9669	-0.004320909
189	0xbbd2cab3	-0.006432855
190	0xbd104f35	-0.035231788
191	0xbb95dfbb	-0.00457379
192	0xbd3fe822	-0.04685224
193	0xbc965820	-0.018352568
194	0xba5a7b17	-0.0008334382
195	0x3d18a0c9	0.03726271
196	0x3d25dda3	0.040494572
197	0x3b227515	0.0024789025
198	0x3c8e1930	0.017345995
199	0xbce0f1e0	-0.027459085
200	0x3bd04825	0.0063562565
201	0x3d09dae1	0.033656005
202	0xbc25c2cb	-0.010117243
203	0x3932647e	0.00017012839
204	0x3d01e5f7	0.031713452
205	0xbc116053	-0.008873063
206	0xb9f984a0	-0.00047591794
207	0x3c3a6fd0	0.011379197
208	0xbc9352be	-0.01798379
209	0xbcbef1e9	-0.023308711
210	0xbd015e62	-0.03158415
211	0x3c302af8	0.010752432
212	0xbbbaee33	-0.005704665
213	0x3cb2f5bb	0.021845689
214	0x3c6b57fb	0.014364238
215	0x3bea4b65	0.007150101
216	0x3bb9523b	0.0056555546
217	0x3c5926ff	0.013253926
218	0x3c1eb9a9	0.0096878195
219	0x3a5ff3c0	0.00085430965
220	0x3c1106d0	0.008851722
221	0xbca517ef	-0.020153014
222	0x3c5c204f	0.013435437
223	0xbc119f55	-0.008888085
224	0xbc69ea05	-0.014276986
225	0x3c9c8a22	0.019108836
226	0xbd128ef2	-0.035780855
227	0xbcf0a983	-0.029377704
228	0xbba23c1f	-0.0049510146
229	0xbc7290fb	-0.014805074
230	0x3d0044f2	0.03131575
231	0xbc7dc088	-0.015487798
232	0xbc645cea	-0.013938168
233	0xbcc21a70	-0.023694247
234	0x3cdd4cd0	0.027014166
235	0xbce5104a	-0.027961869
236	0x3d3b356c	0.045705244
237	0xbc6318da	-0.013860906
238	0x3aa7eea3	0.0012812208
239	0x3c01925a	0.007908428
240	0x3c81bb71	0.01583645
241	0xb9b5812b	-0.00034619248
242	0x3cdde8a3	0.027088469
243	0x3bd67f67	0.0065459493
244	0xbc11b9ba	-0.008894378
245	0xbca98e47	-0.020697726
246	0xbbc6585c	-0.0060530137
247	0xbcd1a2f5	-0.0255904
248	0x3ca0734c	0.019586228
249	0xbcac6d55	-0.021048227
250	0x3cc7f6f7	0.024409754
251	0x3c0411d7	0.008060894
252	0xbcc37f1b	-0.02386432
253	0x3c66e5ad	0.014092845
254	0xbb3f9acd	-0.0029236556
255	0x3cdbc67f	0.026828049

network_body._body_endoder.seq_layers.0.bias f4 [128]
0	0x00000000	0.0
1	0x00000000	0.0
2	0x00000000	0.0
3	0x00000000	0.0
4	0x00000000	0.0
5	0x00000000	0.0
6	0x00000000	0.0
7	0x00000000	0.0
8	0x00000000	0.0
9	0x00000000	0.0
10	0x00000000	0.0
11	0x00000000	0.0
12	0x00000000	0.0
13	0x00000000	0.0
14	0x00000000	0.0
15	0x00000000	0.0
16	0x00000000	0.0
17	0x00000000	0.0
18	0x00000000	0.0
19	0x00000000	0.0
20	0x00000000	0.0
21	0x00000000	0.0
22	0x00000000	0.0
23	0x00000000	0.0
24	0x00000000	0.0
25	0x00000000	0.0
26	0x00000000	0.0
27	0x00000000	0.0
28	0x00000000	0.0
29	0x00000000	0.0
30	0x00000000	0.0
31	0x00000000	0.0
32	0x00000000	0.0
33	0x00000000	0.0
34	0x00000000	0.0
35	0x00000000	0.0
36	0x00000000	0.0
37	0x00000000	0.0
38	0x00000000	0.0
39	0x00000000	0.0
40	0x00000000	0.0
41	0x00000000	0.0
42	0x00000000	0.0
43	0x00000000	0.0
44	0x00000000	0.0
45	0x00000000	0.0
46	0x00000000	0.0
47	0x00000000	0.0
48	0x00000000	0.0
49	0x00000000	0.0
50	0x00000000	0.0
51	0x00000000	0.0
52	0x00000000	0.0
53	0x00000000	0.0
54	0x00000000	0.0
55	0x00000000	0.0
56	0x00000000	0.0
57	0x00000000	0.0
58	0x00000000	0.0
59	0x00000000	0.0
60	0x00000000	0.0
61	0x00000000	0.0
62	0x00000000	0.0
63	0x00000000	0.0
64	0x00000000	0.0
65	0x00000000	0.0
66	0x00000000	0.0
67	0x00000000	0.0
68	0x00000000	0.0
69	0x00000000	0.0
70	0x00000000	0.0
71	0x00000000	0.0
72	0x00000000	0.0
73	0x00000000	0.0
74	0x00000000	0.0
75	0x00000000	0.0
76	0x00000000	0.0
77	0x00000000	0.0
78	0x00000000	0.0
79	0x00000000	0.0
80	0x00000000	0.0
81	0x00000000	0.0
82	0x00000000	0.0
83	0x00000000	0.0
84	0x00000000	0.0
85	0x00000000	0.0
86	0x00000000	0.0
87	0x00000000	0.0
88	0x00000000	0.0
89	0x00000000	0.0
90	0x00000000	0.0
91	0x00000000	0.0
92	0x00000000	0.0
93	0x00000000	0.0
94	0x00000000	0.0
95	0x00000000	0.0
96	0x00000000	0.0
97	0x00000000	0.0
98	0x00000000	0.0
99	0x00000000	0.0
100	0x00000000	0.0
101	0x00000000	0.0
102	0x00000000	0.0
103	0x00000000	0.0
104	0x00000000	0.0
105	0x00000000	0.0
106	0x00000000	0.0
107	0x00000000	0.0
108	0x00000000	0.0
109	0x00000000	0.0
110	0x00000000	0.0
111	0x00000000	0.0
112	0x00000000	0.0
113	0x00000000	0.0
114	0x00000000	0.0
115	0x00000000	0.0
116	0x00000000	0.0
117	0x00000000	0.0
118	0x00000000	0.0
119	0x00000000	0.0
120	0x00000000	0.0
121	0x00000000	0.0
122	0x00000000	0.0
123	0x00000000	0.0
124	0x00000000	0.0
125	0x00000000	0.0
126	0x00000000	0.0
127	0x00000000	0.0

network_body._body_endoder.seq_layers.0.weight f4 [128, 5]
0	0x3deb0640	0.114758015
1	0xbf070aba	-0.5275074
2	0x3e8116fb	0.25212845
3	0xbf092ecb	-0.53587025
4	0xbd543a36	-0.051813327
5	0x3d7a0a3d	0.06104492
6	0xbf22c080	-0.6357498
7	0x3f3eb437	0.74493736
8	0x3d8f33c2	0.06992294
9	0x3e51f5ce	0.20503923
10	0x3e0fa7b0	0.14028811
11	0x3eb404e3	0.35159978
12	0xbd99c495	-0.07508198
13	0x3f305d13	0.6889202
14	0x3ef64e78	0.48106742
15	0x3ea77b96	0.32711476
16	0xbeb6304f	-0.35583732
17	0x3dc04f37	0.09390109
18	0xbe1f12e1	-0.15534545
19	0xbf6aba74	-0.91690755
20	0x3e82feab	0.2558492
21	0x3f73e462	0.9527036
22	0x3ef0f930	0.47065115
23	0xbded7d06	-0.11596112
24	0xbdb0421c	-0.08606359
25	0x3eed4c07	0.46347067
26	0x3e140c7d	0.14457889
27	0x3f6f85b0	0.93563366
28	0x3f0ca3ee	0.54937637
29	0x3e0d599c	0.13803715
30	0x3e848372	0.25881535
31	0x3e8bdaf0	0.27315474
32	0xbeba27ad	-0.36358395
33	0xbd420470	-0.047367513
34	0x3e5c7e8f	0.21532653
35	0x3f0f7eff	0.56053156
36	0x3cfc6959	0.030811952
37	0x3f67700b	0.9040534
38	0xbea2519b	-0.31702885
39	0x3ebe1b81	0.3713036
40	0xbd34d257	-0.04414591
41	0xbf06e887	-0.5269856
42	0xbef3527b	-0.47523865
43	0xbf58221c	-0.84427047
44	0xbf599605	-0.84994537
45	0xbe85cc2a	-0.26132327
46	0x3f27db7c	0.6556928
47	0xbd01a51e	-0.03165161
48	0xbe47a13a	-0.19495097
49	0x3ec48b45	0.38387504
50	0x3ee44b7a	0.44588834
51	0x3e79d69d	0.24398275
52	0x3f7d0181	0.9883042
53	0xbe3c1b7f	-0.18369864
54	0x3dcd9800	0.10038757
55	0x3e9cd6c3	0.306326
56	0xbe6d73ea	-0.23188749
57	0xbe51abb4	-0.20475656
58	0xbe07a9cf	-0.1324837
59	0x3ee2ef1a	0.44323045
60	0x3f113624	0.5672324
61	0x3dfe4067	0.124146275
62	0x3f44e8ec	0.7691791
63	0xbf5c7a74	-0.8612435
64	0x3d990784	0.074721366
65	0xbe6cd574	-0.23128301
66	0x3ac777f3	0.0015218243
67	0x3f416c12	0.7555553
68	0xbef51023	-0.47863874
69	0xbf024d75	-0.5089944
70	0xbd0ea334	-0.03482361
71	0xbeafb4ce	-0.3431763
72	0xbf984b4c	-1.1897979
73	0x3f1c82c3	0.61137027
74	0x3f603359	0.8757835
75	0xbdba6bcc	-0.09102592
76	0x3f4f5883	0.80994433
77	0xbfa3a96c	-1.2786078
78	0xbf18a287	-0.59623
79	0xbe1012cb	-0.14069669
80	0xbe4b46a9	-0.19851173
81	0x3f29ebbf	0.66375345
82	0x3dbde67b	0.09272476
83	0x3ecde9a5	0.4021732
84	0x3ee84d08	0.4537127
85	0x3e21fa79	0.15818204
86	0x3f2e4fc5	0.6809047
87	0x3e68e5da	0.22743931
88	0x3ed17a02	0.40913397
89	0xbeb960ac	-0.36206567
90	0xbde6c622	-0.112682596
91	0x3ed0f19f	0.40809342
92	0xbf9783c2	-1.1837084
93	0x3e42b039	0.19012536
94	0x3e4bbcb8	0.19896209
95	0xbf488168	-0.7832246
96	0xbb86816d	-0.004104784
97	0xbf2f1e62	-0.68405735
98	0x3c9f14d8	0.019419119
99	0xbf7bf867	-0.98425907
100	0xbecbc569	-0.3979905
101	0x3eca1537	0.3946931
102	0x3e426a80	0.18985939
103	0x3f1de0f6	0.6167139
104	0x3e81ce61	0.25352767
105	0xbb7cbbd6	-0.0038564107
106	0xbf41a882	-0.7564775
107	0x3d864acf	0.06557237
108	0xbedecc52	-0.4351526
109	0xbf58cc49	-0.84686714
110	0x3ecd8f3e	0.40148348
111	0x3f0259ec	0.5091846
112	0x3eacb160	0.33729076
113	0xbf0055fa	-0.5013119
114	0x3e8f75c6	0.28019542
115	0xbd58c0be	-0.05291819
116	0xbd3db26d	-0.04631274
117	0xbef39415	-0.47573915
118	0x3ec41495	0.38296953
119	0x3ee880dc	0.45410812
120	0x3de89130	0.11355817
121	0xbdc17ef2	-0.09448041
122	0x3f509061	0.81470305
123	0xbea4c733	-0.32183227
124	0x3ddb085f	0.10694956
125	0x3f23b543	0.6394846
126	0xbf195d26	-0.5990776
127	0x3e269bb4	0.16270334
128	0xbe40bede	-0.1882281
129	0xbe32d679	-0.17464627
130	0xbf394171	-0.7236548
131	0xbe56d58b	-0.20979898
132	0xbeb32971	-0.34992555
133	0xbd183553	-0.03716023
134	0x3f912067	1.1338013
135	0x3f2fbaa7	0.68644184
136	0xbf20ae40	-0.62765884
137	0xbf53ad07	-0.82685894
138	0xbee2466e	-0.4419436
139	0x3f1fcf1b	0.6242539
140	0xbd48683f	-0.04892754
141	0xbfa62774	-1.298079
142	0xbe0be743	-0.13662438
143	0x3d6201af	0.055177387
144	0x3ef94e2a	0.48692447
145	0xbf99ccbd	-1.2015606
146	0xbf47d937	-0.7806582
147	0xbe3e4b6d	-0.1858346
148	0xbe5f1d34	-0.21788484
149	0x3e660470	0.2246263
150	0x3f0f531d	0.55986196
151	0x3e2cbb91	0.16868426
152	0xbd84fcab	-0.06493505
153	0x3f23b5cb	0.6394927
154	0xbefd0178	-0.49415183
155	0x3e18b032	0.14910963
156	0x3f5a355f	0.8523769
157	0xbe1ba613	-0.15200071
158	0xbe1ab85f	-0.15109394
159	0xbd9cf69b	-0.07664224
160	0x3ef4308f	0.47693297
161	0xbd94984b	-0.0725561
162	0xbe20c1f0	-0.15698981
163	0x3c7c394e	0.015394522
164	0x3f2e562a	0.68100226
165	0x3e66f7a0	0.22555399
166	0xbdfee330	-0.12445676
167	0x3f4248b8	0.7589221
168	0xbe0751df	-0.13214825
169	0xbc6189a1	-0.013765723
170	0x3e810f7f	0.25207135
171	0xbf3b1315	-0.7307599
172	0x3ace2798	0.0015728353
173	0x3f36c43e	0.7139319
174	0x3eacd3b3	0.33755264
175	0x3ed93201	0.42420962
176	0xbd4852af	-0.04890698
177	0xbe102669	-0.14077152
178	0xbe54e486	-0.207903
179	0xbe3964ff	-0.18104933
180	0xbe4ca3af	-0.19984315
181	0x3eb0d665	0.3453857
182	0xbead80a5	-0.3388721
183	0x3f03cdc2	0.51485837
184	0x3ea766fa	0.32695752
185	0xbec25f49	-0.37963322
186	0xbf822da7	-1.0170182
187	0xbe85d085	-0.2613565
188	0x3f633c94	0.8876431
189	0x3ee1b403	0.4408265
190	0x3f00f5e0	0.50375175
191	0x3f04550b	0.51692265
192	0x3f50ff83	0.8163988
193	0xbdeb6384	-0.114935905
194	0x3e8da21a	0.27662736
195	0x3dd0d15c	0.10196182
196	0x3e145ca2	0.14488462
197	0xbf12c2cc	-0.57328486
198	0x3cd6105b	0.026130846
199	0x3e5f9aa9	0.21836342
200	0xbf866357	-1.0499066
201	0xbe1ee47f	-0.15516852
202	0x3f01a8c8	0.50648165
203	0xbcd23cdf	-0.025663791
204	0xbedb55b8	-0.42838836
205	0xbf70bbd2	-0.9403659
206	0xbee7edb8	-0.45298553
207	0x3d7bb36a	0.0614504
208	0x3df5c0b2	0.11999644
209	0xbdfb4187	-0.12268358
210	0x3caa9d8c	0.020827077
211	0xbf75016d	-0.957053
212	0xbe1ef333	-0.1552246
213	0x3ec8440d	0.3911442
214	0xbd54b135	-0.05192681
215	0xbe626d54	-0.22112018
216	0xbecee5bf	-0.40409657
217	0x3f18eb7b	0.59734315
218	0xbeaf006b	-0.34180006
219	0xbe589154	-0.21149188
220	0xbee49c44	-0.4465047
221	0x3dad886d	0.08473287
222	0xbe125777	-0.14291178
223	0x3eac704d	0.3367943
224	0xbf52dab3	-0.8236496
225	0x3e82ea03	0.25569162
226	0xbf96696f	-1.1750926
227	0x3e5352a5	0.20636995
228	0xbdf753df	-0.12076544
229	0xbf359444	-0.7092936
230	0xbe81f293	-0.25380382
231	0xbe1ffb22	-0.15623143
232	0x3eff6f74	0.4988972
233	0x3da442ff	0.08020591
234	0x3ebed649	0.37272862
235	0xbeed2637	-0.46318218
236	0x3eff78af	0.49896762
237	0x3daa9dfb	0.08330914
238	0x3ea9a720	0.3313532
239	0x3e64c79c	0.2234177
240	0xbf1c3309	-0.61015373
241	0xbe317a53	-0.17331819
242	0x3f3cc682	0.737404
243	0xbeceef74	-0.40417063
244	0xbf0ed673	-0.55795974
245	0xbea3ff16	-0.32030553
246	0xbea55c45	-0.3229696
247	0x3f2a3cc3	0.66498965
248	0x3e9fc750	0.3120675
249	0x3d204fe6	0.039138697
250	0xbc051660	-0.00812301
251	0x3ee21dd4	0.44163382
252	0xbf465d08	-0.77485704
253	0x3f4a76ca	0.7908751
254	0x3ea2dd0b	0.31809267
255	0x3e2880db	0.16455404

network_body._body_endoder.seq_layers.2.bias f4 [128]
0	0x00000000	0.0
1	0x00000000	0.0
2	0x00000000	0.0
3	0x00000000	0.0
4	0x00000000	0.0
5	0x00000000	0.0
6	0x00000000	0.0
7	0x00000000	0.0
8	0x00000000	0.0
9	0x00000000	0.0
10	0x00000000	0.0
11	0x00000000	0.0
12	0x00000000	0.0
13	0x00000000	0.0
14	0x00000000	0.0
15	0x00000000	0.0
16	0x00000000	0.0
17	0x00000000	0.0
18	0x00000000	0.0
19	0x00000000	0.0
20	0x00000000	0.0
21	0x00000000	0.0
22	0x00000000	0.0
23	0x00000000	0.0
24	0x00000000	0.0
25	0x00000000	0.0
26	0x00000000	0.0
27	0x00000000	0.0
28	0x00000000	0.0
29	0x00000000	0.0
30	0x00000000	0.0
31	0x00000000	0.0
32	0x00000000	0.0
33	0x00000000	0.0
34	0x00000000	0.0
35	0x00000000	0.0
36	0x00000000	0.0
37	0x00000000	0.0
38	0x00000000	0.0
39	0x00000000	0.0
40	0x00000000	0.0
41	0x00000000	0.0
42	0x00000000	0.0
43	0x00000000	0.0
44	0x00000000	0.0
45	0x00000000	0.0
46	0x00000000	0.0
47	0x00000000	0.0
48	0x00000000	0.0
49	0x00000000	0.0
50	0x00000000	0.0
51	0x00000000	0.0
52	0x00000000	0.0
53	0x00000000	0.0
54	0x00000000	0.0
55	0x00000000	0.0
56	0x00000000	0.0
57	0x00000000	0.0
58	0x00000000	0.0
59	0x00000000	0.0
60	0x00000000	0.0
61	0x00000000	0.0
62	0x00000000	0.0
63	0x00000000	0.0
64	0x00000000	0.0
65	0x00000000	0.0
66	0x00000000	0.0
67	0x00000000	0.0
68	0x00000000	0.0
69	0x00000000	0.0
70	0x00000000	0.0
71	0x00000000	0.0
72	0x00000000	0.0
73	0x00000000	0.0
74	0x00000000	0.0
75	0x00000000	0.0
76	0x00000000	0.0
77	0x00000000	0.0
78	0x00000000	0.0
79	0x00000000	0.0
80	0x00000000	0.0
81	0x00000000	0.0
82	0x00000000	0.0
83	0x00000000	0.0
84	0x00000000	0.0
85	0x00000000	0.0
86	0x00000000	0.0
87	0x00000000	0.0
88	0x00000000	0.0
89	0x00000000	0.0
90	0x00000000	0.0
91	0x00000000	0.0
92	0x00000000	0.0
93	0x00000000	0.0
94	0x00000000	0.0
95	0x00000000	0.0
96	0x00000000	0.0
97	0x00000000	0.0
98	0x00000000	0.0
99	0x00000000	0.0
100	0x00000000	0.0
101	0x00000000	0.0
102	0x00000000	0.0
103	0x00000000	0.0
104	0x00000000	0.0
105	0x00000000	0.0
106	0x00000000	0.0
107	0x00000000	0.0
108	0x00000000	0.0
109	0x00000000	0.0
110	0x00000000	0.0
111	0x00000000	0.0
112	0x00000000	0.0
113	0x00000000	0.0
114	0x00000000	0.0
115	0x00000000	0.0
116	0x00000000	0.0
117	0x00000000	0.0
118	0x00000000	0.0
119	0x00000000	0.0
120	0x00000000	0.0
121	0x00000000	0.0
122	0x00000000	0.0
123	0x00000000	0.0
124	0x00000000	0.0
125	0x00000000	0.0
126	0x00000000	0.0
127	0x00000000	0.0

network_body._body_endoder.seq_layers.2.weight f4 [128, 128]
0	0xbd213412	-0.0393563
1	0xbdab02f7	-0.08350175
2	0x3d7bf4a9	0.061512623
3	0x3d393ccc	0.045223996
4	0x3e4eef73	0.2020853
5	0x3d6e251e	0.058140866
6	0xbd2a52f3	-0.041583013
7	0xbda3b5fa	-0.07993694
8	0xbe6233c9	-0.22090067
9	0xbd1f96e9	-0.03896228
10	0xbdd2feaa	-0.103024796
11	0x3ca925b5	0.020647863
12	0x3dc96b93	0.09834971
13	0xbd55fef3	-0.05224509
14	0x3cee099b	0.029057315
15	0xbdd86b62	-0.10567357
16	0xbe2a7915	-0.16647752
17	0x3d0ce16a	0.03439466
18	0x3dbcdebd	0.092221715
19	0xbc5f12d2	-0.013615327
20	0xbe24bc92	-0.16087559
21	0x3cbf4a26	0.023350786
22	0xbe020a02	-0.1269913
23	0x3d0c1c6f	0.034206804
24	0xbdb33589	-0.087504454
25	0xbdc4d821	-0.09611536
26	0xbdcf2868	-0.10115129
27	0x3a71044c	0.00091940607
28	0xbd877666	-0.066143796
29	0x3d07ca91	0.033152167
30	0xbc98085c	-0.018558674
31	0x3d0f22a7	0.034945156
32	0xbd902d20	-0.07039857
33	0xbe05ef9c	-0.13079685
34	0xbcc1b7ce	-0.023647215
35	0xbdbd79fd	-0.09251783
36	0x3c323f12	0.010879295
37	0x3dee70dc	0.1164262
38	0xbd5c2524	-0.053746358
39	0xbd9c436f	-0.076300494
40	0xbd9d76d0	-0.07688677
41	0xbd4223c2	-0.047397383
42	0xbaec5b99	-0.0018032669
43	0xbcc58dd5	-0.024115482
44	0xbe073116	-0.13202319
45	0x3d855b1d	0.06511519
46	0xbcef68c8	-0.029224768
47	0xbda8e566	-0.08246879
48	0xbcf4f709	-0.029902952
49	0xbd4bfe1b	-0.04980288
50	0x3db0efb4	0.0863947
51	0x3cf33e6f	0.029692857
52	0x3d0a3bd3	0.03374846
53	0x3da86843	0.08223011
54	0xbdaaf19f	-0.08346867
55	0x3dcf293b	0.10115286
56	0x3c8b9692	0.017039571
57	0x3dad3c32	0.08458747
58	0x3db663a0	0.08905721
59	0x3d405561	0.046956424
60	0x3b984e4d	0.004648006
61	0xbe1c01be	-0.1523504
62	0x3c32f148	0.010921784
63	0xbdd50cb5	-0.10402814
64	0xbd1d85e2	-0.03845776
65	0x3e1c67b3	0.15273933
66	0x3db8531e	0.09000228
67	0xbd367b82	-0.04455138
68	0xbc9eac61	-0.019369306
69	0xbd8795a1	-0.06620336
70	0x3ddb937c	0.1072149
71	0xbd497e0d	-0.049192477
72	0xbdbb204c	-0.091370195
73	0xbdb6aee7	-0.08920079
74	0x3d162246	0.03665378
75	0xbcc424f0	-0.023943394
76	0xbe1582eb	-0.14600722
77	0x3d591244	0.052995935
78	0xbd9c309a	-0.076264575
79	0x3e1b84c2	0.15187362
80	0x3ddaa042	0.10675098
81	0xbd6775fd	-0.056509007
82	0xbd09da85	-0.033655662
83	0x3d063464	0.032764807
84	0x3d4f687d	0.050636757
85	0x3d71b580	0.059010983
86	0x3e28731e	0.16450164
87	0x3e35eebd	0.17766853
88	0x3e4ab5ff	0.19795989
89	0xbd0a274b	-0.03372888
90	0x3e100c4c	0.14067191
91	0x3d766d60	0.060162902
92	0xbd8af015	-0.06784073
93	0xbd90cfe5	-0.07070903
94	0x3d74c96d	0.059762407
95	0xbd82f8b2	-0.06395091
96	0xbd7812a7	-0.060564663
97	0x3b93075e	0.004486962
98	0xbd246439	-0.040134642
99	0xbd817faa	-0.06323178
100	0x3d3be9f7	0.045877423
101	0x3d76e03a	0.060272433
102	0xbe84a42c	-0.25906503
103	0xbda7fbda	-0.08202334
104	0xbd87c44e	-0.06629239
105	0xbc10a141	-0.008827508
106	0x3d86fa3f	0.065906994
107	0x3d7c570f	0.061606463
108	0xbb1656b7	-0.002293987
109	0x3b29e58c	0.0025924174
110	0xbdebd157	-0.11514538
111	0x3d3e3768	0.04643956
112	0xbcb20a4c	-0.021733426
113	0x3e28e7bf	0.16494654
114	0x3d333884	0.04375507
115	0x3e13c2a4	0.14429718
116	0x3d14ac02	0.036296852
117	0x3ca70a81	0.02039075
118	0xbdc3f0a4	-0.09567383
119	0x3de8adb7	0.113612585
120	0xbce32784	-0.027728803
121	0x3b0927a9	0.002092818
122	0x3d872fc5	0.06600908
123	0x3bc66956	0.0060550375
124	0xbc4ef2fc	-0.012631174
125	0xbd138a45	-0.036020536
126	0xbd8fa422	-0.07013728
127	0x3d20bb95	0.039241392
128	0x3c5a21f1	0.013313756
129	0xbe71d068	-0.23614657
130	0x3d90ed15	0.0707647
131	0xbd81e437	-0.06342357
132	0xbdcc301e	-0.09970115
133	0x3a2448f8	0.00062669767
134	0xbd6e3d0c	-0.058163688
135	0x3d998b69	0.074972935
136	0x3e1c8c2f	0.15287851
137	0xbe1218fc	-0.14267343
138	0x3d02717d	0.031846512
139	0xbd4d7b27	-0.050166275
140	0xbc4c24da	-0.012459958
141	0xbde19df6	-0.11016457
142	0xbdafb9f8	-0.085803926
143	0x3d4e99d6	0.050439678
144	0x3dfc1dfe	0.12310408
145	0xbdfc2acb	-0.123128496
146	0xbd615bba	-0.055019118
147	0x3df6c2e4	0.12048891
148	0x3e2fa697	0.17153393
149	0xbd4b00e6	-0.049561404
150	0x3d970cdb	0.07375499
151	0xbdf36006	-0.118835494
152	0x3d1f9be6	0.038967036
153	0xbd077020	-0.033065915
154	0x3d8e6582	0.06952955
155	0xbc580a6e	-0.01318608
156	0x3dcad2fa	0.09903522
157	0x3d0264e0	0.031834483
158	0x3dfb51d4	0.12271467
159	0xbc915888	-0.01774241
160	0xbdce22d1	-0.100652345
161	0xbcb5b7bf	-0.022182344
162	0xbcc88400	-0.024477005
163	0xbddc3386	-0.10752015
164	0x3cc129ce	0.023579504
165	0xbe0f9432	-0.14021376
166	0x3ddcb97b	0.10777565
167	0xbd083246	-0.03325107
168	0xbdbc676f	-0.09199416
169	0xbd5fba77	-0.054621186
170	0x3d16511c	0.036698446
171	0xbaf18674	-0.0018426911
172	0xbcbdc39b	-0.023164561
173	0x3c6fcddf	0.014636486
174	0xbd847347	-0.064673
175	0xbd877a68	-0.06615144
176	0x3e2d71eb	0.16937988
177	0x3bd2c494	0.0064321253
178	0x3cc52c8c	0.024069093
179	0xbdcd8ce6	-0.1003664
180	0xbdc02413	-0.093818806
181	0xbd376528	-0.044774204
182	0x3d1fd9b4	0.039025977
183	0xbd80ccf3	-0.06289091
184	0xbd19869f	-0.0374819
185	0xbd8a6d7e	-0.06759165
186	0xbbc571eb	-0.006025543
187	0x3d1ffccc	0.039059445
188	0x3de7d539	0.11319966
189	0x3e25f505	0.16206749
190	0x3d1c5994	0.038171366
191	0x3d8d554d	0.069010355
192	0xbd392209	-0.045198474
193	0x3d02e983	0.031960975
194	0xbd190f96	-0.03736838
195	0x3d36b8f1	0.044609968
196	0xbe70d22e	-0.23517677
197	0x3dfb7926	0.122789666
198	0xbca26e36	-0.019827943
199	0x3daeb5df	0.08530783
200	0x3cc1ebdf	0.023672042
201	0x3e2f9aa0	0.17148829
202	0xbdac8042	-0.08422901
203	0xbdb022cd	-0.08600388
204	0xbdbc75a5	-0.092021264
205	0xbe19264b	-0.14956014
206	0xbdb900a7	-0.090333275
207	0xbcc148a0	-0.0235942
208	0x3c7a0f4e	0.015262438
209	0x3d010ccd	0.03150635
210	0xbde13574	-0.109965235
211	0x3d80f5b4	0.06296864
212	0xbdbfc2d9	-0.09363336
213	0x3ba0ac59	0.004903358
214	0xbe324b61	-0.17411567
215	0xbd6ac4c6	-0.057316564
216	0xbde4aabb	-0.11165377
217	0x3e3f22af	0.18665574
218	0xbdc923aa	-0.098212555
219	0x3d677900	0.05651188
220	0xbd7f8af3	-0.06238837
221	0xbc597bbb	-0.013274129
222	0x3cc59ca4	0.024122544
223	0x3be30cdf	0.0069290246
224	0x3dca7a43	0.09886601
225	0x3e649ae5	0.22324713
226	0x3d9ebd4a	0.07750948
227	0xbc28ef44	-0.010310952
228	0xbe032b8b	-0.12809579
229	0xbbbe8d10	-0.005815156
230	0x3d6542a3	0.055971753
231	0xbc98721f	-0.018609105
232	0x3cfdd8a3	0.03098709
233	0xbe1d1b10	-0.15342355
234	0xbdbf5401	-0.09342194
235	0xbe102ead	-0.14080305
236	0x3dc31fb8	0.09527534
237	0xbd28f42d	-0.04124849
238	0x3db50f9e	0.08840869
239	0xbc58998c	-0.013220202
240	0x3e1ab86b	0.15109412
241	0xbdad141c	-0.08451101
242	0xbc6010f1	-0.013675914
243	0x3dcfcb50	0.10146201
244	0xbdfd56b9	-0.12370057
245	0xbe34c472	-0.17653063
246	0x3db13abf	0.08653783
247	0x3d14a775	0.036292512
248	0x3dd90bff	0.10597991
249	0x3deff542	0.11716701
250	0x3dda0a34	0.10646477
251	0xbe035544	-0.12825495
252	0xbd894bbb	-0.067038976
253	0x3da28754	0.07935968
254	0x3d6b5401	0.05745316
255	0x3d5129fc	0.05106543
