results/ppo/My Behaviour/My Behaviour-2652.pt (torch, 146191 bytes, 12 tensors)

network_body._body_endoder.seq_layers.0.weight f4 [128, 3]
0	0xbda43a45	-0.080189265
1	0xbe2a487f	-0.16629218
2	0x3e4eedda	0.2020792
3	0xbf2838a5	-0.6571143
4	0xbf654313	-0.8955547
5	0x3eb29251	0.34877256
6	0x3e387a28	0.18015349
7	0x3dec3c25	0.11534909
8	0xbea88f40	-0.3292179
9	0x3d40d285	0.047075767
10	0xbf584747	-0.8448376
11	0xbd479e48	-0.048734933
12	0x3df543f7	0.11975854
13	0x3ef96876	0.4871251
14	0xbe44960d	-0.19197865
15	0x3e926473	0.28592262
16	0x3f7c897b	0.9864728
17	0xbee7a8aa	-0.45245868
18	0xbf53654c	-0.8257644
19	0x3ede3dba	0.4340647
20	0x3f5a9440	0.8538246
21	0xbf49033d	-0.78520566
22	0xbf2b69d1	-0.6695834
23	0xbe4dfcf1	-0.2011602
24	0x3f2651fe	0.6496886
25	0x3ef02eae	0.46910614
26	0xbe903cf6	-0.2817151
27	0x3fa492d4	1.2857308
28	0xbeff53a7	-0.4986851
29	0xbd278259	-0.040895794
30	0x3e69af52	0.22820786
31	0x3e3ecba8	0.18632376
32	0xbf1484be	-0.5801505
33	0xbe1739bf	-0.14768122
34	0xbf320f81	-0.6955491
35	0xbe050c16	-0.12992892
36	0x3e1f0af0	0.15531516
37	0x3f2074a5	0.62677985
38	0xbc3085ab	-0.010774056
39	0xbebde205	-0.37086502
40	0x3d5970ed	0.05308621
41	0x3f212213	0.6294262
42	0xbf169459	-0.5882011
43	0xbeaa9158	-0.33314013
44	0x3f264555	0.6494954
45	0x3fda9552	1.7076819
46	0x3e9a3940	0.30121803
47	0x3f09f792	0.5389339
48	0xbe22f2be	-0.15912911
49	0x3f422fc2	0.7585412
50	0x3fbae5b4	1.460135
51	0x3f0fd7fa	0.5618893
52	0x3ead59c3	0.33857545
53	0xbe1999e4	-0.15000111
54	0xbef9700d	-0.487183
55	0x3f020c2d	0.5079983
56	0xbeea545c	-0.45767486
57	0x3e2b567c	0.1673221
58	0x3f1e188f	0.61756223
59	0x3d1a8b1b	0.037730318
60	0x3ea9b780	0.33147812
61	0x3f50ca4b	0.81558675
62	0x3e7a5fe3	0.2445064
63	0xbe6ff780	-0.23434258
64	0xbf2f1895	-0.68396884
65	0x3d8fccac	0.0702146
66	0xbf08e722	-0.5347768
67	0x3ec8da92	0.39229256
68	0xbeaa65bc	-0.33280742
69	0xbf22e302	-0.63627636
70	0x3ebebc4b	0.3725303
71	0x3ff99307	1.9497994
72	0x3e6e94c2	0.23298934
73	0x3f70fc82	0.94135296
74	0x3ec7f6d2	0.39055496
75	0xbe4e55b5	-0.20149882
76	0x3e26da48	0.16294205
77	0x3ece69fc	0.40315235
78	0xbbfa35d6	-0.0076358123
79	0x3f51928f	0.81864256
80	0x3ed70a08	0.4199984
81	0x3d6a71c4	0.0572374
82	0xbe9e22c7	-0.30885908
83	0xbf224bc0	-0.63396835
84	0x3e19e75c	0.15029663
85	0x3e99864c	0.29985273
86	0xbe05dc6c	-0.13072366
87	0x3ef4fa15	0.47847047
88	0x3e88fa4f	0.2675347
89	0x3f154317	0.58305496
90	0x3eb8fd0b	0.36130556
91	0xbeb70f74	-0.35753977
92	0x3ea23d0f	0.3168721
93	0xbf264891	-0.6495448
94	0xbeee0b91	-0.464932
95	0xbfd8fb19	-1.6951629
96	0xbf06c669	-0.526465
97	0xbc740430	-0.0148935765
98	0xbf61827e	-0.8808974
99	0xbc93487c	-0.0179789
100	0x3f0dbced	0.553664
101	0x3f66845c	0.90045714
102	0xbf5751bf	-0.8410911
103	0x3f1f4393	0.62212485
104	0x3fa02d4a	1.2513821
105	0xbd6c7552	-0.057729073
106	0xbdc4d01d	-0.09610007
107	0xbf856e92	-1.0424368
108	0x3f7df092	0.99195206
109	0xbd3b52c8	-0.045733243
110	0xbf878d61	-1.059002
111	0xbe23a9a3	-0.1598268
112	0x3f46ebed	0.77703744
113	0x3dc177f6	0.09446709
114	0x3d449a13	0.0479985
115	0xbe0fc96a	-0.14041677
116	0xbea10df6	-0.31455964
117	0x3e72bb15	0.23704179
118	0x3e334bcc	0.17509383
119	0x3ee6f137	0.45105907
120	0x3f43cefd	0.76487714
121	0xbf38a71e	-0.7213
122	0x3ec278ee	0.37982887
123	0x3f79b64e	0.975438
124	0xbe59ad4f	-0.21257518
125	0x3f19dff5	0.60107356
126	0xbecaf4f8	-0.3964002
127	0x3cf790ee	0.030220475
128	0xbf93225a	-1.1494858
129	0x3e6bffea	0.23046842
130	0xbf8b827f	-1.0899199
131	0xbf2cdffb	-0.6752927
132	0xbf54ba2c	-0.83096576
133	0x3f2ea17a	0.68215144
134	0x3e43b4b2	0.19111899
135	0xbeea0ed5	-0.4571444
136	0xbf03e08f	-0.51514524
137	0x3ec95a65	0.39326778
138	0x3e803bb8	0.25045562
139	0x3ede78e4	0.43451607
140	0xbd868464	-0.0656822
141	0xbc0d3e2e	-0.008620782
142	0xbf1056e5	-0.5638259
143	0xbbd449a4	-0.006478505
144	0x3ee21b17	0.44161293
145	0xbdc74dd8	-0.097316444
146	0xbebfcfa1	-0.37463096
147	0xbda5914e	-0.08084355
148	0xbf4b0e60	-0.7931881
149	0xbe3ad8d6	-0.18246779
150	0xbf5f9ad0	-0.873456
151	0xb8ba9e72	-8.898684e-05
152	0x3ce88760	0.028384864
153	0x3e86850a	0.26273376
154	0x3ebc9ddf	0.36839196
155	0x3f087272	0.5329963
156	0x3f4a4f32	0.7902709
157	0xbee9a8e9	-0.4563668
158	0xbe64ace3	-0.22331576
159	0xbf728a68	-0.9474244
160	0x3f20cdef	0.6281423
161	0x3cffd7ee	0.031230893
162	0x3e81310d	0.25232735
163	0xbe2ba948	-0.16763794
164	0xbf1e2dfe	-0.6178893
165	0xbeb6359b	-0.35587773
166	0xbc911a87	-0.017712845
167	0x3f03f78c	0.515496
168	0x3eb0fb56	0.34566754
169	0x3f772aff	0.9654998
170	0x3f6bae35	0.92062694
171	0x3e5bdf80	0.21471977
172	0x3d054e1f	0.032545205
173	0x3f65238b	0.8950736
174	0xbf5c781f	-0.8612079
175	0x3f585254	0.8450062
176	0xbe90f345	-0.283106
177	0x3e199530	0.14998317
178	0x3f9b9cbd	1.2157208
179	0xbec355b4	-0.38151324
180	0xbda17747	-0.078840785
181	0x3e99498c	0.29938924
182	0xbe4eab95	-0.20182641
183	0x3e9d0a3a	0.30671865
184	0xbf67a4ac	-0.90485644
185	0xbf113339	-0.56718785
186	0x3e30d5c1	0.1726904
187	0x3f0c55e5	0.54818565
188	0xbf05cca3	-0.52265376
189	0x3efb62ba	0.4909876
190	0xbfc16687	-1.5109414
191	0xbe8e5744	-0.27800953
192	0xbe8c8f34	-0.27453005
193	0x3f422bd4	0.75848126
194	0xbda1da4a	-0.079029635
195	0x3f3df362	0.741995
196	0x3e50ef3c	0.2040376
197	0x3ee5f4eb	0.4491342
198	0x3eeaf139	0.45887163
199	0x3e8018f2	0.25019032
200	0xbe736849	-0.2377025
201	0xbf66fdb6	-0.9023088
202	0x3d823eb8	0.06359619
203	0xbf1f1390	-0.62139225
204	0x3f11ec51	0.57001215
205	0x3f4d6d38	0.8024478
206	0xbea27937	-0.31733105
207	0xbf8bee7f	-1.0932158
208	0x3e6630d9	0.22479571
209	0xbe892811	-0.2678838
210	0xbf11ed88	-0.5700307
211	0x3d253375	0.040332276
212	0x3eb832a2	0.3597613
213	0xbe9ec5db	-0.31010327
214	0x3f1c65be	0.61092746
215	0x3f1a6753	0.6031391
216	0x3e947bfc	0.29000843
217	0xbedb4743	-0.42827806
218	0x3e6a38ed	0.22873278
219	0xbe81a729	-0.25322846
220	0xbd1112d8	-0.03541836
221	0x3ec1eefd	0.37877646
222	0x3e53b39b	0.20673983
223	0xbf6b357d	-0.9187849
224	0xbf1a21d8	-0.6020789
225	0x3cc84993	0.024449145
226	0x3f4ed1d0	0.807889
227	0xbf2d91f8	-0.67800856
228	0xbe2e2dd8	-0.17009676
229	0xbe2b8d36	-0.16753086
230	0x3f7f190e	0.99647605
231	0xbe92ce67	-0.28673097
232	0xbe89ea29	-0.26936463
233	0xbfc8954b	-1.5670561
234	0xbece9958	-0.40351367
235	0x3ebd192d	0.3693327
236	0x3e820565	0.2539474
237	0xbe086db5	-0.133231
238	0x3f468c95	0.7755826
239	0x3ed6241f	0.41824433
240	0xbeac65e7	-0.33671495
241	0x3f5f6022	0.8725606
242	0xbd818a85	-0.06325249
243	0x3e8c1848	0.27362275
244	0xbdbb58cd	-0.09147797
245	0xbedd8f68	-0.43273473
246	0xbe6f8865	-0.23391874
247	0x3ebce910	0.36896563
248	0x3f494e84	0.7863543
249	0xbe6c4ff1	-0.2307737
250	0xbea9e58d	-0.33182946
251	0x3f330a95	0.6993802
252	0x3c8da9b4	0.017292835
253	0xbd7ee6dd	-0.062231887
254	0xbddf61a2	-0.10907294
255	0xbd073f6b	-0.033019464

network_body._body_endoder.seq_layers.0.bias f4 [128]
0	0x00000000	0.0
1	0x00000000	0.0
2	0x00000000	0.0
3	0x00000000	0.0
4	0x00000000	0.0
5	0x00000000	0.0
6	0x00000000	0.0
7	0x00000000	0.0
8	0x00000000	0.0
9	0x00000000	0.0
10	0x00000000	0.0
11	0x00000000	0.0
12	0x00000000	0.0
13	0x00000000	0.0
14	0x00000000	0.0
15	0x00000000	0.0
16	0x00000000	0.0
17	0x00000000	0.0
18	0x00000000	0.0
19	0x00000000	0.0
20	0x00000000	0.0
21	0x00000000	0.0
22	0x00000000	0.0
23	0x00000000	0.0
24	0x00000000	0.0
25	0x00000000	0.0
26	0x00000000	0.0
27	0x00000000	0.0
28	0x00000000	0.0
29	0x00000000	0.0
30	0x00000000	0.0
31	0x00000000	0.0
32	0x00000000	0.0
33	0x00000000	0.0
34	0x00000000	0.0
35	0x00000000	0.0
36	0x00000000	0.0
37	0x00000000	0.0
38	0x00000000	0.0
39	0x00000000	0.0
40	0x00000000	0.0
41	0x00000000	0.0
42	0x00000000	0.0
43	0x00000000	0.0
44	0x00000000	0.0
45	0x00000000	0.0
46	0x00000000	0.0
47	0x00000000	0.0
48	0x00000000	0.0
49	0x00000000	0.0
50	0x00000000	0.0
51	0x00000000	0.0
52	0x00000000	0.0
53	0x00000000	0.0
54	0x00000000	0.0
55	0x00000000	0.0
56	0x00000000	0.0
57	0x00000000	0.0
58	0x00000000	0.0
59	0x00000000	0.0
60	0x00000000	0.0
61	0x00000000	0.0
62	0x00000000	0.0
63	0x00000000	0.0
64	0x00000000	0.0
65	0x00000000	0.0
66	0x00000000	0.0
67	0x00000000	0.0
68	0x00000000	0.0
69	0x00000000	0.0
70	0x00000000	0.0
71	0x00000000	0.0
72	0x00000000	0.0
73	0x00000000	0.0
74	0x00000000	0.0
75	0x00000000	0.0
76	0x00000000	0.0
77	0x00000000	0.0
78	0x00000000	0.0
79	0x00000000	0.0
80	0x00000000	0.0
81	0x00000000	0.0
82	0x00000000	0.0
83	0x00000000	0.0
84	0x00000000	0.0
85	0x00000000	0.0
86	0x00000000	0.0
87	0x00000000	0.0
88	0x00000000	0.0
89	0x00000000	0.0
90	0x00000000	0.0
91	0x00000000	0.0
92	0x00000000	0.0
93	0x00000000	0.0
94	0x00000000	0.0
95	0x00000000	0.0
96	0x00000000	0.0
97	0x00000000	0.0
98	0x00000000	0.0
99	0x00000000	0.0
100	0x00000000	0.0
101	0x00000000	0.0
102	0x00000000	0.0
103	0x00000000	0.0
104	0x00000000	0.0
105	0x00000000	0.0
106	0x00000000	0.0
107	0x00000000	0.0
108	0x00000000	0.0
109	0x00000000	0.0
110	0x00000000	0.0
111	0x00000000	0.0
112	0x00000000	0.0
113	0x00000000	0.0
114	0x00000000	0.0
115	0x00000000	0.0
116	0x00000000	0.0
117	0x00000000	0.0
118	0x00000000	0.0
119	0x00000000	0.0
120	0x00000000	0.0
121	0x00000000	0.0
122	0x00000000	0.0
123	0x00000000	0.0
124	0x00000000	0.0
125	0x00000000	0.0
126	0x00000000	0.0
127	0x00000000	0.0

network_body._body_endoder.seq_layers.2.weight f4 [128, 128]
0	0xbdc09f8b	-0.094054304
1	0x3dbd0f7f	0.09231471
2	0xbc6119df	-0.013739078
3	0x3dce26f8	0.100660264
4	0x3c9c0de8	0.0190496
5	0x3dd5e269	0.10443575
6	0x3dbe54af	0.09293496
7	0x3cf33cf3	0.029692149
8	0xbe1fd5e2	-0.15608934
9	0xbd5d8f78	-0.0540919
10	0xbde515a2	-0.11185767
11	0xbda1c4cb	-0.078988634
12	0xbd0ecfa3	-0.034865987
13	0xbd8588eb	-0.06520256
14	0xbcf6287d	-0.030048603
15	0xbd66a09f	-0.056305524
16	0x3c80dbb4	0.015729763
17	0xbcd9059e	-0.026491936
18	0xbd57ce50	-0.05268699
19	0xbcac4622	-0.021029536
20	0xbdf4dbca	-0.11955984
21	0xbddb63ec	-0.10712418
22	0xbcff304c	-0.03115096
23	0x3e32e9a2	0.17471936
24	0x3c08a54a	0.008340189
25	0x3cf69374	0.030099608
26	0x3cc8a87c	0.024494402
27	0x3d804f2e	0.06265102
28	0x3c8f1f5c	0.017471008
29	0xbdcca4c3	-0.09992363
30	0xbe2ae699	-0.16689529
31	0x3de23cd0	0.11046755
32	0xbda80505	-0.082040824
33	0xbcf0d8ea	-0.029400308
34	0x3dda3f7a	0.106566384
35	0xbd22339b	-0.039599996
36	0xbcfd52c7	-0.03092326
37	0xbdc5d8f3	-0.096605204
38	0xbcc179da	-0.023617674
39	0xbbe49b02	-0.006976486
40	0x3c22fa70	0.009947404
41	0x3ce9e66d	0.028552258
42	0x3e51c4ac	0.2048518
43	0xbbbe874b	-0.005814468
44	0xbe0c911b	-0.13727228
45	0x3d85aef6	0.06527512
46	0x3ca7ad4b	0.020468375
47	0x3df27c92	0.11840166
48	0xbd88441c	-0.06653616
49	0x3ccb592e	0.024822798
50	0xbd9aefe7	-0.07565289
51	0xbda4da6f	-0.080494754
52	0xbdfbf09f	-0.12301754
53	0xbdfb45a7	-0.122691445
54	0xbcef7894	-0.0292323
55	0xbd85ceb7	-0.06533568
56	0x3ccd5d20	0.02506882
57	0x3e57c3b9	0.21070756
58	0xbd5fdbef	-0.054653104
59	0xbe1bbeda	-0.15209523
60	0x3b3cd4c6	0.0028813346
61	0x3b39e212	0.0028363508
62	0xbcb4e9e2	-0.02208418
63	0xbd701950	-0.05861789
64	0xbc2988ec	-0.010347586
65	0xbda9937a	-0.08280082
66	0xbe6ca94e	-0.2311146
67	0x3c60a3d8	0.013710938
68	0x3d9db9d6	0.07701461
69	0x3d2e44cb	0.042546075
70	0x3e07504e	0.13214228
71	0x3d9e612a	0.07733376
72	0x3e589267	0.21149598
73	0x3d218bae	0.03943985
74	0x3ae04c56	0.0017112594
75	0xbdcf434b	-0.10120257
76	0x3dad231d	0.08453963
77	0x3dca5b5b	0.09880706
78	0x3d9f664a	0.07783182
79	0xbd5e0acd	-0.05420952
80	0xbe0e63a3	-0.13905196
81	0x3e5bf812	0.2148135
82	0x3dffd6ed	0.12492166
83	0x3e050a90	0.1299231
84	0xbd07194a	-0.032983102
85	0xbde4bb97	-0.111685924
86	0x3ced2f86	0.028953325
87	0x3dd9fd46	0.10644011
88	0x3d2f8a9f	0.04285681
89	0xbba3f0f0	-0.005003087
90	0xbd419c66	-0.047268294
91	0xbd0d5b00	-0.034510612
92	0x3e41e890	0.18936372
93	0x3dad4c15	0.08461777
94	0x3d93a010	0.07208264
95	0x3dc8c223	0.09802654
96	0xbd87c872	-0.06630029
97	0x3d038b44	0.032115236
98	0xbcb78ab8	-0.022405013
99	0x3ddef725	0.10886983
100	0x3e0085b2	0.12551
101	0xbdc765d7	-0.09736221
102	0x3d2aba34	0.041681483
103	0xbd0344d6	-0.03204807
104	0x3d80647e	0.06269167
105	0x3da422d4	0.080144554
106	0xbda3a8d9	-0.079911895
107	0x3dc90133	0.09814682
108	0xbcf95119	-0.030434178
109	0x3c56a780	0.013101459
110	0xbd45378b	-0.048148673
111	0xbd71020f	-0.058839854
112	0xbe0aa42a	-0.13539186
113	0x3d1d665c	0.038427696
114	0x3d82dbb6	0.06389563
115	0xbd348a31	-0.044077102
116	0xbd6241c3	-0.055238497
117	0x3acae20f	0.0015478748
118	0x3c98ab4f	0.018636374
119	0x3d1b391a	0.037896253
120	0xbc2c4b4c	-0.010515999
121	0x3d19b327	0.03752437
122	0xbdfce874	-0.123490244
123	0xbcc307a9	-0.023807364
124	0xbdfe7236	-0.12424128
125	0x3cbfe51b	0.023424676
126	0x3d849bbe	0.06475018
127	0xbd07e27d	-0.03317498
128	0xbe24ef80	-0.16106987
129	0xbdbfe7eb	-0.09370407
130	0xbe0ccafd	-0.13749309
131	0xbc03514d	-0.008014989
132	0x3cd70a7c	0.026250117
133	0xbdf47c6b	-0.11937793
134	0x3d2268b5	0.039650638
135	0xbd7f403d	-0.06231712
136	0x3e5fefe3	0.21868853
137	0xba7bd5b5	-0.0009606735
138	0x3d0a2e72	0.0337357
139	0x3d6ee0f8	0.058320016
140	0x3cbcb171	0.02303383
141	0x3c25a122	0.010109218
142	0xbdb86c8b	-0.09005078
143	0xbe96d688	-0.2946055
144	0xbd06c900	-0.032906532
145	0xbc92347a	-0.017847288
146	0x3bea7f54	0.007156292
147	0xbbaaebef	-0.0052161138
148	0x3ded729c	0.11594126
149	0xbd4fa6f5	-0.050696332
150	0x3e1056bb	0.14095585
151	0x3e01990f	0.12656043
152	0xbd6ee933	-0.058327865
153	0x3a13145d	0.00056106393
154	0x3db96613	0.09052672
155	0x3d594bab	0.05305068
156	0xbd59acd6	-0.053143345
157	0x3ddceb7e	0.10787104
158	0x3e07b4f2	0.13252619
159	0xbcaf4412	-0.021394763
160	0xbdeaaad4	-0.11458364
161	0xbe4f7815	-0.20260651
162	0x3e0d022c	0.1377036
163	0xbc2618a3	-0.01013771
164	0xbd91aa59	-0.07112569
165	0xbd35be82	-0.044371136
166	0xbca2971d	-0.019847447
167	0xba00b9a8	-0.00049104774
168	0xbca3c87b	-0.019993057
169	0xbce95412	-0.02848247
170	0xbcb8f95b	-0.02257984
171	0xbd5b5107	-0.05354407
172	0xbdf46748	-0.11933762
173	0x3c3b2de0	0.011424512
174	0x3df63076	0.12020962
175	0x3c642df5	0.013926973
176	0xbd318365	-0.0433382
177	0x3d19467f	0.037420746
178	0xbdb8471a	-0.089979365
179	0xbda6f6e5	-0.0815256
180	0xbdbafa28	-0.09129745
181	0x3d1e438b	0.038638633
182	0x3d194ee1	0.03742874
183	0x3acbbfa3	0.0015544783
184	0xbdba43f7	-0.090949945
185	0x3d705063	0.058670413
186	0x3ce1bec7	0.02755679
187	0xbd2a517b	-0.041581612
188	0xbd8b9514	-0.06815544
189	0xbd72fbe0	-0.059322238
190	0xbc8980b9	-0.016785013
191	0x3e043f1c	0.129147
192	0xbcc25d42	-0.02372611
193	0xbd798854	-0.06092103
194	0xbd14deeb	-0.036345404
195	0xbe087076	-0.1332415
196	0x3d23e04d	0.04000883
197	0x3df14a31	0.11781729
198	0x3d02ef96	0.03196677
199	0xbde2866b	-0.110607944
200	0x3d347a51	0.044061963
201	0x3d0c5bb7	0.034267154
202	0x3cb36385	0.02189804
203	0xbca94d6f	-0.020666806
204	0xbe28c1c5	-0.16480167
205	0x3db16861	0.08662487
206	0x3d8f5933	0.06999435
207	0xbded9d10	-0.11602223
208	0x3d8f52d6	0.069982216
209	0xbd385617	-0.045003977
210	0x3d75bf16	0.059996687
211	0xbc360400	-0.011109352
212	0xbdb3cea0	-0.08779645
213	0xbccb2b13	-0.024800813
214	0xbe3512ff	-0.17683028
215	0xbe04c0f1	-0.12964226
216	0x3cfcf53f	0.030878661
217	0xbdab9626	-0.08378248
218	0xbd799b2c	-0.060939
219	0xbdf9fe49	-0.12206704
220	0xbd29af61	-0.04142702
221	0xbd65ccce	-0.05610352
222	0xbe1001be	-0.14063165
223	0xbdd6324f	-0.10458814
224	0x3d81e086	0.063416526
225	0x3e33a0c3	0.17541794
226	0xbd90fd49	-0.0707956
227	0x3da33dc9	0.07970769
228	0x3dfab39a	0.122412875
229	0xbd5b3c3f	-0.053524252
230	0x3d7a8d02	0.06116963
231	0xbdaa9713	-0.08329596
232	0xbdb45811	-0.0880586
233	0xbdecd504	-0.11564067
234	0xbd49721c	-0.04918109
235	0xbe3c4b7b	-0.18388169
236	0x3c78fe6d	0.015197379
237	0xbd867ea3	-0.06567123
238	0x3cb5df5a	0.022201229
239	0x3d51f301	0.051257137
240	0x3e019967	0.12656175
241	0x3e20f0a4	0.15716797
242	0x3d305102	0.043046005
243	0x3c6dea7d	0.014521238
244	0x3ddd3155	0.10800425
245	0xbca343de	-0.019929823
246	0x3c572197	0.013130567
247	0xbdccdf38	-0.10003513
248	0xbd9a8c64	-0.07546309
249	0xbd07fea9	-0.033201847
250	0xbe170a99	-0.14750136
251	0xbda35a63	-0.07976224
252	0x3d9811e5	0.07425288
253	0xbd8bcb77	-0.06825917
254	0x3e1d98ac	0.15390271
255	0xbd526066	-0.051361464

network_body._body_endoder.seq_layers.2.bias f4 [128]
0	0x00000000	0.0
1	0x00000000	0.0
2	0x00000000	0.0
3	0x00000000	0.0
4	0x00000000	0.0
5	0x00000000	0.0
6	0x00000000	0.0
7	0x00000000	0.0
8	0x00000000	0.0
9	0x00000000	0.0
10	0x00000000	0.0
11	0x00000000	0.0
12	0x00000000	0.0
13	0x00000000	0.0
14	0x00000000	0.0
15	0x00000000	0.0
16	0x00000000	0.0
17	0x00000000	0.0
18	0x00000000	0.0
19	0x00000000	0.0
20	0x00000000	0.0
21	0x00000000	0.0
22	0x00000000	0.0
23	0x00000000	0.0
24	0x00000000	0.0
25	0x00000000	0.0
26	0x00000000	0.0
27	0x00000000	0.0
28	0x00000000	0.0
29	0x00000000	0.0
30	0x00000000	0.0
31	0x00000000	0.0
32	0x00000000	0.0
33	0x00000000	0.0
34	0x00000000	0.0
35	0x00000000	0.0
36	0x00000000	0.0
37	0x00000000	0.0
38	0x00000000	0.0
39	0x00000000	0.0
40	0x00000000	0.0
41	0x00000000	0.0
42	0x00000000	0.0
43	0x00000000	0.0
44	0x00000000	0.0
45	0x00000000	0.0
46	0x00000000	0.0
47	0x00000000	0.0
48	0x00000000	0.0
49	0x00000000	0.0
50	0x00000000	0.0
51	0x00000000	0.0
52	0x00000000	0.0
53	0x00000000	0.0
54	0x00000000	0.0
55	0x00000000	0.0
56	0x00000000	0.0
57	0x00000000	0.0
58	0x00000000	0.0
59	0x00000000	0.0
60	0x00000000	0.0
61	0x00000000	0.0
62	0x00000000	0.0
63	0x00000000	0.0
64	0x00000000	0.0
65	0x00000000	0.0
66	0x00000000	0.0
67	0x00000000	0.0
68	0x00000000	0.0
69	0x00000000	0.0
70	0x00000000	0.0
71	0x00000000	0.0
72	0x00000000	0.0
73	0x00000000	0.0
74	0x00000000	0.0
75	0x00000000	0.0
76	0x00000000	0.0
77	0x00000000	0.0
78	0x00000000	0.0
79	0x00000000	0.0
80	0x00000000	0.0
81	0x00000000	0.0
82	0x00000000	0.0
83	0x00000000	0.0
84	0x00000000	0.0
85	0x00000000	0.0
86	0x00000000	0.0
87	0x00000000	0.0
88	0x00000000	0.0
89	0x00000000	0.0
90	0x00000000	0.0
91	0x00000000	0.0
92	0x00000000	0.0
93	0x00000000	0.0
94	0x00000000	0.0
95	0x00000000	0.0
96	0x00000000	0.0
97	0x00000000	0.0
98	0x00000000	0.0
99	0x00000000	0.0
100	0x00000000	0.0
101	0x00000000	0.0
102	0x00000000	0.0
103	0x00000000	0.0
104	0x00000000	0.0
105	0x00000000	0.0
106	0x00000000	0.0
107	0x00000000	0.0
108	0x00000000	0.0
109	0x00000000	0.0
110	0x00000000	0.0
111	0x00000000	0.0
112	0x00000000	0.0
113	0x00000000	0.0
114	0x00000000	0.0
115	0x00000000	0.0
116	0x00000000	0.0
117	0x00000000	0.0
118	0x00000000	0.0
119	0x00000000	0.0
120	0x00000000	0.0
121	0x00000000	0.0
122	0x00000000	0.0
123	0x00000000	0.0
124	0x00000000	0.0
125	0x00000000	0.0
126	0x00000000	0.0
127	0x00000000	0.0

action_model._continuous_distribution.log_sigma f4 [1, 2]
0	0x00000000	0.0
1	0x00000000	0.0

action_model._continuous_distribution.mu.weight f4 [2, 128]
0	0xbcc4ab17	-0.024007363
1	0xbc7e7a7f	-0.015532135
2	0x3d112a7a	0.0354409
3	0x3babc60f	0.0052421163
4	0x3d1ce405	0.038303394
5	0xbccbb284	-0.024865396
6	0x3ca397f7	0.019969923
7	0xbc026991	-0.007959739
8	0x3ce715ad	0.028208578
9	0x3c3a537d	0.011372444
10	0x3bd2a053	0.0064278035
11	0x3caebcab	0.021330198
12	0xbbdeec2f	-0.0068030576
13	0x3c158080	0.009124875
14	0xbc618633	-0.013764906
15	0x3c2de894	0.010614533
16	0x3b6c4502	0.0036051874
17	0x3bb84253	0.005623141
18	0xbb16b547	-0.0022996233
19	0xbc863f80	-0.016387701
20	0xbcb890bf	-0.022529958
21	0xbb8b68c4	-0.0042544324
22	0x3c186d54	0.00930341
23	0xbca1ef9c	-0.019767575
24	0xbb1d8a7f	-0.002403885
25	0x3ca0568b	0.019572517
26	0xbbc63f9b	-0.006050063
27	0x3b5374d8	0.003226569
28	0x3b69ffef	0.0035705527
29	0x3c40f28a	0.011776576
30	0x3b98810f	0.004654057
31	0xbc83bbb2	-0.016080711
32	0xbb4b3697	-0.003100788
33	0x3b8378c7	0.0040122005
34	0xbc8be360	-0.017076194
35	0xbc05b4f3	-0.008160817
36	0x3bd34852	0.0064478302
37	0xbb4bf541	-0.0031121525
38	0xbd01c477	-0.031681504
39	0x3b99e5dc	0.004696591
40	0xba58961b	-0.00082621136
41	0xba915a55	-0.0011089543
42	0x3cae7545	0.021296153
43	0x3cb762a5	0.022385905
44	0xb96d3070	-0.00022620126
45	0x3c2472ff	0.010037183
46	0x3c479bb7	0.012183121
47	0x3cc4bf22	0.02401692
48	0x3c99a881	0.018757107
49	0xbce43260	-0.027856052
50	0xbc2b06c8	-0.0104386285
51	0x3c82f492	0.01598576
52	0xbbaa1673	-0.0051906644
53	0x3be90b52	0.007111945
54	0x3bd1efaa	0.006406744
55	0x3c7657eb	0.01503561
56	0xbb80ede3	-0.0039346083
57	0xbb144527	-0.0022624226
58	0xbcc4332c	-0.023950182
59	0x39905ee5	0.00027536522
60	0x3ccc87b8	0.02496706
61	0x3bd5fa77	0.006530102
62	0x3c255cb5	0.010092904
63	0x3c6d52ca	0.0144850705
64	0xbbebe22b	-0.007198592
65	0x3c997c03	0.018735891
66	0x3c1ead6b	0.009684901
67	0xbc81dd58	-0.015852615
68	0xbc8caeac	-0.017173134
69	0x3c735e1d	0.014853981
70	0x3b91971b	0.004443062
71	0x3ce36a3a	0.027760614
72	0xbcf44c30	-0.029821485
73	0xbcc659cf	-0.024212746
74	0xbc9a0ac3	-0.01880396
75	0x3be05a03	0.0068466677
76	0xbbc95c73	-0.006145054
77	0x3ceff8f0	0.029293507
78	0x3cac3c0b	0.021024724
79	0xbc234f87	-0.009967691
80	0xbba37e37	-0.004989411
81	0xbc841e6d	-0.01612779
82	0xbc33f499	-0.01098361
83	0x3c73caeb	0.014879922
84	0xbbe0023a	-0.006836203
85	0xbc0648ac	-0.008196037
86	0x3c098327	0.008393086
87	0xbc7a3a40	-0.015272677
88	0x3bc27a9e	0.0059350273
89	0x3bb2ab8c	0.005452579
90	0xb9204e61	-0.00015287987
91	0xbc65a635	-0.014016678
92	0xbbe1553a	-0.006876615
93	0x3d07d5fb	0.033163052
94	0xbcf4610b	-0.02983143
95	0xbccac6ff	-0.024753092
96	0x3ac8fecc	0.0015334724
97	0xbc4606e8	-0.0120866075
98	0x3bdc8252	0.0067294026
99	0x3bfc10f7	0.007692452
100	0xbb2ab58d	-0.0026048154
101	0x3c383faf	0.011245652
102	0x3ca8f1ab	0.020623049
103	0xb89b98f0	-7.419463e-05
104	0xbc97e8d2	-0.018543635
105	0xbc2b304b	-0.010448526
106	0x3c8f98fc	0.017529003
107	0x3d21e6a5	0.0395266
108	0x3cc33e9d	0.023833567
109	0x3c182fca	0.009288738
110	0xbc996e8b	-0.018729469
111	0xbc255532	-0.010091113
112	0xbb813e33	-0.0039441823
113	0x3c1ead5d	0.009684888
114	0xbb4c7e3a	-0.0031203167
115	0x3c5df01a	0.013546014
116	0x3c5768ff	0.013147592
117	0xbbf82718	-0.0075730197
118	0x3ca31be6	0.019910764
119	0x3af768b8	0.0018875813
120	0x3cb952dc	0.022622518
121	0xbc300d70	-0.010745391
122	0x3c20ef21	0.009822638
123	0x3a906923	0.0011017661
124	0x3ce10780	0.027469397
125	0x3bd65443	0.0065408065
126	0x3c37fdb7	0.011229924
127	0x39a27d33	0.00030992329
128	0xbc7ed66a	-0.01555405
129	0xbd1d5cd3	-0.038418602
130	0x3c7d3bcb	0.01545615
131	0xb9633795	-0.00021669113
132	0xbca609e4	-0.020268388
133	0xbab2774b	-0.0013615874
134	0x3b782333	0.0037862777
135	0x3cec604f	0.028854517
136	0xbc422608	-0.011849888
137	0xbc6161d7	-0.013756237
138	0x3c071df5	0.008246888
139	0xbcaef149	-0.021355288
140	0xbb941fa5	-0.004520374
141	0xbafa0290	-0.001907425
142	0x3c18ed83	0.009333971
143	0xbc213563	-0.009839389
144	0x3c84e39f	0.01622182
145	0xbc8284b7	-0.015932424
146	0x3c98f785	0.018672714
147	0xbc38a0df	-0.011268823
148	0x3c596f92	0.013271229
149	0xbc08320a	-0.0083127115
150	0x3ce8de20	0.02842623
151	0xbc2b721f	-0.01046422
152	0xbaddf817	-0.0016934898
153	0x3c3a78c0	0.011381328
154	0x3c52b1f5	0.012859811
155	0x3b9743d5	0.0046162405
156	0xbb5529d8	-0.0032526162
157	0xb9473a92	-0.00018999938
158	0x3a905be4	0.0011013714
159	0x3c9b6a6c	0.018971644
160	0x3cadca94	0.02121476
161	0x3c8ca0d5	0.017166534
162	0x3cd322af	0.025773374
163	0x3c05f3f0	0.008175835
164	0x3d006df3	0.031354856
165	0xbd326ab3	-0.043558788
166	0xbbdcc2f5	-0.006737108
167	0x3c81e944	0.0158583
168	0xbc7005f5	-0.014649858
169	0xbc2da58f	-0.010598554
170	0x3cc99ba0	0.02461034
171	0xbc7e98b2	-0.015539335
172	0x3c46ed48	0.012141533
173	0xbca5c8b7	-0.02023731
174	0x3b084e97	0.0020798796
175	0x3c0f4db4	0.008746553
176	0x3c36532b	0.011128227
177	0x3cc687c1	0.024234654
178	0xbc6f1215	-0.014591713
179	0xbcb5aff6	-0.022178631
180	0xbc979218	-0.01850228
181	0x3c7f151f	0.0155690005
182	0x3cc0c5fb	0.023531904
183	0xbaecdab3	-0.0018070549
184	0x3c087b4c	0.0083301775
185	0x3cc19157	0.023628874
186	0x3d3d9c2c	0.046291515
187	0xbc8b0124	-0.016968317
188	0x3b5692e0	0.0032741353
189	0xbcdd4ec7	-0.027015103
190	0x3c9a8e9c	0.01886683
191	0x3c44c5f9	0.012010091
192	0x3ba0dcf5	0.0049091526
193	0xbcd51620	-0.026011527
194	0x3c93965b	0.018016031
195	0x3c407c53	0.011748391
196	0x3b25d66c	0.0025304807
197	0xbc821e6f	-0.015883652
198	0xbca832c3	-0.020532018
199	0x3a0a90f3	0.00052858813
200	0x3a921c68	0.0011147382
201	0xbbc7ba64	-0.0060952175
202	0xbcb353cc	-0.021890543
203	0xbcb0d65b	-0.021586588
204	0x3bcc2dba	0.006231037
205	0xbb91d7c6	-0.004450771
206	0xbcb241aa	-0.021759827
207	0x3c7c9845	0.015417163
208	0xbcc44ca4	-0.023962326
209	0x3ceb0022	0.028686587
210	0x3c755ed2	0.01497622
211	0x3c804617	0.015658421
212	0x3ab5ae5f	0.0013861171
213	0x3d2af78b	0.04173998
214	0xbc410dd2	-0.01178308
215	0xbc8d16ba	-0.017222751
216	0xbcc688ad	-0.024235094
217	0x3d1e154b	0.038594525
218	0x3c9d26e7	0.01918359
219	0x3b20fd41	0.0024565014
220	0x3c0aa145	0.008461301
221	0x3c8ca51d	0.017168576
222	0x3bb3feab	0.0054930053
223	0x3caf4152	0.021393452
224	0x3c8eb238	0.017418966
225	0xbafb9cf5	-0.0019196557
226	0xbcb67891	-0.022274287
227	0x3c52a17a	0.012855882
228	0xbc6dcacf	-0.014513685
229	0xbcc94833	-0.02457056
230	0x3b46e3ec	0.0030348254
231	0x3b952cac	0.0045524444
232	0x3d105825	0.03524031
233	0x3ca8e6c7	0.020617856
234	0xbca1c5aa	-0.019747574
235	0x3c6e193a	0.014532382
236	0x3b1c0798	0.0023808237
237	0xbd4c54fd	-0.04988574
238	0x3b6e898a	0.0036397898
239	0xbd17d3d3	-0.037067246
240	0xbc79ac4a	-0.015238831
241	0x3c621993	0.013800043
242	0xbcf143ba	-0.02945124
243	0xbcdaa187	-0.02668835
244	0xbd16236c	-0.036654875
245	0xbad12afd	-0.0015958246
246	0xbb87a826	-0.004139918
247	0xbbbca66b	-0.0057571433
248	0xbcf99b6a	-0.030469615
249	0x3bbccecf	0.005761958
250	0xbcf4e773	-0.02989552
251	0xbd018c06	-0.031627677
252	0x3c90adaf	0.017660944
253	0xbc807b55	-0.01568381
254	0xbbf691d0	-0.0075247064
255	0x3c704522	0.01466492

action_model._continuous_distribution.mu.bias f4 [2]
0	0x00000000	0.0
1	0x00000000	0.0

network_body._body_endoder.seq_layers.0.weight f4 [128, 3]
0	0xbd669a53	-0.05629952
1	0xbf0ef828	-0.55847406
2	0x3e54452a	0.20729509
3	0xbf1190b6	-0.56861436
4	0x3efd5cd0	0.49484873
5	0x3e8cad85	0.27476135
6	0x3f2c5a8f	0.6732568
7	0x3f66780e	0.9002694
8	0x3e73445b	0.23756544
9	0x3f053f26	0.5204948
10	0xbc84dc65	-0.016218374
11	0xbf402622	-0.75058186
12	0x3de8863a	0.11353727
13	0x3f919a73	1.1375259
14	0x3f4250f4	0.75904775
15	0x3f5ec6f2	0.87022316
16	0x3ef97b67	0.4872696
17	0xbee6f758	-0.45110583
18	0x3f4ee077	0.80811256
19	0x3d985784	0.07438567
20	0x3f226dae	0.6344861
21	0x3e938804	0.2881471
22	0xbf22c291	-0.63578135
23	0xbdcac9c5	-0.09901766
24	0xbf0d53dd	-0.5520609
25	0xbdd9e629	-0.10639603
26	0x3f5fa8b3	0.8736679
27	0xbf751fbe	-0.9575156
28	0x3ec525bb	0.3850535
29	0x3f1c65c6	0.61092794
30	0x3e2be686	0.16787156
31	0xbf155772	-0.58336556
32	0x3eb391cd	0.35072175
33	0xbcf67385	-0.03008438
34	0xbdc61611	-0.096721776
35	0xbf603a46	-0.8758892
36	0x3ef00b67	0.468837
37	0xbdb00bcb	-0.08595999
38	0x3f23e24f	0.64017195
39	0x3eabe5e8	0.33573842
40	0xbd0e9fd7	-0.034820404
41	0xbe6a1e82	-0.228632
42	0x3e20056d	0.1562707
43	0xbec81813	-0.39080867
44	0x3dd1d4b8	0.10245651
45	0xbe98ecfc	-0.29868305
46	0xbf849226	-1.0357101
47	0xbe509e3b	-0.2037286
48	0xbe49b709	-0.19698729
49	0x3ecafa7c	0.3964423
50	0xbf251eb2	-0.6449996
51	0xbf2fa723	-0.68614405
52	0xbe7cea10	-0.24698663
53	0xbe9609c6	-0.29304332
54	0x3daf3024	0.08554104
55	0xbdca1925	-0.09868077
56	0xbef6eff9	-0.4822996
57	0xbf8ad524	-1.0846295
58	0xbf7c3a56	-0.98526514
59	0x3ec4e928	0.38459134
60	0xbf66cce1	-0.9015637
61	0xbecbe152	-0.39820343
62	0x3e4d6fd0	0.20062184
63	0x3e62ca0a	0.22147384
64	0xbf0c3e9e	-0.54783046
65	0x3f0f1a05	0.5589908
66	0x3de9e9e0	0.11421561
67	0x3ebb38ee	0.3656687
68	0x3e01492e	0.12625572
69	0x3f149200	0.5803528
70	0xbe0cc875	-0.13748343
71	0xbe810034	-0.25195467
72	0xbf8abe7e	-1.0839384
73	0xbd639f48	-0.055571824
74	0x3f3593b5	0.7092851
75	0xbe95493b	-0.29157433
76	0x3f094518	0.53621054
77	0x3ea5739d	0.32314768
78	0xbf3c9a6d	-0.73673135
79	0x3d218a05	0.039438266
80	0x3f9b58dc	1.2136493
81	0x3d45bed8	0.048277706
82	0xbe5d5c23	-0.21617179
83	0x3f5e1631	0.8675261
84	0xbe902114	-0.28150237
85	0x3dfb4def	0.12270724
86	0xbd60dfc6	-0.054900907
87	0x3db59e41	0.08868075
88	0xbeba7f01	-0.3642502
89	0x3f104409	0.56353813
90	0xbe18099d	-0.14847417
91	0x3cd321f3	0.025773024
92	0x3f1b5a2c	0.60684466
93	0x3e922e34	0.28550875
94	0xbf2d494c	-0.6768997
95	0x3e66a488	0.22523701
96	0x3eaefa0b	0.34175143
97	0x3e8fa72e	0.28057235
98	0x3f48eb75	0.7848428
99	0x3f35c9b8	0.71010923
100	0xbdc7b478	-0.097512186
101	0xbe5ae275	-0.21375449
102	0xbf49daf3	-0.78849715
103	0xbe95371f	-0.29143617
104	0x3f3ddfc8	0.7416959
105	0x3f018ebc	0.5060842
106	0x3e1d846b	0.15382545
107	0xbf6a301b	-0.91479653
108	0x3f01b1cf	0.5066194
109	0x3f1790b8	0.592052
110	0x3f6a3ce3	0.91499156
111	0xbe824c30	-0.2544875
112	0x3f3e8c86	0.7443317
113	0xbec068dc	-0.3758
114	0xbdc6f494	-0.09714618
115	0x3ea6e041	0.32592967
116	0x3e83488f	0.25641295
117	0xbbe37b20	-0.006942168
118	0x3cd8efca	0.026481528
119	0xbeb75895	-0.3580977
120	0x3ef14977	0.47126362
121	0xbf73234e	-0.94975746
122	0x3f3794fb	0.717117
123	0x3eb7e7bb	0.35918984
124	0x3dde0a87	0.10841852
125	0xbebf545e	-0.37369055
126	0xbf7dba0e	-0.9911202
127	0x3b85efa6	0.004087406
128	0x3e46d685	0.1941777
129	0xbe711a65	-0.23545225
130	0x3f292987	0.6607899
131	0x3ddd96b0	0.10819757
132	0x3f709fe4	0.93993974
133	0x3de439ea	0.11143859
134	0x3e4c4351	0.19947554
135	0x3f020b21	0.5079823
136	0xbf07ff12	-0.5312358
137	0x3ee489e2	0.44636446
138	0xbf12b4e1	-0.5730725
139	0x3f5731fc	0.84060645
140	0xbdaff8b9	-0.08592362
141	0xbd41d8a7	-0.047325756
142	0x3dc90598	0.0981552
143	0x3f3a02ba	0.7266041
144	0x3e979f01	0.29613498
145	0x3f02b86c	0.51062655
146	0x3e6c8257	0.23096596
147	0xbead96ff	-0.33904263
148	0x3f4d04e3	0.8008558
149	0x3e831fb0	0.25610113
150	0xbf8a021c	-1.0781894
151	0x3f29f045	0.6638225
152	0xbf1c4694	-0.61045194
153	0x3f95ff21	1.1718484
154	0xbcb7c0ed	-0.022430861
155	0x3c957d4f	0.018248228
156	0xbec2f1fd	-0.38075247
157	0xbe9f83e8	-0.31155324
158	0x3db0d930	0.08635175
159	0x3f0991e2	0.53738225
160	0xbf1c81c0	-0.6113548
161	0xbf05c18d	-0.5224846
162	0x3f003e27	0.50094837
163	0x3f184c3a	0.5949131
164	0xbe8e8c40	-0.27841377
165	0x3f51e16f	0.8198461
166	0xbe863595	-0.26212755
167	0x3f89d4b0	1.0768032
168	0x3efee3cf	0.4978318
169	0x3ec8e3f5	0.39236417
170	0x3ea90484	0.33011258
171	0xbecfc2b2	-0.40578228
172	0xbe9ff5d9	-0.31242254
173	0xbe75d013	-0.24005155
174	0xbed7878f	-0.4209561
175	0xbf691978	-0.9105449
176	0x3e10cfe6	0.14141807
177	0x3e60f544	0.21968561
178	0x3f874df5	1.0570666
179	0xbf705e6a	-0.93894064
180	0x3f05035d	0.51958257
181	0xbdbe03d7	-0.09278076
182	0x3fa92678	1.3214865
183	0x3d1c8e86	0.03822186
184	0xbf35ae02	-0.7096864
185	0xbf16d960	-0.5892544
186	0xbe928473	-0.28616676
187	0x3eb42e91	0.35191777
188	0x3f920739	1.1408454
189	0xbedc8fea	-0.43078548
190	0xbf3a2af8	-0.72721815
191	0xbf8f0dc7	-1.117608
192	0x3f84ba0e	1.0369279
193	0xbeba5835	-0.36395422
194	0xbf1ecdf5	-0.62033015
195	0xbd80d79d	-0.06291125
196	0x3f1743d5	0.5908788
197	0xbf02192b	-0.50819653
198	0xbe0bdc5d	-0.1365828
199	0x3f69501b	0.91137856
200	0x3ec708ca	0.38873893
201	0x3ec315f5	0.3810269
202	0x3f20ab75	0.6276162
203	0x3dfbbe1f	0.12292122
204	0xbed4f2aa	-0.41591388
205	0x3eef13e6	0.4669487
206	0x3d056201	0.032564167
207	0x3eded6d7	0.43523285
208	0xbe2110c5	-0.15729053
209	0x3e3cba2f	0.18430398
210	0x3e965dd4	0.2936846
211	0xbf0863f0	-0.5327749
212	0x3f3228cc	0.695935
213	0xbf2ea929	-0.6822687
214	0x3f2461b4	0.64211583
215	0xbee600b2	-0.44922405
216	0x3f3d842e	0.74029815
217	0x3f234e59	0.63791424
218	0xbe0299d8	-0.12753999
219	0xbf4e68cf	-0.80628675
220	0xbf14d7b8	-0.5814166
221	0x3e11f9b8	0.14255416
222	0xbe408ad6	-0.18802962
223	0xbf087c25	-0.5331443
224	0x3f447fab	0.76757306
225	0xbea77802	-0.32708746
226	0xbe0f7694	-0.14010078
227	0x3f3573f3	0.7088005
228	0xbf4ee8f8	-0.8082423
229	0x3e994363	0.29934224
230	0xbf3fec65	-0.74970084
231	0xbeb51578	-0.35367942
232	0x3d5e9a3e	0.054346316
233	0xbe886342	-0.26638228
234	0x3f110fef	0.5666494
235	0xbf86fa5b	-1.0545152
236	0xbf021afa	-0.5082241
237	0xbdf660d3	-0.120301865
238	0xbe9aa4b3	-0.3020378
239	0xbf1ef1f2	-0.6208793
240	0x3f9adc79	1.2098533
241	0x3e556bf7	0.20841967
242	0x3e8334fd	0.25626364
243	0x3e078781	0.13235284
244	0xbe8bb6a5	-0.27287784
245	0x3f9331f2	1.1499617
246	0x3dfc55d8	0.12321061
247	0x3eb196db	0.34685406
248	0x3efa9004	0.48938
249	0x3e6f8922	0.23392156
250	0xbf40ca4a	-0.7530867
251	0xbf47c969	-0.780417
252	0xbf91e336	-1.1397464
253	0x3f0ff49f	0.5623264
254	0x3f47c6d0	0.7803774
255	0x3d6fa735	0.05850907

network_body._body_endoder.seq_layers.0.bias f4 [128]
0	0x00000000	0.0
1	0x00000000	0.0
2	0x00000000	0.0
3	0x00000000	0.0
4	0x00000000	0.0
5	0x00000000	0.0
6	0x00000000	0.0
7	0x00000000	0.0
8	0x00000000	0.0
9	0x00000000	0.0
10	0x00000000	0.0
11	0x00000000	0.0
12	0x00000000	0.0
13	0x00000000	0.0
14	0x00000000	0.0
15	0x00000000	0.0
16	0x00000000	0.0
17	0x00000000	0.0
18	0x00000000	0.0
19	0x00000000	0.0
20	0x00000000	0.0
21	0x00000000	0.0
22	0x00000000	0.0
23	0x00000000	0.0
24	0x00000000	0.0
25	0x00000000	0.0
26	0x00000000	0.0
27	0x00000000	0.0
28	0x00000000	0.0
29	0x00000000	0.0
30	0x00000000	0.0
31	0x00000000	0.0
32	0x00000000	0.0
33	0x00000000	0.0
34	0x00000000	0.0
35	0x00000000	0.0
36	0x00000000	0.0
37	0x00000000	0.0
38	0x00000000	0.0
39	0x00000000	0.0
40	0x00000000	0.0
41	0x00000000	0.0
42	0x00000000	0.0
43	0x00000000	0.0
44	0x00000000	0.0
45	0x00000000	0.0
46	0x00000000	0.0
47	0x00000000	0.0
48	0x00000000	0.0
49	0x00000000	0.0
50	0x00000000	0.0
51	0x00000000	0.0
52	0x00000000	0.0
53	0x00000000	0.0
54	0x00000000	0.0
55	0x00000000	0.0
56	0x00000000	0.0
57	0x00000000	0.0
58	0x00000000	0.0
59	0x00000000	0.0
60	0x00000000	0.0
61	0x00000000	0.0
62	0x00000000	0.0
63	0x00000000	0.0
64	0x00000000	0.0
65	0x00000000	0.0
66	0x00000000	0.0
67	0x00000000	0.0
68	0x00000000	0.0
69	0x00000000	0.0
70	0x00000000	0.0
71	0x00000000	0.0
72	0x00000000	0.0
73	0x00000000	0.0
74	0x00000000	0.0
75	0x00000000	0.0
76	0x00000000	0.0
77	0x00000000	0.0
78	0x00000000	0.0
79	0x00000000	0.0
80	0x00000000	0.0
81	0x00000000	0.0
82	0x00000000	0.0
83	0x00000000	0.0
84	0x00000000	0.0
85	0x00000000	0.0
86	0x00000000	0.0
87	0x00000000	0.0
88	0x00000000	0.0
89	0x00000000	0.0
90	0x00000000	0.0
91	0x00000000	0.0
92	0x00000000	0.0
93	0x00000000	0.0
94	0x00000000	0.0
95	0x00000000	0.0
96	0x00000000	0.0
97	0x00000000	0.0
98	0x00000000	0.0
99	0x00000000	0.0
100	0x00000000	0.0
101	0x00000000	0.0
102	0x00000000	0.0
103	0x00000000	0.0
104	0x00000000	0.0
105	0x00000000	0.0
106	0x00000000	0.0
107	0x00000000	0.0
108	0x00000000	0.0
109	0x00000000	0.0
110	0x00000000	0.0
111	0x00000000	0.0
112	0x00000000	0.0
113	0x00000000	0.0
114	0x00000000	0.0
115	0x00000000	0.0
116	0x00000000	0.0
117	0x00000000	0.0
118	0x00000000	0.0
119	0x00000000	0.0
120	0x00000000	0.0
121	0x00000000	0.0
122	0x00000000	0.0
123	0x00000000	0.0
124	0x00000000	0.0
125	0x00000000	0.0
126	0x00000000	0.0
127	0x00000000	0.0

network_body._body_endoder.seq_layers.2.weight f4 [128, 128]
0	0x3c45a1ce	0.012062503
1	0x3d59c12a	0.05316273
2	0xbbd49542	-0.0064875195
3	0x3ac729e1	0.0015194976
4	0x3dddecb3	0.108361624
5	0x3d18c394	0.037295893
6	0x3db4640f	0.08808147
7	0x3d50642b	0.050876778
8	0x3d785606	0.060628913
9	0xbd9ce78e	-0.07661353
10	0xbd8938ed	-0.06700311
11	0xbd8f6aa2	-0.070027605
12	0xbab124e3	-0.0013515021
13	0xbd9f50ed	-0.07779107
14	0xbe1eb13f	-0.15497302
15	0xbe48f400	-0.19624329
16	0x3cdc1a49	0.026868002
17	0x3c799043	0.015232149
18	0xbd95412d	-0.07287822
19	0x3e0b3ae4	0.13596684
20	0xbe36ef8b	-0.17864816
21	0x3cf10d05	0.029425154
22	0x3c997a2f	0.01873502
23	0xbdb1faf0	-0.08690441
24	0xbcc63f02	-0.024199966
25	0xbde5992e	-0.11210857
26	0xbd455fc0	-0.048187017
27	0xbd146044	-0.03622462
28	0xbd60e590	-0.054906428
29	0x3c794be5	0.015215849
30	0x3e1113fe	0.14167783
31	0xbbc79c0c	-0.0060916003
32	0x3d0f784d	0.035026837
33	0x3c7c63c8	0.015404649
34	0x3d8a04a3	0.06739166
35	0xbce5ff2b	-0.028075775
36	0xbb9c9e8b	-0.004779642
37	0x3bfc8eb7	0.0077074426
38	0x3e136f71	0.1439798
39	0x3dd5be12	0.10436644
40	0x3d34bed5	0.044127304
41	0xbdfd2a37	-0.123615675
42	0x3d392514	0.045201376
43	0xbd800c96	-0.062524006
44	0x3c6f2303	0.01459575
45	0xbda221c9	-0.079166
46	0x3d88d799	0.06681747
47	0xbd569919	-0.0523921
48	0x3d200700	0.039069176
49	0x3d8d72b1	0.06906641
50	0x3c2241ca	0.009903381
51	0x3e03b665	0.12862547
52	0x3d9b754e	0.075907335
53	0x3e06f978	0.13181102
54	0x3db788b7	0.08961623
55	0xbd9b8c72	-0.07595147
56	0xbdcf2bed	-0.101158
57	0x3d3debfd	0.046367634
58	0x3da11d50	0.07866919
59	0x3cb5bd11	0.02218488
60	0xbc93569d	-0.017985636
61	0x3c0d4fd5	0.0086249905
62	0xbd95a299	-0.07306404
63	0x3d45fe04	0.04833795
64	0xbdb1e563	-0.0868633
65	0xbd11e2bf	-0.035616633
66	0xbc245167	-0.010029173
67	0xbd8181ca	-0.063235834
68	0x3ab9033e	0.0014115346
69	0x3ca2c4e7	0.019869281
70	0xbcea23d2	-0.028581534
71	0x3e069fa5	0.13146837
72	0x3e13530d	0.1438715
73	0x3e3291af	0.17438386
74	0x3e17c737	0.14822088
75	0xbe18cc6c	-0.14921731
76	0x3cb14dc3	0.021643525
77	0xbdc00c0c	-0.09377298
78	0x3bcfb81d	0.0063390867
79	0xbdcd87ac	-0.10035643
80	0xbd74027a	-0.059572674
81	0xbb144913	-0.0022626563
82	0xbdbb6392	-0.09149851
83	0xbe03c29d	-0.12867208
84	0x3d8b5205	0.06802753
85	0x3d0e936f	0.034808572
86	0x3dbe202d	0.09283481
87	0x3df17027	0.117889695
88	0x3cbc8d69	0.023016648
89	0x3c16a21b	0.009193922
90	0x3d5cdf95	0.053924162
91	0x3c17ec74	0.009272683
92	0xbd92ec5e	-0.0717399
93	0x3d65f7ac	0.0561444
94	0x3db2152f	0.08695447
95	0x3e0f60f3	0.14001827
96	0x3dd7c659	0.10535879
97	0x3e082d1c	0.13298458
98	0xbd6b1b22	-0.057398923
99	0xbd0f63da	-0.035007335
100	0xbd2cb48b	-0.042164367
101	0xbd899dbb	-0.06719538
102	0x3d6071b2	0.05479593
103	0xbda0876e	-0.07838331
104	0xbe060a0a	-0.13089767
105	0xbd2aed3d	-0.041730154
106	0xbdf1735b	-0.117895804
107	0xbddc5730	-0.10758817
108	0xbd9e431c	-0.07727644
109	0x3cd19c3f	0.0255872
110	0x3e0de2cb	0.13856046
111	0x3d9f7e7d	0.077877976
112	0x3e37a652	0.1793454
113	0xbd77f5d9	-0.060537193
114	0x3cee55e4	0.02909369
115	0xbe508fb6	-0.20367321
116	0xbc805e7d	-0.015670056
117	0xbde8be63	-0.113644384
118	0xbd90ec78	-0.07076353
119	0xbd947561	-0.07248951
120	0x3d7bfcf4	0.06152053
121	0x3b10e9da	0.0022112043
122	0x3d56fb8c	0.052485988
123	0x3d26a8d8	0.040688366
124	0x3e5ce536	0.21571812
125	0x3de1b038	0.11019939
126	0x3ccba1ab	0.024857363
127	0x3e402ca3	0.18767028
128	0xbe657f04	-0.22411734
129	0xbc8da65c	-0.01729124
130	0xbd84afa0	-0.0647881
131	0xbd87fede	-0.06640409
132	0xbdb0f31b	-0.08640119
133	0x3d81d1f4	0.063388735
134	0x3cf8abf6	0.030355435
135	0xbda36914	-0.079790264
136	0x3cf09426	0.029367518
137	0xbd04f9ce	-0.032464795
138	0xbcc5ced4	-0.024146475
139	0xbd2df8d8	-0.042473644
140	0x3da93646	0.08262305
141	0xbd381864	-0.044945136
142	0x3da827b9	0.082107015
143	0x3d90340a	0.07041176
144	0x3bee72dd	0.0072768764
145	0x3d9c74e0	0.0763948
146	0xbbbca478	-0.005756911
147	0xbc81f4b1	-0.015863748
148	0x3dd2bacd	0.10289536
149	0x3e7f41fb	0.24927513
150	0x3ce78574	0.028261878
151	0xbd721dc1	-0.059110407
152	0x3d9fe387	0.07807069
153	0xbdb937b4	-0.09043828
154	0xbd045f4d	-0.03231745
155	0x3cf7d83d	0.030254478
156	0x3e16b63c	0.14717954
157	0x3e0968e5	0.1341892
158	0x3d7911a3	0.060807835
159	0xbd1d2301	-0.03836346
160	0x3deb8637	0.11500209
161	0x3da8e4ce	0.08246766
162	0xbe2fc563	-0.17165141
163	0xbcab3681	-0.020900013
164	0xbd8e24f3	-0.06940641
165	0x3c7b1374	0.015324462
166	0xbcd157ed	-0.025554622
167	0x3dbe50f2	0.09292783
168	0xbc91a2b7	-0.017777784
169	0x3c6f850a	0.014619121
170	0x3db33727	0.08750754
171	0x3c63fcc8	0.013915248
172	0xbcd04333	-0.025422668
173	0xbda018e3	-0.07817247
174	0x3c7b9c02	0.015357019
175	0xbcbcb8fb	-0.023037424
176	0xbdb7efbb	-0.08981272
177	0x3d863c70	0.06554496
178	0x3cae7fd4	0.021301188
179	0x3d908132	0.07055892
180	0xbd8e0644	-0.06934789
181	0xbd48c9df	-0.049020644
182	0xbd040358	-0.03222975
183	0xbc86b1cf	-0.016442208
184	0xbe41085b	-0.18850844
185	0xbe1183fc	-0.14210504
186	0x3de7c9e3	0.11317804
187	0xbd936227	-0.071964554
188	0xbcd4dbc5	-0.0259837
189	0x3d035374	0.03206201
190	0xbd018d76	-0.03162905
191	0x3e20a8ca	0.15689388
192	0xbdafab4a	-0.08577593
193	0xbe191dd9	-0.14952792
194	0xbe6b1693	-0.2295783
195	0xba58da02	-0.0008272232
196	0xbb22f251	-0.002486367
197	0xbcc65989	-0.024212616
198	0x3cb47790	0.022029668
199	0x3d72f822	0.05931867
200	0x3d394ad2	0.04523737
201	0x3a9c15dc	0.001190837
202	0xbcb83a0a	-0.022488613
203	0xbdbbd707	-0.091718726
204	0xbc486158	-0.01223024
205	0x3de3ff47	0.11132675
206	0xbd906474	-0.0705041
207	0x3cf7794b	0.030209204
208	0x3df5c7d7	0.12001007
209	0xbe32247a	-0.17396727
210	0xbc9ea63a	-0.019366372
211	0x3c8ac0f7	0.016937716
212	0xbcd272be	-0.025689479
213	0x3e170fe8	0.14752162
214	0xbd9cdb95	-0.076590694
215	0xbde69e05	-0.112606086
216	0xbd895d95	-0.067073025
217	0xbdcea4d8	-0.10090035
218	0x3cbe450d	0.023226285
219	0xbd83cfce	-0.0643612
220	0xbd8b3574	-0.06797305
221	0xbcbc1ed6	-0.022963922
222	0x3d4b22a3	0.04959358
223	0x3c5c7a0d	0.013456834
224	0x3e011aba	0.12607852
225	0x3b74a559	0.003733
226	0xbd9cd35b	-0.076575
227	0x3d2fcbb5	0.04291888
228	0x3bbad202	0.0057013044
229	0x3dd96572	0.10615052
230	0x3e1e5513	0.1546214
231	0xbd1b39d1	-0.037896935
232	0xbcab325d	-0.020898039
233	0xbc642495	-0.013924737
234	0xbd54e729	-0.051978264
235	0x3d11126d	0.035417963
236	0xbc853428	-0.016260222
237	0xbd63fc5a	-0.055660583
238	0x3d2253a7	0.03963056
239	0x3c4e80ea	0.012603978
240	0xbd6d5800	-0.05794525
241	0xbe054287	-0.1301366
242	0x3db75cea	0.08953269
243	0xbdbca0ee	-0.092103824
244	0xbdc7e803	-0.097610496
245	0x3ca04a41	0.019566657
246	0xbd756e4c	-0.05991964
247	0x3b97bbe6	0.0046305535
248	0x3c6ccc1f	0.014452963
249	0xbc18b1d1	-0.0093197385
250	0x3d8280f9	0.06372256
251	0x3d8d459b	0.06898042
252	0x3cbe9b9f	0.023267565
253	0x3cb7aa24	0.022419997
254	0xbcf86fd0	-0.030326754
255	0xbd211f8a	-0.03933672

network_body._body_endoder.seq_layers.2.bias f4 [128]
0	0x00000000	0.0
1	0x00000000	0.0
2	0x00000000	0.0
3	0x00000000	0.0
4	0x00000000	0.0
5	0x00000000	0.0
6	0x00000000	0.0
7	0x00000000	0.0
8	0x00000000	0.0
9	0x00000000	0.0
10	0x00000000	0.0
11	0x00000000	0.0
12	0x00000000	0.0
13	0x00000000	0.0
14	0x00000000	0.0
15	0x00000000	0.0
16	0x00000000	0.0
17	0x00000000	0.0
18	0x00000000	0.0
19	0x00000000	0.0
20	0x00000000	0.0
21	0x00000000	0.0
22	0x00000000	0.0
23	0x00000000	0.0
24	0x00000000	0.0
25	0x00000000	0.0
26	0x00000000	0.0
27	0x00000000	0.0
28	0x00000000	0.0
29	0x00000000	0.0
30	0x00000000	0.0
31	0x00000000	0.0
32	0x00000000	0.0
33	0x00000000	0.0
34	0x00000000	0.0
35	0x00000000	0.0
36	0x00000000	0.0
37	0x00000000	0.0
38	0x00000000	0.0
39	0x00000000	0.0
40	0x00000000	0.0
41	0x00000000	0.0
42	0x00000000	0.0
43	0x00000000	0.0
44	0x00000000	0.0
45	0x00000000	0.0
46	0x00000000	0.0
47	0x00000000	0.0
48	0x00000000	0.0
49	0x00000000	0.0
50	0x00000000	0.0
51	0x00000000	0.0
52	0x00000000	0.0
53	0x00000000	0.0
54	0x00000000	0.0
55	0x00000000	0.0
56	0x00000000	0.0
57	0x00000000	0.0
58	0x00000000	0.0
59	0x00000000	0.0
60	0x00000000	0.0
61	0x00000000	0.0
62	0x00000000	0.0
63	0x00000000	0.0
64	0x00000000	0.0
65	0x00000000	0.0
66	0x00000000	0.0
67	0x00000000	0.0
68	0x00000000	0.0
69	0x00000000	0.0
70	0x00000000	0.0
71	0x00000000	0.0
72	0x00000000	0.0
73	0x00000000	0.0
74	0x00000000	0.0
75	0x00000000	0.0
76	0x00000000	0.0
77	0x00000000	0.0
78	0x00000000	0.0
79	0x00000000	0.0
80	0x00000000	0.0
81	0x00000000	0.0
82	0x00000000	0.0
83	0x00000000	0.0
84	0x00000000	0.0
85	0x00000000	0.0
86	0x00000000	0.0
87	0x00000000	0.0
88	0x00000000	0.0
89	0x00000000	0.0
90	0x00000000	0.0
91	0x00000000	0.0
92	0x00000000	0.0
93	0x00000000	0.0
94	0x00000000	0.0
95	0x00000000	0.0
96	0x00000000	0.0
97	0x00000000	0.0
98	0x00000000	0.0
99	0x00000000	0.0
100	0x00000000	0.0
101	0x00000000	0.0
102	0x00000000	0.0
103	0x00000000	0.0
104	0x00000000	0.0
105	0x00000000	0.0
106	0x00000000	0.0
107	0x00000000	0.0
108	0x00000000	0.0
109	0x00000000	0.0
110	0x00000000	0.0
111	0x00000000	0.0
112	0x00000000	0.0
113	0x00000000	0.0
114	0x00000000	0.0
115	0x00000000	0.0
116	0x00000000	0.0
117	0x00000000	0.0
118	0x00000000	0.0
119	0x00000000	0.0
120	0x00000000	0.0
121	0x00000000	0.0
122	0x00000000	0.0
123	0x00000000	0.0
124	0x00000000	0.0
125	0x00000000	0.0
126	0x00000000	0.0
127	0x00000000	0.0

value_heads.value_heads.extrinsic.weight f4 [1, 128]
0	0x3d8d8e3c	0.06911895
1	0xbdde44ba	-0.10852952
2	0x3cdf96d0	0.027293593
3	0x3de3555c	0.111002654
4	0x3cf6a1a8	0.03010638
5	0xbae9f900	-0.0017850697
6	0x3e2b4ce2	0.16728547
7	0xbe51f1b7	-0.20502363
8	0xbe21cc6c	-0.15800637
9	0x3c6edec0	0.014579475
10	0xbdbd35ba	-0.09238763
11	0x3e5234a8	0.205279
12	0x3dbb9f40	0.09161234
13	0x3e49ec30	0.19719005
14	0xbdb5342a	-0.0884784
15	0x3d5f51b0	0.054521263
16	0xbe5cb687	-0.21554004
17	0x3d310b58	0.04322371
18	0xbe528ef6	-0.20562348
19	0x3e5b2460	0.21400595
20	0x3def531c	0.11685774
21	0x3e139ed2	0.14416054
22	0x3e4d9398	0.20075834
23	0x3cbecc18	0.023290679
24	0xbe49235b	-0.19642393
25	0x3d8ffba0	0.070304155
26	0x3dbefe48	0.09325844
27	0x3d1c04f8	0.038090676
28	0x3dd1c088	0.102418005
29	0xbc11e770	-0.008905277
30	0xbcfe83f8	-0.031068787
31	0x3d8df304	0.06931117
32	0xbe0d726a	-0.13813177
33	0x3d5db4f8	0.054127663
34	0x3ddd8a28	0.10817367
35	0xbd956d5e	-0.07296251
36	0x3df7f890	0.121079564
37	0xbe3c1b1e	-0.1836972
38	0xbe1b415a	-0.15161648
39	0x3cbbacf0	0.022909611
40	0x3e0474fe	0.12935254
41	0x3df435d8	0.119243324
42	0xbe595854	-0.21225101
43	0xbb19d780	-0.0023474395
44	0xbdea68a8	-0.11445743
45	0xbe38a902	-0.18033221
46	0x3de64a0c	0.11244592
47	0xbda131d6	-0.078708336
48	0x3e19c2de	0.15015742
49	0xbe2c3c42	-0.16819862
50	0x3de137b0	0.1099695
51	0x3dd0350c	0.10166368
52	0xbe43383a	-0.19064417
53	0x3d23cf78	0.03999278
54	0xbd80d084	-0.06289771
55	0x3cb64de0	0.02225393
56	0x3de27a94	0.11058536
57	0xbe2f9885	-0.17148025
58	0xbd22bd98	-0.039731592
59	0xbdb53acc	-0.08849105
60	0xbe0ed38e	-0.13947889
61	0xbe133069	-0.14373936
62	0x3d56a900	0.052407265
63	0xbd170e14	-0.03687866
64	0xbdafff8a	-0.08593662
65	0xbde0c6d1	-0.10975421
66	0xbe28e25c	-0.16492599
67	0xbdd8701b	-0.105682574
68	0x3e4a607a	0.19763365
69	0xbe2fa9bb	-0.17154591
70	0xbe478b6d	-0.1948678
71	0x3da1e6cc	0.07905349
72	0xbdb7afc6	-0.08969073
73	0x3e0847e2	0.13308671
74	0xbdb81a6e	-0.08989416
75	0xbdead1e3	-0.11465814
76	0xbdf3f0d1	-0.119111665
77	0x3e2b58b6	0.1673306
78	0xbe2cf5a4	-0.1689058
79	0xbe303030	-0.17205882
80	0xbc9aca00	-0.01889515
81	0x3e380986	0.17972383
82	0xbc4800a0	-0.01220718
83	0x3dd0d858	0.10197514
84	0xbd330ee8	-0.043715388
85	0xbdb83c5e	-0.08995889
86	0xbdb283a4	-0.08716515
87	0x3d4480b0	0.04797429
88	0x3e318738	0.17336738
89	0x3dbdf7e0	0.09275794
90	0xbd7628b8	-0.060097426
91	0xbda29824	-0.07939175
92	0xbe1f1464	-0.15535122
93	0x3e03a368	0.12855303
94	0xbe0beb17	-0.13663898
95	0x3e3c5912	0.18393353
96	0x3daa4fa0	0.083159685
97	0xbe0a61c8	-0.13513863
98	0x3c965f98	0.01835613
99	0xbda67e44	-0.08129552
100	0xbd1e150c	-0.03859429
101	0x3d8180f0	0.06323421
102	0xbd27ced4	-0.04096873
103	0xba752f00	-0.0009353012
104	0x3e5a0f3c	0.21294874
105	0x3da03c84	0.078240424
106	0xbdde4ebe	-0.10854863
107	0xbe475fa2	-0.19470075
108	0xbd69c36c	-0.057071134
109	0xbe42c28c	-0.19019526
110	0xbd356ec0	-0.044295073
111	0xbe0a2892	-0.13492039
112	0xbd1370f4	-0.035996392
113	0x3e088e24	0.13335472
114	0xbbbb3cc0	-0.005714029
115	0x3db2a480	0.08722782
116	0xbd219118	-0.039445013
117	0xbc593f80	-0.0132597685
118	0xbdec8eac	-0.1155065
119	0x3e22f966	0.1591545
120	0x3ddbcbd8	0.107322395
121	0x3e506248	0.20349991
122	0xbd8a967e	-0.06766985
123	0xbdc0d768	-0.094160855
124	0xbdb273c6	-0.08713488
125	0xbd4fbdf8	-0.050718278
126	0x3cb5d248	0.022194996
127	0xbe580d6e	-0.21098873
