results/ppo/My Behaviour/My Behaviour-12203.pt (torch, 438495 bytes, 36 tensors)

network_body._body_endoder.seq_layers.0.weight f4 [128, 6]
000000 08 59 43 bf 77 ee 06 3f 09 79 77 be 1c 51 44 3e
       -0.76307726 0.5270762 -0.24167265 0.19171566
000010 4d 84 af be 36 b5 af 3e a6 46 af 38 a5 d6 3e 3f
       -0.34280625 0.3431794 8.3578096e-05 0.7454627
000020 cb 54 c9 3d 7c 98 c1 be ac 31 23 be 63 2a 0b 3f
       0.09830626 -0.3781165 -0.15936917 0.5436155
000030 b1 9e 2b be 93 c6 b2 3e 78 0e 08 3d 04 cd 1d 3f
       -0.16759755 0.34917125 0.033216923 0.61640954
000040 dd 3c 25 bf 21 77 87 be c4 97 6e 3e 6a 89 63 bd
       -0.64545995 -0.26458076 0.23300081 -0.05555097
000050 8a 09 63 3f c0 08 30 be 17 2d f9 3e 1c 9d 43 3f
       0.8868643 -0.17190838 0.48667213 0.76411605
000060 39 02 e8 bd 15 02 a2 3d f6 65 51 bd d9 a4 38 3e
       -0.11328549 0.07910553 -0.05112263 0.18031634
000070 f8 1c a9 be 6f 3e 65 be 5f 60 76 3d 9a 2d 9b 3d
       -0.33029914 -0.22387098 0.0601505 0.07577057
000080 44 82 e5 3e a1 94 eb 3e 08 09 24 3e a8 e6 75 bb
       0.44825947 0.46011832 0.1601907 -0.0037521515
000090 da 1a b8 3e f7 9c 48 3f eb 28 59 3f 44 42 29 be
       0.35957986 0.7836451 0.8482806 -0.16529185
0000a0 e7 67 3c bb b6 24 67 3f 71 58 24 be 50 49 73 3e
       -0.0028748454 0.9029039 -0.16049363 0.23758435
0000b0 be d4 53 3e 49 8d 86 3c 37 d2 74 3f 2d 72 0d 3f
       0.20686623 0.016424792 0.9563326 0.55252343
0000c0 8e f9 f4 3d 3f d8 99 bd 91 d1 ed 3d 99 26 7e 3e
       0.11961661 -0.07511949 0.11612237 0.24819411
0000d0 6a 19 1b bf 2a e8 1c bf a7 57 e6 bd 41 c9 7d be
       -0.60585654 -0.61291754 -0.11247187 -0.24783804
0000e0 86 6b 7b 3e 00 a0 74 3c af e6 67 bf 09 7a 07 bf
       0.24552736 0.014930725 -0.9058637 -0.52920586
0000f0 85 4f 07 3e 1e 64 f1 be c8 5d 83 3d 61 a5 06 3f
       0.13213928 -0.47146696 0.06414372 0.525961
000100 ca 56 ec bd c7 ec 8a bf 9a ca ca be 57 cf 26 3f
       -0.11539991 -1.0853509 -0.39607698 0.65160125
000110 0d 4e dc be 58 fa 11 3d 1b 84 7e 3f 39 d4 39 be
       -0.43028298 0.035639137 0.99420327 -0.18147363
000120 95 27 4a 3f 07 18 ff bd ae 27 a3 bc 2a 89 03 bd
       0.7896665 -0.12455755 -0.019916382 -0.03211323
000130 5b d8 07 3f 19 4a 1b be ab a7 d6 bd 2a e9 f3 bd
       0.5306451 -0.15164985 -0.10481199 -0.11909707
000140 2e bf 97 3e f4 42 17 3d 27 d6 6a be 18 ca e3 be
       0.29638046 0.036929086 -0.22933255 -0.44490123
000150 b3 7d 4a 3e 81 8b 05 3f 9f 15 f3 3d 6c ad cd bd
       0.19774513 0.5216599 0.11869358 -0.10042843
000160 c7 f6 6c 3e 29 8f ad bd 76 f8 9b be ff a4 18 bf
       0.23141013 -0.08474571 -0.30462998 -0.59626764
000170 d2 69 2b bd fe 2f a7 be d2 14 0d bf f2 fe f8 be
       -0.041848965 -0.32653803 -0.55109894 -0.48632008
000180 55 81 10 3f 60 06 0f bf bc af cb be b7 35 5e bd
       0.56447345 -0.558691 -0.39782512 -0.054250445
000190 a6 7f f2 bd b4 ef 15 bf 50 99 4a 3f f3 06 d8 3e
       -0.11840753 -0.5856888 0.79140186 0.42192802
0001a0 64 27 b5 3e 17 f6 33 be c1 52 68 3e 50 ef 2a bf
       0.35381615 -0.17574345 0.22687818 -0.6677141
0001b0 af 0e 25 be 78 cd f7 be 61 ab 34 bf c7 b5 cb 3c
       -0.16118883 -0.48398948 -0.70574003 0.024866952
0001c0 4d 07 0e 3e ca f2 93 3e 18 d0 02 3d 37 c4 23 3e
       0.13869973 0.2889617 0.031936735 0.15992819
0001d0 59 14 1c 3d 58 9c 4e be 76 b9 df 3e 36 f2 7e 3e
       0.038105343 -0.20176828 0.43696183 0.24897084
0001e0 35 70 13 3f c0 d4 a9 3e f3 0a 64 be a1 f8 8c bc
       0.5759309 0.33170128 -0.22269802 -0.0172084
0001f0 33 2d 5b 3d 48 b7 9c bd d8 15 fa 3e 43 06 3a bf
       0.053509902 -0.076521456 0.4884479 -0.72665805
000200 11 97 48 bf 5b 5a c4 3e 81 9d cb 3e 64 e7 4f 3f
       -0.7835551 0.38350186 0.39768603 0.8121245
000210 e8 0e 83 3d b8 cb 44 bf 66 f9 aa 3e 1e 76 80 3e
       0.063993275 -0.7687335 0.333934 0.25090116
000220 83 53 2b be 01 88 a6 be 21 ee a6 be 4b d4 83 3d
       -0.16731076 -0.32525638 -0.32603553 0.06436976
000230 09 78 0a bf 17 8e cb be 4f 60 4a 3e 5d 4d 27 bf
       -0.5408941 -0.39756843 0.19763301 -0.6535242
000240 e7 2d d6 bd 00 69 b8 be c7 aa 78 3d 32 e0 b3 3d
       -0.10457974 -0.3601761 0.06070974 0.08782996
000250 26 26 89 be 36 fa 05 bf 0a 83 90 3d bc 0c 40 be
       -0.26786917 -0.52334917 0.07056244 -0.18754858
000260 27 5d c3 be d1 86 3b 3f e7 5d 13 3f 88 d3 07 3d
       -0.38157007 0.7325259 0.5756516 0.033160716
000270 1c c2 96 be b2 e8 f6 3e 47 1c ee be e8 a9 72 be
       -0.2944497 0.48224407 -0.4650595 -0.23697627
000280 67 35 86 be a5 92 5b 3e 0e 07 07 3f 65 9d 03 3e
       -0.26212618 0.21442659 0.5274514 0.1285301
000290 9b 96 3d 3e d2 94 22 3f c8 f9 b7 be 9b 5c 17 bd
       0.18514483 0.6350833 -0.35932755 -0.03695355
0002a0 c4 a2 cb 3e 32 71 bd 3e 2a e2 b2 be e5 e4 bb bd
       0.39772618 0.37000424 -0.34938174 -0.091745175
0002b0 fd 89 d9 be e6 82 45 3e 9b 83 74 3e 6e a5 12 39
       -0.4248809 0.19288215 0.23878329 0.00013985272
0002c0 2c f8 db 3d d4 35 70 be 8e f2 ca be 37 1b b3 3e
       0.107406944 -0.23458034 -0.3963818 0.349817
0002d0 5a d3 88 3c 25 e8 e3 3e 6f e5 8e be 96 15 46 3e
       0.016702343 0.4451305 -0.2790942 0.19344172
0002e0 31 ef 1a be 9a f2 8a be 51 f7 fa be 22 91 84 be
       -0.15130307 -0.27138215 -0.49016812 -0.25891978
0002f0 36 3e 88 3e 0e 65 0c 3f 37 bb 48 be 2a 75 1f bf
       0.26609963 0.548417 -0.19602667 -0.62288153
000300 ea d1 64 3e c5 80 9d bc 2d 0b 35 3e 68 a8 2d 3f
       0.22345701 -0.019226441 0.17680044 0.6783509
000310 a3 6a 42 bf 57 a8 83 3e 11 d2 fe bd 0a 7a dc 3e
       -0.75943965 0.2571437 -0.12442411 0.43061858
000320 65 08 6b be ec 1e 27 be b4 ab 24 3d c9 e5 9b 3e
       -0.22952421 -0.1632039 0.04020281 0.3044875
000330 bf 2e 49 3d 3a dd 4f be 16 b4 88 be 2f 67 88 be
       0.049116846 -0.20299235 -0.26699895 -0.26641223
000340 bb 2b 9b bd 37 c7 15 3e da 8b c6 3d b4 8e 95 bd
       -0.075767 0.14626776 0.09694643 -0.07302609
000350 42 f8 75 3e 9d 60 28 bf 1f fc f1 3e a8 b5 cc 3e
       0.24020484 -0.6577242 0.47262666 0.39982343
000360 88 ad bd bc fe f3 02 3f b3 fb 80 be 66 9c 36 3e
       -0.023154035 0.5115355 -0.2519203 0.17833099
000370 b8 28 0f 3d 05 93 37 3f 5e 1a 0a 3f 16 76 0e 3f
       0.03495094 0.7170871 0.53946483 0.55648935
000380 0c 68 10 3e df d3 3a bf 5d 4a 3a bd 9e 8b c9 3d
       0.1410219 -0.7297954 -0.045481075 0.09841083
000390 c1 92 b8 3e 0a c3 59 3e 81 5f 8b 3e d2 c8 24 3e
       0.36049464 0.21265808 0.272213 0.16092232
0003a0 b6 98 aa be 62 24 c7 bb 58 d0 d0 be 22 a6 e2 be
       -0.33319634 -0.006077335 -0.40783954 -0.44267374
0003b0 87 8a 69 3e f3 c1 35 3f d6 d6 20 3f 92 ef a7 be
       0.2280675 0.7099907 0.62827814 -0.32799965
0003c0 d6 6c a8 be 9a 59 3a bf 71 19 7f 3e 50 f0 f8 3e
       -0.32895535 -0.7279297 0.24912049 0.48620844
0003d0 a5 3f 05 3f 12 60 93 bd 50 fc d8 3e 04 cb 41 be
       0.5205024 -0.07196058 0.4238 -0.189251
0003e0 af 75 ba 3e b4 6e 18 bd f6 75 2e 3e 2a e5 04 3f
       0.3641791 -0.03721495 0.17037186 0.51912177
0003f0 9d 9b 50 bf a5 0f 30 be dd c1 fc bc 66 5d db bc
       -0.8148745 -0.17193468 -0.03085416 -0.026777934

network_body._body_endoder.seq_layers.0.bias f4 [128]
000000 b8 6b 14 3a b6 d6 85 ba cb 5c 92 2d ad 10 a7 b9
       0.00056618033 -0.0010211084 1.6639487e-11 -0.00031865147
000010 89 da d7 3a 53 8a 28 3b 51 ea 6e 3a 8d 14 44 3a
       0.0016468327 0.0025717213 0.00091138954 0.0007479869
000020 72 94 20 0f 5f 0d 0a 96 00 00 00 00 c0 64 21 3b
       7.9171986e-30 -1.115177e-25 0.0 0.0024626702
000030 4c b2 15 bb a0 d9 69 9d fd 64 ad ba ba 6e 5b a3
       -0.002284187 -3.0949803e-21 -0.0013228949 -1.1895461e-17
000040 66 7a 3a 3b b8 16 be 09 34 11 7e 3a 42 23 6b 3a
       0.0028454303 4.57622e-33 0.00096918945 0.00089697924
000050 26 13 fe 3a 71 78 27 ba 82 7d c3 25 b1 28 10 ba
       0.0019384369 -0.00063884916 3.3912155e-16 -0.00054992276
000060 b4 95 8a 17 9c a6 7a 39 50 d5 6a 3a 90 4f cc ba
       8.955831e-25 0.00023903925 0.00089581776 -0.0015587676
000070 1f 8a 25 b9 3b 58 c5 ba 49 99 45 3b 0b 02 fd 0d
       -0.0001578708 -0.0015056202 0.003015118 1.5592821e-30
000080 d1 2d 85 ba 3b 5a 41 3a 4d 78 ef 3a 7d 0f dd 39
       -0.0010160749 0.0007375811 0.0018270105 0.00042163944
000090 27 6d 92 ba df 28 33 39 4d b8 a1 3a 1e ee 24 a6
       -0.0011171446 0.00017085996 0.0012338251 -5.722164e-16
0000a0 11 ca 6f ba b2 b0 5c b9 40 46 8f 9a 7a 95 54 b9
       -0.00091472367 -0.00021046659 -5.925691e-23 -0.0002027358
0000b0 62 2a e9 39 2a 53 1e 07 47 93 5a 1b 18 94 54 3a
       0.000444728 1.1911039e-34 1.8080125e-22 0.0008109226
0000c0 95 d1 54 31 96 f3 2f 3b 2a 31 43 ba 84 c3 55 39
       3.0969194e-09 0.002684807 -0.00074459857 0.00020386098
0000d0 41 f5 c7 ba 19 a8 b1 39 52 82 57 ba 6a ce b4 2c
       -0.0015255586 0.00033885313 -0.00082210184 5.1388243e-12
0000e0 57 b3 b6 2a 4d d7 0c bb e5 da 81 38 40 70 99 bb
       3.2454136e-13 -0.0021490634 6.1919716e-05 -0.0046825707
0000f0 52 c2 57 b9 f4 1b 0c 8d 63 df 80 3a 74 6f 20 bb
       -0.00020576388 -4.317448e-31 0.00098322 -0.0024480494
000100 f7 fa 06 b8 08 d9 ef b6 dc 39 75 37 a5 6e ca ba
       -3.218182e-05 -7.148021e-06 1.4616609e-05 -0.0015444352
000110 f6 dc 5a 3b 66 f5 46 2c c9 73 06 3b 24 2f 22 3a
       0.0033395863 2.8273716e-12 0.002051579 0.0006186834
000120 89 ae 69 38 b0 b7 f5 39 37 b1 3c 3a e6 f2 d4 39
       5.5714077e-05 0.000468669 0.0007198038 0.00040616764
000130 1e eb 93 38 e1 e9 78 3b 41 2d 48 ba bc 2b 1e ba
       7.0533e-05 0.00379812 -0.0007636138 -0.00060337386
000140 77 d1 eb 38 f8 61 54 1e 5f 04 23 3a 00 00 00 00
       0.00011244689 1.1243446e-20 0.0006218608 0.0
000150 c5 8f 47 3a 00 00 00 00 f4 2e 3d ba 65 f7 c2 96
       0.0007612671 0.0 -0.00072167744 -3.1498518e-25
000160 04 c4 aa ba 0c a7 65 b9 7c 20 d2 39 9c 95 48 3a
       -0.0013028388 -0.00021901372 0.00040078524 0.0007651688
000170 bc 7f 29 21 14 bb de 39 62 07 18 b6 60 da 25 8f
       5.742848e-19 0.00042482524 -2.2654062e-06 -8.1771856e-30
000180 26 c5 e6 b9 b3 20 4c 3b 99 2a 3e 3a 2d 2e 82 3a
       -0.00044015906 0.003114742 0.00072542724 0.0009931974
000190 b4 ad 6c 3a 77 a9 bb ba 88 16 1d 3b b9 56 8d 1e
       0.00090285693 -0.0014317472 0.0023969728 1.4964823e-20
0001a0 62 63 04 b2 0a a0 53 b9 ca 59 a3 39 05 4d 31 bb
       -7.706008e-09 -0.00020182147 0.0003115668 -0.0027053964
0001b0 d8 06 b4 ae 1e 0a e1 ba 06 da 50 39 16 02 78 ba
       -8.186668e-11 -0.0017169153 0.00019917646 -0.000946076
0001c0 50 56 51 3b d3 7e 31 39 6d 2c 32 bb 86 c5 85 3a
       0.0031942315 0.00016927281 -0.0027187124 0.0010205961
0001d0 f3 be 0a bb e9 5e 74 bb 00 08 82 ba b7 e2 46 bb
       -0.0021170944 -0.0037288016 -0.0009920597 -0.0030347535
0001e0 2b 08 5f b8 6e 24 19 ba 5a bf e9 39 34 df 3d ba
       -5.317495e-05 -0.0005841915 0.0004458379 -0.00072430377
0001f0 50 8a 6f 3a 1d e6 96 ba f4 fd f8 b9 62 ac 88 3a
       0.00091377366 -0.0011512671 -0.00047491456 0.0010427351

network_body._body_endoder.seq_layers.2.weight f4 [128, 128]
000000 7a 6d 31 be 1a f7 4b 3d c1 2b 99 3b 32 8f 5c bd
       -0.17326918 0.0497962 0.0046744053 -0.0538475
000010 a8 37 d7 3c 87 98 56 bd ba f4 f9 3c b5 7b c1 bc
       0.026271656 -0.052391555 0.030512203 -0.023618558
000020 24 29 1a 3d 90 a5 9d 3d a8 b6 4c 3d a7 73 b0 3c
       0.03763689 0.07697594 0.049978882 0.021539522
000030 0f 1d a6 bd 51 4c 57 3d 4b ee b0 3d fa c9 e6 3c
       -0.08111011 0.052563015 0.08639201 0.028172482
000040 c7 72 9a 3c e9 53 ea bd ce 51 9e 3d c1 cb 13 be
       0.018853558 -0.11441786 0.07730447 -0.14433195
000050 f1 6d 54 bd 32 c1 96 3c ad ea 1d be 78 a0 3b bd
       -0.05186266 0.01840267 -0.15421553 -0.04580733
000060 42 16 a6 bd 50 36 c4 bd 57 fd 25 bd 85 e2 97 3d
       -0.08109714 -0.09580672 -0.040524807 0.07416252
000070 3e 70 09 be ae a2 4e 3d 1f 39 60 3d e2 c6 44 3d
       -0.13421723 0.050448112 0.054741975 0.048041232
000080 86 a7 a7 bd f7 e5 0b 3e ef 3c 17 be e6 9e b4 bc
       -0.081862494 0.13661943 -0.14769338 -0.022048425
000090 83 87 03 bc ee d7 fb 3d 63 66 b9 3c 9f 4b 18 bd
       -0.008027914 0.12297045 0.02263183 -0.037181493
0000a0 45 48 7c bd 87 c2 7e bd 0f 91 e6 bd 38 5b a1 3d
       -0.06159236 -0.062197234 -0.112581365 0.07878727
0000b0 24 42 6a be bc cf f9 bd 7e e5 bf bc ac 75 ae bc
       -0.22876793 -0.12197825 -0.02342486 -0.021296345
0000c0 fa 78 e1 bc ee 4a 53 3d 08 0a 2c 3d d0 0d 06 3e
       -0.027523506 0.05158513 0.042001754 0.13091207
0000d0 31 3b 0b be d0 8f 86 3d f3 1c 88 3d 20 f8 99 bc
       -0.13596798 0.06570399 0.066461466 -0.018795073
0000e0 b4 45 be 3d 3c 31 54 bb 89 a5 87 3d 42 c0 15 3e
       0.092906386 -0.0032377979 0.0662337 0.14624122
0000f0 ea ec 93 bd b1 6e 78 3d f2 ea 1f bd 92 c4 d1 bc
       -0.07222922 0.06065244 -0.03904242 -0.025606427
000100 da 11 9e bc 25 e4 c8 bd 62 c8 e1 bd 17 3a 6d bb
       -0.019295622 -0.0980914 -0.11024548 -0.0036197954
000110 c4 b0 cd bc 88 37 35 3d d0 05 98 bd 6c c4 cb 3c
       -0.025108702 0.04424241 -0.07422984 0.024873935
000120 ce 9c 82 bd 80 5b 33 3d de ba 1a 3d 92 29 b8 bd
       -0.06377564 0.043788433 0.037775867 -0.08992304
000130 16 0f 17 be 43 8c a2 bd c8 84 f2 3d 9a 12 06 3c
       -0.14751849 -0.07936909 0.11841732 0.008183146
000140 3e a1 ca 3d 8c f7 03 be a5 ca 2c 3d 42 8c 89 bd
       0.09894036 -0.128874 0.042185444 -0.06716205
000150 d0 f1 e0 3b 41 c5 b7 3d 67 ae 38 be c6 cb f4 3d
       0.006864764 0.0897317 -0.18035279 0.11952929
000160 80 62 fe 3d c9 6b a1 bd 96 8f 05 be 9a 67 86 3d
       0.12421131 -0.078818865 -0.13043055 0.06562729
000170 5d 5c 59 bd 2a 17 8b 3d 4a 02 d0 3d 4d ed b5 3d
       -0.0530666 0.067915276 0.101566866 0.08883152
000180 05 ca 55 bc 52 38 75 bd d3 f4 c5 3d 5b e8 d6 3a
       -0.0130486535 -0.059868164 0.09665837 0.0016396152
000190 c1 d3 3c 3e a4 01 12 be ff bd bb bc 37 45 95 3c
       0.18440153 -0.14258438 -0.022917746 0.01822148
0001a0 47 4a 68 3e 17 4d c7 3c a7 7a e7 bd fb d7 41 3e
       0.22684585 0.024328751 -0.11302691 0.18930046
0001b0 d5 8b 9c bd bc 86 a5 3c 84 1c 76 3e 10 92 26 3d
       -0.07643858 0.020205848 0.24034315 0.04066664
0001c0 51 f5 39 bd b2 28 ef bc 5f 67 05 3e 56 b5 79 3c
       -0.045399968 -0.02919421 0.13027714 0.015240988
0001d0 37 82 b9 bd f6 cd cf bd 66 74 0b 3c 5c b6 ef bb
       -0.0905804 -0.10146706 0.008511638 -0.00731544
0001e0 58 34 6a 3d 89 84 05 3e 44 d5 a0 3d d3 fd 8b bd
       0.057178825 0.1303884 0.07853177 -0.068355225
0001f0 74 98 63 3d ec b0 8e bd 0d d1 e4 3d 56 7f d5 bc
       0.055565313 -0.06967339 0.11172686 -0.026061695
000200 be 76 fc 3d 0b 23 61 3d 63 a0 09 be 85 28 78 3a
       0.12327336 0.05496506 -0.13440089 0.0009466487
000210 e1 33 c7 bb 6a 6e b7 b8 7d c8 50 3c 66 ed 85 3b
       -0.0060791825 -8.746686e-05 0.012743113 0.004087138
000220 ca ec 38 3d c9 90 c7 bb fb 3c 66 bc 03 05 aa 3d
       0.045147695 -0.006090258 -0.014052625 0.08301737
000230 96 96 59 bd b3 69 c1 39 95 e4 b0 bc 21 42 d3 3d
       -0.053122126 0.0003689058 -0.021593371 0.103153475
000240 da 61 12 bd 49 db 30 3d 37 b6 fd bb ca fd 19 3e
       -0.03573785 0.043177877 -0.007742669 0.15038219
000250 df df a4 bc e7 8c 4d 3d 3a 82 c6 bc ef 14 89 3d
       -0.020126281 0.050183203 -0.024232019 0.06693446
000260 8e a5 95 bc a9 e0 a9 3d 80 f5 11 3d fe 8a 81 3d
       -0.01826742 0.08294804 0.035634518 0.06325339
000270 7c ee 97 3c 98 cc 04 3e 7d 7e 5f 3d e8 1b f9 bd
       0.018546335 0.12968671 0.054563988 -0.12163526
000280 4a 97 58 bd 7a 11 3f 3d 51 38 cb 3d f2 ba 2c 3d
       -0.052878655 0.046647526 0.09922851 0.042170472
000290 81 2a 0f 3d 0f 89 2b bd 57 71 eb bc 4f f9 c5 bd
       0.034952644 -0.041878756 -0.028740568 -0.096666925
0002a0 db 5f 04 3e a5 44 7c 3d 89 89 d4 bd f1 d9 08 3e
       0.12927191 0.061588902 -0.10377795 0.13364388
0002b0 80 b7 d8 3d e0 17 d7 3c 0e e9 45 be 67 ed 89 3d
       0.10581875 0.026256502 -0.19327185 0.06734734
0002c0 14 1d f5 bc 05 0c f1 bc ce 11 11 3e 1c 52 bd bd
       -0.029921092 -0.029424677 0.14166948 -0.09244177
0002d0 b9 00 b7 3d af 12 ea 3d 9a 45 f4 bd 7a fc 17 3d
       0.08935685 0.11429345 -0.11927338 0.037106015
0002e0 59 b7 dc 3d c9 f3 b9 bd 1a 49 04 bd c0 e9 1a 3d
       0.10777158 -0.090797015 -0.032296278 0.037820578
0002f0 1c 44 0c bc 8c c8 db 3d 1a 02 de bd 2b bc a7 3d
       -0.00856116 0.10731611 -0.108402446 0.08190187
000300 d0 2d 8b 3d f7 94 1f be 46 f1 f9 3d 04 70 03 3e
       0.067958474 -0.1558417 0.122042224 0.128357
000310 1e 90 7f 3c 2d b4 a9 bd 8b 1d 19 3c 9e e9 17 bd
       0.015598325 -0.08286319 0.0093454225 -0.03708803
000320 14 a7 cd bd 97 b6 ae 3d f1 fe 66 3d 01 6f 0a 39
       -0.10041633 0.0853092 0.056395475 0.00013202058
000330 87 98 1a 3e a2 a0 ba bd 68 f3 2a bb cf fd c5 bc
       0.15097247 -0.091126695 -0.0026085023 -0.024168877
000340 9f af f7 bd 03 21 1a bd 74 f0 d4 bd ab 63 88 3c
       -0.12094044 -0.03762914 -0.10397425 0.016649088
000350 73 c7 5f 3d 74 a4 27 bd fb 56 0d 3d ec 37 8d 3b
       0.05463357 -0.04092832 0.03450678 0.004309645
000360 fc 08 27 3d 63 5d c3 bd e7 7f 04 3d 81 73 6a bc
       0.040780053 -0.095392965 0.03234854 -0.014309765
000370 6e ad f8 3d 08 21 17 bd 63 73 09 3e 26 a2 59 bd
       0.12142454 -0.036896735 0.13422923 -0.053133152
000380 a6 2e 25 3d f2 3f 86 bc 60 da 33 3d 90 79 5d 3d
       0.04032769 -0.016387913 0.04390943 0.05407101
000390 98 af ce bd 02 e1 c1 3c 5c 43 02 be 80 91 1a 3d
       -0.100920856 0.023666862 -0.12721008 0.037736416
0003a0 b6 28 0f 3d 6a c5 3f bd 65 51 84 3d 0d 45 37 bd
       0.034950934 -0.046819128 0.06460837 -0.044743586
0003b0 76 25 0c 3e 9f d2 3c 3c b9 e5 ab 3d c6 df 3e be
       0.13686165 0.011524825 0.083934255 -0.1864005
0003c0 70 01 fa 3c ee 9b 38 bd a5 2e fb 3c 3e d7 c6 3d
       0.030518264 -0.04507058 0.03066189 0.09709023
0003d0 8e 51 ac 3d 9f d2 27 3d 63 f8 c7 bd 29 ed a7 bc
       0.08413993 0.04097235 -0.09764173 -0.020498829
0003e0 18 f2 81 3c 99 94 04 be cb eb 99 be dc ef a2 bc
       0.01586251 -0.1294731 -0.30062708 -0.019889764
0003f0 7d cf 62 bd 91 6f d7 3c bd 6d 79 bd 95 18 d9 bd
       -0.055373657 0.026298316 -0.06089567 -0.10600392

network_body._body_endoder.seq_layers.2.bias f4 [128]
000000 a2 c2 07 27 df ce 6c ba 9c 89 3f bb 71 a4 07 3a
       1.8840524e-15 -0.0009033512 -0.0029226309 0.0005174345
000010 e1 f1 80 ba ef b3 19 b9 67 de 26 3a 3c e2 0d 3a
       -0.000983771 -0.00014658248 0.0006365538 0.00054124347
000020 15 58 21 3a cc 16 e6 3a 08 36 0c 3a ed 52 23 3a
       0.0006154788 0.0017554401 0.00053486275 0.00062303134
000030 63 e6 0b ab 64 91 39 3b 65 b6 1c 3a cf 9f 65 ba
       -4.9702446e-13 0.002831542 0.00059781066 -0.000875947
000040 84 61 d8 b4 c0 d9 00 3a fe 64 d9 b9 32 f1 9a ba
       -4.0304087e-07 0.000491526 -0.0004146471 -0.0011821149
000050 de f4 67 ba 95 ce fc 1b 38 6d d5 ba 24 b0 1f 38
       -0.0008848439 4.1823403e-22 -0.001628316 3.8072598e-05
000060 68 42 07 bb 26 7d 3d 3a 7c 63 03 b9 80 e3 a6 3a
       -0.0020638946 0.00072284264 -0.00012530194 0.0012732595
000070 b4 0d 4f bb bb ea 5d 39 e3 f6 9c ab ca c5 70 a9
       -0.003159386 0.00021163646 -1.1152992e-12 -5.346226e-14
000080 0c d2 30 3b ed af 46 ba ac fc a0 12 91 bd 1b b9
       0.0026980666 -0.00075793156 1.0159708e-27 -0.00014852571
000090 29 19 8a 39 44 cd 24 ae 18 98 f9 39 fe 55 d3 3a
       0.00026340157 -3.7471595e-11 0.000476063 0.001612365
0000a0 0e 75 37 ba f1 3e a2 3a a7 33 2f b9 a7 fb e0 ba
       -0.00069983385 0.0012378377 -0.00016708543 -0.0017164842
0000b0 18 82 e6 ba c4 17 54 ba b1 77 35 a5 bb 02 1b 39
       -0.0017586378 -0.00080906996 -1.57398e-16 0.00014782969
0000c0 56 79 3b ba b1 bb 81 3a 7f 3d d2 b9 b7 4a 16 ba
       -0.00071515644 0.0009897855 -0.0004010014 -0.0005733179
0000d0 bf 19 92 92 64 0a e3 2a 57 9f 7a b8 04 5b ac 21
       -9.220242e-28 4.033051e-13 -5.975304e-05 1.1679265e-18
0000e0 31 9c cc 3a 76 97 ad 9c 57 74 61 19 19 cc a2 ba
       0.0015610514 -1.1487331e-21 1.1655722e-23 -0.0012420445
0000f0 dd 6f 07 b9 86 20 4d b9 f1 b3 53 3a b0 c8 c6 b9
       -0.00012916276 -0.0001956244 0.00080758246 -0.00037915027
000100 a3 5a bb 19 21 7d f7 b9 c2 28 f1 39 0c ad a2 bb
       1.9371955e-23 -0.0004720474 0.0004599747 -0.0049644765
000110 4d 8b e5 b9 19 5f 79 ba 1b 27 28 ba 16 7d 61 b8
       -0.0004378207 -0.0009512767 -0.00064145186 -5.3760676e-05
000120 db ce 10 bb 23 e3 35 3b be 34 55 39 86 32 38 b3
       -0.0022095952 0.0027753792 0.00020332911 -4.288679e-08
000130 f4 71 a7 39 22 6a ac 39 ee 7b 2b 3a 42 31 4d bb
       0.00031937624 0.00032885472 0.0006541599 -0.0031309878
000140 04 8f 20 ba d4 d9 10 a9 da 42 53 ba 9a 1e 43 ba
       -0.00061248266 -3.216336e-14 -0.0008058973 -0.00074432197
000150 9d 8c 8d ba e2 4b ca 14 6c 5d d8 37 8e 86 88 ba
       -0.0010799352 2.0426718e-26 2.579271e-05 -0.0010416077
000160 54 a4 c3 ba a7 64 68 ba b6 e6 51 ba 49 4f 80 ba
       -0.0014926293 -0.0008865096 -0.0008007096 -0.0009789254
000170 4b e4 c6 ba 58 f5 8f ba 49 eb bf b9 b8 60 08 ba
       -0.0015174238 -0.0010983152 -0.0003660566 -0.00052024005
000180 78 6e 5b bb cb 1b d1 ba 8c 62 34 aa 92 0b 18 3a
       -0.0033482593 -0.0015953718 -1.6021402e-13 0.0005800064
000190 ad ea e3 b9 cb 11 94 3a ff c6 be ba 8d 8a 30 a7
       -0.0004347166 0.0011296807 -0.0014555155 -2.4500015e-15
0001a0 76 d0 d0 39 ac 38 65 bb 59 3a f8 39 74 74 16 ba
       0.00039828167 -0.0034976406 0.00047345718 -0.0005739399
0001b0 cd f5 21 3a ac 71 85 3a cf 2d 9b ba 68 d5 0f 3a
       0.000617829 0.0010180972 -0.0011839214 0.0005486817
0001c0 4c 0a c6 39 3e fd 5b b8 fd dc 22 ba ea 5a 01 37
       0.00037773175 -5.244952e-05 -0.00062127394 7.710167e-06
0001d0 0f a1 47 a1 4d f3 25 39 9e 03 ed 39 4d 1c ac ba
       -6.763698e-19 0.00015826263 0.00045206858 -0.0013130993
0001e0 3f 87 b4 ba 0d 8b 1f ba 40 39 4d bb c3 e9 dc ba
       -0.0013773217 -0.0006086089 -0.0031314641 -0.0016854334
0001f0 ee 70 95 b8 64 03 1d 39 24 84 cd 1f 0e cb 32 ba
       -7.1259085e-05 0.0001497395 8.7039485e-20 -0.00068204186

action_model._continuous_distribution.log_sigma f4 [1, 2]
000000 6f 80 90 3b b9 cc 24 3b
       0.0044098417 0.0025146438

action_model._continuous_distribution.mu.weight f4 [2, 128]
000000 27 ab 87 bc f8 3f 5e bc b8 72 dd bc 9a 76 66 3c
       -0.016561104 -0.013565056 -0.027032241 0.014066363
000010 54 28 4e 3b c1 8b 0e bb 7c bb d2 3b a1 f2 04 3d
       0.0031457143 -0.002175078 0.0064310413 0.03245795
000020 e4 df 94 3b e1 92 48 3c f6 88 3c 3b 0d cf ae 3b
       0.0045432914 0.01224205 0.0028768159 0.005334741
000030 ee 9c 9c bc b0 15 10 3c 69 0d 66 3a 93 72 6e 39
       -0.019117799 0.008794233 0.0008775802 0.00022740131
000040 28 96 e9 bc 62 df a0 3c c2 ee 6d bc 17 61 ee bb
       -0.028513983 0.019637767 -0.014522256 -0.0072747576
000050 5d 1f 9b bc 15 6e 6e 3c f8 e5 65 bb d0 c2 5d bc
       -0.018935854 0.014552613 -0.00350797 -0.013535216
000060 41 60 a7 bc 97 44 72 3b be b3 42 bc c5 7e 97 3c
       -0.02043164 0.0036967152 -0.011883674 0.018493066
000070 5e b0 d0 ba 2b cf a5 3c 35 70 17 bb 45 66 c7 3c
       -0.0015921702 0.020240387 -0.0023107652 0.024340758
000080 8a d3 07 3d f6 a3 14 3d ef a9 d0 bc 96 23 1b bc
       0.033160724 0.036289178 -0.025471656 -0.009468934
000090 db 62 53 bc 08 a0 e9 bb 82 73 d1 3a f7 8e c0 3c
       -0.012901987 -0.007129673 0.0015979859 0.023505671
0000a0 fd e6 2d bc 0a a7 6b 3c 9f fe 8e bc ee 61 f5 3b
       -0.010614154 0.014383087 -0.017455397 0.007488481
0000b0 6d ea db bc ef cd b8 38 ef d6 89 3c a5 e3 dd 3c
       -0.026845181 8.812162e-05 0.016826121 0.027086088
0000c0 54 81 2d bc 8e f0 f4 3b 87 95 af bc 01 8e 82 3b
       -0.010589916 0.0074749654 -0.021433605 0.0039842133
0000d0 52 6f 64 3c 0b 6f 8d bd 9d ec 96 3c f8 ee d0 bc
       0.013942556 -0.069059454 0.018423373 -0.025504574
0000e0 29 5f 50 bc 03 48 8f bc 21 9c 0c 3c 40 07 13 bb
       -0.012718 -0.017490393 0.008582146 -0.0022434741
0000f0 87 66 1b bc fa 43 07 3c 98 95 ae 39 48 1b d4 3b
       -0.009484894 0.008255953 0.00033299322 0.0064729787
000100 15 08 8c 3c 8a c8 a8 3b b6 8d 30 3c 9d 86 32 bc
       0.017093698 0.0051508592 0.010775974 -0.010896352
000110 e9 e3 89 3c 62 b9 b3 bc ac b7 3c 3c a6 77 5e bb
       0.016832309 -0.021938983 0.0115184 -0.0033945828
000120 7e 4e bd 3a f4 96 98 3b 32 b2 96 3c 5f ca 89 bc
       0.0014442948 0.004656667 0.018395517 -0.01682013
000130 57 55 11 3c 51 83 17 bc 0f e3 78 3c 9e 3a 0c bc
       0.008870444 -0.009247617 0.015190854 -0.008558897
000140 42 90 6d 3a 11 17 ca 3b b3 f4 9a 3b 28 ae 70 bb
       0.00090623286 0.0061673005 0.0047288775 -0.00367249
000150 23 77 97 3a c0 56 9a 3b 08 09 9d bc fe 3b 91 3c
       0.0011555891 0.0047100484 -0.019169345 0.017728802
000160 e4 d9 c2 bb 2d eb 4f bc 8e 47 c3 bc c4 64 95 bc
       -0.0059463847 -0.012690348 -0.02383783 -0.018236525
000170 1e 77 e6 3b b7 22 3e bb ab 09 98 3c 88 4f 38 bc
       0.007033243 -0.002901239 0.018559298 -0.0112494305
000180 10 1d f5 3a d9 0c 88 3c 42 ad 3e bc 7b d9 4d bc
       0.0018700678 0.016607689 -0.011637988 -0.012564058
000190 ae 76 b3 3a e4 45 c1 3b a3 78 a3 bb 57 cc d1 3b
       0.0013691986 0.005898224 -0.0049887463 0.006402533
0001a0 1f f3 62 3a a1 e1 39 bc de e7 b2 bb 4d 64 c2 3c
       0.00086574437 -0.011345298 -0.0054597696 0.023729468
0001b0 c0 3a 7f bc e1 cb 91 3c 77 6b 8c bc 90 70 5c 3a
       -0.015577972 0.017797412 -0.017141087 0.0008409107
0001c0 8b 95 2a bb 7b aa 0e 3d b1 9b 64 3b 02 89 63 3c
       -0.0026029076 0.03483055 0.0034882838 0.013887646
0001d0 80 9e 19 3c 2f 06 92 3c ff 99 e9 ba 66 7b 96 bc
       0.009376168 0.017825214 -0.0017822384 -0.018369388
0001e0 0b c9 4d bc 98 28 33 bc 43 bc f1 b9 fd 80 0e bd
       -0.012560139 -0.010934971 -0.00046107368 -0.03479098
0001f0 b7 70 b0 bc 44 fb 78 3b 57 08 9a 3c b5 99 27 bc
       -0.021538122 0.0037991563 0.018802805 -0.010229518
000200 a0 27 3d ba 94 6a 07 3c 08 27 19 3b 87 54 e6 3c
       -0.00072156824 0.008265156 0.0023369212 0.028116478
000210 1e 3c 38 3d 6c 64 c7 39 50 8b 82 bc 1d 1a fc bb
       0.044979207 0.00038031058 -0.01593557 -0.0076935426
000220 8d 04 25 bc 74 fb 25 bc 9d 88 9c bc 4b 84 28 bc
       -0.010071886 -0.010130752 -0.019108111 -0.010285447
000230 48 d1 a1 3b ff 54 f0 bb 0b c9 51 bb c3 6f 1e 3d
       0.0049382783 -0.007334351 -0.00320107 0.038680803
000240 f8 8b db 3c d3 3c e5 3a 98 18 a7 ba 0c f8 c4 bc
       0.02680014 0.001748944 -0.0012748418 -0.02404406
000250 3a 3e a5 bc d5 c4 40 3c 88 e6 8a 3b 8e da ca bc
       -0.020171273 0.011765678 0.0042389072 -0.024762418
000260 ce a5 cf bc f5 cf 8e ba ba 7e 29 bc 39 8a 70 3c
       -0.025347617 -0.0010895716 -0.010345155 0.014681392
000270 75 c1 67 3c 2b 67 b2 3b 08 94 b6 bb 55 41 8b 3c
       0.014145245 0.0054444275 -0.005571846 0.016998926
000280 f3 7c 4a bb b0 b5 4d 3c f7 54 ac bc 63 f5 96 3a
       -0.003089723 0.012555525 -0.021036608 0.0011517223
000290 37 b4 e3 bc cd 17 ab 3b 5a 54 9c bc 44 74 a1 bc
       -0.027795894 0.005221343 -0.01908319 -0.01970876
0002a0 83 15 d7 3c 49 dc d0 bc 21 2d f8 bb 88 97 67 3c
       0.026255375 -0.025495665 -0.007573739 0.014135249
0002b0 a8 b6 9d 3c 3c be 86 3b 4d c9 fb 3c e5 2e b6 bc
       0.019252136 0.004112033 0.030735636 -0.022239158
0002c0 e4 05 a2 3b ca d9 e0 bb 3d 12 7c bb 11 0a 20 3c
       0.00494455 -0.0068619 -0.003846302 0.009768025
0002d0 c3 d1 ce bc 3d 01 a5 bb 2a 0a 7d 3c 3f d0 18 3d
       -0.025246507 -0.005035548 0.015444318 0.037307974
0002e0 1a 88 c5 3c bd 05 02 3c a9 07 23 3c 32 05 ea bb
       0.02411275 0.007935938 0.009950557 -0.0071417326
0002f0 5c c7 0d bc 02 5e 07 3c ac a8 8b bc 04 21 f4 3b
       -0.008653488 0.008262159 -0.017048202 0.007450225
000300 a3 3a a3 bc e6 31 59 3c 3e 75 f3 ba 7b 3e cd 3c
       -0.019925421 0.013256526 -0.001857437 0.025054207
000310 55 e6 c9 3b bf 3c 3d bc d4 95 93 3c c3 12 60 bb
       0.006161491 -0.0115501275 0.01801578 -0.003419087
000320 3b 06 c2 3c dd e6 9d bb 12 ee 4a bb 1b 07 10 3c
       0.023684612 -0.004818781 -0.0030964655 0.008790757
000330 73 2c 53 3a 69 df a6 bc 5d ac 07 bc 86 6c ab 3c
       0.00080556347 -0.020370202 -0.008280841 0.020925771
000340 fd fe 9d 3b e3 f8 17 3c 17 82 07 3c fb 9e 4a 3c
       0.0048216567 0.009275648 0.008270762 0.012367005
000350 15 df 21 3a fc 92 07 bb 3f 0a 75 3c f6 27 87 3c
       0.00061749044 -0.0020686975 0.014956056 0.016498547
000360 f1 f9 fa 3b e3 0d 23 3c 66 16 4f 3c e3 ed 83 3c
       0.00765919 0.009952041 0.012639618 0.016104644
000370 da f8 66 bc 4f 0f 69 3c ea 7d 16 bc a9 d0 87 3c
       -0.014097417 0.014224841 -0.009185294 0.01657899
000380 ea d4 0c bb aa 1a e3 bb 41 8e 8a 3c 35 b8 42 bb
       -0.0021489211 -0.006930669 0.016913535 -0.0029711847
000390 32 c3 7a 3b b8 22 34 bc 73 eb 79 3c 2c 4f 09 bc
       0.0038263318 -0.010994606 0.015253889 -0.008380692
0003a0 a6 43 a8 bc ec fa 88 ba de b6 1a bd af 06 8f 3b
       -0.02054007 -0.0010450757 -0.037772052 0.0043648104
0003b0 0d bb 0c bd b2 e0 8a bc cb d1 ce 3b 51 8b e1 bc
       -0.034358073 -0.016952846 0.0063116304 -0.027532252
0003c0 fd 9c 1c bc f1 7c a1 bb a6 94 bb 3b a0 93 0d 3c
       -0.009558913 -0.0049282243 0.0057245074 0.008641154
0003d0 2d 36 96 3c b2 f0 2e 3b ee 18 ca bc 39 41 db ba
       0.01833638 0.0026693759 -0.02467009 -0.0016727812
0003e0 56 2d 92 3c 02 33 19 3d 8f da 2a 3d 55 51 ec bc
       0.017843883 0.03740216 0.04171234 -0.028847376
0003f0 7a b3 90 bc 85 fd 6d 3a e5 db 92 bc bb 13 17 3d
       -0.017663706 0.000907861 -0.01792712 0.03688405

action_model._continuous_distribution.mu.bias f4 [2]
000000 c9 7d db 39 6a 23 10 ba
       0.00041864652 -0.0005498441

exp_avg f4 [128, 6]
000000 68 6e 21 32 f6 35 ee 33 ba b3 9f bc 00 00 00 00
       9.396537e-09 1.1092554e-07 -0.01949488 0.0
000010 00 00 00 00 53 03 8c bc 72 91 44 30 bc 54 51 34
       0.0 -0.017091429 7.1511075e-10 1.9495468e-07
000020 d7 9f 27 bc 00 00 00 00 00 00 00 00 3f c0 bf 3c
       -0.01023098 0.0 0.0 0.0234071
000030 40 d9 06 1b c4 2b 5b 1f 7b 8a ec a5 00 00 00 00
       1.1154417e-22 4.6411256e-20 -4.1033312e-16 0.0
000040 00 00 00 00 80 ff e1 27 f6 11 eb af 16 32 4b b3
       0.0 6.272706e-15 -4.2759013e-10 -4.7310174e-08
000050 be dc 58 3b 00 00 00 00 00 00 00 00 7e b1 19 bb
       0.0033090557 0.0 0.0 -0.002345174
000060 6e c5 5d ae 6e f1 0a b1 71 de 32 39 00 00 00 00
       -5.0424935e-11 -2.021888e-09 0.00017058269 0.0
000070 00 00 00 00 64 99 5f b8 a8 d5 71 2c f5 e8 19 31
       0.0 -5.33102e-05 3.4366763e-12 2.239685e-09
000080 2d b2 e9 b7 00 00 00 00 00 00 00 00 b0 61 46 b7
       -2.7858734e-05 0.0 0.0 -1.1824464e-05
000090 1e ad 61 b0 46 53 dd b3 75 86 06 3c 00 00 00 00
       -8.210054e-10 -1.0306262e-07 0.008210768 0.0
0000a0 00 00 00 00 b3 ce 9d bb 17 c6 0e b1 73 6f be b4
       0.0 -0.0048159 -2.077632e-09 -3.5471348e-07
0000b0 a4 b9 90 3c 00 00 00 00 00 00 00 00 42 99 ee bc
       0.017666645 0.0 0.0 -0.029125813
0000c0 8f 5e 00 00 ba cb b4 00 7a 12 48 87 00 00 00 00
       3.3921e-41 1.6603473e-38 -1.5051757e-34 0.0
0000d0 00 00 00 00 41 2a 64 09 1c ed 6e 82 66 6d 65 87
       0.0 2.746437e-33 -1.7553526e-37 -1.7260195e-34
0000e0 c7 5a a0 0d 00 00 00 00 00 00 00 00 9e a6 5e 90
       9.882615e-31 0.0 0.0 -4.3910137e-29
0000f0 00 00 00 00 00 00 00 00 00 00 00 00 00 00 00 00
       0.0 0.0 0.0 0.0
000100 00 00 00 00 00 00 00 00 e9 65 74 b1 8a 52 12 b4
       0.0 0.0 -3.5564602e-09 -1.3627337e-07
000110 95 4b 36 3c 00 00 00 00 00 00 00 00 ab 63 27 bb
       0.011126419 0.0 0.0 -0.0025541584
000120 7f 64 95 2c 4d 3e 34 2f 07 62 64 b7 00 00 00 00
       4.245992e-12 1.6393038e-10 -1.3612683e-05 0.0
000130 00 00 00 00 dc bc 8d 36 c9 05 ae 89 e6 96 bb 8e
       0.0 4.2241136e-06 -4.1894417e-33 -4.624437e-30
000140 3e 04 f2 14 00 00 00 00 00 00 00 00 2b 68 c6 97
       2.4437429e-26 0.0 0.0 -1.2821746e-24
000150 bc f6 a1 26 69 80 91 ab 62 9d c3 31 00 00 00 00
       1.1238497e-15 -1.0338511e-12 5.6931393e-09 0.0
000160 00 00 00 00 71 08 92 b4 e2 ca 9d 15 45 d0 4a 18
       0.0 -2.720076e-07 6.373189e-26 2.6213037e-24
000170 10 5d 81 a0 00 00 00 00 00 00 00 00 bd b8 a0 1f
       -2.1915034e-19 0.0 0.0 6.806826e-20
000180 8e d0 a0 b2 ae f4 38 b5 67 6a 6b 3d 00 00 00 00
       -1.8721291e-08 -6.89014e-07 0.05747452 0.0
000190 00 00 00 00 12 d0 84 bc 03 00 00 80 3a 08 00 00
       0.0 -0.016212497 -4e-45 2.951e-42
0001a0 35 1a ad 80 00 00 00 00 00 00 00 00 e8 b1 8f 03
       -1.5896942e-38 0.0 0.0 8.44563e-37
0001b0 27 f7 c5 31 e8 d0 ac 33 b0 14 88 bc 00 00 00 00
       5.7615526e-09 8.047374e-08 -0.016611427 0.0
0001c0 00 00 00 00 d4 79 06 bc 3e f6 df 31 fe 5e 33 33
       0.0 -0.008207757 6.5181487e-09 4.176308e-08
0001d0 55 c9 42 bc 00 00 00 00 00 00 00 00 86 e9 b2 bc
       -0.011888822 0.0 0.0 -0.021839868
0001e0 38 ce 0d 31 12 b1 26 33 da 18 e2 b9 00 00 00 00
       2.0635422e-09 3.881093e-08 -0.00043124595 0.0
0001f0 00 00 00 00 08 67 a7 b9 47 a4 80 b1 67 fa fd b2
       0.0 -0.00031929486 -3.7439665e-09 -2.9566946e-08
000200 a4 7b 1f 3c 00 00 00 00 00 00 00 00 99 39 5d 3c
       0.009734068 0.0 0.0 0.013502502
000210 97 d8 c3 92 e0 27 cb 97 be 09 06 1e 00 00 00 00
       -1.2359624e-27 -1.3128633e-24 7.0959156e-21 0.0
000220 00 00 00 00 e4 e2 cd a0 54 c1 c1 31 6b ac 84 34
       0.0 -3.4878494e-19 5.639018e-09 2.4712367e-07
000230 42 85 ad bc 00 00 00 00 00 00 00 00 ee 26 fc 3b
       -0.021181706 0.0 0.0 0.0076950705
000240 24 d5 a6 04 36 fa 1c 09 7e 47 97 8f 00 00 00 00
       3.922215e-36 1.8895466e-33 -1.4917287e-29 0.0
000250 00 00 00 00 e9 10 b8 11 93 d4 ce b1 53 93 29 b4
       0.0 2.9040503e-28 -6.019556e-09 -1.5792948e-07
000260 d3 8f 66 3c 00 00 00 00 00 00 00 00 a1 2f b8 3b
       0.014072376 0.0 0.0 0.005620912
000270 ef 4e 54 32 d8 20 18 34 83 9e cb bc 00 00 00 00
       1.23579715e-08 1.4168052e-07 -0.024855858 0.0
000280 00 00 00 00 bb 57 b3 bc 1b f1 3f ab 64 73 bf af
       0.0 -0.02189242 -6.819143e-13 -3.4824688e-10
000290 64 d9 2d 36 00 00 00 00 00 00 00 00 98 4d 72 b8
       2.5905547e-06 0.0 0.0 -5.776956e-05
0002a0 10 34 45 b2 c5 5b ca b4 e9 ad e0 3c 00 00 00 00
       -1.1478747e-08 -3.7692203e-07 0.027426677 0.0
0002b0 00 00 00 00 d9 b6 98 3b d4 95 10 31 92 4b e7 33
       0.0 0.004660469 2.1039925e-09 1.0770522e-07
0002c0 cc 1a 9f bc 00 00 00 00 00 00 00 00 c4 c3 0b 3c
       -0.019421957 0.0 0.0 0.008530561
0002d0 7c 18 be 30 57 c7 ff 32 7e f1 07 bb 00 00 00 00
       1.3831278e-09 2.9776556e-08 -0.0020743306 0.0
0002e0 00 00 00 00 e3 c1 b0 ba 65 00 00 00 01 36 03 00
       0.0 -0.0013485517 1.42e-43 2.9488e-40
0002f0 a2 f2 f9 03 00 00 00 00 00 00 00 00 d1 e8 7b 06
       1.469061e-36 0.0 0.0 4.73789e-35
000300 3b 52 1a 31 5a fb d0 34 9d 87 96 bc 00 00 00 00
       2.2456692e-09 3.8925901e-07 -0.018375212 0.0
000310 00 00 00 00 14 eb 0c 3d ac 60 a6 b0 90 0e 6e b4
       0.0 0.034403875 -1.2105565e-09 -2.2170775e-07
000320 59 80 53 3c 00 00 00 00 00 00 00 00 26 14 d2 bc
       0.012909018 0.0 0.0 -0.025644373
000330 8b 57 7a 31 7d 2d 44 32 97 2a 81 bb 00 00 00 00
       3.642955e-09 1.1419044e-08 -0.0039418447 0.0
000340 00 00 00 00 83 a5 3d bc 5e 48 72 ae a2 4f 62 b2
       0.0 -0.011575106 -5.5088704e-11 -1.3173038e-08
000350 43 ca fe 39 00 00 00 00 00 00 00 00 b2 61 b4 bb
       0.00048597352 0.0 0.0 -0.0055048103
000360 a2 cc 45 b0 36 e3 df 32 18 f2 2d 3b 00 00 00 00
       -7.1958983e-10 2.606394e-08 0.0026542004 0.0
000370 00 00 00 00 a9 c1 e6 ba d6 b4 1e 2f 30 d0 1c 32
       0.0 -0.0017605323 1.4434262e-10 9.1277315e-09
000380 8f 3a ab b9 00 00 00 00 00 00 00 00 78 18 4a bb
       -0.0003265929 0.0 0.0 -0.0030837338
000390 c2 c6 ec 2d f4 a6 2a 32 9c 0a e5 b8 00 00 00 00
       2.691836e-11 9.933263e-09 -0.00010921547 0.0
0003a0 00 00 00 00 9f f5 3a 3a c1 54 b1 93 d9 1c 80 98
       0.0 0.00071319373 -4.4764655e-27 -3.3116353e-24
0003b0 79 8a c5 1e 00 00 00 00 00 00 00 00 72 81 64 a1
       2.0915457e-20 0.0 0.0 -7.7420724e-19
0003c0 36 a0 05 a9 21 8a c3 ad 79 3e 19 34 00 00 00 00
       -2.9670893e-14 -2.2230275e-11 1.4271963e-07 0.0
0003d0 00 00 00 00 fb 32 ac b6 c2 60 e9 2f ea c3 cb 33
       0.0 -5.1319344e-06 4.2451204e-10 9.488561e-08
0003e0 3c ff d7 ba 00 00 00 00 00 00 00 00 cc e0 f0 3b
       -0.0016479264 0.0 0.0 0.0073510166
0003f0 cd 2f e8 09 19 61 89 0c 73 7a ae 94 00 00 00 00
       5.589692e-33 2.116663e-31 -1.7617808e-26 0.0

exp_avg_sq f4 [128, 6]
000000 df 8b fc 23 25 6d ae 29 32 3e b4 39 00 00 00 00
       2.7381132e-17 7.746086e-14 0.00034378615 0.0
000010 00 00 00 00 b3 f4 99 39 ef 83 df 22 de b8 aa 29
       0.0 0.0002936475 6.058396e-18 7.581586e-14
000020 c0 58 96 38 00 00 00 00 00 00 00 00 da 53 d4 39
       7.169088e-05 0.0 0.0 0.00040498265
000030 10 00 00 00 02 46 16 00 39 43 a9 0c 00 00 00 00
       2.2e-44 2.045495e-39 2.607903e-31 0.0
000040 00 00 00 00 0f 34 a2 0f 9f df f3 1f a7 38 f8 27
       0.0 1.5994486e-29 1.0328445e-19 6.889525e-15
000050 70 f2 35 36 00 00 00 00 00 00 00 00 14 96 00 38
       2.711222e-06 0.0 0.0 3.065735e-05
000060 92 ca 19 1c 73 6a 6c 21 5c d2 d1 31 00 00 00 00
       5.088527e-22 8.0100795e-19 6.1066157e-09 0.0
000070 00 00 00 00 51 03 25 30 b2 0e 93 18 99 4b 0e 22
       0.0 6.0031363e-10 3.8013448e-24 1.928461e-18
000080 5f 2b 67 2f 00 00 00 00 00 00 00 00 eb d9 27 33
       2.1024736e-10 0.0 0.0 3.9080913e-08
000090 c8 ff 9b 21 6c 14 81 29 23 63 e4 37 00 00 00 00
       1.0570913e-18 5.7322934e-14 2.7225882e-05 0.0
0000a0 00 00 00 00 b1 80 a0 39 ec 00 4a 22 1b 9f 3a 2a
       0.0 0.0003061346 2.7376593e-18 1.657532e-13
0000b0 e1 f8 6d 38 00 00 00 00 00 00 00 00 76 ed 46 3a
       5.673699e-05 0.0 0.0 0.0007588485
0000c0 00 00 00 00 00 00 00 00 00 00 00 00 00 00 00 00
       0.0 0.0 0.0 0.0
0000d0 00 00 00 00 00 00 00 00 00 00 00 00 00 00 00 00
       0.0 0.0 0.0 0.0
0000e0 00 00 00 00 00 00 00 00 00 00 00 00 00 00 00 00
       0.0 0.0 0.0 0.0
0000f0 00 00 00 00 00 00 00 00 00 00 00 00 00 00 00 00
       0.0 0.0 0.0 0.0
000100 00 00 00 00 00 00 00 00 08 79 77 22 8d cd d5 27
       0.0 0.0 3.3538815e-18 5.9342235e-15
000110 a4 55 43 38 00 00 00 00 00 00 00 00 33 23 e8 36
       4.6571382e-05 0.0 0.0 6.9182365e-06
000120 54 bb 02 19 a9 1e 3d 1e a2 ad 8f 2e 00 00 00 00
       6.758673e-24 1.0011917e-20 6.5337305e-11 0.0
000130 00 00 00 00 cb 90 e3 2c 00 00 00 00 00 00 00 00
       0.0 6.4678033e-12 0.0 0.0
000140 00 00 00 00 00 00 00 00 00 00 00 00 00 00 00 00
       0.0 0.0 0.0 0.0
000150 35 0a c9 10 00 9a 3b 19 72 1a 8f 26 00 00 00 00
       7.929625e-29 9.6987735e-24 9.929786e-16 0.0
000160 00 00 00 00 66 2c 8b 2a 00 00 00 00 00 00 00 00
       0.0 2.4722168e-13 0.0 0.0
000170 d8 8d 8d 00 00 00 00 00 00 00 00 00 0f 11 0e 00
       1.2999689e-38 0.0 0.0 1.291816e-39
000180 5d 0b b9 24 c9 fb fe 29 44 b3 59 3a 00 00 00 00
       8.025021e-17 1.1323544e-13 0.0008304606 0.0
000190 00 00 00 00 f6 df ab 38 00 00 00 00 00 00 00 00
       0.0 8.1956314e-05 0.0 0.0
0001a0 00 00 00 00 00 00 00 00 00 00 00 00 00 00 00 00
       0.0 0.0 0.0 0.0
0001b0 6a f3 29 23 9f cb 1f 29 72 ea 08 39 00 00 00 00
       9.213053e-18 3.5481705e-14 0.00013057308 0.0
0001c0 00 00 00 00 bb bd 0e 39 2a 88 a9 23 76 ee 02 2a
       0.0 0.00013612855 1.8380684e-17 1.1629052e-13
0001d0 86 0c 46 39 00 00 00 00 00 00 00 00 2c b8 01 3a
       0.00018887417 0.0 0.0 0.0004948403
0001e0 bf 73 42 23 04 6c 43 28 14 28 9d 38 00 00 00 00
       1.0541271e-17 1.0848097e-14 7.4938085e-05 0.0
0001f0 00 00 00 00 af f6 bf 37 d2 3d d4 22 4a 9e c5 29
       0.0 2.2883845e-05 5.752817e-18 8.776016e-14
000200 e5 b1 8f 38 00 00 00 00 00 00 00 00 56 63 cc 39
       6.851907e-05 0.0 0.0 0.00038983923
000210 00 00 00 00 00 00 00 00 69 1b 00 00 00 00 00 00
       0.0 0.0 9.833e-42 0.0
000220 00 00 00 00 9c 86 34 01 2c 01 6a 23 89 d2 af 28
       0.0 3.3157356e-38 1.26854136e-17 1.9520208e-14
000230 d1 a5 2c 39 00 00 00 00 00 00 00 00 b9 51 95 37
       0.0001646497 0.0 0.0 1.780024e-05
000240 00 00 00 00 00 00 00 00 00 00 00 00 00 00 00 00
       0.0 0.0 0.0 0.0
000250 00 00 00 00 00 00 00 00 c5 43 75 23 40 7d 93 29
       0.0 0.0 1.3295827e-17 6.549839e-14
000260 15 f6 10 39 00 00 00 00 00 00 00 00 df 18 71 39
       0.00013824583 0.0 0.0 0.00022992816
000270 cb 3e 7b 24 fb 85 6d 2a 9b 1e 1a 3a 00 00 00 00
       5.4480137e-17 2.1096312e-13 0.00058791944 0.0
000280 00 00 00 00 d1 ba 3d 3a 37 27 4c 17 3a 6f 25 20
       0.0 0.00072376156 6.596545e-25 1.4012845e-19
000290 a6 6d 49 2d 00 00 00 00 00 00 00 00 58 28 93 31
       1.1449874e-11 0.0 0.0 4.2828496e-09
0002a0 41 10 60 24 f0 b3 36 2a ae 34 e7 39 00 00 00 00
       4.8586025e-17 1.6227276e-13 0.00044099003 0.0
0002b0 00 00 00 00 c1 4b ea 39 ba a0 c2 23 2c 98 82 29
       0.0 0.000446884 2.1101592e-17 5.7995573e-14
0002c0 f5 c7 95 39 00 00 00 00 00 00 00 00 8a a6 56 39
       0.00028568474 0.0 0.0 0.00020470671
0002d0 9e eb b9 21 e0 7c f8 26 c9 8f 48 37 00 00 00 00
       1.2598455e-18 1.7242304e-15 1.1954407e-05 0.0
0002e0 00 00 00 00 d3 d0 a2 35 00 00 00 00 00 00 00 00
       0.0 1.2130716e-06 0.0 0.0
0002f0 00 00 00 00 00 00 00 00 00 00 00 00 00 00 00 00
       0.0 0.0 0.0 0.0
000300 9e 57 25 22 72 60 19 2a 32 a8 4e 38 00 00 00 00
       2.2408054e-18 1.3622591e-13 4.927087e-05 0.0
000310 00 00 00 00 cc e2 2f 3a 29 1e a0 23 b0 18 26 2a
       0.0 0.00067095156 1.7360008e-17 1.4752327e-13
000320 e6 f9 55 39 00 00 00 00 00 00 00 00 04 f9 34 3a
       0.00020406357 0.0 0.0 0.00069035613
000330 93 e7 5e 23 91 57 b3 28 50 82 ad 38 00 00 00 00
       1.2083682e-17 1.9910968e-14 8.2735554e-05 0.0
000340 00 00 00 00 55 07 6b 38 07 5d fe 20 fd 2b f1 28
       0.0 5.6035195e-05 4.3090834e-19 2.6775452e-14
000350 76 ff 35 37 00 00 00 00 00 00 00 00 2c eb 14 39
       1.084792e-05 0.0 0.0 0.00014201988
000360 2b 19 95 21 59 83 e3 27 95 34 d6 36 00 00 00 00
       1.0103295e-18 6.3147564e-15 6.3838183e-06 0.0
000370 00 00 00 00 78 d8 15 38 1e 54 9c 20 95 26 b7 28
       0.0 3.572597e-05 2.6483092e-19 2.0333814e-14
000380 d0 83 7b 36 00 00 00 00 00 00 00 00 fc 93 c9 38
       3.747864e-06 0.0 0.0 9.611991e-05
000390 f8 5d f8 1b 75 cc ac 24 f3 7c 0c 32 00 00 00 00
       4.1088884e-22 7.493947e-17 8.177483e-09 0.0
0003a0 00 00 00 00 67 64 82 35 00 00 00 00 00 00 00 00
       0.0 9.714976e-07 0.0 0.0
0003b0 4e 84 02 00 00 00 00 00 00 00 00 00 31 69 5f 02
       2.31133e-40 0.0 0.0 1.6413641e-37
0003c0 79 aa 9f 12 d9 c6 bc 1b 72 85 cd 28 00 00 00 00
       1.0076335e-27 3.1230493e-22 2.2817445e-14 0.0
0003d0 00 00 00 00 f9 80 66 2d 72 55 40 20 a6 f8 2b 28
       0.0 1.3102624e-11 1.6291304e-19 9.546324e-15
0003e0 58 7a 8f 36 00 00 00 00 00 00 00 00 73 31 80 38
       4.275975e-06 0.0 0.0 6.112726e-05
0003f0 00 00 00 00 00 00 00 00 00 00 00 00 00 00 00 00
       0.0 0.0 0.0 0.0

exp_avg f4 [128]
000000 29 7b 14 b9 22 59 4b 39 a4 aa 6f 24 1e fd a2 b7
       -0.0001416026 0.00019392793 5.1969402e-17 -1.9429772e-05
000010 5f 1f ed b4 50 61 d2 b3 09 5a 27 b8 80 07 7d b9
       -4.4167516e-07 -9.796588e-08 -3.9899754e-05 -0.00024130754
000020 ed f6 f1 05 ec 1d ec 8c 00 00 00 00 5d 83 b1 b7
       2.2754237e-35 -3.6379566e-31 0.0 -2.1161215e-05
000030 62 4f 16 33 1b 68 52 94 7a dd 1a b1 32 71 2a 1c
       3.4996795e-08 -1.0622822e-26 -2.2535844e-09 5.6394583e-22
000040 69 d8 0c b9 5f 31 4c 00 ef 9b 8e b8 9f bb 3d b9
       -0.0001343206 6.997209e-39 -6.8001325e-05 -0.00018094339
000050 fc 86 31 b6 d3 9a ea 38 a3 56 5a 9d 81 b3 85 38
       -2.6453627e-06 0.00011186828 -2.889685e-21 6.3753694e-05
000060 ce 32 43 0e 6a 53 43 38 80 30 3e b9 94 7a 00 b5
       2.4060067e-30 4.656931e-05 -0.0001813788 -4.786209e-07
000070 54 f3 21 38 bf 37 94 38 a2 72 3b b7 8a 92 05 03
       3.861201e-05 7.0675735e-05 -1.1172759e-05 3.9253406e-37
000080 e8 70 95 39 cf c8 5e b9 d0 1d c9 b8 8c 4a 3f b8
       0.00028503616 -0.00021246377 -9.58998e-05 -4.5607376e-05
000090 77 b6 74 b7 7e 51 d6 b7 4b 44 c6 36 68 53 f2 9d
       -1.4586017e-05 -2.5548736e-05 5.90881e-06 -6.4143107e-21
0000a0 26 9d 36 b3 4f 72 7f 38 2e 1d 68 10 7d 8b 17 b8
       -4.2518103e-08 6.0903196e-05 4.5776412e-29 -3.6131114e-05
0000b0 99 65 7d b7 1a a0 11 80 82 b3 4b 11 6e dd e7 37
       -1.510363e-05 -1.618637e-39 1.6069191e-28 2.7640457e-05
0000c0 44 57 b9 27 ba 73 2b b9 04 47 aa b8 21 5c 81 39
       5.144243e-15 -0.00016350942 -8.1194594e-05 0.0002467344
0000d0 96 3d 3e b8 17 34 a3 38 01 9b c7 b6 0a 6c c5 a2
       -4.5356886e-05 7.782148e-05 -5.948707e-06 -5.3511348e-18
0000e0 fb e5 0c a2 29 1a cd 38 de 3c b9 36 11 fb 0e 38
       -1.9095289e-18 9.7800345e-05 5.5205155e-06 3.4089262e-05
0000f0 62 be 15 38 77 a0 b7 05 21 b7 a2 34 ed 4f 23 38
       3.5701676e-05 1.7268183e-35 3.0308095e-07 3.8936665e-05
000100 c1 5a af ae b9 b8 78 b9 5e 7f 77 b8 80 65 32 38
       -7.9742e-11 -0.00023719938 -5.900801e-05 4.2533036e-05
000110 97 88 15 36 47 18 75 23 52 95 fd 36 88 08 e2 b7
       2.2282236e-06 1.32866175e-17 7.5573707e-06 -2.6945272e-05
000120 44 36 2a 2e c5 b2 df 36 7e ba 91 b8 ac 02 8a 37
       3.8701722e-11 6.6667294e-06 -6.948876e-05 1.6452126e-05
000130 5e 22 8f b8 72 7e b5 b8 8e 6e 7f b0 9c 5b 6b b8
       -6.825173e-05 -8.654305e-05 -9.292557e-10 -5.6113684e-05
000140 79 94 54 b9 d8 f5 1d 15 d8 42 fb b8 00 00 00 00
       -0.00020273206 3.1899834e-26 -0.00011981063 0.0
000150 80 38 e5 35 00 00 00 00 90 6b 09 b5 03 5b 89 8d
       1.7078273e-06 0.0 -5.1193e-07 -8.465187e-31
000160 8e a7 34 39 1b 64 e3 b7 aa 18 04 b9 ce b4 70 b8
       0.00017228557 -2.7107124e-05 -0.00012597689 -5.7388846e-05
000170 e4 da 92 99 a3 12 e4 37 bb 4b 90 ac 5f a3 02 85
       -1.5184455e-23 2.7188396e-05 -4.101134e-12 -6.142577e-36
000180 08 dd 21 39 af a1 3f b9 38 37 40 38 90 66 2e 38
       0.00015436497 -0.00018275411 4.5827794e-05 4.158035e-05
000190 88 3b 52 b7 7e 59 94 37 a7 37 94 b8 1b e6 9e 14
       -1.2530836e-05 1.7684648e-05 -7.067556e-05 1.6044684e-26
0001a0 96 43 09 a9 3a 61 2f 38 2c b8 7b 38 b7 a8 87 38
       -3.0478732e-14 4.18138e-05 6.0014587e-05 6.468727e-05
0001b0 66 9a 70 a4 dc c2 36 37 ae b9 12 39 b2 ee b5 b7
       -5.2172485e-17 1.0893415e-05 0.00013992816 -2.1688033e-05
0001c0 8b ed 88 b8 a6 7f 0d b8 2a 82 78 37 0a c3 b9 b8
       -6.529231e-05 -3.37359e-05 1.4812258e-05 -8.857816e-05
0001d0 e1 e7 9d 38 9b 67 1e 38 35 75 0f 38 6d ce 1a 38
       7.529534e-05 3.7766626e-05 3.4203014e-05 3.690871e-05
0001e0 56 2b 8a 2e fb a2 ec 38 5d 53 81 b8 70 52 3e 39
       6.2832115e-11 0.000112837144 -6.166727e-05 0.00018150522
0001f0 5a 7d 68 36 c1 d1 cd b7 a4 91 95 38 a5 9e 65 b9
       3.4643658e-06 -2.4535579e-05 7.132001e-05 -0.00021898242

exp_avg_sq f4 [128]
000000 46 24 ad 32 a4 c9 ee 32 be 6a b6 08 4c 9c 10 31
       2.0156346e-08 2.7798542e-08 1.09788215e-33 2.1043602e-09
000010 a1 93 39 29 ca c4 3c 2c 1c 81 b4 32 bf b7 5f 33
       4.12063e-14 2.6825647e-12 2.101347e-08 5.208835e-08
000020 00 00 00 00 00 00 00 00 00 00 00 00 79 88 02 30
       0.0 0.0 0.0 4.7487664e-10
000030 b1 ec ff 25 00 00 00 00 5f 84 9c 23 3f 00 00 00
       4.4395837e-16 0.0 1.6969615e-17 8.8e-44
000040 2b 4b c1 31 00 00 00 00 8a 87 20 32 89 e2 11 33
       5.625585e-09 0.0 9.344044e-09 3.3966476e-08
000050 ce e2 d7 30 d2 db e5 32 59 06 00 00 60 ed a7 30
       1.5707771e-09 2.6759071e-08 2.277e-42 1.2218315e-09
000060 00 00 00 00 3d 92 87 32 ad 5f 55 33 0b 7f a5 2a
       0.0 1.578257e-08 4.9679944e-08 2.9398042e-13
000070 30 bf 03 33 6b 66 71 32 0c 1b b7 2e 00 00 00 00
       3.06747e-08 1.4051333e-08 8.326681e-11 0.0
000080 fa cd 45 33 7f 86 4b 33 a8 28 84 31 08 7a 27 32
       4.605497e-08 4.7386944e-08 3.8463277e-09 9.748426e-09
000090 ea 84 28 31 cc b2 e2 31 3b a4 92 2e 6c 1f 00 00
       2.452277e-09 6.5977925e-09 6.6684845e-11 1.1272e-41
0000a0 4e 9d 81 26 20 2b 90 31 00 00 00 00 17 54 2a 33
       8.993811e-16 4.1958543e-09 0.0 3.965769e-08
0000b0 38 46 83 30 00 00 00 00 00 00 00 00 7a 21 b0 2f
       9.551462e-10 0.0 0.0 3.2038e-10
0000c0 4e 4e 2b 0f 47 aa 2c 32 44 47 a8 31 4c e5 8d 32
       8.446032e-30 1.0050434e-08 4.8975455e-09 1.6518833e-08
0000d0 e4 aa 87 31 12 ea 51 32 0c fe 02 2d 61 df 7a 06
       3.948445e-09 1.2218623e-08 7.446054e-12 4.7183887e-35
0000e0 6f f8 5d 04 d4 35 34 32 63 b7 bd 30 ed 1f f4 2f
       2.60925e-36 1.0489618e-08 1.3803682e-09 4.4406026e-10
0000f0 2f ff 66 32 00 00 00 00 d6 50 ad 28 c7 56 9e 30
       1.3445784e-08 0.0 1.9241915e-14 1.1520677e-09
000100 19 1f c5 1c 09 ca 85 33 77 90 41 32 b0 57 d8 30
       1.3044405e-21 6.230045e-08 1.1266926e-08 1.5740991e-09
000110 09 06 43 30 e7 fc d2 05 45 3a 02 31 0b 9f d3 31
       7.0949163e-10 1.9841207e-35 1.8950612e-09 6.1589893e-09
000120 f9 32 17 1d 4f a5 46 2d 6d 13 cb 30 47 49 aa 30
       2.0011036e-21 1.1291703e-11 1.4775715e-09 1.2389955e-09
000130 ce 84 42 32 40 c5 b7 31 ad ae 84 21 f5 8f 06 32
       1.13224825e-08 5.3484257e-09 8.990904e-19 7.832559e-09
000140 0b e9 31 33 00 00 00 00 bf 9b d0 32 00 00 00 00
       4.1422975e-08 0.0 2.4285212e-08 0.0
000150 fe c0 ca 2b 00 00 00 00 18 ea 29 31 00 00 00 00
       1.4406529e-12 0.0 2.4725804e-09 0.0
000160 25 95 23 33 a0 95 ae 31 b7 e6 02 33 bf c9 4e 32
       3.808704e-08 5.081077e-09 3.0477818e-08 1.203665e-08
000170 00 00 00 00 02 64 30 32 9b 73 cd 18 00 00 00 00
       0.0 1.02672875e-08 5.310799e-24 0.0
000180 6e 93 a8 32 1c 14 f0 31 7b 2d b3 30 17 a6 63 31
       1.9624817e-08 6.9872055e-09 1.303689e-09 3.3127259e-09
000190 db bd 0a 32 37 3f 84 31 b6 8c da 31 00 00 00 00
       8.075825e-09 3.8488923e-09 6.360632e-09 0.0
0001a0 86 6a 3b 12 08 d8 01 32 52 06 2d 32 cb f6 8b 31
       5.9138096e-28 7.557908e-09 1.0071362e-08 4.0734895e-09
0001b0 4e 03 6c 09 84 93 c8 32 36 47 08 33 0b ea a8 31
       2.840902e-33 2.3350147e-08 3.1729734e-08 4.916051e-09
0001c0 44 4b 3f 31 81 b2 64 32 92 c5 f4 2e eb 75 92 32
       2.7836942e-09 1.3311934e-08 1.1130931e-10 1.705026e-08
0001d0 40 7f aa 30 8d 57 06 30 cf 51 08 30 ed a3 f4 31
       1.2405295e-09 4.8873333e-10 4.959277e-10 7.119971e-09
0001e0 dd 0f 88 1d 3d 39 83 32 30 6d d1 2f 1e d9 e4 32
       3.6015303e-21 1.5276436e-08 3.809446e-10 2.6641427e-08
0001f0 ee 40 21 2c ad c3 68 31 06 e9 3a 30 04 d5 a5 33
       2.291552e-12 3.3871672e-09 6.799755e-10 7.7221586e-08
