results/ppo/My Behaviour/My Behaviour-9580.pt (torch, 146191 bytes, 12 tensors)

network_body._body_endoder.seq_layers.0.weight f4 [128, 3]
0	0xbef2b7fb	-0.4740599
1	0xbf1895f8	-0.59603834
2	0x3e7167f3	0.2357481
3	0x3f57aa36	0.84244096
4	0x3d5e854e	0.054326348
5	0x3f593971	0.84853274
6	0xbebe81f0	-0.3720851
7	0x3f34a95c	0.7057092
8	0x3f0603f3	0.52349776
9	0xbee52e24	-0.44761765
10	0xbe89dcd1	-0.26926282
11	0xbe04d1e7	-0.12970696
12	0x3e8de274	0.27711833
13	0x3e1baf6a	0.15203634
14	0x3ebbe4cc	0.36697996
15	0xbe944acb	-0.28963313
16	0x3eaa87b4	0.33306658
17	0xbebff92c	-0.3749479
18	0x3f0c88f8	0.548965
19	0xbe19e036	-0.15026936
20	0xbcfff8a1	-0.031246485
21	0xbeb5a044	-0.35473835
22	0xbd18f9f7	-0.03734776
23	0x3e9785ce	0.29594272
24	0xbf00be95	-0.50290805
25	0xbf1472a7	-0.57987446
26	0x3f393ae1	0.7235547
27	0x3f54b77d	0.8309248
28	0xbdb3a267	-0.0877121
29	0x3da2fb83	0.07958128
30	0xbda17789	-0.07884128
31	0x3eafd569	0.34342507
32	0x3f0439e7	0.5165085
33	0x3e921615	0.28532472
34	0x3dc68ca4	0.09694794
35	0x3f111079	0.5666576
36	0x3d814466	0.06311874
37	0xbe347106	-0.1762124
38	0x3e88dbe7	0.26730272
39	0xbef2cbde	-0.47421163
40	0x3f8ab6f1	1.0837079
41	0x3f05d3c8	0.5227628
42	0xbef1764e	-0.47160572
43	0xbe96308d	-0.29333916
44	0x3d86b088	0.065766394
45	0xbf3c8971	-0.7364722
46	0x3ed69cfb	0.41916642
47	0x3f94331c	1.1578097
48	0x3f3bae70	0.73313046
49	0x3ec56fbb	0.38561806
50	0xbf45839f	-0.7715396
51	0xbf2956e5	-0.66148216
52	0xbd88a715	-0.06672493
53	0x3ef887ec	0.485412
54	0x3eb3789d	0.35052958
55	0xbf454076	-0.77051485
56	0x3ee77764	0.45208275
57	0xbee385f4	-0.44438136
58	0x3f5c6d1f	0.86104006
59	0x3ef68484	0.48147976
60	0x3f19284d	0.5982712
61	0xbebcc844	-0.3687154
62	0x3e15ca70	0.14628005
63	0xbf7296f9	-0.94761616
64	0xbd9a66ea	-0.075391605
65	0x3fc1956e	1.5123727
66	0x3e3e33aa	0.18574396
67	0xbf0c6963	-0.5484831
68	0xbf455140	-0.770771
69	0xbe20aa2f	-0.1568992
70	0x3d04de94	0.03243883
71	0x3d7e42ef	0.06207555
72	0x3f89873a	1.0744393
73	0x3ea011f9	0.31263712
74	0x3e10d35d	0.14143129
75	0xbf319b49	-0.6937757
76	0xbfa5288d	-1.2903
77	0x3dcb7787	0.099349074
78	0x3d3e60ef	0.04647916
79	0x3e3ac3ae	0.18238708
80	0x3c6020c8	0.013679691
81	0x3e0a5d32	0.13512114
82	0x3e46e714	0.19424087
83	0x3e9c5039	0.30529955
84	0xbf787e09	-0.97067314
85	0xbea15093	-0.31506786
86	0x3e46af82	0.19402888
87	0xbf51e43a	-0.8198887
88	0x3d87446b	0.066048466
89	0xbf8870d2	-1.065943
90	0x3ea5b694	0.3236586
91	0x3f38465b	0.71982354
92	0xbf1a8413	-0.6035778
93	0x3e20f479	0.15718259
94	0xbedc056c	-0.42972887
95	0x3dc91f20	0.0982039
96	0x3e856a27	0.2605755
97	0x3f74c995	0.9562009
98	0x3f24fadc	0.6444528
99	0x3f9ababd	1.2088238
100	0xbe6f896f	-0.2339227
101	0xbef4bfe3	-0.47802648
102	0x3ea68d56	0.32529706
103	0x3f059c59	0.5219169
104	0xbeaa95ac	-0.33317316
105	0xbf56d106	-0.83912694
106	0xbf46f485	-0.7771686
107	0xbec351ba	-0.3814829
108	0xbd30cd9f	-0.043164846
109	0xbdbc9492	-0.09208025
110	0x3f5d1e0e	0.86373985
111	0xbe9e912e	-0.30970138
112	0xbeae6818	-0.34063792
113	0xbdc4f785	-0.09617523
114	0x3e9b3183	0.30311212
115	0xbd9594b1	-0.07303751
116	0xbf02f2d0	-0.5115175
117	0xbe7cd52b	-0.24690692
118	0x3e41e211	0.18933894
119	0xbf29a58e	-0.6626824
120	0xbf6d587d	-0.9271315
121	0xbe4757aa	-0.19467035
122	0x3f0ceb61	0.5504666
123	0xbf0698a0	-0.5257664
124	0x3f7a681a	0.97815096
125	0xbe961791	-0.29314855
126	0x3f1ba802	0.60803235
127	0xbe51e820	-0.20498705
128	0xbdb29b3f	-0.08721017
129	0xbe9fdbd0	-0.3122239
130	0xbd993d45	-0.07482389
131	0xbf4bd080	-0.7961502
132	0xbde9328f	-0.113865964
133	0xbee2a934	-0.44269717
134	0xbd9bf675	-0.07615367
135	0x3e0eb685	0.13936813
136	0x3e03a1c2	0.12854674
137	0xba92726d	-0.0011173018
138	0xbc34ef79	-0.011043423
139	0xbfb3b7f1	-1.404051
140	0xbf3cb660	-0.7371578
141	0xbe8c60e1	-0.27417663
142	0xbd9a6c54	-0.07540193
143	0xbef4136c	-0.47671068
144	0x3e6a59dd	0.22885843
145	0xbe5cee91	-0.21575381
146	0x3f1c6e55	0.61105853
147	0x3ce0d4a9	0.027445154
148	0x3e513fec	0.2043454
149	0x3e79ceb3	0.24395256
150	0xbef7961e	-0.48356718
151	0x3ee837a1	0.4535494
152	0xbd858735	-0.06519929
153	0xbe7d59c9	-0.24741282
154	0x3d6e6b9b	0.05820809
155	0x3f149dc0	0.5805321
156	0x3f116cd9	0.56806713
157	0x3e07467f	0.13210486
158	0xbd97ff4e	-0.074217424
159	0x3f15eeb7	0.58567375
160	0xbb8b2da4	-0.004247384
161	0xbe397e33	-0.18114547
162	0x3f49097d	0.785301
163	0x3d11f1b6	0.035630904
164	0xbf21e441	-0.6323891
165	0xbf9c3857	-1.2204694
166	0xbf67fdce	-0.9062165
167	0xbf0bb7e9	-0.545775
168	0xbe833e4a	-0.2563346
169	0xbec7d6d0	-0.39031076
170	0x3ebf2ad5	0.37337366
171	0xbf5eccf0	-0.8703146
172	0xbf47d5be	-0.7806052
173	0x3f0d7eea	0.5527178
174	0x3ba04b08	0.004891757
175	0xbe246a09	-0.16056074
176	0xbeaa14a1	-0.33218864
177	0xbeab2d8c	-0.33433187
178	0xbec43ba7	-0.3832676
179	0xbe869a39	-0.26289538
180	0xbe8fa3f9	-0.2805479
181	0x3f0271c6	0.50954854
182	0xbf108551	-0.56453425
183	0x3e6e084c	0.23245353
184	0x3f36656a	0.71248496
185	0xbf1cee4f	-0.6130113
186	0xbf552c9a	-0.8327118
187	0xbf210867	-0.62903446
188	0xbe1d426d	-0.1535737
189	0x3ea7a344	0.3274175
190	0xbc90a101	-0.017654898
191	0xbf123781	-0.5711594
192	0x3f1df954	0.6170857
193	0xbe79e130	-0.24402308
194	0x3e961186	0.29310244
195	0xbe381cb9	-0.17979707
196	0x3f06b7c9	0.52624184
197	0x3ec33e2f	0.3813338
198	0xbd0b3ffe	-0.033996575
199	0x3f801c38	1.0008612
200	0x3f800f1e	1.0004613
201	0x3ec02e23	0.375352
202	0xbeab4c08	-0.33456445
203	0x3ed24e9a	0.41075593
204	0xbe93261b	-0.2874001
205	0xbf49b79b	-0.78795785
206	0xbf398304	-0.7246554
207	0xbf42be38	-0.760715
208	0xbf3bbf65	-0.7333892
209	0x3f223fa7	0.63378376
210	0xbe957eec	-0.29198396
211	0xbf85fab3	-1.0467132
212	0x3e5adf03	0.21374135
213	0xbf19822b	-0.59964246
214	0x3f1bfb25	0.6093009
215	0x3f7768de	0.9664439
216	0xbe1d00f7	-0.153324
217	0xbd258698	-0.04041156
218	0xbed60bdc	-0.41805923
219	0x3e91c7c6	0.28472728
220	0xbeb57b66	-0.35445708
221	0x3f25ca9c	0.6476228
222	0xbe8c43c1	-0.27395442
223	0x3e0d177b	0.13778488
224	0xbec696d2	-0.38786942
225	0x3e5db515	0.21651109
226	0x3d38bbf7	0.045101132
227	0xbf82266b	-1.0167974
228	0xbf5d83be	-0.8652915
229	0xbc74bb7c	-0.014937278
230	0xbec14c2a	-0.3775342
231	0x3e3de4ee	0.18544361
232	0x3f679f4e	0.90477455
233	0xbed91797	-0.4240081
234	0x3f46498c	0.77455974
235	0xbec29322	-0.38002878
236	0xbe70bc65	-0.23509367
237	0xbcfa0bbd	-0.030523175
238	0xbd11882c	-0.035530254
239	0xbed5c00e	-0.4174809
240	0xbf1df597	-0.61702865
241	0x3e18a607	0.14907084
242	0x3e8f4ba7	0.27987406
243	0x3ec243fc	0.37942493
244	0xbe8b4e93	-0.27208385
245	0xbd92432a	-0.07141717
246	0xbe483298	-0.1955055
247	0xbe8b8375	-0.2724873
248	0x3e68c41c	0.2273106
249	0xbe80bba5	-0.2514316
250	0x3f46045b	0.77350396
251	0xbdc73f74	-0.097288996
252	0x3cb0e29d	0.021592433
253	0xbf1932da	-0.5984322
254	0xbee5b494	-0.44864333
255	0x3e550d60	0.20805883

network_body._body_endoder.seq_layers.0.bias f4 [128]
0	0x00000000	0.0
1	0x00000000	0.0
2	0x00000000	0.0
3	0x00000000	0.0
4	0x00000000	0.0
5	0x00000000	0.0
6	0x00000000	0.0
7	0x00000000	0.0
8	0x00000000	0.0
9	0x00000000	0.0
10	0x00000000	0.0
11	0x00000000	0.0
12	0x00000000	0.0
13	0x00000000	0.0
14	0x00000000	0.0
15	0x00000000	0.0
16	0x00000000	0.0
17	0x00000000	0.0
18	0x00000000	0.0
19	0x00000000	0.0
20	0x00000000	0.0
21	0x00000000	0.0
22	0x00000000	0.0
23	0x00000000	0.0
24	0x00000000	0.0
25	0x00000000	0.0
26	0x00000000	0.0
27	0x00000000	0.0
28	0x00000000	0.0
29	0x00000000	0.0
30	0x00000000	0.0
31	0x00000000	0.0
32	0x00000000	0.0
33	0x00000000	0.0
34	0x00000000	0.0
35	0x00000000	0.0
36	0x00000000	0.0
37	0x00000000	0.0
38	0x00000000	0.0
39	0x00000000	0.0
40	0x00000000	0.0
41	0x00000000	0.0
42	0x00000000	0.0
43	0x00000000	0.0
44	0x00000000	0.0
45	0x00000000	0.0
46	0x00000000	0.0
47	0x00000000	0.0
48	0x00000000	0.0
49	0x00000000	0.0
50	0x00000000	0.0
51	0x00000000	0.0
52	0x00000000	0.0
53	0x00000000	0.0
54	0x00000000	0.0
55	0x00000000	0.0
56	0x00000000	0.0
57	0x00000000	0.0
58	0x00000000	0.0
59	0x00000000	0.0
60	0x00000000	0.0
61	0x00000000	0.0
62	0x00000000	0.0
63	0x00000000	0.0
64	0x00000000	0.0
65	0x00000000	0.0
66	0x00000000	0.0
67	0x00000000	0.0
68	0x00000000	0.0
69	0x00000000	0.0
70	0x00000000	0.0
71	0x00000000	0.0
72	0x00000000	0.0
73	0x00000000	0.0
74	0x00000000	0.0
75	0x00000000	0.0
76	0x00000000	0.0
77	0x00000000	0.0
78	0x00000000	0.0
79	0x00000000	0.0
80	0x00000000	0.0
81	0x00000000	0.0
82	0x00000000	0.0
83	0x00000000	0.0
84	0x00000000	0.0
85	0x00000000	0.0
86	0x00000000	0.0
87	0x00000000	0.0
88	0x00000000	0.0
89	0x00000000	0.0
90	0x00000000	0.0
91	0x00000000	0.0
92	0x00000000	0.0
93	0x00000000	0.0
94	0x00000000	0.0
95	0x00000000	0.0
96	0x00000000	0.0
97	0x00000000	0.0
98	0x00000000	0.0
99	0x00000000	0.0
100	0x00000000	0.0
101	0x00000000	0.0
102	0x00000000	0.0
103	0x00000000	0.0
104	0x00000000	0.0
105	0x00000000	0.0
106	0x00000000	0.0
107	0x00000000	0.0
108	0x00000000	0.0
109	0x00000000	0.0
110	0x00000000	0.0
111	0x00000000	0.0
112	0x00000000	0.0
113	0x00000000	0.0
114	0x00000000	0.0
115	0x00000000	0.0
116	0x00000000	0.0
117	0x00000000	0.0
118	0x00000000	0.0
119	0x00000000	0.0
120	0x00000000	0.0
121	0x00000000	0.0
122	0x00000000	0.0
123	0x00000000	0.0
124	0x00000000	0.0
125	0x00000000	0.0
126	0x00000000	0.0
127	0x00000000	0.0

network_body._body_endoder.seq_layers.2.weight f4 [128, 128]
0	0xbd8d6c79	-0.06905455
1	0xbcc38ceb	-0.023870906
2	0x3c531950	0.012884453
3	0xbd0f15ae	-0.034932785
4	0x3ba9540d	0.0051674903
5	0x3b959819	0.0045652506
6	0x3ba7a3fb	0.0051159835
7	0x3d7951b0	0.06086892
8	0x3d346a55	0.04404672
9	0x3e55ab66	0.20866165
10	0xbd73a641	-0.059484724
11	0xbd3ad785	-0.04561569
12	0xbd163eab	-0.03668086
13	0xbde9cda2	-0.114161745
14	0xbda2009e	-0.07910274
15	0x3cfc57fe	0.030803677
16	0x3dd9464d	0.10609112
17	0xbd2998bf	-0.041405436
18	0xbcc8ff63	-0.02453584
19	0x3d3d2a83	0.04618312
20	0x3cb82d55	0.022482553
21	0x3d10d1e7	0.03535643
22	0x3cb191fc	0.021676056
23	0xbd6003d3	-0.054691147
24	0xbbbdb007	-0.0057888064
25	0x3d31bc34	0.043392375
26	0x3cd6745f	0.026178537
27	0xbd9d6909	-0.076860495
28	0xbc82c96c	-0.015965186
29	0x3d3530d8	0.044236034
30	0x3e00f3fd	0.12593074
31	0x3ddfdd93	0.10930934
32	0x3e0ff68e	0.14058897
33	0xbdb6f8d7	-0.08934181
34	0x3d1ca5b8	0.03824398
35	0xbcc21915	-0.0236936
36	0xbdd1ae1f	-0.10238289
37	0xbd5af323	-0.05345453
38	0xbcd5f950	-0.026119858
39	0xbe287a37	-0.16452871
40	0xbdcb62fc	-0.09930989
41	0xbb97cf83	-0.0046328916
42	0x3e1ad6aa	0.1512095
43	0x3ca48797	0.020084186
44	0xbd8f487d	-0.06996248
45	0x3ced0cff	0.028936861
46	0xbdfa14d1	-0.12211002
47	0x3dc168d2	0.09443821
48	0x3cf1d357	0.02951972
49	0x3d4373d9	0.047717903
50	0xbd3bfaf2	-0.045893617
51	0x3d8b7e39	0.068111844
52	0x39e9b0db	0.0004457299
53	0xbd94e6a1	-0.072705515
54	0x3d54ead5	0.051981766
55	0xbcfc4821	-0.030796112
56	0xbd9a2092	-0.075257435
57	0x3b6843ec	0.0035440875
58	0xbd3f725f	-0.046739932
59	0x3dc41184	0.09573653
60	0xbc9b8cce	-0.01898804
61	0x3d2d9121	0.042374734
62	0x3cc4c9f1	0.024022074
63	0x3dc29b4f	0.09502279
64	0x3e554463	0.20826869
65	0xbd041482	-0.03224612
66	0xbdbd4663	-0.09241941
67	0x3d7bb00d	0.061447192
68	0xbe357216	-0.17719302
69	0xbd42db63	-0.047572505
70	0xbc9c1e06	-0.019057285
71	0x3d5b1c87	0.053494003
72	0x3cb6f31b	0.022332719
73	0xbbe3a08e	-0.00694663
74	0xbd9a95da	-0.07548113
75	0x3d02d194	0.03193815
76	0xbd1a5287	-0.03767636
77	0xbaba03e0	-0.0014191829
78	0xbe3c14e6	-0.18367347
79	0xbd1ef0a1	-0.0388037
80	0x3cdffabc	0.02734124
81	0xbd0b0e01	-0.033948902
82	0x3d806aca	0.062703684
83	0xbd49676a	-0.04917089
84	0x3dcb6c60	0.0993278
85	0x3e1f8cd1	0.15581061
86	0x3d0ce444	0.03439738
87	0x3daad141	0.08340693
88	0xbdd41269	-0.10355074
89	0x3cf45ce3	0.029829448
90	0xbe08ce0a	-0.13359848
91	0x3d3904ee	0.045170717
92	0xbce67a37	-0.028134448
93	0x3da5f866	0.08104019
94	0xbe2e344f	-0.17012142
95	0xbca6e08a	-0.02037074
96	0xbc161c60	-0.009162039
97	0x3bc555c2	0.006022186
98	0x3d63f2e6	0.055651568
99	0x3a84eb90	0.0010141004
100	0x3d9911a6	0.07474069
101	0x3e1a9257	0.15094887
102	0x3da621b5	0.08111898
103	0x3dafd4a5	0.085854806
104	0xbe1897c1	-0.1490164
105	0xbd94cc27	-0.072655015
106	0xbd9a811c	-0.07544157
107	0x3e90b04c	0.28259504
108	0xbd97ebd6	-0.07418029
109	0xbc1e87e6	-0.009675955
110	0x3c2a6031	0.01039891
111	0xbde3327e	-0.11093615
112	0x3d0cd59f	0.034383412
113	0x3dc8d708	0.09806639
114	0xbdf28705	-0.11842159
115	0x3db942c0	0.09045935
116	0xbd2874ee	-0.041127138
117	0xbda07a51	-0.0783583
118	0xbd294846	-0.04132869
119	0xbdacc4f8	-0.08436006
120	0x3dfecf14	0.12441841
121	0xbc923dc8	-0.017851725
122	0x3c379db5	0.011207034
123	0xbdd857f0	-0.10563648
124	0x3e2d9d17	0.16954456
125	0xbd01f8a6	-0.03173127
126	0x3c926aec	0.01787325
127	0xbe8811ba	-0.26576024
128	0x3d4541a2	0.048158295
129	0x3e63b50b	0.22237031
130	0x3d8c1aa6	0.0684102
131	0x3e1c8177	0.15283762
132	0x3d4a7a23	0.049432885
133	0x3d5d78ba	0.054070212
134	0x3e126118	0.14294851
135	0x3d70f029	0.058822785
136	0x3bd6da0a	0.006556754
137	0xbd4931b9	-0.049119685
138	0x3dc1fe53	0.094723366
139	0x3df02e12	0.11727537
140	0xbd9c8fe5	-0.07644633
141	0x3bf6cd62	0.0075318078
142	0xbd3c520c	-0.045976683
143	0x3dadbfeb	0.08483871
144	0xbd87069f	-0.0659306
145	0x3e0b6ddc	0.13616127
146	0x3d31d61e	0.04341709
147	0x3d91c723	0.071180604
148	0xbd3aae71	-0.045576517
149	0x3c6249bd	0.013811526
150	0xbdcd5477	-0.10025876
151	0x3e7f5661	0.24935295
152	0xbe1e7684	-0.15474898
153	0x3df7c855	0.12098757
154	0x3dd95e1c	0.10613653
155	0xbe2093ca	-0.15681377
156	0x3d020ae1	0.031748656
157	0x3caccd42	0.021093968
158	0xbc32abbe	-0.010905204
159	0xbd44860e	-0.047979407
160	0xbd968ec1	-0.07351447
161	0x3d4e292c	0.050332233
162	0xbcbac042	-0.022796754
163	0x3e0ee74c	0.1395542
164	0x3d5f9904	0.054589286
165	0x3da2fcad	0.0795835
166	0x3e27a193	0.1637023
167	0xbe0dc794	-0.13845664
168	0xbd4d7448	-0.050159723
169	0xbddc5918	-0.10759181
170	0xbe014714	-0.1262477
171	0x3e18ef35	0.14935
172	0x3da87967	0.08226281
173	0x3c0e7f34	0.00869732
174	0xbd6e01ae	-0.05810707
175	0x3e0d9057	0.13824593
176	0x3d21ef87	0.03953507
177	0x3c25bea9	0.010116258
178	0x3cd6b74e	0.026210453
179	0xbc88737a	-0.016656626
180	0xbd93dbfc	-0.07219693
181	0xbd9d31b0	-0.07675493
182	0x3dbbe4e3	0.09174516
183	0xbe27954b	-0.16365544
184	0x3d42a384	0.047519222
185	0xbe236ade	-0.15958735
186	0xbcd91deb	-0.026503524
187	0x3d95d19f	0.07315373
188	0x3ccfb624	0.025355406
189	0xbd8c849b	-0.0686123
190	0xbd0b5730	-0.034018695
191	0xbe01d305	-0.12678154
192	0x3c843c72	0.016142104
193	0xbcc4c18f	-0.024018077
194	0xbbb2b768	-0.0054539926
195	0x3e161c3e	0.14659211
196	0xbe0eba51	-0.13938262
197	0xbe0285bc	-0.12746328
198	0xbe32942b	-0.17439334
199	0xbd2aed9f	-0.04173052
200	0xbd80aa06	-0.062824294
201	0xbd1db2e5	-0.038500685
202	0xbafe466f	-0.0019399653
203	0xbd01a6b5	-0.031653125
204	0x3da98db1	0.082789786
205	0x3a880862	0.0010378475
206	0xbda3457b	-0.07972237
207	0x3de9dbda	0.114188865
208	0x3d969ad0	0.07353747
209	0x3d90d966	0.070727155
210	0xbc95ff2b	-0.01831015
211	0xbd681694	-0.056662157
212	0xbdda113c	-0.106478184
213	0x3d0980cc	0.033570096
214	0xbd3f1aae	-0.046656303
215	0xbdc42c6a	-0.09578784
216	0x3d025ddf	0.031827804
217	0x3dc4d71c	0.09611341
218	0xbbe2714e	-0.0069104796
219	0xbcad9d73	-0.021193242
220	0x3e8c8ba7	0.27450296
221	0x3c54aa6f	0.012980088
222	0x3d489222	0.048967488
223	0xbcc47c55	-0.023985067
224	0xbe271bc7	-0.1631919
225	0xbe252a49	-0.16129412
226	0xbda0fca4	-0.078606874
227	0xbcc8fc96	-0.024534505
228	0x3cebaaf4	0.02876804
229	0x3d9deab1	0.077107795
230	0x3b9f0fcd	0.0048541785
231	0xbcae0fe8	-0.021247819
232	0x3d82698e	0.06367789
233	0xbe3b8319	-0.18311729
234	0xbd9ddafc	-0.077077836
235	0xbd72935b	-0.05922256
236	0xbdb4e073	-0.08831873
237	0x3c664fae	0.014057083
238	0x3e0dc78e	0.13845655
239	0x3d775009	0.06037906
240	0xbe00e206	-0.12586221
241	0x3d95cd9a	0.07314606
242	0xbdd5517b	-0.10415932
243	0x3cb5f1c8	0.022210017
244	0x3d2dcf0d	0.042433787
245	0x3bf76324	0.0075496603
246	0xbcc12dc7	-0.023581399
247	0x3d87e14d	0.066347696
248	0x3d720ef0	0.059096277
249	0xbe184126	-0.14868602
250	0x3d0c6235	0.034273345
251	0x3d4c6d9b	0.049909215
252	0xb9f5f684	-0.0004691371
253	0x3c5b7c10	0.013396278
254	0xbe08ee32	-0.13372114
255	0xbd32d8f9	-0.043663952

network_body._body_endoder.seq_layers.2.bias f4 [128]
0	0x00000000	0.0
1	0x00000000	0.0
2	0x00000000	0.0
3	0x00000000	0.0
4	0x00000000	0.0
5	0x00000000	0.0
6	0x00000000	0.0
7	0x00000000	0.0
8	0x00000000	0.0
9	0x00000000	0.0
10	0x00000000	0.0
11	0x00000000	0.0
12	0x00000000	0.0
13	0x00000000	0.0
14	0x00000000	0.0
15	0x00000000	0.0
16	0x00000000	0.0
17	0x00000000	0.0
18	0x00000000	0.0
19	0x00000000	0.0
20	0x00000000	0.0
21	0x00000000	0.0
22	0x00000000	0.0
23	0x00000000	0.0
24	0x00000000	0.0
25	0x00000000	0.0
26	0x00000000	0.0
27	0x00000000	0.0
28	0x00000000	0.0
29	0x00000000	0.0
30	0x00000000	0.0
31	0x00000000	0.0
32	0x00000000	0.0
33	0x00000000	0.0
34	0x00000000	0.0
35	0x00000000	0.0
36	0x00000000	0.0
37	0x00000000	0.0
38	0x00000000	0.0
39	0x00000000	0.0
40	0x00000000	0.0
41	0x00000000	0.0
42	0x00000000	0.0
43	0x00000000	0.0
44	0x00000000	0.0
45	0x00000000	0.0
46	0x00000000	0.0
47	0x00000000	0.0
48	0x00000000	0.0
49	0x00000000	0.0
50	0x00000000	0.0
51	0x00000000	0.0
52	0x00000000	0.0
53	0x00000000	0.0
54	0x00000000	0.0
55	0x00000000	0.0
56	0x00000000	0.0
57	0x00000000	0.0
58	0x00000000	0.0
59	0x00000000	0.0
60	0x00000000	0.0
61	0x00000000	0.0
62	0x00000000	0.0
63	0x00000000	0.0
64	0x00000000	0.0
65	0x00000000	0.0
66	0x00000000	0.0
67	0x00000000	0.0
68	0x00000000	0.0
69	0x00000000	0.0
70	0x00000000	0.0
71	0x00000000	0.0
72	0x00000000	0.0
73	0x00000000	0.0
74	0x00000000	0.0
75	0x00000000	0.0
76	0x00000000	0.0
77	0x00000000	0.0
78	0x00000000	0.0
79	0x00000000	0.0
80	0x00000000	0.0
81	0x00000000	0.0
82	0x00000000	0.0
83	0x00000000	0.0
84	0x00000000	0.0
85	0x00000000	0.0
86	0x00000000	0.0
87	0x00000000	0.0
88	0x00000000	0.0
89	0x00000000	0.0
90	0x00000000	0.0
91	0x00000000	0.0
92	0x00000000	0.0
93	0x00000000	0.0
94	0x00000000	0.0
95	0x00000000	0.0
96	0x00000000	0.0
97	0x00000000	0.0
98	0x00000000	0.0
99	0x00000000	0.0
100	0x00000000	0.0
101	0x00000000	0.0
102	0x00000000	0.0
103	0x00000000	0.0
104	0x00000000	0.0
105	0x00000000	0.0
106	0x00000000	0.0
107	0x00000000	0.0
108	0x00000000	0.0
109	0x00000000	0.0
110	0x00000000	0.0
111	0x00000000	0.0
112	0x00000000	0.0
113	0x00000000	0.0
114	0x00000000	0.0
115	0x00000000	0.0
116	0x00000000	0.0
117	0x00000000	0.0
118	0x00000000	0.0
119	0x00000000	0.0
120	0x00000000	0.0
121	0x00000000	0.0
122	0x00000000	0.0
123	0x00000000	0.0
124	0x00000000	0.0
125	0x00000000	0.0
126	0x00000000	0.0
127	0x00000000	0.0

action_model._continuous_distribution.log_sigma f4 [1, 2]
0	0x00000000	0.0
1	0x00000000	0.0

action_model._continuous_distribution.mu.weight f4 [2, 128]
0	0xbc234be3	-0.009966823
1	0xbc962c22	-0.018331591
2	0xbc8466b7	-0.01616226
3	0xbb481e79	-0.0030535741
4	0xbb9d3c92	-0.0047984803
5	0xbc70c3cb	-0.014695118
6	0x3a272745	0.0006376396
7	0x3cbfa9c7	0.023396386
8	0x3c1d7b0b	0.009611855
9	0xbc9538ff	-0.018215654
10	0xbbbf0d92	-0.005830475
11	0xbcb0d9b8	-0.021588191
12	0xbbb911e4	-0.0056478847
13	0x3ca3e13e	0.020004865
14	0xbc9b6f85	-0.018974075
15	0xbc80ddbf	-0.015730737
16	0xbc508253	-0.012726384
17	0x3c00e512	0.007867115
18	0x3c8bd207	0.017067922
19	0xbbfda03d	-0.007740049
20	0xbc80b28f	-0.015710143
21	0x3cdecadb	0.027196338
22	0x3abc8c4d	0.0014385075
23	0x3c763d50	0.0150292665
24	0x3ca7d92e	0.020489302
25	0x391984a1	0.00014640625
26	0x3c116297	0.008873603
27	0x3bda577d	0.0066632614
28	0x3bf38763	0.007431911
29	0x3cb532cf	0.022118954
30	0x3cae2b04	0.021260746
31	0xbc0e8a13	-0.008699912
32	0x3c9699d8	0.018383905
33	0xbae419b7	-0.0017402683
34	0x3ca9742f	0.020685283
35	0x3c22d35e	0.009938089
36	0x3b2be24b	0.002622741
37	0xbc87d7a6	-0.016582321
38	0x3c1bf7b2	0.009519504
39	0x3b8eedab	0.0043618283
40	0x3c352501	0.011056186
41	0x3c1e4947	0.009661025
42	0x3c2cff59	0.0105589265
43	0x3bf3400d	0.007423407
44	0xbc77163d	-0.015080986
45	0x3b3c5f8f	0.002874348
46	0x3a6ec305	0.00091080397
47	0x3c849a9d	0.016187007
48	0x3c99ca6f	0.018773286
49	0x3cc8d99b	0.024517825
50	0x3c912fc9	0.017722981
51	0xbb33f847	-0.0027461217
52	0x3aad7e19	0.0013236433
53	0xbcc81d5a	-0.024428058
54	0xbb3e389f	-0.0029025448
55	0xbb8ed979	-0.004359421
56	0x3c8af327	0.016961647
57	0xbce0f457	-0.02746026
58	0xbd07e50c	-0.03317742
59	0x3b9b77e0	0.004744515
60	0xbca3d312	-0.019998107
61	0x3c785360	0.015156597
62	0x3b9a7a87	0.0047143134
63	0x3b9970c4	0.004682632
64	0xbc012745	-0.007882898
65	0xbcd5cc4f	-0.026098398
66	0xbca30051	-0.019897612
67	0x3c8ebaaa	0.017422993
68	0xbb751c1f	-0.0037400795
69	0xbcecede5	-0.02892203
70	0x3bd50fd8	0.006502133
71	0xbb550b4f	-0.003250796
72	0x3b700770	0.0036625527
73	0xbb4ad445	-0.0030949276
74	0xbc17577f	-0.009237169
75	0x3c1e9f17	0.009681485
76	0x3b9aca9e	0.004723861
77	0x3ca1be8d	0.019744182
78	0x3b8c13d5	0.004274825
79	0x3c180a63	0.00927982
80	0xbc875e4b	-0.016524455
81	0xba789888	-0.0009483178
82	0xbcfc523a	-0.030800927
83	0x3cf5207d	0.029922718
84	0xbcb4792f	-0.022030441
85	0xbc7871a0	-0.015163809
86	0x3c0ae119	0.008476519
87	0xbcbbc599	-0.02292137
88	0xbc848853	-0.016178286
89	0xbb3970b7	-0.0028295943
90	0x3c00f90b	0.0078718765
91	0x3bfdd9cd	0.007746911
92	0x3b9b624b	0.004741942
93	0xbce1538f	-0.027505664
94	0x3d117ae3	0.035517585
95	0xbcda743b	-0.026666751
96	0x3d38e8a5	0.045143742
97	0x3a031538	0.0005000415
98	0x3c3f7c18	0.011687301
99	0x3c4da03a	0.012550408
100	0x3ca03a76	0.019559126
101	0xbc2da48d	-0.010598314
102	0xbb172ceb	-0.0023067545
103	0xbc06620c	-0.008202087
104	0xbc1f4fa8	-0.009723581
105	0x3c6562a2	0.014000567
106	0xbd0f9fcf	-0.035064515
107	0x3a17d107	0.00057913404
108	0xbc8bba5a	-0.017056633
109	0x3cf037ab	0.02932342
110	0xbb800915	-0.0039073327
111	0x3cdca5e8	0.026934579
112	0x3a179c3d	0.0005783474
113	0x3bc324b3	0.0059553026
114	0x3b6d241b	0.003618485
115	0x3ad041d2	0.0015888757
116	0xbc951116	-0.018196624
117	0x3acd21aa	0.0015650291
118	0xbc30b5c5	-0.010785525
119	0xbc17f817	-0.009275458
120	0xbb32ef00	-0.00273031
121	0x3c9fb939	0.0194975
122	0xba02869b	-0.0004979164
123	0x3baf69ba	0.0053531798
124	0xbbb748e3	-0.0055934056
125	0x3c9333fd	0.017969126
126	0xbbb05fbe	-0.005382507
127	0x3c2e2cee	0.010630829
128	0x3bf36c30	0.0074286684
129	0x3cd9737f	0.02654433
130	0x3c837087	0.016044868
131	0x3bf06a3d	0.0073368833
132	0xbbf28213	-0.00740076
133	0x3c4a73a0	0.012356669
134	0xbc9cd0df	-0.019142566
135	0x3c994b9c	0.018712811
136	0x3c9c5cc6	0.019087207
137	0x3ca24564	0.019808479
138	0xbca603e5	-0.020265529
139	0x3ccf88d0	0.025333792
140	0x3c9b3e4e	0.018950608
141	0x3c572ccf	0.013133242
142	0x3be70347	0.0070499512
143	0x3b7c75f5	0.0038522456
144	0xbc2eaa98	-0.01066079
145	0x3ceecf1f	0.029151497
146	0xbc3303f7	-0.010926238
147	0x3adcff43	0.0016860742
148	0x3b8c76c8	0.0042866208
149	0xba970733	-0.0011522531
150	0xbc7403a0	-0.014893442
151	0xbb161ce8	-0.0022905413
152	0x3c4df613	0.012570876
153	0x3cf1b32b	0.02950438
154	0x3cb75d16	0.022383254
155	0x3c1b4633	0.009477186
156	0x3c62bef3	0.013839471
157	0x3c357bca	0.011076877
158	0xbbb731af	-0.0055906395
159	0x3c3957cc	0.011312436
160	0xbbd58e98	-0.0065172426
161	0xba5c5ec7	-0.0008406457
162	0xbc12424f	-0.008926942
163	0xbbbadccb	-0.00570259
164	0xbcff68d3	-0.031177914
165	0x3ce3468d	0.027743602
166	0xbbe9c123	-0.0071336194
167	0x3af17010	0.0018420238
168	0x3c8b17f1	0.01697919
169	0x3cd677af	0.026180116
170	0x3bc2e6c6	0.0059479205
171	0x3b8ed5be	0.004358976
172	0xbc656633	-0.014001417
173	0x3a77e5bd	0.0009456536
174	0xbc3ab4d8	-0.011395656
175	0x3b9cb2b5	0.0047820457
176	0x3b6cf743	0.0036158122
177	0xbc677953	-0.014128047
178	0xbc25c099	-0.01011672
179	0xbc6ee0a8	-0.014579929
180	0x3c55252b	0.01300935
181	0xbc1f8b8f	-0.009737863
182	0x3c0fed41	0.008784593
183	0x3b2092b4	0.0024501504
184	0xbc37bea7	-0.011214889
185	0xbaa9045a	-0.0012894974
186	0xbca869d4	-0.020558275
187	0x3bbb2ec2	0.005712361
188	0xbc89e733	-0.016833877
189	0x3b9cf286	0.0047896532
190	0x3c7387b8	0.014863901
191	0xbd13500e	-0.035965018
192	0x39ab4c33	0.00032672434
193	0xbc73ea53	-0.01488741
194	0x3c8f00c5	0.017456422
195	0x3c895215	0.016762773
196	0x3b6fd4d3	0.003659536
197	0x3b3f1d03	0.002916158
198	0x3b837a62	0.004012392
199	0xbbb79c11	-0.0056033214
200	0x3cdd134d	0.026986742
201	0xb9f0e202	-0.00045944756
202	0xbb2707fa	-0.0025486932
203	0x3d0789f1	0.033090536
204	0xbb7c3c1a	-0.0038487972
205	0xbb1b7d7b	-0.0023725915
206	0xbc42f3ba	-0.011898929
207	0x3ce00b8d	0.027349258
208	0x3c8d4089	0.017242687
209	0xbca785ff	-0.020449637
210	0x390f9696	0.0001369364
211	0x3d47c36a	0.048770346
212	0x3b39b525	0.002833673
213	0xba164bc5	-0.00057333364
214	0x3bce898f	0.0063030194
215	0xbcc7ac5f	-0.024374185
216	0x3d2229b3	0.03959055
217	0x3bdf29cd	0.006810403
218	0xbcc1bc08	-0.02364923
219	0x3c047855	0.00808533
220	0xbb9e4feb	-0.0048313043
221	0xbc731ae2	-0.014837952
222	0xbbafe80a	-0.0053682374
223	0x3cc56867	0.024097634
224	0x3c8423b3	0.016130304
225	0x3c9e7237	0.019341571
226	0xbc5f2713	-0.013620156
227	0xbcb14755	-0.02164046
228	0x3ac07ab4	0.0014685006
229	0x3ac3963f	0.0014922096
230	0x3c2a43d4	0.010392148
231	0x3c9183d7	0.017763061
232	0x3b3cf765	0.0028833982
233	0xbc1525ba	-0.009103233
234	0xbb67e828	-0.0035386179
235	0x3c41ad7e	0.011821149
236	0x3c1d3817	0.009595892
237	0xbbbeec7d	-0.0058265314
238	0x3bca250a	0.006168966
239	0x3c995865	0.018718908
240	0xbc5a2978	-0.013315551
241	0xbc7afc05	-0.015318875
242	0xbd1ec234	-0.038759425
243	0xbb17622b	-0.0023099284
244	0x3b1cd5cf	0.002393115
245	0xbbfe41fa	-0.00775933
246	0xbca17106	-0.019707214
247	0xbcf1ec6b	-0.029531678
248	0xbc1ce5a7	-0.009576238
249	0x3ca29324	0.019845553
250	0xbc0a0f31	-0.0084264735
251	0x3cb3d8c7	0.021953953
252	0xbc21f444	-0.009884898
253	0x3b574b18	0.0032851156
254	0xbcf6e160	-0.030136764
255	0xbb9d452a	-0.0047995048

action_model._continuous_distribution.mu.bias f4 [2]
0	0x00000000	0.0
1	0x00000000	0.0

network_body._body_endoder.seq_layers.0.weight f4 [128, 3]
0	0x3fb8ea5b	1.444652
1	0xbf453b72	-0.7704383
2	0xbe45c14d	-0.1931202
3	0x3f008b40	0.5021248
4	0x3f12777a	0.57213557
5	0xbdee2b99	-0.11629409
6	0x3f3db8e5	0.7411025
7	0xbf7a65db	-0.9781167
8	0xbe8192a4	-0.2530719
9	0xbcd566c4	-0.026049979
10	0xbe760c27	-0.24028073
11	0x3f4e8aa1	0.8068028
12	0x3ec169ab	0.3777593
13	0xbffb083a	-1.9611886
14	0x3fa910a6	1.3208206
15	0xbe1bf161	-0.15228797
16	0xbe610938	-0.21976173
17	0xbe8b3cc2	-0.27194792
18	0xbf120ab0	-0.5704756
19	0xbe694ed1	-0.22783972
20	0xbfaf91a5	-1.3716322
21	0xbf8f6725	-1.1203352
22	0xbda7b8f7	-0.08189576
23	0xbf197170	-0.59938717
24	0xbf873d5e	-1.0565603
25	0xbf2c536c	-0.6731479
26	0xbf50d4e0	-0.8157482
27	0xbf48a59f	-0.7837772
28	0x3e1fd6ba	0.15609255
29	0xbda06bb0	-0.0783304
30	0xbd5dd455	-0.054157574
31	0xbf4146ab	-0.75498456
32	0x3d904581	0.07044507
33	0xbe571bcf	-0.21006702
34	0xbf531f75	-0.82469875
35	0xbecdb878	-0.401798
36	0x3f31f353	0.6951191
37	0x3d24615d	0.040131915
38	0xbec1890a	-0.37799865
39	0x3f3aa0a1	0.7290135
40	0x3df4d8f7	0.11955445
41	0x3ee137ef	0.43987986
42	0xbf0808a7	-0.531382
43	0xbdfaf5f8	-0.12253946
44	0x3f046b4b	0.51726216
45	0xbe99ef32	-0.30065304
46	0x3ebe4279	0.3716009
47	0x3de1c772	0.11024369
48	0x3f0345f3	0.5127861
49	0xbe670409	-0.22560133
50	0x3f9576d2	1.1676886
51	0xbdb4f360	-0.088354826
52	0x3eae1ace	0.34004825
53	0xbe915d06	-0.28391284
54	0x3f1066e1	0.5640698
55	0xbe14736e	-0.14497158
56	0xbec82f27	-0.39098474
57	0x3f2e3df6	0.68063295
58	0xbe10c6af	-0.14138292
59	0xbea78fbd	-0.3272685
60	0xbe39fb79	-0.18162335
61	0x3e8ffa7e	0.28120798
62	0x3e19d2f0	0.15021873
63	0x3f81c1be	1.013725
64	0xbec4e605	-0.3845674
65	0xbe783352	-0.24238327
66	0xbe3de37c	-0.1854381
67	0x3f6f6892	0.93518937
68	0xbf4c581c	-0.79821944
69	0xbe810811	-0.25201467
70	0xbdd950e4	-0.10611132
71	0x3f6536a8	0.89536524
72	0xbeb4094b	-0.3516334
73	0x3f198429	0.59967285
74	0xbe709e01	-0.23497774
75	0xbcd1810b	-0.025574228
76	0xbec85a37	-0.39131328
77	0x3f30dffb	0.6909177
78	0xbed6b02c	-0.41931283
79	0x3d321208	0.043474227
80	0xbed872c3	-0.42275056
81	0x3f31fc69	0.6952577
82	0x3ea8a644	0.3293935
83	0xbf0f1bd8	-0.5590186
84	0xbecde185	-0.4021112
85	0x3f006f44	0.5016978
86	0xbe9cb311	-0.30605367
87	0xbd6a0316	-0.05713185
88	0x3ec95ed2	0.39330155
89	0xbfc14e28	-1.5101976
90	0x3f2b5460	0.6692562
91	0xbefdd362	-0.49575335
92	0x3ebaaac0	0.36458397
93	0x3f048e3e	0.51779544
94	0xbdefc5b8	-0.11707634
95	0x3f2392c1	0.63895804
96	0xbfb4d788	-1.4128275
97	0xbeb49c9e	-0.3527574
98	0x3efc614d	0.49292985
99	0x3f72d184	0.94850945
100	0xbe840373	-0.25783882
101	0xbebfffc7	-0.3749983
102	0x3dafdb1e	0.08586715
103	0x3e827bd1	0.2548509
104	0xbf94b3e2	-1.1617396
105	0x3d74982a	0.059715427
106	0xbd39ba8a	-0.045343913
107	0xbdaac2bd	-0.08337925
108	0x3f085267	0.53250736
109	0x3e81d339	0.25356463
110	0x3eeb98dc	0.4601506
111	0x3eb0a66f	0.3450198
112	0xbecd4924	-0.40094864
113	0x3eba421c	0.36378562
114	0x3e79d3f8	0.24397266
115	0x3f3c9353	0.736623
116	0xbe89b573	-0.26896247
117	0x3ea515de	0.32243246
118	0x3f03a3e8	0.51421976
119	0xbf5f10b2	-0.8713485
120	0xbf4b6d22	-0.794634
121	0xbf26ad8e	-0.65108573
122	0x3f5ad04d	0.8547409
123	0x3f6343df	0.8877544
124	0xbdc9b07d	-0.098481156
125	0xbf6783a0	-0.9043522
126	0xbfa1afa1	-1.2631723
127	0xbd0b59c4	-0.034021154
128	0x3dae0b8e	0.08498298
129	0xbbfe3fd6	-0.0077590747
130	0x3f512557	0.816976
131	0xbf6db351	-0.9285174
132	0xbf11ab6c	-0.56902194
133	0x3e52bec7	0.20580588
134	0xbf250f88	-0.64476824
135	0xbf149033	-0.5803253
136	0xbf4b51a3	-0.7942144
137	0xbf9bb8ec	-1.2165809
138	0xbf7c3466	-0.98517454
139	0x3f9b3c56	1.2127788
140	0xbf0eca6a	-0.5577761
141	0xbf6292e0	-0.88505363
142	0xbeda16e7	-0.42595598
143	0x3f4e0757	0.8047995
144	0xbeb566cb	-0.35429987
145	0x3f3c7699	0.73618466
146	0x3eba788b	0.36420092
147	0x3dc971b8	0.09836143
148	0x3cd7bf4c	0.026336335
149	0x3e1ed2c9	0.15510096
150	0x3ef7fa66	0.48433226
151	0xbf274d6c	-0.6535251
152	0x3dca1e9f	0.09869122
153	0x3f04e41d	0.51910573
154	0xbf04d1fe	-0.5188292
155	0x3f862f5e	1.0483205
156	0x3f418e88	0.7560811
157	0x3f26d49c	0.65168166
158	0x3f41b46b	0.7566592
159	0x3eac8fa7	0.33703348
160	0xbe2fadd3	-0.17156152
161	0x3efba47c	0.4914893
162	0x3d491033	0.049087714
163	0xbf38a1ea	-0.7212206
164	0xbfba766f	-1.4567393
165	0xbeff2db0	-0.49839544
166	0x3f41f573	0.7576515
167	0xbf0f046e	-0.55866134
168	0x3f0cb11c	0.5495775
169	0xbe64515b	-0.2229666
170	0x3ee26ea0	0.44225025
171	0xbf643e9f	-0.8915805
172	0xbcbef26a	-0.023308951
173	0xbe88f759	-0.2675121
174	0xbf31b9ff	-0.6942443
175	0xbe8a57b7	-0.27020046
176	0xbfb271dc	-1.3940997
177	0xbf15182f	-0.58240026
178	0x3ee15eb9	0.4401758
179	0x3d658c7e	0.056042187
180	0xbdef2bb1	-0.11678255
181	0xbca42c68	-0.020040706
182	0xbdfbbc52	-0.122917786
183	0xbe0d3db8	-0.13793075
184	0xbf78e997	-0.9723143
185	0xbed73486	-0.4203226
186	0xbdbf6116	-0.093446895
187	0xbe8dd4c1	-0.2770138
188	0xbe0ab1b1	-0.13544346
189	0xbf86874b	-1.0510038
190	0xbc2394f1	-0.009984241
191	0x3d4a9586	0.049459003
192	0x3e4af82a	0.1982123
193	0xbebdd74a	-0.37078315
194	0xbf2fbaca	-0.6864439
195	0xbe05135f	-0.1299567
196	0xbe13ac46	-0.14421186
197	0xbd5e4ab5	-0.054270465
198	0xbfbb5553	-1.4635414
199	0x3ec51f60	0.385005
200	0xbf64deca	-0.8940245
201	0xbf8010f7	-1.0005177
202	0x3f1d3f38	0.6142459
203	0xbfafd989	-1.3738261
204	0xbe4119cc	-0.18857497
205	0xbfbfe3d6	-1.4991405
206	0x3e6d98fe	0.23202893
207	0x3e0b1bee	0.13584873
208	0x3ca4828c	0.02008178
209	0x3ee9935a	0.45620233
210	0xbf44b9d6	-0.76846063
211	0xbdb0794e	-0.08616887
212	0xbe08715f	-0.13324498
213	0x3ea6095b	0.32429013
214	0x3f28950d	0.65852433
215	0x3eab7ca5	0.33493534
216	0x3f8f0e8c	1.1176314
217	0x3ed093b7	0.40737697
218	0x3f84fa10	1.0388813
219	0x3e0834a5	0.13301332
220	0x3df023de	0.11725591
221	0xbe5fe4a8	-0.21864569
222	0xbfbf15f5	-1.4928576
223	0x3f31e978	0.6949687
224	0xbf4e8d8a	-0.8068472
225	0xbf62d547	-0.88606685
226	0x3ee5cdfc	0.44883716
227	0x3e09ef37	0.1347016
228	0x3f1ff43b	0.6248204
229	0x3f9e1ee8	1.2353182
230	0x3d8fb616	0.07017152
231	0xbf560d74	-0.8361428
232	0xbe55adef	-0.20867132
233	0xbf09b797	-0.5379576
234	0xbef6025c	-0.48048675
235	0xbf1f4e77	-0.622291
236	0x3daff7c0	0.085921764
237	0xbeacda49	-0.33760288
238	0xbf71d4b4	-0.94465184
239	0xbe8d39ec	-0.27583253
240	0xbf260b6a	-0.64861166
241	0x3f1404b0	0.5781965
242	0x3e1222f3	0.14271145
243	0x3fa36ab6	1.276694
244	0xbf09786b	-0.5369937
245	0xbf9fddbb	-1.2489542
246	0x3e17f140	0.14838123
247	0x3cf4ed38	0.029898271
248	0x3e992c69	0.29916695
249	0x3e697e65	0.22802122
250	0xbf00c1fb	-0.5029599
251	0x3edb4648	0.42827058
252	0xbea9f615	-0.33195558
253	0xbe853a2f	-0.26020953
254	0xbf20ddc3	-0.6283838
255	0xbf3c8258	-0.7363639

network_body._body_endoder.seq_layers.0.bias f4 [128]
0	0x00000000	0.0
1	0x00000000	0.0
2	0x00000000	0.0
3	0x00000000	0.0
4	0x00000000	0.0
5	0x00000000	0.0
6	0x00000000	0.0
7	0x00000000	0.0
8	0x00000000	0.0
9	0x00000000	0.0
10	0x00000000	0.0
11	0x00000000	0.0
12	0x00000000	0.0
13	0x00000000	0.0
14	0x00000000	0.0
15	0x00000000	0.0
16	0x00000000	0.0
17	0x00000000	0.0
18	0x00000000	0.0
19	0x00000000	0.0
20	0x00000000	0.0
21	0x00000000	0.0
22	0x00000000	0.0
23	0x00000000	0.0
24	0x00000000	0.0
25	0x00000000	0.0
26	0x00000000	0.0
27	0x00000000	0.0
28	0x00000000	0.0
29	0x00000000	0.0
30	0x00000000	0.0
31	0x00000000	0.0
32	0x00000000	0.0
33	0x00000000	0.0
34	0x00000000	0.0
35	0x00000000	0.0
36	0x00000000	0.0
37	0x00000000	0.0
38	0x00000000	0.0
39	0x00000000	0.0
40	0x00000000	0.0
41	0x00000000	0.0
42	0x00000000	0.0
43	0x00000000	0.0
44	0x00000000	0.0
45	0x00000000	0.0
46	0x00000000	0.0
47	0x00000000	0.0
48	0x00000000	0.0
49	0x00000000	0.0
50	0x00000000	0.0
51	0x00000000	0.0
52	0x00000000	0.0
53	0x00000000	0.0
54	0x00000000	0.0
55	0x00000000	0.0
56	0x00000000	0.0
57	0x00000000	0.0
58	0x00000000	0.0
59	0x00000000	0.0
60	0x00000000	0.0
61	0x00000000	0.0
62	0x00000000	0.0
63	0x00000000	0.0
64	0x00000000	0.0
65	0x00000000	0.0
66	0x00000000	0.0
67	0x00000000	0.0
68	0x00000000	0.0
69	0x00000000	0.0
70	0x00000000	0.0
71	0x00000000	0.0
72	0x00000000	0.0
73	0x00000000	0.0
74	0x00000000	0.0
75	0x00000000	0.0
76	0x00000000	0.0
77	0x00000000	0.0
78	0x00000000	0.0
79	0x00000000	0.0
80	0x00000000	0.0
81	0x00000000	0.0
82	0x00000000	0.0
83	0x00000000	0.0
84	0x00000000	0.0
85	0x00000000	0.0
86	0x00000000	0.0
87	0x00000000	0.0
88	0x00000000	0.0
89	0x00000000	0.0
90	0x00000000	0.0
91	0x00000000	0.0
92	0x00000000	0.0
93	0x00000000	0.0
94	0x00000000	0.0
95	0x00000000	0.0
96	0x00000000	0.0
97	0x00000000	0.0
98	0x00000000	0.0
99	0x00000000	0.0
100	0x00000000	0.0
101	0x00000000	0.0
102	0x00000000	0.0
103	0x00000000	0.0
104	0x00000000	0.0
105	0x00000000	0.0
106	0x00000000	0.0
107	0x00000000	0.0
108	0x00000000	0.0
109	0x00000000	0.0
110	0x00000000	0.0
111	0x00000000	0.0
112	0x00000000	0.0
113	0x00000000	0.0
114	0x00000000	0.0
115	0x00000000	0.0
116	0x00000000	0.0
117	0x00000000	0.0
118	0x00000000	0.0
119	0x00000000	0.0
120	0x00000000	0.0
121	0x00000000	0.0
122	0x00000000	0.0
123	0x00000000	0.0
124	0x00000000	0.0
125	0x00000000	0.0
126	0x00000000	0.0
127	0x00000000	0.0

network_body._body_endoder.seq_layers.2.weight f4 [128, 128]
0	0x3de14eb6	0.11001341
1	0x3cf2b792	0.029628549
2	0xbdff16c6	-0.124555156
3	0xbda10960	-0.07863116
4	0xbd83e195	-0.06439511
5	0xbd97358e	-0.073832616
6	0x3d9756e6	0.073896214
7	0xba8efca7	-0.0010909037
8	0x3db87020	0.09005761
9	0xb9b50cfd	-0.00034532687
10	0xbd5192a0	-0.051165223
11	0xbd8223f0	-0.06354511
12	0x3dd6f6a8	0.10496265
13	0xbcee5ec7	-0.029097928
14	0x3d87994b	0.06621035
15	0x3d4d3d59	0.050107334
16	0x3d7b425d	0.061342586
17	0xbd3b6b67	-0.045756724
18	0xbd0f0fd6	-0.03492721
19	0x3d986d9a	0.0744278
20	0xbcdd10c0	-0.026985526
21	0xbbf30cd1	-0.0074172993
22	0x3d0398d3	0.032128166
23	0xbd907a69	-0.07054598
24	0x3cfa28c4	0.030537017
25	0xbd88a760	-0.06672549
26	0xbe3899b4	-0.18027383
27	0xbce98429	-0.028505402
28	0x3d8c6c83	0.068566345
29	0x3c8942f5	0.01675556
30	0x3dcd7cb2	0.10033549
31	0x3dafa306	0.08576016
32	0xbe38b45e	-0.18037555
33	0xbe327802	-0.17428592
34	0xbd2bf1c6	-0.04197862
35	0xbe40d1bf	-0.18830012
36	0xbcf53199	-0.029930877
37	0xbd22ad9f	-0.03971636
38	0xbe409d38	-0.18809974
39	0x3d76f1ba	0.060289122
40	0x3dc451c2	0.095859066
41	0x3d2822be	0.041048758
42	0x3e02e3f1	0.12782265
43	0xbcbac194	-0.022797383
44	0x3d9b0deb	0.07571014
45	0x3d1af95e	0.03783547
46	0x3dd06279	0.10175032
47	0x3bcb7585	0.006209078
48	0x3d01b0b4	0.031662658
49	0x3d5a21d4	0.053254917
50	0x3cb1cb47	0.021703376
51	0x3bd60cea	0.006532301
52	0xbdb29c8f	-0.087212674
53	0xbe0b2db6	-0.13591656
54	0x3c36ea4c	0.011164259
55	0xbd4978ec	-0.049187586
56	0xbc8e438e	-0.017366197
57	0x3dce0b5a	0.10060759
58	0x3c7b26a2	0.015329035
59	0xbe323c45	-0.17405804
60	0x3cc58fbc	0.02411639
61	0x3c80269f	0.015643416
62	0x3d5ec87e	0.054390423
63	0xbe3643be	-0.17799279
64	0xba58b71a	-0.00082670304
65	0x3c89e4e3	0.016832775
66	0xbe16208d	-0.14660855
67	0x3cc4bcdb	0.024015835
68	0x3deae8eb	0.11470207
69	0x3daf8f65	0.08572272
70	0xbd5ea161	-0.05435312
71	0xbe480fb2	-0.19537237
72	0x3d9ae830	0.075638175
73	0xbd44b189	-0.048020873
74	0xbdabc867	-0.08387833
75	0xbdb5763b	-0.08860441
76	0xbdedd2ce	-0.116124734
77	0xbe0377d9	-0.12838687
78	0xbabdc8a5	-0.0014479352
79	0xbdde0859	-0.10841436
80	0x3d7d83d3	0.061893295
81	0x3de98660	0.11402583
82	0x3d648773	0.055793237
83	0xbe7496a8	-0.23885596
84	0xbd91e613	-0.07123961
85	0x3dce9602	0.100872055
86	0xbc20c07c	-0.009811517
87	0xbdd36d06	-0.10323529
88	0x3deb4c3a	0.114891484
89	0xbde2b71f	-0.11070084
90	0xbd682989	-0.056680236
91	0x3e4ca56a	0.19984975
92	0xbbeec329	-0.0072864485
93	0x3ca70d0b	0.020391962
94	0xbdd5067a	-0.10401626
95	0x3d8bf52c	0.06833872
96	0x3c7e6a20	0.015528232
97	0x3dd69b3e	0.10478829
98	0xbe55fea2	-0.20897916
99	0x3c46b6eb	0.012128572
100	0xbd2fe595	-0.042943556
101	0xbd29225b	-0.04129253
102	0xbd5487bd	-0.051887263
103	0x3c8d71ab	0.017266115
104	0xbdc99cc6	-0.09844355
105	0x3d98ee73	0.074673556
106	0xbd82753e	-0.063700184
107	0xbe23e2c2	-0.1600447
108	0xbddce7e3	-0.107864164
109	0x3dabeb8f	0.083945386
110	0x3cb93fd7	0.022613449
111	0xbe00388f	-0.12521575
112	0x3d84461a	0.06458683
113	0xbe2e7700	-0.17037582
114	0x3d4566b2	0.04819364
115	0xbde7302b	-0.11288484
116	0x3ccd4eec	0.025062047
117	0x3d083cef	0.033261236
118	0xbdf0b7b1	-0.11753786
119	0x3da97deb	0.0827597
120	0x3d5ea283	0.054354202
121	0xbe070443	-0.1318522
122	0xbdba0890	-0.090836644
123	0xbda30a92	-0.079610005
124	0x3d2f7155	0.04283269
125	0xbdbebad9	-0.09312982
126	0x3df1ac02	0.11800386
127	0xbcb876ac	-0.022517525
128	0xbd39f320	-0.045397878
129	0x3e81082d	0.2520155
130	0x3bd1224d	0.006382263
131	0x3d8c680d	0.068557836
132	0xbdae36cc	-0.085065454
133	0x3da5adf9	0.08089823
134	0xbe1f9336	-0.155835
135	0xbd0c1983	-0.034204017
136	0x3e0d92a5	0.13825472
137	0xbdb5f0a9	-0.08883793
138	0x3d1b1fc0	0.037872076
139	0xbd19abd3	-0.03751738
140	0xbe16d29b	-0.14728777
141	0x3d73dbe6	0.059535883
142	0xbd4225fa	-0.0473995
143	0x3dd8f5af	0.105937354
144	0x3db6f49a	0.08933373
145	0xbbd878cd	-0.0066061975
146	0xbd606048	-0.05477932
147	0xbda4814c	-0.08032474
148	0xbd844fce	-0.06460534
149	0x3dc62581	0.09675122
150	0xbb883346	-0.004156503
151	0xbd22e159	-0.03976569
152	0x3d5c70c6	0.053818487
153	0x3d4cf9fd	0.050043095
154	0x3cdc96b9	0.026927339
155	0x3e20d73d	0.15707107
156	0x3d9cffe3	0.07665994
157	0xbe96ec22	-0.2947703
158	0x3e3735d3	0.17891626
159	0xbcc4e025	-0.024032662
160	0x3d5d944f	0.054096516
161	0x3db7494c	0.08949527
162	0xbc4b34ab	-0.012402694
163	0xbd5edb50	-0.05440837
164	0xbd9b9cb0	-0.07598245
165	0x3d704353	0.058657955
166	0xbd96eb9d	-0.073691584
167	0xbcd77449	-0.026300566
168	0xbd78c7dc	-0.060737476
169	0xbdbbb8e7	-0.09166127
170	0xbdf952e3	-0.121740125
171	0xbceaf824	-0.028682776
172	0xbd7573e5	-0.05992498
173	0x3d80c472	0.06287469
174	0x3d6f0509	0.05835441
175	0x3df051fd	0.11734388
176	0xbd57ea55	-0.05271371
177	0xbe31bd1c	-0.17357296
178	0x3d120dbb	0.035657626
179	0x3ccf0e67	0.025275422
180	0xbd2743db	-0.040836196
181	0xbd52e459	-0.0514873
182	0xbd56a7d6	-0.052406155
183	0xbd256873	-0.040382814
184	0xbc89b430	-0.016809553
185	0xbe39a3a4	-0.1812883
186	0x3d7c3d35	0.06158181
187	0xbd844f31	-0.06460417
188	0x3dfc72b1	0.12326563
189	0xbcb3fd7c	-0.021971457
190	0xbdebd080	-0.115143776
191	0xbd944741	-0.07240153
192	0x3d605072	0.05476422
193	0x3bf38cde	0.007432564
194	0xbe2ccff0	-0.16876197
195	0x3d511145	0.05104186
196	0xbce43287	-0.027856125
197	0xbe1af259	-0.15131511
198	0x3d1183a9	0.03552595
199	0xbcc5734e	-0.024102833
200	0x3d3da398	0.046298593
201	0xbcef9f5a	-0.02925079
202	0x3da15004	0.0787659
203	0x3bb0b632	0.005392813
204	0xbdfe47ff	-0.12416076
205	0xbcf80165	-0.030274102
206	0x3c83ac0d	0.016073251
207	0xbc4e3f2d	-0.0125883045
208	0x3c90aae5	0.017659614
209	0x3dc36767	0.09541207
210	0xbb05e490	-0.0020430423
211	0x3df2cf74	0.11855975
212	0xbd2c13af	-0.04201096
213	0x3dc46501	0.095895775
214	0x3dfdea7c	0.1239824
215	0xbdabda6c	-0.0839127
216	0xbe18d5ba	-0.1492528
217	0xbd65a1cc	-0.056062505
218	0x3da100c3	0.078614734
219	0x3d941fb4	0.072326094
220	0x3c497726	0.012296474
221	0x3db52669	0.08845217
222	0x3e21554e	0.15755197
223	0x3d9a033a	0.07520147
224	0x3d84d16c	0.064852566
225	0xbd41d7ba	-0.047324874
226	0x3d0ef3af	0.034900364
227	0xbdaadfe5	-0.08343486
228	0xb96c71e9	-0.00022549149
229	0xbe1a217f	-0.1505184
230	0x3d50a91e	0.050942533
231	0x3da0d987	0.0785399
232	0xbc67ef22	-0.014156135
233	0x3c21f82b	0.009885828
234	0x3c207d3a	0.009795481
235	0xbe2fd5bc	-0.17171377
236	0x3d535cca	0.051602162
237	0xbdd9b800	-0.10630798
238	0x3d858b34	0.065206915
239	0x3d2b8239	0.041872237
240	0x3cafa820	0.021442473
241	0x3d346d57	0.044049587
242	0x3b0b880e	0.0021290812
243	0x3d0f9f79	0.035064194
244	0xbd9af77f	-0.075667374
245	0xbd10cbce	-0.035350613
246	0x3c005f2a	0.007835189
247	0xbcc635d4	-0.02419559
248	0x3d5b4769	0.0535349
249	0x3e04059e	0.12892768
250	0x3ca71663	0.020396417
251	0x3db10cfd	0.086450554
252	0x3d725254	0.059160545
253	0xbe2d4248	-0.16919816
254	0x3e312148	0.17297852
255	0xbbf153fd	-0.0073647485

network_body._body_endoder.seq_layers.2.bias f4 [128]
0	0x00000000	0.0
1	0x00000000	0.0
2	0x00000000	0.0
3	0x00000000	0.0
4	0x00000000	0.0
5	0x00000000	0.0
6	0x00000000	0.0
7	0x00000000	0.0
8	0x00000000	0.0
9	0x00000000	0.0
10	0x00000000	0.0
11	0x00000000	0.0
12	0x00000000	0.0
13	0x00000000	0.0
14	0x00000000	0.0
15	0x00000000	0.0
16	0x00000000	0.0
17	0x00000000	0.0
18	0x00000000	0.0
19	0x00000000	0.0
20	0x00000000	0.0
21	0x00000000	0.0
22	0x00000000	0.0
23	0x00000000	0.0
24	0x00000000	0.0
25	0x00000000	0.0
26	0x00000000	0.0
27	0x00000000	0.0
28	0x00000000	0.0
29	0x00000000	0.0
30	0x00000000	0.0
31	0x00000000	0.0
32	0x00000000	0.0
33	0x00000000	0.0
34	0x00000000	0.0
35	0x00000000	0.0
36	0x00000000	0.0
37	0x00000000	0.0
38	0x00000000	0.0
39	0x00000000	0.0
40	0x00000000	0.0
41	0x00000000	0.0
42	0x00000000	0.0
43	0x00000000	0.0
44	0x00000000	0.0
45	0x00000000	0.0
46	0x00000000	0.0
47	0x00000000	0.0
48	0x00000000	0.0
49	0x00000000	0.0
50	0x00000000	0.0
51	0x00000000	0.0
52	0x00000000	0.0
53	0x00000000	0.0
54	0x00000000	0.0
55	0x00000000	0.0
56	0x00000000	0.0
57	0x00000000	0.0
58	0x00000000	0.0
59	0x00000000	0.0
60	0x00000000	0.0
61	0x00000000	0.0
62	0x00000000	0.0
63	0x00000000	0.0
64	0x00000000	0.0
65	0x00000000	0.0
66	0x00000000	0.0
67	0x00000000	0.0
68	0x00000000	0.0
69	0x00000000	0.0
70	0x00000000	0.0
71	0x00000000	0.0
72	0x00000000	0.0
73	0x00000000	0.0
74	0x00000000	0.0
75	0x00000000	0.0
76	0x00000000	0.0
77	0x00000000	0.0
78	0x00000000	0.0
79	0x00000000	0.0
80	0x00000000	0.0
81	0x00000000	0.0
82	0x00000000	0.0
83	0x00000000	0.0
84	0x00000000	0.0
85	0x00000000	0.0
86	0x00000000	0.0
87	0x00000000	0.0
88	0x00000000	0.0
89	0x00000000	0.0
90	0x00000000	0.0
91	0x00000000	0.0
92	0x00000000	0.0
93	0x00000000	0.0
94	0x00000000	0.0
95	0x00000000	0.0
96	0x00000000	0.0
97	0x00000000	0.0
98	0x00000000	0.0
99	0x00000000	0.0
100	0x00000000	0.0
101	0x00000000	0.0
102	0x00000000	0.0
103	0x00000000	0.0
104	0x00000000	0.0
105	0x00000000	0.0
106	0x00000000	0.0
107	0x00000000	0.0
108	0x00000000	0.0
109	0x00000000	0.0
110	0x00000000	0.0
111	0x00000000	0.0
112	0x00000000	0.0
113	0x00000000	0.0
114	0x00000000	0.0
115	0x00000000	0.0
116	0x00000000	0.0
117	0x00000000	0.0
118	0x00000000	0.0
119	0x00000000	0.0
120	0x00000000	0.0
121	0x00000000	0.0
122	0x00000000	0.0
123	0x00000000	0.0
124	0x00000000	0.0
125	0x00000000	0.0
126	0x00000000	0.0
127	0x00000000	0.0

value_heads.value_heads.extrinsic.weight f4 [1, 128]
0	0xbd180cf0	-0.037121713
1	0xbd5dbfd8	-0.054138035
2	0xbe4506e0	-0.19240904
3	0x3cb295c0	0.021799922
4	0x3e4f2110	0.20227456
5	0xbe153e26	-0.14574489
6	0xbda799bc	-0.081836194
7	0x3de6b25c	0.11264488
8	0x3e2dac50	0.16960263
9	0x3e3fb30a	0.18720642
10	0xbe0f2eb3	-0.13982658
11	0x3de92ccc	0.113854975
12	0x3d678028	0.056518704
13	0x3d799350	0.060931504
14	0xbd5fe2c4	-0.05465962
15	0xbda978a8	-0.082749665
16	0x3e18683c	0.14883512
17	0xbd817b56	-0.063223526
18	0xbdbf1a5e	-0.09331201
19	0x3c4ab860	0.01237306
20	0x3dfe1008	0.124054015
21	0x3cd45d80	0.02592349
22	0x3af5dc80	0.0018757731
23	0x3dd8049c	0.10547754
24	0xbe204d6c	-0.15654534
25	0x3e195be4	0.1497646
26	0x3e5baf3e	0.21453568
27	0x3dd8201c	0.105529994
28	0xbe4877dd	-0.19576974
29	0x3dd16e6c	0.102261394
30	0x3dd0e1a0	0.101992846
31	0xbc942dd8	-0.018088266
32	0x3e2765d8	0.16347444
33	0x3e129662	0.14315179
34	0x3e08bb58	0.13352716
35	0x3e57c506	0.21071252
36	0xbe05c7e6	-0.13064536
37	0xbdd98c87	-0.106225066
38	0x3e1fcc88	0.15605366
39	0xbdf3293f	-0.118731014
40	0xbe14eee8	-0.1454426
41	0x3d8fd83c	0.07023665
42	0x3e32948a	0.17439476
43	0x3d299e60	0.041410804
44	0x3e54768e	0.2074835
45	0x3e0ec9be	0.13944146
46	0x3e0cd6a4	0.13753754
47	0x3e057cde	0.13035914
48	0xbd8306c2	-0.06397773
49	0xbbf732c0	-0.0075438917
50	0x3d062f90	0.032760203
51	0xbd8f0c66	-0.06984787
52	0x3d653e28	0.05596748
53	0xbd19da10	-0.037561476
54	0xbdf6393e	-0.12022637
55	0x3e4dface	0.20115206
56	0x3e5b3958	0.21408594
57	0x3e3e6846	0.18594465
58	0x3e372afa	0.17887488
59	0x3da9bb74	0.08287707
60	0x3e28993c	0.16464704
61	0x3cbd2a40	0.023091435
62	0xbe53bd42	-0.20677665
63	0xbcdb1f60	-0.02674836
64	0xbd211354	-0.039325073
65	0x3e07ccf4	0.13261777
66	0xbdd655f4	-0.10465613
67	0xbe0b3638	-0.13594902
68	0xbdf8793f	-0.12132501
69	0x3c174ce0	0.009234637
70	0x3d42cf68	0.04756108
71	0xbd937508	-0.07200056
72	0xbe1e663d	-0.15468688
73	0x3e304b48	0.17216218
74	0xbdd287bd	-0.10279796
75	0x3ac9d180	0.0015397519
76	0xbd0f9f18	-0.035063833
77	0xbda9fcf8	-0.08300203
78	0xbe159550	-0.1460774
79	0xbd5e4fb0	-0.054275215
80	0xbc284bd0	-0.010271981
81	0x3de287e4	0.11061075
82	0x3e16a8be	0.14712808
83	0xbce9f710	-0.028560191
84	0x3e1553da	0.14582768
85	0xbe369b94	-0.17832786
86	0x3d515560	0.05110681
87	0xbcde3a30	-0.027127355
88	0x3bafd960	0.0053664893
89	0xbc215ee0	-0.00984928
90	0x3d8e76c4	0.069562465
91	0xbdc69b24	-0.096975595
92	0xbdc0f75e	-0.094221815
93	0x3dbc1130	0.09182966
94	0xbdca8545	-0.098887004
95	0xbe45a32c	-0.19300526
96	0x3a388600	0.00070390105
97	0x3e2c1908	0.16806424
98	0xbde4e52e	-0.11176525
99	0x3e2982fa	0.1655387
100	0xbe37e2d4	-0.17957622
101	0x3d8115f8	0.06303018
102	0xbe126fa2	-0.14300397
103	0x3d42fd20	0.04760468
104	0xbdb78026	-0.08959989
105	0x3e51bd70	0.20482421
106	0x3d4ba158	0.049714416
107	0xbe24d294	-0.16095954
108	0x3d933368	0.07187539
109	0xbce217a0	-0.027599156
110	0xba5abf00	-0.0008344501
111	0xbdc8a0a1	-0.097962625
112	0x3def5814	0.116867214
113	0xbcfbb008	-0.030723587
114	0x3cd79098	0.026314065
115	0x3d3f9530	0.046773136
116	0xbbbf8380	-0.0058445334
117	0xbe164f34	-0.14678651
118	0x3e190108	0.149418
119	0x3dac003c	0.08398482
120	0x3e2c58b2	0.1683071
121	0x3e0af0d0	0.13568425
122	0x3e28b33c	0.16474622
123	0xbd2df5ac	-0.04247062
124	0xbcfe1000	-0.031013489
125	0x3dcdcabc	0.10048434
126	0xbe36b402	-0.17842105
127	0xbc677050	-0.0141258985
