results/ppo/My Behaviour/My Behaviour-6692.onnx (onnx, 71103 bytes, 7 tensors)

action_model._continuous_distribution.log_sigma f4 [1, 2]
00000000: 0000 0000 0000 0000
0.0 0.0

action_model._continuous_distribution.mu.bias f4 [2]
00000000: 0000 0000 0000 0000
0.0 0.0

action_model._continuous_distribution.mu.weight f4 [2, 128]
00000000: 3aa4 bcbc 97e4 00bd b769 333b 3f66 683c
00000010: e52d f4bc f496 92bc eb52 903b 0d5e 693c
00000020: 7f8a f4bb 6b42 f73c 60bf 423c 2a62 e6bc
00000030: fb05 f0bb 9f0f a1bc 2026 063c 970c a43c
00000040: 3f29 06bc abbf 6b3b 33b7 0f3c 17d0 ae3c
00000050: 9343 29bd 4f6d cfbc d59f 0cbd 5a39 fd3b
00000060: 6735 0a3c 6b3d 36bb 183e e0bc 4cc3 a8bb
00000070: 8081 a63a cef2 393d 0268 f63b 00b5 4dbc
00000080: b78a 34bc 42be c5bb 7be1 e4ba 263a b2bc
00000090: cb93 93bc e054 c43c e6b0 983b 9224 173d
000000a0: 83d4 cabb 27f8 973a 81d2 0cbc bd93 9e3b
000000b0: 07ac 8f3a 8824 993c bd4c 0dbc 87d5 5cbd
000000c0: b793 a83c bd99 093b 3de3 95bc 57fd 9bbc
000000d0: c6f5 15bd 7db5 cdba 43b3 6f3c 8d90 a6bc
000000e0: 12fc 7d3b 019a 2a3c b5d5 003b c573 893b
000000f0: e7b3 32bc 38fc 0abb 31ee 83bc 8b0e 633c
00000100: c892 7cbc b24c febc 82ee 1abc b228 6fbc
00000110: 2735 bfbc c4d8 00bb 41c5 1f3b 5206 60bc
00000120: 7a90 fcbb 67a4 67bb e8c4 f5b9 9319 2e3c
00000130: cdbe 233c 62f0 f4bc de61 213c 5f1f 8cbc
00000140: 49f3 c4bc db82 973b 9eb6 25bb eba0 e43c
00000150: ce9f 4139 8c30 06bd 7724 063c dd94 573c
00000160: 0dda 483c 24d5 3c3c 80b2 253c ffa8 a13c
00000170: 67e2 a9bc cfeb 74bb 02ec ccbb a21a 44ba
00000180: b3bf 88bc 6ac3 6dbc 8889 59bc 5f97 b5bb
00000190: b22b febc fbc5 2e3c d657 c03c fc7e ccbc
000001a0: 04d2 983b 55ed 04bd 9ab4 603c c73d 47bd
000001b0: 236e 34bc 25a1 e5ba 0b8d b7bb 5f91 85bb
000001c0: 16f3 823c 30f8 f5bb 5776 6c3c 0535 42ba
000001d0: 537c 03bb 8a5b 84bc 6d82 22bb 37ba 05bc
000001e0: 3063 27bd 5760 a1bc 7870 d6bc 3d77 c23c
000001f0: 5a08 763c 5c00 9cb9 1548 9ebc 7785 4a3c
00000200: f23b 003b db00 2bbc af02 f1ba 88e0 eb3b
00000210: 9b48 673c e3df e3bb 7fd7 0c3c 9b3a ae3c
00000220: 92df d73b 4646 9c3c b0cc 4dbc af74 033c
00000230: 6b2f b13c 3bd6 b2ba 5ff4 a53b 8ff6 1a3a
00000240: faf3 87bc 97b8 b9ba d067 b4bb 4bc9 20bc
00000250: 3a8c ebbb 536c fabc 4a48 ecba 5849 e23a
00000260: cab8 6dba 4f1d d63b eff7 94bb cd0c edbb
00000270: faa7 56bb f274 b7bb 5e55 36bb 2ca6 3ebb
00000280: fd45 71bb 62c0 19bc 8dbe 40bc 2a50 ccbc
00000290: f09d 7e3c 31e8 30bc 6f77 7fbc 8a78 febc
000002a0: d7aa 5cbc cb55 e83b a57d 5ebc 40d9 43bc
000002b0: 685e 7c3b bd69 cf3b 5934 c7ba ee9f 02bc
000002c0: 47c5 613c b8ce c3bb 34d0 95bc af48 0f39
000002d0: 3b33 b5bb 4bcf dbbc bfe2 f83b 0bf7 893c
000002e0: 2b34 633c 5d98 a5bc 49ab 423c 71c1 8f3c
000002f0: 6534 5b3c f420 11bd af4c dd3a 9f5e 30bc
00000300: c57f ff3c 5fdd cb3c abfa 903c 5e98 97bc
00000310: 8069 53bd 1d76 0cbc bfc0 e3bb 8cc0 323c
00000320: 12f6 523c 9381 b4b9 6229 5cbb 5f7b 943c
00000330: 2636 a43c 3ab6 3a3b 7b2e 693c 9388 06bc
00000340: a26b 10bc d809 ea3c 0c16 83bc b3c5 2dbc
00000350: 77b3 3bbb be08 bb3b 231e 5c3c 4bdd 763c
00000360: 56d5 8d39 12df d9bc 9294 433c 3fb5 26bb
00000370: 64f9 113c bed6 ca3c a876 623b f88b 82bb
00000380: 12a5 90bc 3fe1 93bc 632a c73c 056d d93c
00000390: b309 4dbc e82a 26bc 3ac0 0e3d dc38 b43c
000003a0: 35ec f93c d675 3ebc d8f4 8abc f3b2 bfbb
000003b0: 7eea 1d3c 5a83 1dbd bc86 96bc 4442 b33c
000003c0: ac5b 49bc 5712 5c3b d98a 1cbc ed61 343b
000003d0: e427 be3b 8860 68bb ab34 4dbc 2f7c 93bc
000003e0: db39 26bc cde0 99bc 00f3 01bc 171d e7bc
000003f0: 208d e3bc d32e 753b 6084 eb3b 2432 a639
-0.023027528 -0.031468 0.0027376243 0.014184534 -0.02980704 -0.017894246 0.004404416 0.014243615
-0.007462799 0.030183038 0.011886448 -0.02812298 -0.0073249317 -0.019660769 0.008187801 0.020025535
-0.008188545 0.0035972397 0.008771705 0.02133946 -0.04132421 -0.025320677 -0.034332115 0.007727784
0.008435584 -0.0027807604 -0.027373359 -0.0051502343 0.0012703389 0.045397572 0.007519723 -0.012555361
-0.0110194 -0.0060346434 -0.0017462218 -0.021756243 -0.01801481 0.023966253 0.00465976 0.03690011
-0.006189884 0.0011594341 -0.00859511 0.004839389 0.0010961302 0.018694177 -0.008624253 -0.053914573
0.020578248 0.0020996176 -0.018296832 -0.0190417 -0.03661134 -0.0015694347 0.014630142 -0.020332599
0.0038754982 0.010412694 0.001965863 0.004194709 -0.01090715 -0.0021207463 -0.01610479 0.013858448
-0.015415855 -0.03104243 -0.009456279 -0.014597105 -0.023340775 -0.0019660452 0.0024379047 -0.013673382
-0.0077076526 -0.0035345794 -0.00046876748 0.010626215 0.009994221 -0.02989978 0.0098499935 -0.017104803
-0.024041789 0.0046237535 -0.002528585 0.027908763 0.00018465446 -0.03276114 0.008187405 0.01315805
0.012259019 0.011525426 0.0101133585 0.019733904 -0.02073784 -0.0037371998 -0.0062537203 -0.0007480775
-0.016692972 -0.014511922 -0.013277419 -0.0055417265 -0.031026695 0.010667319 0.023479383 -0.024962895
0.0046637077 -0.0324529 0.013714934 -0.0486429 -0.011012587 -0.0017519338 -0.0056015304 -0.0040761675
0.015985053 -0.007506393 0.014432511 -0.0007408413 -0.0020063117 -0.01615693 -0.0024796978 -0.008162073
-0.040866077 -0.019699259 -0.026176676 0.023738498 0.01501664 -0.00029754906 -0.01932148 0.012360922
0.001956698 -0.010437216 -0.0018387641 0.007198397 0.014116432 -0.0069541796 0.0085963 0.02126818
0.006587931 0.019076478 -0.012561008 0.008023425 0.021629056 -0.0013644168 0.0050645317 0.0005911374
-0.01659583 -0.0014169392 -0.0055055395 -0.009813617 -0.007188347 -0.030569231 -0.0018026915 0.001726429
-0.0009068368 0.0065342556 -0.0045461576 -0.007234192 -0.003275393 -0.0055986578 -0.002782188 -0.0029090745
-0.0036815398 -0.009384247 -0.011764181 -0.024940569 0.015540585 -0.010797546 -0.01559244 -0.031063337
-0.013468466 0.0070903054 -0.013579761 -0.011953652 0.003850842 0.0063297437 -0.0015198096 -0.0079727005
0.013779945 -0.0059755705 -0.018287756 0.0001366462 -0.005529789 -0.026832243 0.0075953896 0.016841432
0.013867418 -0.020214254 0.011881658 0.017548295 0.013379191 -0.035431817 0.0016883815 -0.010764747
0.031188855 0.024885831 0.017697653 -0.018505272 -0.051614285 -0.008573082 -0.0069504674 0.010910165
0.012876051 -0.00034428816 -0.0033594002 0.018125234 0.020045351 0.0028489963 0.014232273 -0.008211273
-0.008814724 0.028569147 -0.016001724 -0.010606217 -0.0028640905 0.0057078293 0.0134349195 0.015067409
0.00027052563 -0.026595626 0.011937277 -0.002543762 0.008909557 0.0247606 0.0034555588 -0.0039839707
-0.017656837 -0.018051742 0.024312204 0.026541242 -0.0125145195 -0.010142066 0.03485129 0.021999769
0.03050814 -0.011624774 -0.016962454 -0.00585019 0.009638427 -0.038455345 -0.018374793 0.021882184
-0.012289923 0.0033580267 -0.009554588 0.0027524189 0.005803095 -0.0035457928 -0.012524764 -0.018003551
-0.01014563 -0.018783951 -0.007931471 -0.028212113 -0.027777255 0.0037411943 0.007187411 0.00031699345

network_body._body_endoder.seq_layers.0.bias f4 [128]
00000000: 0000 0000 0000 0000 0000 0000 0000 0000
00000010: 0000 0000 0000 0000 0000 0000 0000 0000
00000020: 0000 0000 0000 0000 0000 0000 0000 0000
00000030: 0000 0000 0000 0000 0000 0000 0000 0000
00000040: 0000 0000 0000 0000 0000 0000 0000 0000
00000050: 0000 0000 0000 0000 0000 0000 0000 0000
00000060: 0000 0000 0000 0000 0000 0000 0000 0000
00000070: 0000 0000 0000 0000 0000 0000 0000 0000
00000080: 0000 0000 0000 0000 0000 0000 0000 0000
00000090: 0000 0000 0000 0000 0000 0000 0000 0000
000000a0: 0000 0000 0000 0000 0000 0000 0000 0000
000000b0: 0000 0000 0000 0000 0000 0000 0000 0000
000000c0: 0000 0000 0000 0000 0000 0000 0000 0000
000000d0: 0000 0000 0000 0000 0000 0000 0000 0000
000000e0: 0000 0000 0000 0000 0000 0000 0000 0000
000000f0: 0000 0000 0000 0000 0000 0000 0000 0000
00000100: 0000 0000 0000 0000 0000 0000 0000 0000
00000110: 0000 0000 0000 0000 0000 0000 0000 0000
00000120: 0000 0000 0000 0000 0000 0000 0000 0000
00000130: 0000 0000 0000 0000 0000 0000 0000 0000
00000140: 0000 0000 0000 0000 0000 0000 0000 0000
00000150: 0000 0000 0000 0000 0000 0000 0000 0000
00000160: 0000 0000 0000 0000 0000 0000 0000 0000
00000170: 0000 0000 0000 0000 0000 0000 0000 0000
00000180: 0000 0000 0000 0000 0000 0000 0000 0000
00000190: 0000 0000 0000 0000 0000 0000 0000 0000
000001a0: 0000 0000 0000 0000 0000 0000 0000 0000
000001b0: 0000 0000 0000 0000 0000 0000 0000 0000
000001c0: 0000 0000 0000 0000 0000 0000 0000 0000
000001d0: 0000 0000 0000 0000 0000 0000 0000 0000
000001e0: 0000 0000 0000 0000 0000 0000 0000 0000
000001f0: 0000 0000 0000 0000 0000 0000 0000 0000
0.0 0.0 0.0 0.0 0.0 0.0 0.0 0.0
0.0 0.0 0.0 0.0 0.0 0.0 0.0 0.0
0.0 0.0 0.0 0.0 0.0 0.0 0.0 0.0
0.0 0.0 0.0 0.0 0.0 0.0 0.0 0.0
0.0 0.0 0.0 0.0 0.0 0.0 0.0 0.0
0.0 0.0 0.0 0.0 0.0 0.0 0.0 0.0
0.0 0.0 0.0 0.0 0.0 0.0 0.0 0.0
0.0 0.0 0.0 0.0 0.0 0.0 0.0 0.0
0.0 0.0 0.0 0.0 0.0 0.0 0.0 0.0
0.0 0.0 0.0 0.0 0.0 0.0 0.0 0.0
0.0 0.0 0.0 0.0 0.0 0.0 0.0 0.0
0.0 0.0 0.0 0.0 0.0 0.0 0.0 0.0
0.0 0.0 0.0 0.0 0.0 0.0 0.0 0.0
0.0 0.0 0.0 0.0 0.0 0.0 0.0 0.0
0.0 0.0 0.0 0.0 0.0 0.0 0.0 0.0
0.0 0.0 0.0 0.0 0.0 0.0 0.0 0.0

network_body._body_endoder.seq_layers.0.weight f4 [128, 3]
00000000: 2b82 b13e ff74 1bbf 94c2 253f 6aba ac3d
00000010: b325 17bd 06bc 82bf 6e1a 13bf ca24 15be
00000020: feae b3bf f9d0 2abf 410f aa3e 0be7 9e3e
00000030: 2384 55be 9320 f53d 8c1c 58bf e576 22bf
00000040: a277 a93f 8b6b c8bd 91a4 8b3e a9a5 283f
00000050: 6cf3 3abd ece3 153f 49a6 afbe db4e 1b3e
00000060: 759b acbd b014 fcbe d22c c8bc e27b b4be
00000070: f253 3ebf d517 fd3e 966a 4ebe 8035 933e
00000080: c4a8 a93f 8954 433f fb8e 85bf 9517 5cbe
00000090: 7ac7 ce3e ff3e 9b3e a47a 1e3f cf8f c2be
000000a0: 2ffc 033f 0d5e 093e 719a 88bf 4563 68bf
000000b0: 96b3 d93e 4eba 25be 4ba9 b1bd 46d5 22be
000000c0: 2ce7 e0be 0674 303b 2e0a a5be 19e2 56bf
000000d0: 5444 c93d 256c 97be 584a 91be 5923 35be
000000e0: 9da5 dfbf 1281 bd3f 1679 6c3e f76a dfbe
000000f0: 56fd 863e cdc5 fcbe 0107 d53c 2a9e 453e
00000100: 5484 bb3e 077c e93d 437d 7a3f 9b5c a6be
00000110: ba83 ac3e 877a 563f a19a fd3d 1121 723f
00000120: 0cd0 76bf 3554 eb3e 3a11 6b3e 65fc d03e
00000130: ecc2 55be 65d5 5d3b ba88 823e 0e7e 3cbf
00000140: ad98 4e3e a9ee 7abe db49 c13e c8c3 973d
00000150: e53f a3bd df9a b7bc dbf3 47bf 8874 fd3e
00000160: a7ae 783d ded4 643e aa6f 803f 2789 0bbf
00000170: abce 0cbf dbe9 41bf 97df eebd 376d 6dbf
00000180: 185d 0cbf a3f4 b73d 9fbc 8bbe c8ad 4abf
00000190: b550 c8bd 4938 3a3f bae9 2ebf 7eee febe
000001a0: 0d83 e33e 84fd 5f3f 68f7 f43d c94a dbbe
000001b0: ded2 073e 109b a2be 9726 fcbe a969 2dbf
000001c0: 8d11 1f3f e811 11bf c34f 4dbe 315c e4bf
000001d0: 525b 79bf 7325 e8be 1c1b c53e 3f10 86bd
000001e0: f4d5 563f 2107 683e c11e 0d3f 6e0f 2fbe
000001f0: e673 88be 0d2c a73e c891 96bf 1345 e73c
00000200: c12e 403d ebd4 09be 3bc4 9fbe eef0 4dbe
00000210: 2a6c a7bf 43b5 4abf c2ce 46be 4612 eb3e
00000220: 252b fcbe 3896 e53e 81ee 4a3e fa66 3a3d
00000230: c6af 0f3f fc54 9bbf 5e0f 963e 1bdd c9be
00000240: 52be 91bf dd89 85be f92f bcbe 6ab2 e93e
00000250: 4859 10bf 7a6a 1a3f 0abd b63e 30e8 94be
00000260: 024d bdbf 48b5 c8be 283e b1be db14 06bf
00000270: 3d75 09bf 690b d33f 3ec4 923e 69e9 723f
00000280: 3d92 a8bf cabb 42bf 08c1 96be 199e 98be
00000290: 96de 263f 7109 9ebd daa0 053e 673e 6dbe
000002a0: b58f bb3e 00bd 7bbe ede4 c2bd 02a9 41bd
000002b0: 65b9 393f e71c a4be ec1d 603f 062f 1bbf
000002c0: 8397 dbbe 5633 e33d d136 2bbf 6c74 b53e
000002d0: 62b6 b53e c41a ecbe 2188 eb3e 58e4 203f
000002e0: 8c7a 02bf 1441 c93e 99b7 b83c 766f 7e3f
000002f0: 72b3 2cbe 0494 18bf c5b6 e93e 75a4 3fbd
00000300: 1255 a2bf d9f3 6cbe ce02 01bf 3b36 783f
00000310: d574 183f ead9 27be 251b 8a3d 496b b23e
00000320: 770a 27be adb8 b3bf c06e 00bf 30dd 853e
00000330: 9133 c23e 9fc6 99be e934 5f3d d99f 7abd
00000340: 8321 8abe 7a1d d53e 7ef4 92bd fbda c8be
00000350: ba23 443f c706 ef3e bde5 f6be 556c 843d
00000360: 9ac3 05be 0e00 c3bf 3f43 3e3f 782f 2bbe
00000370: bbee 53bf 6a1d b4be f02f c33e ed21 533f
00000380: d77a 5b3f 2d17 51bf f4e1 d7be 1324 363f
00000390: 6dcf 99be 923b 8bbf 1805 00bf 0c8d 8b3e
000003a0: 7734 113f 1cf2 d23e d6a9 18bf 2d7e 8e3f
000003b0: f652 5c3e 51c8 053f 7b3b 5d3f 9d8b 6d3c
000003c0: 27c8 3b3c 6676 40bf 6e07 073f 0f01 25bf
000003d0: 0a55 62be 3d66 86bd e55c 10bf 7d4f 36bf
000003e0: 57e4 2fbe 26f2 9dbe 2fb4 a13e c062 a1bf
000003f0: 68d0 54ba 1cb6 0e3f 0edb 81be cf4f 823f
0.34669623 -0.60725397 0.6475003 0.08433993 -0.036901187 -1.021363 -0.57462204 -0.14564815
-1.4037778 -0.66725117 0.33214763 0.31035647 -0.20851187 0.11969104 -0.8441856 -0.6346267
1.3239634 -0.09786137 0.27273992 0.6587778 -0.0456423 0.58550906 -0.34306553 0.151668
-0.084280886 -0.49234533 -0.024435434 -0.35250765 -0.7434684 0.49432245 -0.20157847 0.28751755
1.3254628 0.76300865 -1.0434259 -0.21493371 0.40386564 0.303215 0.61905885 -0.38000342
0.51556677 0.13414784 -1.0672132 -0.90776473 0.42519826 -0.16184351 -0.08674868 -0.1590167
-0.4392637 0.0026924624 -0.3223433 -0.8393875 0.09827486 -0.29574695 -0.28377032 -0.17689265
-1.7472416 1.4805014 0.23093066 -0.43636295 0.26365155 -0.4936966 0.026004316 0.19298616
0.36624396 0.114006095 0.97847384 -0.32492527 0.3369425 0.8378071 0.12383009 0.94581705
-0.96411204 0.45962682 0.2295579 0.40817562 -0.20875138 0.0033849117 0.2549494 -0.73629844
0.20175429 -0.24505104 0.3775166 0.07410389 -0.07971171 -0.022412715 -0.7810647 0.4950297
0.060713436 0.22346827 1.0034077 -0.5450615 -0.5500285 -0.7574746 -0.1166374 -0.92744774
-0.5482955 0.089822076 -0.27292344 -0.7917142 -0.09781019 0.72742134 -0.6832539 -0.4979133
0.4443592 0.8749621 0.119612515 -0.42830494 0.13264033 -0.31758928 -0.49248192 -0.6773935
0.62136155 -0.5666795 -0.20049958 -1.7840635 -0.9740497 -0.4534107 0.38497245 -0.065460674
0.83920217 0.2265897 0.5512505 -0.1709573 -0.26650923 0.32650796 -1.1763239 0.02823118
0.046919588 -0.13460128 -0.312044 -0.20111439 -1.3079884 -0.79182833 -0.1941481 0.4591238
-0.49251667 0.4484117 0.19817545 0.045508362 0.56127584 -1.213531 0.293086 -0.39426503
-1.1386206 -0.26081744 -0.3675535 0.45643932 -0.5638623 0.6031872 0.356911 -0.29083395
-1.4789126 -0.39200807 -0.34617734 -0.5237557 -0.53694516 1.6487857 0.28665346 0.94887406
-1.3169628 -0.76067793 -0.29444146 -0.2980812 0.6518339 -0.077166446 0.13049641 -0.23168336
0.36633077 -0.24583817 -0.095163204 -0.04728032 0.72548515 -0.320533 0.8754566 -0.6061863
-0.42889032 0.11093776 -0.6688052 0.35440385 0.3549071 -0.4611417 0.46002296 0.62848425
-0.5096824 0.39307463 0.022548484 0.99388826 -0.16865328 -0.59600854 0.45647255 -0.046787698
-1.2682211 -0.23139895 -0.50394905 0.9695775 0.5955327 -0.16391721 0.06743459 0.34847477
-0.16312586 -1.4040734 -0.5016899 0.26145315 0.37929967 -0.30034348 0.05449382 -0.0611876
-0.26978692 0.4162405 -0.071755394 -0.3922957 0.76617014 0.46684858 -0.4822215 0.06465975
-0.13062897 -1.5234392 0.7432136 -0.16717327 -0.8278615 -0.3517869 0.3812251 0.8247364
0.85734314 -0.8167599 -0.42164576 0.71148795 -0.30041066 -1.0877554 -0.5000777 0.27256048
0.5672068 0.4120034 -0.5963415 1.1132256 0.21516022 0.52258784 0.86418885 0.014498618
0.011461294 -0.7518066 0.5274571 -0.6445474 -0.22102752 -0.06562469 -0.56391746 -0.7121504
-0.17176948 -0.30848807 0.31582782 -1.2608261 -0.0008118213 0.55746627 -0.25362438 1.0180606

network_body._body_endoder.seq_layers.2.bias f4 [128]
00000000: 0000 0000 0000 0000 0000 0000 0000 0000
00000010: 0000 0000 0000 0000 0000 0000 0000 0000
00000020: 0000 0000 0000 0000 0000 0000 0000 0000
00000030: 0000 0000 0000 0000 0000 0000 0000 0000
00000040: 0000 0000 0000 0000 0000 0000 0000 0000
00000050: 0000 0000 0000 0000 0000 0000 0000 0000
00000060: 0000 0000 0000 0000 0000 0000 0000 0000
00000070: 0000 0000 0000 0000 0000 0000 0000 0000
00000080: 0000 0000 0000 0000 0000 0000 0000 0000
00000090: 0000 0000 0000 0000 0000 0000 0000 0000
000000a0: 0000 0000 0000 0000 0000 0000 0000 0000
000000b0: 0000 0000 0000 0000 0000 0000 0000 0000
000000c0: 0000 0000 0000 0000 0000 0000 0000 0000
000000d0: 0000 0000 0000 0000 0000 0000 0000 0000
000000e0: 0000 0000 0000 0000 0000 0000 0000 0000
000000f0: 0000 0000 0000 0000 0000 0000 0000 0000
00000100: 0000 0000 0000 0000 0000 0000 0000 0000
00000110: 0000 0000 0000 0000 0000 0000 0000 0000
00000120: 0000 0000 0000 0000 0000 0000 0000 0000
00000130: 0000 0000 0000 0000 0000 0000 0000 0000
00000140: 0000 0000 0000 0000 0000 0000 0000 0000
00000150: 0000 0000 0000 0000 0000 0000 0000 0000
00000160: 0000 0000 0000 0000 0000 0000 0000 0000
00000170: 0000 0000 0000 0000 0000 0000 0000 0000
00000180: 0000 0000 0000 0000 0000 0000 0000 0000
00000190: 0000 0000 0000 0000 0000 0000 0000 0000
000001a0: 0000 0000 0000 0000 0000 0000 0000 0000
000001b0: 0000 0000 0000 0000 0000 0000 0000 0000
000001c0: 0000 0000 0000 0000 0000 0000 0000 0000
000001d0: 0000 0000 0000 0000 0000 0000 0000 0000
000001e0: 0000 0000 0000 0000 0000 0000 0000 0000
000001f0: 0000 0000 0000 0000 0000 0000 0000 0000
0.0 0.0 0.0 0.0 0.0 0.0 0.0 0.0
0.0 0.0 0.0 0.0 0.0 0.0 0.0 0.0
0.0 0.0 0.0 0.0 0.0 0.0 0.0 0.0
0.0 0.0 0.0 0.0 0.0 0.0 0.0 0.0
0.0 0.0 0.0 0.0 0.0 0.0 0.0 0.0
0.0 0.0 0.0 0.0 0.0 0.0 0.0 0.0
0.0 0.0 0.0 0.0 0.0 0.0 0.0 0.0
0.0 0.0 0.0 0.0 0.0 0.0 0.0 0.0
0.0 0.0 0.0 0.0 0.0 0.0 0.0 0.0
0.0 0.0 0.0 0.0 0.0 0.0 0.0 0.0
0.0 0.0 0.0 0.0 0.0 0.0 0.0 0.0
0.0 0.0 0.0 0.0 0.0 0.0 0.0 0.0
0.0 0.0 0.0 0.0 0.0 0.0 0.0 0.0
0.0 0.0 0.0 0.0 0.0 0.0 0.0 0.0
0.0 0.0 0.0 0.0 0.0 0.0 0.0 0.0
0.0 0.0 0.0 0.0 0.0 0.0 0.0 0.0

network_body._body_endoder.seq_layers.2.weight f4 [128, 128]
00000000: 9e39 02bd dd67 a2bd ea01 183d dff8 0fbe
00000010: 255e a73c 80e7 28bd 5ac7 1dbe ef58 a3bd
00000020: 7b6b debd 2cd6 e83b 30f1 f3bd 9b8d febb
00000030: 7956 acbd 9ad8 da3d 3459 e53c 019d 2a3d
00000040: f126 8d3c 5fdc f63c 3bf2 93bd de3a 2d3e
00000050: 1a2f 183d a0e7 713d c48a d53d 06f2 a8bc
00000060: ae6e ab3c 0525 763d be18 803d 44bf 1bbd
00000070: 043f 1f3e 5d24 c43c ecb2 823d 632a acbd
00000080: e5ec 8cba 1425 4c3d de8e 9cbd de40 bbbd
00000090: 853b b23d 3b94 253d 4b1a 893d 93d7 823c
000000a0: 241a c43c 7d42 ddbd e0d5 13bd 95ec 37bd
000000b0: 2523 6dbc 93cf d03c 9c90 403d a51a e5bc
000000c0: 5e89 793d d08c 25be 2bda c5bd 6a27 a5bd
000000d0: 69ef 563d 4c44 e53d 5e3d 7e3c 81c0 65bd
000000e0: 28eb 873d cdf9 363c 83ba 043e bdf5 c4bc
000000f0: ccc7 f33d 316f 6e3d c9f0 f5bc f55a 103e
00000100: 40cc 323d bf9f e8bd e057 95bd 2920 193d
00000110: 438f bf3d 26ad 213d 9cf7 3cbd c671 893d
00000120: ff87 a5bd 339b f8bd 2777 263d 3ef2 53bd
00000130: 8600 5f3d a72f 0e3d 354a 1dbe 0ebb 023c
00000140: 0044 963d da50 c83c 12bd 3f3d 8603 a9bc
00000150: db9a 9dbd b23f 36bd e9b8 9f3d 3574 8a3c
00000160: ee45 aabd 9e65 febd f3ab 8a3d 600a cebd
00000170: 4a36 f53d 30c5 ca3d 03f2 c2bd 62d4 0fbd
00000180: da6e 663c bb2e e63d 2efe eebc 64c3 d7bd
00000190: 0346 4fbc cacf 04be f63e 193d 9b54 96bb
000001a0: cf3d 7a3d a78a c2bc 6661 0b3d e3e1 3b3e
000001b0: f834 563c e9ae 043d db73 48bc a74e 13bd
000001c0: 13db 05be af61 9f3d b103 e03d 2be0 11bd
000001d0: 13bf 60bd 5630 00be 6cf4 09bd cbe1 103d
000001e0: fe35 18be 4f9d 163d 8092 07bd b697 c73b
000001f0: 5836 07bd 3f32 023e 5f16 8b3c 0a41 e33d
00000200: 8e8f fd3c 8ff8 f9bd 3c38 dc3c caf7 8c3d
00000210: e7e8 9ebd a30f 003e d965 1dbd 497e 84bd
00000220: d57c 003d fe12 18be 06b3 a3bc 157a 8e3d
00000230: d1d9 033d 0f7c 90bd 07e6 2bbc 015c 65bc
00000240: 31c5 803d a53a 8ebd 96d7 c03d fc28 823e
00000250: ac15 cb3c 68e5 38be d8e6 283d 1020 a1bc
00000260: b2a6 9b3d 0306 1f3d 2ff1 a3ba aae7 98bd
00000270: 9bd8 7fbd e70f be3c 5a65 8e3d 3297 333d
00000280: 7176 2a3b 9d14 9bbd 1445 323d abb4 663e
00000290: 9b1c c7bd e59a 1b3d 9cc4 73bd 5839 0ebe
000002a0: a227 e43d 721c 5d3d 2002 803c fc38 a7bc
000002b0: ea11 5c3e cdd1 493d aa8f 06bc 1106 3b3d
000002c0: 9516 a53c 6034 0bbe 8739 0dbd 2456 7abd
000002d0: 3e21 e43c 5144 6dbd 27d6 68bc 7d65 e63c
000002e0: cf6f 7c3c 3ddf 3bbe 29a3 e23d 1081 713d
000002f0: 232a af3d a8d9 e1bb 414a 973d 5fd1 2dbc
00000300: 5456 5dbe 8b45 47bd 6953 6ebd 69cd f33d
00000310: 9615 dcb9 60e6 123d 8ef7 1ebc ba39 b33d
00000320: 9691 dabd 3d63 7abd c004 38bd 6b45 053d
00000330: 4532 b03c f3f1 d9bd e8b7 c4bd 24e7 583d
00000340: 7d50 b83b 9d5c b53d eb63 80bd 2ba1 7cbc
00000350: dd71 6d3c 9a73 3d3e d6d7 babd a24e ddbd
00000360: ed3c 103e 030e 9d3d 0019 e5bc c450 a23d
00000370: c783 a6bd 49f1 97bc 660a 793d a965 68bd
00000380: 4ec2 ef3d 0776 2b3d 6f72 85bc 5d2b 42bd
00000390: 33da 7abb c0f9 42bd 3c49 ccbb c367 563d
000003a0: 6a3c 953d 440f 9b3c 77c3 583d d9e1 563b
000003b0: 3b15 493d f994 393d 950d 1a3d 4246 8bbd
000003c0: 3184 7fbd 7887 acbd 40c4 65bd d323 03be
000003d0: 3cbd 683d 4317 043d b250 9cbc 339c aabc
000003e0: 9a9e 393e f81f 50bc 788a bf3d a372 453d
000003f0: b5cc 14be edc5 133d 1da6 1c3c 8aed fe3d
-0.03179323 -0.079299666 0.0371112 -0.1405978 0.020430634 -0.0412364 -0.15408078 -0.07975947
-0.10860344 0.0071056094 -0.11911237 -0.0077683455 -0.08414931 0.10685845 0.027996637 0.041653637
0.017230483 0.030134378 -0.07223936 0.16916987 0.037154295 0.059058785 0.10426858 -0.020623218
0.0209268 0.0600939 0.06254719 -0.038024202 0.15551382 0.02394312 0.06381783 -0.08406522
-0.0010751752 0.049840048 -0.07644437 -0.09143232 0.08702759 0.040424567 0.06694468 0.015971934
0.023938246 -0.10803697 -0.03609264 -0.044903357 -0.014473711 0.025489604 0.04701291 -0.027966807
0.06092202 -0.16166997 -0.09660753 -0.08064158 0.052474413 0.11194667 0.015517561 -0.05609179
0.06636649 0.011167956 0.12961774 -0.024042958 0.119033426 0.05821151 -0.030022042 0.14097197
0.04365182 -0.11358594 -0.072921515 0.037384186 0.09353497 0.039471768 -0.046134576 0.06711154
-0.0808258 -0.12138977 0.040640976 -0.051744692 0.05444386 0.034713414 -0.15360339 0.007979168
0.07337189 0.024452616 0.04681117 -0.020631563 -0.07695552 -0.04449434 0.07798941 0.016901115
-0.08314119 -0.12421726 0.06771078 -0.100605726 0.119732454 0.09900892 -0.09518816 -0.035114653
0.014064515 0.11239382 -0.029173937 -0.10535315 -0.012650969 -0.1296989 0.03741356 -0.0045877225
0.0610941 -0.023747755 0.034028433 0.18347888 0.013074152 0.03239337 -0.012234653 -0.03596368
-0.13071851 0.077823035 0.10938204 -0.035614174 -0.054869723 -0.12518439 -0.033680364 0.035371583
-0.14864346 0.036771115 -0.033098698 0.0060910834 -0.03301081 0.1271448 0.01697844 0.110963896
0.030952241 -0.12205612 0.026882283 0.068831995 -0.07759266 0.12505965 -0.038427208 -0.064693995
0.03136905 -0.14850995 -0.019982826 0.06956879 0.032190148 -0.07054912 -0.0104918545 -0.013998986
0.06287611 -0.06944779 0.0941612 0.25421894 0.024790607 -0.18056262 0.041235775 -0.019668609
0.07600154 0.038824093 -0.0012507791 -0.074660614 -0.06246243 0.023200942 0.06952925 0.043845363
0.0026010538 -0.07572291 0.04352291 0.22529857 -0.09722253 0.037989516 -0.059513673 -0.13889062
0.11140372 0.053982206 0.015626013 -0.020412914 0.21491209 0.049272347 -0.008212963 0.045660082
0.02015237 -0.13594198 -0.03447869 -0.061117306 0.027847882 -0.05792648 -0.014211214 0.028124565
0.015407517 -0.18346877 0.110662766 0.058960974 0.08552959 -0.0068924017 0.0738721 -0.010609
-0.21614963 -0.048650306 -0.058185015 0.11904413 -0.00041977753 0.035864234 -0.009702576 0.08751245
-0.106722996 -0.061129797 -0.044926405 0.032536905 0.021508345 -0.10641851 -0.0960539 0.052954808
0.0056248293 0.08855555 -0.06269058 -0.015419285 0.014492479 0.1850113 -0.09123199 -0.10806014
0.14085741 0.07668688 -0.027966022 0.07925561 -0.08130603 -0.01854767 0.060800932 -0.056737576
0.117069826 0.041860607 -0.016289918 -0.047404636 -0.003827703 -0.04760146 -0.006234316 0.05234505
0.07286914 0.018928178 0.052920785 0.0032788424 0.049092513 0.045308087 0.03761061 -0.0680051
-0.062381927 -0.08424276 -0.05609536 -0.12806635 0.056821093 0.032248747 -0.019081447 -0.020826435
0.18126908 -0.012702934 0.09352583 0.04820503 -0.14531215 0.03607743 0.009561089 0.12447651
