results/ppo/My Behaviour/My Behaviour-7864.pt (torch, 148239 bytes, 12 tensors)

network_body._body_endoder.seq_layers.0.weight f4 [128, 5]
0.114758015 -0.5275074 0.25212845 -0.53587025 -0.051813327 0.06104492 -0.6357498 0.74493736
0.06992294 0.20503923 0.14028811 0.35159978 -0.07508198 0.6889202 0.48106742 0.32711476
-0.35583732 0.09390109 -0.15534545 -0.91690755 0.2558492 0.9527036 0.47065115 -0.11596112
-0.08606359 0.46347067 0.14457889 0.93563366 0.54937637 0.13803715 0.25881535 0.27315474
-0.36358395 -0.047367513 0.21532653 0.56053156 0.030811952 0.9040534 -0.31702885 0.3713036
-0.04414591 -0.5269856 -0.47523865 -0.84427047 -0.84994537 -0.26132327 0.6556928 -0.03165161
-0.19495097 0.38387504 0.44588834 0.24398275 0.9883042 -0.18369864 0.10038757 0.306326
-0.23188749 -0.20475656 -0.1324837 0.44323045 0.5672324 0.124146275 0.7691791 -0.8612435
0.074721366 -0.23128301 0.0015218243 0.7555553 -0.47863874 -0.5089944 -0.03482361 -0.3431763
-1.1897979 0.61137027 0.8757835 -0.09102592 0.80994433 -1.2786078 -0.59623 -0.14069669
-0.19851173 0.66375345 0.09272476 0.4021732 0.4537127 0.15818204 0.6809047 0.22743931
0.40913397 -0.36206567 -0.112682596 0.40809342 -1.1837084 0.19012536 0.19896209 -0.7832246
-0.004104784 -0.68405735 0.019419119 -0.98425907 -0.3979905 0.3946931 0.18985939 0.6167139
0.25352767 -0.0038564107 -0.7564775 0.06557237 -0.4351526 -0.84686714 0.40148348 0.5091846
0.33729076 -0.5013119 0.28019542 -0.05291819 -0.04631274 -0.47573915 0.38296953 0.45410812
0.11355817 -0.09448041 0.81470305 -0.32183227 0.10694956 0.6394846 -0.5990776 0.16270334
-0.1882281 -0.17464627 -0.7236548 -0.20979898 -0.34992555 -0.03716023 1.1338013 0.68644184
-0.62765884 -0.82685894 -0.4419436 0.6242539 -0.04892754 -1.298079 -0.13662438 0.055177387
0.48692447 -1.2015606 -0.7806582 -0.1858346 -0.21788484 0.2246263 0.55986196 0.16868426
-0.06493505 0.6394927 -0.49415183 0.14910963 0.8523769 -0.15200071 -0.15109394 -0.07664224
0.47693297 -0.0725561 -0.15698981 0.015394522 0.68100226 0.22555399 -0.12445676 0.7589221
-0.13214825 -0.013765723 0.25207135 -0.7307599 0.0015728353 0.7139319 0.33755264 0.42420962
-0.04890698 -0.14077152 -0.207903 -0.18104933 -0.19984315 0.3453857 -0.3388721 0.51485837
0.32695752 -0.37963322 -1.0170182 -0.2613565 0.8876431 0.4408265 0.50375175 0.51692265
0.8163988 -0.114935905 0.27662736 0.10196182 0.14488462 -0.57328486 0.026130846 0.21836342
-1.0499066 -0.15516852 0.50648165 -0.025663791 -0.42838836 -0.9403659 -0.45298553 0.0614504
0.11999644 -0.12268358 0.020827077 -0.957053 -0.1552246 0.3911442 -0.05192681 -0.22112018
-0.40409657 0.59734315 -0.34180006 -0.21149188 -0.4465047 0.08473287 -0.14291178 0.3367943
-0.8236496 0.25569162 -1.1750926 0.20636995 -0.12076544 -0.7092936 -0.25380382 -0.15623143
0.4988972 0.08020591 0.37272862 -0.46318218 0.49896762 0.08330914 0.3313532 0.2234177
-0.61015373 -0.17331819 0.737404 -0.40417063 -0.55795974 -0.32030553 -0.3229696 0.66498965
0.3120675 0.039138697 -0.00812301 0.44163382 -0.77485704 0.7908751 0.31809267 0.16455404
00000000: 4006 eb3d ba0a 07bf fb16 813e cb2e 09bf
00000010: 363a 54bd 3d0a 7a3d 80c0 22bf 37b4 3e3f
00000020: c233 8f3d cef5 513e b0a7 0f3e e304 b43e
00000030: 95c4 99bd 135d 303f 784e f63e 967b a73e
00000040: 4f30 b6be 374f c03d e112 1fbe 74ba 6abf
00000050: abfe 823e 62e4 733f 30f9 f03e 067d edbd
00000060: 1c42 b0bd 074c ed3e 7d0c 143e b085 6f3f
00000070: eea3 0c3f 9c59 0d3e 7283 843e f0da 8b3e
00000080: ad27 babe 7004 42bd 8f7e 5c3e ff7e 0f3f
00000090: 5969 fc3c 0b70 673f 9b51 a2be 811b be3e
000000a0: 57d2 34bd 87e8 06bf 7b52 f3be 1c22 58bf
000000b0: 0596 59bf 2acc 85be 7cdb 273f 1ea5 01bd
000000c0: 3aa1 47be 458b c43e 7a4b e43e 9dd6 793e
000000d0: 8101 7d3f 7f1b 3cbe 0098 cd3d c3d6 9c3e
000000e0: ea73 6dbe b4ab 51be cfa9 07be 1aef e23e
000000f0: 2436 113f 6740 fe3d ece8 443f 747a 5cbf
00000100: 8407 993d 74d5 6cbe f377 c73a 126c 413f
00000110: 2310 f5be 754d 02bf 34a3 0ebd ceb4 afbe
00000120: 4c4b 98bf c382 1c3f 5933 603f cc6b babd
00000130: 8358 4f3f 6ca9 a3bf 87a2 18bf cb12 10be
00000140: a946 4bbe bfeb 293f 7be6 bd3d a5e9 cd3e
00000150: 084d e83e 79fa 213e c54f 2e3f dae5 683e
00000160: 027a d13e ac60 b9be 22c6 e6bd 9ff1 d03e
00000170: c283 97bf 39b0 423e b8bc 4b3e 6881 48bf
00000180: 6d81 86bb 621e 2fbf d814 9f3c 67f8 7bbf
00000190: 69c5 cbbe 3715 ca3e 806a 423e f6e0 1d3f
000001a0: 61ce 813e d6bb 7cbb 82a8 41bf cf4a 863d
000001b0: 52cc debe 49cc 58bf 3e8f cd3e ec59 023f
000001c0: 60b1 ac3e fa55 00bf c675 8f3e bec0 58bd
000001d0: 6db2 3dbd 1594 f3be 9514 c43e dc80 e83e
000001e0: 3091 e83d f27e c1bd 6190 503f 33c7 a4be
000001f0: 5f08 db3d 43b5 233f 265d 19bf b49b 263e
00000200: debe 40be 79d6 32be 7141 39bf 8bd5 56be
00000210: 7129 b3be 5335 18bd 6720 913f a7ba 2f3f
00000220: 40ae 20bf 07ad 53bf 6e46 e2be 1bcf 1f3f
00000230: 3f68 48bd 7427 a6bf 43e7 0bbe af01 623d
00000240: 2a4e f93e bdcc 99bf 37d9 47bf 6d4b 3ebe
00000250: 341d 5fbe 7004 663e 1d53 0f3f 91bb 2c3e
00000260: abfc 84bd cbb5 233f 7801 fdbe 32b0 183e
00000270: 5f35 5a3f 13a6 1bbe 5fb8 1abe 9bf6 9cbd
00000280: 8f30 f43e 4b98 94bd f0c1 20be 4e39 7c3c
00000290: 2a56 2e3f a0f7 663e 30e3 febd b848 423f
000002a0: df51 07be a189 61bc 7f0f 813e 1513 3bbf
000002b0: 9827 ce3a 3ec4 363f b3d3 ac3e 0132 d93e
000002c0: af52 48bd 6926 10be 86e4 54be ff64 39be
000002d0: afa3 4cbe 65d6 b03e a580 adbe c2cd 033f
000002e0: fa66 a73e 495f c2be a72d 82bf 85d0 85be
000002f0: 943c 633f 03b4 e13e e0f5 003f 0b55 043f
00000300: 83ff 503f 8463 ebbd 1aa2 8d3e 5cd1 d03d
00000310: a25c 143e ccc2 12bf 5b10 d63c a99a 5f3e
00000320: 5763 86bf 7fe4 1ebe c8a8 013f df3c d2bc
00000330: b855 dbbe d2bb 70bf b8ed e7be 6ab3 7b3d
00000340: b2c0 f53d 8741 fbbd 8c9d aa3c 6d01 75bf
00000350: 33f3 1ebe 0d44 c83e 35b1 54bd 546d 62be
00000360: bfe5 cebe 7beb 183f 6b00 afbe 5491 58be
00000370: 449c e4be 6d88 ad3d 7757 12be 4d70 ac3e
00000380: b3da 52bf 03ea 823e 6f69 96bf a552 533e
00000390: df53 f7bd 4494 35bf 93f2 81be 22fb 1fbe
000003a0: 746f ff3e ff42 a43d 49d6 be3e 3726 edbe
000003b0: af78 ff3e fb9d aa3d 20a7 a93e 9cc7 643e
000003c0: 0933 1cbf 537a 31be 82c6 3c3f 74ef cebe
000003d0: 73d6 0ebf 16ff a3be 455c a5be c33c 2a3f
000003e0: 50c7 9f3e e64f 203d 6016 05bc d41d e23e
000003f0: 085d 46bf ca76 4a3f 0bdd a23e db80 283e

network_body._body_endoder.seq_layers.0.bias f4 [128]
0.0 0.0 0.0 0.0 0.0 0.0 0.0 0.0
0.0 0.0 0.0 0.0 0.0 0.0 0.0 0.0
0.0 0.0 0.0 0.0 0.0 0.0 0.0 0.0
0.0 0.0 0.0 0.0 0.0 0.0 0.0 0.0
0.0 0.0 0.0 0.0 0.0 0.0 0.0 0.0
0.0 0.0 0.0 0.0 0.0 0.0 0.0 0.0
0.0 0.0 0.0 0.0 0.0 0.0 0.0 0.0
0.0 0.0 0.0 0.0 0.0 0.0 0.0 0.0
0.0 0.0 0.0 0.0 0.0 0.0 0.0 0.0
0.0 0.0 0.0 0.0 0.0 0.0 0.0 0.0
0.0 0.0 0.0 0.0 0.0 0.0 0.0 0.0
0.0 0.0 0.0 0.0 0.0 0.0 0.0 0.0
0.0 0.0 0.0 0.0 0.0 0.0 0.0 0.0
0.0 0.0 0.0 0.0 0.0 0.0 0.0 0.0
0.0 0.0 0.0 0.0 0.0 0.0 0.0 0.0
0.0 0.0 0.0 0.0 0.0 0.0 0.0 0.0
00000000: 0000 0000 0000 0000 0000 0000 0000 0000
00000010: 0000 0000 0000 0000 0000 0000 0000 0000
00000020: 0000 0000 0000 0000 0000 0000 0000 0000
00000030: 0000 0000 0000 0000 0000 0000 0000 0000
00000040: 0000 0000 0000 0000 0000 0000 0000 0000
00000050: 0000 0000 0000 0000 0000 0000 0000 0000
00000060: 0000 0000 0000 0000 0000 0000 0000 0000
00000070: 0000 0000 0000 0000 0000 0000 0000 0000
00000080: 0000 0000 0000 0000 0000 0000 0000 0000
00000090: 0000 0000 0000 0000 0000 0000 0000 0000
000000a0: 0000 0000 0000 0000 0000 0000 0000 0000
000000b0: 0000 0000 0000 0000 0000 0000 0000 0000
000000c0: 0000 0000 0000 0000 0000 0000 0000 0000
000000d0: 0000 0000 0000 0000 0000 0000 0000 0000
000000e0: 0000 0000 0000 0000 0000 0000 0000 0000
000000f0: 0000 0000 0000 0000 0000 0000 0000 0000
00000100: 0000 0000 0000 0000 0000 0000 0000 0000
00000110: 0000 0000 0000 0000 0000 0000 0000 0000
00000120: 0000 0000 0000 0000 0000 0000 0000 0000
00000130: 0000 0000 0000 0000 0000 0000 0000 0000
00000140: 0000 0000 0000 0000 0000 0000 0000 0000
00000150: 0000 0000 0000 0000 0000 0000 0000 0000
00000160: 0000 0000 0000 0000 0000 0000 0000 0000
00000170: 0000 0000 0000 0000 0000 0000 0000 0000
00000180: 0000 0000 0000 0000 0000 0000 0000 0000
00000190: 0000 0000 0000 0000 0000 0000 0000 0000
000001a0: 0000 0000 0000 0000 0000 0000 0000 0000
000001b0: 0000 0000 0000 0000 0000 0000 0000 0000
000001c0: 0000 0000 0000 0000 0000 0000 0000 0000
000001d0: 0000 0000 0000 0000 0000 0000 0000 0000
000001e0: 0000 0000 0000 0000 0000 0000 0000 0000
000001f0: 0000 0000 0000 0000 0000 0000 0000 0000

network_body._body_endoder.seq_layers.2.weight f4 [128, 128]
-0.0393563 -0.08350175 0.061512623 0.045223996 0.2020853 0.058140866 -0.041583013 -0.07993694
-0.22090067 -0.03896228 -0.103024796 0.020647863 0.09834971 -0.05224509 0.029057315 -0.10567357
-0.16647752 0.03439466 0.092221715 -0.013615327 -0.16087559 0.023350786 -0.1269913 0.034206804
-0.087504454 -0.09611536 -0.10115129 0.00091940607 -0.066143796 0.033152167 -0.018558674 0.034945156
-0.07039857 -0.13079685 -0.023647215 -0.09251783 0.010879295 0.1164262 -0.053746358 -0.076300494
-0.07688677 -0.047397383 -0.0018032669 -0.024115482 -0.13202319 0.06511519 -0.029224768 -0.08246879
-0.029902952 -0.04980288 0.0863947 0.029692857 0.03374846 0.08223011 -0.08346867 0.10115286
0.017039571 0.08458747 0.08905721 0.046956424 0.004648006 -0.1523504 0.010921784 -0.10402814
-0.03845776 0.15273933 0.09000228 -0.04455138 -0.019369306 -0.06620336 0.1072149 -0.049192477
-0.091370195 -0.08920079 0.03665378 -0.023943394 -0.14600722 0.052995935 -0.076264575 0.15187362
0.10675098 -0.056509007 -0.033655662 0.032764807 0.050636757 0.059010983 0.16450164 0.17766853
0.19795989 -0.03372888 0.14067191 0.060162902 -0.06784073 -0.07070903 0.059762407 -0.06395091
-0.060564663 0.004486962 -0.040134642 -0.06323178 0.045877423 0.060272433 -0.25906503 -0.08202334
-0.06629239 -0.008827508 0.065906994 0.061606463 -0.002293987 0.0025924174 -0.11514538 0.04643956
-0.021733426 0.16494654 0.04375507 0.14429718 0.036296852 0.02039075 -0.09567383 0.113612585
-0.027728803 0.002092818 0.06600908 0.0060550375 -0.012631174 -0.036020536 -0.07013728 0.039241392
0.013313756 -0.23614657 0.0707647 -0.06342357 -0.09970115 0.00062669767 -0.058163688 0.074972935
0.15287851 -0.14267343 0.031846512 -0.050166275 -0.012459958 -0.11016457 -0.085803926 0.050439678
0.12310408 -0.123128496 -0.055019118 0.12048891 0.17153393 -0.049561404 0.07375499 -0.118835494
0.038967036 -0.033065915 0.06952955 -0.01318608 0.09903522 0.031834483 0.12271467 -0.01774241
-0.100652345 -0.022182344 -0.024477005 -0.10752015 0.023579504 -0.14021376 0.10777565 -0.03325107
-0.09199416 -0.054621186 0.036698446 -0.0018426911 -0.023164561 0.014636486 -0.064673 -0.06615144
0.16937988 0.0064321253 0.024069093 -0.1003664 -0.093818806 -0.044774204 0.039025977 -0.06289091
-0.0374819 -0.06759165 -0.006025543 0.039059445 0.11319966 0.16206749 0.038171366 0.069010355
-0.045198474 0.031960975 -0.03736838 0.044609968 -0.23517677 0.122789666 -0.019827943 0.08530783
0.023672042 0.17148829 -0.08422901 -0.08600388 -0.092021264 -0.14956014 -0.090333275 -0.0235942
0.015262438 0.03150635 -0.109965235 0.06296864 -0.09363336 0.004903358 -0.17411567 -0.057316564
-0.11165377 0.18665574 -0.098212555 0.05651188 -0.06238837 -0.013274129 0.024122544 0.0069290246
0.09886601 0.22324713 0.07750948 -0.010310952 -0.12809579 -0.005815156 0.055971753 -0.018609105
0.03098709 -0.15342355 -0.09342194 -0.14080305 0.09527534 -0.04124849 0.08840869 -0.013220202
0.15109412 -0.08451101 -0.013675914 0.10146201 -0.12370057 -0.17653063 0.08653783 0.036292512
0.10597991 0.11716701 0.10646477 -0.12825495 -0.067038976 0.07935968 0.05745316 0.05106543
00000000: 1234 21bd f702 abbd a9f4 7b3d cc3c 393d
00000010: 73ef 4e3e 1e25 6e3d f352 2abd fab5 a3bd
00000020: c933 62be e996 1fbd aafe d2bd b525 a93c
00000030: 936b c93d f3fe 55bd 9b09 ee3c 626b d8bd
00000040: 1579 2abe 6ae1 0c3d bdde bc3d d212 5fbc
00000050: 92bc 24be 264a bf3c 020a 02be 6f1c 0c3d
00000060: 8935 b3bd 21d8 c4bd 6828 cfbd 4c04 713a
00000070: 6676 87bd 91ca 073d 5c08 98bc a722 0f3d
00000080: 202d 90bd 9cef 05be ceb7 c1bc fd79 bdbd
00000090: 123f 323c dc70 ee3d 2425 5cbd 6f43 9cbd
000000a0: d076 9dbd c223 42bd 995b ecba d58d c5bc
000000b0: 1631 07be 1d5b 853d c868 efbc 66e5 a8bd
000000c0: 09f7 f4bc 1bfe 4bbd b4ef b03d 6f3e f33c
000000d0: d33b 0a3d 4368 a83d 9ff1 aabd 3b29 cf3d
000000e0: 9296 8b3c 323c ad3d a063 b63d 6155 403d
000000f0: 4d4e 983b be01 1cbe 48f1 323c b50c d5bd
00000100: e285 1dbd b367 1c3e 1e53 b83d 827b 36bd
00000110: 61ac 9ebc a195 87bd 7c93 db3d 0d7e 49bd
00000120: 4c20 bbbd e7ae b6bd 4622 163d f024 c4bc
00000130: eb82 15be 4412 593d 9a30 9cbd c284 1b3e
00000140: 42a0 da3d fd75 67bd 85da 09bd 6434 063d
00000150: 7d68 4f3d 80b5 713d 1e73 283e bdee 353e
00000160: ffb5 4a3e 4b27 0abd 4c0c 103e 606d 763d
00000170: 15f0 8abd e5cf 90bd 6dc9 743d b2f8 82bd
00000180: a712 78bd 5e07 933b 3964 24bd aa7f 81bd
00000190: f7e9 3b3d 3ae0 763d 2ca4 84be dafb a7bd
000001a0: 4ec4 87bd 41a1 10bc 3ffa 863d 0f57 7c3d
000001b0: b756 16bb 8ce5 293b 57d1 ebbd 6837 3e3d
000001c0: 4c0a b2bc bfe7 283e 8438 333d a4c2 133e
000001d0: 02ac 143d 810a a73c a4f0 c3bd b7ad e83d
000001e0: 8427 e3bc a927 093b c52f 873d 5669 c63b
000001f0: fcf2 4ebc 458a 13bd 22a4 8fbd 95bb 203d
00000200: f121 5a3c 68d0 71be 15ed 903d 37e4 81bd
00000210: 1e30 ccbd f848 243a 0c3d 6ebd 698b 993d
00000220: 2f8c 1c3e fc18 12be 7d71 023d 277b 4dbd
00000230: da24 4cbc f69d e1bd f8b9 afbd d699 4e3d
00000240: fe1d fc3d cb2a fcbd ba5b 61bd e4c2 f63d
00000250: 97a6 2f3e e600 4bbd db0c 973d 0660 f3bd
00000260: e69b 1f3d 2070 07bd 8265 8e3d 6e0a 58bc
00000270: fad2 ca3d e064 023d d451 fb3d 8858 91bc
00000280: d122 cebd bfb7 b5bc 0084 c8bc 8633 dcbd
00000290: ce29 c13c 3294 0fbe 7bb9 dc3d 4632 08bd
000002a0: 6f67 bcbd 77ba 5fbd 1c51 163d 7486 f1ba
000002b0: 9bc3 bdbc dfcd 6f3c 4773 84bd 687a 87bd
000002c0: eb71 2d3e 94c4 d23b 8c2c c53c e68c cdbd
000002d0: 1324 c0bd 2865 37bd b4d9 1f3d f3cc 80bd
000002e0: 9f86 19bd 7e6d 8abd eb71 c5bb ccfc 1f3d
000002f0: 39d5 e73d 05f5 253e 9459 1c3d 4d55 8d3d
00000300: 0922 39bd 83e9 023d 960f 19bd f1b8 363d
00000310: 2ed2 70be 2679 fb3d 366e a2bc dfb5 ae3d
00000320: dfeb c13c a09a 2f3e 4280 acbd cd22 b0bd
00000330: a575 bcbd 4b26 19be a700 b9bd a048 c1bc
00000340: 4e0f 7a3c cd0c 013d 7435 e1bd b4f5 803d
00000350: d9c2 bfbd 59ac a03b 614b 32be c6c4 6abd
00000360: bbaa e4bd af22 3f3e aa23 c9bd 0079 673d
00000370: f38a 7fbd bb7b 59bc a49c c53c df0c e33b
00000380: 437a ca3d e59a 643e 4abd 9e3d 44ef 28bc
00000390: 8b2b 03be 108d bebb a342 653d 1f72 98bc
000003a0: a3d8 fd3c 101b 1dbe 0154 bfbd ad2e 10be
000003b0: b81f c33d 2df4 28bd 9e0f b53d 8c99 58bc
000003c0: 6bb8 1a3e 1c14 adbd f110 60bc 50cb cf3d
000003d0: b956 fdbd 72c4 34be bf3a b13d 75a7 143d
000003e0: ff0b d93d 42f5 ef3d 340a da3d 4455 03be
000003f0: bb4b 89bd 5487 a23d 0154 6b3d fc29 513d

network_body._body_endoder.seq_layers.2.bias f4 [128]
0.0 0.0 0.0 0.0 0.0 0.0 0.0 0.0
0.0 0.0 0.0 0.0 0.0 0.0 0.0 0.0
0.0 0.0 0.0 0.0 0.0 0.0 0.0 0.0
0.0 0.0 0.0 0.0 0.0 0.0 0.0 0.0
0.0 0.0 0.0 0.0 0.0 0.0 0.0 0.0
0.0 0.0 0.0 0.0 0.0 0.0 0.0 0.0
0.0 0.0 0.0 0.0 0.0 0.0 0.0 0.0
0.0 0.0 0.0 0.0 0.0 0.0 0.0 0.0
0.0 0.0 0.0 0.0 0.0 0.0 0.0 0.0
0.0 0.0 0.0 0.0 0.0 0.0 0.0 0.0
0.0 0.0 0.0 0.0 0.0 0.0 0.0 0.0
0.0 0.0 0.0 0.0 0.0 0.0 0.0 0.0
0.0 0.0 0.0 0.0 0.0 0.0 0.0 0.0
0.0 0.0 0.0 0.0 0.0 0.0 0.0 0.0
0.0 0.0 0.0 0.0 0.0 0.0 0.0 0.0
0.0 0.0 0.0 0.0 0.0 0.0 0.0 0.0
00000000: 0000 0000 0000 0000 0000 0000 0000 0000
00000010: 0000 0000 0000 0000 0000 0000 0000 0000
00000020: 0000 0000 0000 0000 0000 0000 0000 0000
00000030: 0000 0000 0000 0000 0000 0000 0000 0000
00000040: 0000 0000 0000 0000 0000 0000 0000 0000
00000050: 0000 0000 0000 0000 0000 0000 0000 0000
00000060: 0000 0000 0000 0000 0000 0000 0000 0000
00000070: 0000 0000 0000 0000 0000 0000 0000 0000
00000080: 0000 0000 0000 0000 0000 0000 0000 0000
00000090: 0000 0000 0000 0000 0000 0000 0000 0000
000000a0: 0000 0000 0000 0000 0000 0000 0000 0000
000000b0: 0000 0000 0000 0000 0000 0000 0000 0000
000000c0: 0000 0000 0000 0000 0000 0000 0000 0000
000000d0: 0000 0000 0000 0000 0000 0000 0000 0000
000000e0: 0000 0000 0000 0000 0000 0000 0000 0000
000000f0: 0000 0000 0000 0000 0000 0000 0000 0000
00000100: 0000 0000 0000 0000 0000 0000 0000 0000
00000110: 0000 0000 0000 0000 0000 0000 0000 0000
00000120: 0000 0000 0000 0000 0000 0000 0000 0000
00000130: 0000 0000 0000 0000 0000 0000 0000 0000
00000140: 0000 0000 0000 0000 0000 0000 0000 0000
00000150: 0000 0000 0000 0000 0000 0000 0000 0000
00000160: 0000 0000 0000 0000 0000 0000 0000 0000
00000170: 0000 0000 0000 0000 0000 0000 0000 0000
00000180: 0000 0000 0000 0000 0000 0000 0000 0000
00000190: 0000 0000 0000 0000 0000 0000 0000 0000
000001a0: 0000 0000 0000 0000 0000 0000 0000 0000
000001b0: 0000 0000 0000 0000 0000 0000 0000 0000
000001c0: 0000 0000 0000 0000 0000 0000 0000 0000
000001d0: 0000 0000 0000 0000 0000 0000 0000 0000
000001e0: 0000 0000 0000 0000 0000 0000 0000 0000
000001f0: 0000 0000 0000 0000 0000 0000 0000 0000

action_model._continuous_distribution.log_sigma f4 [1, 2]
0.0 0.0
00000000: 0000 0000 0000 0000

action_model._continuous_distribution.mu.weight f4 [2, 128]
-0.009795588 -0.009759147 -0.012328379 -0.016438017 0.0070366645 0.0008228004 0.031212797 0.0072307955
0.0119914375 0.0097073065 0.013495736 0.012695401 -0.01793187 -0.024091661 0.02373023 0.0056344285
-0.00046347614 -0.011423007 -0.003906924 0.019372422 0.009844747 0.038915783 -0.010123551 0.03692333
0.0010304954 0.023030603 -0.016052768 0.008139986 0.020758903 8.764961e-05 0.009272406 -0.012496884
-0.034539342 -0.0054474175 -0.004751667 0.0215218 -0.0042162105 -0.01671622 -0.014426163 -0.00016284255
-0.040335197 0.010190089 -0.017108902 -0.015150365 0.0004945022 0.016961562 0.0051826104 0.015402095
-0.004847444 -0.010583334 -0.01435148 0.015226309 0.009911801 -0.04445173 0.0057161343 0.003214806
-0.02215215 -0.0014413751 0.0064282133 0.02764908 0.00754191 -0.008123954 -0.00094608945 -0.012370075
0.019100431 -0.0030903125 -0.016421925 0.025695404 0.029779647 -0.012534872 0.039508205 0.014910984
0.006477833 0.002312184 -0.015160115 -0.004597345 0.02673607 0.00032935268 0.032340508 -0.011361545
-0.019772606 -0.027074778 0.0036200886 -0.0020954271 0.011495098 -0.028548187 0.014044638 -0.026605321
0.0106008565 -0.03167055 0.011527094 -0.023474788 -0.008951567 -0.010582723 -0.0049378737 -0.018202087
0.0044824816 -0.01268138 0.02963515 -0.022350535 0.0029508946 -0.02632819 -0.00051023107 -0.031374685
-0.017196989 -0.008183018 0.017761914 0.0041864174 -0.010931411 -0.001010903 0.026966995 0.0015978463
-0.01643192 -0.015454787 0.0015189348 0.017890673 0.0132254455 0.018353162 0.017440522 -0.0006115068
0.0066259042 -0.02716417 -0.013888252 0.0040154024 -0.0010993 -0.0058231973 -0.0006364004 0.018689083
-0.0002937639 0.0106137125 0.010389667 0.019328585 -0.009623621 0.020603076 0.0052497988 -2.2593877e-05
-0.017115599 0.014677522 -0.034138784 -0.0054019256 -0.016948244 0.011283426 -0.010636484 -0.007289664
0.0036091164 0.025078166 -0.0028024018 0.03824253 -0.011365534 -0.009287028 -0.028622488 -0.018038334
0.002361286 0.0016856442 -0.0030802812 0.018310433 0.026881471 -0.0029189389 0.011364335 -0.011604809
-0.0013576397 -0.04030841 -0.010416589 0.011861814 0.010433212 0.0055908705 0.002128773 -0.014307109
-0.012801932 -0.0063834526 0.029303078 -0.011731595 -0.021477286 -0.0030627602 -0.032532573 0.008693751
-0.0018818509 0.01098523 -0.009323348 -0.01727399 -0.024634648 -0.010490687 0.014684762 0.0035215316
0.03172682 -0.004528074 0.0030312275 -0.013583468 -0.004320909 -0.006432855 -0.035231788 -0.00457379
-0.04685224 -0.018352568 -0.0008334382 0.03726271 0.040494572 0.0024789025 0.017345995 -0.027459085
0.0063562565 0.033656005 -0.010117243 0.00017012839 0.031713452 -0.008873063 -0.00047591794 0.011379197
-0.01798379 -0.023308711 -0.03158415 0.010752432 -0.005704665 0.021845689 0.014364238 0.007150101
0.0056555546 0.013253926 0.0096878195 0.00085430965 0.008851722 -0.020153014 0.013435437 -0.008888085
-0.014276986 0.019108836 -0.035780855 -0.029377704 -0.0049510146 -0.014805074 0.03131575 -0.015487798
-0.013938168 -0.023694247 0.027014166 -0.027961869 0.045705244 -0.013860906 0.0012812208 0.007908428
0.01583645 -0.00034619248 0.027088469 0.0065459493 -0.008894378 -0.020697726 -0.0060530137 -0.0255904
0.019586228 -0.021048227 0.024409754 0.008060894 -0.02386432 0.014092845 -0.0029236556 0.026828049
00000000: ad7d 20bc d4e4 1fbc f8fc 49bc 05a9 86bc
00000010: d293 e63b 33b1 573a fbb1 ff3c 4ff0 ec3b
00000020: bc77 443c 650b 1f3c 381d 5d3c 5f00 503c
00000030: dbe5 92bc e05b c5bc e665 c23c 03a1 b83b
00000040: b7fe f2b9 9027 3bbc a705 80bb eab2 9e3c
00000050: dd4b 213c 2866 1f3d 40dd 25bc eb3c 173d
00000060: b011 873a adaa bc3c 1881 83bc 935d 053c
00000070: 930e aa3c 87d0 b738 4aeb 173c bbbf 4cbc
00000080: 2079 0dbd 4080 b2bb dfb3 9bbb 7c4e b03c
00000090: 2328 8abb 74f0 88bc b75b 6cbc b7c0 2ab9
000000a0: 8536 25bd 55f4 263c f827 8cbc 3d39 78bc
000000b0: 7ba1 013a f9f2 8a3c e3d2 a93b 1259 7c3c
000000c0: 4fd7 9ebb b865 2dbc 7822 6bbc c577 793c
000000d0: 1b65 223c 0413 36bd 694e bb3b 7faf 523b
000000e0: 6d78 b5bc 86ec bcba c3a3 d23b 5380 e23c
000000f0: 2022 f73b 551a 05bc fd02 78ba dbab 4abc
00000100: 8278 9c3c d786 4abb 4687 86bc 2b7f d23c
00000110: 72f4 f33c 105f 4dbc 5bd3 213d 334d 743c
00000120: 0044 d43b 0388 173b 2262 78bc 53a5 96bb
00000130: 9a05 db3c f8ac ac39 7b77 043d c625 3abc
00000140: 29fa a1bc edcb ddbc 023f 6d3b 6f53 09bb
00000150: ef55 3c3c e3dd e9bc 7b1b 663c 67f3 d9bc
00000160: 37af 2d3c fbb8 01bd 23dc 3c3c 334e c0bc
00000170: 98a9 12bc 2863 2dbc e3cd a1bb 8b1c 95bc
00000180: c8e1 923b 90c5 4fbc 6ac5 f23c 7818 b7bc
00000190: cc63 413b 37ae d7bc 07c1 05ba be82 00bd
000001a0: b3e0 8cbc 1112 06bc 6f81 913c 372e 893b
000001b0: a919 33bc 4780 84ba e3e9 dc3c d36e d13a
000001c0: 3c9c 86bc 1336 7dbc ff16 c73a 768f 923c
000001d0: 8aaf 583c 5f59 963c 6ddf 8e3c 874d 20ba
000001e0: 1d1e d93b 6587 debc 8d8b 63bc a393 833b
000001f0: 6316 90ba 85d0 bebb 1cd4 26ba d919 993c
00000200: 5304 9ab9 23e5 2d3c 6c39 2a3c fb56 9e3c
00000210: 64ac 1dbc c8c7 a83c 8106 ac3b fb87 bdb7
00000220: 0336 8cbc fd79 703c 1cd5 0bbd a302 b1bb
00000230: 0bd7 8abc 1ede 383c a644 2ebc 22de eebb
00000240: ed86 6c3b ba70 cd3c 80a8 37bb 33a4 1c3d
00000250: 8136 3abc 9e28 18bc b579 eabc 21c5 93bc
00000260: cebf 1a3b d5f0 dc3a 8bde 49bb c3ff 953c
00000270: 8836 dc3c ab4b 3fbb 7a31 3a3c 1922 3ebc
00000280: d4f2 b1ba 6e1a 25bd 57aa 2abc 0e58 423c
00000290: 10f0 2a3c 9f33 b73b e282 0b3b 5d68 6abc
000002a0: 32bf 51bc 482c d1bb 020d f03c e035 40bc
000002b0: 22f1 afbc 97b8 48bb e040 05bd 3c70 0e3c
000002c0: 70a8 f6ba 65fb 333c f5c0 18bc 2f82 8dbc
000002d0: 9ace c9bc 21e1 2bbc 5b98 703c 7fc9 663b
000002e0: fbf3 013d 3d60 94bb 8fa7 463b 328d 5ebc
000002f0: 6996 8dbb b3ca d2bb 354f 10bd bbdf 95bb
00000300: 22e8 3fbd 2058 96bc 177b 5aba c9a0 183d
00000310: a3dd 253d 1575 223b 3019 8e3c e0f1 e0bc
00000320: 2548 d03b e1da 093d cbc2 25bc 7e64 3239
00000330: f7e5 013d 5360 11bc a084 f9b9 d06f 3a3c
00000340: be52 93bc e9f1 bebc 625e 01bd f82a 303c
00000350: 33ee babb bbf5 b23c fb57 6b3c 654b ea3b
00000360: 3b52 b93b ff26 593c a9b9 1e3c c0f3 5f3a
00000370: d006 113c ef17 a5bc 4f20 5c3c 559f 11bc
00000380: 05ea 69bc 228a 9c3c f28e 12bd 83a9 f0bc
00000390: 1f3c a2bb fb90 72bc f244 003d 88c0 7dbc
000003a0: ea5c 64bc 701a c2bc d04c dd3c 4a10 e5bc
000003b0: 6c35 3b3d da18 63bc a3ee a73a 5a92 013c
000003c0: 71bb 813c 2b81 b5b9 a3e8 dd3c 677f d63b
000003d0: bab9 11bc 478e a9bc 5c58 c6bb f5a2 d1bc
000003e0: 4c73 a03c 556d acbc f7f6 c73c d711 043c
000003f0: 1b7f c3bc ade5 663c cd9a 3fbb 7fc6 db3c

action_model._continuous_distribution.mu.bias f4 [2]
0.0 0.0
00000000: 0000 0000 0000 0000

network_body._body_endoder.seq_layers.0.weight f4 [128, 5]
0.011582541 -0.1302485 -0.033236753 0.6447283 0.12030428 -0.24235247 -0.68693644 -0.09376121
-0.19912028 0.5415033 -0.77093536 0.6879338 0.16752446 0.29213166 -0.15927918 -0.19675753
-0.12345006 -0.030902285 -0.51051587 -0.082492255 0.4595202 -0.18786624 0.35734752 -0.25398168
0.7145702 0.30460796 0.0621941 -0.32518086 -0.19700412 0.50105083 0.67817914 0.29184875
0.09551807 -0.25910616 0.7745917 -0.23924494 0.9670444 0.24386704 0.80411184 0.3432081
0.25857794 0.96925265 0.28945747 0.38898224 -0.2006889 0.14057244 -0.74256015 -0.07419458
-0.17079565 -0.25613376 -0.46649447 0.47483385 0.34669548 -0.40496096 -0.3360457 0.15408489
-0.29657653 0.12447296 -0.67420393 0.6165266 0.06998222 0.12768331 -0.028427705 0.6705499
0.7274032 -0.7298504 -0.48470324 0.18877092 -0.06017907 0.7096965 0.30710658 -0.095682114
0.036185347 0.3131005 -0.4004076 0.3871245 -0.7343106 -0.32654163 -0.528019 0.46264684
0.5022686 -0.4412884 -0.5110938 0.32225925 -0.9215006 0.44849893 0.41861162 -0.7390457
0.28316003 0.72499204 -0.010156105 -0.8724362 0.2566501 -0.15019736 0.6149515 0.17619371
-0.093236335 0.15998155 -0.39770424 0.3137913 0.40713084 0.042092506 -0.009880656 -0.26679674
0.28295594 -0.4494793 0.38959873 0.8031679 0.043838456 0.6186957 -0.30599988 -0.5451569
-0.09126772 -0.3761183 -0.38031778 0.31183326 0.71611357 0.4609941 0.58361095 -0.32630405
-0.067829 -0.0935945 0.9381942 -0.46980748 -0.023181457 -0.34633568 -0.18584245 -0.029659
-0.2502545 -0.12056805 -0.36095417 0.26965043 -0.26602587 -0.063177265 0.23204254 0.236404
0.08611974 0.35935012 -0.49384162 0.03047485 -0.49267963 0.18424124 -0.13171832 -0.1460456
-0.047534443 -0.36861405 0.18349037 0.6750046 0.40008798 0.17797776 -0.40653396 -0.40345123
0.3906482 0.11286352 0.3633539 -0.2277285 -0.01249873 0.4363332 -0.39005658 -0.12868026
0.2803297 -0.3942661 -0.13742039 0.31431887 -0.33426282 -0.019148417 0.15984772 0.21012945
-0.039129954 -0.38328177 -0.74865025 -1.0563551 -0.020489657 -0.32359865 -0.08455267 -0.90373075
-0.7090261 -0.0544379 -0.8933263 0.23899318 -0.66525686 0.1604756 -0.17102079 0.14789785
-0.7231567 0.13156164 -0.7271334 -0.0052235005 -0.8393006 0.690245 -0.6638747 0.3722007
-0.21029997 -0.5920042 0.20691338 0.18285267 -0.34603634 0.058656838 0.40613452 -0.24207117
-1.1869113 -0.34702367 -0.15675564 0.43572143 -0.2953372 0.21318804 0.53632796 0.23799755
-0.5122759 -0.1454227 -0.014865662 0.64919937 -0.27744493 0.19141869 0.4865133 -0.21338323
-0.13563819 0.10944088 -0.1569842 -0.35358423 -0.008863101 0.3147678 0.24479704 -0.14634432
0.23134077 0.79175264 -0.620301 -0.117519714 -0.47602502 0.97471935 -0.27438346 0.054252103
-0.57419485 -0.17029549 0.36289337 0.4784032 0.061448313 0.12625282 -0.27385217 -0.59154063
-0.30395842 0.25203618 0.49147722 0.5639589 0.27063796 -0.14487791 -0.798627 -0.54949874
-0.47476065 -0.002988858 0.054187257 -0.84815335 0.35483593 -0.008176172 0.11062358 0.49057502
00000000: b3c4 3d3c dd5f 05be 4323 08bd ea0c 253f
00000010: 1762 f63d 3f2b 78be 11db 2fbf e105 c0bd
00000020: 30e6 4bbe f69f 0a3f 055c 45bf 6e1c 303f
00000030: 888b 2b3e 4892 953e 151a 23be ce7a 49be
00000040: 63d3 fcbd ca26 fdbc 2bb1 02bf b3f1 a8bd
00000050: 3b46 eb3e 0260 40be 41f6 b63e e309 82be
00000060: 13ee 363f 93f5 9b3e 3ebf 7e3d 1b7e a6be
00000070: 73bb 49be de44 003f 269d 2d3f 336d 953e
00000080: fa9e c33d 90a9 84be a44b 463f a0fc 74be
00000090: 3990 773f 48b8 793e 46da 4d3f f9b8 af3e
000000a0: 5464 843e f120 783f c533 943e ae28 c73e
000000b0: 6481 4dbe 39f2 0f3e 6c18 3ebf 54f3 97bd
000000c0: 0ee5 2ebe f723 83be 5dd8 eebe 6c1d f33e
000000d0: 1282 b13e 0b57 cfbe 2f0e acbe 6ec8 1d3e
000000e0: e1d8 97be aeeb fe3d a198 2cbf b0d4 1d3f
000000f0: d752 8f3d 6abf 023e 38e1 e8bc 29a9 2b3f
00000100: 1937 3a3f 7ad7 3abf 062b f8be 2a4d 413e
00000110: 547e 76bd abae 353f 133d 9d3e fcf4 c3bd
00000120: 1637 143d b54e a03e 3a02 cdbe 2f35 c63e
00000130: c8fb 3bbf 7730 a7be 412c 07bf 0ce0 ec3e
00000140: ad94 003f 8ef0 e1be 0bd7 02bf 2aff a43e
00000150: 77e7 6bbf a7a1 e53e 4354 d63e 1932 3dbf
00000160: 5afa 903e 1499 393f cb65 26bc fb57 5fbf
00000170: a467 833e 56cd 19be 766d 1d3f 206c 343e
00000180: b1f2 bebd 34d2 233e e49f cbbe 41a9 a03e
00000190: 7473 d03e 3169 2c3d 7ae2 21bc 9599 88be
000001a0: 9adf 903e 2722 e6be 7c79 c73e 699c 4d3f
000001b0: f48f 333d d762 1e3f 04ac 9cbe 678f 0bbf
000001c0: 92ea babd 9492 c0be 03b9 c2be 9ca8 9f3e
000001d0: 3853 373f 6b07 ec3e 8767 153f 5311 a7be
000001e0: eee9 8abd 79ae bfbd 7f2d 703f 9b8a f0be
000001f0: 0ae7 bdbc e952 b1be 7c4d 3ebe 6ef7 f2bc
00000200: 5c21 80be 62ec f6bd fcce b8be 9f0f 8a3e
00000210: 8b34 88be 1563 81bd 8f9c 6d3e e413 723e
00000220: 8c5f b03d bdfc b73e cfd8 fcbe 65a6 f93c
00000230: 8140 fcbe bca9 3c3e 2be1 06be fa8c 15be
00000240: 7ab3 42bd fbba bcbe e6e4 3b3e 1acd 2c3f
00000250: 55d8 cc3e cd3f 363e 3825 d0be 2991 cebe
00000260: 0a03 c83e fd24 e73d 8609 ba3e a931 69be
00000270: 79c7 4cbc 1167 df3e 7fb5 c7be c2c4 03be
00000280: 6087 8f3e 3fdd c9be eeb7 0cbe 67ee a03e
00000290: 7f24 abbe 24dd 9cbc 1faf 233e 2d2c 573e
000002a0: bb46 20bd 823d c4be 8ba7 3fbf a536 87bf
000002b0: edd9 a7bc b9ae a5be f329 adbd e65a 67bf
000002c0: bc82 35bf 47fa 5ebd 08b1 64bf a1ba 743e
000002d0: 464e 2abf b753 243e 1320 2fbe 8972 173e
000002e0: cc20 39bf 18b8 063e 6a25 3abf e629 abbb
000002f0: 67dc 56bf e5b3 303f b1f3 29bf 1791 be3e
00000300: e058 57be 968d 17bf 1ae1 533e bb3d 3b3e
00000310: ad2b b1be 2742 703d ddf0 cf3e 81e1 77be
00000320: b6ec 97bf 16ad b1be 8d84 20be e116 df3e
00000330: 7036 97be f74d 5a3e ca4c 093f a1b5 733e
00000340: 8324 03bf b0e9 14be 1b8f 73bc ee31 263f
00000350: 430d 8ebe 4303 443e 4518 f93e 2281 5abe
00000360: bde4 0abe 8a22 e03d 77c0 20be fe08 b5be
00000370: 8a36 11bc 3f29 a13e 13ac 7a3e 49db 15be
00000380: 98e4 6c3e 4db0 4a3f 0ccc 1ebf 2dae f0bd
00000390: 8db9 f3be 3587 793f fd7b 8cbe 7437 5e3d
000003a0: 6ffe 12bf f161 2ebe 29cd b93e 44f1 f43e
000003b0: 3ab1 7b3d 6b48 013e 5a36 8cbe 356f 17bf
000003c0: 70a0 9bbe e30a 813e e7a2 fb3e 9c5f 103f
000003d0: 0f91 8a3e e05a 14be d272 4cbf f3ab 0cbf
000003e0: d413 f3be b7e0 43bb 75f3 5d3d 9420 59bf
000003f0: 0ead b53e 5af5 05bc 9e8e e23d a62c fb3e

network_body._body_endoder.seq_layers.0.bias f4 [128]
0.0 0.0 0.0 0.0 0.0 0.0 0.0 0.0
0.0 0.0 0.0 0.0 0.0 0.0 0.0 0.0
0.0 0.0 0.0 0.0 0.0 0.0 0.0 0.0
0.0 0.0 0.0 0.0 0.0 0.0 0.0 0.0
0.0 0.0 0.0 0.0 0.0 0.0 0.0 0.0
0.0 0.0 0.0 0.0 0.0 0.0 0.0 0.0
0.0 0.0 0.0 0.0 0.0 0.0 0.0 0.0
0.0 0.0 0.0 0.0 0.0 0.0 0.0 0.0
0.0 0.0 0.0 0.0 0.0 0.0 0.0 0.0
0.0 0.0 0.0 0.0 0.0 0.0 0.0 0.0
0.0 0.0 0.0 0.0 0.0 0.0 0.0 0.0
0.0 0.0 0.0 0.0 0.0 0.0 0.0 0.0
0.0 0.0 0.0 0.0 0.0 0.0 0.0 0.0
0.0 0.0 0.0 0.0 0.0 0.0 0.0 0.0
0.0 0.0 0.0 0.0 0.0 0.0 0.0 0.0
0.0 0.0 0.0 0.0 0.0 0.0 0.0 0.0
00000000: 0000 0000 0000 0000 0000 0000 0000 0000
00000010: 0000 0000 0000 0000 0000 0000 0000 0000
00000020: 0000 0000 0000 0000 0000 0000 0000 0000
00000030: 0000 0000 0000 0000 0000 0000 0000 0000
00000040: 0000 0000 0000 0000 0000 0000 0000 0000
00000050: 0000 0000 0000 0000 0000 0000 0000 0000
00000060: 0000 0000 0000 0000 0000 0000 0000 0000
00000070: 0000 0000 0000 0000 0000 0000 0000 0000
00000080: 0000 0000 0000 0000 0000 0000 0000 0000
00000090: 0000 0000 0000 0000 0000 0000 0000 0000
000000a0: 0000 0000 0000 0000 0000 0000 0000 0000
000000b0: 0000 0000 0000 0000 0000 0000 0000 0000
000000c0: 0000 0000 0000 0000 0000 0000 0000 0000
000000d0: 0000 0000 0000 0000 0000 0000 0000 0000
000000e0: 0000 0000 0000 0000 0000 0000 0000 0000
000000f0: 0000 0000 0000 0000 0000 0000 0000 0000
00000100: 0000 0000 0000 0000 0000 0000 0000 0000
00000110: 0000 0000 0000 0000 0000 0000 0000 0000
00000120: 0000 0000 0000 0000 0000 0000 0000 0000
00000130: 0000 0000 0000 0000 0000 0000 0000 0000
00000140: 0000 0000 0000 0000 0000 0000 0000 0000
00000150: 0000 0000 0000 0000 0000 0000 0000 0000
00000160: 0000 0000 0000 0000 0000 0000 0000 0000
00000170: 0000 0000 0000 0000 0000 0000 0000 0000
00000180: 0000 0000 0000 0000 0000 0000 0000 0000
00000190: 0000 0000 0000 0000 0000 0000 0000 0000
000001a0: 0000 0000 0000 0000 0000 0000 0000 0000
000001b0: 0000 0000 0000 0000 0000 0000 0000 0000
000001c0: 0000 0000 0000 0000 0000 0000 0000 0000
000001d0: 0000 0000 0000 0000 0000 0000 0000 0000
000001e0: 0000 0000 0000 0000 0000 0000 0000 0000
000001f0: 0000 0000 0000 0000 0000 0000 0000 0000

network_body._body_endoder.seq_layers.2.weight f4 [128, 128]
-0.12539941 -0.005190735 -0.039788503 0.12602806 -0.13286082 -0.08684161 -0.10702444 0.039570805
0.039962664 -0.059635963 -0.15562627 -0.06979932 0.023741882 -0.085590445 -0.058570478 0.058659106
-0.019466074 0.052523643 -0.035710905 0.06672714 0.03900452 -0.056953833 0.04399661 0.1485543
-0.057621505 -0.17178965 -0.019257866 0.065030396 0.08803327 0.100229606 -0.020177929 0.034866422
0.04372553 -0.12207017 0.033693835 -0.12936325 -0.158772 -0.079176895 -0.041908592 0.100573376
-0.18229797 0.0744203 0.04235069 0.07590395 -0.032812987 -0.094418146 0.01269804 0.16564701
-0.022150755 0.07568484 -0.03672625 0.09226273 -0.010318686 -0.02623805 0.045139354 0.052651834
-0.060162965 -0.0025054296 -0.10117106 0.11797652 0.03454831 -0.07391929 -0.014466008 0.020622082
0.07292123 0.10392993 0.05607949 -0.040858373 0.11911473 0.025657961 0.11971409 0.111048155
-0.056409236 0.22503342 -0.09889437 -0.026141638 0.061145797 0.024157798 0.06726599 0.073830076
-0.0013912594 0.042307653 0.07985579 -0.024546959 -0.059781775 -0.0746079 -0.06695459 -0.095147476
0.011947492 -0.06611517 0.018266173 0.073003806 -0.10847864 -0.040038764 -0.27338222 -0.03239736
0.116980925 -0.10502872 0.24018152 0.04026272 -0.067542076 0.07979973 0.048917804 -0.09004691
0.09956344 0.03261952 -0.1491321 -0.05563492 -0.0028237824 -0.08843887 -0.02191219 0.04436229
-0.13735744 -0.025501717 -0.014340253 0.032971643 -0.023324622 0.090839565 -0.031915233 -0.0034819357
0.051001806 -0.1354684 0.024579762 0.14679158 0.029316716 0.11244625 -0.013257876 0.094341844
0.086128235 0.05818761 0.004589297 0.00730606 -0.0133236665 -0.1291642 0.030949123 -0.00916299
0.045788925 0.104696214 0.10846433 -0.0056794477 0.0030047393 -0.16655396 -0.0019602026 0.106551796
-0.00030451166 -0.030094247 -0.08881586 0.025428817 -0.029990109 0.06870222 0.11455141 0.09800996
-0.0007365104 0.14271213 0.028021445 -0.0067778328 0.09349777 0.04120354 -0.11707227 -0.03666628
0.1873881 -0.077491984 0.022746475 -0.0074212025 0.07504787 -0.04714905 0.09057976 -0.03251287
0.085790426 0.06526267 -0.016047675 0.06124248 -0.19146553 0.03215833 -0.023816261 0.036483962
0.025948845 -0.0822662 0.041839465 0.02442076 -0.038557544 0.028737893 0.09997993 -0.0580108
0.015440101 -0.081905484 -0.017790178 0.041419134 0.012606473 0.07140708 0.09657912 0.0049245055
0.06014804 0.00022411603 -0.011460652 0.067992546 0.0092530195 0.040970422 0.03048497 0.070101626
0.047248192 0.14051355 -0.05706304 -0.21832758 0.30304292 0.029380465 0.07384617 0.006010793
0.20068671 0.11481957 -0.0009771114 -0.08010449 0.07436027 0.02595365 0.23431893 0.011454919
0.039715342 0.04132196 0.026807081 -0.037486512 0.015332789 0.024705855 -0.05473255 0.12285055
0.07356807 -0.033589114 -0.09958653 0.0051296493 -0.019506142 0.031443723 0.013639954 0.12007772
-0.069918945 0.049000837 0.0009520784 -0.18631972 -0.0026123312 -0.12953866 0.030107003 -0.049541045
0.14243382 -0.039437197 0.25706753 0.061392143 -0.018031726 0.063245334 0.07730112 -0.033450987
-0.039911423 0.03514171 0.043418087 0.050350185 -0.1157144 0.01882261 -0.02248923 0.012340397
00000000: b468 00be 0b17 aabb 45f9 22bd 800d 013e
00000010: ab0c 08be 04da b1bd a12f dbbd ff14 223d
00000020: e4af 233d d744 74bd 7e5c 1fbe f2f2 8ebd
00000030: 567e c23c 0b4a afbd 99e7 6fbd 8844 703d
00000040: 5177 9fbc 0823 573d 9945 12bd 3da8 883d
00000050: 34c3 1f3d 6c48 69bd ca35 343d 9e1e 183e
00000060: 8704 6cbd a0e9 2fbe acc2 9dbc a82e 853d
00000070: c94a b43d 2e45 cd3d 2f4c a5bc 18d0 0e3d
00000080: 8b19 333d edff f9bd 8c02 0a3d cd77 04be
00000090: 2195 22be 7f27 a2bd 58a8 2bbd 6af9 cd3d
000000a0: 52ac 3abe ac69 983d eb77 2d3d 8873 9b3d
000000b0: e966 06bd 4d5e c1bd 710b 503c 5f9f 293e
000000c0: 8075 b5bc a700 9b3d 446e 16bd 3ef4 bc3d
000000d0: b50f 29bc 2ef1 d6bc 0be4 383d 73a9 573d
000000e0: 716d 76bd 2232 24bb c632 cfbd ac9d f13d
000000f0: 8782 0d3d ff62 97bd d602 6dbc a4ef a83c
00000100: ba57 953d 37d9 d43d 9bb3 653d 1c5b 27bd
00000110: 6cf2 f33d a530 d23c a92c f53d 376d e33d
00000120: 5f0d 67bd 296f 663e 2289 cabd fd26 d6bc
00000130: 0474 7a3d 93e6 c53c c0c2 893d 3934 973d
00000140: eb5a b6ba ca4a 2d3d 6f8b a33d b416 c9bc
00000150: bcdd 74bd 07cc 98bd 7d1f 89bd aedc c2bd
00000160: 6abf 433c 6467 87bd f1a2 953c 0583 953d
00000170: 0d2a debd b0ff 23bd c1f8 8bbe 18b3 04bd
00000180: b293 ef3d 4c19 d7bd 25f2 753e 86ea 243d
00000190: 8053 8abd 0a6e a33d 095e 483d 846a b8bd
000001a0: ebe7 cb3d 0c9c 053d 16b6 18be 71e1 63bd
000001b0: 350f 39bb 701f b5bd 3181 b3bc 3cb5 353d
000001c0: 6ea7 0cbe fae8 d0bc 61f3 6abc 460d 073d
000001d0: 4713 bfbc 180a ba3d 8cb9 02bd 3031 64bb
000001e0: 45e7 503d 3ab8 0abe 7f5b c93c 8850 163e
000001f0: 9c29 f03c 384a e63d 9037 59bc 4c36 c13d
00000200: 0064 b03d 2256 6e3d d061 963b ac67 ef3b
00000210: 824b 5abc 9f43 04be 0489 fd3c 5e20 16bc
00000220: 2b8d 3b3d f86a d63d 8c22 de3d a91a babb
00000230: 29eb 443b 1f8d 2abe be76 00bb d437 da3d
00000240: dda6 9fb9 3688 f6bc 17e5 b5bd 1850 d03c
00000250: d1ad f5bc c0b3 8c3d ee99 ea3d 72b9 c83d
00000260: 6012 41ba 2123 123e 3b8d e53c 9518 debb
00000270: c27b bf3d 0bc5 283d 96c3 efbd 622f 16bd
00000280: abe2 3f3e 1eb4 9ebd d156 ba3c 8f2d f3bb
00000290: b3b2 993d 5d1f 41bd e281 b93d 372c 05bd
000002a0: e4b2 af3d 6fa8 853d 6a76 83bc 65d9 7a3d
000002b0: 8a0f 44be 74b8 033d 521a c3bc 3570 153d
000002c0: ac92 d43c 2e7b a8bd dc5f 2b3d 0c0e c83c
000002d0: 84ee 1dbd bb6b eb3c 47c2 cc3d bc9c 6dbd
000002e0: 7af8 7c3c 10be a7bd b5bc 91bc 1ca7 293d
000002f0: 618b 4e3c e03d 923d 46cb c53d bf5d a13b
00000300: cb5d 763d b000 6b39 75c5 3bbc ad3f 8b3d
00000310: fa99 173c 9ad0 273d 9ebb f93c 7191 8f3d
00000320: 5287 413d c9e2 0f3e efba 69bd 4491 5fbe
00000330: 7128 9b3e 4daf f03c a93c 973d 30f6 c43b
00000340: d180 4d3e 8626 eb3d 6b12 80ba d30d a4bd
00000350: 324a 983d c09c d43c 4df1 6f3e 6aad 3b3c
00000360: 8eac 223d 3741 293d 869a db3c 758b 19bd
00000370: 6136 7b3c ef63 ca3c 3d2f 60bd 1299 fb3d
00000380: dbaa 963d bd94 09bd 06f4 cbbd 9e16 a83b
00000390: 58cb 9fbc 22cb 003d 1d7a 5f3c 4feb f53d
000003a0: aa31 8fbd 1ab5 483d e694 793a 99ca 3ebe
000003b0: a533 2bbb c8a5 04be f6a2 f63c 8deb 4abd
000003c0: 2cda 113e e688 21bd 5b9e 833e 5476 7b3d
000003d0: 45b7 93bc c586 813d 0d50 9e3d e703 09bd
000003e0: 297a 23bd c1f0 0f3d 2ad7 313d ff3b 4e3d
000003f0: acfb ecbd e031 9a3c 553b b8bc 602f 4a3c

network_body._body_endoder.seq_layers.2.bias f4 [128]
0.0 0.0 0.0 0.0 0.0 0.0 0.0 0.0
0.0 0.0 0.0 0.0 0.0 0.0 0.0 0.0
0.0 0.0 0.0 0.0 0.0 0.0 0.0 0.0
0.0 0.0 0.0 0.0 0.0 0.0 0.0 0.0
0.0 0.0 0.0 0.0 0.0 0.0 0.0 0.0
0.0 0.0 0.0 0.0 0.0 0.0 0.0 0.0
0.0 0.0 0.0 0.0 0.0 0.0 0.0 0.0
0.0 0.0 0.0 0.0 0.0 0.0 0.0 0.0
0.0 0.0 0.0 0.0 0.0 0.0 0.0 0.0
0.0 0.0 0.0 0.0 0.0 0.0 0.0 0.0
0.0 0.0 0.0 0.0 0.0 0.0 0.0 0.0
0.0 0.0 0.0 0.0 0.0 0.0 0.0 0.0
0.0 0.0 0.0 0.0 0.0 0.0 0.0 0.0
0.0 0.0 0.0 0.0 0.0 0.0 0.0 0.0
0.0 0.0 0.0 0.0 0.0 0.0 0.0 0.0
0.0 0.0 0.0 0.0 0.0 0.0 0.0 0.0
00000000: 0000 0000 0000 0000 0000 0000 0000 0000
00000010: 0000 0000 0000 0000 0000 0000 0000 0000
00000020: 0000 0000 0000 0000 0000 0000 0000 0000
00000030: 0000 0000 0000 0000 0000 0000 0000 0000
00000040: 0000 0000 0000 0000 0000 0000 0000 0000
00000050: 0000 0000 0000 0000 0000 0000 0000 0000
00000060: 0000 0000 0000 0000 0000 0000 0000 0000
00000070: 0000 0000 0000 0000 0000 0000 0000 0000
00000080: 0000 0000 0000 0000 0000 0000 0000 0000
00000090: 0000 0000 0000 0000 0000 0000 0000 0000
000000a0: 0000 0000 0000 0000 0000 0000 0000 0000
000000b0: 0000 0000 0000 0000 0000 0000 0000 0000
000000c0: 0000 0000 0000 0000 0000 0000 0000 0000
000000d0: 0000 0000 0000 0000 0000 0000 0000 0000
000000e0: 0000 0000 0000 0000 0000 0000 0000 0000
000000f0: 0000 0000 0000 0000 0000 0000 0000 0000
00000100: 0000 0000 0000 0000 0000 0000 0000 0000
00000110: 0000 0000 0000 0000 0000 0000 0000 0000
00000120: 0000 0000 0000 0000 0000 0000 0000 0000
00000130: 0000 0000 0000 0000 0000 0000 0000 0000
00000140: 0000 0000 0000 0000 0000 0000 0000 0000
00000150: 0000 0000 0000 0000 0000 0000 0000 0000
00000160: 0000 0000 0000 0000 0000 0000 0000 0000
00000170: 0000 0000 0000 0000 0000 0000 0000 0000
00000180: 0000 0000 0000 0000 0000 0000 0000 0000
00000190: 0000 0000 0000 0000 0000 0000 0000 0000
000001a0: 0000 0000 0000 0000 0000 0000 0000 0000
000001b0: 0000 0000 0000 0000 0000 0000 0000 0000
000001c0: 0000 0000 0000 0000 0000 0000 0000 0000
000001d0: 0000 0000 0000 0000 0000 0000 0000 0000
000001e0: 0000 0000 0000 0000 0000 0000 0000 0000
000001f0: 0000 0000 0000 0000 0000 0000 0000 0000

value_heads.value_heads.extrinsic.weight f4 [1, 128]
-0.06546044 -0.08323452 -0.13778163 0.16105697 -0.06482062 0.16913232 -0.069594294 -0.10605184
-0.21166761 -0.1152846 0.077545404 0.08416909 -0.21367335 -0.152711 -0.055913508 0.14958787
-0.06232825 -0.028787717 0.1068604 -0.019267142 0.016366616 -0.16409439 -0.18109006 -0.0483509
-0.060016677 -0.13040942 -0.061075926 0.073084295 0.1131641 -0.13987376 -0.19363154 0.11729866
0.14316207 0.12852633 0.09288436 -0.20767918 0.08191782 -0.102881365 0.09385979 -0.17268345
-0.14170045 -0.12790357 -0.036858007 -0.19138835 0.15125266 -0.1811736 -0.16166326 -0.10718588
-0.14297274 0.20825112 -0.0011146069 0.04043922 0.16638976 0.016596437 -0.14018525 -0.06276469
0.066648215 0.12024176 -0.1814203 -0.15554853 0.13955289 0.0008291751 -0.093585454 0.11996582
0.1936166 0.08662376 -0.1618414 -0.1559578 0.21222866 0.088211894 0.057105064 -0.052949175
-0.09261634 0.2101498 0.07858583 -0.017336532 -0.19131978 -0.1652477 0.006023392 -0.073477924
0.09756848 -0.0022061467 -0.13344243 -0.15485032 0.1933339 -0.15088587 0.02220942 -0.20644924
-0.075624734 0.13024828 0.18611407 -0.10278997 0.07798767 -0.018559307 0.0769304 -0.1804139
-0.11522262 0.11055383 -0.08897847 0.10623276 -0.0357251 -0.055865854 -0.15537453 -0.0011734068
0.19586572 0.027403578 -0.13465805 0.09851524 -0.076636195 0.011111602 0.04602489 -0.11875724
0.09569201 0.07718316 -0.05608891 0.022498757 0.038460582 0.10742274 0.121976316 0.1094785
-0.13863051 0.07128954 0.19097686 -0.06577873 0.005054608 0.092122465 -0.17964438 0.111453354
00000000: 2010 86bd dc76 aabd a116 0dbe 1eec 243e
00000010: acc0 84bd 0631 2d3e 7487 8ebd b531 d9bd
00000020: 65bf 58be 551a ecbd 20d0 9e3d d860 ac3d
00000030: 30cd 5abe 4660 1cbe 9005 65bd 902d 193e
00000040: e84b 7fbd 38d4 ebbc a0d9 da3d 20d6 9dbc
00000050: 4813 863c 5c08 28be ac6f 39be 980b 46bd
00000060: 0cd4 75bd 0c8a 05be c02a 7abd 38ad 953d
00000070: 94c2 e73d 113b 0fbe 5947 46be 483a f03d
00000080: 1499 123e 689c 033e 283a be3d daa9 54be
00000090: 88c4 a73d 77b3 d2bd 9039 c03d eed3 30be
000000a0: ec19 11be 27f9 02be 6cf8 16bd 4ffb 43be
000000b0: fae1 1a3e 9285 39be 0e8b 25be 4584 dbbd
000000c0: 7267 12be c83f 553e 0018 92ba 98a3 253d
000000d0: 1462 2a3e 40f5 873c b98c 0fbe c68a 80bd
000000e0: dc7e 883d 5041 f63d 3ec6 39be 1d48 1fbe
000000f0: f4e6 0e3e 005d 593a bba9 bfbd a4b0 f53d
00000100: 6e43 463e cc67 b13d c1b9 25be 67b3 1fbe
00000110: 7852 593e 70a8 b43d 00e7 693d 3ce1 58bd
00000120: a3ad bdbd 8231 573e 9cf1 a03d 5805 8ebc
00000130: 55e9 43be b136 29be e05f c53b 987b 96bd
00000140: fcd1 c73d 0095 10bb 22a5 08be 1591 1ebe
00000150: 52f9 453e d381 1abe 88f0 b53c 6e67 53be
00000160: 24e1 9abd ce5f 053e b094 3e3e 8c83 d2bd
00000170: 00b8 9f3d b009 98bc b08d 9d3d 6cbe 38be
00000180: d6f9 ebbd 0c6a e23d 583a b6bd 9090 d93d
00000190: 7c54 12bd 98d3 64bd 801a 1fbe 00cd 99ba
000001a0: 0691 483e 787d e03c cde3 09be 5cc2 c93d
000001b0: 70f3 9cbd 700d 363c 9884 3c3d ff36 f3bd
000001c0: 2cfa c33d 3412 9e3d 7cbd 65bd 504f b83c
000001d0: d888 1d3d 7400 dc3d b8ce f93d 4436 e03d
000001e0: 28f5 0dbe 4000 923d 708f 433e 00b7 86bd
000001f0: 20a1 a53b b4aa bc3d b2f4 37be a841 e43d
