results/ppo/My Behaviour/My Behaviour-5863.pt (torch, 148239 bytes, 12 tensors)

network_body._body_endoder.seq_layers.0.weight f4 [128, 5]
000000 4a 59 de 3e fc e9 ae 3e 3f 4b 2f 3e ae e1 a7 bd
       0.43427497 0.3416289 0.17118548 -0.08197342
000010 ff 6e 61 bc 9b 27 e0 3e c6 5f 71 bb 8a 55 c0 be
       -0.013759374 0.43780217 -0.0036830767 -0.3756526
000020 0e b4 b4 ba ca 62 88 3e ed 1a f1 3e c5 7e 2e be
       -0.0013786571 0.2663787 0.47090855 -0.17040546
000030 77 6d 85 3d 89 78 3d be 94 db eb 3e 61 a2 4f be
       0.065150194 -0.18503012 0.46065962 -0.20276786
000040 31 fb c3 3f 15 74 c8 be 3d f3 89 bf d5 56 02 bf
       1.5311033 -0.39151064 -1.0777355 -0.50913745
000050 93 9a 6d bf 87 b8 ee bd 50 aa 78 be 89 e9 04 3e
       -0.92813987 -0.116562895 -0.24283719 0.12979712
000060 4b 1d aa 3e 38 5c 50 3e f5 0a 8e be 1a f6 1b 3b
       0.33225474 0.20347679 -0.27742735 0.002379781
000070 85 55 e7 bd a4 d8 a0 3d 2b 39 65 3e 0c 20 3d 3f
       -0.112956084 0.07853821 0.22385089 0.73877025
000080 4d 5c 24 bf 2e 68 20 3f 30 6f 06 be 16 bd 14 3f
       -0.6420334 0.62658966 -0.13128352 0.5810102
000090 14 70 ce bd b8 89 a2 3d 4e ba ac 3e ea 60 b4 3e
       -0.10079971 0.07936424 0.3373589 0.3523019
0000a0 3c 24 0e 3e e0 9d d9 3e 9f 50 b8 3d cd 6a 18 3e
       0.1388101 0.42503262 0.08999752 0.14884491
0000b0 d5 db ae bb d0 bd 32 3c 40 3e a9 be eb 3a 4d 3e
       -0.0053362646 0.010909513 -0.33055305 0.20042007
0000c0 f7 50 bd 3e 9e 80 a4 bd db e8 da be c1 85 3f 3f
       0.36975834 -0.08032344 -0.4275578 0.7481347
0000d0 55 32 b8 be e7 35 16 3e 77 61 1c bf 31 aa e4 be
       -0.359759 0.14669 -0.6108622 -0.44661096
0000e0 2c 97 36 bf 08 80 0f 3f 46 8e 43 3f e7 d2 d8 be
       -0.7132442 0.56054735 0.7638897 -0.42348406
0000f0 78 da 8c bb 63 c8 ae 3e ca 3f 93 3e 9c d0 5b 3e
       -0.0042985044 0.34137258 0.28759605 0.21466297
000100 ee 36 b4 bd 20 44 72 bd 77 8c b3 3e cb f1 3d 3f
       -0.087995395 -0.059147 0.35068104 0.7419707
000110 36 72 eb 3c a3 62 63 be 3d 2e 9a 3e de 44 0a 3f
       0.028740983 -0.22205596 0.30113402 0.54011333
000120 98 3a 91 3f 9c 34 cf 3e a7 29 92 3f 1e 92 0c 3f
       1.1346006 0.40469825 1.1418961 0.5491046
000130 69 82 83 bd 43 10 fc 3e 5e 02 a9 be 7c 5d 81 3e
       -0.06421358 0.49231157 -0.3300962 0.25266635
000140 bd 2d 00 be 9e a5 09 3f 93 e4 bf be 4f 4e 38 be
       -0.12517448 0.53768337 -0.37479076 -0.17998622
000150 07 01 74 3e ee ee 95 bf 73 91 88 be 66 9d d3 3e
       0.23828517 -1.171354 -0.2667347 0.41331023
000160 ff 7d 57 3d 99 28 49 be 1e d8 e1 3e f5 52 0c 3e
       0.052610394 -0.19644393 0.44110197 0.1370352
000170 f5 2c 3b 3e 4c e9 04 bc 76 47 b8 be 80 c7 2d 3f
       0.18278868 -0.008112263 -0.3599202 0.6788254
000180 b6 ea 08 bf 07 31 3d 3e 05 94 40 3d 4c a8 25 be
       -0.5348314 0.18475734 0.047016162 -0.16177481
000190 45 af b1 be c7 4f 05 bd 08 2b ee 3e 71 9b c9 be
       -0.34704033 -0.032546785 0.46517205 -0.39376405
0001a0 bf c8 ee 3e ff f8 13 3f 6c f2 67 3f ed 46 28 be
       0.46637532 0.5780181 0.9060428 -0.16433306
0001b0 66 dc 49 3f d4 e0 a2 bc ff ba 49 be 44 9f 51 3e
       0.78851926 -0.019882597 -0.1970024 0.20470911
0001c0 44 f2 06 bf a9 fd 0b 3f c0 a7 f6 be d6 77 58 be
       -0.5271342 0.5468393 -0.48174858 -0.21139464
0001d0 0c 41 56 bf ab aa 71 be e1 01 b7 3e fc fd 8a 3f
       -0.83693004 -0.23600261 0.3574362 1.085876
0001e0 fb 8c 22 bf 80 78 2d bf 44 18 a5 3e d0 e3 0a bf
       -0.6349637 -0.67761993 0.32245076 -0.54253864
0001f0 9e d6 7a be d1 d4 bb be 63 64 a7 be ff e4 96 bc
       -0.24495932 -0.36685804 -0.32693776 -0.01841974
000200 4a 63 ad 3e 0a f4 16 3d b3 80 04 3e 11 f9 e1 bd
       0.33864814 0.036853828 0.1293972 -0.11033834
000210 09 49 62 bf 2c 9e 19 3e 6b 6c 11 3f 16 fb 8f bf
       -0.8839269 0.15001744 0.5680606 -1.12485
000220 06 f1 72 be 4b cb 07 be cd 7a 37 3f 79 44 4a be
       -0.23724756 -0.13261144 0.71671754 -0.19752683
000230 dc 11 48 3f e3 6f f0 bd f3 0d 93 3e 17 6b 42 bf
       0.7815225 -0.11740091 0.2872158 -0.75944656
000240 55 4c d6 3e 37 02 c3 3e e3 ae 7f 3d ee 6c 69 3b
       0.41855112 0.38087627 0.062422644 0.0035617906
000250 26 7b 07 3d 5c 1f 70 bf a4 25 11 3e f2 4c ee be
       0.033076428 -0.9379785 0.14174515 -0.4654308
000260 29 a0 09 3e aa 7c 77 3d 56 d8 9b 3e 6b 4d cc be
       0.13440003 0.060421623 0.3043849 -0.39902815
000270 d8 0b 82 be 74 41 f0 be a1 cd 26 3f a9 60 1e 3e
       -0.2539966 -0.46924937 0.65157515 0.1546656
000280 ac d8 1f 3e 11 03 30 3e 4d d5 a0 be 52 8d 65 bf
       0.15609998 0.1718867 -0.31412736 -0.8966876
000290 5f 38 75 3f f7 58 29 bd 7a bf f0 3d 57 dd 12 3e
       0.9578914 -0.04134461 0.11755271 0.14342247
0002a0 69 66 51 3e 51 66 2a bf 04 34 87 be bf a7 2b be
       0.20449223 -0.6656237 -0.26406872 -0.16763209
0002b0 62 73 ce 3d de 08 7c be 27 f1 ec 3d 3a 41 fb 3e
       0.10080601 -0.24612758 0.11569434 0.490732
0002c0 3c c0 42 3e f6 3d 22 3f 2e 02 fc 3d f9 ad ed be
       0.19018644 0.63375795 0.12305103 -0.46421793
0002d0 5c 84 9b 3e 3d d8 c5 bd e7 46 7c 3f 9c aa 64 3d
       0.3037442 -0.09660385 0.9854569 0.05582677
0002e0 90 ba 3d 3f 80 ae f9 bd 65 5a 1e 3d e4 b9 c3 be
       0.74112797 -0.12191486 0.038660426 -0.3822776
0002f0 13 43 fc be f8 35 39 3f 05 09 07 bf d6 f5 0c bd
       -0.49269924 0.72347975 -0.5274814 -0.034414135
000300 73 61 07 bd 8b 8b d3 be 2e 4a 93 3e 49 df 69 be
       -0.03305192 -0.413174 0.28767532 -0.22839083
000310 f7 a3 9f be 4c 17 1f bf ec d1 d8 be 2d b5 80 be
       -0.31179783 -0.62144923 -0.42347658 -0.25138226
000320 6d 46 fa 3d 69 d7 d3 bd fa 30 59 3e 54 c5 b2 3d
       0.12220464 -0.103438206 0.2121009 0.087290436
000330 c1 b8 a1 be a6 ce e6 bb 9b 6f ba be e4 92 cd 3e
       -0.3158627 -0.0070436774 -0.36413273 0.4015113
000340 be e6 72 3e cd 96 70 bd f8 17 48 be b5 25 80 bf
       0.23720834 -0.058737565 -0.19540393 -1.0011507
000350 bb 55 41 3e 62 a5 84 3f ef bc 52 be ca 36 b4 bd
       0.1888036 1.0362971 -0.20579885 -0.08799513
000360 56 db 2d 3f 7e 61 cc be c7 87 ec be 2e a7 16 bf
       0.67912805 -0.3991813 -0.4619734 -0.58848846
000370 73 e6 06 3f ab 55 73 3e 86 d5 f9 bd 5b 03 d1 3e
       0.5269539 0.23763148 -0.121989295 0.40822873
000380 18 5d 32 3e bd 5c 0a bf 8e 4d 78 3f ff 07 ce be
       0.17418325 -0.5404776 0.9699334 -0.40240476
000390 67 d8 12 3e 11 00 3d bf a4 18 00 be 43 b4 ba be
       0.14340363 -0.73828226 -0.125094 -0.36465654
0003a0 12 28 a4 be ad 6f 00 3f 09 25 09 3f 43 39 97 3e
       -0.3206182 0.50170404 0.53572136 0.29535875
0003b0 93 81 b5 bd 00 4c b1 be cd 89 eb 3e 6c b9 ee 3e
       -0.08862605 -0.34628296 0.4600357 0.4662584
0003c0 b1 e3 58 be 02 48 26 3d f1 b0 68 3e 6c 5b 06 bf
       -0.21180607 0.040596016 0.22723748 -0.5248325
0003d0 27 28 5f be 03 e3 fe bd a5 90 9b 3e 3f d8 95 3f
       -0.2179266 -0.12445643 0.30383793 1.1706618
0003e0 b0 ba 4d 3e d5 f9 fd 3e 30 79 2e bf 2d da 1e 3e
       0.20090747 0.4960467 -0.6815367 0.15512915
0003f0 6b a7 62 be 1a 13 a8 be f0 be eb be 97 cf 9a 3d
       -0.22134177 -0.32827073 -0.4604411 0.07559126

network_body._body_endoder.seq_layers.0.bias f4 [128]
000000 00 00 00 00 00 00 00 00 00 00 00 00 00 00 00 00
       0.0 0.0 0.0 0.0
000010 00 00 00 00 00 00 00 00 00 00 00 00 00 00 00 00
       0.0 0.0 0.0 0.0
000020 00 00 00 00 00 00 00 00 00 00 00 00 00 00 00 00
       0.0 0.0 0.0 0.0
000030 00 00 00 00 00 00 00 00 00 00 00 00 00 00 00 00
       0.0 0.0 0.0 0.0
000040 00 00 00 00 00 00 00 00 00 00 00 00 00 00 00 00
       0.0 0.0 0.0 0.0
000050 00 00 00 00 00 00 00 00 00 00 00 00 00 00 00 00
       0.0 0.0 0.0 0.0
000060 00 00 00 00 00 00 00 00 00 00 00 00 00 00 00 00
       0.0 0.0 0.0 0.0
000070 00 00 00 00 00 00 00 00 00 00 00 00 00 00 00 00
       0.0 0.0 0.0 0.0
000080 00 00 00 00 00 00 00 00 00 00 00 00 00 00 00 00
       0.0 0.0 0.0 0.0
000090 00 00 00 00 00 00 00 00 00 00 00 00 00 00 00 00
       0.0 0.0 0.0 0.0
0000a0 00 00 00 00 00 00 00 00 00 00 00 00 00 00 00 00
       0.0 0.0 0.0 0.0
0000b0 00 00 00 00 00 00 00 00 00 00 00 00 00 00 00 00
       0.0 0.0 0.0 0.0
0000c0 00 00 00 00 00 00 00 00 00 00 00 00 00 00 00 00
       0.0 0.0 0.0 0.0
0000d0 00 00 00 00 00 00 00 00 00 00 00 00 00 00 00 00
       0.0 0.0 0.0 0.0
0000e0 00 00 00 00 00 00 00 00 00 00 00 00 00 00 00 00
       0.0 0.0 0.0 0.0
0000f0 00 00 00 00 00 00 00 00 00 00 00 00 00 00 00 00
       0.0 0.0 0.0 0.0
000100 00 00 00 00 00 00 00 00 00 00 00 00 00 00 00 00
       0.0 0.0 0.0 0.0
000110 00 00 00 00 00 00 00 00 00 00 00 00 00 00 00 00
       0.0 0.0 0.0 0.0
000120 00 00 00 00 00 00 00 00 00 00 00 00 00 00 00 00
       0.0 0.0 0.0 0.0
000130 00 00 00 00 00 00 00 00 00 00 00 00 00 00 00 00
       0.0 0.0 0.0 0.0
000140 00 00 00 00 00 00 00 00 00 00 00 00 00 00 00 00
       0.0 0.0 0.0 0.0
000150 00 00 00 00 00 00 00 00 00 00 00 00 00 00 00 00
       0.0 0.0 0.0 0.0
000160 00 00 00 00 00 00 00 00 00 00 00 00 00 00 00 00
       0.0 0.0 0.0 0.0
000170 00 00 00 00 00 00 00 00 00 00 00 00 00 00 00 00
       0.0 0.0 0.0 0.0
000180 00 00 00 00 00 00 00 00 00 00 00 00 00 00 00 00
       0.0 0.0 0.0 0.0
000190 00 00 00 00 00 00 00 00 00 00 00 00 00 00 00 00
       0.0 0.0 0.0 0.0
0001a0 00 00 00 00 00 00 00 00 00 00 00 00 00 00 00 00
       0.0 0.0 0.0 0.0
0001b0 00 00 00 00 00 00 00 00 00 00 00 00 00 00 00 00
       0.0 0.0 0.0 0.0
0001c0 00 00 00 00 00 00 00 00 00 00 00 00 00 00 00 00
       0.0 0.0 0.0 0.0
0001d0 00 00 00 00 00 00 00 00 00 00 00 00 00 00 00 00
       0.0 0.0 0.0 0.0
0001e0 00 00 00 00 00 00 00 00 00 00 00 00 00 00 00 00
       0.0 0.0 0.0 0.0
0001f0 00 00 00 00 00 00 00 00 00 00 00 00 00 00 00 00
       0.0 0.0 0.0 0.0

network_body._body_endoder.seq_layers.2.weight f4 [128, 128]
000000 47 bb ae 3d cf cd f8 bd 59 43 7b 3d cb 03 70 3d
       0.08531814 -0.1214863 0.061343525 0.058597367
000010 6c 30 aa bd 17 c7 cb bc 4a 29 14 bd 0c f5 af 3d
       -0.08310017 -0.024875207 -0.03617219 0.08591661
000020 2b 6d 69 bd 21 0f 04 be 61 aa ec bc c5 34 d6 bd
       -0.056988876 -0.12896396 -0.028889837 -0.10459284
000030 c4 d1 c6 bd e3 a5 28 be b7 9b 6c 3d 25 fd b9 bd
       -0.09707978 -0.16469531 0.05776569 -0.090814866
000040 32 e1 c9 bc 76 eb a8 3c c2 6f 05 be 39 1f b5 3c
       -0.024643514 0.020620089 -0.13030913 0.022109615
000050 2f 6b 7f bd 6b 0b 4d 3d 3b 4e 35 3d 96 51 7f 3c
       -0.062358078 0.050059717 0.04426406 0.015583416
000060 44 63 89 3c 7e 55 34 3e b0 0b df bc 04 c0 88 3d
       0.016770966 0.17610738 -0.027227253 0.06677249
000070 bc 28 46 3d 6e bf c4 bd bf 45 91 bd 61 f1 95 bc
       0.04837869 -0.09606825 -0.07093381 -0.018303575
000080 9d d5 b0 bd 2c a9 27 be 5a aa 81 3d d2 0c 2f 3e
       -0.086344935 -0.16373128 0.0633132 0.17094734
000090 6d 2e 12 3d 4b 0c a8 bd 0b 35 8e 3c c9 67 32 3c
       0.035688806 -0.0820547 0.017359277 0.010889002
0000a0 0b fd d7 bd 69 cf 2e 3e b9 1c 25 bd 85 d7 f7 bc
       -0.10546311 0.17071308 -0.040310595 -0.030254135
0000b0 9b 5e cd bb 4e 98 11 bd 84 4c 86 3d 37 0f bc 3c
       -0.0062673814 -0.03554564 0.06557563 0.022956474
0000c0 ca 78 12 bd 53 f2 08 be b7 da e6 bc fb 0a 0e be
       -0.035759725 -0.1337369 -0.028180463 -0.13871376
0000d0 db a3 70 bd 81 8b 80 bd db dd 2b 3e 48 48 8a bd
       -0.058750015 -0.06276608 0.1678385 -0.06752068
0000e0 04 f9 e8 3d 1e 9d 7c bc 3e 59 48 bc 01 18 1f 3c
       0.11375621 -0.015418319 -0.012228308 0.009710313
0000f0 4f 8e 66 be 11 39 de 3c 35 d8 47 3d 56 7b 05 bd
       -0.22515224 0.02712682 0.048790175 -0.032588325
000100 c0 9a b5 3d b6 a0 05 3e 16 19 f6 bd 83 7d 72 3d
       0.08867407 0.13049588 -0.120165035 0.05920173
000110 50 f5 98 bd e6 07 30 be d1 9a 25 bd 03 20 dd 3d
       -0.07468665 -0.17190513 -0.040430848 0.107971214
000120 06 52 8e bd c2 9a 05 bb 8a 00 50 3c c3 d8 cb bd
       -0.069492385 -0.0020386432 0.012695441 -0.099534534
000130 b1 b6 3e be 8c be c1 3d 07 79 b9 bc 65 cf 9e be
       -0.18624379 0.09460172 -0.022640718 -0.31017604
000140 e0 74 16 3d a7 51 ed bd 80 2b 91 bd 08 91 a8 bd
       0.036732554 -0.115878396 -0.07088375 -0.082307875
000150 2b aa 82 3d 75 ed 58 bc d3 46 ea 3c 4d 26 49 3c
       0.06380113 -0.013240208 0.028598225 0.012277198
000160 58 5e 8f 3d 79 48 9b bd 19 7a 05 3e 84 9e da 3d
       0.070004165 -0.075821824 0.13034858 0.10674766
000170 44 fa af 3d 6f 34 bf 3d 70 6b 73 3c 55 5f 9c bd
       0.08592656 0.09336173 0.014857158 -0.07635371
000180 4c 58 97 bd 29 b9 55 bd a1 66 8f bd b8 68 2a 3e
       -0.07389888 -0.052178536 -0.07001997 0.1664151
000190 77 b0 17 bd a2 56 ba 3d 9d 78 67 3d 41 84 0e 3e
       -0.037033524 0.09098555 0.05651151 0.13917638
0001a0 68 dd 87 3d 27 c7 3c 3e c4 7c c7 3d 9c fc e9 bc
       0.06634027 0.18435346 0.09740594 -0.028562836
0001b0 d6 af 0a 3d 09 41 93 bb 76 66 bf bd 66 1e 43 bd
       0.033859096 -0.004493837 -0.09345715 -0.047636412
0001c0 e3 74 5e 3d 00 7d 27 bd 27 58 99 3c 22 32 13 3d
       0.05431069 -0.040890694 0.018718792 0.035936482
0001d0 1c 59 71 3d 2f 74 51 3d 75 e0 85 3c 05 90 bb bd
       0.058922872 0.051136192 0.016342381 -0.09158329
0001e0 92 c7 e8 3d 91 5d d6 3d d0 6e ae 3a 53 b1 d0 bd
       0.1136619 0.10467065 0.0013308171 -0.10190072
0001f0 a8 f5 95 3c 15 6e f2 3d ac 2f d0 3b ff 27 f1 bc
       0.018305615 0.11837403 0.006353339 -0.029438017
000200 96 2c d8 3d 2a 4b 9f bd aa d7 92 3d 9e 1b 3c 3e
       0.10555379 -0.07778008 0.07170041 0.1836991
000210 95 88 0d 3e 33 1b d1 bd 8f 9f cc 3d be df 6a bd
       0.13821633 -0.10210266 0.09991371 -0.057342283
000220 a4 12 88 3c f2 f0 c4 3d 1c ff 43 3d ed fd ed 3d
       0.016610451 0.09616269 0.047850713 0.11620698
000230 d6 f6 51 bd b1 23 c5 bd 64 35 e1 bc a0 08 13 3e
       -0.05126079 -0.09625948 -0.027491279 0.14358759
000240 6b 3c 73 bd 94 ce 0e 3e ee f4 7a bd f8 b4 81 bd
       -0.05938379 0.13945991 -0.06126874 -0.06333345
000250 10 76 d9 3c c3 0a b8 bb 1b 8a 88 3d f8 1e c7 bb
       0.026545554 -0.0056165173 0.066669665 -0.00607669
000260 f5 c3 93 bd 52 89 d6 bd d1 2a ea ba 77 ac ac bd
       -0.0721511 -0.104754105 -0.0017865543 -0.084313326
000270 a3 ae ac 3d f1 06 15 be ad c1 79 3d 04 84 10 bd
       0.08431747 -0.14553429 0.06097572 -0.03528215
000280 17 59 7a 3d e1 17 a3 3d 99 08 65 bd 5c 09 27 bd
       0.06112012 0.07963539 -0.055916402 -0.04078041
000290 5f ca 0b bd 5a 0e 07 3d ef c2 68 3e be 9f ee bc
       -0.034128543 0.03297267 0.22730611 -0.029128905
0002a0 33 59 c4 bd 86 5c 70 3d 64 88 f9 3c b5 10 40 3d
       -0.09587326 0.058681987 0.030460544 0.046890933
0002b0 71 66 c4 bc ba 6d 40 3e 25 ee 4a bc 75 53 59 3b
       -0.02397463 0.18791857 -0.01238588 0.0033161317
0002c0 35 53 d1 3d 71 39 89 bd c8 66 97 bd bf 73 92 3b
       0.102209486 -0.06700409 -0.07392651 0.0044693644
0002d0 81 f2 91 3d 88 6a 39 bd b9 00 2f be e7 a5 c6 3d
       0.07126332 -0.04526761 -0.1709012 0.09699612
0002e0 b6 08 a6 3c 2e 92 86 bd 26 33 8b 3b f4 9d 27 bd
       0.020267826 -0.0657085 0.0042480407 -0.04092212
0002f0 91 6a 32 be 3f cf 15 3c f2 d4 90 3b 10 d8 c6 3c
       -0.17423464 0.00914365 0.0044199163 0.024272949
000300 65 0a 1c 3d 16 c9 7a 3d c8 df 5e bd 10 26 b1 3c
       0.03809585 0.061226927 -0.054412633 0.021624595
000310 42 3c b7 3c e3 67 09 3e 25 af 09 bd ea 30 d0 3d
       0.0223676 0.13418536 -0.033614296 0.101655796
000320 2f 14 9c bd 12 26 a7 3d 7b 36 00 3d dd cd 8b bd
       -0.07621037 0.08161558 0.031301957 -0.06826375
000330 3c 54 14 3b 20 66 0b be 1a 72 86 bd 1d 2d e3 3b
       0.0022633215 -0.13613176 -0.06564732 0.006932868
000340 9c 26 dc bc b9 0e 19 be ce 2d 00 3d 61 e2 0a be
       -0.02687388 -0.14947022 0.031293683 -0.13562919
000350 6d 6f 82 3d a2 22 e5 3b 5b 6f 8a bd 43 9f a6 3c
       0.06368909 0.006992654 -0.067595206 0.020339614
000360 02 57 aa bd e5 e9 14 3d 80 ac 8e bd 39 3c 92 bd
       -0.08317377 0.03635587 -0.069664955 -0.07140393
000370 fb 96 f5 bd 8d d9 02 bd e4 c6 02 3d da 80 6f 3d
       -0.11991688 -0.031945754 0.031927958 0.05847249
000380 89 7b 8d bd 86 39 c5 3d ba 90 87 3c 8a 16 95 bd
       -0.06908328 0.09630112 0.016548503 -0.072796896
000390 18 fc b5 bd 68 b9 df bc 3d fb 09 3e 75 b8 90 3d
       -0.08885974 -0.027310088 0.13474746 0.070664324
0003a0 af 84 e0 bd 38 1b fa 3c 8d 59 91 3a 9e c8 d5 bc
       -0.109628074 0.030530557 0.001108931 -0.026096638
0003b0 89 3d 26 3e 3b d7 90 3b 7d 13 a4 3d c3 97 cd bc
       0.16234411 0.0044201887 0.080115296 -0.02509678
0003c0 3e 9b 6f 3d 65 f7 05 be ae be 8b bd 74 0e d8 3d
       0.05849766 -0.13082655 -0.06823479 0.10549632
0003d0 09 27 8d bd 3b fb 95 bd 90 8d 86 3d 17 fb 9a bc
       -0.06892211 -0.07323309 0.0656997 -0.018918557
0003e0 c4 02 91 3d 3c 71 9c 3c b1 2a 34 3e ce 62 95 bc
       0.070806056 0.019096963 0.1759441 -0.01823559
0003f0 43 a6 da bd 27 be 18 be df 7a 05 3d d3 4b c2 3c
       -0.10676243 -0.14916287 0.032587882 0.023717796

network_body._body_endoder.seq_layers.2.bias f4 [128]
000000 00 00 00 00 00 00 00 00 00 00 00 00 00 00 00 00
       0.0 0.0 0.0 0.0
000010 00 00 00 00 00 00 00 00 00 00 00 00 00 00 00 00
       0.0 0.0 0.0 0.0
000020 00 00 00 00 00 00 00 00 00 00 00 00 00 00 00 00
       0.0 0.0 0.0 0.0
000030 00 00 00 00 00 00 00 00 00 00 00 00 00 00 00 00
       0.0 0.0 0.0 0.0
000040 00 00 00 00 00 00 00 00 00 00 00 00 00 00 00 00
       0.0 0.0 0.0 0.0
000050 00 00 00 00 00 00 00 00 00 00 00 00 00 00 00 00
       0.0 0.0 0.0 0.0
000060 00 00 00 00 00 00 00 00 00 00 00 00 00 00 00 00
       0.0 0.0 0.0 0.0
000070 00 00 00 00 00 00 00 00 00 00 00 00 00 00 00 00
       0.0 0.0 0.0 0.0
000080 00 00 00 00 00 00 00 00 00 00 00 00 00 00 00 00
       0.0 0.0 0.0 0.0
000090 00 00 00 00 00 00 00 00 00 00 00 00 00 00 00 00
       0.0 0.0 0.0 0.0
0000a0 00 00 00 00 00 00 00 00 00 00 00 00 00 00 00 00
       0.0 0.0 0.0 0.0
0000b0 00 00 00 00 00 00 00 00 00 00 00 00 00 00 00 00
       0.0 0.0 0.0 0.0
0000c0 00 00 00 00 00 00 00 00 00 00 00 00 00 00 00 00
       0.0 0.0 0.0 0.0
0000d0 00 00 00 00 00 00 00 00 00 00 00 00 00 00 00 00
       0.0 0.0 0.0 0.0
0000e0 00 00 00 00 00 00 00 00 00 00 00 00 00 00 00 00
       0.0 0.0 0.0 0.0
0000f0 00 00 00 00 00 00 00 00 00 00 00 00 00 00 00 00
       0.0 0.0 0.0 0.0
000100 00 00 00 00 00 00 00 00 00 00 00 00 00 00 00 00
       0.0 0.0 0.0 0.0
000110 00 00 00 00 00 00 00 00 00 00 00 00 00 00 00 00
       0.0 0.0 0.0 0.0
000120 00 00 00 00 00 00 00 00 00 00 00 00 00 00 00 00
       0.0 0.0 0.0 0.0
000130 00 00 00 00 00 00 00 00 00 00 00 00 00 00 00 00
       0.0 0.0 0.0 0.0
000140 00 00 00 00 00 00 00 00 00 00 00 00 00 00 00 00
       0.0 0.0 0.0 0.0
000150 00 00 00 00 00 00 00 00 00 00 00 00 00 00 00 00
       0.0 0.0 0.0 0.0
000160 00 00 00 00 00 00 00 00 00 00 00 00 00 00 00 00
       0.0 0.0 0.0 0.0
000170 00 00 00 00 00 00 00 00 00 00 00 00 00 00 00 00
       0.0 0.0 0.0 0.0
000180 00 00 00 00 00 00 00 00 00 00 00 00 00 00 00 00
       0.0 0.0 0.0 0.0
000190 00 00 00 00 00 00 00 00 00 00 00 00 00 00 00 00
       0.0 0.0 0.0 0.0
0001a0 00 00 00 00 00 00 00 00 00 00 00 00 00 00 00 00
       0.0 0.0 0.0 0.0
0001b0 00 00 00 00 00 00 00 00 00 00 00 00 00 00 00 00
       0.0 0.0 0.0 0.0
0001c0 00 00 00 00 00 00 00 00 00 00 00 00 00 00 00 00
       0.0 0.0 0.0 0.0
0001d0 00 00 00 00 00 00 00 00 00 00 00 00 00 00 00 00
       0.0 0.0 0.0 0.0
0001e0 00 00 00 00 00 00 00 00 00 00 00 00 00 00 00 00
       0.0 0.0 0.0 0.0
0001f0 00 00 00 00 00 00 00 00 00 00 00 00 00 00 00 00
       0.0 0.0 0.0 0.0

action_model._continuous_distribution.log_sigma f4 [1, 2]
000000 00 00 00 00 00 00 00 00
       0.0 0.0

action_model._continuous_distribution.mu.weight f4 [2, 128]
000000 a9 e3 0e bc a6 cd 92 3c 6f aa 3e bd d7 14 79 3b
       -0.008721271 0.017920326 -0.046549257 0.0038006806
000010 90 43 26 3a 3f fe 4a 3b d7 6b da 3b f8 cd 56 3c
       0.0006342465 0.0030974296 0.0066656875 0.01311063
000020 fb 6e 12 bc 70 05 50 bc 6c a4 a8 3b 83 19 08 3b
       -0.008937593 -0.012696609 0.0051465537 0.002076716
000030 5a c8 bf b9 1a 14 8b 3c 10 86 11 3b b0 2d f8 bb
       -0.00036579632 0.016977359 0.0022205152 -0.0075738057
000040 0c c4 ae 3c e3 94 21 bc 33 ae bf bc 53 da 69 bb
       0.021333717 -0.0098621575 -0.023398494 -0.003568311
000050 cf 57 9d bc 7d fb dc 3b e5 6d 2e 3c a8 7a d2 3c
       -0.01920691 0.006743847 0.010646318 0.025693253
000060 68 18 54 3c 83 23 37 3d 52 28 77 bc 83 12 d1 3c
       0.012945272 0.0447116 -0.015085297 0.025521522
000070 07 54 8c 3c 68 ef 18 3c ad 69 ec bc bb 85 22 bd
       0.017129911 0.009334423 -0.028858984 -0.039678317
000080 4d a4 f2 3b 55 28 16 bd 35 80 58 bc 07 0a 37 bc
       0.00740484 -0.036659557 -0.013214161 -0.011171824
000090 bd d2 54 3c d1 90 83 bc da 91 c5 3b b2 ef f5 3c
       0.012989697 -0.016060265 0.0060293498 0.030021522
0000a0 ff ad bc 3b 37 f9 43 bb 4d b4 3e bc 50 82 0d bd
       0.0057580466 -0.0029903182 -0.011639667 -0.034548104
0000b0 b2 18 5e bb af d8 ff 3b 56 ef 06 3c 17 d7 11 bc
       -0.0033889231 0.007807813 0.008235773 -0.008901379
0000c0 f8 5c 37 3b c0 62 b7 3b 07 21 09 3b 7a 06 fb bc
       0.0027978998 0.0055964887 0.0020924227 -0.030642737
0000d0 0b a0 4e 3c af ce 31 3c a7 ab 9e 3c 67 83 da b9
       0.012611399 0.0108525 0.01936896 -0.00041678103
0000e0 dc d3 82 3c fa cd de bc d7 e5 96 bb 0b d3 34 bc
       0.015970163 -0.027197827 -0.0046050358 -0.011036645
0000f0 7d 9b 08 3d 83 9e 2e bd 17 d0 8c bc bc a4 ae bc
       0.03335141 -0.042631637 -0.017189069 -0.021318786
000100 cd 87 09 bc 5e 55 9a 3b 7d 4c 0d bd 0f cd 27 3c
       -0.008394194 0.0047098836 -0.034496773 0.010241761
000110 bf c7 4f 3c e3 63 93 3b 32 42 91 3c 86 c7 81 3c
       0.0126819005 0.0044979914 0.01773176 0.01584221
000120 db c2 72 ba 02 f1 50 3c 75 81 c1 b9 1d d2 eb bc
       -0.0009260603 0.012752773 -0.00036908282 -0.028786713
000130 80 13 db 3c 47 3b c9 3b ca 5c 81 3c 27 37 16 3d
       0.026742697 0.0061410996 0.015791316 0.03667369
000140 5e 8c 80 3c cf c4 bf 3b 7a 08 dd 3b 80 25 aa bc
       0.015691932 0.005852319 0.0067453953 -0.020769835
000150 5d aa b8 3b 19 02 13 3c c8 5d 2f bb 00 e5 97 3b
       0.0056355433 0.008972668 -0.002675878 0.004635453
000160 a2 0d d5 3b d2 aa a6 bc 8c 0c bd ba 13 ce 81 bc
       0.0065018693 -0.020345125 -0.0014423295 -0.015845334
000170 3b 03 51 bb 9b a4 09 bc 9d 29 e3 3c 3a 6c ff 3b
       -0.0031892795 -0.008401061 0.027729804 0.007794884
000180 5f 88 55 3b bd dd 46 3a 60 a5 b3 3b d8 70 e7 bb
       0.0032582504 0.0007586142 0.0054823607 -0.0070630126
000190 72 c9 d3 3c 5f d0 a3 bb 6a fd ca 3c ea d0 e5 bb
       0.025852893 -0.004999205 0.02477904 -0.00701343
0001a0 24 96 49 3c b8 3e d4 3c 08 6d e1 3a 58 3c 0c bb
       0.012303863 0.025908813 0.0017198632 -0.0021398272
0001b0 4b ea d0 bc f5 ba ee bb cb d9 5a 3c 04 40 bd bb
       -0.025502345 -0.0072854706 0.01335759 -0.0057754535
0001c0 07 cc 31 bc 38 9d ad bc 7f 23 1e ba ca 55 a2 bc
       -0.010851867 -0.021193132 -0.0006032511 -0.019816298
0001d0 5d d9 6c bc 9f 5e 0a bd d9 c5 9d bc 37 b3 28 bc
       -0.01445612 -0.033781644 -0.01925938 -0.010296634
0001e0 21 d7 14 bc aa 18 6d 3c e3 e9 17 bc ab f5 41 3c
       -0.009084494 0.014471212 -0.0092720715 0.011838357
0001f0 99 27 a7 ba 67 6e 8e 3c 5e e6 a6 3c a3 87 51 bb
       -0.001275289 0.017386628 0.02037352 -0.0031971715
000200 5f d7 ae bb 70 6f dc bc 90 ca 81 3c 0d 3a 76 bb
       -0.005335733 -0.026908606 0.01584366 -0.0037571222
000210 ff 0c 2f 3c e2 f0 b4 bb 92 a0 9e 3b 77 81 2b 3b
       0.010684251 -0.0055218795 0.004840919 0.0026169696
000220 cb af 33 3a e3 0e 4a bc ed e6 24 3c 68 4a da bb
       0.00068545033 -0.012332651 0.010064823 -0.006661702
000230 1f 1d 1c bd a7 5a 01 3d 0d 6e 1d 3d 63 49 25 bb
       -0.03811371 0.031580593 0.03843503 -0.0025220744
000240 9e 28 b4 bc eb eb 8b bc 27 76 47 3d 86 0b ba 3b
       -0.021992024 -0.017080268 0.048696663 0.005677643
000250 eb af 2b ba 8b 68 bc bc dd 3f ec bc fa cd 1c bb
       -0.0006549346 -0.022999069 -0.028839046 -0.0023926483
000260 d2 7b 0a bc dd d9 b1 bc ca bd 51 bc bf d2 7a 3c
       -0.008452373 -0.02171033 -0.012801597 0.015309035
000270 a5 f0 c6 3b 02 d3 44 bb 0a 5f a0 ba 88 29 59 bc
       0.0060711675 -0.0030032997 -0.0012235355 -0.013254531
000280 66 88 9b 3b 8e 68 a5 bc 8b 70 cb 3b 55 17 ea bb
       0.0047464846 -0.020191457 0.0062084845 -0.0071438947
000290 50 fc 2b bc b8 31 d1 3b 7f fc 0b bc b7 bf 8f 3c
       -0.010497168 0.0063841008 -0.0085440865 0.017547471
0002a0 00 6b 84 3b d2 e7 32 3c 0f cb 39 bc 38 c9 a2 3c
       0.0040410757 0.010919528 -0.011339917 0.01987134
0002b0 03 d3 2e 3c 58 ce cc 3a 72 0d 08 3d 42 9a f5 3b
       0.010670426 0.001562546 0.033215947 0.0074951956
0002c0 64 8b bd 3c 63 d0 04 3d 20 6a b8 3c 0f 88 b1 bc
       0.023137756 0.032425296 0.022511542 -0.021671323
0002d0 87 23 0e 3c 01 c0 b9 ba 14 61 32 3b a8 5d cd 3b
       0.008675463 -0.0014171602 0.0027218508 0.006267268
0002e0 f7 d5 1c bb 47 4a 70 bc a5 b2 a7 bc f1 b5 bc bc
       -0.0023931244 -0.014666147 -0.020470927 -0.023035975
0002f0 69 99 98 ba 5b 6f 71 3c 7f 83 ae 3c 2c de 3a bc
       -0.00116424 0.014736022 0.021302937 -0.011405509
000300 15 dd 81 3b 27 b7 c4 bc c0 62 6a bc 7b 5a 72 3c
       0.0039631226 -0.024013115 -0.01430577 0.01479208
000310 30 60 a5 bc fe 7b 1c bb c2 bc 0d bd 03 bf 60 3c
       -0.020187467 -0.0023877616 -0.03460384 0.013717416
000320 62 1a b8 3b fa de 98 3c 13 f8 a9 bc c7 83 8c 3c
       0.0056183795 0.018661011 -0.020748174 0.01715268
000330 4b 1d 21 bd 25 9c f9 bc 78 84 51 bc 33 31 ea bb
       -0.039334577 -0.030469963 -0.012787931 -0.0071469783
000340 2a 03 7b bb 88 d3 e8 3c e7 0f 10 3c e1 5e 8b b8
       -0.0038301446 0.028421178 0.008792854 -6.645709e-05
000350 7b 9a 49 3c 6b 25 59 bc 97 56 99 bc c2 52 8c b9
       0.012304897 -0.01325355 -0.018718047 -0.0002676454
000360 2f 58 20 3b c7 74 23 3d 77 da 32 3c 46 22 bb 3c
       0.0024466624 0.03990629 0.010916344 0.022843491
000370 b3 dd 4f bb 8e cd 42 bb fa 08 8f 3c 9a 90 c3 bc
       -0.0031717836 -0.002972457 0.017460335 -0.023872662
000380 37 c2 7f 3c 3e cb 87 bb 8e f8 b3 bc 10 fb 33 ba
       0.015610269 -0.0041441014 -0.021969106 -0.00068657193
000390 a8 57 92 3c bd c8 ed 3b 19 aa 89 3b 2f 66 66 bc
       0.017864063 0.007256596 0.0042011854 -0.014062448
0003a0 08 e9 b6 3c f2 80 95 bb cb c1 61 3c 9f 76 8c 3b
       0.022327915 -0.0045624906 0.013779114 0.0042866017
0003b0 3f 64 41 3c 36 04 bc 3c f3 df 0c bc af 4d e0 3c
       0.011803686 0.022951227 -0.0085983155 0.027380792
0003c0 af 42 9f 3c 75 ef bb bb 43 f8 df bc e7 a4 f0 3b
       0.019440977 -0.0057353326 -0.02734006 0.0073438766
0003d0 53 34 a9 bc 45 bb ed 3c e8 8f f2 bc df 17 b9 3c
       -0.020654833 0.029019961 -0.029609635 0.02259439
0003e0 47 73 16 3d 84 21 8f 3c d4 b8 3a bd fd cb cd 3c
       0.03673103 0.017472036 -0.045586422 0.025121683
0003f0 38 f7 02 3c ff f5 9a 3c f1 56 ab bb 33 ac 97 bc
       0.007993512 0.018916128 -0.00522887 -0.018514728

action_model._continuous_distribution.mu.bias f4 [2]
000000 00 00 00 00 00 00 00 00
       0.0 0.0

network_body._body_endoder.seq_layers.0.weight f4 [128, 5]
000000 4e 74 cf 3e b5 6c c0 3e 9d c6 02 be ea 39 bd 3e
       0.4051842 0.37582937 -0.12771077 0.36958247
000010 4e a9 5a 3f 29 91 a8 3f 4d 33 e8 be b5 a3 71 be
       0.8541459 1.3169299 -0.4535164 -0.23597606
000020 01 03 cc 3e b6 66 47 3f e4 9f d4 be 9a ab 35 be
       0.39846042 0.778911 -0.41528237 -0.17741242
000030 c7 15 23 3f 89 46 b2 bd 73 a7 07 be ee 11 da 3e
       0.63705105 -0.0870486 -0.1324747 0.42591804
000040 84 94 ce 3d 44 bc 9b be 3f 73 48 3e 70 f6 4c 3f
       0.10086921 -0.30417073 0.19575213 0.80063534
000050 8e eb 71 bf 70 51 9e be 53 4b 9f be ba 38 bc 3d
       -0.9450005 -0.30921507 -0.31112155 0.09190507
000060 2b ec a4 be 2c c8 1f 3e 5b 1a 12 3f 47 7a e8 3e
       -0.32211432 0.15603703 0.57071465 0.4540579
000070 65 21 96 3d b2 08 4c bf 8e 8d 05 bf 7f f1 24 3f
       0.07330588 -0.7970077 -0.5216912 0.64430994
000080 d5 95 71 be 3b 75 6c 3e 75 ef 19 3f da a0 93 3f
       -0.23592313 0.23091595 0.6013101 1.1533463
000090 51 11 69 bd 50 e0 45 bf 39 05 08 3f 2b aa bc be
       -0.05690128 -0.772954 0.5313297 -0.36848578
0000a0 5c 8c d2 be 07 11 59 be 6a 91 b6 be e7 c6 2e be
       -0.4112271 -0.21197902 -0.35657817 -0.17068063
0000b0 64 91 e0 3e 13 e0 a0 3e 5e a8 aa 3c be 34 30 3e
       0.43860924 0.31420955 0.020832237 0.1720762
0000c0 af 73 eb bd cb 61 7f 3f ba 2e 81 3f 42 d3 b3 be
       -0.11496674 0.99758595 1.0092385 -0.35122114
0000d0 ef 17 31 bd d5 5d 65 bd 54 d9 1e 3f 33 12 9a be
       -0.043235715 -0.05599769 0.62050366 -0.3009201
0000e0 fe 4d a3 3d 02 d8 43 be 88 72 7a be 64 e7 e9 3e
       0.0797386 -0.19125369 -0.24457753 0.4568435
0000f0 19 9c cf bd cc 76 e5 3e 1f 9f 29 bf b9 c7 bc 3e
       -0.10137195 0.44817197 -0.66258425 0.36871126
000100 0d a0 70 bc b5 97 99 be 9c 45 f0 bc e1 5f b3 3e
       -0.014686597 -0.29998556 -0.029330067 0.35034087
000110 04 0a 13 3f 60 a0 33 bf 09 80 9f be 70 e8 a5 3e
       0.5743716 -0.7016659 -0.3115237 0.32403898
000120 49 08 35 3e 46 b6 e1 be 0a b3 46 bf 69 d6 cd 3d
       0.17678942 -0.44084376 -0.7761694 0.10050661
000130 78 0b 2a bf 6b b0 2e 3f 84 2c 9a be e0 cf 93 be
       -0.6642375 0.6823794 -0.30112088 -0.28869534
000140 9c 45 a8 bc 44 d0 24 be 9d ef a4 3e 62 1e b2 be
       -0.020541005 -0.16095072 0.3221406 -0.34788805
000150 cd 82 04 bf 02 5c cd be e7 ca b5 bd 35 bc 8f be
       -0.51762086 -0.4010926 -0.08876591 -0.28073278
000160 5e 5a 45 be 69 4e f2 be f1 45 af 3e eb 2a 1c bd
       -0.19272754 -0.47325447 0.3423305 -0.038126867
000170 de 33 7f 3e d7 81 a9 be 8c 6b 03 be 97 62 38 bf
       0.2492213 -0.33106872 -0.12833995 -0.72025436
000180 ea 39 95 be 7a cb 75 3e 19 7e 42 be 15 ee 0a 3f
       -0.29145747 0.24003401 -0.18993415 0.54269534
000190 5d 04 be be 02 bf 83 3e 94 01 3d 3e 2f b4 f7 3e
       -0.37112704 0.25731665 0.18457633 0.48379657
0001a0 48 c9 cd be 33 a9 e1 be bc 3f 99 3e cd 2f 22 bf
       -0.40192628 -0.440744 0.29931438 -0.6335419
0001b0 37 2a 0a 3f a9 de 32 be 57 0d aa 3e 04 f8 59 3e
       0.53970665 -0.1746775 0.33213302 0.21286017
0001c0 75 3c 15 3d 8c be dc bd ac 9d 03 3e f5 00 4f 3f
       0.03643461 -0.107785314 0.12853116 0.80860835
0001d0 58 a0 c4 3e fa 63 1d 3e c2 2a bc 3d 10 76 b5 bd
       0.38403583 0.1537017 0.09187843 -0.08860409
0001e0 50 ac 0a bd 02 58 1d bf 1f 31 ad be e8 a8 d3 be
       -0.033855736 -0.61462414 -0.3382654 -0.41339803
0001f0 cd e6 dc 3d 7f 09 b9 be ad 58 94 be b8 af da 3e
       0.10786209 -0.36140057 -0.28973904 0.42712188
000200 f6 7e 75 bd a2 c4 80 be 3a b3 a2 3e 6a 94 13 be
       -0.059935533 -0.2515002 0.31777364 -0.14412084
000210 ac a3 c3 3e 05 0d e9 3e ca 7a d4 be 85 c5 eb 3d
       0.3821081 0.45517746 -0.4149993 0.11512283
000220 e8 82 94 3c 43 6d 71 be 41 48 09 be 8e 92 a6 3e
       0.018128827 -0.23576836 -0.13406469 0.32533687
000230 1c 4c 03 3c 4f c4 32 3d 53 5c c6 be 02 ec d3 be
       0.008013751 0.043644246 -0.38742313 -0.41390997
000240 14 5d 04 3f 51 50 e6 be 01 1e 8a 3f 7d c4 79 3c
       0.51704526 -0.44983152 1.0790406 0.0152446
000250 02 1f ac 3e 35 88 d9 be 89 40 94 3e dd c0 d3 3e
       0.33617407 -0.4248673 0.28955486 0.4135808
000260 45 a9 65 3f ff fd 5f 3d 3f 8d 0e bf f6 08 6e bf
       0.8971141 0.05468559 -0.55684274 -0.92982423
000270 5e c5 a3 be db 05 00 bf 21 a1 58 bf 96 fa 6d be
       -0.31986517 -0.50008935 -0.84620863 -0.23240122
000280 43 ab be 3d 40 8b 12 3e 50 b5 8e be fe 8b 45 be
       0.09310009 0.14310932 -0.27872705 -0.19291684
000290 42 07 6f be c9 3b 91 3e 93 16 3e 3e 07 51 03 bc
       -0.23342612 0.28365925 0.18563299 -0.008014924
0002a0 c6 ce 6a 3c 95 23 75 3e 46 4e d9 bd 66 60 36 bf
       0.014331525 0.23939355 -0.106106326 -0.7124084
0002b0 97 c0 5b bf a6 20 2c 3e 11 3c bc 3d dc e5 bb be
       -0.85840744 0.1680933 0.09191144 -0.36698806
0002c0 2b 69 3e 3d 26 1c 1e 3e c9 a2 95 3e 4c 9d bc be
       0.046487015 0.15440425 0.29225758 -0.36838758
0002d0 4c c3 16 be 82 aa 0a be 23 74 7c 3e d1 c4 2e 3f
       -0.14722937 -0.13541606 0.24653678 0.6826907
0002e0 1e 03 b3 3e df 0d b5 bd a9 a7 3e be 3e 97 2d bf
       0.34963316 -0.08840536 -0.18618645 -0.678089
0002f0 3d 51 59 be 49 a3 f2 3e b7 dc 1f bf fa d6 36 be
       -0.21222396 0.47390202 -0.6244616 -0.17855445
000300 13 ff f9 be 22 50 84 be 35 66 15 3d 46 84 6e 3f
       -0.4882742 -0.25842386 0.036474425 0.93170583
000310 5d 8b 74 bd 10 32 3f 3f e1 d6 5c 3d 37 29 28 3f
       -0.05970322 0.74685764 0.053915862 0.6568789
000320 9c f7 0f 3d 65 ce d8 bd 0d 96 6f bd e3 d4 9c bd
       0.035148248 -0.10586242 -0.05849271 -0.076577924
000330 6d 53 1b bf 11 5d 86 3e bf 20 0a bf 69 95 82 3b
       -0.6067417 0.2624288 -0.53956217 0.0039850962
000340 c1 86 b9 be f0 d1 ab 3d d0 a9 15 bf c7 e6 3a bf
       -0.36235622 0.08389652 -0.5846224 -0.7300839
000350 43 97 f7 3e 13 0e bf 3e 44 89 0a bf b0 87 9d 3e
       0.4835759 0.37315425 -0.541157 0.30767584
000360 a9 e6 12 3e 45 94 5b 3e 02 12 66 bd 3d ed 58 3e
       0.14345802 0.21443279 -0.056169517 0.21184249
000370 fc cb 9d be 07 39 85 3d 85 eb 06 3d c4 14 d8 bd
       -0.3081969 0.06505018 0.032939453 -0.10550836
000380 85 36 42 bf d6 72 c3 be 4b c6 c7 3e 20 ba b2 bd
       -0.7586444 -0.3817355 0.39018473 -0.08726907
000390 85 17 6c 3d db 2b 38 3e 8a 2c fb be c2 de ff 3d
       0.057639617 0.1798548 -0.49057418 0.124936596
0003a0 e5 8d 3c bd 30 b4 d6 3e dc 14 1c bf 43 18 e0 3e
       -0.04603376 0.41934347 -0.6096933 0.4376851
0003b0 f9 4d c1 3e d1 cc 5a 3f 3d 15 4d 3b 1a 49 f9 be
       0.377548 0.85468775 0.0031293177 -0.48688585
0003c0 5f 96 03 3f 04 35 0e 3f 3d 6a 72 3e cc 76 9b 3f
       0.51401323 0.55549645 0.23673339 1.2145629
0003d0 d2 a9 15 3f 47 d3 2a bf 6f d5 ce 3e eb b8 2b be
       0.5846225 -0.66728634 0.40397212 -0.1676976
0003e0 59 05 97 be 98 41 e5 be a5 03 0f 3d 7c 6c a1 3d
       -0.29496267 -0.44776607 0.034915585 0.0788202
0003f0 9d a0 aa be 01 0f 9d bd 5e 77 64 be b9 c5 17 be
       -0.33325663 -0.076688774 -0.2231116 -0.14821519

network_body._body_endoder.seq_layers.0.bias f4 [128]
000000 00 00 00 00 00 00 00 00 00 00 00 00 00 00 00 00
       0.0 0.0 0.0 0.0
000010 00 00 00 00 00 00 00 00 00 00 00 00 00 00 00 00
       0.0 0.0 0.0 0.0
000020 00 00 00 00 00 00 00 00 00 00 00 00 00 00 00 00
       0.0 0.0 0.0 0.0
000030 00 00 00 00 00 00 00 00 00 00 00 00 00 00 00 00
       0.0 0.0 0.0 0.0
000040 00 00 00 00 00 00 00 00 00 00 00 00 00 00 00 00
       0.0 0.0 0.0 0.0
000050 00 00 00 00 00 00 00 00 00 00 00 00 00 00 00 00
       0.0 0.0 0.0 0.0
000060 00 00 00 00 00 00 00 00 00 00 00 00 00 00 00 00
       0.0 0.0 0.0 0.0
000070 00 00 00 00 00 00 00 00 00 00 00 00 00 00 00 00
       0.0 0.0 0.0 0.0
000080 00 00 00 00 00 00 00 00 00 00 00 00 00 00 00 00
       0.0 0.0 0.0 0.0
000090 00 00 00 00 00 00 00 00 00 00 00 00 00 00 00 00
       0.0 0.0 0.0 0.0
0000a0 00 00 00 00 00 00 00 00 00 00 00 00 00 00 00 00
       0.0 0.0 0.0 0.0
0000b0 00 00 00 00 00 00 00 00 00 00 00 00 00 00 00 00
       0.0 0.0 0.0 0.0
0000c0 00 00 00 00 00 00 00 00 00 00 00 00 00 00 00 00
       0.0 0.0 0.0 0.0
0000d0 00 00 00 00 00 00 00 00 00 00 00 00 00 00 00 00
       0.0 0.0 0.0 0.0
0000e0 00 00 00 00 00 00 00 00 00 00 00 00 00 00 00 00
       0.0 0.0 0.0 0.0
0000f0 00 00 00 00 00 00 00 00 00 00 00 00 00 00 00 00
       0.0 0.0 0.0 0.0
000100 00 00 00 00 00 00 00 00 00 00 00 00 00 00 00 00
       0.0 0.0 0.0 0.0
000110 00 00 00 00 00 00 00 00 00 00 00 00 00 00 00 00
       0.0 0.0 0.0 0.0
000120 00 00 00 00 00 00 00 00 00 00 00 00 00 00 00 00
       0.0 0.0 0.0 0.0
000130 00 00 00 00 00 00 00 00 00 00 00 00 00 00 00 00
       0.0 0.0 0.0 0.0
000140 00 00 00 00 00 00 00 00 00 00 00 00 00 00 00 00
       0.0 0.0 0.0 0.0
000150 00 00 00 00 00 00 00 00 00 00 00 00 00 00 00 00
       0.0 0.0 0.0 0.0
000160 00 00 00 00 00 00 00 00 00 00 00 00 00 00 00 00
       0.0 0.0 0.0 0.0
000170 00 00 00 00 00 00 00 00 00 00 00 00 00 00 00 00
       0.0 0.0 0.0 0.0
000180 00 00 00 00 00 00 00 00 00 00 00 00 00 00 00 00
       0.0 0.0 0.0 0.0
000190 00 00 00 00 00 00 00 00 00 00 00 00 00 00 00 00
       0.0 0.0 0.0 0.0
0001a0 00 00 00 00 00 00 00 00 00 00 00 00 00 00 00 00
       0.0 0.0 0.0 0.0
0001b0 00 00 00 00 00 00 00 00 00 00 00 00 00 00 00 00
       0.0 0.0 0.0 0.0
0001c0 00 00 00 00 00 00 00 00 00 00 00 00 00 00 00 00
       0.0 0.0 0.0 0.0
0001d0 00 00 00 00 00 00 00 00 00 00 00 00 00 00 00 00
       0.0 0.0 0.0 0.0
0001e0 00 00 00 00 00 00 00 00 00 00 00 00 00 00 00 00
       0.0 0.0 0.0 0.0
0001f0 00 00 00 00 00 00 00 00 00 00 00 00 00 00 00 00
       0.0 0.0 0.0 0.0

network_body._body_endoder.seq_layers.2.weight f4 [128, 128]
000000 8b 05 ab bc d1 c6 0a 3d 5b 68 9d 3d 8d 12 39 3e
       -0.020876667 0.033881012 0.0768592 0.18073483
000010 fe 9b 94 bd 8d 40 34 3d b9 03 04 3c b7 5b f3 3d
       -0.07256316 0.044006873 0.008057528 0.118827276
000020 5b ab 2a 3e e1 bb 24 bd 29 ff 9b 3d 7d df 23 be
       0.1666693 -0.040218238 0.07617027 -0.16003223
000030 4f ee ec bd b1 81 a4 3d e6 65 8b bd dd 54 13 bd
       -0.11568891 0.08032549 -0.06806545 -0.035969604
000040 2a 19 cf bd bf da 58 bd d2 45 ff 3d ed 1f 3e bc
       -0.101122215 -0.052942988 0.12464489 -0.011604291
000050 b1 49 96 3d ae 3a cc 3d 01 65 17 be 88 34 2d be
       0.07338274 0.0997213 -0.14784624 -0.1691457
000060 d2 e8 0c be 78 94 aa bc 66 07 01 bd ae 90 49 3c
       -0.13760689 -0.020822749 -0.031501196 0.012302561
000070 9e 56 18 be 9a f1 92 3c 78 95 40 bd b9 cc 02 bd
       -0.14876792 0.01793747 -0.047017545 -0.03193352
000080 52 0a e0 bd 56 ac f2 bb d9 1e a9 3d f0 16 be 3d
       -0.109394684 -0.007405798 0.08257837 0.09281719
000090 44 ab c5 bd 0c fd 6b bc 78 f6 17 3d d8 9e 47 3d
       -0.09651807 -0.014403593 0.037100285 0.04873547
0000a0 d5 d3 6f 3e ee 69 7d 3d b6 ff a1 bc 29 dc 02 bc
       0.23420651 0.0618686 -0.019775253 -0.007987061
0000b0 c3 a6 d4 bd 21 9e 67 3e f4 53 8a bc 94 71 36 3d
       -0.1038337 0.22618915 -0.016885735 0.04454191
0000c0 40 18 8e bc 3b a1 80 bd 58 f5 e6 3d a4 a4 40 be
       -0.017345548 -0.06280752 0.11277264 -0.18812805
0000d0 7b d2 8b 3d c5 e2 17 be 6a b1 16 be bb 35 2e 3d
       0.06827255 -0.148326 -0.14716116 0.04253171
0000e0 28 35 f4 3d 50 0d 19 bd c1 5c 94 bd 30 a2 d3 bd
       0.11924201 -0.03736621 -0.07244254 -0.10333669
0000f0 c6 2b 0e be c5 a9 8b 3d bc ec 43 bc 65 c7 62 bd
       -0.13883886 0.0681949 -0.011958297 -0.05536594
000100 13 19 96 bc 29 f8 76 be 61 73 1b be 75 61 6c bd
       -0.018322503 -0.24118103 -0.15180732 -0.05771013
000110 6d e8 7d 3d 91 ff 44 3c 56 85 1b bc 3a 06 39 bd
       0.061989237 0.012023822 -0.009492239 -0.045171954
000120 e3 99 c2 3d bd 4d 8c bb 55 71 8a 3d 9a ad 18 bd
       0.09502008 -0.004281728 0.067598976 -0.037274934
000130 b0 ab 49 bd 77 37 0b 3d 38 39 96 3d f1 ae 71 bd
       -0.049236 0.033988442 0.07335132 -0.059004728
000140 fb 7e 4b bc 1a 6a c5 3d ed d6 df bd 29 3a 89 bd
       -0.012420411 0.09639378 -0.10929666 -0.06700546
000150 69 ad 7f 3d 68 32 27 3d bb 16 0b 3e a6 e9 0e be
       0.062421236 0.040819556 0.1358289 -0.13956317
000160 70 57 11 3e 31 c5 77 be 06 00 f7 3d 71 fe 1d 3c
       0.14193511 -0.24196316 0.12060551 0.009643183
000170 6a 34 9b 3d 84 f2 de bc 8f 61 d1 bd fa 10 f0 bd
       0.075783566 -0.02721525 -0.10223686 -0.11721988
000180 8f 54 45 3d 9e 80 a3 3c d5 61 c0 bc 32 8a 4d bd
       0.048176344 0.01995879 -0.02348415 -0.05018062
000190 e8 e2 52 3d 97 47 7c 3e 1d 0a 84 3c be cf 4e bd
       0.051485926 0.24636684 0.016118104 -0.050491087
0001a0 36 af 5b 3d 63 90 a0 bd 60 20 65 bb dc e3 06 3e
       0.05363389 -0.078400396 -0.0034961924 0.13172859
0001b0 42 cc 2b bd 38 3c c6 3d 08 78 4c be 0d 52 6a bd
       -0.041942842 0.096794546 -0.19967663 -0.057207156
0001c0 3a c3 c0 ba e2 cc 9d 3d 22 98 ae 3d 16 5b e2 bc
       -0.001470662 0.07705094 0.08525111 -0.027631324
0001d0 44 15 d7 bd de 9e 46 bd c5 21 22 be 9f 39 7d bd
       -0.10502103 -0.04849135 -0.15833195 -0.06182253
0001e0 53 01 88 3d e4 11 1e 3d a4 9e 15 bc 72 64 0a bd
       0.066408776 0.03859128 -0.009132061 -0.0337872
0001f0 ff fc c1 bd 54 6b 43 3a f2 3e 9c bc 7e 57 ca 3d
       -0.09472083 0.0007454653 -0.019072983 0.09879969
000200 7e b5 35 3e b9 f0 c2 bc de ac 9e bd 78 82 0e bd
       0.17745015 -0.023796426 -0.077478155 -0.034792393
000210 e0 99 90 3d 56 51 67 3c b6 78 f4 bd 41 7a d7 bd
       0.07060599 0.014118513 -0.11937086 -0.10521365
000220 a7 ac 44 3d 3c 99 66 3c 9c 95 62 bd 39 01 fe 3b
       0.048016217 0.01407462 -0.05531846 0.0077516106
000230 cc 44 da ba 09 97 b9 3d ce 20 d3 3d 7c d2 17 3c
       -0.0016652583 0.09062011 0.103089914 0.009266492
000240 30 20 14 3e c1 00 d1 bd 4e 26 12 bd 06 48 0c 3c
       0.14465404 -0.10205222 -0.03568106 0.008562094
000250 e7 b4 57 3b 14 06 b2 bd b2 8b 53 bc 70 d1 c9 bd
       0.0032914223 -0.086925656 -0.012911724 -0.098544
000260 d9 36 93 3e e4 65 a8 3d f3 f6 26 3e 50 da ef 3d
       0.28752783 0.08222559 0.16305141 0.11711562
000270 fa 49 29 3d 5b 4f 83 3d 0a 89 db 3d 30 1e ff 3c
       0.041330315 0.0641162 0.107194975 0.031142324
000280 77 e9 4a 3d 2b a4 0b be 5e 9d a7 bd b2 d5 3b be
       0.049539056 -0.13636844 -0.08184312 -0.18343237
000290 b1 38 a8 3d f3 fa ca bb f4 80 39 3e 65 ac 32 3b
       0.08213938 -0.0061944663 0.18115598 0.00272634
0002a0 58 22 ef bb 90 60 e9 3d 25 e2 16 3d 37 c2 81 3c
       -0.0072977953 0.11395371 0.036836762 0.01583968
0002b0 86 a4 ce 3d 2e 3d 37 3d ed c0 bf 3d ae fe 79 bd
       0.10089974 0.04473608 0.093629695 -0.061033897
0002c0 89 ac de bd e8 70 27 3d 72 0f 44 bd 50 41 87 bd
       -0.10872752 0.04087916 -0.047866292 -0.06604254
0002d0 4c bb d2 bd bd c5 d4 bc 52 83 7c bc 0d 2b 2a bd
       -0.1028963 -0.025973195 -0.015412169 -0.041544963
0002e0 30 43 1a 3c 73 d3 af bb eb 13 12 bd 0c 9e 1d 3d
       0.009415433 -0.005365783 -0.035663527 0.038480803
0002f0 31 0c 36 3d 6b cd 89 ba 2e c6 b0 bc b4 2b 70 bd
       0.04444522 -0.001051349 -0.021578874 -0.05863543
000300 b4 ff a3 3b 38 05 e9 3d 6f c1 08 3d f0 9a 27 be
       0.0050048474 0.113779485 0.033387598 -0.16367698
000310 34 73 8e bd 5d 14 0a be ac 08 38 bd b9 40 f5 bc
       -0.06955567 -0.1348433 -0.044930145 -0.029938089
000320 ee 24 65 3d 9b 04 7d ba fd 0a 0f be 53 40 94 3c
       0.055943422 -0.00096518704 -0.13969035 0.018097078
000330 da 2e b4 bc e8 89 c5 3d 5d d2 1c 3d 07 b4 fa 3d
       -0.021994997 0.09645444 0.038286556 0.12241369
000340 e2 fb fc bc 02 ea 93 3c 0c 8f 9b bd c7 53 65 bc
       -0.030881826 0.01805592 -0.075956434 -0.013997025
000350 31 7f fc bc 9d 91 2e 3d 08 9a 49 bd 19 b0 94 bc
       -0.030822368 0.042619336 -0.04921916 -0.018150376
000360 06 bf f8 3c 82 09 0c bd 2f 02 ba bc 57 e7 2b 3c
       0.030364525 -0.034188755 -0.02270612 0.010492167
000370 04 53 a6 3d 81 7d fd 3d 18 0c 96 3c c8 78 84 bd
       0.08121303 0.123774536 0.018316314 -0.0646835
000380 12 21 fe 3d 77 b7 1d bd 4a 41 24 be a9 f6 3b 3d
       0.124086514 -0.038505044 -0.16040531 0.04588953
000390 cb 77 70 3c fe 69 10 bb 03 4e 8a 3d 77 9b ab bd
       0.014676998 -0.0022035833 0.06753161 -0.08379262
0003a0 c8 76 ac bd be d4 a7 3d 61 fe c0 bc 49 22 80 bd
       -0.08421093 0.08194874 -0.023558797 -0.062565394
0003b0 62 fe 82 3c 2a 83 3f 3d 7f 1a 51 bd 70 52 b6 bb
       0.01599044 0.046755947 -0.05105066 -0.0055640265
0003c0 6f b2 ef bc 30 82 44 bd 08 5f 9c bc 6e cc b5 3a
       -0.029259888 -0.04797572 -0.019088283 0.0013870129
0003d0 76 7e 06 be 1e 1d ab bd 97 15 4e 3d bb cd cd 3c
       -0.13134179 -0.08355163 0.05031356 0.025122514
0003e0 06 2e 0a 3d 8e 24 a8 3d 6b 89 29 bd 8b c4 2c be
       0.033735298 0.08210097 -0.041390818 -0.1687185
0003f0 43 af 72 3b 91 f5 52 bd 52 b0 b1 3c d2 4f e5 bb
       0.0037030734 -0.05150372 0.021690521 -0.0069980407

network_body._body_endoder.seq_layers.2.bias f4 [128]
000000 00 00 00 00 00 00 00 00 00 00 00 00 00 00 00 00
       0.0 0.0 0.0 0.0
000010 00 00 00 00 00 00 00 00 00 00 00 00 00 00 00 00
       0.0 0.0 0.0 0.0
000020 00 00 00 00 00 00 00 00 00 00 00 00 00 00 00 00
       0.0 0.0 0.0 0.0
000030 00 00 00 00 00 00 00 00 00 00 00 00 00 00 00 00
       0.0 0.0 0.0 0.0
000040 00 00 00 00 00 00 00 00 00 00 00 00 00 00 00 00
       0.0 0.0 0.0 0.0
000050 00 00 00 00 00 00 00 00 00 00 00 00 00 00 00 00
       0.0 0.0 0.0 0.0
000060 00 00 00 00 00 00 00 00 00 00 00 00 00 00 00 00
       0.0 0.0 0.0 0.0
000070 00 00 00 00 00 00 00 00 00 00 00 00 00 00 00 00
       0.0 0.0 0.0 0.0
000080 00 00 00 00 00 00 00 00 00 00 00 00 00 00 00 00
       0.0 0.0 0.0 0.0
000090 00 00 00 00 00 00 00 00 00 00 00 00 00 00 00 00
       0.0 0.0 0.0 0.0
0000a0 00 00 00 00 00 00 00 00 00 00 00 00 00 00 00 00
       0.0 0.0 0.0 0.0
0000b0 00 00 00 00 00 00 00 00 00 00 00 00 00 00 00 00
       0.0 0.0 0.0 0.0
0000c0 00 00 00 00 00 00 00 00 00 00 00 00 00 00 00 00
       0.0 0.0 0.0 0.0
0000d0 00 00 00 00 00 00 00 00 00 00 00 00 00 00 00 00
       0.0 0.0 0.0 0.0
0000e0 00 00 00 00 00 00 00 00 00 00 00 00 00 00 00 00
       0.0 0.0 0.0 0.0
0000f0 00 00 00 00 00 00 00 00 00 00 00 00 00 00 00 00
       0.0 0.0 0.0 0.0
000100 00 00 00 00 00 00 00 00 00 00 00 00 00 00 00 00
       0.0 0.0 0.0 0.0
000110 00 00 00 00 00 00 00 00 00 00 00 00 00 00 00 00
       0.0 0.0 0.0 0.0
000120 00 00 00 00 00 00 00 00 00 00 00 00 00 00 00 00
       0.0 0.0 0.0 0.0
000130 00 00 00 00 00 00 00 00 00 00 00 00 00 00 00 00
       0.0 0.0 0.0 0.0
000140 00 00 00 00 00 00 00 00 00 00 00 00 00 00 00 00
       0.0 0.0 0.0 0.0
000150 00 00 00 00 00 00 00 00 00 00 00 00 00 00 00 00
       0.0 0.0 0.0 0.0
000160 00 00 00 00 00 00 00 00 00 00 00 00 00 00 00 00
       0.0 0.0 0.0 0.0
000170 00 00 00 00 00 00 00 00 00 00 00 00 00 00 00 00
       0.0 0.0 0.0 0.0
000180 00 00 00 00 00 00 00 00 00 00 00 00 00 00 00 00
       0.0 0.0 0.0 0.0
000190 00 00 00 00 00 00 00 00 00 00 00 00 00 00 00 00
       0.0 0.0 0.0 0.0
0001a0 00 00 00 00 00 00 00 00 00 00 00 00 00 00 00 00
       0.0 0.0 0.0 0.0
0001b0 00 00 00 00 00 00 00 00 00 00 00 00 00 00 00 00
       0.0 0.0 0.0 0.0
0001c0 00 00 00 00 00 00 00 00 00 00 00 00 00 00 00 00
       0.0 0.0 0.0 0.0
0001d0 00 00 00 00 00 00 00 00 00 00 00 00 00 00 00 00
       0.0 0.0 0.0 0.0
0001e0 00 00 00 00 00 00 00 00 00 00 00 00 00 00 00 00
       0.0 0.0 0.0 0.0
0001f0 00 00 00 00 00 00 00 00 00 00 00 00 00 00 00 00
       0.0 0.0 0.0 0.0

value_heads.value_heads.extrinsic.weight f4 [1, 128]
000000 80 38 36 be 9c 0c c2 3d 3c 18 08 bd 16 a4 50 be
       -0.1779499 0.09475061 -0.033226237 -0.20375094
000010 40 e6 73 3b a4 a3 31 bd 30 90 6b bc 6e de 9b bd
       0.0037216097 -0.04336895 -0.014377639 -0.076107845
000020 a8 bd 25 be fd bb fc bd 38 dd 1f be cc d6 74 bd
       -0.1618563 -0.123405434 -0.15611732 -0.05977516
000030 5d f1 36 be 40 d2 62 3d 7a 02 00 3e ea 45 3f be
       -0.1786551 0.05537629 0.12500945 -0.18679014
000040 92 26 06 be b0 33 22 bc 29 a1 38 be 50 aa 1a 3d
       -0.13100651 -0.009900019 -0.18030228 0.03776008
000050 b0 fc 87 3d 10 94 16 be 62 6a 8b bd 0a 8e 38 3e
       0.06639993 -0.14704919 -0.068074 0.18022934
000060 80 d9 5b 3d ce f9 19 be 9a eb 1e 3e 24 30 ba 3d
       0.05367422 -0.15036699 0.15519562 0.09091213
000070 0f e9 48 be 62 63 53 3e c1 00 d8 bd 99 f0 4d be
       -0.19620155 0.2064338 -0.10547019 -0.20111312
000080 fc 6d 5c 3e 78 21 ef 3c e0 03 ad 3c d4 d5 f2 3d
       0.2152633 0.029190764 0.021120012 0.11857191
000090 6a 8b 82 bd 38 74 56 be 3c de 30 bd 58 18 dc bc
       -0.06374247 -0.20942771 -0.04318069 -0.026867077
0000a0 f0 1d 48 3d 14 b6 18 bd b8 48 fb 3d ca 33 26 be
       0.048856676 -0.03728302 0.122697294 -0.16230693
0000b0 98 f6 11 3e c8 bc e9 bc 64 13 26 3e bc 78 17 3e
       0.14254224 -0.0285324 0.16218334 0.1479215
0000c0 0c ed 86 bd 5e 3d 18 be b4 e4 2a 3e 00 24 c4 3a
       -0.06588182 -0.1486716 0.16688806 0.0014964342
0000d0 54 cd 08 bd d8 41 da 3d 72 b0 39 3e 10 0c 2b bd
       -0.03339894 0.1065709 0.18133715 -0.04175955
0000e0 8e 9f 4b 3e 36 6b 50 3e 03 36 e5 bd 56 f0 ac bd
       0.19885084 0.20353398 -0.111919425 -0.08444278
0000f0 88 c6 c8 bd 90 eb 29 3d 98 de f0 bc c0 69 86 3c
       -0.09803492 0.041484416 -0.029403016 0.016407847
000100 08 31 0d be 10 8e e7 3d 20 ac c6 bc 66 1e 24 3e
       -0.13788235 0.11306393 -0.024251997 0.16027221
000110 00 ba d3 ba 41 19 46 be 62 2d 25 be 6e f5 1f 3e
       -0.0016153455 -0.19345571 -0.16130593 0.15620968
000120 c6 7c 2d be a8 4d 1e 3d be 4e 19 be 70 ae 08 3e
       -0.16942129 0.038648278 -0.14971444 0.13347793
000130 20 43 3c be 4a ce 22 3e 88 72 81 3d e0 3a 29 3c
       -0.18384981 0.15899006 0.06320673 0.010328978
000140 2c 47 84 bd 64 a1 c1 bd 24 56 8d 3d e0 8d 93 bb
       -0.064588875 -0.09454611 0.06901196 -0.004502997
000150 e0 22 31 3d 4c 40 55 be be 34 49 3e c0 68 3e 3b
       0.04324615 -0.20825309 0.19649026 0.0029054135
000160 06 50 34 3e 0a c3 5a be 96 b4 25 be 06 5c 55 3e
       0.17608652 -0.21363464 -0.1618217 0.20835885
000170 38 0e 20 bd 28 bd df bd 5c aa ed 3d d0 ff 49 3d
       -0.03907606 -0.109247506 0.11604759 0.049316227
000180 80 a2 fc bc 5c 07 d6 3d c3 53 c7 bd 80 bc 96 3c
       -0.030839205 0.104506224 -0.09732773 0.01840043
000190 56 50 3c 3e 0e f9 36 3e 4a 67 05 be fa 92 51 3e
       0.1839002 0.17868444 -0.13027683 0.20466223
0001a0 bc 2c 28 be ea 04 2e be 6f e4 34 be ed 3d f2 bd
       -0.16423315 -0.16994062 -0.17665266 -0.11828218
0001b0 18 f6 ac 3d 15 c6 5b be 58 c0 55 3e 12 48 49 3e
       0.08445376 -0.21462281 0.20874155 0.19656399
0001c0 10 b8 eb 3d 1e c2 0f be 22 ce 21 be de ce 36 3e
       0.115097165 -0.14038894 -0.1580129 0.17852351
0001d0 36 72 09 3e 04 1d eb 3d 90 2d 47 bd a0 78 20 3e
       0.13422474 0.11480144 -0.048627436 0.15671015
0001e0 f8 47 f8 3d 62 75 99 bd 9a 28 50 3e 4a ce 0e 3e
       0.12123102 -0.07493092 0.20327988 0.1394588
0001f0 88 d9 16 3d 6c a5 e1 3d 68 1f 2d bd 00 9f 01 ba
       0.036828548 0.1101788 -0.04226628 -0.00049446523
