results/ppo/My Behaviour/My Behaviour-15275.pt (torch, 438495 bytes, 36 tensors)

network_body._body_endoder.seq_layers.0.weight f4 [128, 6]
0.3561273 -0.36258745 0.5072688 -0.17587046 -0.2501986 0.70177436 0.42334583 0.14743802
0.1971434 0.045781005 0.17706664 0.2832679 -0.20014869 0.19199692 -0.057323087 -0.47315893
-0.6414989 -0.41095236 -0.008214127 0.4821038 0.32855704 -0.5006103 0.5882766 0.70250636
0.37076783 -0.28006548 0.5997654 0.021015774 0.050325207 0.07296897 -0.32873055 0.0233682
-0.26890716 -0.07251908 -0.43336388 0.45184472 0.11867177 0.46685526 0.61932904 0.1163743
-0.10293992 -0.3606005 0.17756185 0.32444736 0.5108845 0.12950654 0.060039554 -0.4548764
0.03830798 -0.037718043 -0.7111033 0.6170622 0.542187 0.27537003 0.22335163 0.51790726
-0.106959954 -0.21753536 -0.4667581 -0.15823743 -0.30997515 -0.23122698 -0.29105803 -0.016168732
-0.09812505 0.13058944 0.12123465 -0.27572075 0.07191822 0.14118573 -0.33597973 0.10223513
0.6877518 -0.20966382 0.052968524 0.3365403 -0.6180072 0.058048073 -0.3254533 -0.14994766
0.7386885 0.32718652 -0.3875982 0.35439995 0.541499 0.371601 0.31771246 0.51147145
0.15085635 0.25792694 0.12757346 0.50356966 -0.4155689 -0.20887573 0.3002779 0.037545934
-0.39960924 0.0144929 0.31542087 0.5521382 -0.32825124 -0.29352546 0.60635304 0.67213064
0.6310505 -0.20364825 -0.856674 -0.311055 0.13150795 0.23128596 0.18105504 0.75096744
0.2973328 -0.11708349 -0.28843197 -0.6904282 -0.4925763 0.37335184 0.99751544 -0.04659919
-0.08578158 0.35758463 -0.19560356 -0.32078463 0.60890484 0.20985024 -0.25930765 0.0712386
0.37473774 0.17049724 0.9646036 -0.343932 -0.18925473 0.31196466 0.39228848 0.37600702
0.1559114 0.116219215 -0.24921496 -0.20373742 -0.17707871 -0.4356731 -0.188654 0.51374966
0.06034409 0.36878178 0.35784292 -0.18861003 -0.28316203 -0.27652305 -0.65908515 0.47803295
0.23028457 -0.58924603 -0.060130585 -0.27024704 0.017757393 0.1519999 0.7657205 -0.31717753
-0.22689673 0.2189895 -0.44954616 0.12609456 0.14093289 -0.45135728 -0.043625988 0.2665488
-0.15642722 -0.15872236 -0.9560769 -0.6210925 0.47531846 0.02829798 -0.44907662 -0.33401662
0.76069665 -0.10676945 0.7706008 -0.006648247 0.22342569 0.3334098 -0.20690252 0.62776715
0.15010697 0.23539346 -0.16562499 -0.033607263 0.39542484 -0.28256747 0.49838254 0.02707876
-0.4179121 0.19472395 0.1253697 -0.14725894 0.7360691 -0.5352158 0.1630875 0.2664401
0.87568414 -0.17921565 0.0051111206 0.07339887 0.44629195 -0.7016634 0.6973457 0.4707225
-0.40251973 -0.012746082 -0.02585018 0.049198795 0.04334591 -0.84261113 0.5120674 0.13706963
0.40619293 0.6848087 0.29634798 0.06401065 -1.0011467 -0.23203062 -0.057423413 0.61179155
0.43968818 -0.34522 -0.109830946 -0.06972822 0.08999931 -0.82801384 -0.31828156 0.49266535
0.24819915 0.2470434 0.08363129 0.19261049 -0.38484395 -0.070192315 0.32075697 -0.27726698
0.26997885 -0.48373377 0.29610673 0.24894275 -0.09067514 -0.3985352 -0.17585209 0.1970506
0.61617726 -0.1241252 1.0309958 0.010260435 0.5029996 0.26410246 0.44954312 -0.052341565
00000000: 5156 b63e 10a5 b9be 5edc 013f 6317 34be
00000010: 081a 80be 7ca7 333f c9c0 d83e fef9 163e
00000020: f6df 493e dd84 3b3d f550 353e 7d08 913e
00000030: c7f3 4cbe d79a 443e 9dcb 6abd e341 f2be
00000040: 4639 24bf 5968 d2be 8c94 06bc 4fd6 f63e
00000050: a138 a83e ff27 00bf 4c99 163f 75d7 333f
00000060: 48d5 bd3e be64 8fbe 3a8a 193f 4629 ac3c
00000070: ce21 4e3d c170 953d 5f4f a8be ab6e bf3c
00000080: 33ae 89be e284 94bd dfe1 ddbe 3158 e73e
00000090: 2f0a f33d a707 ef3e 598c 1e3f a655 ee3d
000000a0: 2ad2 d2bd a1a0 b8be c6d2 353e f71d a63e
000000b0: 54c9 023f 5d9d 043e 09ec 753d 8fe5 e8be
000000c0: d4e8 1c3d 3c7e 1abd de0a 36bf caf7 1d3f
000000d0: c4cc 0a3f 4dfd 8c3e 4ab6 643e 9295 043f
000000e0: d20d dbbd 97c1 5ebe ebfa eebe fe08 22be
000000f0: 10b5 9ebe c4c6 6cbe 8f05 95be 4a74 84bc
00000100: c9f5 c8bd 3db9 053e df49 f83d 452b 8dbe
00000110: dc49 933d fe92 103e 8905 acbe a760 d13d
00000120: 8110 303f 1db2 56be 86f5 583d 034f ac3e
00000130: b835 1ebf d1c3 6d3d d1a1 a6be e18b 19be
00000140: b11a 3d3f fe84 a73e 4573 c6be e973 b53e
00000150: ae9f 0a3f 7c42 be3e 35ab a23e cbef 023f
00000160: 167a 1a3e 000f 843e 9ea2 023e f1e9 003f
00000170: 72c5 d4be 85e3 55be 06be 993e c4c9 193d
00000180: 9599 ccbe a173 6d3c d87e a13e ee58 0d3f
00000190: 8c10 a8be f848 96be f439 1b3f c110 2c3f
000001a0: 878c 213f 2b89 50be fd4e 5bbf 9a42 9fbe
000001b0: 05aa 063e 3ad6 6c3e 7e66 393e 673f 403f
000001c0: 013c 983e 78c9 efbd 5bad 93be e7bf 30bf
000001d0: f632 fcbe f927 bf3e 2c5d 7f3f cbde 3ebd
000001e0: 41ae afbd 5515 b73e 4d4c 48be e23d a4be
000001f0: 30e1 1b3f fbe2 563e f9c3 84be 8be5 913d
00000200: a0dd bf3e d496 2e3e 43f0 763f db17 b0be
00000210: fecb 41be d5b9 9f3e 09da c83e fe83 c03e
00000220: 3da7 1f3e 5704 ee3d 3532 7fbe 8ba0 50be
00000230: 1f54 35be 8b10 dfbe 842e 41be 1985 033f
00000240: 5d2b 773d f7d0 bc3e 3037 b73e fd22 41be
00000250: 9dfa 90be 6e94 8dbe ceb9 28bf bcc0 f43e
00000260: b8cf 6b3e d4d8 16bf 7d4b 76bd d25d 8abe
00000270: f477 913c dda5 1b3e 4206 443f 1865 a2be
00000280: 9e57 68be c93e 603e ea2a e6be ef1e 013e
00000290: b650 103e 4d18 e7be 2ab1 32bd 1679 883e
000002a0: 752e 20be 1d88 22be 75c1 74bf ebff 1ebf
000002b0: f15c f33e 2ad1 e73c 5fed e5be 3a04 abbe
000002c0: 04bd 423f f1a9 dabd 1846 453f 8ad9 d9bb
000002d0: b4c9 643e b0b4 aa3e 41de 53be 59b5 203f
000002e0: a4b5 193e fc0a 713e 9999 29be c5a7 09bd
000002f0: 2075 ca3e afac 90be ff2b ff3e 47d4 dd3c
00000300: 93f8 d5be b765 473e ea60 003e 0ccb 16be
00000310: 066f 3c3f e703 09bf 6900 273e d66a 883e
00000320: d62c 603f 4f84 37be 307b a73b 2652 963d
00000330: 6180 e43e 36a0 33bf 3f85 323f 8a02 f13e
00000340: 1117 cebe f1d4 50bc c2c3 d3bc ad84 493d
00000350: 7b8b 313d 5db5 57bf d916 033f fb5b 0c3e
00000360: 85f8 cf3e 9f4f 2f3f ecba 973e 0418 833d
00000370: 9325 80bf 6f99 6dbe d034 6bbd 5f9e 1c3f
00000380: cf1e e13e adc0 b0be 0cef e0bd abcd 8ebd
00000390: 8f51 b83d b7f8 53bf cdf5 a2be a23e fc3e
000003a0: eb27 7e3e f2f8 7c3e e246 ab3d af3b 453e
000003b0: 440a c5be fdc0 8fbd 423a a43e f0f5 8dbe
000003c0: ab3a 8a3e f4ab f7be 4d9b 973e d9ea 7e3e
000003d0: e3b3 b9bd ce0c ccbe 9212 34be a2c7 493e
000003e0: cbbd 1d3f 5a35 febd acf7 833f 621b 283c
000003f0: 95c4 003f 7038 873e 842a e63e 1c64 56bd

network_body._body_endoder.seq_layers.0.bias f4 [128]
-0.00025540544 0.0015188995 -0.0015103753 0.0006189296 0.0005696169 -0.00022136292 -0.0005175272 -0.00021593452
-0.0016603734 -0.0008971548 0.001704654 0.001335869 -0.001170969 -0.0011238407 0.00055912393 0.00062017894
-0.002956737 -0.00019509402 -0.0008168788 -0.0012212582 -0.00043125602 -0.0017723582 -0.0023194926 -0.0004329459
0.0011470896 0.0024293545 -0.0026071488 3.531149e-05 0.0010257838 0.00045129255 -0.0011790404 0.0010037207
-5.3223616e-08 0.0005570726 -0.00017524084 0.0021280257 -0.0006145889 0.0011819819 0.0015094038 0.0017432815
0.0014704934 -0.000305713 0.0006369604 0.0016315248 0.0010796756 -0.00136027 0.00021751731 -1.1933527e-05
-0.0016318036 -0.0003157781 -0.00026741883 0.0010480568 -0.001069589 -0.00051804003 0.0007926454 -0.0010009533
-0.00319227 0.0009543796 -0.00033287058 4.5747875e-08 0.0010810597 -0.0028905256 -0.0008911153 -0.0012035356
-0.0004810004 -0.0010735177 0.00032052182 0.000676981 -0.0005078694 0.00065401377 -0.0025599531 -0.0017161106
-0.000430304 0.00059449783 0.00055054604 0.00026798798 0.00017669318 -0.0007692912 -2.656821e-05 -0.00029002983
-0.00033480907 -0.0006241173 -0.001518967 0.0022522488 0.00076408574 -0.00017043954 0.0011981468 -2.7028618e-05
0.00095721975 -0.00047348323 -0.0009337386 2.488231e-18 -0.0006814645 0.0008894933 -0.0010847439 0.0012115007
0.0021337504 -0.00026187615 -0.000759885 -0.0008636775 -0.00013233424 -0.0010016193 0.0019447149 -0.00032301844
7.3147e-05 0.00096974504 -0.00055587443 1.4962931e-21 -0.00081259466 -0.001556309 0.00085482333 -0.0007807493
-0.0014947961 -0.0006136121 -0.0015229367 -0.0003816389 -0.0009786313 -0.00031275296 -0.00022814659 -0.0003967291
0.00063128537 -0.0015948135 0.0004027998 0.0008473302 -0.0004439738 0.0011229487 0.001345514 -0.0011882016
00000000: f0e7 85b9 cf15 c73a c9f7 c5ba aa3f 223a
00000010: 5852 153a a81d 68b9 aaaa 07ba 7b6c 62b9
00000020: e3a0 d9ba 0a2f 6bba b26e df3a 5318 af3a
00000030: 337b 99ba d64d 93ba 2c92 123a 8193 223a
00000040: d1c5 41bb 2792 4cb9 cf23 56ba a012 a0ba
00000050: 341a e2b9 794e e8ba a102 18bb 04fd e2b9
00000060: f159 963a ce35 1f3b b3dc 2abb 6c1b 1438
00000070: 9873 863a 769b ec39 088a 9aba 478f 833a
00000080: fc97 64b3 8208 123a dbc0 37b9 5976 0b3b
00000090: 5d1c 21ba bbec 9a3a 30d7 c53a d27e e43a
000000a0: 92bd c03a 1b48 a0b9 b0f9 263a e3d8 d53a
000000b0: e783 8d3a 164b b2ba 5c15 6439 1c36 48b7
000000c0: 3ee2 d5ba 058f a5b9 5934 8cb9 f35e 893a
000000d0: 7431 8cba 14cd 07ba 88c9 4f3a 6b32 83ba
000000e0: 6735 51bb 552f 7a3a 2285 aeb9 527c 4433
000000f0: 58b2 8d3a f96e 3dbb bc99 69ba f4bf 9dba
00000100: c82e fcb9 47b5 8cba b60b a839 6d77 313a
00000110: 8a22 05ba 1f72 2b3a e3c4 27bb 1eef e0ba
00000120: 6d9a e1b9 13d8 1b3a 8552 103a bd80 8c39
00000130: b746 3939 42aa 49ba ccde deb7 250f 98b9
00000140: 5089 afb9 ce9b 23ba 1318 c7ba 779a 133b
00000150: ed4c 483a 04b8 32b9 230b 9d3a 84bb e2b7
00000160: eeed 7a3a d83d f8b9 23c6 74ba 5b99 3722
00000170: 4fa4 32ba e32c 693a f72d 8eba 38cb 9e3a
00000180: 64d6 0b3b 6c4c 89b9 0533 47ba 6a68 62ba
00000190: 34c3 0ab9 c448 83ba cee5 fe3a cd5a a9b9
000001a0: 7f66 9938 7d36 7e3a 1ab8 11ba 091d e21c
000001b0: 4e04 55ba 11fd cbba 3916 603a 33ab 4cba
000001c0: 09ed c3ba d0da 20ba 479d c7ba b516 c8b9
000001d0: 6b45 80ba fef8 a3b9 a23a 6fb9 1400 d0b9
000001e0: d87c 253a 1009 d1ba e02e d339 5e1f 5e3a
000001f0: 28c5 e8b9 e82f 933a f55b b03a 6ebd 9bba

network_body._body_endoder.seq_layers.2.weight f4 [128, 128]
-0.2249367 0.16672692 -0.021498254 -0.08767566 0.03113964 0.04793487 -0.034195717 -0.11510563
0.06905827 -0.15225932 -0.018556474 0.035932645 0.06727836 -0.16319676 0.006158075 -0.036748916
0.06589654 0.007284905 -0.12181047 -0.0288625 0.08648227 -0.10703675 -0.11194638 0.0083313435
0.1359677 -0.13343848 -0.03346099 -0.025083227 -0.023222774 0.052990057 0.041262534 -0.11775507
-0.06599278 0.048779625 -0.01735137 0.03160347 -0.07493014 0.061355144 0.02090462 0.07164644
0.019352527 -0.062208675 0.042697538 0.06137259 0.1828126 0.11925889 0.073167406 -0.061456818
0.025322152 0.0033017294 -0.0377329 -0.09512532 0.1601108 0.12575686 -0.08784274 -0.022711907
0.032312527 -0.08853322 0.01986431 -0.00094052 0.062107578 -0.08022729 -0.06033772 0.012054465
-0.123376615 -0.021765772 -0.07944387 -0.05311254 0.038343698 -0.041474234 0.011045287 -0.011456871
-0.13396537 0.04180958 0.14082848 0.0104427375 -0.062784724 -0.11570406 -0.08670211 0.020766525
-0.04777024 0.05265776 0.055374246 -0.08850288 0.1270952 -0.042331446 0.002035096 -0.025250241
0.059456673 -0.005270623 0.021756897 0.04660687 0.113451354 -0.014476978 -0.04424249 0.06867723
-0.13716097 0.1041094 -0.22859526 -0.007115285 0.15710472 0.053293195 1.1862765e-05 0.0924163
0.016092535 0.0487539 0.14123805 -0.07501838 0.12952892 -0.027810797 0.06534392 -0.096865356
0.046755802 0.14940678 0.045586713 1.4991743e-05 0.08132759 0.08720973 0.08520479 -0.050630376
-0.037297297 -0.03324122 -0.031126615 0.019302273 -0.07151245 0.056032665 -0.097968794 -0.098185375
0.03496597 -0.0074556177 0.0097926045 -0.013859052 0.28643268 -0.06582112 -0.13579027 0.13004044
-0.13492066 -0.19355936 -0.041830093 0.010349954 -0.21347693 -0.019694226 -0.00017295343 -0.023267115
0.046500742 0.053544667 -0.008409774 -0.051817242 -0.17592381 0.039264664 -0.11059529 0.05860234
0.10738655 -0.009027767 -0.014484124 -0.00377297 -0.015924837 0.13060786 -0.0041711796 0.0252103
0.030860078 -0.16157772 -0.06055791 -0.15918723 -0.069298424 0.13173322 0.088031076 0.053987123
0.042000674 -0.055371884 -0.21175091 0.007758575 -0.05273426 -0.00031694677 0.11496811 -0.1480139
-0.21449654 -0.01467995 0.04839055 0.13748115 0.05041244 -0.16658702 -0.075217284 -0.025242569
-0.079124294 0.019879702 0.081184916 0.015553221 -0.018074514 0.03674516 0.038974635 -0.08908561
0.09744568 -0.22204462 -0.045605708 -0.105226524 -0.052153513 -0.15207507 -4.3347656e-05 0.047210574
0.0437503 0.10862423 -0.048537526 -0.03510722 -0.107783146 -0.100815386 0.028384142 -0.03224573
-0.023659222 0.103703395 0.218512 -0.031893305 -0.038174476 0.04151803 -0.1673419 -0.047910746
-0.021576272 0.055048168 0.06929646 -0.077262096 0.0792665 0.024876079 9.065946e-05 0.11105923
0.100330256 -0.12176068 0.06497923 -0.15339655 0.06398276 -0.042017803 0.040523566 0.020015553
0.10863705 -0.25376552 0.0060267034 -0.10715643 -0.051932286 -0.031049175 0.04187687 -0.06842431
0.013673067 0.06818299 -0.12675819 -0.15724762 -0.06101283 -0.07348159 0.009524159 0.058950473
-0.011763205 -0.09014762 -0.063786246 0.04145577 0.06790294 -0.11702627 0.006534453 -0.12142674
00000000: ce55 66be 76ba 2a3e 1b1d b0bc 4c8f b3bd
00000010: 8f18 ff3c 5b57 443d cf10 0cbd 80bc ebbd
00000020: 6c6e 8d3d dee9 1bbe bf03 98bc 1c2e 133d
00000030: 3dc9 893d 0d1d 27be adc9 c93b 0886 16bd
00000040: c4f4 863d 36b6 ee3b c577 f9bd 0d71 ecbc
00000050: 9e1d b13d 1536 dbbd 2544 e5bd 3080 083c
00000060: 1e3b 0b3e 19a4 08be 640e 09bd 577b cdbc
00000070: b03d bebc 1a0c 593d e702 293d 9229 f1bd
00000080: 3927 87bd 25cd 473d 7624 8ebc a472 013d
00000090: f974 99bd 884f 7b3d 2a40 ab3c 5ebb 923d
000000a0: 3189 9e3c 86ce 7ebd 9de3 2e3d d361 7b3d
000000b0: 3a33 3b3e 013e f43d cbd8 953d 25ba 7bbd
000000c0: 6770 cf3c d461 583b d08d 1abd 10d1 c2bd
000000d0: 16f4 233e 68c6 003e e5e6 b3bd 520e babc
000000e0: 245a 043d e850 b5bd 7aba a23c 3b8d 76ba
000000f0: 8464 7e3d 354e a4bd af24 77bd 1780 453c
00000100: e1ac fcbd 224e b2bc 78b3 a2bd 898c 59bd
00000110: 480e 1d3d e3e0 29bd 4bf7 343c 9ab5 3bbc
00000120: 382e 09be 8640 2b3d 5735 103e 0418 2b3c
00000130: 4795 80bd 40f6 ecbd e090 b1bd 8f1e aa3c
00000140: baaa 43bd aaaf 573d 1bd0 623d ff40 b5bd
00000150: 3e25 023e bd63 2dbd 3f5f 053b 98d9 cebc
00000160: d788 733d 31b5 acbb 853b b23c d8e6 3e3d
00000170: 2f59 e83d d930 6dbc 9d37 35bd a6a6 8c3d
00000180: ed73 0cbe 4f37 d53d e014 6abe 5627 e9bb
00000190: 0fe0 203e f749 5a3d 3006 4737 c244 bd3d
000001a0: 7ed4 833c 2bb2 473d b5a0 103e 3da3 99bd
000001b0: 3ba3 043e 78d3 e3bc 08d3 853d 5861 c6bd
000001c0: 0383 3f3d 17fe 183e 22b9 3a3d 0c85 7b37
000001d0: 148f a63d 049b b23d d97f ae3d cc61 4fbd
000001e0: 0dc5 18bd f227 08bd 3efd febc cd1f 9e3c
000001f0: 1f75 92bd 8282 653d dda3 c8bd 6a15 c9bd
00000200: 7a38 0f3d 414e f4bb 2971 203c 1411 63bc
00000210: 4ea7 923e 39cd 86bd 9b0c 0bbe 5229 053e
00000220: a428 0abe 6d34 46be 0856 2bbd da92 293c
00000230: b299 5abe c955 a1bc d55a 35b9 ad9a bebc
00000240: 9077 3e3d a751 5b3d 26c9 09bc 513e 54bd
00000250: 5f25 34be fcd3 203d c97f e2bd 0209 703d
00000260: 7bed db3d 33e9 13bc d24e 6dbc ef43 77bb
00000270: ce74 82bc 11be 053e 64ae 88bb d585 ce3c
00000280: 46ce fc3c a174 25be 920b 78bd fa01 23be
00000290: 55ec 8dbd 13e5 063e a349 b43d 9a21 5d3d
000002a0: e608 2c3d a1cd 62bd 3bd5 58be a53b fe3b
000002b0: e1ff 57bd e02b a6b9 6774 eb3d f590 17be
000002c0: fba4 5bbe 2c84 70bc 2b35 463d dcc7 0c3e
000002d0: 467d 4e3d ca95 2abe 850b 9abd 81c9 cebc
000002e0: eb0b a2bd c2da a23c 4744 a63d f0d2 7e3c
000002f0: 0111 94bc 1882 163d dea3 1f3d 8472 b6bd
00000300: 9a91 c73d aa5f 63be 0dcd 3abd 0181 d7bd
00000310: ec9e 55bd 91b9 1bbe 31d0 35b8 e05f 413d
00000320: 8433 333d 6176 de3d 49cf 46bd 97cc 0fbd
00000330: 69bd dcbd 4c78 cebd dc85 e83c 1914 04bd
00000340: fcd0 c1bc 7262 d43d 9cc1 5f3e 8ea2 02bd
00000350: d75c 1cbd cf0e 2a3d ad5b 2bbe 0f3e 44bd
00000360: b9c0 b0bc 307a 613d 4deb 8d3d 973b 9ebd
00000370: 7a56 a23d ebc8 cb3c 6d20 be38 0673 e33d
00000380: f379 cd3d aa5d f9bd d513 853d fc13 1dbe
00000390: 6509 833d dc1a 2cbd 0afc 253d a8f7 a33c
000003a0: 1a7d de3d 8eed 81be a77b c53b d574 dbbd
000003b0: f3b6 54bd d75a febc 1587 2b3d 0b22 8cbd
000003c0: 0005 603c 86a3 8b3d e6cc 01be 8505 21be
000003d0: 97e8 79bd 847d 96bd 380b 1c3c 0d76 713d
000003e0: 75ba 40bc 519f b8bd 5da2 82bd 87cd 293d
000003f0: b210 8b3d 78ab efbd f71e d63b 95ae f8bd

network_body._body_endoder.seq_layers.2.bias f4 [128]
-0.0007163646 -0.0017062445 0.00012475876 9.194038e-06 0.0006399944 0.0007743759 -0.0014296524 0.00020514724
0.0005512102 9.8093915e-05 5.7168912e-05 -0.0028953329 -1.2123516e-14 -0.00026277153 0.0012181718 0.0005295122
-0.00038006788 -2.137999e-05 -0.000854931 0.0004650816 0.0030327041 -0.00074522314 0.000410632 -0.0008110303
-0.00047765987 0.00084609905 0.00019925956 0.0016892191 -0.00035973758 0.00059803814 0.0009245792 -0.00024415524
0.00029568264 0.00085883914 0.00055437785 0.00074803305 -7.671987e-05 -0.0007416256 -0.0015026884 -1.1038458e-15
4.5519824e-10 0.0005593451 0.001336649 0.0007449267 0.0006234599 0.00041855953 0.0010245909 -0.0011027731
-0.0009442942 -0.00038027816 -9.734409e-10 -0.00079901435 0.0006738559 -0.00087623816 0.0007066139 0.0006996951
-1.193522e-19 -1.326378e-22 -0.00071359676 0.0003306073 -0.00073206803 -0.0006546116 0.0014750648 0.00085574295
-0.0004237572 0.0005248635 7.573201e-06 -0.001914049 3.509882e-08 -0.0012839499 -0.00052916317 -0.0011696835
0.001438048 0.00043504656 -0.0007526181 -0.00039331082 -0.0007787591 -0.0010951249 0.00093671976 -0.00035294815
-0.0007721621 -6.55786e-05 0.00090346264 -0.0009004475 -0.0010080253 0.00067560305 -0.00056335307 5.9546874e-05
7.271357e-05 -0.0011299399 -0.0008831283 -0.00010779778 0.001346941 -0.003030299 -0.0016214153 0.00089163333
-0.0015940766 -5.8986814e-05 0.0005584838 -0.0006199008 0.0016424878 0.0021448962 -0.0012239175 -0.00045003032
-0.00031640427 -0.0009217445 -0.00076244184 0.00043250195 -5.6842768e-05 -2.6094858e-05 0.00067516585 1.4462996e-05
-0.00069422985 -0.0009095324 -0.0009521809 -0.00012242785 0.0008244621 -1.1614829e-05 0.00043097796 -0.0010313547
0.0011551679 -0.00066646194 0.0008965573 -0.0012105304 -0.00025119795 0.0006666716 0.000519516 -0.0009883492
00000000: 6aca 3bba 11a4 dfba add1 0239 1840 1a37
00000010: 4cc5 273a 7dff 4a3a 2d63 bbba cb1c 5739
00000020: 177f 103a c5b7 cd38 a7c8 6f38 a0bf 3dbb
00000030: d965 5aa8 99c4 89b9 10ab 9f3a f6ce 0a3a
00000040: d943 c7b9 2e59 b3b7 731d 60ba 32d6 f339
00000050: 55c0 463b 145b 43ba 184a d739 529b 54ba
00000060: 6c6e fab9 bfcc 5d3a 55f0 5039 ca68 dd3a
00000070: 299b bcb9 a9c5 1c3a 765f 723a f601 80b9
00000080: da05 9b39 b823 613a ab53 113a a617 443a
00000090: abe4 a0b8 a769 42ba dbf5 c4ba b914 9fa6
000000a0: 753f fa2f 04a1 123a 7f32 af3a 2f47 433a
000000b0: b06f 233a 1c72 db39 914b 863a ed8a 90ba
000000c0: 838a 77ba 1260 c7b9 e8c9 85b0 f274 51ba
000000d0: b4a5 303a 59b3 65ba 0e3c 393a be6b 373a
000000e0: fde7 0ca0 6959 209b ab10 3bba 5c55 ad39
000000f0: 41e8 3fba 3e9a 2bba f656 c13a f053 603a
00000100: bb2b deb9 fe96 093a 4d1d fe36 d4e0 faba
00000110: 90bf 1633 364a a8ba 8ab7 0aba 1150 99ba
00000120: e27c bc3a f616 e439 594b 45ba 4935 ceb9
00000130: a325 4cba 4b8a 8fba 338e 753a e60b b9b9
00000140: ec6a 4aba 3e87 89b8 5ad6 6c3a 020c 6cba
00000150: b71f 84ba f41a 313a fcad 13ba f8c1 7938
00000160: cd7d 9838 7e1a 94ba bd81 67ba 7e11 e2b8
00000170: d78b b03a fb97 46bb ab85 d4ba 80bc 693a
00000180: 56f0 d0ba 9c68 77b8 3767 123a d780 22ba
00000190: bf48 d73a 6391 0c3b db6b a0ba 0cf2 ebb9
000001a0: 10e3 a5b9 3aa1 71ba 9bde 47ba 6ec1 e239
000001b0: 756a 6eb8 48e6 dab7 9dfd 303a 18a6 7237
000001c0: fafc 35ba b06d 6eba c79b 79ba fa5f 00b9
000001d0: b720 583a 50dd 42b7 e2f4 e139 852e 87ba
000001e0: 0169 973a 81b5 2eba f106 6b3a a9aa 9eba
000001f0: 38b3 83b9 93c3 2e3a 2130 083a 7f8b 81ba

action_model._continuous_distribution.log_sigma f4 [1, 2]
0.0032605592 0.0055784835
00000000: 1baf 553b b6cb b63b

action_model._continuous_distribution.mu.weight f4 [2, 128]
-0.012345307 0.012108497 0.026651708 -0.0038415405 -0.0066887424 0.0022404247 -0.002189819 -0.01211778
-0.005014244 0.008236281 -0.056325525 -0.0046166577 0.0021489135 -0.032344867 0.029034136 0.01887608
-0.007298466 0.037469037 -0.024592195 4.599413e-05 -8.564569e-05 0.022245128 0.026269926 -0.047446363
0.015751043 -0.004906115 -0.012500397 0.00096552307 -0.02965504 -0.009105527 -0.016977511 0.0023583164
-0.0234732 -0.0004822025 0.0011842719 0.011001648 -0.026378652 -0.0054800897 0.013685334 -0.019970926
-0.017911563 -0.02033057 0.04468349 0.015762016 0.01039618 0.0028285389 -0.0018179162 -0.0021053627
-0.0040804516 -0.01531047 -0.005572664 0.021952359 -0.013800174 0.016604593 0.010197439 -0.010953329
0.02981901 0.0004553783 0.014582426 -0.010679165 0.035329983 -0.026325906 0.018574178 -0.006013519
-0.027731717 0.022267474 0.007891269 0.014325611 -0.009954491 0.013144446 0.006137936 0.019464558
-0.0006141128 -0.037963293 0.027912186 0.011703087 0.014770878 0.005092248 0.012122055 0.009476273
0.01145884 -0.031705987 0.007921745 0.013103529 0.00097458664 0.028751535 -0.0071405754 -0.010368147
0.032540135 -0.0120314825 -0.021764247 -0.0052286424 -0.0013364349 -0.0058396403 -0.026300432 0.022890963
0.007188928 -0.011311467 -0.0022503904 0.013966769 0.021402983 -0.0059358054 -0.008821766 -0.020071754
0.012616855 0.009040956 -0.00830283 0.012712536 -0.019801714 0.0046718353 0.00244852 -0.040952846
-0.023630096 0.001316819 0.0037651793 -0.03171581 0.007195897 -0.021298112 0.0028359466 0.0017918332
0.0017737711 0.014964443 0.029406387 -0.0026211732 0.007296605 -0.04878268 0.025206722 0.012659768
0.002743205 0.016451845 -0.008448977 -0.015833048 -0.0117268 -0.016033072 -0.0016022864 0.0038357053
0.050892893 -0.003770102 0.004343529 -0.029435126 0.0060315467 -0.0050579077 0.013733111 0.031213515
0.022123307 0.0053811832 -0.02058396 0.009556511 0.049000844 0.02600647 -0.011386711 0.019017247
0.0031550913 0.020348707 0.013879819 -0.031237898 0.0063949083 -0.009049455 -0.043661848 -0.013886377
-0.005202758 -0.0185844 -0.015680535 -0.019152742 -0.03601293 0.0013805979 0.015438686 -0.023900637
-0.023643045 0.0036982424 0.03005128 -0.030935539 -0.033800934 -0.035644423 -0.006724674 0.0059580016
0.011909383 -0.00029190496 0.006849661 0.019301752 -0.015134868 0.0067820726 -0.010674449 -0.01872571
0.024011096 0.010249233 -0.0048692995 -0.004326579 -0.008660333 -0.0066048778 -0.025745511 -0.015054675
-0.0164613 -0.013122471 -0.027090792 0.025217151 -0.003608373 -0.0082344385 -0.010269948 0.009138667
-0.01734111 0.009451827 0.015019022 0.0031106398 0.028128894 0.013759666 -0.011844709 0.011437479
-0.0032573203 -0.001060459 -0.02386865 0.003829903 0.0057867756 -0.018877022 -0.0142960055 0.010244998
0.017359788 0.03774252 0.016212378 -0.0047823386 0.024843782 -0.015883507 0.00712643 0.020378847
0.0069885585 -0.0021538972 -0.012278774 0.011360233 0.029855108 0.013465343 -0.0067194933 0.004882523
0.0014215836 -0.011283142 0.0032553475 0.009151816 -0.009176764 0.00834698 -0.01281054 -0.0044462206
0.014128546 0.024237402 0.0289309 0.0027715964 -0.029816225 0.009423796 -0.057116613 -0.014768794
-0.01739648 0.010453763 -0.031641703 0.0009447494 0.03414851 0.0016222468 -0.010459135 0.0006445124
00000000: f843 4abc b862 463c af54 da3c 5bc2 7bbb
00000010: 3d2d dbbb 17d4 123b 1183 0fbb a789 46bc
00000020: 874e a4bb 77f1 063c 98b5 66bd 5547 97bb
00000030: c9d4 0c3b 0d7c 04bd ffd8 ed3c 02a2 9a3c
00000040: f827 efbb 2279 193d 9275 c9bc d2e9 4038
00000050: ae9c b3b8 6a3b b63c 0734 d73c 1e57 42bd
00000060: 5508 813c 7ac3 a0bb 77ce 4cbc 281b 7d3a
00000070: 20ef f2bc 592f 15bc 6c14 8bbc fc8d 1a3b
00000080: de4a c0bc 20d0 fcb9 9239 9b3a 4240 343c
00000090: 0b18 d8bc 5392 b3bb 7338 603c 119a a3bc
000000a0: 45bb 92bc 4c8c a6bc 0906 373d 581f 813c
000000b0: bd54 2a3c 025f 393b 2547 eeba 20fa 09bb
000000c0: 4fb5 85bb c4d8 7abc e59a b6bb 6fd5 b33c
000000d0: 201a 62bc 5b06 883c 2913 273c 9775 33bc
000000e0: ff46 f43c d7bf ee39 21eb 6e3c aaf7 2ebc
000000f0: 2cb6 103d 6da9 d7bc e028 983c 0e0d c5bb
00000100: a02d e3bc 476a b63c 624a 013c f8b5 6a3c
00000110: 2918 23bc cd5b 573c bd20 c93b 2374 9f3c
00000120: 6afc 20ba 667f 1bbd 19a8 e43c 4ebe 3f3c
00000130: 8d01 723c dfdc a63b 959b 463c 5f42 1b3c
00000140: dcbd 3b3c 23de 01bd 35ca 013c 2fb0 563c
00000150: 677b 7f3a 5788 eb3c 7dfb e9bb 29df 29bc
00000160: ce48 053d b21f 45bc ef4a b2bc 0855 abbb
00000170: 502b afba 745a bfbb 0174 d7bc d485 bb3c
00000180: 1991 eb3b bb53 39bc 497b 13bb e0d4 643c
00000190: 4f55 af3c 2581 c2bb 2b89 10bc 856d a4bc
000001a0: edb6 4e3c 8520 143c 9808 08bc 3e48 503c
000001b0: 3437 a2bc 3216 993b 5977 203b 2cbe 27bd
000001c0: e793 c1bc 1d99 ac3a 3ac1 763b 70e8 01bd
000001d0: 8fcb eb3b 6179 aebc 4adb 393b f2db ea3a
000001e0: e27d e83a 6c2d 753c aae5 f03c fdc7 2bbb
000001f0: 5c18 ef3b 59d0 47bd 547e ce3c ea6a 4f3c
00000200: 58c7 333b 05c6 863c 946d 0abc 4fb4 81bc
00000210: c421 40bc ca57 83bc cf03 d2ba 7560 7b3b
00000220: 1175 503d d113 77bb 2a54 8e3b ef21 f1bc
00000230: 48a4 c53b cebc a5bb d800 613c 7cb3 ff3c
00000240: f03b b53c a354 b03b b19f a8bc ea92 1c3c
00000250: 1cb5 483d 850b d53c 548f 3abc 0fca 9b3c
00000260: a6c5 4e3b 55b2 a63c 2e68 633c 9fe6 ffbc
00000270: 618c d13b 2a44 14bc c4d6 32bd b083 63bc
00000280: e67b aabb 503e 98bc 7774 80bc 36e6 9cbc
00000290: 4b82 13bd 2ef5 b43a 8bf2 7c3c 45cb c3bc
000002a0: 0faf c1bc 365e 723b 1a2e f63c 876c fdbc
000002b0: d972 0abd e3ff 11bd a75a dcbb 573b c33b
000002c0: 931f 433c d20a 99b9 1f73 e03b b51e 9e3c
000002d0: 3df8 77bc 263c de3b e2e3 2ebc a966 99bc
000002e0: ebb2 c43c 66ec 273c a58e 9fbb fac5 8dbb
000002f0: 12e4 0dbc bb6d d8bb 40e8 d2bc e2a7 76bc
00000300: d9d9 86bc a2ff 56bc 82ed ddbc 3394 ce3c
00000310: 747a 6cbb bde9 06bc 4943 28bc 59ba 153c
00000320: f20e 8ebc d6db 1a3c 5812 763c e0db 4b3b
00000330: 916e e63c 3970 613c 4f10 42bc 4464 3b3c
00000340: c478 55bb 19ff 8aba 3088 c3bc 1cff 7a3b
00000350: fe9e bd3b fca3 9abc cb39 6abc a3da 273c
00000360: 1d36 8e3c e797 1a3d d2cf 843c 2ab5 9cbb
00000370: 3085 cb3c 211e 82bc d484 e93b 8af1 a63c
00000380: 4700 e53b 6628 0dbb e92c 49bc 4520 3a3c
00000390: b392 f43c be9d 5c3c 322f dcbb 92fd 9f3b
000003a0: 6e54 ba3a eddc 38bc ab57 553b 80f1 153c
000003b0: 235a 16bc c6c1 083c 4de3 51bc 9ab1 91bb
000003c0: 6b7b 673c 848d c63c 7f00 ed3c aca3 353b
000003d0: 2841 f4bc 4466 1a3c 1cf3 69bd d0f8 71bc
000003e0: 1083 8ebc 4346 2b3c bb9a 01bd 0fa9 773a
000003f0: 4fdf 0b3d 92a1 d43a cb5c 2bbc 7ff4 283a

action_model._continuous_distribution.mu.bias f4 [2]
1.1984017e-05 -0.0008711133
00000000: f60e 4937 6d5b 64ba

exp_avg f4 [128, 6]
-0.007905399 -1.0769655e-08 0.0034067314 0.0 0.0 -0.0029144492 0.0061245877 1.2496735e-09
0.0116223125 0.0 0.0 0.011072839 -3.124987e-07 3.004952e-13 -1.1338094e-06 0.0
0.0 2.9801754e-07 0.0064749056 1.3088166e-08 -0.00052344543 0.0 0.0 0.0027754968
-0.009594178 -1.644077e-08 0.0069742342 0.0 0.0 0.0129866805 -0.0036719227 -3.250195e-09
0.0072733643 0.0 0.0 -0.01288395 -0.000717632 -1.0056883e-09 -0.0018025214 0.0
0.0 -0.0020158323 -0.0023855746 -1.4768009e-09 -0.00029054965 0.0 0.0 -0.001053428
0.0015700435 3.1381506e-09 -0.0072277905 0.0 0.0 0.00690566 0.0019198377 1.1471579e-09
0.014792963 0.0 0.0 -0.0069048973 -0.00017287568 -1.1696726e-09 0.0055832663 0.0
0.0 0.0072733555 -0.004097501 -2.3834831e-08 0.032978136 0.0 0.0 0.00023338292
0.00220597 7.071421e-11 0.0036756697 0.0 0.0 -0.0020391033 -0.010481745 -6.8311476e-09
-0.008196942 0.0 0.0 -0.010170716 -0.0020280536 -7.1078707e-09 0.010623392 0.0
0.0 -0.0064562703 0.0033747223 8.42287e-10 0.016976833 0.0 0.0 -0.009183274
-5.8095306e-05 1.9648465e-11 -5.0613464e-05 0.0 0.0 8.9410314e-05 -0.004332836 -9.041396e-09
0.0063496376 0.0 0.0 0.0035208394 0.006275379 1.1104529e-08 -0.0023580974 0.0
0.0 -0.0006215039 0.0028638244 2.3454203e-09 -0.020593133 0.0 0.0 -0.010876563
-0.008968307 -1.0365371e-08 -0.00019798102 0.0 0.0 -0.011428306 -2.410822e-05 4.4630216e-11
0.00021050005 0.0 0.0 0.00015474955 -0.001341416 -8.101856e-10 -0.0018728941 0.0
0.0 -0.0017602704 -0.001772339 -1.582261e-09 0.010211419 0.0 0.0 -0.002859419
0.0001604671 9.379995e-11 2.9588144e-05 0.0 0.0 0.00011699597 0.0006689153 -8.790197e-11
0.0012347959 0.0 0.0 -0.00081853406 -0.0037428378 -2.5924967e-09 -0.0025443602 0.0
0.0 -0.007738104 -0.00019460147 -1.6775888e-10 0.004211428 0.0 0.0 0.0005202837
-0.0028385597 -1.469108e-09 -0.0034405803 0.0 0.0 0.0047458904 0.0007888349 1.2508813e-09
0.0024913733 0.0 0.0 0.010470325 -0.0025683919 -1.14904974e-10 -0.0078003146 0.0
0.0 0.0030842018 0.0014628463 1.6467028e-09 0.0021179388 0.0 0.0 0.0150368875
-1.0771128e-11 2.8725797e-18 -2.9654462e-12 0.0 0.0 1.1040459e-11 0.00039242982 2.0296853e-10
0.0037655532 0.0 0.0 0.018023029 0.00065465656 1.251248e-09 -0.00034545574 0.0
0.0 0.0012476658 0.0038469657 6.0528804e-09 0.0001845528 0.0 0.0 0.006119256
0.005347866 9.0655465e-09 -0.0038777313 0.0 0.0 -0.0026048087 -0.00022226124 -5.5090515e-10
-0.0014336769 0.0 0.0 -0.0019041396 -0.0003793246 -1.6439217e-09 0.033418316 0.0
0.0 -0.006727935 0.0023344886 -4.7164077e-09 0.031516306 0.0 0.0 -0.010529116
-0.0015647947 -5.0970295e-10 -0.0002821522 0.0 0.0 -0.00010302733 -0.00043849228 -1.0095484e-10
0.0008214482 0.0 0.0 0.0012720649 0.003532995 5.7361165e-09 -0.0005833797 0.0
00000000: a685 01bc 7205 39b2 7843 5f3b 0000 0000
00000010: 0000 0000 5800 3fbb c4b0 c83b fac0 ab30
00000020: 836b 3e3c 0000 0000 0000 0000 da6a 353c
00000030: 7fc5 a7b4 ec29 a92a 652d 98b5 0000 0000
00000040: 0000 0000 38ff 9f34 722b d43b 5dda 6032
00000050: d437 09ba 0000 0000 0000 0000 1ce5 353b
00000060: e630 1dbc a339 8db2 1e88 e43b 0000 0000
00000070: 0000 0000 16c6 543c a4a4 70bb 095a 5fb1
00000080: 6755 ee3b 0000 0000 0000 0000 3417 53bc
00000090: 781f 3cba 8338 8ab0 9542 ecba 0000 0000
000000a0: 0000 0000 0e1c 04bb 4d57 1cbb 50f8 cab0
000000b0: ea54 98b9 0000 0000 0000 0000 2e13 8aba
000000c0: ebc9 cd3a eea6 5731 1ad7 ecbb 0000 0000
000000d0: 0000 0000 e048 e23b 10a3 fb3a 08aa 9d30
000000e0: 2f5e 723c 0000 0000 0000 0000 7a42 e2bb
000000f0: f645 35b9 32c2 a0b0 d5f3 b63b 0000 0000
00000100: 0000 0000 5455 ee3b 5444 86bb 59bd ccb2
00000110: 1514 073d 0000 0000 0000 0000 40b8 7439
00000120: 0992 103b 9080 9b2e 81e3 703b 0000 0000
00000130: 0000 0000 7aa2 05bb a0bb 2bbc 69b7 eab1
00000140: 774c 06bc 0000 0000 0000 0000 13a3 26bc
00000150: 18e9 04bb 7e39 f4b1 bc0d 2e3c 0000 0000
00000160: 0000 0000 1f8f d3bb 722a 5d3b ae86 6730
00000170: 0013 8b3c 0000 0000 0000 0000 7175 16bc
00000180: 5cab 73b8 69d4 ac2d cb49 54b8 0000 0000
00000190: 0000 0000 cc81 bb38 76fa 8dbb 7b54 1bb2
000001a0: 9f10 d03b 0000 0000 0000 0000 e2bd 663b
000001b0: b2a1 cd3b 3cc6 3e32 4f8a 1abb 0000 0000
000001c0: 0000 0000 6cec 22ba 00af 3b3b 122d 2131
000001d0: eeb2 a8bc 0000 0000 0000 0000 9d33 32bc
000001e0: ceef 12bc 6213 32b2 2099 4fb9 0000 0000
000001f0: 0000 0000 ca3d 3bbc 023c cab7 2849 442e
00000200: adb9 5c39 0000 0000 0000 0000 4444 2239
00000210: 74d2 afba beb3 5eb0 e67b f5ba 0000 0000
00000220: 0000 0000 e0b8 e6ba d44d e8ba dc76 d9b0
00000230: cc4d 273c 0000 0000 0000 0000 1765 3bbb
00000240: 0f43 2839 ad44 ce2e 0e34 f837 0000 0000
00000250: 0000 0000 bc5b f538 255a 2f3a 694c c1ae
00000260: e0d8 a13a 0000 0000 0000 0000 e492 56ba
00000270: 664a 75bb af27 32b1 48bf 26bb 0000 0000
00000280: 0000 0000 ec8f fdbb ef0d 4cb9 ed73 38af
00000290: 0500 8a3b 0000 0000 0000 0000 a663 083a
000002a0: 2107 3abb a4e9 c9b0 5c7b 61bb 0000 0000
000002b0: 0000 0000 6a83 9b3b d0c9 4e3a 79eb ab30
000002c0: 4f46 233b 0000 0000 0000 0000 ba8b 2b3c
000002d0: 7752 28bb c0ad fcae c899 ffbb 0000 0000
000002e0: 0000 0000 5220 4a3b fabc bf3a 3452 e230
000002f0: 1ecd 0a3b 0000 0000 0000 0000 475d 763c
00000300: d97c 3dad 7ff5 5322 bbac 50ac 0000 0000
00000310: 0000 0000 cf39 422d 0abf cd39 902a 5f2f
00000320: 80c7 763b 0000 0000 0000 0000 08a5 933c
00000330: 429d 2b3a 60f8 ab30 491e b5b9 0000 0000
00000340: 0000 0000 b888 a33a 601d 7c3b b3f9 cf31
00000350: 8484 4139 0000 0000 0000 0000 0a84 c83b
00000360: 273d af3b b2be 1b32 8921 7ebb 0000 0000
00000370: 0000 0000 70b5 2abb cc0e 69b9 816e 17b0
00000380: 37ea bbba 0000 0000 0000 0000 5394 f9ba
00000390: 16e0 c6b9 5af0 e1b0 a5e1 083d 0000 0000
000003a0: 0000 0000 0276 dcbb 38fe 183b f60d a2b1
000003b0: 3e17 013d 0000 0000 0000 0000 5082 2cbc
000003c0: cc19 cdba 281b 0cb0 d4ed 93b9 0000 0000
000003d0: 0000 0000 6010 d8b8 70e5 e5b9 8600 deae
000003e0: 7556 573a 0000 0000 0000 0000 6abb a63a
000003f0: d289 673b 6a17 c531 f3ed 18ba 0000 0000

exp_avg_sq f4 [128, 6]
0.00021037571 2.1308705e-16 6.427759e-06 0.0 0.0 0.00011624038 0.00016494651 1.6744658e-16
8.522261e-06 0.0 0.0 0.00026647933 1.2650334e-12 5.2372717e-25 1.730092e-11 0.0
0.0 1.2793498e-12 0.00020377705 2.323668e-16 0.000120495766 0.0 0.0 0.00029866668
0.00058901345 5.346246e-16 6.053729e-06 0.0 0.0 0.00019373992 3.3123356e-06 2.4039672e-17
0.00054185814 0.0 0.0 0.00024348861 3.671777e-07 2.1221519e-19 7.787124e-07 0.0
0.0 8.1513826e-07 4.2795814e-06 2.8407227e-18 1.291442e-07 0.0 0.0 5.260015e-07
1.8698987e-05 2.4147774e-17 0.00015259607 0.0 0.0 5.646278e-05 3.0266216e-05 9.720495e-17
0.0015610192 0.0 0.0 0.00019931383 1.4849871e-07 1.3165842e-17 0.00052320154 0.0
0.0 0.00014913813 0.0013587088 1.3101411e-15 4.806869e-05 0.0 0.0 0.00076248957
1.1873142e-05 1.08687736e-17 9.495337e-07 0.0 0.0 8.299522e-06 5.852647e-06 4.0879593e-18
3.2407445e-06 0.0 0.0 0.00014326905 0.0004242857 4.230425e-16 1.169693e-05 0.0
0.0 0.00020625062 6.446028e-05 8.807956e-17 0.0017760055 0.0 0.0 0.00018810577
4.1803356e-09 1.5577158e-21 2.5771213e-08 0.0 0.0 1.6967494e-08 0.00050454744 4.87763e-16
8.011814e-06 0.0 0.0 8.7439614e-05 0.00042616995 3.951032e-16 3.6965862e-06 0.0
0.0 7.5082506e-05 1.4975673e-06 7.280226e-17 0.0030493014 0.0 0.0 0.00036917566
0.00011615144 1.0464649e-16 0.00012225547 0.0 0.0 5.920266e-05 3.810391e-09 3.2513497e-21
4.8837762e-08 0.0 0.0 2.0152147e-08 6.1076975e-07 3.3418278e-19 4.6342987e-07 0.0
0.0 4.8769652e-06 1.6119404e-06 1.4406469e-17 0.0004855811 0.0 0.0 0.00011310319
1.0314135e-07 6.088088e-20 5.3250466e-07 0.0 0.0 4.0157633e-07 5.8644932e-08 1.0147054e-20
9.2025566e-08 0.0 0.0 1.4826784e-07 1.25214165e-05 1.2654301e-17 4.0496772e-07 0.0
0.0 2.8034852e-05 4.3402974e-07 6.717875e-19 2.5869203e-05 0.0 0.0 2.2218865e-05
3.674002e-06 3.7566606e-17 0.001613018 0.0 0.0 0.00029233884 9.479823e-08 1.8094093e-19
4.048038e-07 0.0 0.0 9.918983e-06 2.4400124e-05 3.3550677e-17 0.0004557332 0.0
0.0 6.7100365e-05 8.7088495e-08 1.8597539e-19 3.061171e-07 0.0 0.0 3.0970023e-05
9.237313e-22 1.7317113e-34 4.6054643e-23 0.0 0.0 9.984209e-22 0.0005282993 5.0081797e-16
3.7162686e-06 0.0 0.0 0.00011364527 6.0006936e-05 5.646602e-17 5.916072e-07 0.0
0.0 2.0734098e-05 7.458043e-05 7.698542e-17 4.8353522e-05 0.0 0.0 2.803804e-05
0.00021404137 2.0145023e-16 2.5858176e-06 0.0 0.0 4.3639833e-05 1.0106945e-07 1.1034573e-19
2.5712177e-07 0.0 0.0 3.8168847e-07 0.00013803861 1.9961553e-16 0.0058716536 0.0
0.0 0.0008016717 0.00021941766 1.7439032e-16 0.001689061 0.0 0.0 0.00018010015
0.00019180294 1.8831844e-16 2.463771e-06 0.0 0.0 2.7481667e-05 1.3705548e-07 1.9660421e-19
1.7743119e-07 0.0 0.0 2.0386015e-06 0.00024448935 2.4082078e-16 4.628352e-06 0.0
00000000: 4d98 5c39 32ac 7525 08ae d736 0000 0000
00000010: 0000 0000 14c6 f338 7ef5 2c39 820d 4125
00000020: d5fa 0e37 0000 0000 0000 0000 40b6 8b39
00000030: a209 b22b f115 2217 352e 982d 0000 0000
00000040: 0000 0000 6f0d b42b fcac 5539 4af3 8525
00000050: acb2 fc38 0000 0000 0000 0000 5d96 9c39
00000060: 0668 1a3a 5518 1a26 2321 cb36 0000 0000
00000070: 0000 0000 aa26 4b39 7e49 5e36 12ba dd23
00000080: 7c0b 0e3a 0000 0000 0000 0000 fa50 7f39
00000090: 8520 c534 1b8a 7a20 b508 5135 0000 0000
000000a0: 0000 0000 e0cf 5a35 5399 8f36 bc9b 5122
000000b0: e3aa 0a34 0000 0000 0000 0000 8c32 0d35
000000c0: c5db 9c37 52b9 de23 3202 2039 0000 0000
000000d0: 0000 0000 73d2 6c38 34e4 fd37 ad23 e024
000000e0: 1d9b cc3a 0000 0000 0000 0000 e6fe 5039
000000f0: 0473 1f34 eedd 7223 7627 093a 0000 0000
00000100: 0000 0000 f661 1c39 b416 b23a adcf bc26
00000110: 5d9d 4938 0000 0000 0000 0000 cfe1 473a
00000120: c232 4737 557e 4823 76e3 7e35 0000 0000
00000130: 0000 0000 2d3e 0b37 db61 c436 afd1 9622
00000140: 917b 5936 0000 0000 0000 0000 7e3a 1639
00000150: aa72 de39 0ede f325 ef3d 4437 0000 0000
00000160: 0000 0000 fb44 5839 d92e 8738 ff18 cb24
00000170: dbc8 e83a 0000 0000 0000 0000 423e 4539
00000180: 9fa2 8f31 3665 eb1c 7f5f dd32 0000 0000
00000190: 0000 0000 eabf 9132 9b43 043a 8f96 0c26
000001a0: 7b6a 0637 0000 0000 0000 0000 c95f b738
000001b0: 906f df39 f1c2 e325 de12 7836 0000 0000
000001c0: 0000 0000 9d75 9d38 0500 c935 dede a724
000001d0: cad6 473b 0000 0000 0000 0000 eb8d c139
000001e0: 5496 f338 624c f124 b431 0039 0000 0000
000001f0: 0000 0000 5f50 7838 8eec 8231 40aa 751d
00000200: b0c1 5133 0000 0000 0000 0000 0a1b ad32
00000210: c7f3 2335 4644 c520 51cd f834 0000 0000
00000220: 0000 0000 d0a4 a336 da59 d835 50e0 8423
00000230: 9895 fe39 0000 0000 0000 0000 d031 ed38
00000240: 8f7e dd33 3cc0 8f1f 71f1 0e35 0000 0000
00000250: 0000 0000 3b98 d734 c9e0 7b33 24ac 3f1e
00000260: 979f c533 0000 0000 0000 0000 8e33 1f34
00000270: 1313 5237 3f6e 6923 576a d934 0000 0000
00000280: 0000 0000 632c eb37 9804 e934 d446 4621
00000290: b101 d937 0000 0000 0000 0000 a662 ba37
000002a0: e08e 7636 d23e 2d24 e76b d33a 0000 0000
000002b0: 0000 0000 0e45 9939 e193 cb33 0a9e 5520
000002c0: d053 d934 0000 0000 0000 0000 b569 2637
000002d0: deae cc37 a6b9 1a24 7aef ee39 0000 0000
000002e0: 0000 0000 3cb8 8c38 6805 bb33 9d8f 5b20
000002f0: 6a58 a434 0000 0000 0000 0000 cfe5 0138
00000300: 2097 8b1c 152f 6607 e3b4 5e1a 0000 0000
00000310: 0000 0000 8ae0 961c 917d 0a3a d859 1026
00000320: 0265 7936 0000 0000 0000 0000 d754 ee38
00000330: f5af 7b38 a833 8224 f0ce 1e35 0000 0000
00000340: 0000 0000 23ee ad37 1068 9c38 2c84 b124
00000350: 33cf 4a38 0000 0000 0000 0000 3c33 eb37
00000360: 4b70 6039 9d41 6825 0288 2d36 0000 0000
00000370: 0000 0000 ea09 3738 850b d933 f345 0220
00000380: 8c0a 8a34 0000 0000 0000 0000 ddea cc34
00000390: 75be 1039 1b24 6625 0067 c03b 0000 0000
000003a0: 0000 0000 4727 523a 7b13 6639 f00e 4925
000003b0: 7c63 dd3a 0000 0000 0000 0000 44d9 3c39
000003c0: b61e 4939 cb1d 5925 4357 2536 0000 0000
000003d0: 0000 0000 6e88 e637 8629 1334 fa1b 6820
000003e0: ea83 3e34 0000 0000 0000 0000 e8ce 0836
000003f0: ce2e 8039 e0d2 8a25 3e4d 9b36 0000 0000

exp_avg f4 [128]
-2.414623e-05 9.173852e-05 2.4690767e-09 2.299501e-05 0.00010759471 -0.000106743595 -1.670118e-05 -8.727656e-06
5.7213416e-05 -5.7207093e-05 6.0259783e-05 1.9335712e-06 -1.6893971e-05 -8.426439e-05 -5.3490217e-05 -7.6083445e-05
7.4076496e-07 2.9170169e-05 -5.1491606e-06 -9.0112364e-05 -9.468358e-05 1.2821006e-06 -1.4583853e-05 -2.3690307e-05
9.693122e-07 -6.7815595e-06 -6.411024e-05 4.310554e-06 3.9319704e-05 8.674669e-05 2.5552616e-05 0.00012458068
9.147026e-14 0.00014932087 1.0336918e-05 5.0698065e-05 -2.1580852e-05 -1.5775806e-05 -5.5740995e-05 -8.723375e-05
-8.535826e-07 1.0539061e-05 5.679058e-05 -9.139075e-06 -2.7154038e-05 4.4683235e-05 3.8618822e-05 -1.6971055e-05
1.9371535e-06 -2.0975529e-05 -6.8359604e-06 7.798921e-06 3.9618117e-06 1.46039965e-05 -7.622148e-05 8.6879315e-10
-1.5264677e-06 4.4169137e-06 -8.19882e-06 7.6355e-13 -2.6471458e-05 2.4561442e-07 4.0745632e-05 6.821539e-05
-1.9185576e-05 1.7061099e-06 1.7448636e-05 3.8564125e-05 7.82825e-06 3.2190215e-05 5.741823e-09 1.0233372e-05
1.7499982e-05 5.2201212e-05 9.740759e-07 2.2109849e-05 0.0002150654 -5.6568908e-05 8.4277606e-05 -1.720895e-05
5.417919e-06 1.2246201e-05 1.0514941e-07 1.3591289e-05 7.619619e-07 6.5488275e-06 1.8386816e-06 -8.265373e-05
-5.6716573e-05 -1.4432184e-06 -7.174698e-05 -1.1567247e-24 0.00014167753 9.813387e-06 -0.00010236618 -1.0400797e-06
-7.32781e-06 -3.8412863e-06 0.000113146656 -3.1391734e-05 2.6833593e-05 3.5623823e-05 1.5376878e-05 -0.00015698076
-8.772407e-06 -1.9513716e-05 2.1139893e-05 3.8249575e-28 -2.7731632e-05 -1.5167728e-07 8.030844e-06 -6.980488e-05
4.877534e-05 -6.5146836e-05 2.2046145e-06 9.967127e-06 5.7731617e-05 3.631218e-05 -1.7788981e-05 8.3937506e-05
-0.00016451904 -5.078795e-05 -1.9619947e-06 -2.7128253e-05 -6.337884e-05 -4.033179e-06 8.654976e-05 1.4444512e-05
00000000: a28d cab7 be63 c038 75ac 2931 68e5 c037
00000010: 78a4 e138 88db dfb8 8319 8cb7 ff6c 12b7
00000020: 70f8 6f38 a6f1 6fb8 73bf 7c38 80c2 0136
00000030: 87b7 8db7 1ab7 b0b8 af5a 60b8 fd8e 9fb8
00000040: fbd8 4635 76b2 f437 f4c6 acb6 b5fa bcb8
00000050: dc90 c6b8 a414 ac35 2cad 74b7 8cba c6b7
00000060: 5019 8235 278d e3b6 ec72 86b8 60a3 9036
00000070: 36eb 2438 c6eb b538 d359 d637 dfa1 0239
00000080: 04f9 cd29 0493 1c39 ba6c 2d37 a2a4 5438
00000090: 8708 b5b7 4956 84b7 70cb 69b8 43f1 b6b8
000000a0: c021 65b5 ecd0 3037 6c32 6e38 0754 19b7
000000b0: dac8 e3b7 426a 3b38 a5fa 2138 105d 8eb7
000000c0: 0b00 0236 9bf4 afb7 7460 e5b6 1cd8 0237
000000d0: b4ef 8436 b003 7537 18d9 9fb8 e2cf 6e30
000000e0: 08e1 ccb5 0035 9436 aa8d 09b7 93eb 562b
000000f0: 060f deb7 fddc 8334 4ae6 2a38 dc0e 8f38
00000100: b6f0 a0b7 7dfd e435 a95e 9237 eabf 2138
00000110: 1456 0337 fb03 0738 9c49 c531 00b0 2b37
00000120: edcc 9237 a0f2 5a38 febc 8235 8a78 b937
00000130: 2e83 6139 6744 6db8 32be b038 f05b 90b7
00000140: 92cb b536 0875 4d37 80ce e133 2406 6437
00000150: a089 4c35 00be db36 9ec8 f635 6256 adb8
00000160: f5e2 6db8 9bb4 c1b5 de76 96b8 96fe b297
00000170: 468f 1439 2da4 2437 6dad d6b8 de98 8bb5
00000180: 69e1 f5b6 66e4 80b6 2649 ed38 9eaa 03b8
00000190: b418 e137 ca6a 1538 98fd 8037 349b 24b9
000001a0: 342d 13b7 63b1 a3b7 9355 b137 7c6f f211
000001b0: 3aa1 e8b7 bcdc 22b4 36bc 0637 3664 92b8
000001c0: 1f94 4c38 719f 88b8 fdf2 1336 7c38 2737
000001d0: da24 7238 e84d 1838 8c39 95b7 9b07 b038
000001e0: be82 2cb9 2505 55b8 d0aa 03b6 7b91 e3b7
000001f0: 41ea 84b8 be54 87b6 0c82 b538 b556 7237

exp_avg_sq f4 [128]
7.978891e-09 1.8291479e-08 8.781619e-17 2.0500874e-08 1.3298559e-08 1.6713374e-08 5.5952153e-11 3.6105428e-11
3.875678e-09 1.368116e-08 1.0237033e-08 5.2338265e-08 5.696899e-10 9.8341735e-09 1.4157306e-08 1.2911824e-08
1.1646707e-12 6.001968e-09 5.1537605e-09 2.5340716e-08 4.0637484e-09 1.3832694e-12 3.347611e-10 7.76355e-09
2.7564721e-11 1.0177296e-11 1.9243482e-09 1.5251321e-09 2.0066516e-08 6.8085193e-10 4.6058557e-09 2.125823e-09
6.85329e-26 7.80076e-09 1.4232155e-09 1.9245672e-09 2.9954954e-09 2.619959e-11 5.5027776e-08 1.2362305e-08
1.8863766e-09 1.3993225e-10 5.9605023e-09 2.8619753e-09 1.5526789e-08 1.7338795e-08 3.4909187e-09 6.477852e-08
1.08297685e-11 2.312221e-09 4.6187717e-11 1.181232e-08 5.0702496e-09 5.5391688e-08 3.2494594e-08 3.8344662e-17
1.2335544e-10 8.7317e-12 7.296815e-12 1.5718293e-25 1.1475815e-08 1.5291518e-14 2.8496125e-08 1.603157e-08
3.867986e-09 1.315018e-11 9.150338e-10 4.965646e-09 7.1742576e-09 2.3618154e-09 1.9881476e-17 1.0035274e-09
1.0299768e-08 2.9074052e-08 5.6839883e-11 7.912239e-10 2.2297568e-08 5.9039415e-08 2.0510462e-09 6.28785e-09
1.6855111e-11 2.9939937e-09 2.4399897e-13 3.7056962e-09 2.3919332e-08 4.897169e-10 1.2059666e-08 3.169234e-09
4.4380478e-08 4.153697e-12 3.6679644e-08 0.0 8.6380886e-08 1.8219794e-11 1.7330143e-09 1.3102246e-11
1.3746368e-10 6.421845e-10 2.6338626e-08 2.1298348e-08 7.0532455e-09 5.2008837e-09 2.2796585e-09 5.3546274e-09
7.1998074e-09 4.3665963e-10 8.345648e-10 0.0 7.8121e-09 7.893582e-13 8.701368e-09 1.0753839e-08
3.8002455e-08 1.42894585e-08 3.4302602e-11 3.377454e-10 1.2461886e-08 7.0557116e-09 9.002445e-10 1.4551956e-08
1.6172857e-08 1.9888413e-08 1.7180504e-12 5.7473364e-09 1.6559568e-08 2.1396766e-11 1.6506545e-08 2.803302e-09
00000000: 8913 0932 631f 9d32 877d ca24 e619 b032
00000010: ae77 6432 1991 8f32 8614 762e 19cb 1e2e
00000020: d32a 8531 610a 6b32 f3de 2f32 88ca 6033
00000030: 5d98 1c30 27f3 2832 7e38 7332 cdd2 5d32
00000040: afe9 a32b de39 ce31 f514 b131 d3ac d932
00000050: 1ca1 8b31 88ad c22b 7009 b82f 7460 0532
00000060: 3c76 f22d 770a 332d 7e3d 0431 d19c d130
00000070: bc5e ac32 b226 3b30 8941 9e31 e015 1231
00000080: e3ad a915 1b04 0632 f29a c330 5841 0431
00000090: 50d9 4d31 3b74 e62d ae57 6c33 fe61 5432
000000a0: 7da1 0131 6ddb 192f 22cd cc31 67ac 4431
000000b0: c55f 8532 6af0 9432 e4e4 6f31 5e1c 8b33
000000c0: f184 3e2d 06e5 1e31 bf22 4b2e 22ef 4a32
000000d0: 6336 ae31 cee7 6d33 2f90 0b33 63d5 3024
000000e0: 78a1 072f 159c 192d ef5d 002d 4295 4216
000000f0: 2b27 4532 d7bb 8928 a4c7 f432 ccb5 8932
00000100: 2ae7 8431 2557 672d c885 7b30 499e aa31
00000110: 7081 f631 7f4d 2231 cf5f b723 7bec 8930
00000120: dcf2 3032 84be f932 05fc 792e 6f7d 5930
00000130: df88 bf32 8692 7d33 63f2 0c31 830c d831
00000140: 5642 942d e5be 4d31 f55b 892a 4ca7 7e31
00000150: 2b77 cd32 c39c 0630 f92e 4f32 c1c9 5931
00000160: da9c 3e33 2d25 922c b289 1d33 0000 0000
00000170: 6580 b933 5443 a02d 052f ee30 457f 662d
00000180: 9624 172f b785 3030 403f e232 90f3 b632
00000190: 0159 f231 75b3 b231 2da8 1c31 cdfb b731
000001a0: 2d62 f731 610e f02f 4767 6530 0000 0000
000001b0: fb35 0632 412f 5e2b 057d 1532 e2bf 3832
000001c0: 2438 2333 b47d 7532 4cdd 162e 70ad b92f
000001d0: f417 5632 b26e f231 1375 7730 2e00 7a32
000001e0: 7dec 8a32 15d7 aa32 4acb f12b 1b7a c531
000001f0: e03e 8e32 3c35 bc2d 47ca 8d32 36a4 4031
