results/ppo/My Behaviour/My Behaviour-2960.pt (torch, 148239 bytes, 12 tensors)

network_body._body_endoder.seq_layers.0.weight f4 [128, 5]
-0.16497162 0.036644146 0.49258137 -0.22861372 0.43148568 -0.58720005 -0.067967944 0.07488875
0.15508765 0.46477434 0.23321047 0.04612 -0.7135266 -0.2279944 -0.2832091 0.18134695
0.14428972 -0.42575034 0.55414355 0.82428527 0.6838291 0.5562079 -0.92820674 0.44299653
0.32250264 0.6780623 0.93856186 0.32814518 0.16234821 0.2240971 -0.056955677 0.50393355
-0.2592715 1.3685445 0.46620083 0.28591228 0.11631695 -0.05130648 0.442329 -0.09820953
-0.899646 -0.27659452 0.27829522 0.13023946 0.26549602 -0.11235939 0.2963299 0.7005235
0.10162286 -0.79146415 -0.6061185 -0.24034154 0.011638111 -0.03486848 -0.52555066 0.2683704
-0.79639703 0.8497896 0.4955386 -0.08337604 -0.35144934 -0.012209724 -0.58716494 0.047378894
0.19341986 -0.52223545 0.4342802 0.73199743 0.41527054 0.10892698 0.25307238 -0.5325817
-0.011990775 0.34995347 -0.33599848 -0.07936461 0.10167352 0.32485464 0.05924385 -0.20991705
0.40066084 -0.30008322 0.08841791 -0.64526695 0.5955596 -0.5722199 -0.8688454 -0.25715375
-0.20674287 0.83340704 -0.6529609 -0.47450656 -0.10775953 -0.3879192 0.22632195 -0.22959715
0.5737656 0.25820524 0.51779526 -0.82965744 0.110687815 0.5626735 0.23874398 -0.58693653
-0.5569309 -0.0046717073 -0.10308003 0.5282574 -0.43479955 0.4164575 0.7190358 -0.5568794
-0.11727076 0.0024120705 -0.66609037 0.24786101 -0.15998916 0.21467876 -0.07283019 0.7306237
-0.24219261 -0.05458519 -0.54499906 0.13469474 0.09330959 -0.44113454 -0.2909932 -0.18690611
-0.66040266 0.3987269 0.37716213 0.5958598 0.11462907 -0.45242298 0.09183934 0.054852035
-0.29205906 -0.13479601 0.109873295 -0.107121505 -0.20124555 -0.017480763 0.20453976 -0.43685332
0.40004826 -0.3648608 -0.08648169 -0.37255564 -0.4852135 0.49928775 0.017789362 0.39757103
0.06820901 -0.33446288 0.14880337 0.37716255 -0.052729078 -0.6890458 0.3104682 0.23537247
0.30393675 0.67715234 0.15288441 -0.13697858 0.73005563 -0.28093022 0.43584004 -0.07956795
-0.4732441 0.12027697 0.44796988 0.4633676 -0.40152016 0.31330243 0.6221625 0.06362257
-0.20635484 0.96280605 0.11671281 0.6391413 -0.16974004 0.03177585 0.5620213 -0.6709479
-0.07020606 0.41728094 0.06769882 -0.07133091 -0.1640695 -0.24568063 0.17083836 -0.46713218
-0.10840987 0.58866 -0.40635785 -0.24836388 0.3675269 -0.06563721 0.612647 -0.26299658
-0.14087673 -0.4586588 0.36440083 -0.02678128 0.42127305 -0.19697763 0.43426272 -0.04290262
0.4375493 1.2757498 0.62997085 0.50425553 0.459771 -0.34007767 0.031201117 -0.25058395
0.21479346 -1.0418344 0.13138817 -0.13513923 0.49717104 -0.5804439 0.32976288 0.36606297
0.088124834 -0.52203155 0.35482514 -0.557462 0.1851517 0.39380533 -0.75587595 -0.04581011
0.15899305 -0.22945929 0.05287374 0.09964415 0.34615615 -0.017342567 -0.21555586 0.6644309
0.11475205 0.14461532 -0.19344057 0.46753618 -0.91242766 0.31249964 -0.49273044 0.5803507
0.28924152 0.35244212 -0.08577077 0.084404804 -0.7654052 -0.14838694 0.21171959 -0.10568972
00000000: 52ee 28be 2c18 163d a033 fc3e b719 6abe
00000010: b1eb dc3e be52 16bf c732 8bbd 465f 993d
00000020: 4ccf 1e3e e7f6 ed3e bace 6e3e 53e8 3c3d
00000030: aea9 36bf 5d77 69be c800 91be 04b3 393e
00000040: afc0 133e f3fb d9be 5adc 0d3f 5c04 533f
00000050: 6d0f 2f3f a463 0e3f f59e 6dbf 71d0 e23e
00000060: 111f a53e 7e95 2d3f 9745 703f a502 a83e
00000070: 9c3e 263e b679 653e 5b4a 69bd ca01 013f
00000080: 3cbf 84be 772c af3f e0b1 ee3e 1863 923e
00000090: 9537 ee3d be26 52bd f278 e23e 1422 c9bd
000000a0: 334f 66bf cc9d 8dbe b67c 8e3e 7e5d 053e
000000b0: 18ef 873e ae1c e6bd 8db8 973e 8255 333f
000000c0: a51f d03d 659d 4abf 952a 1bbf 181c 76be
000000d0: c7ad 3e3c 40d2 0ebd 7d8a 06bf d867 893e
000000e0: ade0 4bbf d08b 593f 3cb7 fd3e 0fc1 aabd
000000f0: 2bf1 b3be 4b0b 48bc 7150 16bf 5f10 423d
00000100: db0f 463e 39b1 05bf f959 de3e 2f64 3b3f
00000110: 579e d43e 1c15 df3d b492 813e 4657 08bf
00000120: f574 44bc 1a2d b33e fe07 acbe ea89 a2bd
00000130: 353a d03d 5953 a63e aea9 723d 7ff4 56be
00000140: 6b23 cd3e 82a4 99be 7314 b53d 3730 25bf
00000150: 9876 183f 017d 12bf a76c 5ebf a8a9 83be
00000160: 67b4 53be 2a5a 553f 7228 27bf 86f2 f2be
00000170: 07b1 dcbd 589d c6be f1c0 673e 841b 6bbe
00000180: 4de2 123f 7a33 843e 3b8e 043f 6e64 54bf
00000190: 4bb0 e23d 5f0b 103f 4d79 743e 7941 16bf
000001a0: 0693 0ebf 1f15 99bb 9f1b d3bd e13b 073f
000001b0: 0c9e debe eb39 d53e bb12 383f a68f 0ebf
000001c0: a72b f0bd d413 1e3b e684 2abf 47cf 7d3e
000001d0: 33d4 23be c0d4 5b3e ff27 95bd 280a 3b3f
000001e0: 5701 78be b894 5fbd 0f85 0bbf 6bed 093e
000001f0: 1919 bf3d 63dc e1be 10fd 94be 5164 3fbe
00000200: 2610 29bf ef25 cc3e 651b c13e 458a 183f
00000210: a5c2 ea3d fca3 e7be 4416 bc3d 87ac 603d
00000220: c488 95be f707 0abe 4005 e13d 8562 dbbd
00000230: 5013 4ebe d133 8fbc df72 513e 3dab dfbe
00000240: 20d3 cc3e 09cf babe 501d b1bd 9dbf bebe
00000250: e76d f8be a5a2 ff3e ffba 913c 6e8e cb3e
00000260: 2ab1 8b3d b83e abbe e95f 183e 731b c13e
00000270: 72fa 57bd 4e65 30bf b0f5 9e3e 7b05 713e
00000280: 999d 9b3e db59 2d3f bb8d 1c3e 1d44 0cbe
00000290: ede4 3a3f 16d6 8fbe 6d26 df3e 85f4 a2bd
000002a0: 0d4d f2be c653 f63d 4f5c e53e 853e ed3e
000002b0: 0d94 cdbe 2d69 a03e 0b46 1f3f 8d4c 823d
000002c0: af4e 53be 757a 763f 2007 ef3d c49e 233f
000002d0: 55d0 2dbe 6527 023d a1e0 0f3f 3ec3 2bbf
000002e0: 32c8 8fbd d9a5 d53e aea5 8a3d f115 92bd
000002f0: d601 28be b493 7bbe 40f0 2e3e f32b efbe
00000300: fe05 debd 6cb2 163f 230e d0be 1a53 7ebe
00000310: 7c2c bc3e cd6c 86bd 6fd6 1c3f 7da7 86be
00000320: fd41 10be 54d5 eabe bf92 ba3e 6a64 dbbc
00000330: 1ab1 d73e 81b4 49be af57 de3e a8ba 2fbd
00000340: 7606 e03e c54b a33f c545 213f e416 013f
00000350: 1b67 eb3e a91e aebe 7c99 ff3c 8a4c 80be
00000360: d1f2 5b3e d45a 85bf 9f8a 063e f061 0abe
00000370: 348d fe3e f997 14bf aed6 a83e 9b6c bb3e
00000380: cb7a b43d dca3 05bf a4ab b53e d4b5 0ebf
00000390: 6898 3d3e daa0 c93e 1681 41bf 62a3 3bbd
000003a0: 13cf 223e 60f7 6abe 2392 583d 3b12 cc3d
000003b0: 613b b13e 0012 8ebc adba 5cbe 2518 2a3f
000003c0: 1f03 eb3d 0a16 143e 4915 46be e760 ef3e
000003d0: dc94 69bf f4ff 9f3e 2a47 fcbe dd91 143f
000003e0: 7717 943e 4b73 b43e 96a8 afbd 6ddc ac3d
000003f0: 98f1 43bf bff2 17be 05cd 583e da73 d8bd

network_body._body_endoder.seq_layers.0.bias f4 [128]
0.0 0.0 0.0 0.0 0.0 0.0 0.0 0.0
0.0 0.0 0.0 0.0 0.0 0.0 0.0 0.0
0.0 0.0 0.0 0.0 0.0 0.0 0.0 0.0
0.0 0.0 0.0 0.0 0.0 0.0 0.0 0.0
0.0 0.0 0.0 0.0 0.0 0.0 0.0 0.0
0.0 0.0 0.0 0.0 0.0 0.0 0.0 0.0
0.0 0.0 0.0 0.0 0.0 0.0 0.0 0.0
0.0 0.0 0.0 0.0 0.0 0.0 0.0 0.0
0.0 0.0 0.0 0.0 0.0 0.0 0.0 0.0
0.0 0.0 0.0 0.0 0.0 0.0 0.0 0.0
0.0 0.0 0.0 0.0 0.0 0.0 0.0 0.0
0.0 0.0 0.0 0.0 0.0 0.0 0.0 0.0
0.0 0.0 0.0 0.0 0.0 0.0 0.0 0.0
0.0 0.0 0.0 0.0 0.0 0.0 0.0 0.0
0.0 0.0 0.0 0.0 0.0 0.0 0.0 0.0
0.0 0.0 0.0 0.0 0.0 0.0 0.0 0.0
00000000: 0000 0000 0000 0000 0000 0000 0000 0000
00000010: 0000 0000 0000 0000 0000 0000 0000 0000
00000020: 0000 0000 0000 0000 0000 0000 0000 0000
00000030: 0000 0000 0000 0000 0000 0000 0000 0000
00000040: 0000 0000 0000 0000 0000 0000 0000 0000
00000050: 0000 0000 0000 0000 0000 0000 0000 0000
00000060: 0000 0000 0000 0000 0000 0000 0000 0000
00000070: 0000 0000 0000 0000 0000 0000 0000 0000
00000080: 0000 0000 0000 0000 0000 0000 0000 0000
00000090: 0000 0000 0000 0000 0000 0000 0000 0000
000000a0: 0000 0000 0000 0000 0000 0000 0000 0000
000000b0: 0000 0000 0000 0000 0000 0000 0000 0000
000000c0: 0000 0000 0000 0000 0000 0000 0000 0000
000000d0: 0000 0000 0000 0000 0000 0000 0000 0000
000000e0: 0000 0000 0000 0000 0000 0000 0000 0000
000000f0: 0000 0000 0000 0000 0000 0000 0000 0000
00000100: 0000 0000 0000 0000 0000 0000 0000 0000
00000110: 0000 0000 0000 0000 0000 0000 0000 0000
00000120: 0000 0000 0000 0000 0000 0000 0000 0000
00000130: 0000 0000 0000 0000 0000 0000 0000 0000
00000140: 0000 0000 0000 0000 0000 0000 0000 0000
00000150: 0000 0000 0000 0000 0000 0000 0000 0000
00000160: 0000 0000 0000 0000 0000 0000 0000 0000
00000170: 0000 0000 0000 0000 0000 0000 0000 0000
00000180: 0000 0000 0000 0000 0000 0000 0000 0000
00000190: 0000 0000 0000 0000 0000 0000 0000 0000
000001a0: 0000 0000 0000 0000 0000 0000 0000 0000
000001b0: 0000 0000 0000 0000 0000 0000 0000 0000
000001c0: 0000 0000 0000 0000 0000 0000 0000 0000
000001d0: 0000 0000 0000 0000 0000 0000 0000 0000
000001e0: 0000 0000 0000 0000 0000 0000 0000 0000
000001f0: 0000 0000 0000 0000 0000 0000 0000 0000

network_body._body_endoder.seq_layers.2.weight f4 [128, 128]
0.1341397 -0.07612329 0.07535463 -0.14263822 0.057105932 0.021406889 -0.02453761 -0.029940525
-0.06872242 0.03218548 -0.20229618 0.032188136 0.11711644 0.08391304 0.05433339 0.018496534
0.15452075 0.004127985 -0.031482432 0.02098247 -0.0015192555 0.07542735 0.020714104 -0.0495759
-0.02977523 -0.054854777 0.10445799 0.013206371 -0.05270678 -0.035749253 -0.024590801 0.103891484
0.06880277 -0.09634691 -0.031386804 -0.0927572 -0.10128199 0.0016674248 -0.1310613 0.033725582
-0.08288729 -0.09807911 -0.02650895 0.015836043 -0.04217319 -0.044738874 0.0119421845 0.14209583
-0.16398497 0.045555837 0.12578182 0.15026397 0.085834384 -0.013562784 0.1342359 -0.08726041
0.12237141 0.028237302 0.05684655 -0.015245147 0.08841141 -0.081675656 0.0238442 -0.028254122
0.09917429 0.0086805895 -0.019156337 0.11115207 0.040134076 0.030229429 -0.05720552 0.10191642
-0.07579639 -0.1276909 0.0117315035 0.055145238 0.019223643 0.19622663 -0.036979787 0.06967682
0.12680283 -0.19275528 -0.08429043 0.042976778 0.034600176 -0.107067816 -0.059805054 0.014628927
0.14072831 -0.017939493 -0.064887084 0.094789945 0.024900462 -0.063798666 -0.13242197 -0.025511626
-0.05300415 0.001896487 0.090743415 0.034157064 -0.17150345 -0.041997958 0.054207414 0.038346186
-0.080037154 0.016163923 -0.10470653 -0.14989658 0.10519606 -0.051882584 0.0060913833 -0.019016262
0.08455418 0.05907365 0.1329274 0.036615014 -0.021058211 0.03961379 -0.079769425 0.13025767
-0.087775275 0.13682877 -0.07403871 -0.15436736 -0.05628987 -0.14115703 -0.09935731 0.026540147
0.00781443 0.044501573 0.10853263 -0.049832914 0.07488925 0.08193309 -0.06908687 0.06360746
-0.046666972 -0.18437128 -0.005051656 0.029097933 0.080425866 0.07341961 0.15023473 -0.17077754
0.012212401 -0.061122693 -0.026018117 -0.028751887 0.043988552 4.5357807e-05 0.03246539 -0.05526577
0.0683399 -0.047040414 -0.02102828 0.007996931 -0.13838482 -0.1121691 0.10535386 0.08202306
0.12183444 -0.06720977 0.05880181 0.02815287 -0.16438375 -0.07251956 -0.09975984 -0.17385557
-0.04714053 0.109138384 -0.059048362 -0.0070505585 -0.07848979 -0.052799955 0.18352333 0.06514816
0.017090168 0.17146592 -0.05923472 -0.03929327 -0.079042844 0.07048286 0.13402048 -0.017731199
-0.09574803 -0.018778477 0.039454345 0.079525106 -0.080496855 0.0027512861 0.02604041 -0.02802287
0.017442884 -0.035809215 -0.11342233 -0.08805899 -0.040764846 -0.11015207 0.08096932 0.244395
0.015405895 -0.013033286 -0.052190047 0.033408917 -0.122456044 0.15460989 0.020830873 0.026419234
-0.01859987 -0.06736312 -0.020817792 0.038477257 -0.029475844 -0.04445005 -0.012109411 -0.08962272
-0.1284727 0.032763246 0.008310604 -0.054294284 0.27280545 -0.070019595 -0.057474855 -0.027006133
-0.011489509 -0.026901985 -0.036788363 -0.060796533 0.029307012 0.011426264 0.05780809 0.017518481
0.107735574 -0.0065896637 0.046890892 -0.019852126 -0.0931613 0.07458381 0.059203476 -0.015199337
0.18670459 -0.013669299 -0.17125626 0.104971364 -0.1318024 0.28353533 -0.089278415 0.044798274
-0.03510562 -0.03923025 -0.005659694 0.05570944 -0.017061578 0.047716327 -0.12207371 0.0017882818
00000000: eb5b 093e 87e6 9bbd 8753 9a3d c10f 12be
00000010: e9e7 693d 805d af3c 1903 c9bc d545 f5bc
00000020: 57be 8cbd ecd4 033d bb26 4fbe b5d7 033d
00000030: beda ef3d 9ada ab3d b08c 5e3d 0b86 973c
00000040: b03a 1e3e 0c44 873b b9f3 00bd 6ee3 ab3c
00000050: c121 c7ba a879 9a3d a0b0 a93c 1910 4bbd
00000060: 2feb f3bc 67af 60bd 12ee d53d 895f 583c
00000070: 11e3 57bd cf6d 12bd a672 c9bc 0fc5 d43d
00000080: 77e8 8c3d 8751 c5bd 738f 00bd 7df7 bdbd
00000090: ef6c cfbd 7e8d da3a ef34 06be d623 0a3d
000000a0: d0c0 a9bd b3dd c8bd 4c29 d9bc 97ba 813c
000000b0: cbbd 2cbd 1c40 37bd 27a9 433c 9281 113e
000000c0: adeb 27be c298 3a3d f3cc 003e ccde 193e
000000d0: f0c9 af3d 7036 5ebc 2375 093e 96b5 b2bd
000000e0: dd9d fa3d ea51 e73c eed7 683d c8c6 79bc
000000f0: 0b11 b53d 9145 a7bd e954 c33c 3075 e7bc
00000100: e41b cb3d 0839 0e3c c0ed 9cbc b2a3 e33d
00000110: a163 243d b5a3 f73c 5650 6abd 8eb9 d03d
00000120: 233b 9bbd 67c1 02be 7e35 403c f9df 613d
00000130: e77a 9d3c a2ef 483e 1e78 17bd b8b2 8e3d
00000140: 9ad8 013e a461 45be 76a0 acbd 6b08 303d
00000150: eab8 0d3d 5f46 dbbd 25f6 74bd 2bae 6f3c
00000160: 151b 103e d8f5 92bc 85e3 84bd 3b21 c23d
00000170: 0efc cb3c e0a8 82bd a099 07be c2fd d0bc
00000180: e11a 59bd 8b93 f83a afd7 b93d 47e8 0b3d
00000190: 9a9e 2fbe 0d06 2cbd 9808 5e3d e410 1d3d
000001a0: 85ea a3bd 346a 843c 6170 d6bd 7d7e 19be
000001b0: 0871 d73d d582 54bd 3a9a c73b fec7 9bbc
000001c0: be2a ad3d 36f7 713d 1f1e 083e a0f9 153d
000001d0: 4582 acbc 1242 223d 275e a3bd 4462 053e
000001e0: 86c3 b3bd d71c 0c3e 9ba1 97bd 7a12 1ebe
000001f0: 3590 66bd 788b 10be d87b cbbd b96a d93c
00000200: 1808 003c 4847 363d 5b46 de3d 991d 4cbd
00000210: 895f 993d 89cc a73d 6b7d 8dbd a144 823d
00000220: de25 3fbd d3cb 3cbe 5d88 a5bb ca5e ee3c
00000230: 51b6 a43d 055d 963d 22d7 193e 4fe0 2ebe
00000240: 8616 483c ca5b 7abd f223 d5bc 1489 ebbc
00000250: 572d 343d 933e 3e38 6efa 043d 5c5e 62bd
00000260: caf5 8b3d 73ad 40bd 8043 acbc 8f05 033c
00000270: c0b4 0dbe eab8 e5bd c4c3 d73d b5fb a73d
00000280: 5684 f93d 47a5 89bd 2bda 703d d9a0 e63c
00000290: 3754 28be 2385 94bd e34e ccbd 3207 32be
000002a0: 6e16 41bd f283 df3d b2dc 71bd 5f08 e7bb
000002b0: 41bf a0bd c444 58bd 8aed 3b3e 666c 853d
000002c0: ae00 8c3c c394 2f3e 1ba0 72bd fbf1 20bd
000002d0: 37e1 a1bd 5159 903d aa3c 093e 0541 91bc
000002e0: 8b17 c4bd 52d5 99bc e19a 213d 0fde a23d
000002f0: 89db a4bd ec4e 343b b352 d53c 3890 e5bc
00000300: 61e4 8e3c afac 12bd f749 e8bd 4658 b4bd
00000310: 0af9 26bd 6997 e1bd 3ed3 a53d af42 7a3e
00000320: 0269 7c3c 9089 55bc 3bc5 55bd cad7 083d
00000330: 3cca fabd 0e52 1e3e 82a5 aa3c 266d d83c
00000340: c15e 98bc adf5 89bd 138a aabc 549a 1d3d
00000350: 5377 f1bc 4111 36bd 8d66 46bc 1e8c b7bd
00000360: 598e 03be c132 063d 3329 083c af63 5ebd
00000370: 28ad 8b3e 6f66 8fbd c16a 6bbd f73b ddbc
00000380: 7e3e 3cbc 8d61 dcbc 65af 16bd c905 79bd
00000390: 4215 f03c 3a35 3b3c 2dc8 6c3d eb82 8f3c
000003a0: 78a4 dc3d 1bee d7bb aa10 403d eda0 a2bc
000003b0: 5acb bebd 66bf 983d 587f 723d a406 79bc
000003c0: 7d2f 3f3e 32f5 5fbc cd5d 2fbe 3afb d63d
000003d0: 35f7 06be 8b2b 913e 9ad7 b6bd 657e 373d
000003e0: e9ca 0fbd e6af 20bd f474 b9bb 952f 643d
000003f0: b9c4 8bbc 3272 433d c801 fabd c864 ea3a

network_body._body_endoder.seq_layers.2.bias f4 [128]
0.0 0.0 0.0 0.0 0.0 0.0 0.0 0.0
0.0 0.0 0.0 0.0 0.0 0.0 0.0 0.0
0.0 0.0 0.0 0.0 0.0 0.0 0.0 0.0
0.0 0.0 0.0 0.0 0.0 0.0 0.0 0.0
0.0 0.0 0.0 0.0 0.0 0.0 0.0 0.0
0.0 0.0 0.0 0.0 0.0 0.0 0.0 0.0
0.0 0.0 0.0 0.0 0.0 0.0 0.0 0.0
0.0 0.0 0.0 0.0 0.0 0.0 0.0 0.0
0.0 0.0 0.0 0.0 0.0 0.0 0.0 0.0
0.0 0.0 0.0 0.0 0.0 0.0 0.0 0.0
0.0 0.0 0.0 0.0 0.0 0.0 0.0 0.0
0.0 0.0 0.0 0.0 0.0 0.0 0.0 0.0
0.0 0.0 0.0 0.0 0.0 0.0 0.0 0.0
0.0 0.0 0.0 0.0 0.0 0.0 0.0 0.0
0.0 0.0 0.0 0.0 0.0 0.0 0.0 0.0
0.0 0.0 0.0 0.0 0.0 0.0 0.0 0.0
00000000: 0000 0000 0000 0000 0000 0000 0000 0000
00000010: 0000 0000 0000 0000 0000 0000 0000 0000
00000020: 0000 0000 0000 0000 0000 0000 0000 0000
00000030: 0000 0000 0000 0000 0000 0000 0000 0000
00000040: 0000 0000 0000 0000 0000 0000 0000 0000
00000050: 0000 0000 0000 0000 0000 0000 0000 0000
00000060: 0000 0000 0000 0000 0000 0000 0000 0000
00000070: 0000 0000 0000 0000 0000 0000 0000 0000
00000080: 0000 0000 0000 0000 0000 0000 0000 0000
00000090: 0000 0000 0000 0000 0000 0000 0000 0000
000000a0: 0000 0000 0000 0000 0000 0000 0000 0000
000000b0: 0000 0000 0000 0000 0000 0000 0000 0000
000000c0: 0000 0000 0000 0000 0000 0000 0000 0000
000000d0: 0000 0000 0000 0000 0000 0000 0000 0000
000000e0: 0000 0000 0000 0000 0000 0000 0000 0000
000000f0: 0000 0000 0000 0000 0000 0000 0000 0000
00000100: 0000 0000 0000 0000 0000 0000 0000 0000
00000110: 0000 0000 0000 0000 0000 0000 0000 0000
00000120: 0000 0000 0000 0000 0000 0000 0000 0000
00000130: 0000 0000 0000 0000 0000 0000 0000 0000
00000140: 0000 0000 0000 0000 0000 0000 0000 0000
00000150: 0000 0000 0000 0000 0000 0000 0000 0000
00000160: 0000 0000 0000 0000 0000 0000 0000 0000
00000170: 0000 0000 0000 0000 0000 0000 0000 0000
00000180: 0000 0000 0000 0000 0000 0000 0000 0000
00000190: 0000 0000 0000 0000 0000 0000 0000 0000
000001a0: 0000 0000 0000 0000 0000 0000 0000 0000
000001b0: 0000 0000 0000 0000 0000 0000 0000 0000
000001c0: 0000 0000 0000 0000 0000 0000 0000 0000
000001d0: 0000 0000 0000 0000 0000 0000 0000 0000
000001e0: 0000 0000 0000 0000 0000 0000 0000 0000
000001f0: 0000 0000 0000 0000 0000 0000 0000 0000

action_model._continuous_distribution.log_sigma f4 [1, 2]
0.0 0.0
00000000: 0000 0000 0000 0000

action_model._continuous_distribution.mu.weight f4 [2, 128]
-0.020296844 -0.018115623 -0.01711386 -0.0025478047 -0.020412624 -0.0007089469 0.030071137 0.012928426
-0.0064703524 0.0065206843 0.021075625 0.024253163 -0.017435743 0.02781925 -0.031620927 -0.023124423
-0.008565343 -0.0039094123 -0.014720673 0.023766804 -0.0016866745 0.009211077 0.00932322 -0.013502034
-0.0012219576 0.006406033 -0.011548915 0.0015253872 0.009219716 0.004632062 0.008789889 0.0029540118
0.030699227 -0.00050664105 -0.0035416787 0.01644824 0.01063314 0.019021869 -0.00398526 0.009766234
-0.015481002 0.032259587 0.0075876936 -0.004425889 0.009652277 0.008553154 -0.01098604 0.0087140165
-0.018109752 0.0037935774 -0.02015141 0.03140464 -0.014955175 -0.0005421925 -0.008019935 -0.01668388
0.022080747 0.0051468755 0.0020340967 0.004234003 -0.016470214 0.022129385 -0.012781459 0.02508519
0.010116042 0.015620339 0.01610562 0.010577052 0.026325066 -0.008064986 -0.009787392 -0.028740872
0.019442797 0.015328205 -0.007947538 0.036424506 -0.0115866205 0.005960948 -0.015720267 -0.021724958
0.011658086 -0.028790528 0.0014371665 0.010735503 -0.028996238 0.034463998 0.03993577 0.0013736686
-0.012655079 0.019268533 0.03353335 -0.009943021 -0.012862275 0.02936464 -0.023069 0.006732126
-0.0129602775 -0.029040644 -0.008389805 -0.011083203 -0.008312128 0.021742819 0.02082242 0.013729475
-0.012701809 -0.029689623 0.020598736 -0.040812396 -0.04228524 -0.007979512 0.04621652 -0.0009142468
0.021546638 0.0014727882 -0.026492525 0.02674954 -0.005389988 -0.014193122 -9.842077e-05 -0.013510527
0.018616103 -0.0035303754 -0.007456664 -0.0056626657 0.0114298295 0.01846989 -0.009251681 0.030256597
-0.04983395 -0.014274785 0.008178885 -0.021791004 0.005965836 -0.031060299 -0.006647209 0.021824649
-0.007691668 0.0024049177 -0.0067234435 0.015709382 -0.014175193 -0.01358775 0.006457045 -0.006632317
0.049847163 -0.00047855472 0.0023311388 -0.009841821 -0.013531706 -0.016675066 0.0003246667 0.015304617
0.00703945 -0.005418275 0.022086231 0.019091336 -0.0027173262 0.003942154 0.039780553 0.010913089
-0.013089821 0.0026132814 -0.02033137 -0.014838777 -0.0003918671 0.018105276 0.011194604 -0.0043288902
-0.0028408605 0.0194879 -0.017260876 0.024845619 0.0063329968 -0.011223542 -0.022975622 -0.0256364
-0.006747246 0.010715883 0.025595699 -0.034455936 -0.016558854 -0.0024958309 -0.012635469 -0.009286033
0.023231862 0.02126405 -0.0070248754 -0.0021413967 -0.016301747 0.006152482 0.010515549 0.015931865
-0.026765978 -0.026283352 0.04723982 -0.019179862 0.02140426 -0.018247897 -0.021129478 -0.024751952
0.03261983 -0.0080490615 0.005352139 0.017497633 -0.002139543 0.0073076296 -0.010605861 0.007850695
0.012790337 -0.012235125 -0.0062949434 -0.03103268 0.006825184 0.028064078 -0.010860055 0.009535578
0.017260741 -0.02448194 -0.026354477 -0.032632776 0.0016183911 -0.0003292474 -0.0047235223 -0.007879118
0.00229595 0.0030798207 -0.009307687 -0.009074484 0.0073257233 0.008481968 0.03339092 0.008375078
-0.0069861137 0.0041445876 -0.011933807 0.024117248 -0.037559927 -0.0002274358 -0.0075910105 0.037098944
0.02549309 -0.019932184 0.016306335 -0.0044314857 0.0111618545 0.004145069 0.017571809 0.003863422
0.01949564 0.03461614 -0.0024738456 0.022085154 -0.0072366716 0.017314801 0.017732656 0.025687775
00000000: 9145 a6bc 3767 94bc 5e32 8cbc 12f9 26bb
00000010: 6038 a7bc 9fd8 39ba bf57 f63c c0d1 533c
00000020: 4005 d4bb 77ab d53b caa6 ac3c 92ae c63c
00000030: 67d5 8ebc 32e5 e33c f284 01bd 6e6f bdbc
00000040: a755 0cbc 871a 80bb fa2e 71bc 9ab2 c23c
00000050: 6813 ddba 0fea 163c 6bc0 183c a337 5dbc
00000060: 182a a0ba b3e9 d13b a937 3dbc 80ef c73a
00000070: 4b0e 173c 8dc8 973b 7703 103c 1898 413b
00000080: f27c fb3c 1bd0 04ba 821b 68bb 76be 863c
00000090: 9f36 2e3c c0d3 9b3c c996 82bb 8e02 203c
000000a0: 07a4 7dbc a122 043d 30a2 f83b 0c07 91bb
000000b0: 9624 1e3c 8722 0c3c cbfe 33bc 3cc5 0e3c
000000c0: e75a 94bc ab9d 783b 9214 a5bc 27a2 003d
000000d0: 8d06 75bc ec21 0eba 0c66 03bc a2ac 88bc
000000e0: afe2 b43c 1fa7 a83b 7b4e 053b 64bd 8a3b
000000f0: 8bec 86bc af48 b53c 5369 51bc 757f cd3c
00000100: c1bd 253c 73ec 7f3c efef 833c 5f4b 2d3c
00000110: aaa7 d73c 0123 04bc 4c5b 20bc fa71 ebbc
00000120: 8046 9f3c 2723 7b3c 6436 02bc dd31 153d
00000130: cfd5 3dbc 0e54 c33b cac7 80bc 8af8 b1bc
00000140: 8f01 3f3c 1dda ebbc 4e5f bc3a f7e3 2f3c
00000150: 8589 edbc 1f2a 0d3d b193 233d ab0c b43a
00000160: 4057 4fbc 0bd9 9d3c 445a 093d 0ee8 22bc
00000170: 4bbc 52bc 1d8e f03c 33fb bcbc 2b99 dc3b
00000180: 5857 54bc a5e6 edbc 6575 09bc 5396 35bc
00000190: 972f 08bc ff1d b23c c893 aa3c 98f1 603c
000001a0: 401b 50bc a737 f3bc aebe a83c e62a 27bd
000001b0: 4a33 2dbd 80bc 02bc 894d 3d3d 10aa 6fba
000001c0: 9382 b03c 920a c13a da06 d9bc da21 db3c
000001d0: 7f9e b0bb 458a 68bc 4067 ceb8 425b 5dbc
000001e0: cc80 983c df5d 67bb 0857 f4bb e28d b9bb
000001f0: 2e44 3b3c 2b4e 973c 5d94 17bc afdc f73c
00000200: af1e 4cbd cae0 69bc bb00 063c 0c83 b2bc
00000210: 0f7d c33b 2b72 febc d5d0 d9bb 9bc9 b23c
00000220: 630a fcbb d39b 1d3b 5550 dcbb f6b0 803c
00000230: 123f 68bc 279f 5ebc 9f95 d33b e853 d9bb
00000240: 8a2c 4c3d 87e6 fab9 05c6 183b 973f 21bc
00000250: 17b4 5dbc 269a 88bc 0738 aa39 37c0 7a3c
00000260: 30ab e63b c98b b1bb 2fee b43c 6f65 9c3c
00000270: 2b15 32bb 2f2d 813b eff0 223d d0cc 323c
00000280: b076 56bc 9643 2b3b f98d a6bc 571e 73bc
00000290: 8373 cdb9 8451 943c 9369 373c 5dd9 8dbb
000002a0: bb2d 3abb 17a5 9f3c ae66 8dbc 0a89 cb3c
000002b0: 0785 cf3b f2e2 37bc 5f37 bcbc 6d03 d2bc
000002c0: 0018 ddbb ac91 2f3c 12ae d13c ab21 0dbd
000002d0: 6fa6 87bc 1891 23bb 0005 4fbc 7224 18bc
000002e0: bf50 be3c f231 ae3c ed30 e6bb ad56 0cbb
000002f0: 3e8b 85bc c29a c93b 6949 2c3c 8b83 823c
00000300: 5344 dbbc 2f50 d7bc 8b7e 413d 161f 9dbc
00000310: fd57 af3c 9d7c 95bc ba17 adbc 9bc4 cabc
00000320: 5f9c 053d 36e0 03bc ff60 af3b 3257 8f3c
00000330: 9337 0cbb d774 ef3b 35c4 2dbc 34a0 003c
00000340: 908e 513c d575 48bc d045 cebb 3f38 febc
00000350: cba5 df3b a3e6 e53c 5fee 31bc 1d3b 1c3c
00000360: 6666 8d3c 598e c8bc 58e5 d7bc f2a9 05bd
00000370: 3220 d43a d79e acb9 c7c7 9abb 6b17 01bc
00000380: a677 163b d1d6 493b 457f 18bc 25ad 14bc
00000390: 9f0c f03b f4f7 0a3c ebc4 083d a037 093c
000003a0: c5eb e4bb 52cf 873b 0486 43bc 8991 c53c
000003b0: 70d8 19bd d57b 6eb9 03be f8bb 10f5 173d
000003c0: e2d6 d03c d248 a3bc dd94 853c ff35 91bb
000003d0: 36e0 363c 5cd3 873b c1f2 8f3c 7731 7d3b
000003e0: 52b5 9f3c a7c9 0d3d 3e20 22bb edeb b43c
000003f0: 9a21 edbb c5d7 8d3c 1344 913c 2b6f d23c

action_model._continuous_distribution.mu.bias f4 [2]
0.0 0.0
00000000: 0000 0000 0000 0000

network_body._body_endoder.seq_layers.0.weight f4 [128, 5]
-0.06942949 -0.19229028 0.6270686 -0.28533733 -0.8114462 -0.24522348 0.2952033 0.6197195
-0.017419495 0.41043085 -0.2438797 0.07086936 0.2073907 0.49850422 -0.63661516 0.20946264
0.27833626 -0.5214277 -0.34015796 -0.31921536 -0.6064965 -0.8500904 -0.5100537 0.17710333
0.47755873 -0.7316479 -0.1687559 -0.47632292 0.3016955 0.1850103 -0.019538222 -0.12295578
-0.53093857 -0.12101553 0.058329463 -0.0734081 -0.15115601 0.48817858 0.59974885 0.11707907
0.55717474 -0.57124907 0.5878457 -1.155359 -0.13065775 0.30296472 -0.09940264 0.46516347
-0.675109 -0.29747984 0.12349319 0.8293548 -0.08734505 -0.641004 0.33952713 -0.26990315
-0.7069332 0.30734846 0.0042847055 0.1733848 0.62882113 -0.04836185 -0.27727276 -0.7915948
0.30454895 -0.3774896 -0.21847796 0.27866843 0.5973763 0.20953098 0.1970311 -0.122834936
0.21474329 0.16271526 0.4228005 0.07403639 0.91276383 1.0970865 -0.55851114 0.29537353
0.28158373 -0.51674217 -0.14464197 -0.5710267 0.73251104 0.24491438 0.109015755 -0.3545109
0.16334032 0.16297984 0.51782894 0.29192245 0.22358926 0.1834045 -0.09772534 -0.08264996
-0.49483913 -0.2227283 0.043161407 -0.24119337 0.2863291 -0.16069129 -0.8202356 0.34158275
0.53811324 -0.28858015 -0.20816451 -0.63156164 0.2533201 -0.29709908 -0.23554501 -0.19001062
-0.2249044 -0.26811844 0.046376184 0.12677316 -0.6513516 -0.09796674 -0.4767325 -0.0014997596
-0.19076584 -0.21118943 -0.33936936 0.39816958 -0.3568849 -0.036655817 -0.43426874 -0.39873466
0.23343886 0.09347363 -0.05934649 -0.2629041 -0.49064353 -0.44037282 -0.09785468 -0.50418067
-0.82242346 -0.2143008 0.24492158 0.43580928 -0.1276322 0.62633514 -0.025335528 -0.40585697
-0.863571 -0.65312076 -0.59375906 0.049313553 -1.1877742 -0.45862082 0.7258812 0.5850624
0.12216058 0.17832638 0.22559585 0.5579091 0.046152916 0.10151748 -0.28352997 -0.15712243
0.45994338 -0.22444808 0.26256186 0.040428985 -0.4811831 0.616928 -0.033494584 0.12962188
0.24303849 0.03221846 -0.3126638 0.00073967193 -0.29307202 -0.005669965 -0.88390756 -0.9192244
0.041838083 0.90212417 0.4237054 0.29778787 0.37550953 -0.49147207 -1.3827438 0.5060214
-0.02972781 0.19757116 0.10771218 0.115315154 -0.023539076 0.096390694 -0.19763474 0.15440844
-0.02856669 0.37051958 -0.0010683328 -0.55269814 -0.4768484 -0.37897852 0.1548008 -0.015106552
-0.8492801 0.69273096 -0.5095442 -0.50797546 0.8425982 0.48895547 -0.032882027 -0.65336436
0.087704934 0.009735463 -0.74691194 -0.113359444 0.46008044 0.29286298 0.43617505 -0.039858345
0.5270649 0.57399875 0.20900536 -0.19572379 0.684054 1.1377715 0.3555017 0.11195672
-0.52322805 0.3907737 -0.4125393 0.038744558 -0.28063717 -0.32847068 -0.51234657 0.0053199194
-0.02033685 -0.13456516 -0.6990162 -0.2455364 0.13773459 -0.2940401 -0.038756624 0.42011377
0.0033539261 -0.13184153 0.81499267 -0.11892018 0.11314358 -0.61582285 0.036041506 0.3093976
-0.32385272 -0.5807735 0.12483155 0.08812908 -0.049472116 -0.42107213 0.41403484 0.23501866
00000000: 0c31 8ebd bee7 44be 9187 203f bc17 92be
00000010: f0ba 4fbf dd1b 7bbe e324 973e f0a5 1e3f
00000020: 54b3 8ebc fe23 d23e 9abb 79be f423 913d
00000030: 3a5e 543e f23b ff3e 36f9 22bf 607d 563e
00000040: 1782 8e3e 497c 05bf 2f29 aebe 3270 a3be
00000050: 5b43 1bbf 869f 59bf e192 02bf 935a 353e
00000060: 9482 f43e 474d 3bbf 59ce 2cbe 99e0 f3be
00000070: d577 9a3e 5773 3d3e 9f0e a0bc 3dd0 fbbd
00000080: 97eb 07bf fdd6 f7bd e0ea 6e3d fc56 96bd
00000090: a4c8 1abe 8bf2 f93e 2489 193f 27c7 ef3d
000000a0: 01a3 0e3f 613d 12bf 0e7d 163f cee2 93bf
000000b0: 25cb 05be 311e 9b3e 9c93 cbbd e829 ee3e
000000c0: f2d3 2cbf 474f 98be ffe9 fc3d 9950 543f
000000d0: f6e1 b2bd d718 24bf 80d6 ad3e bf30 8abe
000000e0: 93f9 34bf c75c 9d3e b766 8c3b c98b 313e
000000f0: 6cfa 203f 1317 46bd b2f6 8dbe f5a5 4abf
00000100: d7ed 9b3e 5146 c1be b0b8 5fbe a1ad 8e3e
00000110: a7ed 183f 4a8f 563e 85c2 493e e290 fbbd
00000120: aae5 5b3e d49e 263e 4f79 d83e 64a0 973d
00000130: e4aa 693f 556d 8c3f 96fa 0ebf 333b 973e
00000140: be2b 903e 3749 04bf 061d 14be ce2e 12bf
00000150: d885 3b3f d6ca 7a3e a743 df3d 7482 b5be
00000160: af42 273e 30e4 263e 7090 043f dc76 953e
00000170: 95f4 643e 64ce 3b3e 3924 c8bd 6244 a9bd
00000180: 8e5b fdbe e312 64be 04ca 303d 65fb 76be
00000190: ba99 923e 428c 24be f6fa 51bf efe3 ae3e
000001a0: cac1 093f c7c0 93be 1429 55be 06ae 21bf
000001b0: 2cb3 813e 5f1d 98be b632 71be 2592 42be
000001c0: 574d 66be d246 89be f4f4 3d3d d3d0 013e
000001d0: fabe 26bf c9a2 c8bd 4816 f4be 9593 c4ba
000001e0: 1f58 43be 0b42 58be d2c1 adbe e2dc cb3e
000001f0: 9eb9 b6be 6924 16bd 7958 debe f326 ccbe
00000200: 990a 6f3e 1a6f bf3d 4e15 73bd 5e9b 86be
00000210: a135 fbbe 8c78 e1be 0968 c8bd fc11 01bf
00000220: 588a 52bf ab71 5bbe b9cc 7a3e 6522 df3e
00000230: 04b2 02be 8057 203f 748c cfbc 7ccc cfbe
00000240: fd12 5dbf ec32 27bf 9800 18bf 02fd 493d
00000250: fc08 98bf 59d0 eabe 5ad3 393f a6c6 153f
00000260: 532f fa3d 319b 363e 9902 673e 21d3 0e3f
00000270: d70a 3d3d 66e8 cf3d d72a 91be b4e4 20be
00000280: b37d eb3e b8d5 65be 826e 863e dd98 253d
00000290: a25d f6be feee 1d3f 9e31 09bd 99bb 043e
000002a0: 15df 783e 81f7 033d 7815 a0be 8be6 413a
000002b0: 890d 96be 1dcb b9bb c447 62bf 4a52 6bbf
000002c0: 695e 2b3d 9cf1 663f eaef d83e a777 983e
000002d0: c942 c03e 3aa2 fbbe c0fd b0bf 9e8a 013f
000002e0: bc87 f3bc 1850 4a3e 3498 dc3d 5a2a ec3d
000002f0: 05d5 c0bc 7c68 c53d c360 4abe 3f1d 1e3e
00000300: b104 eabc beb4 bd3e 4d07 8cba a07d 0dbf
00000310: 7925 f4be 7909 c2be 1a84 1e3e 7981 77bc
00000320: 6c6a 59bf d156 313f 7d71 02bf ae0a 02bf
00000330: 84b4 573f 5f58 fa3e 4eaf 06bd e342 27bf
00000340: a59e b33d 7e81 1f3c 9f35 3fbf ff28 e8bd
00000350: aa8f eb3e 23f2 953e 5652 df3e 8142 23bd
00000360: baed 063f 95f1 123f 8005 563e d16b 48be
00000370: 2a1e 2f3f 7fa2 913f 5204 b63e 9149 e53d
00000380: 46f2 05bf 7e13 c83e 5a38 d3be 9db2 1e3d
00000390: adaf 8fbe 4f2d a8be 2529 03bf b852 ae3b
000003a0: 7799 a6bc 73cb 09be baf2 32bf e56d 7bbe
000003b0: 4c0a 0d3e 6d8c 96be 44bf 1ebd 2719 d73e
000003c0: 8bcd 5b3b 7701 07be 5ca3 503f 6c8c f3bd
000003d0: d2b7 e73d 91a6 1dbf 42a0 133d 5d69 9e3e
000003e0: 06d0 a5be 92ad 14bf afa7 ff3d 057d b43d
000003f0: 46a3 4abd c496 d7be 60fc d33e bba8 703e

network_body._body_endoder.seq_layers.0.bias f4 [128]
0.0 0.0 0.0 0.0 0.0 0.0 0.0 0.0
0.0 0.0 0.0 0.0 0.0 0.0 0.0 0.0
0.0 0.0 0.0 0.0 0.0 0.0 0.0 0.0
0.0 0.0 0.0 0.0 0.0 0.0 0.0 0.0
0.0 0.0 0.0 0.0 0.0 0.0 0.0 0.0
0.0 0.0 0.0 0.0 0.0 0.0 0.0 0.0
0.0 0.0 0.0 0.0 0.0 0.0 0.0 0.0
0.0 0.0 0.0 0.0 0.0 0.0 0.0 0.0
0.0 0.0 0.0 0.0 0.0 0.0 0.0 0.0
0.0 0.0 0.0 0.0 0.0 0.0 0.0 0.0
0.0 0.0 0.0 0.0 0.0 0.0 0.0 0.0
0.0 0.0 0.0 0.0 0.0 0.0 0.0 0.0
0.0 0.0 0.0 0.0 0.0 0.0 0.0 0.0
0.0 0.0 0.0 0.0 0.0 0.0 0.0 0.0
0.0 0.0 0.0 0.0 0.0 0.0 0.0 0.0
0.0 0.0 0.0 0.0 0.0 0.0 0.0 0.0
00000000: 0000 0000 0000 0000 0000 0000 0000 0000
00000010: 0000 0000 0000 0000 0000 0000 0000 0000
00000020: 0000 0000 0000 0000 0000 0000 0000 0000
00000030: 0000 0000 0000 0000 0000 0000 0000 0000
00000040: 0000 0000 0000 0000 0000 0000 0000 0000
00000050: 0000 0000 0000 0000 0000 0000 0000 0000
00000060: 0000 0000 0000 0000 0000 0000 0000 0000
00000070: 0000 0000 0000 0000 0000 0000 0000 0000
00000080: 0000 0000 0000 0000 0000 0000 0000 0000
00000090: 0000 0000 0000 0000 0000 0000 0000 0000
000000a0: 0000 0000 0000 0000 0000 0000 0000 0000
000000b0: 0000 0000 0000 0000 0000 0000 0000 0000
000000c0: 0000 0000 0000 0000 0000 0000 0000 0000
000000d0: 0000 0000 0000 0000 0000 0000 0000 0000
000000e0: 0000 0000 0000 0000 0000 0000 0000 0000
000000f0: 0000 0000 0000 0000 0000 0000 0000 0000
00000100: 0000 0000 0000 0000 0000 0000 0000 0000
00000110: 0000 0000 0000 0000 0000 0000 0000 0000
00000120: 0000 0000 0000 0000 0000 0000 0000 0000
00000130: 0000 0000 0000 0000 0000 0000 0000 0000
00000140: 0000 0000 0000 0000 0000 0000 0000 0000
00000150: 0000 0000 0000 0000 0000 0000 0000 0000
00000160: 0000 0000 0000 0000 0000 0000 0000 0000
00000170: 0000 0000 0000 0000 0000 0000 0000 0000
00000180: 0000 0000 0000 0000 0000 0000 0000 0000
00000190: 0000 0000 0000 0000 0000 0000 0000 0000
000001a0: 0000 0000 0000 0000 0000 0000 0000 0000
000001b0: 0000 0000 0000 0000 0000 0000 0000 0000
000001c0: 0000 0000 0000 0000 0000 0000 0000 0000
000001d0: 0000 0000 0000 0000 0000 0000 0000 0000
000001e0: 0000 0000 0000 0000 0000 0000 0000 0000
000001f0: 0000 0000 0000 0000 0000 0000 0000 0000

network_body._body_endoder.seq_layers.2.weight f4 [128, 128]
0.07529001 0.056022063 0.09437154 -0.052021205 -0.01904366 -0.02179592 0.0758616 0.09358185
-0.108467445 0.044265524 -0.07093143 -0.005651161 -0.088269085 -0.25950375 0.17281456 0.14848727
-0.10270839 -0.034866516 0.08710514 -0.033147313 -0.15070972 0.039306235 0.067901164 -0.0490552
-0.12739077 -0.061684407 0.008720731 0.046211574 -0.014150326 -0.032728717 0.049670793 0.014223893
-0.049506687 0.0079044355 0.01326617 -0.06521092 -0.05498011 0.10557016 0.033462595 -0.012174742
-0.008312579 -0.08533005 -0.0516637 -0.07675131 0.045189954 0.050052505 0.07106184 -0.01936075
-0.010745727 -0.032143492 0.027472645 0.035483755 -0.025006317 0.0054331794 -0.046301138 0.007169717
0.21770088 -0.0084807165 -0.038470563 -0.13814753 0.1838028 -0.086034454 -0.03673702 0.07350595
0.059871264 0.036781345 0.08421749 -0.059514362 -0.11955651 -0.10928497 -0.07485136 -0.06866459
0.021087615 0.058458894 0.02487557 0.026261464 0.061677188 0.038754784 0.08435785 0.05625222
-0.17344137 -0.070708536 0.00041439844 0.023438945 0.15080564 -0.091563344 -0.06934708 0.18855071
-0.10037856 0.05784559 0.037921794 0.09255592 0.049399223 -0.008157395 -0.11455148 0.130064
0.095984064 0.05436575 -0.046660513 -0.046903625 -0.14354426 0.017940445 0.03160902 0.004012556
-0.074209586 0.061562583 0.034672424 -0.055492304 0.005454981 0.037226588 0.11678094 0.077522434
0.013076237 0.074177764 -0.0857924 -0.013528921 -0.010446033 -0.029683711 -0.012015759 0.07548274
-0.031350505 -0.028947176 0.16026683 0.18622732 -0.0099569345 -0.031881347 -0.01761924 0.00706691
0.080487564 0.01819785 0.005421863 0.056971986 0.056233916 0.034608286 -0.19152588 0.026397685
0.074618146 -0.009281068 0.035040982 -0.12968403 0.15588859 0.0978464 -0.037004467 0.061228186
0.0128805945 0.044509858 -0.039651845 0.036116995 0.03241665 0.1434248 -0.08460589 0.037200682
0.022224424 0.06405304 0.2236558 -0.036267597 -0.055342782 -0.15193874 -0.023158558 -0.18527491
0.11743041 -0.057934973 -0.082120664 -0.062178608 -0.09994902 -0.00081529573 -0.0444109 0.00771504
-0.041644394 -0.021812422 -0.22623204 -0.09110626 0.0038719417 -0.05559024 -0.07236812 0.069566704
0.12663807 0.111370124 -0.08929973 -0.09127152 -0.08953076 -0.12998389 -0.09284671 -0.13938008
0.02456269 0.00468872 0.0733493 0.15917651 -0.0065213963 -0.028503468 -0.110680975 -0.034315713
-0.19435365 -0.03153146 -0.1353148 -0.042300243 0.08385295 -0.13990092 -0.021260958 0.10116454
0.121287815 0.04442034 -0.04562789 0.10896324 -0.0009448519 -0.020316103 0.13003947 -0.040122636
0.039607517 -0.033984676 -0.13436177 -0.17377593 -0.021564787 -0.033445317 0.011594819 -0.07328295
-0.047709458 -0.10987855 -0.13422982 0.043285344 -0.03028863 -0.058067683 -0.003260272 -0.04062934
0.06933082 -0.151504 -0.091722235 -0.055491004 0.026067456 -0.15076682 0.08189659 -0.056184802
0.0060894983 0.12488992 0.04018555 -0.06723462 0.020314185 0.0010433967 -0.051088586 -0.04547002
-0.15691935 0.037215207 -0.014689091 0.007533123 -0.13959289 0.01870264 -0.12015608 0.024358442
0.04770492 -0.021196993 0.07471531 0.13453536 0.10600889 -0.04114954 0.1417611 0.08559561
00000000: a631 9a3d 6477 653d de45 c13d 3014 55bd
00000010: 7301 9cbc 5b8d b2bc 545d 9b3d d7a7 bf3d
00000020: 2e24 debd c44f 353d 7f44 91bd 602d b9bb
00000030: 6cc6 b4bd addd 84be 4df6 303e 0c0d 183e
00000040: c758 d2bd 31d0 0ebd 2e64 b23d 7ac5 07bd
00000050: a653 1abe 93ff 203d c40f 8b3d 1bee 48bd
00000060: ba72 02be caa8 7cbd 66e1 0e3c 5948 3d3d
00000070: c5d6 67bc 8c0e 06bd 9a73 4b3d 550b 693c
00000080: 86c7 4abd 9b81 013c 5a5a 593c 4e8d 85bd
00000090: d332 61bd 2b35 d83d 1310 093d 9278 47bc
000000a0: 7c31 08bc 85c1 aebd 519d 53bd ca2f 9dbd
000000b0: 1a19 393d db03 4d3d df88 913d 709a 9ebc
000000c0: d90e 30bc e5a8 03bd 500e e13c 6a57 113d
000000d0: 0cda ccbc d008 b23b 43a6 3dbd f2ef ea3b
000000e0: fbec 5e3e b4f2 0abc 4f93 1dbd 8c76 0dbe
000000f0: cd36 3c3e d532 b0bd 8f79 16bd 4a8a 963d
00000100: 923b 753d 09a8 163d 387a ac3d 55c5 73bd
00000110: 0bda f4bd ccd0 dfbd ab4b 99bd 05a0 8cbd
00000120: efbf ac3c 9872 6f3d dac7 cb3c 4822 d73c
00000130: 38a1 7c3d 56bd 1e3d cfc3 ac3d ba68 663d
00000140: 9d9a 31be a3cf 90bd 9e43 d939 0803 c03c
00000150: cb6c 1a3e 9085 bbbd d805 8ebd 7013 413e
00000160: 4693 cdbd 7fef 6c3d e253 1b3d f58d bd3d
00000170: d756 4a3d 98a6 05bc f799 eabd 7f2f 053e
00000180: 4b93 c43d 9fae 5e3d 181f 3fbd 041e 40bd
00000190: 44fd 12be d7f7 923c 7678 013d c27b 833b
000001a0: 32fb 97bd 0c29 7c3d ac04 0e3d e64b 63bd
000001b0: b2bf b23b e87a 183d d82a ef3d 15c4 9e3d
000001c0: b73d 563c 83ea 973d edb3 afbd 68a8 5dbc
000001d0: d725 2bbc 412b f3bc bfdd 44bc b296 9a3d
000001e0: 6369 00bd a122 edbc fd1c 243e 60b2 3e3e
000001f0: 6922 23bc 0496 02bd 3956 90bc 8a91 e73b
00000200: aad6 a43d a813 953c e2a9 b13b 755b 693d
00000210: 8955 663d 6bc1 0d3d 5c1f 44be f53f d83c
00000220: 66d1 983d 9f0f 18bc 2287 0f3d e4cb 04be
00000230: 42a1 1f3e b263 c83d ff91 17bd 68ca 7a3d
00000240: 2109 533c f84f 363d f969 22bd 6aef 133d
00000250: 52c7 043d f3dd 123e da45 adbd be5f 183d
00000260: ff0f b63c 3e2e 833d 0706 653e 558d 14bd
00000270: 1daf 62bd d495 1bbe 04b7 bdbc b5b8 3dbe
00000280: 5b7f f03d 394d 6dbd e12e a8bd ffae 7ebd
00000290: 12b2 ccbd 92b9 55ba 34e8 35bd 72ce fc3b
000002a0: 5093 2abd f7af b2bc 5fa9 67be eb95 babd
000002b0: 67c0 7d3b 97b2 63bd bd35 94bd fd78 8e3d
000002c0: 69ad 013e 0516 e43d c7e2 b6bd 90ec babd
000002d0: e75b b7bd 7f1a 05be 6a26 bebd a7b9 0ebe
000002e0: b237 c93c d6a3 993b 2838 963d 2bff 223e
000002f0: 70b1 d5bb 1b80 e9bc b5ac e2bd a28e 0cbd
00000300: a504 47be 2227 01bd f78f 0abe 0543 2dbd
00000310: 18bb ab3d 3042 0fbe 762b aebc 5b2f cf3d
00000320: bf65 f83d 1af2 353d 4fe4 3abd 1f28 df3d
00000330: f0af 77ba f56d a6bc 1129 053e a257 24bd
00000340: 7e3b 223d 8433 0bbd 2296 09be 51f2 31be
00000350: a3a8 b0bc f5fd 08bd 32f8 3d3c 5f15 96bd
00000360: fe6a 43bd 0108 e1bd 8b73 09be f94b 313d
00000370: dc1f f8bc 61d8 6dbd 4aaa 55bb f36a 26bd
00000380: 51fd 8d3d dd23 1bbe ded8 bbbd 894a 63bd
00000390: 6b8b d53c 9e62 1abe 66b9 a73d 0922 66bd
000003a0: 6a8a c73b 49c6 ff3d 9a99 243d 4eb2 89bd
000003b0: ef69 a63c 95c2 883a 4442 51bd c63e 3abd
000003c0: 77af 20be f96e 183d 83aa 70bc 6ad8 f63b
000003d0: 70f1 0ebe 4736 993c 6414 f6bd 5b8b c73c
000003e0: 3c66 433d 51a5 adbc 5704 993d a3c3 093e
000003f0: 301b d93d 6c8c 28bd d229 113e c04c af3d

network_body._body_endoder.seq_layers.2.bias f4 [128]
0.0 0.0 0.0 0.0 0.0 0.0 0.0 0.0
0.0 0.0 0.0 0.0 0.0 0.0 0.0 0.0
0.0 0.0 0.0 0.0 0.0 0.0 0.0 0.0
0.0 0.0 0.0 0.0 0.0 0.0 0.0 0.0
0.0 0.0 0.0 0.0 0.0 0.0 0.0 0.0
0.0 0.0 0.0 0.0 0.0 0.0 0.0 0.0
0.0 0.0 0.0 0.0 0.0 0.0 0.0 0.0
0.0 0.0 0.0 0.0 0.0 0.0 0.0 0.0
0.0 0.0 0.0 0.0 0.0 0.0 0.0 0.0
0.0 0.0 0.0 0.0 0.0 0.0 0.0 0.0
0.0 0.0 0.0 0.0 0.0 0.0 0.0 0.0
0.0 0.0 0.0 0.0 0.0 0.0 0.0 0.0
0.0 0.0 0.0 0.0 0.0 0.0 0.0 0.0
0.0 0.0 0.0 0.0 0.0 0.0 0.0 0.0
0.0 0.0 0.0 0.0 0.0 0.0 0.0 0.0
0.0 0.0 0.0 0.0 0.0 0.0 0.0 0.0
00000000: 0000 0000 0000 0000 0000 0000 0000 0000
00000010: 0000 0000 0000 0000 0000 0000 0000 0000
00000020: 0000 0000 0000 0000 0000 0000 0000 0000
00000030: 0000 0000 0000 0000 0000 0000 0000 0000
00000040: 0000 0000 0000 0000 0000 0000 0000 0000
00000050: 0000 0000 0000 0000 0000 0000 0000 0000
00000060: 0000 0000 0000 0000 0000 0000 0000 0000
00000070: 0000 0000 0000 0000 0000 0000 0000 0000
00000080: 0000 0000 0000 0000 0000 0000 0000 0000
00000090: 0000 0000 0000 0000 0000 0000 0000 0000
000000a0: 0000 0000 0000 0000 0000 0000 0000 0000
000000b0: 0000 0000 0000 0000 0000 0000 0000 0000
000000c0: 0000 0000 0000 0000 0000 0000 0000 0000
000000d0: 0000 0000 0000 0000 0000 0000 0000 0000
000000e0: 0000 0000 0000 0000 0000 0000 0000 0000
000000f0: 0000 0000 0000 0000 0000 0000 0000 0000
00000100: 0000 0000 0000 0000 0000 0000 0000 0000
00000110: 0000 0000 0000 0000 0000 0000 0000 0000
00000120: 0000 0000 0000 0000 0000 0000 0000 0000
00000130: 0000 0000 0000 0000 0000 0000 0000 0000
00000140: 0000 0000 0000 0000 0000 0000 0000 0000
00000150: 0000 0000 0000 0000 0000 0000 0000 0000
00000160: 0000 0000 0000 0000 0000 0000 0000 0000
00000170: 0000 0000 0000 0000 0000 0000 0000 0000
00000180: 0000 0000 0000 0000 0000 0000 0000 0000
00000190: 0000 0000 0000 0000 0000 0000 0000 0000
000001a0: 0000 0000 0000 0000 0000 0000 0000 0000
000001b0: 0000 0000 0000 0000 0000 0000 0000 0000
000001c0: 0000 0000 0000 0000 0000 0000 0000 0000
000001d0: 0000 0000 0000 0000 0000 0000 0000 0000
000001e0: 0000 0000 0000 0000 0000 0000 0000 0000
000001f0: 0000 0000 0000 0000 0000 0000 0000 0000

value_heads.value_heads.extrinsic.weight f4 [1, 128]
0.013642788 0.025176719 -0.026520208 -0.122884385 -0.0047554076 0.12112871 0.018834993 0.13101947
0.07807368 0.093762785 0.21036643 0.115189075 0.15820453 -0.1576308 -0.10259306 0.06540623
0.08396837 -0.19733533 -0.119739234 0.15328926 0.12269306 -0.21318899 -0.19825658 0.120060414
-0.21472156 0.03487295 -0.094470575 0.0512397 0.08137599 0.11438221 0.13895985 -0.048752174
-0.08515005 -0.19803499 -0.14069645 -0.1853002 -0.11933213 0.09692252 0.14223126 -0.17592694
0.12540552 -0.09399452 -0.02279082 0.090952426 0.03161408 0.16831288 -0.15859537 0.21152622
0.20815611 0.039696455 -0.12840958 -0.135811 0.08447373 -0.09055291 0.1378408 0.10248482
0.041384637 0.16390863 -0.078201175 -0.016623214 -0.15950592 0.18946812 0.116052866 0.036101013
-0.09320347 0.09074634 0.034436405 0.08689356 0.13633811 -0.0574162 -0.20594946 0.07339248
0.018055841 -0.05706714 -0.0058763027 0.19310549 -0.12086931 0.17125037 0.13589609 -0.074573204
-0.14585745 0.119992465 0.1021685 0.015003815 0.14946166 0.11666545 0.19124454 -0.051673815
-0.043672994 -0.017470628 0.11469254 -0.06639297 0.17117265 -0.16124168 -0.19001529 -0.16599698
-0.21544331 0.021493256 0.0047137886 0.17702058 -0.13327296 -0.2096426 -0.12857756 0.15542763
0.015744299 -0.09333006 0.07927194 0.17242575 0.20491806 0.10152468 0.16968611 -0.109155774
-0.028073281 -0.038403496 0.062609494 0.01981856 -0.07268904 0.010720581 0.066284746 0.02914241
-0.009183496 -0.098178044 -0.067650855 -0.023787156 0.009836286 -0.2042237 -0.2040306 0.15638062
00000000: 0086 5f3c 683f ce3c e840 d9bc cfaa fbbd
00000010: 40d3 9bbb 5412 f83d d84b 9a3c f829 063e
00000020: 18e5 9f3d b406 c03d 4c6a 573e 40e8 eb3d
00000030: 5e00 223e f869 21be 4f1c d2bd b4f3 853d
00000040: 9cf7 ab3d 4612 4abe d839 f5bd dcf7 1c3e
00000050: 8046 fb3d 374e 5abe c603 4bbe 3ce2 f53d
00000060: f8df 5bbe f0d6 0e3d ca79 c1bd b8e0 513d
00000070: 74a8 a63d 3841 ea3d 7e4b 0e3e 5cb0 47bd
00000080: 2663 aebd afc9 4abe bb12 10be 56bf 3dbe
00000090: 6764 f4bd 507f c63d 12a5 113e 3126 34be
000000a0: 4e6a 003e 3380 c0bd d0b3 babc 4445 ba3d
000000b0: c47d 013d 365a 2c3e d366 22be 549a 583e
000000c0: e026 553e c098 223d cd7d 03be 0a12 0bbe
000000d0: 9000 ad3d ce73 b9bd 2426 0d3e 90e3 d13d
000000e0: f082 293d aad7 273e f027 a0bd 682d 88bc
000000f0: 8555 23be ee03 423e 20ad ed3d a8de 133d
00000100: 76e1 bebd 38d9 b93d 300d 0d3d 40f5 b13d
00000110: 389c 0b3e 402d 6bbd 6ae4 52be cc4e 963d
00000120: d8e9 933c 3cbf 69bd 008e c0bb 72bd 453e
00000130: 548a f7bd 425c 2f3e 5828 0b3e d6b9 98bd
00000140: a85b 15be 9cbe f53d b83d d13d 90d2 753c
00000150: 7a0c 193e 4cee ee3d 9cd5 433e eca7 53bd
00000160: 74e2 32bd 901e 8fbc ece3 ea3d 0af9 87bd
00000170: e247 2f3e 8a1c 25be 5e93 42be 1dfb 29be
00000180: 2c9d 5cbe a012 b03c 2076 9a3b e244 353e
00000190: b578 08be 8dac 56be d6a9 03be 6c28 1f3e
000001a0: 30fa 803c d523 bfbd 5459 a23d 6090 303e
000001b0: 0ad6 513e 2cec cf3d 32c2 2d3e 108d dfbd
000001c0: f0f9 e5bc fc4c 1dbd 6839 803d 885a a23c
000001d0: fedd 94bd 60a5 2f3c 4cc0 873d 10bc ee3c
000001e0: 6076 16bc 9211 c9bd 888c 8abd 48dd c2bc
000001f0: 6028 213c 0520 51be 66ed 50be 3e22 203e
