results/Run7/My Behaviour/My Behaviour-219600.pt (torch, 429343 bytes, 36 tensors)

network_body._body_endoder.seq_layers.0.weight f4 [128, 3]
0.33724183 -0.25899655 -0.06604347 -0.8379658 0.3284366 -0.26945662 0.03292944 0.26611856
0.5160694 0.47641376 0.6778811 1.0602317 -0.4032188 -0.9459794 0.014860191 -0.15896592
-0.19343524 0.86035126 -0.30069035 0.993406 0.5482036 -0.06980193 0.37646693 -0.51258606
-0.05331446 -0.21746278 0.5905885 -0.3820571 0.69989324 -0.04754446 -0.5024372 0.9615247
0.73960775 -0.29435828 -0.83955234 -1.2997489 0.23225781 -0.13711846 -0.4802452 0.7012448
-0.49704495 -0.23334362 -0.30492458 -0.07219757 -0.56842816 -0.64953256 -0.57582796 1.0837009
0.29554957 0.4571016 -0.49092203 -0.19816239 -0.13932605 0.12959231 -0.03210065 -0.21406394
0.73934925 -0.22184734 -0.4455218 -0.3987945 0.55239415 -0.39525682 -0.10007496 -1.1440701
-0.09170912 -0.6214832 -0.2381113 -0.21502723 0.14522879 0.25086185 0.9486426 -0.20791432
-0.72666335 -0.4740004 -0.24409144 0.09171512 -0.2220479 0.39173266 -0.11692244 0.10556133
0.31031528 0.106837414 0.059978366 -1.5142108 0.15666543 -0.4587347 0.10767888 0.36144948
0.1849126 1.0244765 0.2566645 0.4532215 0.56252515 -0.62907356 -0.12925105 -0.29251665
-0.4702482 0.41160432 -0.74184567 1.0163494 -0.63772273 -0.1006412 0.76547766 -0.49314168
0.2352456 1.5045798 0.2497651 0.5274508 -0.83607984 0.54413104 -0.9478904 -0.4485828
-0.29731074 -0.5584253 0.26142383 0.58089 1.0791548 -0.6675367 0.35480607 0.73018986
0.66579354 0.7693897 -0.38736308 -1.2778739 -0.28818816 -0.42746207 0.081971824 -0.6029438
0.18918107 0.06046755 1.0156944 -0.24220423 0.3822532 -0.3650753 -1.014839 0.19475475
-0.66639864 0.13660681 -0.9219687 0.71357584 0.3295396 0.084901616 -1.3602444 -0.7102419
-0.29118448 0.9386865 -0.34233755 0.041188005 -0.5637385 -0.074560784 0.44762102 -0.4645388
-0.098263666 -0.3569053 -1.2368207 -0.10807715 -0.7376707 0.12649949 1.6420689 0.09828336
-0.5880461 -0.6177303 -0.010634108 0.07610492 0.26154742 0.026892984 -0.6669497 -0.95187515
-0.05872621 0.37985757 -0.3784476 0.7560414 -1.4099085 0.013941794 -0.05275696 -0.45025435
-0.5688124 1.2198975 0.9894358 -0.6606778 0.087708086 -0.6774417 -0.92158765 0.19515707
-0.30113056 -0.41525403 0.13206461 -0.532718 0.4393067 1.0545468 -0.8384758 0.68235874
0.5213855 -0.3708687 0.45184916 -1.0403528 0.07622411 0.05006123 1.0323468 1.2351869
0.47002113 -0.49965125 -1.0459439 -0.10246726 -1.2009844 0.25407776 -1.2705901 0.08809925
0.19864106 -0.3168322 0.044022918 0.3811958 0.05551017 -0.46135983 0.22735855 -0.93817884
-0.20543882 -0.32535022 -0.35374594 0.25512135 -0.16782576 -0.18924545 1.0603352 0.12728243
-0.41578057 0.103206776 0.16833508 -0.52295077 0.1628505 0.41607866 -0.5216419 -0.10675345
-0.44823712 0.3976858 -0.099818505 -0.5272318 -0.35075572 -0.3768855 0.87140274 0.34552538
0.4511505 -0.10421784 -0.18002567 -0.4216738 -0.8297264 0.39039773 -0.6360917 0.110791065
-0.14203939 0.48265418 -0.15356764 0.7722403 -0.11296432 0.17333044 -1.1507548 -0.4476989
00000000: f6aa ac3e 329b 84be cc41 87bd ed84 56bf
00000010: d828 a83e 38f6 89be 05e1 063d b140 883e
00000020: 201d 043f 81ec f33e 9e89 2d3f acb5 873f
00000030: b272 cebe b52b 72bf 2978 733c f6c7 22be
00000040: e313 46be fb3f 5c3f 16f4 99be db4f 7e3f
00000050: 1257 0c3f 50f4 8ebd 46c0 c03e d738 03bf
00000060: 4360 5abd 90ae 5ebe cf30 173f fd9c c3be
00000070: 342c 333f fbbd 42bd b99f 00bf 7c26 763f
00000080: ef56 3d3f 21b6 96be e7ec 56bf 2c5e a6bf
00000090: fed4 6d3e c868 0cbe b3e2 f5be c784 333f
000000a0: ad7c febe a1f1 6ebe 131f 9cbe 52dc 93bd
000000b0: 8284 11bf c447 26bf 7669 13bf b6b6 8a3f
000000c0: 4652 973e 3909 ea3e 225a fbbe 15eb 4abe
000000d0: 7dab 0ebe d9b3 043e f97b 03bd 9433 5bbe
000000e0: fe45 3d3f f32b 63be 6f1b e4be cb2e ccbe
000000f0: b469 0d3f 1a5f cabe 1af4 ccbd e470 92bf
00000100: fed1 bbbd 8619 1fbf 73d3 73be 1930 5cbe
00000110: dbb6 143e f770 803e 3eda 723f 7ee7 54be
00000120: 9c06 3abf 2eb0 f2be 1bf3 79be 23d5 bb3d
00000130: 8660 63be 2f91 c83e 0875 efbd 8a30 d83d
00000140: a5e1 9e3e 93cd da3d e0ab 753d a9d1 c1bf
00000150: e76c 203e 46df eabe bf86 dc3d e80f b93e
00000160: bb59 3d3e 0c22 833f 8869 833e a60c e83e
00000170: a601 103f f70a 21bf 635a 04be bec4 95be
00000180: 5fc4 f0be cdbd d23e 99e9 3dbf bd17 823f
00000190: cc41 23bf f91c cebd 58f6 433f 117d fcbe
000001a0: 39e4 703e 1296 c03f 6cc2 7f3e 0407 073f
000001b0: 5409 56bf 2c4c 0b3f f2a8 72bf a5ac e5be
000001c0: 1d39 98be f6f4 0ebf 58d9 853e 35b5 143f
000001d0: bf21 8a3f afe3 2abf 24a9 b53e b9ed 3a3f
000001e0: 7271 2a3f b9f6 443f 7454 c6be 5f91 a3bf
000001f0: 668d 93be 4fdc dabe d8e0 a73d 865a 1abf
00000200: afb8 413e d2ac 773d 4602 823f 6304 78be
00000210: b1b6 c33e 26eb babe 3fe6 81bf ca6d 473e
00000220: 1a99 2abf a8e2 0b3e 2406 6cbf e8ac 363f
00000230: 6ab9 a83e e6e0 ad3d 7d1c aebf 6ad2 35bf
00000240: 2216 95be c24d 703f de46 afbe c1b4 283d
00000250: 2b51 10bf 53b3 98bd 952e e53e 08d8 edbe
00000260: 763e c9bd 4bbc b6be 2450 9ebf 8e57 ddbd
00000270: fdd7 3cbf 1589 013e 502f d23f c948 c93d
00000280: 308a 16bf 9323 1ebf af3a 2ebc e5dc 9b3d
00000290: 8be9 853e ad4e dc3c 37bd 2abf 17ae 73bf
000002a0: e58a 70bd b17c c23e e2c3 c1be ee8b 413f
000002b0: e277 b4bf 1f6c 643c af17 58bd bd87 e6be
000002c0: b09d 11bf 9a25 9c3f aa4b 7d3f 2e22 29bf
000002d0: 4ca0 b33d d26c 2dbf 2bed 6bbf 41d7 473e
000002e0: c92d 9abe 2d9c d4be f23b 073e 3560 08bf
000002f0: cfec e03e 64fb 863f 5aa6 56bf 10af 2e3f
00000300: 8579 053f 81e2 bdbe c658 e73e 482a 85bf
00000310: 631b 9c3d 010d 4d3d f123 843f 9b1a 9e3f
00000320: 9ca6 f03e 4ad2 ffbe 7de1 85bf 5bda d1bd
00000330: dbb9 99bf 7b16 823e b2a2 a2bf 616d b43d
00000340: 9068 4b3e d537 a2be 6051 343d 192c c33e
00000350: a25e 633d 5b37 ecbe aed0 683e 7d2c 70bf
00000360: 8e5e 52be 4e94 a6be 301e b5be 449f 823e
00000370: 84da 2bbe 8fc9 41be 10b9 873f 5356 023e
00000380: 31e1 d4be 135e d33d 0860 2c3e 1ae0 05bf
00000390: 48c2 263e 4308 d53e 538a 05bf 8ea1 dabd
000003a0: 567f e5be 799d cb3e a56d ccbd aaf8 06bf
000003b0: 4196 b3be 23f7 c0be 4014 5f3f b4e8 b03e
000003c0: 33fd e63e 2a70 d5bd a658 38be a1e5 d7be
000003d0: f368 54bf 36e2 c73e e8d6 22bf 6de6 e23d
000003e0: c672 11be 731e f73e d640 1dbe 8ab1 453f
000003f0: d659 e7bd 897d 313e ef4b 93bf ca38 e5be

network_body._body_endoder.seq_layers.0.bias f4 [128]
-0.005623468 0.0018692758 -0.010345477 0.005231949 -0.010704578 -0.009409473 0.007035916 0.0012167908
-0.013003514 -0.009144189 0.010094271 0.016387485 0.00083466386 0.0025379378 0.0038282622 0.0106827775
0.0037510903 -0.014005731 0.00023130765 0.0021695248 0.0069921184 -0.005010731 0.009242133 -0.00623315
-0.014101701 -0.0042029475 -0.014769674 -0.007141668 0.00027761768 -0.0014104535 0.013555557 -0.01307668
0.006519164 -0.0031848748 0.009090203 -0.006025785 -0.0024190072 0.0053825807 -0.0072221197 0.007844106
0.004625212 -0.006291334 -0.012939851 -0.004884017 0.0024499733 0.00827903 -0.008012242 -0.0012733565
0.004988437 -0.0051717428 -0.009126017 -0.00018578199 -0.0046364134 -0.015345878 0.012795729 -0.00012729998
-0.01756168 -3.0469819e-05 2.8900711e-05 -0.0034305518 0.0020461637 -0.006101924 -0.0077487165 -0.0054059913
-0.0038176416 0.006118185 0.0065174736 0.008556794 0.0026614955 -0.003484392 0.005739237 -0.0003663337
0.0068969126 0.00223917 -0.0047287387 -0.0051358305 -0.00495921 0.013382384 -0.0032444454 -0.0016591363
-0.0034366455 -0.012548171 -0.0065400125 2.7660626e-05 -0.0071445517 0.0048578754 0.011468494 -0.006339221
-0.008430707 -0.0005136329 -0.017194973 -0.0049105384 -0.00505654 -0.004211146 0.010481659 -0.009492745
-0.0054199835 -0.015202626 -0.0062418724 0.012204234 0.012133792 0.010419163 -0.007468491 0.013484544
-0.008195867 0.0052017574 -0.007835585 0.011733022 0.0014117718 0.0048299762 0.029379172 -0.01283043
-0.006247453 0.008644559 -0.0088155335 -0.012049832 0.009326464 -0.0038700115 0.00493786 0.00471822
0.011058764 -0.011217586 -0.007452741 -0.0054816203 -0.0038678045 0.0005714369 0.00050237274 -0.0023660033
00000000: 1245 b8bb 7d02 f53a 1380 29bc c570 ab3b
00000010: 4162 2fbc 312a 1abc 8b8d e63b b97c 9f3a
00000020: b10c 55bc 82d1 15bc 7162 253c 0c3f 863c
00000030: 58cd 5a3a 8853 263b 95e3 7a3b d106 2f3c
00000040: dad4 753b 4b78 65bc 2d8b 7239 962e 0e3b
00000050: 241e e53b 0f31 a4bb 516c 173c 743f ccbb
00000060: d20a 67bc e1b8 89bb 81fc 71bc a704 eabb
00000070: 378d 9139 f7de b8ba 2018 5e3c 923f 56bc
00000080: b69e d53b 55b9 50bb 13ef 143c f373 c5bb
00000090: 3588 1ebb 5c60 b03b 88a7 ecbb 9184 003c
000000a0: 178f 973b 8927 cebb ab01 54bc 1b0a a0bb
000000b0: bb8f 203b c5a4 073c c745 03bc c1e6 a6ba
000000c0: 0b76 a33b b977 a9bb 4a85 15bc 79ce 42b9
000000d0: 0eed 97bb 476d 7bbc 2da5 513c d47b 05b9
000000e0: 83dd 8fbc 7099 ffb7 ce6f f237 1cd3 60bb
000000f0: ee18 063b a6f2 c7bb f2e8 fdbb be24 b1bb
00000100: 6631 7abb 0e7b c83b 8890 d53b cc31 0c3c
00000110: 7c6c 2e3b 665a 64bb 3610 bc3b 7a10 c0b9
00000120: 7fff e13b 0abf 123b 89f3 9abb 784a a8bb
00000130: de80 a2bb c941 5b3c c3a0 54bb 6077 d9ba
00000140: 5839 61bb d896 4dbc 9a4d d6bb be08 e837
00000150: d81c eabb d02e 9f3b 5ae6 3b3c 3db9 cfbb
00000160: f320 0abc 52a5 06ba 79dc 8cbc 95e8 a0bb
00000170: 55b1 a5bb a7fd 89bb 44bb 2b3c 7587 1bbc
00000180: 1e9a b1bb 6f14 79bc 9f88 ccbb 44f4 473c
00000190: d0cc 463c 23b5 2a3c 3eba f4bb 47ee 5c3c
000001a0: f547 06bc 8173 aa3b d360 00bc dc3b 403c
000001b0: 330b b93a c744 9e3b 97ac f03c b936 52bc
000001c0: 6fb7 ccbb e9a1 0d3c 076f 10bc a96c 45bc
000001d0: 06ce 183c 05a0 7dbb c6cd a13b 4c9b 9a3b
000001e0: d12f 353c f7c9 37bc 1f36 f4bb 2a9f b3bb
000001f0: fe7a 7dbb 7bcc 153a aab1 033a f30e 1bbb

network_body._body_endoder.seq_layers.2.weight f4 [128, 128]
0.0077169216 0.055456355 0.034955006 -0.1029647 -0.008977754 0.004134148 -0.13380682 0.047703367
0.05194701 0.04023127 -0.2277838 -0.11073718 -0.17358771 0.07716118 0.08294674 -0.009575953
0.11646419 -0.08930983 -0.083905995 -0.05712738 -0.0019086788 -0.06155384 0.047635294 -0.14049926
-0.11283434 -0.0555382 0.090240255 0.17763686 0.11811705 -0.029773924 -0.0011533488 0.12679747
0.06060994 -0.031252533 -0.08808684 -0.042856917 0.06300766 -0.031740777 -0.07504957 -0.18028064
0.103214286 -0.02152328 0.060373828 -0.07383951 -0.009164998 -0.0084649315 0.048072845 -0.06619485
-0.052389305 -0.01150411 0.13272355 0.0386928 0.16603677 0.047357164 -0.09414666 -0.058023296
0.0061765714 -0.15823053 -0.07750392 -0.12011122 0.021739196 -0.080835946 0.0066949804 0.00720295
0.02962661 -0.08363203 -0.06853613 0.1009325 0.027206562 -0.02954743 0.13841075 -0.036760118
0.07648779 0.014898157 -0.0054309065 0.21768716 -0.12861447 0.13459562 -0.06844727 0.02430504
0.0089726765 0.14175124 0.048174728 -0.10520545 -0.1300247 0.10256039 0.0547664 -0.034374896
0.06788777 0.1870226 0.010447284 0.018651152 0.1565811 -0.011662583 0.0598879 0.054474168
0.14599738 0.12558529 0.062956125 0.037203953 0.067961775 -0.034536406 0.0052653537 0.043988176
-0.059882905 0.09329559 -0.0017390789 0.021089083 0.049308065 -0.0064162808 0.045216776 0.11614264
0.06818685 -0.25856027 -0.014824339 0.017472403 0.10720634 -0.013619862 -0.0056996425 0.053951517
-0.00893074 -0.14383861 -0.08035227 0.043148037 -0.06770559 -0.06731929 -0.007948015 0.07908531
0.1563117 -0.08106874 0.18905877 0.04077994 -0.013061203 0.01852038 0.06400547 0.028695345
-0.11199915 0.1265489 0.117674045 -0.10940091 -0.09381143 0.13801861 -0.025583223 -0.0051951413
0.1567235 0.10008575 -0.009400102 -0.050404165 -0.020675676 -0.13032345 0.02951701 0.08689432
0.10239073 0.09537861 0.027303912 0.03039321 -0.086821 0.049729005 -0.016346157 0.11775525
-0.07540263 -0.07229002 0.1356117 0.035707064 -0.19842073 -0.061200134 0.14621471 0.1492119
-0.08882005 -0.024944762 0.06637659 0.070970885 -0.12843043 -0.02742562 0.069996275 0.15331122
-0.13667718 -0.027263513 -0.026970781 0.17460583 -0.09895312 0.020595746 -0.036699772 -0.023656871
-0.17272449 0.04787829 -0.03597068 -0.03136865 -0.09269599 -0.032875087 0.18767604 -0.15378076
-0.03487504 0.013205823 0.21643251 0.08085121 0.035150304 0.09621422 -0.081896685 -0.039216775
-0.0460415 0.028429564 -0.045957483 -0.13645399 0.05342323 -0.10976893 -0.04743167 -0.097889625
0.045568462 0.000112409616 -0.098623276 0.0015852478 0.04647918 0.021290943 -0.046149578 -0.0061360286
0.05236537 0.05574508 0.01978724 -0.04813832 0.027205963 0.09158844 0.09278218 0.13627468
0.020802172 -0.11283588 0.0049631894 0.123089775 -0.0874145 0.10119498 0.021210434 0.1369417
0.027738646 -0.22947916 0.15078838 -0.037870646 0.09715084 -0.022455292 -0.032049473 0.039418902
0.20621686 -0.043888353 -0.14510855 0.072314285 0.0053187497 -0.12812728 -0.14932361 0.007968421
-0.1790646 0.0038445913 -0.11117503 0.014432271 -0.030333843 0.04419792 -0.13692024 -0.18643622
00000000: 3bde fc3b 3426 633d fb2c 0f3d 28df d2bd
00000010: 6e17 13bc bf77 873b a804 09be 9b64 433d
00000020: 63c6 543d 8bc9 243d 2840 69be 2dca e2bd
00000030: fac0 31be ae06 9e3d fbdf a93d 75e4 1cbc
00000040: c784 ee3d 12e8 b6bd e8d6 abbd 66fe 69bd
00000050: a22c faba e11f 7cbd 3a1d 433d 0adf 0fbe
00000060: b115 e7bd 067c 63bd e2cf b83d 70e6 353e
00000070: 5ae7 f13d 72e8 f3bc f72b 97ba 32d7 013e
00000080: 2142 783d a802 00bd e066 b4bd bc8a 2fbd
00000090: 290a 813d 9e02 02bd 97b3 99bd 7d9b 38be
000000a0: 0362 d33d 9751 b0bc 8c4a 773d 2b39 97bd
000000b0: ca28 16bc 7fb0 0abc 08e8 443d 2a91 87bd
000000c0: 2b96 56bd bc7b 3cbc afe8 073e 577c 1e3d
000000d0: 8b05 2a3e 96f9 413d f7cf c0bd d6a9 6dbd
000000e0: d664 ca3b 2f07 22be 60ba 9ebd dffc f5bd
000000f0: 6616 b23c 518d a5bd 9161 db3b b906 ec3b
00000100: 81b3 f23c 4547 abbd ac5c 8cbd b3b5 ce3d
00000110: 4ce0 de3c 740d f2bc 8cbb 0d3e c791 16bd
00000120: a1a5 9c3d 6617 743c bff5 b1bb 62e9 5e3e
00000130: 83b3 03be 6fd3 093e 152e 8cbd 5d1b c73c
00000140: 2202 133c 3d27 113e dd52 453d f475 d7bd
00000150: 3225 05be 2f0b d23d bc52 603d b1cc 0cbd
00000160: be08 8b3d da82 3f3e 162b 2b3c 4dca 983c
00000170: cc56 203e 6b14 3fbc 044d 753d 4e20 5f3d
00000180: 5680 153e 6e99 003e 24ef 803d 2c63 183d
00000190: 8b2f 8b3d 0c76 0dbd fd88 ac3b f22c 343d
000001a0: c747 75bd c211 bf3d cef1 e3ba 03c3 ac3c
000001b0: 41f7 493d aa3f d2bb 3a35 393d 31dc ed3d
000001c0: 8ca5 8b3d 0362 84be c9e1 72bc 4922 8f3c
000001d0: ff8e db3d d725 5fbc 11c4 babb 44fc 5c3d
000001e0: 3d52 12bc 6e4a 13be bb8f a4bd ffbb 303d
000001f0: 3aa9 8abd b2de 89bd 6438 02bc 7bf7 a13d
00000200: 2d10 203e 5e07 a6bd 9f98 413e de08 273d
00000210: a8fe 55bc 0db8 973c 4d15 833d 8012 eb3c
00000220: cf5f e5bd 0996 013e 17ff f03d 960d e0bd
00000230: 3520 c0bd c054 0d3e e893 d1bc 013c aabb
00000240: 207c 203e c2f9 cc3d e302 1abc 9974 4ebd
00000250: 0960 a9bc 8373 05be a8cd f13c a6f5 b13d
00000260: 3bb2 d13d dc55 c33d 74ac df3c 2efb f83c
00000270: 35cf b1bd a4b0 4b3d 60e8 85bc aa29 f13d
00000280: b26c 9abd ca0c 94bd cbdd 0a3e 9241 123d
00000290: ce2e 4bbe feac 7abd 4fb9 153e 01cb 183e
000002a0: 49e7 b5bd f558 ccbc 73f0 873d 2f59 913d
000002b0: 4483 03be b2ab e0bc 355a 8f3d 9efd 1c3e
000002c0: 1af5 0bbe bb57 dfbc d4f1 dcbc dfcb 323e
000002d0: efa7 cabd 69b8 a83c 8052 16bd 0ecc c1bc
000002e0: b0de 30be 071c 443d fe55 13bd 6a7c 00bd
000002f0: 65d7 bdbd 07a8 06bd 262e 403e b478 1dbe
00000300: 21d9 0ebd 3c5d 583c 7ca0 5d3e 5295 a53d
00000310: c4f9 0f3d f60b c53d 73b9 a7bd c5a1 20bd
00000320: 0396 3cbd 1ee5 e83c ea3d 3cbd 98ba 0bbe
00000330: 51d2 5a3d 88ce e0bd b647 42bd 5b7a c8bd
00000340: ffa5 3a3d 74bd eb38 00fb c9bd 17c8 cf3a
00000350: f460 3e3d 586a ae3c 5707 3dbd bd10 c9bb
00000360: 127d 563d f454 643d da18 a23c b02c 45bd
00000370: 0adf de3c b892 bb3d 9504 be3d 978b 0b3e
00000380: 5169 aa3c 7f16 e7bd 40a2 a23b 7e16 fc3d
00000390: 6006 b3bd 503f cf3d 81c1 ad3c 723a 0c3e
000003a0: 283c e33c 96fc 6abe 4568 1a3e 401e 1bbd
000003b0: 05f7 c63d 29f4 b7bc 4f46 03bd b775 213d
000003c0: 832a 533e 46c4 33bd 5697 14be 8319 943d
000003d0: e848 ae3b cc33 03be 4ae8 18be fb8d 023c
000003e0: b65c 37be 8af5 7b3b bcaf e3bd 5575 6c3c
000003f0: ae7e f8bc e108 353d d234 0cbe 23e9 3ebe

network_body._body_endoder.seq_layers.2.bias f4 [128]
-0.01109012 -0.012430781 0.0019561038 -0.0014216836 -0.0144136045 -0.015184002 0.0064713387 0.017666372
0.010001811 -0.011470221 -0.0031895074 -0.009947498 0.006774873 -0.0036094896 0.01464491 0.011861764
-0.0006953992 0.0048308466 0.006119073 -0.0044239485 -0.004607339 0.004620282 0.0050290213 0.0025555864
0.0028560616 -0.0013949348 0.0039518834 0.0049056276 0.009292948 0.013452047 -0.032662906 0.0063918517
-0.0070628463 0.02541001 -0.013498463 -0.0041306373 0.0052250447 -0.005175329 -0.014778491 0.010001848
0.0030427545 0.007571986 -0.0072246054 0.0026436562 0.016461661 -0.004376572 -0.0055694696 -0.002421607
-0.007251143 -0.011079013 -0.0063853804 -0.0114633795 -0.0068653384 0.003313839 -0.024640724 -0.008015315
-0.00032001687 0.0048911474 0.01386515 -0.0069491416 0.014248519 -0.0048448937 -0.007885564 -0.03857171
-0.007644995 -0.0033649628 -0.0073065683 -0.012318734 -0.0021144291 -0.026216738 -0.0137559865 0.00864829
0.012016455 -0.014706757 -0.00611435 0.010357691 -0.014945909 0.0049321908 0.011846862 -0.034316584
0.011731929 -0.009567348 -0.008943095 0.021602513 -0.010271897 -0.029415537 0.008807087 -0.0029072503
0.011511154 -0.006629016 0.014015091 0.0013937365 -0.00025471576 -0.012406052 -0.015048931 -0.0030781853
0.005989129 -0.0017181911 0.01064888 -0.008032801 -0.0046066716 0.012620652 -0.007640621 -0.001862625
-0.012468044 -0.0031590625 -0.006731172 -0.012764272 -0.0029324498 -0.028684843 -0.006437825 -0.0089876605
0.0022748057 0.017735217 -0.0014995805 -0.008170669 -0.0077778273 -0.014174915 -0.008161215 -0.00372325
-0.009375939 -0.0033821566 -0.007850488 -0.0065435786 -0.011113117 -0.011875703 -0.00378877 -0.009989216
00000000: 56b3 35bc 79aa 4bbc fa31 003b c957 baba
00000010: 0a27 6cbc 52c6 78bc 860d d43b 11b9 903c
00000020: a3de 233c 98ed 3bbc 0e07 51bb d5fa 22bc
00000030: c1ff dd3b 308d 6cbb 34f1 6f3c d857 423c
00000040: 734b 36ba 144c 9e3b 8182 c83b c5f6 90bb
00000050: 29f9 96bb bc65 973b 7dca a43b a07b 273b
00000060: c32c 3b3b 3fd6 b6ba cd7e 813b 63bf a03b
00000070: 7341 183c f965 5c3c 8ac9 05bd bd72 d13b
00000080: 736f e7bb a728 d03c a828 5dbc 4c5a 87bb
00000090: da36 ab3b ce95 a9bb 7c21 72bc cbde 233c
000000a0: f368 473b 6c1e f83b 62bc ecbb 3141 2d3b
000000b0: 9bda 863c 5969 8fbb 1980 b6bb d3b3 1ebb
000000c0: ff9a edbb c084 35bc 743c d1bb e6d0 3bbc
000000d0: a2f6 e0bb fe2c 593b 58db c9bc ab52 03bc
000000e0: f0c7 a7b9 eb45 a03b a72a 633c a0b5 e3bb
000000f0: 9f72 693c eac1 9ebb 7432 01bc 5ffd 1dbd
00000100: de82 fabb b586 5cbb f06b efbb 84d4 49bc
00000110: 3c92 0abb 7cc4 d6bc ca60 61bc 8fb1 0d3c
00000120: aae0 443c 9cf4 70bc e35a c8bb 4eb3 293c
00000130: b0df 74bc 379e a13b 5719 423c 8c8f 0cbd
00000140: 4737 403c 5ec0 1cbc 0f86 12bc c1f7 b03c
00000150: 754b 28bc daf8 f0bc 9a4b 103c 9187 3ebb
00000160: 4799 3c3c 3738 d9bb 8d9f 653c 09ae b63a
00000170: 5f8b 85b9 c142 4bbc cb8f 76bc 61bb 49bb
00000180: 7540 c43b ed34 e1ba a478 2e3c 029c 03bc
00000190: 90f3 96bb dac6 4e3c 2d5e fabb 5323 f4ba
000001a0: c446 4cbc 4608 4fbb 2a91 dcbb 3d21 51bc
000001b0: 582e 40bb 7afc eabc 64f4 d2bb fb40 13bc
000001c0: e814 153b 7249 913c 928d c4ba 45de 05bc
000001d0: 25dd febb e73d 68bc 9eb6 05bc c501 74bb
000001e0: 8a9d 19bc 2ca7 5dbb 559f 00bc 846b d6bb
000001f0: cb13 36bc 4f92 42bc 034d 78bb cfa9 23bc

action_model._continuous_distribution.log_sigma f4 [1, 2]
-0.0430531 0.027195072
00000000: 7358 30bd 33c8 de3c

action_model._continuous_distribution.mu.weight f4 [2, 128]
0.02956346 0.0014336042 -0.008928954 -0.00084884855 0.0021102652 0.0015774656 -0.004257447 -0.019077754
-0.011709933 0.021247463 0.007928919 0.012868577 -0.013485614 -0.016181963 -0.024054881 -0.029411316
-0.014510758 -0.0056308224 0.0049466733 -0.02095043 0.01955707 -0.013219964 0.008755019 -0.0040217033
-0.007348336 0.017530894 0.0073410603 -0.012447313 -0.025665306 -0.0065607214 0.027729185 -0.013724629
-0.0076969108 -0.010413452 0.012565604 0.019546188 -0.005921778 -0.018582962 0.015342234 -0.027651178
-0.02058208 0.0055293622 -0.008842649 -0.03507683 -0.017580638 0.018445112 -0.008003154 -0.01573896
-0.017817874 0.005022152 -0.014534743 0.0016288357 -0.025453502 0.0031728991 0.02379652 -0.012192223
-0.01772912 0.014490298 -0.004231959 0.035753705 0.00038488506 0.00060535996 1.2067341e-05 0.037409194
-0.0052243234 0.025293883 0.020324012 0.001409432 0.0527579 0.012685552 0.0010375313 0.0028820252
-0.015483621 0.00024280194 0.0101502985 0.0006452908 0.0011050277 0.006980804 -0.0342734 0.029062916
-0.021580854 0.06471655 -0.0041359654 -0.0069538755 0.014181499 0.059114926 -0.009416693 -0.017434431
-0.016907733 0.005789129 -0.006020155 0.0036155183 0.0069910823 0.018307906 0.002784456 -0.042125594
-0.0070973695 -0.025212 -0.027983975 0.013769124 -0.009604113 -0.025081629 0.015936213 0.0018740138
0.006011796 -0.002612958 -0.0070434297 0.007138244 -0.017420158 0.0094806515 -0.017942294 0.010989778
0.011276774 -0.03722945 -0.015754074 0.027170705 -0.008505946 0.0066802218 -0.0027836137 0.0057780677
0.0013664757 0.05364234 0.03020758 0.010773973 -0.004308418 0.001881526 0.0143425325 -0.0009494888
-0.007040808 -0.01854063 -0.008979041 -0.0024993182 -0.0053855157 -0.0045598955 0.0014698487 0.0015895457
0.008772934 -0.014845335 0.0047694347 -0.034920033 -0.010886464 -0.01418341 0.022913856 0.023899281
-0.008942209 0.0026217168 0.025455523 -0.014744494 -0.051036056 -0.0048935995 0.01840949 0.0045100176
-0.0029464157 0.0068379715 0.0101032965 -0.0002406339 0.014956048 0.020612417 -0.018175213 0.01883613
-0.012792039 0.029610677 -0.028312923 -0.0107118925 -0.0070593827 -0.024997007 -0.02734531 0.019456396
-0.004695135 0.017762527 -0.015215075 -0.0112446565 0.013146571 -0.018584847 -0.017221002 0.005052403
-0.03473548 -0.005725857 -0.002090237 -0.006162277 -0.027138285 0.00499231 -0.00925762 -0.025782598
-0.034933526 0.018435694 0.018773459 0.0017977705 0.034070455 0.007842866 -0.001955463 -0.016570164
-0.041701626 -0.02733269 -0.06394255 -0.0076426254 -0.06389662 -0.032246895 -0.003907101 0.014784961
0.013694363 -0.006754994 -0.018511092 0.023253571 -0.007939715 0.026494427 -0.006695125 -0.03816609
-0.007861758 -0.040065542 -0.0045236647 0.042457484 -0.005192748 -0.038356487 0.0069298 -0.018043961
0.03366138 -0.02035638 0.002147689 0.0057392004 0.010987435 -0.018125826 -0.006977154 -0.04351307
-0.0012438402 -0.013677602 -0.009039194 -0.026619071 -0.010368491 0.021933634 -0.025763785 0.0009938137
-0.0075212307 -0.019563297 -0.010688702 -0.014992756 -0.014116994 -0.040684793 -0.02238542 -0.007197274
0.01505489 -0.05240345 0.006646936 -0.0034920808 -0.016210722 -0.008942913 -0.010000188 -0.010619759
-0.007639646 -0.0502602 -0.075609274 0.0039482787 -0.040295184 -0.015277615 -0.009670333 -0.0015046434
00000000: 122f f23c c6e7 bb3a bf4a 12bc 4385 5eba
00000010: 604c 0a3b f6c2 ce3a 0e82 8bbb f348 9cbc
00000020: 05db 3fbc 290f ae3c 4ce8 013c b9d6 523c
00000030: c4f2 5cbc 0990 84bc be0e c5bc 00f0 f0bc
00000040: 88be 6dbc c382 b8bb b417 a23b 3ca0 abbc
00000050: 2636 a03c 8c98 58bc 3671 0f3c 7ec8 83bb
00000060: 4fca f0bb f39c 8f3c 478d f03b d1ef 4bbc
00000070: 0c40 d2bc 52fb d6bb 5128 e33c 44dd 60bc
00000080: 5e36 fcbb 2f9d 2abc f7df 4d3c 541f a03c
00000090: 790b c2bb 4c3b 98bc fe5d 7b3c b984 e2bc
000000a0: c09b a8bc a72f b53b c2e0 10bc b9ac 0fbd
000000b0: 4505 90bc 341a 973c a91f 03bc feee 80bc
000000c0: caf6 91bc dd90 a43b 2123 6ebc a87e d53a
000000d0: dd83 d0bc 6af0 4f3b ebf0 c23c e4c1 47bc
000000e0: a93c 91bc b768 6d3c 3fac 8abb 7a72 123d
000000f0: 66ca c939 05b1 1e3a d674 4a37 623a 193d
00000100: cd30 abbb 1e35 cf3c 8b7e a63c b1bc b83a
00000110: ab18 583d 10d7 4f3c c6fd 873a 5ce0 3c3b
00000120: 03af 7dbc a698 7e39 704d 263c bc28 293a
00000130: 94d6 903a 3abf e43b 4462 0cbd 5a15 ee3c
00000140: 55ca b0bc 1c8a 843d fe86 87bb 56dd e3bb
00000150: 8559 683c 7e22 723d 7948 1abc a7d2 8ebc
00000160: 1682 8abc bcb2 bd3b b844 c5bb 55f2 6c3b
00000170: 7315 e53b 76fa 953c 6b7b 363b e38b 2cbd
00000180: 0d91 e8bb 6589 cebc a63e e5bc e497 613c
00000190: 925a 1dbc fd77 cdbc a98c 823c 78a1 f53a
000001a0: 9afe c43b 293e 2bbb 92cc e6bb eee7 e93b
000001b0: b8b4 8ebc bc54 1b3c b8fb 92bc 780e 343c
000001c0: 38c2 383c e87d 18bd b00e 81bc 1995 de3c
000001d0: 865c 0bbc c3e5 da3b 4a6d 36bb f255 bd3b
000001e0: 511b b33a 12b8 5b3d e375 f73c 5185 303c
000001f0: a12d 8dbb 899d f63a f1fc 6a3c 1de7 78ba
00000200: 94b6 e6bb 85e2 97bc d41c 13bc 9acb 23bb
00000210: fb78 b0bb 2d6b 95bb f0a7 c03a 4e58 d03a
00000220: 5abc 0f3c d939 73bc eb48 9c3b 4f08 0fbd
00000230: 245d 32bc 8961 68bc d7b5 bb3c 6dc8 c33c
00000240: 5882 12bc 1cd1 2b3b 1a88 d03c e492 71bc
00000250: 2f0b 51bd 7d5a a0bb 80cf 963c c5c8 933b
00000260: a718 41bb 1011 e03b 4c88 253c ac52 7cb9
00000270: 360a 753c 5fdb a83c 2fe4 94bc 3a4e 9a3c
00000280: b395 51bc 1792 f23c 81f0 e7bc ef80 2fbc
00000290: 6552 e7bb 86c6 ccbc 4603 e0bc 0563 9f3c
000002a0: a6d9 99bb b882 913c a648 79bc 823b 38bc
000002b0: b764 573c 403f 98bc 0f13 8dbc a18e a53b
000002c0: ca46 0ebd f89f bbbb 5cfc 08bb edec c9bb
000002d0: 1c51 debc 8896 a33b 46ad 17bc 0736 d3bc
000002e0: 7516 0fbd 7406 973c ccca 993c 2ba3 eb3a
000002f0: 768d 0b3d 5d7f 003c 3a27 00bb 27be 87bc
00000300: 53cf 2abd cee8 dfbc 50f4 82bd fd6e fabb
00000310: 3bdc 82bd 5215 04bd 2407 80bb 9f3c 723c
00000320: 525e 603c ff58 ddbb 93a4 97bc 467e be3c
00000330: 9415 02bc d70a d93c c762 dbbb 0c54 1cbd
00000340: 9ace 00bc c41b 24bd 403b 94bb e6e7 2d3d
00000350: ed27 aabb b11b 1dbd 6013 e33b eed0 93bc
00000360: 84e0 093d 6cc2 a6bc 3ec0 0c3b e70f bc3b
00000370: a404 343c 9d7c 94bc 9ca0 e4bb c33a 32bd
00000380: 5a08 a3ba 0518 60bc 2119 14bc 3d10 dabc
00000390: 9ae0 29bc 2aae b33c 930e d3bc db42 823a
000003a0: a874 f6bb 3543 a0bc aa1f 2fbc 2da4 75bc
000003b0: f74a 67bc 19a5 26bd a161 b7bc 1cd7 ebbb
000003c0: c9a8 763c 00a5 56bd 8ace d93b 65db 64bb
000003d0: 59cc 84bc 4c85 12bc d4d7 23bc 7ffe 2dbc
000003e0: ff55 fabb a4dd 4dbd 09d9 9abd 9060 813b
000003f0: 900c 25bd f64e 7abc 5170 1ebc 7437 c5ba

action_model._continuous_distribution.mu.bias f4 [2]
-0.0062511256 0.01272457
00000000: 3ed6 ccbb b77a 503c

exp_avg f4 [128, 3]
0.000692777 0.0002016955 0.0012573041 -0.0018512068 0.0007994311 0.0010890076 -0.00081056595 7.415701e-05
0.00023627945 -2.4784673e-05 0.0007914518 0.0010535935 0.00039960202 -0.00039440877 -0.00033881544 0.00055505766
-0.00060097285 -0.0010419542 0.00038849807 0.00024977943 0.00026515152 0.00017604137 -9.546944e-05 5.8652382e-05
0.0010767208 -0.0009871358 -0.0013678817 -0.000147443 0.00042358093 0.0009600135 -0.0012382506 0.0014984629
0.0022368208 0.001425878 -8.2234095e-05 -0.0007295563 -6.944114e-05 3.9711333e-05 -0.000389922 -0.00015274898
8.264844e-06 -0.00034820565 2.4601293e-05 -0.00027632865 -0.00021025013 0.00031245616 -6.0226303e-06 0.00013553468
8.777469e-05 3.7549908e-05 -0.0010258264 -0.00012900826 -0.00016672339 -0.0009114056 0.0013567447 -0.0006419493
-0.00058099563 -0.00036641498 -4.9305283e-05 0.0007443224 7.989943e-05 -6.367079e-05 0.0003135617 0.00047275607
-0.00042228785 -0.0010128518 -0.0009802559 0.00035652207 0.00066905573 0.001878574 -0.000765229 -0.00093358674
0.0026464392 -0.0016226533 -0.0017527271 -0.00097150565 -0.0008237199 -0.00090909307 0.00026846933 -0.00018558867
-8.740593e-05 -0.00029912312 0.00013306021 1.2232515e-05 0.0003113652 8.7044655e-06 -1.2961704e-05 0.00065809366
-0.00075524073 -0.0005458314 -0.0018102075 0.001351043 0.0016501133 -0.0022351183 0.0015868958 0.0033697367
-0.002101489 0.001096894 0.0007258109 0.0001450681 -2.0840087e-05 0.00069926854 -2.2900742e-05 1.2279775e-05
-0.0001310037 0.0003081404 6.996106e-05 0.00018787486 -0.0012726809 0.0007828197 0.001046733 0.0005681805
-0.00031892653 -0.0001623709 0.0017814025 -0.0010827912 -0.0017689741 0.0009653646 1.3450306e-05 0.00080743595
0.0007084835 -3.1762364e-05 -0.0001959061 0.00010075065 -0.00010803981 -0.0016014199 0.000114429764 5.391487e-05
0.00031908287 0.0008384399 -7.972188e-05 0.0004167923 -0.0003578078 -0.00015864447 -0.00025705708 -0.00027475838
-2.8023633e-06 -0.00023309293 0.00048413555 -0.00013257774 0.00019105762 -0.000378413 -7.181088e-05 -4.7978974e-05
0.00019758102 -0.00038228356 -0.001159251 0.0004316758 -1.0526614e-06 0.0011757542 -0.00053253595 -1.635655e-05
0.00027051917 0.00046233056 -8.768564e-05 0.000112813985 -0.00034388874 0.00016731277 1.3754599e-05 0.00023612457
0.00010298328 -0.00021728087 -0.0019263988 0.0013005469 0.0020584436 9.3730225e-05 -8.72071e-05 0.0002072712
-0.0009636335 0.00037977894 0.0011415207 -0.00023085071 9.520834e-06 0.0012819153 0.00039921718 -3.3280645e-05
0.00037109508 0.00010204589 0.0002685683 0.000615538 0.0004693311 -7.825868e-05 0.00037253852 0.00039945586
0.000114275004 0.0009407618 -0.00016120318 0.00023494892 0.00074441603 0.0005172306 0.00027540978 0.0003569905
0.00056281744 -2.5951478e-05 -4.5227353e-05 0.0005522398 -0.0005272804 -0.0010674392 0.0005169675 -0.0005792541
-0.00016935194 -5.2949636e-05 0.00024965926 -6.259416e-05 0.00010158942 -0.00035073963 0.0006346341 0.0006359517
1.2311717e-05 0.00087183 -0.0013049126 -0.00012344451 -0.0005884465 0.0005689577 -4.518316e-05 -0.00016133297
-0.00026549568 -1.213891e-05 0.00040218278 -0.0007990074 -0.00020142557 -0.00035108114 0.00052514183 0.00016588822
0.0002456056 0.00028066343 0.00014697405 -0.0005620777 -4.1201478e-05 9.349043e-05 0.00014574586 -0.0022927125
0.0014236395 0.002143921 -0.0007706629 1.3946636e-05 -0.0003027175 -0.0009675659 0.00040113402 0.00028492397
0.00038538658 7.320618e-05 -0.00044919478 -0.00047125207 0.00030676753 0.00069275557 0.0018854633 -0.001004154
-0.0011105004 -0.0003621857 -0.0002553931 -0.00036638515 -0.00011756818 9.299116e-06 0.0006729999 -0.0008354618
00000000: 7a9b 353a 397e 5339 20cc a43a 31a4 f2ba
00000010: ea90 513a 08bd 8e3a 297c 54ba be84 9b38
00000020: c8c1 7739 aee8 cfb7 6e79 4f3a bb18 8a3a
00000030: ad81 d139 a6c8 ceb9 0aa3 b1b9 4a81 113a
00000040: 9b8a 1dba 2e92 88ba 54af cb39 d4f4 8239
00000050: 0904 8b39 bf97 3839 c436 c8b8 8401 7638
00000060: c120 8d3a c862 81ba 7e4a b3ba ee9a 1ab9
00000070: 1214 de39 6aa9 7b3a cc4c a2ba 1268 c43a
00000080: a097 123b 87e4 ba3a 1875 acb8 b23f 3fba
00000090: eea0 91b8 b88f 2638 726e ccb9 3e2b 20b9
000000a0: 3ca9 0a37 5f8f b6b9 e05e ce37 34e0 90b9
000000b0: 9776 5cb9 28d1 a339 0016 cab6 501e 0e39
000000c0: ae13 b838 e87e 1d38 0675 86ba 6446 07b9
000000d0: 78d2 2eb9 65eb 6eba ccd4 b13a 7d48 28ba
000000e0: f54d 18ba 631b c0b9 25cd 4eb8 a11e 433a
000000f0: ae8f a738 ff86 85b8 8a65 a439 3fdc f739
00000100: 8466 ddb9 abc1 84ba ee7b 80ba 95eb ba39
00000110: 9263 2f3a 7c3a f63a a699 48ba f2bb 74ba
00000120: e26f 2d3b 36af d4ba c3bb e5ba a4ac 7eba
00000130: e8ee 57ba 3450 6eba 58c1 8c39 949a 42b9
00000140: b44d b7b8 a0d3 9cb9 1486 0b39 403a 4d37
00000150: bb3e a339 6509 1237 1876 59b7 eb83 2c3a
00000160: 59fb 45ba 2016 0fba 7c44 edba 7b15 b13a
00000170: 9d48 d83a 107b 12bb 63ff cf3a cdd6 5c3b
00000180: 23b9 09bb a8c5 8f3a 5844 3e3a 6c1d 1839
00000190: bfd1 aeb7 1e4f 373a f81a c0b7 3b05 4e37
000001a0: 0a5e 09b9 e88d a139 0fb8 9238 4600 4539
000001b0: 16d0 a6ba 2436 4d3a 8832 893a f3f1 143a
000001c0: 9835 a7b9 1b42 2ab9 f37d e93a 72ec 8dba
000001d0: ecdc e7ba 8610 7d3a a0a8 6137 1caa 533a
000001e0: 86b9 393a 9438 05b8 256c 4db9 184a d338
000001f0: 6e93 e2b8 bce6 d1ba 03fa ef38 a722 6238
00000200: 944a a739 c0ca 5b3a 5c30 a7b8 ea84 da39
00000210: 2698 bbb9 cd59 26b9 9ec5 86b9 720d 90b9
00000220: 3c10 3cb6 686a 74b9 93d3 fd39 9104 0bb9
00000230: a456 4839 bc65 c6b9 2c99 96b8 083d 49b8
00000240: c02d 4f39 3b6d c8b9 02f2 97ba 8c52 e239
00000250: 2c49 8db5 c41b 9a3a e299 0bba 6c35 89b7
00000260: 78d4 8d39 f564 f239 dfe3 b7b8 8c96 ec38
00000270: f74b b4b9 ae70 2f39 8ec3 6637 3598 7739
00000280: baf8 d738 e4d5 63b9 387f fcba 1d77 aa3a
00000290: f4e6 063b 0891 c438 f5e2 b6b8 f056 5939
000002a0: 599c 7cba 111d c739 149f 953a 8410 72b9
000002b0: acbb 1f37 f105 a83a 064e d139 d296 0bb8
000002c0: 8a8f c239 7801 d638 a1ce 8c39 0e5c 213a
000002d0: 8e10 f639 cf1e a4b8 4651 c339 0f6e d139
000002e0: eda6 ef38 759d 763a a608 29b9 9f5c 7639
000002f0: ea24 433a c296 073a e064 9039 742a bb39
00000300: 0a8a 133a 60b2 d9b7 80b2 3db8 30c4 103a
00000310: 3039 0aba 51e9 8bba 1a85 073a 16d9 17ba
00000320: 1194 31b9 3d16 5eb8 b3e4 8239 fc44 83b8
00000330: 680c d538 7ae3 b7b9 935d 263a ffb5 263a
00000340: 6c8e 4e37 858b 643a 9a09 abba e270 01b9
00000350: fa41 1aba 1b26 153a 0c83 3db8 7d2b 29b9
00000360: 3a32 8bb9 39a8 4bb7 0fdc d239 7b74 51ba
00000370: c435 53b9 5011 b8b9 aca9 093a 48f2 2d39
00000380: a0c4 8039 0226 9339 0c1d 1a39 6558 13ba
00000390: c0cf 2cb8 4b10 c438 5bd3 1839 5541 16bb
000003a0: 6a99 ba3a 0781 0c3b 5006 4aba 58fc 6937
000003b0: 0eb6 9eb9 40a4 7dba 4c4f d239 d961 9539
000003c0: b60d ca39 4586 9938 e781 ebb9 6212 f7b9
000003d0: a4d5 a039 0a9a 353a a621 f73a d19d 83ba
000003e0: 368e 91ba bee3 bdb9 48e6 85b9 6217 c0b9
000003f0: f08e f6b8 6603 1c37 426c 303a e402 5bba

exp_avg_sq f4 [128, 3]
3.7472586e-05 9.130806e-08 6.496348e-05 0.00031393385 1.7071616e-05 9.732436e-05 6.8561116e-05 2.0763484e-06
1.4923614e-05 3.441485e-05 6.533515e-06 1.7492393e-05 0.00032005733 3.6452736e-06 5.5858098e-05 6.247082e-05
3.621684e-06 1.6980053e-05 8.8395434e-05 5.1250313e-06 2.8600769e-05 2.7182332e-06 2.7379525e-07 3.3622593e-06
0.00013588631 1.0779039e-05 4.309841e-05 6.667754e-05 7.174129e-06 2.5089348e-05 0.0002770712 2.1635446e-05
8.4462394e-05 5.874165e-06 3.8031875e-08 5.5743e-06 1.1446635e-06 1.8589205e-08 4.771986e-07 2.640298e-06
3.526461e-08 5.352536e-06 9.758897e-05 5.862529e-07 1.7368242e-05 6.624498e-05 1.6877045e-06 1.35122855e-05
5.0038093e-06 4.8139132e-08 8.749483e-06 0.00021048337 1.5053726e-05 6.915954e-05 0.00039119594 1.4609907e-05
9.725283e-05 1.07541255e-05 2.470968e-08 5.321773e-06 7.8399e-06 1.3182953e-08 5.426333e-06 1.35264745e-05
2.5782074e-06 9.252323e-06 7.170258e-05 3.8342437e-06 1.693861e-05 2.1323918e-05 9.0072035e-06 3.1428444e-05
0.00057986146 2.314278e-05 0.00014092737 0.0005511637 2.278312e-05 0.00015380664 0.00015324332 4.0829473e-06
3.3748813e-05 1.5194676e-05 1.9198876e-07 3.0832132e-05 1.3952011e-06 6.3091826e-10 8.0955004e-07 0.00017124832
1.3261652e-05 6.30803e-05 0.0001171339 1.9686719e-05 5.7957324e-05 3.8049817e-05 9.07626e-06 2.2261918e-05
5.6579844e-05 3.282675e-06 2.3712772e-05 6.992943e-06 1.698596e-08 1.3543246e-05 7.766336e-06 5.431871e-09
9.147934e-06 7.406845e-06 6.268433e-08 9.109134e-06 1.9581757e-05 1.8711667e-06 1.1206407e-05 0.00010738643
1.3639777e-06 3.2881428e-05 0.00021368847 1.1848191e-05 5.7933637e-05 0.00041395263 1.0144084e-05 9.376261e-05
4.445022e-06 7.1958954e-07 4.201615e-06 0.000113978545 8.23045e-06 3.434477e-05 1.8768202e-06 5.0731415e-09
1.017774e-06 2.9262137e-05 6.4351634e-06 3.6918664e-05 5.0862795e-06 3.1248177e-08 6.766884e-06 1.0276489e-05
8.8222957e-10 4.987657e-06 0.00017461952 4.263955e-06 3.9664515e-05 4.3711616e-06 7.937938e-09 5.428387e-06
0.00010109616 3.4473496e-06 2.7847913e-05 1.1328524e-05 2.6102842e-09 1.887161e-05 7.0096445e-07 1.7707777e-08
1.0611997e-06 4.327422e-05 1.7645333e-07 7.2200482e-06 9.9242134e-05 3.8531266e-06 2.4332858e-05 2.7414628e-06
1.6520792e-08 1.6688292e-06 0.00041607255 2.261825e-05 0.00011631711 7.278099e-06 3.4356443e-08 1.0752256e-05
5.2414553e-06 4.5920783e-07 6.3472703e-06 6.9118264e-06 3.8814245e-09 1.06504585e-05 5.4590705e-06 4.1204636e-08
1.0293923e-05 1.1531537e-05 2.0569924e-07 1.8505587e-05 1.0114107e-05 4.9573085e-08 1.6155227e-05 3.0096453e-05
1.9245529e-07 5.105817e-05 5.5882498e-05 1.600638e-06 1.9081519e-05 4.706894e-06 8.001306e-08 3.9637885e-06
3.4484947e-06 3.654302e-07 2.6639043e-06 0.00015397546 1.221932e-05 4.8368714e-05 6.203297e-06 2.4007961e-06
7.339902e-06 0.000111526264 3.7990349e-06 2.6067959e-05 7.7075216e-05 3.0715325e-06 3.530092e-05 6.501542e-06
6.191905e-08 1.2175965e-05 4.6748482e-05 7.2433977e-06 2.3564531e-05 0.00024871388 1.9539768e-06 4.3019787e-05
2.2111904e-05 2.0958833e-08 3.747978e-06 7.4252107e-06 6.088197e-08 1.2497533e-05 4.197123e-06 3.249346e-08
4.9163805e-06 2.1342494e-06 1.6085653e-07 2.5338677e-06 3.5133228e-06 1.13949405e-07 7.10122e-06 0.00015024091
1.2201457e-05 6.002209e-05 6.9587745e-06 2.408529e-08 1.1004182e-05 9.194773e-05 4.7091685e-06 2.8972452e-05
1.7100465e-06 2.367648e-08 3.4077814e-06 1.3649743e-05 8.187954e-07 5.0010844e-06 0.00020072142 1.6445558e-05
6.432428e-05 3.1630796e-06 5.925069e-07 2.4025485e-06 6.071459e-06 4.4119545e-08 1.2065824e-05 0.000100010686
00000000: e22b 1d38 2315 c433 013d 8838 7d97 a439
00000010: 0435 8f37 9e1a cc38 78c8 8f38 6557 0b36
00000020: 6f60 7a37 aa58 1038 773a db36 a1bc 9237
00000030: 5ecd a739 53a1 7436 2d49 6a38 c402 8338
00000040: 0f0c 7336 6370 8e37 f060 b938 aff7 ab36
00000050: afeb ef37 e46a 3636 22fe 9234 2da3 6136
00000060: b47c 0e39 9fd7 3437 91c4 3438 3bd5 8b38
00000070: 4db9 f036 f776 d237 de43 9139 c47d b537
00000080: 6721 b138 b11a c536 7d58 2333 df0a bb36
00000090: 57a2 9935 18ae 9f32 d718 0035 f92f 3136
000000a0: d975 1733 ef99 b336 aea8 cc38 fe5e 1d35
000000b0: 04b2 9137 01ed 8a38 1685 e235 d3b2 6237
000000c0: 65e6 a736 89c1 4e33 beca 1237 33b5 5c39
000000d0: 438f 7c37 bf09 9138 6e19 cd39 131d 7537
000000e0: 37f4 cb38 9e6c 3437 2941 d432 af91 b236
000000f0: 1d88 0337 3e7b 6232 d813 b636 c4ef 6237
00000100: 4405 2d36 6d3a 1b37 085f 9638 e7a7 8036
00000110: 6317 8e37 c4e0 b237 a51d 1737 09d2 0338
00000120: d801 183a be22 c237 e7c5 1339 f87b 103a
00000130: 611e bf37 2847 2139 f1af 2039 4000 8936
00000140: 838d 0d38 a3ec 7e37 7825 4e34 c051 0138
00000150: bf42 bb35 ed6c 2d30 db4f 5935 1f91 3339
00000160: 5d7e 5e37 fa49 8438 c9a5 f538 e824 a537
00000170: 3417 7338 ae97 1f38 3d46 1837 1bbf ba37
00000180: 2550 6d38 ed4b 5c36 caea c637 eca4 ea36
00000190: 85e8 9132 cc37 6337 294c 0237 3ea3 ba31
000001a0: 147a 1937 5088 f836 139d 8633 6fd3 1837
000001b0: 8143 a437 cc24 fb35 2703 3c37 a734 e138
000001c0: eb11 b735 2aea 0938 9011 6039 98c7 4637
000001d0: c5fd 7238 c807 d939 8230 2a37 6ba2 c438
000001e0: 7326 9536 d129 4135 99fb 8c36 c407 ef38
000001f0: 8315 0a37 6a0d 1038 0de7 fb35 d34f ae31
00000200: 739a 8835 f677 f537 a2ed d736 1dd9 1a38
00000210: cfaa aa36 bc35 0633 170f e336 2f69 2c37
00000220: 6381 7230 a65b a736 121a 3739 1813 8f36
00000230: 735d 2638 feab 9236 6c5f 0832 7d25 b636
00000240: 9603 d438 0459 6736 f09a e937 a40f 3e37
00000250: 9b60 3331 794e 9e37 e929 3c35 d01b 9832
00000260: 8b6e 8e35 5781 3538 1f77 3d34 be43 f236
00000270: 3720 d038 1b4a 8136 6a1e cc37 f9f9 3736
00000280: 9be9 8d32 89fc df35 5024 da39 52bc bd37
00000290: 46ef f338 6536 f436 4f8f 1333 9664 3437
000002a0: c2df af36 0b89 f634 a3fa d436 23ec e736
000002b0: 5f5d 8531 5faf 3237 0f2d b736 faf8 3033
000002c0: 10b4 2c37 9377 4137 2dde 5c34 723c 9b37
000002d0: c2af 2937 2fea 5433 1685 8737 a477 fc37
000002e0: b5a5 4e34 4b27 5638 6063 6a38 81d5 d635
000002f0: 4011 a037 e9ef 9d36 a5d3 ab33 af00 8536
00000300: b06c 6736 5830 c434 87c5 3236 7974 2139
00000310: 9401 4d37 83df 4a38 ea25 d036 5d1d 2136
00000320: 4749 f636 35e3 e938 ecf2 7e36 84ac da37
00000330: 71a3 a138 8720 4e36 1310 1438 d227 da36
00000340: 5cf8 8433 5f47 4c37 cd13 4438 500c f336
00000350: 72ac c537 d065 8239 1121 0336 2570 3438
00000360: f47c b937 f608 b432 c685 7b36 1326 f936
00000370: 38be 8233 7fac 5137 03d5 8c36 f08e 0b33
00000380: 63f7 a436 203a 0f36 e8b7 2c34 840b 2a36
00000390: 6dc6 6b36 59b4 f433 0447 ee36 fd89 1d39
000003a0: dcb4 4c37 3ac0 7b38 6b7f e936 1de4 ce32
000003b0: 9a9e 3837 10d4 c038 7303 9e36 de09 f337
000003c0: c084 e535 2161 cb32 3db1 6436 3301 6537
000003d0: 31cb 5b35 fdce a736 bf78 5239 91f4 8937
000003e0: d6e5 8638 4b45 5436 c40c 1f35 783b 2136
000003f0: 70b9 cb36 f47d 3d33 526e 4a37 d4bc d138

exp_avg f4 [128]
-1.5210157e-05 -3.2713178e-06 1.3594456e-05 3.9048613e-05 4.8708444e-05 -2.4634648e-05 -6.5358126e-06 1.314721e-06
6.9272646e-06 2.1832067e-05 -3.1803225e-05 -3.3344415e-05 7.0991136e-06 1.3205603e-05 -1.8490475e-05 -6.8121635e-06
3.323821e-05 7.5492862e-06 2.3850358e-05 -1.6318856e-05 -2.1863874e-05 7.9399015e-06 1.9858064e-05 -3.3202294e-05
1.0988245e-05 -1.9786476e-05 3.627181e-05 5.005912e-05 6.897112e-06 -9.215633e-06 -5.6549725e-06 -3.4004665e-06
4.900653e-05 -2.6399153e-05 -1.5272823e-05 5.822189e-06 2.1523054e-05 -2.7203747e-05 -4.2073265e-05 5.920946e-06
5.246092e-06 4.1312123e-05 2.4559638e-05 9.336845e-06 -1.4546949e-06 -2.218455e-05 1.7608394e-05 1.2643808e-05
-4.73171e-05 -1.2616561e-05 -2.1626529e-05 -4.9256578e-05 1.5181832e-05 1.7612088e-05 5.1704483e-06 -2.2396049e-05
2.157447e-05 -4.5267225e-05 -1.1377295e-05 -4.2550746e-06 -3.53014e-05 4.4264852e-06 2.2113414e-05 1.567189e-05
1.736068e-05 -3.822388e-05 -1.0656955e-05 -2.9487861e-05 -2.9632145e-05 -3.5583813e-05 -1.6968244e-05 3.2696687e-05
-5.799544e-06 3.2381577e-06 9.895122e-06 2.7827611e-05 6.557231e-06 1.4196412e-05 3.7216072e-05 6.209945e-06
4.068856e-05 7.057888e-06 4.444136e-06 -3.394606e-05 -1.0275162e-05 -3.452355e-05 1.7309529e-05 1.8100884e-05
2.6774767e-05 -6.8761074e-06 -4.289677e-05 1.6066702e-05 4.542561e-05 1.923847e-05 4.627018e-07 6.866362e-06
3.7930236e-05 9.26276e-06 -6.2710664e-05 -9.881636e-05 -2.5567952e-05 -1.1007535e-05 -2.401261e-05 -4.162236e-05
-1.0137956e-06 -9.198739e-06 3.948016e-05 1.8900839e-05 -1.24841845e-05 -5.772707e-05 1.2949515e-05 -2.2027813e-05
-2.1840537e-05 -2.997249e-07 -6.9855532e-06 1.7543913e-05 -8.4748353e-07 -2.2228367e-05 -4.240059e-06 1.7587794e-05
-3.527956e-05 2.1006126e-05 3.77259e-05 -1.8355031e-05 2.7128997e-05 1.3545369e-05 -8.61461e-06 5.7346733e-07
00000000: 202f 7fb7 d088 5bb6 be13 6437 21c8 2338
00000010: 4b4c 4c38 81a6 ceb7 344e dbb6 7875 b035
00000020: c070 e836 0224 b737 7464 05b8 4bdb 0bb8
00000030: ec34 ee36 a28d 5d37 fe1b 9bb7 0a94 e4b6
00000040: 4269 0b38 e04f fd36 4112 c837 7ae4 88b7
00000050: 5068 b7b7 9e35 0537 de94 a637 b142 0bb8
00000060: 275a 3837 22fb a5b7 8f22 1838 92f6 5138
00000070: be6d e736 d89c 1ab7 d8bf bdb6 9233 64b6
00000080: 5c8c 4d38 c073 ddb7 231e 80b7 395c c336
00000090: 688c b437 9a33 e4b7 d377 30b8 8aac c636
000000a0: 9607 b036 8e46 2d38 6c05 ce37 72a5 1c37
000000b0: f03e c3b5 f518 bab7 bdb5 9337 be20 5437
000000c0: 5976 46b8 b8ab 53b7 9e6a b5b7 d998 4eb8
000000d0: 79b5 7e37 acbd 9337 d07d ad36 26df bbb7
000000e0: d2fa b437 50dd 3db8 1ce1 3eb7 d0c6 8eb6
000000f0: 9710 14b8 3887 9436 3280 b937 2177 8337
00000100: c7a1 9137 9452 20b8 46cb 32b7 b35c f7b7
00000110: 8c92 f8b7 d43f 15b8 0757 8eb7 cd23 0938
00000120: b499 c2b6 204f 5936 3a03 2637 576f e937
00000130: 2f06 dc36 202d 6e37 7418 1c38 055f d036
00000140: 02a9 2a38 ccd2 ec36 d61e 9536 4e61 0eb8
00000150: 7c63 2cb7 61cd 10b8 ee33 9137 5ad7 9737
00000160: 609a e037 50b9 e6b6 0eec 33b8 fbc6 8637
00000170: 6187 3e38 4d62 a137 4069 f834 9a65 e636
00000180: 4817 1f38 4067 1b37 8883 83b8 a13b cfb8
00000190: c27a d6b7 01ad 38b7 b06e c9b7 ab93 2eb8
000001a0: c011 88b5 4854 1ab7 8097 2538 3e8d 9e37
000001b0: 2a73 51b7 f81f 72b8 be41 5937 5ec8 b8b7
000001c0: 3236 b7b7 e0e9 a0b4 7265 eab6 442b 9337
000001d0: a07e 63b5 0e77 bab7 d445 8eb6 8089 9337
000001e0: 24f9 13b8 5036 b037 e03b 1e38 21f9 99b7
000001f0: 1493 e337 eb40 6337 7887 10b7 60f0 1935

exp_avg_sq f4 [128]
6.99496e-08 7.85691e-08 1.8866885e-08 1.8594376e-08 7.810983e-08 1.7224808e-08 2.4923308e-08 3.4294834e-09
3.3956553e-08 1.6295509e-08 7.1197924e-08 7.815281e-09 1.3937776e-09 5.1617417e-09 2.960786e-08 1.7742646e-08
1.0452025e-08 6.12394e-08 9.808632e-08 6.316464e-09 1.0753852e-08 6.5541075e-09 1.7555672e-08 2.5397998e-08
1.3773273e-07 1.381777e-07 4.011604e-08 3.1517743e-08 2.1805011e-09 5.3513446e-08 3.8253926e-08 1.32367735e-08
2.4641462e-08 1.3356686e-08 1.2318327e-08 1.1243949e-08 7.5904545e-09 3.903063e-08 5.2530588e-08 1.111594e-07
6.5603567e-09 3.4077328e-08 4.7776596e-09 4.3895287e-08 8.186773e-09 1.2531606e-08 4.3842345e-08 6.684761e-09
2.8060914e-08 1.979411e-08 1.2969468e-09 1.1782273e-08 2.6852792e-08 3.9921932e-09 1.0953556e-07 1.2356114e-08
7.946231e-09 1.2368895e-08 1.132514e-08 2.1565398e-08 1.806238e-08 5.7740174e-08 2.4703784e-08 7.6728375e-09
4.86515e-09 3.7942055e-08 6.909457e-09 2.6066276e-08 4.9149183e-08 1.25135795e-08 1.4637015e-08 8.200664e-08
6.488968e-09 1.3388829e-08 6.9028565e-09 2.9527771e-09 6.932745e-09 4.4586482e-08 1.1342566e-08 2.6070431e-08
3.4680427e-09 5.2695994e-09 5.0224514e-08 4.30588e-09 1.222333e-08 4.288254e-08 1.5228947e-08 5.605336e-08
2.3844356e-08 7.049096e-09 1.4309627e-08 1.0037959e-08 1.5311695e-08 1.0606208e-08 5.0697448e-08 3.4457575e-09
2.9688584e-08 1.9879032e-08 1.5872821e-08 1.1831225e-07 1.7568217e-07 4.486443e-08 2.0993554e-08 7.306779e-08
2.0513664e-08 4.6996707e-08 1.01767434e-07 3.7776946e-08 1.0770544e-08 1.7044814e-08 4.1185096e-08 8.344301e-08
8.532477e-09 4.4881845e-09 1.5604746e-08 3.014217e-09 5.128356e-08 1.0761193e-08 4.76716e-08 7.684792e-08
5.652874e-09 9.225618e-08 7.336293e-08 1.9013367e-08 4.1990855e-08 1.3569215e-08 1.5237656e-07 4.8167563e-09
00000000: 3337 9633 d2b9 a833 b810 a232 77b9 9f32
00000010: 55bd a733 c1f5 9332 ef16 d632 1cac 6b31
00000020: a0d7 1133 34fa 8b32 79e5 9833 f843 0632
00000030: 318f bf30 295b b131 5f54 fe32 7e68 9832
00000040: 7e90 3332 b782 8333 86a3 d233 3408 d931
00000050: f1bf 3832 8a32 e131 55cd 9632 ca2a da32
00000060: afe3 1334 ff5d 1434 0d4c 2c33 205e 0733
00000070: c8d7 1531 a8d6 6533 a34c 2433 f267 6332
00000080: 26ab d332 5477 6532 93a0 5332 692b 4132
00000090: 2c67 0232 a2a2 2733 fe9d 6133 87b6 ee33
000000a0: 8269 e131 6b5c 1233 bd28 a431 6187 3c33
000000b0: cfa5 0c32 964a 5732 2b4d 3c33 c8af e531
000000c0: 9a0a f132 b507 aa32 4240 b230 fc6a 4a32
000000d0: eaa9 e632 b42b 8931 d039 eb33 c446 5432
000000e0: e583 0832 fa7e 5432 7e90 4232 d03e b932
000000f0: 9827 9b32 fefd 7733 3234 d432 7fd1 0332
00000100: 502a a731 bbf5 2233 3a68 ed31 59e8 df32
00000110: 1918 5333 4efb 5632 4676 7b32 a11b b033
00000120: 91f5 de31 b104 6632 2b2e ed31 cee9 4a31
00000130: 1235 ee31 5b7f 3f33 22dd 4232 7cf1 df32
00000140: 7452 6e31 e30f b531 70b6 5733 ecf2 9331
00000150: c6fe 5132 da2d 3833 cfd0 8232 52bf 7033
00000160: 4bd2 cc32 8134 f231 68d6 7532 6973 2c32
00000170: c686 8332 9936 3632 6fbe 5933 68ca 6c31
00000180: e305 ff32 74c2 aa32 b458 8832 d912 fe33
00000190: 26a3 3c34 f6b0 4033 5055 b432 71e9 9c33
000001a0: 0636 b032 6dd9 4933 3d8b da33 3140 2233
000001b0: 5a09 3932 f169 9232 7ee3 3033 4831 b333
000001c0: 3b96 1232 7d36 9a31 330b 8632 ab22 4f31
000001d0: df42 5c33 3ae0 3832 7abf 4c33 9707 a533
000001e0: 353b c231 5f1e c633 b38b 9d33 d652 a332
000001f0: 6f59 3433 0a1e 6932 f39c 2334 a380 a531
