results/NEWRun3/TrucksBehavior/TrucksBehavior-758320.onnx (onnx, 621598 bytes, 15 tensors)

86 f4 [69]
00000000: a331 cb3f c983 d23f a1a2 dd3f 2984 963a
00000010: d9e8 883e 3152 0f3f 8848 213f 0ecc aa3e
00000020: 3da5 443e d9e8 883e 2984 963a 7d29 063f
00000030: 6e11 fe3e 9dbf 173f 5887 9d3e 3152 0f3f
00000040: 7d29 063f 2984 963a d385 5b3e c127 2a3f
00000050: 85be c03e 8848 213f 6e11 fe3e d385 5b3e
00000060: 2984 963a d323 513f 29bd f63e 0ecc aa3e
00000070: 9dbf 173f c127 2a3f d323 513f 2984 963a
00000080: 2889 b33e 3da5 443e 5887 9d3e 85be c03e
00000090: 29bd f63e 2889 b33e 2984 963a f1d2 a13f
000000a0: b07c b03f 5e16 a33f c916 b63f 6e74 a33f
000000b0: 2a77 ba3f 8757 a43f 4008 bd3f b700 a53f
000000c0: b851 bf3f 5add a53f c7e3 c03f 38cb a63f
000000d0: c8e2 c13f 452c a83f 21b0 c23f 9fa5 a93f
000000e0: cd66 c33f 4775 ab3f 02ca c33f 0d2c ad3f
000000f0: 681c c43f 8431 af3f 1c8b c43f b147 b13f
00000100: b0a7 c43f 9052 b33f 9da4 c43f aa40 b53f
00000110: 5a37 c53f
1.5874523 1.6446468 1.7315255 0.0011483479 0.2674015 0.5598479 0.630013 0.33358806
0.19203658 0.2674015 0.0011483479 0.52407056 0.49622673 0.59276754 0.30767322 0.5598479
0.52407056 0.0011483479 0.21437769 0.6646691 0.37645355 0.630013 0.49622673 0.21437769
0.0011483479 0.8169529 0.48191193 0.33358806 0.59276754 0.6646691 0.8169529 0.0011483479
0.3506558 0.19203658 0.30767322 0.37645355 0.48191193 0.3506558 0.0011483479 1.2642499
1.3788052 1.2741201 1.4225703 1.2769907 1.4567616 1.2839211 1.4768143 1.2890843
1.4946814 1.2958176 1.5069512 1.3030767 1.5147333 1.313851 1.521 1.3253669
1.5265747 1.3395165 1.5296023 1.3529068 1.5321169 1.3686986 1.5354953 1.3850003
1.5363674 1.4009571 1.5362736 1.4160359 1.5407517

action_model._discrete_distribution.branches.0.bias f4 [6]
00000000: 735a 053f 7179 b13f a11c a03e b0dc 74be
00000010: 048e 7fbe 3c61 57c0
0.5209114 1.3865186 0.31271842 -0.2391231 -0.24956518 -3.3653097

action_model._discrete_distribution.branches.0.weight f4 [6, 256]
00000000: 255a eebc 6746 2bbd 8485 b53c b962 a93d
00000010: 9dc6 eabc bc94 80bc dfc9 a83c 66ee 2f3d
00000020: 60e2 293d 1e90 c03d 065e 11be fb0c edb9
00000030: 01d2 093b f71d 063c 8984 9fbd 36f0 86bd
00000040: a97e b23e 9b5d 713d 5d25 d93d f565 203c
00000050: c375 0d3d ba23 55bb f28e 01bd 25a5 d83d
00000060: b74f 11bd f2d0 c73d f62f 1a3c 0d8c b3bd
00000070: a2d8 8b3e d1c2 833e 1f5b 7abd a28c 093f
00000080: aeb8 cfbc 1f03 68bc e263 d13d 4b69 8fbc
00000090: 1cdd a6bd f25c 29bd 8690 7fbd 5476 ecbd
000000a0: f98b 783c 42da ab3e 9046 1c3c 9f79 9d3c
000000b0: a9c9 3e3d efaf 8ebd f5cb a6be cfe3 0bbd
000000c0: 5668 953e 0dbb d7bd 6b17 893a beaa 8abc
000000d0: 445e 53bd 871f 07bd d162 353c b912 0bbd
000000e0: 40dd 17bd e842 9c3d 493c 5c3e fbfd a5be
000000f0: 1f60 e9bc a97e 68bd 91aa 163c fe16 963d
00000100: 52ff 723e 4da1 4bbd ddf9 ea3b 55b9 143f
00000110: 051f 52bd 5394 2bbd 31dc 173d b421 503d
00000120: f55b 1dbe 77fc 44be dfd8 97bb 58d5 103c
00000130: fff6 42bd 76e1 073e 1cc6 4cbd e83f 84bd
00000140: 1e34 c53d 3a80 333e 4ded 47bc c9a1 3e3d
00000150: 6d70 343d d2a0 fc3c ce9a 8a3c ed10 25bd
00000160: 3859 f3bc a6be 343e b7f0 503c 4d75 80bd
00000170: 7056 433c 1ace 3dbd 72e3 cfbc f348 1ebb
00000180: 1dca b8bc 10ac 82bc 6a96 9cbd 6615 0e3d
00000190: fc72 fcbd 7656 9abd 79b7 d7bc ce2c 67bd
000001a0: a318 843d f2c0 643e 8347 4bbe 97ca f73e
000001b0: 2c3d 96bc c9c4 c23d 53e9 203d 981d 323e
000001c0: c071 36bd 9ecc 16bd 15b4 9a3d 8807 acbd
000001d0: 287a 8cbd 6ec9 2bbd b2a3 d23c 2454 543b
000001e0: f3fd 4f3e 9618 37bd 5f4d d93e 84f1 5dba
000001f0: 5521 f9bd 73fb 78bd d778 40bd a9f3 0d3e
00000200: d1b2 c4bd ce58 c7bd bad2 f6bc 1fc3 073c
00000210: bcb6 81bc 9edf c83d 81e1 d83b 9ead 6dbc
00000220: 1dda bbbc 2c48 fabc 5465 b53c 0c25 9b3c
00000230: 9838 02be 9179 2b3e b552 d3bc 0f2a 973d
00000240: e70d 15be 1149 1dbd 9de6 8fbc 9987 33bc
00000250: f2d0 71bd 2177 7dbd 06c5 fd3b ae30 1dbe
00000260: a0db 1cbd 71fa 6bbd a958 0f3a 6f4d be3e
00000270: bf99 2cbd fd30 483e 6946 9d3d 8dde 80bd
00000280: 38a0 923b 8534 40bd 6e0a c13b a8a4 153e
00000290: 875d 2b3e b607 0abd 9f30 0d3f 8acc 86bc
000002a0: 210b 13be d793 2a3e f664 eabd 24a6 b5bd
000002b0: c1fa 813d be60 313d 16d4 cdbc 3c74 4fbd
000002c0: 16a4 c73c 7ce8 06bd 5ebc 463b 8336 343e
000002d0: 0a43 9b3c 6321 74bd e861 32bd 1413 0bbc
000002e0: fdc1 58be 12d8 a13e 430c 1fbe 7516 18bd
000002f0: 976d 20bd b7bf fbbc f77d b8bc 333c 403d
00000300: 8de2 4ebc ff96 f7bd 785a 8cbd c593 413e
00000310: 1241 b33c f781 a2bc 3551 853e 365b e13c
00000320: acbd 1b3e 614f 9c3e 1ad9 463e cda3 bf3d
00000330: 223b e43b acda 13bd 326d 88bd 5d45 013d
00000340: 96bf f13d fd7d 2a3e c8c9 b4bd 1ed5 bb3e
00000350: 2250 1d3e 71cd 2dbd ea61 4dbe c79c 21bd
00000360: 2745 0fbe 8572 23bd fcc8 70be f916 7e3d
00000370: 50dd 38bd b8bd 36be 0625 debc c1ec 6fbb
00000380: 1295 1ebd 3f01 913d 0efe ccbd cc6b 88bd
00000390: 1078 65bc 4beb 19be b6e1 02bd 467b 1fbd
000003a0: ab4a 1cbd 51dd 713c faf8 1abd 8140 02bc
000003b0: 90d7 9abb bed8 d4bc 4bfa ae3c 7223 073e
000003c0: 872f e13d 31b5 e53d ca0d 1bbc 4e62 a43e
000003d0: 1e02 66bd 7bd6 8c3e 1cb6 173c 37fe 9b3b
000003e0: 1eea 153e 5550 9b3e 4467 843d a062 c5bd
000003f0: 35cf 96bc 1d51 12be 3b13 383e 994e a03c
-0.029095719 -0.041815188 0.022158392 0.08270783 -0.02865916 -0.015695922 0.020604072 0.042951964
0.041475654 0.09402488 -0.14196023 -0.00045213834 0.0021029713 0.008185855 -0.07788951 -0.06588785
0.3486226 0.05892716 0.106028296 0.009789933 0.034536134 -0.0032522515 -0.031630464 0.10578374
-0.035476413 0.0975665 0.009410849 -0.08766947 0.27313715 0.2573457 -0.061122056 0.53730214
-0.025356617 -0.0141609 0.10224129 -0.017506262 -0.08147642 -0.041348405 -0.062393688 -0.11546007
0.015170091 0.33564955 0.009538308 0.019223033 0.046579037 -0.069671504 -0.32577482 -0.034152802
0.29181165 -0.10533724 0.001045925 -0.01692712 -0.05160357 -0.03298905 0.011070923 -0.033953402
-0.037076235 0.07629949 0.21507372 -0.32420334 -0.028488217 -0.056761418 0.00919594 0.07328604
0.2373021 -0.049714375 0.0071708993 0.58095294 -0.051299114 -0.0418895 0.037075225 0.05081339
-0.1536711 -0.19236933 -0.0046340073 0.008839928 -0.047598835 0.132696 -0.04999362 -0.06457502
0.09629081 0.17529383 -0.012202573 0.04654101 0.04405253 0.030838404 0.01691952 -0.040299345
-0.029705629 0.17650852 0.012752703 -0.06272373 0.011922464 -0.046339132 -0.025377009 -0.0024152368
-0.022557313 -0.015951186 -0.07645877 0.034688376 -0.12326619 -0.07536022 -0.026332604 -0.056439213
0.064500116 0.22339228 -0.19851498 0.4839675 -0.018339716 0.0951019 0.039285015 0.17394102
-0.044542074 -0.036816232 0.07553879 -0.08399874 -0.06859237 -0.041940145 0.025712822 0.0032398785
0.20311718 -0.04470118 0.42441842 -0.00084664696 -0.12164561 -0.060786676 -0.04699024 0.1386248
-0.09604419 -0.09733735 -0.03012978 0.008286267 -0.015834205 0.098082766 0.006618679 -0.014506726
-0.022931153 -0.030551992 0.022143044 0.018938564 -0.12716901 0.16745593 -0.025796274 0.07381069
-0.14556085 -0.03839976 -0.01756602 -0.010957622 -0.059037156 -0.06188119 0.0077444343 -0.15350601
-0.03829539 -0.057611886 0.00054682285 0.37168452 -0.04213881 0.19549938 0.07679445 -0.06292448
0.004474666 -0.046925087 0.005891136 0.14613593 0.16734897 -0.03369876 0.55152315 -0.016454954
-0.14359714 0.16657959 -0.11445038 -0.088695794 0.06346656 0.04330515 -0.025125545 -0.05064796
0.024370234 -0.032936558 0.0030324678 0.1759892 0.018952865 -0.059602153 -0.043550402 -0.008488435
-0.2116775 0.3161016 -0.15532021 -0.03713079 -0.039167013 -0.030731065 -0.022521002 0.04693241
-0.012627256 -0.12089347 -0.06853193 0.18904026 0.021881614 -0.019837363 0.2603852 0.027509313
0.15209073 0.3052931 0.19418755 0.093574144 0.006965057 -0.036097214 -0.06661452 0.03156029
0.1180412 0.16649623 -0.08827549 0.36686033 0.153626 -0.042432252 -0.20056883 -0.039456155
-0.13991223 -0.039904136 -0.2351417 0.062033627 -0.045132935 -0.1784581 -0.027117264 -0.0036609622
-0.038716383 0.07080316 -0.100093946 -0.066611856 -0.014005676 -0.15031163 -0.031953536 -0.038935922
-0.038157146 0.014762239 -0.0378351 -0.007949949 -0.004725404 -0.025982257 0.021359583 0.13197115
0.10995393 0.112162 -0.009463737 0.3210625 -0.056154363 0.27507386 0.009259727 0.0047605294
0.1464009 0.30334726 0.06465009 -0.09637952 -0.01840935 -0.14288755 0.17976086 0.019568728

action_model._discrete_distribution.branches.1.bias f4 [6]
00000000: 821d c53f 63bf 923d f626 1fbd 5389 c93e
00000010: d561 ed3c 02aa 5dc0
1.539963 0.0716541 -0.038855515 0.39362583 0.028977314 -3.4635015

action_model._discrete_distribution.branches.1.weight f4 [6, 256]
00000000: 5459 b5bd 349e b2bd 6a3a 30bc 7faf 9a3e
00000010: 1555 c73d 728c b23b 6b8a b3bb b164 ef3d
00000020: 1c31 aabd e736 bcbd 9f62 0b3d ae84 dcbd
00000030: 1237 fa3d 02af d7bd 54af 8ebb 3bb5 1e3d
00000040: 8f23 a13e ff16 87bd 4419 ea3d 1e45 e63b
00000050: 843a 02bd 713e 1fbe a806 6ebd 2f1c 733e
00000060: d0e3 9cbc 31f4 633e 5481 453c 3d07 4ebe
00000070: 52db 55be 52da bbbd 98e2 c1bc ee4a cf3f
00000080: 3380 5f3d 43a5 60bd 2165 443c 288f c0bd
00000090: 2dd7 71bd fadc 913d 38c0 d43c e622 8b3d
000000a0: c3ec dcbb 886a 063d 3075 4d3e 9a58 04bd
000000b0: 7321 b63c 38b1 f8bb 0793 5dbe 49a4 d93d
000000c0: 926d 143f 4f3e 353d 25c6 5abe 0a8a ceba
000000d0: 50af eabb d7ca 823d fcb3 c6bd 530c 82ba
000000e0: f4f5 8dbd 3175 bf3c bc56 473f 852d cbbd
000000f0: ac1b c1bb f5d3 8b3c 44aa 253e be5c 153f
00000100: 9847 593d a5d6 813c b861 39bd b50f fe3d
00000110: 3ca4 8cbd 53a9 46bd 0f5f 3e3a 337e 7c3d
00000120: dc03 4bbd 3e89 743e 6ca0 8ebd f333 c4bd
00000130: 7276 0fbe 5ed8 8a3e f037 0c3e 4983 dfbd
00000140: 8529 833d bdd3 bf3d 440b acbd 15e3 b33e
00000150: d51d cfbd 7e0a 8abd 950b d33d 6f01 e2bd
00000160: 1440 a0bd 087a f53e ae91 a0bc d7f0 3a3c
00000170: 12bd e9bc 2f9c 19be 5f6a dc3d 1ce3 94bd
00000180: 42b5 e9bd 4d0c 933d 4e06 63bd 5b80 6f3d
00000190: 4123 d2ba 6faa 213e 4e15 94bc 4448 253b
000001a0: e9f5 663e 9669 f13d d460 02be 67f2 b83e
000001b0: 290f 613f 4216 cdbd 9c4d 983c 626c 253d
000001c0: 6d00 9abd 99df 2ebe 0000 fe3d 7e3c 083e
000001d0: ca8b fa3d 52f4 26bd 41a7 8ebd 7797 8e3e
000001e0: 0263 023d 38b9 e63d eeb0 233f 54b2 96bd
000001f0: 268f 2dbc 807b 96bd da4c aa3d d497 61be
00000200: a54a 993e 791d a43d d6dc acbe 362f 96bd
00000210: dfa6 8abc 6768 903e ccd1 b63c e861 1fbd
00000220: 47ec d53d 0e38 d9bd df95 57bc 4d3f 64bd
00000230: 90db c0bd a0e8 cdbd 0a88 e53c 1c8e 0b3d
00000240: 7eac 8abb e72d bbbd de26 58bd 147a 233e
00000250: 55ff df3e e7e9 0e3d fe21 b83d 01d3 4f3d
00000260: 64e1 04be 9b21 853e 7328 84bd 46dc 9d3c
00000270: 3717 f9bd 68d0 84bc 5542 9ebe 9035 ecbc
00000280: 7adc 543e 2509 b9bc ef93 40bd f3dd de3d
00000290: 57a9 4fbe 3d7d 843d b87d a63f 42e9 e9bc
000002a0: e761 89bb 6ab8 223d accf 233e b0fe a4bd
000002b0: 493e 81bd 70cf 8cb8 f126 95bd d6a9 febd
000002c0: acf3 1abd 9ffd 92bd a631 81bd e3e8 f83d
000002d0: b5a0 b2bd 7350 953d 7cd6 bfbd d1b5 2f3e
000002e0: 1b93 7abe 1275 1f3e 435d 3b3e 4cb3 04be
000002f0: 5572 9abd 6f45 a0bd eb1e c4bd b00a 0fbe
00000300: a9f6 9ebd 82b8 58be a457 07be 1206 3fbb
00000310: 8688 a4bd 09b6 bf3d dae0 29bd 5a80 563d
00000320: c286 473e 6b98 0e3e 3535 463e 4349 76bd
00000330: dff8 5d3d 0ab9 b6bc a408 993d d11a 95bc
00000340: 017d 4dbd e117 e6bd bdb2 21be d4d6 c63e
00000350: 8e0e 893d edf2 fabd 03d3 27bc 0cde 0ebe
00000360: f8e3 34be c464 0dbe 4212 debd 5b73 15bd
00000370: 5919 5a3c 3c7c 53be f07d 81bd fefb 6ebd
00000380: 288a 2fbd 2467 90bd 13c4 d73c eeed 6d3d
00000390: 8c11 153d 6ea5 3c3d 24dc a0bd b832 2abd
000003a0: 97e7 423e 2642 9ebe 32a5 5dbd 92ea 82bd
000003b0: 791a fe3d d0fe 09bc b25c 1a3c 3a43 3cbe
000003c0: 4e73 4cbd 660d a0bc 710d 21be ba1d 673c
000003d0: a202 193d 0150 83be 7e88 e7bc 06b5 e2bd
000003e0: b4d4 80be e6c1 fb3d e7f0 0b3e 5c79 463d
000003f0: b1d3 863d bb3e b13d c741 63be 971e 8cbd
-0.088549286 -0.08721581 -0.0107561145 0.30212018 0.09733025 0.0054488713 -0.005479147 0.11689127
-0.08310148 -0.09190159 0.0340296 -0.10767494 0.12217535 -0.10531427 -0.004354397 0.038747054
0.31472442 -0.06596183 0.114306 0.0070272824 -0.031794086 -0.15551163 -0.058111817 0.2374122
-0.019151598 0.2226112 0.01205476 -0.20119949 -0.20884445 -0.09172501 -0.023667619 1.6194742
0.05456562 -0.054845106 0.011987002 -0.09402305 -0.0590431 0.07122226 0.025970563 0.06793766
-0.0067420914 0.03281644 0.20064235 -0.03231106 0.022232747 -0.0075894855 -0.21638118 0.10627038
0.5797969 0.044248875 -0.21364649 -0.0015757692 -0.007162012 0.06386345 -0.09702298 -0.0009921886
-0.069316775 0.02337131 0.7786672 -0.099207915 -0.0058931913 0.017068842 0.16178232 0.5834464
0.053046793 0.01584942 -0.045259207 0.1240534 -0.06867263 -0.048501324 0.00072620896 0.06164379
-0.049564227 0.23880479 -0.06964192 -0.09580221 -0.14010027 0.271182 0.13693213 -0.109137125
0.064044036 0.09366558 -0.08400586 0.35134187 -0.10113112 -0.067402825 0.103049435 -0.1103543
-0.07824722 0.47944665 -0.019600715 0.01140996 -0.028532539 -0.15000986 0.10762476 -0.0726988
-0.11411525 0.071800806 -0.055425934 0.05847202 -0.0016032235 0.15787672 -0.018076565 0.0025220076
0.22554745 0.11787717 -0.1273225 0.36122438 0.8791376 -0.10014011 0.018591695 0.040386565
-0.075196125 -0.17077483 0.12402344 0.13304326 0.12233694 -0.040760346 -0.06965495 0.27849934
0.031832702 0.112657964 0.6394185 -0.07358232 -0.010593211 -0.073477745 0.083154395 -0.22030574
0.29939762 0.08013434 -0.33762234 -0.073332235 -0.016925273 0.28204653 0.022316836 -0.03891173
0.10445457 -0.10606395 -0.013158291 -0.05572443 -0.09416878 -0.10054135 0.02801897 0.034071073
-0.0042319885 -0.091396146 -0.05277144 0.15964538 0.4374949 0.034891035 0.089908585 0.05073834
-0.12976605 0.260022 -0.064530276 0.019270074 -0.12162631 -0.016212657 -0.30909982 -0.028834134
0.2078723 -0.022587368 -0.04701608 0.10882177 -0.20279442 0.064692 1.3007116 -0.028553609
-0.004192579 0.039726652 0.1599719 -0.0805639 -0.06310708 -6.7143585e-05 -0.07282818 -0.124347374
-0.03783004 -0.07177281 -0.06308298 0.121537946 -0.08722059 0.07290735 -0.093670815 0.17159201
-0.24470179 0.15572003 0.18297295 -0.12959021 -0.07541338 -0.078257434 -0.0957621 -0.1396892
-0.077618904 -0.21164134 -0.13217026 -0.0029147905 -0.08033852 0.09360892 -0.0414742 0.0523685
0.19485 0.1392533 0.19356234 -0.06012846 0.05419242 -0.02230503 0.07472351 -0.018201264
-0.05016804 -0.11235023 -0.1579084 0.38835776 0.06692229 -0.12253366 -0.01024318 -0.13951892
-0.17665088 -0.1380797 -0.10843326 -0.036486965 0.013311707 -0.2065286 -0.06322849 -0.058345787
-0.042856365 -0.070509225 0.026338613 0.058088236 0.036393687 0.046056204 -0.078544885 -0.041552275
0.19033657 -0.30909842 -0.05411262 -0.06392397 0.12407393 -0.008422568 0.009421514 -0.1838502
-0.04991465 -0.019537639 -0.15727784 0.014106208 0.037356026 -0.25646976 -0.028263327 -0.11069684
-0.2516228 0.122928426 0.13666116 0.04845558 0.06583346 0.08654543 -0.22193061 -0.06841772

action_model._discrete_distribution.branches.2.bias f4 [6]
00000000: e754 f53f 6330 54bf 2621 63bf ed45 683f
00000010: eb08 f6bd a52f 52c0
1.9166535 -0.8288633 -0.88722456 0.907317 -0.1201342 -3.284158

action_model._discrete_distribution.branches.2.weight f4 [6, 256]
00000000: e2e9 1cbe 9f89 ebbd 4f87 183d 2381 85bd
00000010: 0b74 1cbd 19ad 863d 1952 903d ed06 2f3e
00000020: 29cc f73d a28f ad3c e22b 353b 2636 14bc
00000030: 16c9 03bd f637 13bd 9c2c 0c3d a379 dc3d
00000040: e012 cc3d 1659 3d3d 7c42 b03d e742 673d
00000050: 0380 073d 652e 04bc 10cd b4bb 13cf c83c
00000060: ccc3 c93c fec0 e3bd 05af 003c 31ed d93d
00000070: 3ffd 7b3d d347 423d ae73 a33d 49a5 933f
00000080: 9be9 70bd 1cd9 053d 0515 453d 3bcf 35bd
00000090: 7fba 15bb b8a5 1cbd b893 d33c e1d6 e8bd
000000a0: 53b0 593c cd57 31bc 1973 f03d 03b6 013d
000000b0: b113 11bd 3596 d53d dd9c f0be 36bb 67be
000000c0: abbf fd3e 4f75 9c3d b23b 273e da10 803d
000000d0: 675f 883d 902e 6b3d ece4 89bc cbf1 e4bc
000000e0: 579a f23c 154c 3abe 209d ac3f 579f 8b3e
000000f0: 50d1 c33c e4e9 2abd fc54 243d 56c0 2d3f
00000100: 0f64 40be c7c8 61be 78b6 5b3c 9149 8f3e
00000110: d95c 86bd 3c2e b5bb c80f 863d f0db 14bd
00000120: 9ee6 acbd 8245 50be 0310 f13c 7e3e 443c
00000130: bf15 b23d d221 293c fd96 bebd 77ed 033d
00000140: 3f56 5f3e 81c0 bf3d 091f b83b 8ed7 fa3d
00000150: 0c38 453d db8e f8bb dd08 59bd ac78 f03c
00000160: 52ad 10bc 6bc1 d53e e7a8 693d 496c 5c3d
00000170: c88f 303d 2b64 fbbc 6f1c b03d 0dea bf3c
00000180: b523 933c a97d 45bc 754a b9bd e483 2c3c
00000190: c90c cabd 32ae f73b 4935 af3d 9c81 51bc
000001a0: 652c 54be 321d 1b3e f889 70be 8ae2 743d
000001b0: c667 f53e aa8b 7c3d 8af1 293c 4f59 d4b9
000001c0: dd41 cfbc abb5 56be 662c 76bc a8ec 08be
000001d0: 7c65 17bc 7c64 983c a1de 113d 0369 a93e
000001e0: 462d 793d cdfd c03d 33b3 9b3f e0c6 2cbc
000001f0: c6fb f8bd 38f8 db3e 6a36 26bd a864 adbd
00000200: 7fb7 e93d e262 aebd f371 8d3c f61b 3a3d
00000210: d2b4 153d 1367 493e d238 6e3d 5961 013d
00000220: f50b dfbc 07e5 913e 9495 4c3d b5db 1b3d
00000230: 3590 33be 183f b63d 1418 a93d 1ccf 573d
00000240: d8f2 603e a36f 2e3d c9f3 acba c20e 24be
00000250: 3b78 b13e 2239 fabd 2ed5 af3d 2e5f 7c3c
00000260: 47a9 b1bb 6d3f f43e e0f0 9cbc 4621 683e
00000270: 0fbe 40bd 2a5a 563d 12f8 85be a85e 503c
00000280: a239 79bd 4318 153d b5cc 2f3e f99c 84bc
00000290: 33c9 46be 1283 ba3b 901d ea3f c091 083d
000002a0: f496 d83d 42cd 96bd e626 703e 1484 a03d
000002b0: 0f9a b73b 2179 d73d 9d57 4e3d 52aa bebb
000002c0: 56cc 3abe a52d 143b a8b1 d83b db7f 2abd
000002d0: 86cf f3bc 854a 9f3d 4b5e 50bc 35fe b03d
000002e0: 634b debd 2fce 173d 49a4 1d3e 9abf a23c
000002f0: dfbe b0bc 5351 6bbc cb3f 0ebc a6b7 973d
00000300: 8d38 0abd dabd e93d 7fa7 30be e51f d43d
00000310: b69d 0a3b 1148 ce3d 1ff2 89be 4f67 503d
00000320: 9ee1 763d ddd8 b5bc 2092 b3bd ea60 b2bd
00000330: 7ba0 7abd 065b 833d ebc2 03bb bda9 eb3d
00000340: a348 3fbe dd92 f8ba 3b34 7fbe 4134 f33d
00000350: d8df 403e 37e1 bfbc 4474 66be 30ff d73c
00000360: c3f5 a4bc 4685 843d 9bd4 81bc d3dd 8c3a
00000370: 4fb1 f13e 0881 5fbe d099 0d3d ba52 e53c
00000380: 483c 993c 3f67 fabd 4322 17bd 36cb 6fbb
00000390: 8756 3c3d 92c4 62bd 3e62 b6b8 3572 2e3d
000003a0: 90ed 42be 10b7 acbd cf42 8f3e e1f3 7d3d
000003b0: 02d4 1dbe fd8b fe3c c5ad a73b fe99 f5bc
000003c0: 2009 9c3c 7d9d 2c3d b996 20bc 3471 8d3e
000003d0: 614b 693c aa02 983e 0321 8b3d 339f 4d3d
000003e0: a887 033d b0b3 d43d 9f2b b33d 7ee5 c33d
000003f0: 8769 02be 8d4c f7bd a64a 763d 718c bebc
-0.15323594 -0.115008585 0.037238415 -0.065187715 -0.038196605 0.065759845 0.07046909 0.17092486
0.12099487 0.021186654 0.0027644564 -0.009046113 -0.032174192 -0.03594204 0.03422223 0.10765388
0.099645376 0.046227537 0.08606431 0.056460287 0.033081066 -0.008067702 -0.0055176094 0.024512803
0.024629496 -0.11120795 0.007854228 0.10640944 0.06152081 0.04743178 0.079810485 1.1534816
-0.058816534 0.032677755 0.04811575 -0.044387084 -0.0022846756 -0.03824398 0.025827274 -0.1136911
0.013286668 -0.010824156 0.11740703 0.03166772 -0.03541917 0.1042904 -0.46994677 -0.22630009
0.49560294 0.07639562 0.16331366 0.06253214 0.066588216 0.057417452 -0.016832791 -0.027947327
0.02961461 -0.18193085 1.3485451 0.27270004 0.023903519 -0.04172696 0.04012011 0.67871606
-0.1878817 -0.22049247 0.013410203 0.27985814 -0.06560678 -0.005529193 0.06545979 -0.03634256
-0.08442424 -0.20339015 0.02942658 0.01197779 0.08695554 0.010323005 -0.093061425 0.032208886
0.21810244 0.09362889 0.005618934 0.12248145 0.048149154 -0.007585389 -0.05298697 0.029354416
-0.008830385 0.4174913 0.057045843 0.053814206 0.04310587 -0.030687412 0.08599173 0.023427034
0.017961362 -0.0120538855 -0.09047405 0.010529492 -0.0986572 0.0075586075 0.08555085 -0.012787249
-0.2072006 0.15147856 -0.23490131 0.059786357 0.47930735 0.06165663 0.010372529 -0.0004050233
-0.02529996 -0.20967738 -0.015025234 -0.13371527 -0.009240504 0.018602602 0.035612706 0.3308793
0.06083419 0.09423409 1.2164062 -0.010545462 -0.12157397 0.42962813 -0.040579237 -0.08466464
0.11411952 -0.08514954 0.01726625 0.045436822 0.036549397 0.19668226 0.058159657 0.03158698
-0.027227381 0.28495046 0.049947336 0.038051326 -0.1753548 0.08898753 0.08256546 0.05268775
0.21967638 0.042586934 -0.0013195212 -0.16021255 0.3466204 -0.122179285 0.08585583 0.015403552
-0.0054217908 0.4770464 -0.019157827 0.22668943 -0.047056254 0.05233208 -0.26165825 0.01271788
-0.06084598 0.03640009 0.17167933 -0.016188132 -0.19412689 0.0056918943 1.8290272 0.033342123
0.10575667 -0.073633686 0.23452339 0.07837692 0.005603082 0.105211504 0.050376523 -0.0058186436
-0.1824201 0.0022610214 0.006612975 -0.04162584 -0.02976204 0.07777885 -0.012717794 0.08642236
-0.108542226 0.037061866 0.15394701 0.019866753 -0.02157539 -0.014362651 -0.008682202 0.07408075
-0.033745337 0.114131644 -0.17251395 0.10357646 0.0021151132 0.10072339 -0.26942536 0.050879773
0.06027376 -0.022198135 -0.087681055 -0.08709891 -0.061188202 0.06413846 -0.0020105194 0.115069844
-0.18680052 -0.0018964667 -0.24922268 0.11875201 0.1883539 -0.02342282 -0.2250529 0.0263668
-0.02013672 0.064707324 -0.015848449 0.0010747261 0.47205588 -0.21826565 0.034570515 0.027993549
0.018705502 -0.12226724 -0.03689791 -0.003658963 0.045980956 -0.055363245 -8.696735e-05 0.042589385
-0.19035935 -0.08433354 0.27980658 0.06200016 -0.15412906 0.031072611 0.0051171505 -0.029980656
0.01904732 0.04214238 -0.00980156 0.2762543 0.014239163 0.29689533 0.06793406 0.050200652
0.032111794 0.10385835 0.087485544 0.095652565 -0.12735568 -0.12075148 0.060129784 -0.023260327

discrete_action_output_shape f4 [1, 3]
00000000: 0000 c040 0000 c040 0000 c040
6.0 6.0 6.0

network_body._body_endoder.seq_layers.0.bias f4 [256]
00000000: f63b 59bf 1f64 6abf 94ab 9ebf 7620 b4bf
00000010: b257 a1bf 409f 16bf 69f3 b0bf 5dc3 143f
00000020: af6d 6abf 894a 32be a68e a8bf 7e2f 74bf
00000030: 588c a1bf b066 c9bf bde0 59bf 04ec 4fbf
00000040: d306 d4bf 80b1 c5bf 8df8 b23f 2bb1 b2bf
00000050: 21c5 e8bf 200e f1be 02be babd a43b e9be
00000060: 2338 8d3f e33a 81bf 207d c7bf 69a0 a7bf
00000070: 198d 91bf 3c80 49bf 9410 cabf 2e2c 1fbf
00000080: 1dec 5cbf b7c7 2fbd 5418 89bf 109d 55bf
00000090: 80d2 a2bf 569f 80bf ada8 72bf 5b68 a7bf
000000a0: 396d 27bf 9b3d 80bf 2e60 70bf f2a5 cabf
000000b0: dcef b8bf 643a 9abf 88a5 b8bf 8828 babf
000000c0: 43a0 0140 dd2b afbf ae25 93be bb46 b4bf
000000d0: 31f4 4fbe 329c a6bf 38c8 85bf 7d94 aebf
000000e0: cfdb 6dbf fb14 94bf 5908 acbf e212 d93c
000000f0: be6f 60bf 2530 aabf 51e8 88bf 45c0 b5bf
00000100: 12ca 1dbe 22a4 51bf e652 4bbf d119 8cbf
00000110: 60ad 29bf a97f 9abe 167e bcbf 4577 a9bf
00000120: d7a0 d0bf 350e d6bf 57a6 9fbf 89ea aebf
00000130: 04db d7bf 3dce d0bf eb2d adbf bd93 a6bf
00000140: a060 8bbf 63f9 d2bf 04f0 acbf db9d f3bf
00000150: fd30 79be e22b abbf 26be dcbf 19d7 d8bd
00000160: 73af bcbf dfca 8bbf 871a 15bf c854 9ebf
00000170: f6c6 82bf 20e1 53bf c73f 95bf 8d20 47bf
00000180: 27c2 a03d c613 69bf e148 83bf f11c bb3e
00000190: 684e e4bf 5f08 13be 31d6 96bf 6c28 b3bf
000001a0: 0a21 b4bf 6333 8cbf 54a4 0e3f e527 9fbf
000001b0: ed74 babf 0202 9abf 1631 b7bf 2368 f2be
000001c0: 8cc5 76bf 033c b3bf 2289 4b3f fa89 98bf
000001d0: 4e9e 44bf 7fdf 153e 92e8 61bf 5150 7cbf
000001e0: 498f cfbf 47e4 96bf 3aca 23bf e2b6 9bbf
000001f0: cb58 61bf 7188 80bf fe56 9dbf 0943 4ebf
00000200: acea 85bf ec50 a1bf 6bdc 5dbf a7b8 cebf
00000210: d78a b5bf 31fe dbbf 21e2 a7bf b8bf a2bf
00000220: 1798 e4bf 4197 9ebf 091d a7bf aa4b 4abf
00000230: 078c b7bf 5688 bbbf a92b 8abf 8dad f33d
00000240: ca76 bdbf 46d6 99bf 8207 8f3e 0bd8 b3bf
00000250: 76a6 61bf 8db5 d93d 7cb3 1cbe 7c15 ac3e
00000260: 90d8 92bf 9bf6 d8bf 5b64 7dbf 1cd2 89bf
00000270: 7bf6 b0bf 6070 a5bf de5c b7bf 35cb a6bf
00000280: 37de b1bf c0fb c3bf fa8d 9fbf 694e 25bf
00000290: 4981 c1bf fcca c0bf be5f a8bf b22b 91bf
000002a0: 8957 47bf d864 bdbf c053 9ebf 17e7 a8bf
000002b0: e33b 4740 ff8e 80bf 5a4a b5bf 2930 f83e
000002c0: ad38 c0bf a309 11bf 1961 c7bf f8c0 babf
000002d0: 4bde c73e d7e6 3fbf a517 21be 2434 5abf
000002e0: d3cb 2abf ea69 c8bf b6b3 f4be 192b 4abf
000002f0: 3f57 5fbf 4ab1 c2bf 92cd 9bbf d92b c0bf
00000300: 89bb 94bf 2ccf b7bf 5485 f33d 42ae 90bf
00000310: 3f34 98bf 9251 cebf ff01 bcbf 1438 b6bf
00000320: 33f5 9bbf c6ca 8abe 7cb8 35bf debd 93be
00000330: c694 c9bf 39c6 babf 44a1 e8bf a4c4 9cbf
00000340: f04d 713f 0ef5 9dbf 1a46 bbbf f48c bebf
00000350: 590d d8bf 5fe0 a9bd 90fe d8bf 90e7 cdbf
00000360: 80a0 babf 0db2 63bf bbeb 26bf f1ff 73bf
00000370: 3f36 8bbf d2eb b6bf 414d cabf 7627 0bbf
00000380: d865 b2be 6980 9abf 05df a6bf a684 dcbf
00000390: 257d b2bf d506 b3bf 0689 abbf 259c 82bf
000003a0: e348 86bf 29ba b3bf f467 f6be 34f8 8abf
000003b0: cca6 c1bf 4d5e 6f3f 57b5 f9bd d681 41bf
000003c0: 84de fa3f c382 b6bf 2616 b8bf e7a0 91bf
000003d0: 8d22 9dbe ed6c c6bf 912f 96bf 9909 e3bf
000003e0: dcd1 acbf 6ed4 a7bf 6dac 79bf 85a9 b0bf
000003f0: 4116 b2bf ae64 b8bf f353 d0bf 37ef a4bf
-0.8485712 -0.9155902 -1.2396111 -1.4072406 -1.2604887 -0.58836746 -1.3824283 0.581106
-0.91573614 -0.17411245 -1.3168533 -0.9538497 -1.2620955 -1.5734463 -0.8510855 -0.81219506
-1.6564583 -1.5444794 1.3982102 -1.3960317 -1.8185159 -0.4708109 -0.09118272 -0.45553315
1.1032757 -1.0096096 -1.558506 -1.3095828 -1.1371185 -0.78711295 -1.5786309 -0.6217679
-0.8629778 -0.042915072 -1.0710549 -0.83442783 -1.272049 -1.0048625 -0.9478863 -1.3078722
-0.65401036 -1.00188 -0.9389676 -1.5831892 -1.4448199 -1.204907 -1.4425516 -1.4543619
2.0254066 -1.3685261 -0.28739685 -1.4084085 -0.20307995 -1.3016417 -1.0451727 -1.3639065
-0.92913526 -1.1568903 -1.3440048 0.026498262 -0.87670505 -1.3295943 -1.0695897 -1.4199301
-0.15409115 -0.8189107 -0.7942337 -1.0945379 -0.66280174 -0.30175522 -1.4725978 -1.3239523
-1.6299084 -1.6723086 -1.2472638 -1.3665324 -1.6863713 -1.6312939 -1.3529638 -1.3013836
-1.0888863 -1.6482357 -1.3510747 -1.9032549 -0.24335094 -1.3372767 -1.7245529 -0.105879016
-1.4741043 -1.0921286 -0.582436 -1.2369623 -1.0216968 -0.8276539 -1.1660088 -0.77784044
0.078495316 -0.91045797 -1.0256616 0.36545518 -1.7836428 -0.14358662 -1.1784116 -1.3996711
-1.4072583 -1.0953182 0.55719495 -1.243405 -1.4566933 -1.2031863 -1.4311855 -0.47345075
-0.9639518 -1.4002689 0.79506123 -1.1917107 -0.76804054 0.14636038 -0.882455 -0.98560053
-1.6215602 -1.1788415 -0.6398045 -1.2165186 -0.8802611 -1.0041639 -1.2292173 -0.8057104
-1.0462241 -1.260282 -0.86664456 -1.6150101 -1.4182996 -1.7186948 -1.3115884 -1.2714758
-1.7858914 -1.2389909 -1.3055736 -0.79021704 -1.4339608 -1.4650981 -1.0794574 0.118983366
-1.4801877 -1.2018516 0.27935416 -1.4050306 -0.88144624 0.10630331 -0.15302843 0.3361014
-1.147234 -1.6950258 -0.98981255 -1.0767245 -1.382522 -1.2924919 -1.4325216 -1.3030764
-1.389594 -1.5311203 -1.2465203 -0.6457277 -1.511758 -1.5061946 -1.3154218 -1.134146
-0.77867943 -1.47964 -1.2369308 -1.3195523 3.1130302 -1.0043639 -1.4163315 0.48474243
-1.5017296 -0.5665533 -1.5576507 -1.4590139 0.39036784 -0.7496161 -0.15731676 -0.8523581
-0.6671726 -1.5657322 -0.4779336 -0.7897201 -0.872425 -1.5210354 -1.217211 -1.5013381
-1.1619731 -1.4360099 0.11890665 -1.1303179 -1.1890944 -1.6118643 -1.4688109 -1.4235864
-1.2184204 -0.2710783 -0.70984626 -0.28855795 -1.5748527 -1.4591743 -1.8174214 -1.224751
0.9425955 -1.234041 -1.4630768 -1.4886765 -1.6879073 -0.082947485 -1.6952686 -1.6086292
-1.4580231 -0.8894356 -0.65203446 -0.9531241 -1.087593 -1.4290717 -1.5804826 -0.5435709
-0.34843326 -1.2070438 -1.303681 -1.7227981 -1.3944441 -1.398646 -1.3401191 -1.0203902
-1.0490993 -1.4041187 -0.48126185 -1.0856996 -1.5129027 0.93503267 -0.12192791 -0.7558874
1.9599156 -1.4258655 -1.4381759 -1.1377228 -0.30690423 -1.5501992 -1.1733266 -1.7737304
-1.3501544 -1.3111703 -0.97528726 -1.3801733 -1.3913041 -1.4405725 -1.6275619 -1.2885503

network_body._body_endoder.seq_layers.0.weight f4 [256, 69]
00000000: 2d11 e63e 50b3 043f 9365 553e d60a e13d
00000010: c831 78bf 9f77 63bf b7a8 98bf 8611 49bf
00000020: 8786 7ebf d713 79bf 137a d53d b88b 81bf
00000030: e0a5 5abf ad8b 7abf 342f 96bf cb53 7abf
00000040: 7fa4 69bf fcee 793d 9f1d 80bf 82ad 83bf
00000050: 62b5 7ebf 043f 7bbf c303 95bf b2ec 61bf
00000060: 97a6 613e 1ceb 59bf 571e 90bf 8c24 77bf
00000070: b633 7bbf 683b 29bf ed62 96bf a600 4bbe
00000080: c1b7 6bbf d46b 8dbf 8838 6bbf a895 7bbf
00000090: 8060 74bf 2d6f 66bf 5c8d dfbd 06f1 eebe
000000a0: ac55 9a3e 8661 823c 8867 ccbd 35ed c93c
000000b0: 3acc d7be 90fa e03e 4e43 6d3e 8a09 983e
000000c0: 2ea6 e2be 65a1 75be 71de 28bd b314 af3f
000000d0: 921e 42bf 3e91 0bbf 93f8 333f 1fb5 933e
000000e0: 71e2 57be 404e e1bd 5eec fe3e b0f5 79bf
000000f0: da4a 273c 6d69 123f 57a9 ca3d c7b9 c63e
00000100: 89bd 223e e783 db3e 61d9 31bf 3135 3abe
00000110: de92 b03e 641d bb3e 48dd 9a3f e9dd f83e
00000120: 4fe3 92be 3e7f 8ebf 771a 80bf 733d 8bbf
00000130: a2fd 6cbf b41a 85bf 5ef7 91bf 1a76 e9bd
00000140: 5bc8 79bf 6ac9 75bf d8ff 71bf 2e89 6bbf
00000150: effc 77bf f32c 72bf 2df3 463d 5316 80bf
00000160: c45a afbf 1419 5fbf 6a4e 63bf 20e1 6dbf
00000170: 2c4e 96bf 850e 2dbe d66e 8dbf 6b7e 84bf
00000180: fab6 85bf d87e 97bf 5870 81bf bd23 83bf
00000190: 463c b93b d9e5 8bbf b74a 74bf 029f 90bf
000001a0: ab8d 89bf 1028 73bf ee90 74bf 330a 8cbd
000001b0: 09ac f23e 0663 f9be 9ff3 0dbe 58f7 15bf
000001c0: c7e5 85be 1ee9 94be f343 f7bd e8d1 01bf
000001d0: 2662 053f c468 63bf 4d09 bdbe 41ad 0cbf
000001e0: ccc4 49be 8d1c 8d3e e2bc 363d 63c4 d73e
000001f0: cf6f c13d 1ba0 84bf 3a93 433d 2af0 83bf
00000200: f147 20bf 00a3 1a3e a33d c0be 1dc1 de3d
00000210: 791b 36bf ab26 2e3e 4d2e f5bd 3ab4 6dbf
00000220: c3f6 b8be af84 afbe d63e e33e 464f 213f
00000230: 9b20 603d f97e a5bd b428 b3bf 99db b8bf
00000240: 8efc c2bf bfa7 b2bf f240 bdbf cefd bcbf
00000250: 88f0 2abe 351d c3bf 1dda bebf 1ad1 b4bf
00000260: 07fe c6bf e583 a6bf 8bd7 a5bf fb4b 023e
00000270: 227c a8bf 83fc adbf 2bed b2bf d4c0 b2bf
00000280: 8127 a2bf b287 aebf fa9c ec3d 81ae b2bf
00000290: 69cf aebf edb6 c4bf 3dc6 b2bf e3c7 b2bf
000002a0: 6db8 c4bf e080 933e 3820 c9bf ee8f 98bf
000002b0: 7f6f aebf f7bc a7bf 630c 97bf a26b cabf
000002c0: 6c57 34be 3a49 cb3e 80b6 31bd c45f aabe
000002d0: 3ff9 a13d 0076 b0be f519 3d3e b98f 823e
000002e0: bbcb e9be 748c 86bd 481e a23e 0ada 963e
000002f0: bba0 493e 6253 34be 7b48 74bf f67b 53be
00000300: 121c 53bf 8a3b a6bd 4b57 f1be c147 a9bb
00000310: fe0c 49be 3fe5 2ebf a43d 48be 2703 38bf
00000320: 7a83 bebd 82ca 4bbf ff4d 40be b9a5 07bd
00000330: 78fe 283c 6343 35be c5da 03bf 65db 6c3f
00000340: 9c69 4e3e 31ff dc3f 80db 3f3d 2890 d6bf
00000350: 2cdc bbbf 1284 cdbf b582 d3bf 1490 abbf
00000360: fd47 b2bf b13d 89be b462 a6bf 85b5 cfbf
00000370: 76c3 ccbf c913 b1bf 5281 cfbf 8cfa babf
00000380: 213e 3cbe 8385 bbbf b62f cdbf 2716 c0bf
00000390: 2087 c1bf bd29 cfbf 4fa6 ccbf a2a6 2dbe
000003a0: 3f24 bbbf 12e9 d8bf 2b14 cdbf 7e7a cabf
000003b0: 3492 ccbf c93d a0bf ac75 113d ac5a b4bf
000003c0: 96d2 d7bf 0d78 c6bf f9f5 bdbf 0c17 bdbf
000003d0: 6e53 b6bf 3390 273d 0cf8 c33e c98c 5cbf
000003e0: fdf4 56be 8b71 1abf fa4f a9be b716 a6bd
000003f0: 26ba c13d 28bd b2bc 28b2 243f 3724 60be
0.4493498 0.5183611 0.20839529 0.10988395 -0.9695096 -0.888544 -1.1926488 -0.78542364
-0.9942402 -0.972959 0.104236744 -1.0120764 -0.85409355 -0.9786938 -1.1733155 -0.9778411
-0.91266626 0.06101893 -1.000904 -1.0287325 -0.9949552 -0.9814303 -1.1641773 -0.88251793
0.22036205 -0.85124373 -1.1259259 -0.9654014 -0.9812578 -0.6610627 -1.174894 -0.19824466
-0.9207726 -1.1048532 -0.91883135 -0.9827523 -0.9545975 -0.9001339 -0.10915634 -0.4666826
0.30143487 0.015915643 -0.099806845 0.024649242 -0.42148 0.43941164 0.23170206 0.29694778
-0.4426741 -0.23987348 -0.04122776 1.3678192 -0.75827897 -0.54518497 0.7030117 0.28849122
-0.21082474 -0.11001253 0.4978971 -0.97640514 0.010210717 0.57192117 0.0989558 0.38813612
0.15892614 0.4287407 -0.6947232 -0.18184353 0.3448705 0.3654586 1.209878 0.48606804
-0.28689048 -1.1132581 -1.0008076 -1.0878128 -0.9257451 -1.0398774 -1.1403615 -0.11399479
-0.97571343 -0.9601046 -0.9453101 -0.92006195 -0.9687032 -0.9459984 0.048571754 -1.0006813
-1.3699574 -0.8714764 -0.88791525 -0.9292164 -1.1742606 -0.1690007 -1.104945 -1.035108
-1.0446465 -1.1835585 -1.011241 -1.0245281 0.005652937 -1.0929519 -0.95426506 -1.1298525
-1.0746359 -0.94983006 -0.95533645 -0.06837883 0.47396877 -0.4870836 -0.13862465 -0.5858054
-0.2615187 -0.29084104 -0.12073507 -0.50710917 0.5210289 -0.88831735 -0.36921158 -0.54951864
-0.19703978 0.27560845 0.044613726 0.4214202 0.09445154 -1.036136 0.047747828 -1.0307667
-0.62609774 0.15101242 -0.37547025 0.10876677 -0.7113567 0.17006938 -0.11971722 -0.9285313
-0.36125764 -0.34280917 0.44383878 0.63011587 0.054718595 -0.08080859 -1.3996797 -1.4442016
-1.5233324 -1.3957442 -1.4785445 -1.4764955 -0.16693318 -1.5243288 -1.4910313 -1.4126313
-1.5546273 -1.3009001 -1.2956403 0.12724297 -1.3162882 -1.3592685 -1.3978628 -1.3965096
-1.2668306 -1.3635161 0.115533784 -1.3959504 -1.3657047 -1.5368325 -1.3966748 -1.396725
-1.5368782 0.2880926 -1.5712957 -1.1918924 -1.3627776 -1.3104542 -1.1800655 -1.5814097
-0.17611474 0.39704305 -0.043386936 -0.33276188 0.07908868 -0.34465027 0.18466933 0.25500277
-0.45663247 -0.06569758 0.31663728 0.29463226 0.1969022 -0.17609933 -0.95423096 -0.20652756
-0.82464707 -0.08116825 -0.47136912 -0.0051660244 -0.19633862 -0.6831855 -0.19554764 -0.7187981
-0.09302421 -0.7960588 -0.18779753 -0.03311703 0.010314576 -0.17701487 -0.5150569 0.9252227
0.20157474 1.7265378 0.04684019 -1.6762743 -1.4676566 -1.605593 -1.6524264 -1.3403344
-1.3928219 -0.2680488 -1.2998872 -1.622727 -1.599715 -1.3834163 -1.621134 -1.4607711
-0.18383075 -1.465012 -1.6030185 -1.500676 -1.5119362 -1.6184613 -1.5988253 -0.16958097
-1.4620436 -1.6946127 -1.602178 -1.5818632 -1.5982118 -1.2518855 0.03551261 -1.4090171
-1.6861141 -1.5505387 -1.484069 -1.4772658 -1.4244211 0.040909003 0.38275182 -0.8615232
-0.20991893 -0.603295 -0.3306883 -0.08109801 0.09459333 -0.021818712 0.64334345 -0.21888815

network_body._body_endoder.seq_layers.2.bias f4 [256]
00000000: 2b09 22bf 514a 5dbf 43e6 4d3e 52cb b9be
00000010: 8872 dcbe 3637 9dbe 90a3 dfbe f0fd 2dbf
00000020: 19ab 1ebf 9d2b 49bf a2c5 22bf ed92 40bf
00000030: 2899 3ebf 432a 01bf 8e56 5cbf d432 10bf
00000040: bf06 01bf 5f05 7cbe 8b3f 043c f14e d1be
00000050: 4bb0 2cbf 8d93 7cbe 43f2 64bf 4a91 51bf
00000060: ae55 e4bb b7ec 33bf c9dd 1d3c a897 00bf
00000070: 3b67 5dbf 5e7d 22bf 1813 2cbf f820 76bf
00000080: 9f10 e9be 80f5 c93f 6659 2bbf 969a 85be
00000090: d14d dcbe cdf6 fabe 2b2e 3c3d d6db 0fbf
000000a0: 80df 7dbe 652f 5dbf 3996 0ebf b952 53bf
000000b0: 7063 03bf 735f f2be c639 65bf 7401 47bf
000000c0: 82c6 3cbf 7ee7 1abf 1207 32bf af2e b1be
000000d0: f982 0cbf 946e dabe 5124 67bf 2192 42bf
000000e0: db92 8fbf baf3 43bf da60 3cbf 6856 16bf
000000f0: d0f0 75bf c00a 36bf 4a5e a9be e93f 28bf
00000100: 82ad c0be f27e aabe 632e 34bf 45ed 48bf
00000110: b336 8abf a87d ddbe 2e7b 88be a49e 6abc
00000120: 6f62 1ebf bd6f 0c3e 7dd0 08bf f16e 13bf
00000130: 2e41 29bf 1f88 6dbf 29c4 44bf fd1c 19bf
00000140: 818b 53bf a37d 18bf 28c6 f3be 4842 15bf
00000150: 7d7d 61bf 2869 6abf 1bc1 69bf 6ab5 29bf
00000160: 25a4 18bf 24c1 50bf 2543 35bf f984 6ebf
00000170: ecda 00bf b219 31bf a678 d8be 7351 06bf
00000180: 0077 2cbf 15e5 30bf 1959 14bf 9512 1dbf
00000190: 45fb 05bf 8c32 2ebf 114d 49bf 9fbf 10bf
000001a0: dce0 eabe 0a0f 8bbf 61c3 1cbf b078 a7be
000001b0: dcb8 56bf 3007 2dbf 8f8c e23e 6533 2ebf
000001c0: de0b 4fbf c0f1 28bf aba8 06bf 43be 26bf
000001d0: 7bb8 63bf badb 8ebf 6f2b 55bf 26d8 d5be
000001e0: 8ced 30bf 925b 43bf 15a8 5ebf c526 19bf
000001f0: 861d 3cbf f86e f0be b3b5 afbe 5510 10bf
00000200: ebee 41bf d25f 63bf c0c2 40bf e42e 10bf
00000210: f059 2ebf ba59 4fbf 725f fcbe acc6 09bf
00000220: 42cb 05bf 7d9c 0dbe 48e1 40bf 64ae 18bf
00000230: b78d 02bf 8d11 25bf e52c f7be b222 12bf
00000240: 07e0 fabe d569 17bf c62e 16bf c4df 13bf
00000250: 24e2 2abf 5ef1 2fbf 18df 7ebf f3dc 7ebf
00000260: 3983 b4be e504 2cbf 82aa e9be 2974 d2be
00000270: b9a9 0cbf f90e 3bbf f537 e2bd ad36 bbbe
00000280: a5cc 41bf 0d15 19bf 7320 1fbe 0610 51bf
00000290: 4da2 26bf 8167 043d 5516 a5be 6c3a 5ebf
000002a0: 2852 23bf 4f46 11bf 4745 1fbf f2e0 03bf
000002b0: a9de 04bf 4180 4dbf 9bf5 2dbf ee92 eebe
000002c0: 35f3 67be e88a 2ebf c994 39bf 25bd a3be
000002d0: fc62 fc3e 4850 34bf 3c9f 48bf 4037 16bf
000002e0: 02b1 39bf f3de 28bf c2eb d53c dda6 2dbf
000002f0: 7b26 09bf a686 4cbf e585 76bf d9c3 51bf
00000300: 18f8 33bf c5cc 2bbf d8d6 3cbf 073c 4bbf
00000310: d505 c2be 2981 6dbf d085 20bf e630 32bf
00000320: 7e33 f3be ed1a 2bbf 15d5 32bf fcb8 3abf
00000330: ef3c 49bb 795b dcbe e5e8 c8be e27b b6be
00000340: 8708 eebe f751 3abe 719e 02bf dbdf 1ebf
00000350: dce7 3ebf 6b12 55bf 4d91 103f ed75 3cbf
00000360: e52d 0ebf 0cbd 5cbf f810 70bf ea4f 82be
00000370: d55b f2be 8b0a c6be 4362 c3be bee5 3ebf
00000380: 0b2e 30bf 1a27 3cbf d7ed 25bf 9b67 84bf
00000390: 09bd 16bf d22c 0abe 7644 14bf b90a 0ebf
000003a0: 6f24 63bf a8d1 24be ee74 28bf 38dc 5ebf
000003b0: 0016 26bf ffee 15bf 2fcc 09bf 8c26 29bd
000003c0: e95b 06bf 23b8 cd3f 44d6 6bbf 8e5e 4ebf
000003d0: 3265 67bf 376d 12bf 9787 0cbf 1b3e 40bf
000003e0: da1d 3abf f3b2 f5be 41e5 05bf 327a 51bf
000003f0: 2a48 54bf aab3 11bf 9bea 49bf 3847 cfbe
-0.6329524 -0.8644152 0.20107369 -0.36287934 -0.4305613 -0.30706185 -0.43679476 -0.679656
-0.61979824 -0.78582174 -0.63582814 -0.7522419 -0.7445245 -0.5045511 -0.8606957 -0.5632756
-0.5040092 -0.24611424 0.00807179 -0.4088054 -0.674565 -0.24665661 -0.8943216 -0.8186232
-0.0069682216 -0.70283073 0.009635397 -0.5023141 -0.8648564 -0.63472545 -0.67216635 -0.96144056
-0.45520493 1.5778046 -0.66933286 -0.26094502 -0.4302812 -0.4901642 0.045942467 -0.5619482
-0.2479229 -0.86400443 -0.5569797 -0.825481 -0.51323605 -0.47338447 -0.8954128 -0.7773659
-0.737404 -0.6050948 -0.6954204 -0.3460593 -0.5488735 -0.4266249 -0.9028979 -0.76004225
-1.1216692 -0.7654377 -0.73585284 -0.58725595 -0.96070576 -0.71110153 -0.3307975 -0.6572252
-0.37632376 -0.33299977 -0.7038328 -0.78487045 -1.0797943 -0.4325993 -0.2665648 -0.014320049
-0.6186895 0.137145 -0.5344313 -0.5759116 -0.6611508 -0.9278583 -0.76861817 -0.5980986
-0.8263474 -0.59566706 -0.4761212 -0.5830426 -0.88082105 -0.91566706 -0.9131028 -0.6629244
-0.59625465 -0.8154471 -0.7080558 -0.9317165 -0.5033405 -0.6917983 -0.42279547 -0.5246803
-0.6736908 -0.6909955 -0.5794845 -0.6135648 -0.5233653 -0.6804588 -0.7863322 -0.5654239
-0.4587468 -1.0863965 -0.61235625 -0.32709265 -0.83875823 -0.6758909 0.44247863 -0.6804717
-0.8087748 -0.6599388 -0.52601117 -0.65134066 -0.8895337 -1.1160805 -0.832694 -0.4176647
-0.6911247 -0.763116 -0.8697522 -0.5982478 -0.7348255 -0.46959662 -0.34318313 -0.5627492
-0.75755185 -0.88818085 -0.75297165 -0.5632155 -0.68105984 -0.80996287 -0.4929157 -0.53818774
-0.5226327 -0.13829227 -0.7534375 -0.596411 -0.5099749 -0.64479905 -0.4827644 -0.5708419
-0.48999044 -0.5914586 -0.5866512 -0.57763314 -0.66751313 -0.6872767 -0.99559164 -0.9955589
-0.35256365 -0.6719497 -0.456379 -0.41104248 -0.54946476 -0.7306972 -0.11045829 -0.36565152
-0.7570289 -0.59797746 -0.15539722 -0.81665075 -0.650914 0.03232527 -0.322436 -0.86807895
-0.63797235 -0.5674791 -0.62215084 -0.51515114 -0.5190225 -0.80273825 -0.6795289 -0.46596473
-0.2265137 -0.68180704 -0.72492653 -0.31980243 0.4929427 -0.70435 -0.7836797 -0.58678055
-0.7253572 -0.65965194 0.026113395 -0.6783274 -0.5357434 -0.7989296 -0.96298057 -0.81939465
-0.70300436 -0.6710933 -0.73765326 -0.7938847 -0.37895074 -0.9277521 -0.6270418 -0.69605863
-0.47500223 -0.6683796 -0.6985639 -0.72938514 -0.0030706485 -0.43038538 -0.39240184 -0.3564139
-0.4649088 -0.1819533 -0.5102301 -0.62060326 -0.7457254 -0.8323123 0.5647171 -0.7361744
-0.5553878 -0.8622596 -0.9377589 -0.25451595 -0.47335687 -0.3867992 -0.38160905 -0.7456931
-0.68820256 -0.73497164 -0.6481604 -1.0344118 -0.58882195 -0.1349366 -0.57916963 -0.5548511
-0.8872747 -0.16095603 -0.6580342 -0.8705478 -0.6487732 -0.58567804 -0.53827184 -0.041296527
-0.52483994 1.6071819 -0.9212382 -0.8061303 -0.90388787 -0.571979 -0.54894394 -0.75094765
-0.727018 -0.4798809 -0.5230294 -0.8182708 -0.82922614 -0.5691477 -0.78873605 -0.40484023

network_body._body_endoder.seq_layers.2.weight f4 [256, 256]
00000000: 6942 b83c e0fb f83c 9814 aebd 1238 e33e
00000010: ccc4 263f 0d23 883e 9bc4 a03e f5e0 babd
00000020: a8e7 52be efd4 efbe a023 fcbe 0ea8 7dbe
00000030: 28ae 1d3f 8aa7 d13e 976e 56be 4c98 4fbd
00000040: 1651 a73e 0fcc fe3e 9568 34bf 88f2 603e
00000050: 1d74 6f3e 9d3b f8be e40c a0be b152 ac3c
00000060: dfa8 f7be f228 fe3c abae 813e 90d9 71be
00000070: 80ce 6a3d 6064 dbbe 0911 a6bd fcf8 aa3e
00000080: 6bb9 423e 7d3f eebe 8f73 a03e 4975 03be
00000090: ed9f e33e 39ed b23e 120e a9be aacf 3f3f
000000a0: 044f 483f f2b9 b73e a257 473f e028 b03e
000000b0: 4f24 1cbb 08b4 93be fc09 9c3e 4de7 093f
000000c0: 5c89 36bf 5028 3bbe fef8 04be 653b 81be
000000d0: 9cec ecbd 84b3 933e 969d bdbd 3393 c43e
000000e0: d2a6 923e d2e9 73be 8351 d83e 8226 4abd
000000f0: 9cb2 a3be 06f0 933e 3b5a f6bc 1eb4 94bd
00000100: a3ec 47bf 708e f73e 1159 773c 5c65 bebe
00000110: c051 5abe e0b4 01bf feaa 123f e830 0cbe
00000120: 9825 f23e 41ac a43e 539b ca3d babc a03d
00000130: 2a9c 0b3f 792e cb3e 0506 e83e 00db dd3d
00000140: 721a ba3e 5527 603e b746 893e 4ff0 ef3d
00000150: 9bfa b1bc 0bd8 413e 6046 bf3e f1b3 18bd
00000160: fe94 9a3e 4ec3 b73e 7482 a2be 6dfd 053e
00000170: 1f89 da3e 5cc0 0c3e 2363 2c3e aba6 c23e
00000180: 46e5 5cbe c754 2c3f 350e 233f 8f48 96be
00000190: 949f f43e d2ab 01bf 9482 9b3d ce66 e13d
000001a0: 27d4 2cbd b8c8 cb3e a9b3 be3e 5d9e 263e
000001b0: 23eb dbbd 9627 2d3f 3dca 3a3f 2265 bcbc
000001c0: 37f4 053f 0e82 333e c502 07bc 02cc 103f
000001d0: 48bf 1dbe 6e82 d8be c769 653d 0c11 b23e
000001e0: cae3 393d 6b90 34bc 9ce7 913d 5c52 243d
000001f0: 7b16 da3e 881d c9bc 1294 fd3e f4d8 b63e
00000200: ddb7 0ebe dd52 92be 7a31 47be a20e 283f
00000210: 54b9 de3e 7fd3 5c3e 937a 5c3e ec3d 9e3e
00000220: 4a42 2f3d 30ae bd3e a439 af3d bf19 793d
00000230: 2e1a 52be 7c4f db3e 8f4f 1c3e 1d2f 11bf
00000240: a405 01bf 1156 fb3e 63ed 25be 4c5b 1c3f
00000250: 8034 1e3e d12e 86be 4c9d f63d 38ed 473e
00000260: a3d4 063e ba36 7c3e ecc9 b23e fc42 143e
00000270: d3c8 923e 0642 99be 5c8f 993e f4b8 cd3e
00000280: cd7c c63d 11b8 7b3e df0f bd3e 90aa 033e
00000290: 5a44 233e d2fe da3e d4d4 4b3e 6cde c5bd
000002a0: a542 093e 1572 db3e 073a 6fbe b5b1 cb3d
000002b0: 3143 26bf f337 7b3a 1fb9 363d 5c43 8bbe
000002c0: 8d5a 283f a8b5 cdbe 1e99 0c3f 917e bc3e
000002d0: b6ab 13be 147a b6bd ec3c 9a3e a90d 193e
000002e0: 0757 49bf 9ec3 133e db84 33bf 7e99 1e3e
000002f0: 7d49 053f a3f8 823e 7b53 07be 1d35 c43d
00000300: 744d cb3e a1eb 173f e424 cf3e 5b68 6ebd
00000310: e253 1c3e 49e1 813e 7338 223d e6e2 553e
00000320: 6f3b b3bd 28d7 af3e b2d1 4b3c 287e bfbc
00000330: 2dab a33e 1f16 303e fb50 c63e ce89 7a3e
00000340: 43f2 77be 59da 12be bc01 bc3e 1de4 1c3f
00000350: 37a6 7f3d 5322 55be e6bf 2b3e 3b63 6b3d
00000360: a7cd 5f3e 3b2d 143f 5bc7 37bd 4589 51be
00000370: 2c43 4c3e cb6d 493f b56b 913e 5e95 8f3e
00000380: 9dca 58be 76a5 143e 4df6 623e 02a1 9d3c
00000390: c9a1 833d fee0 723e 5fb9 35be 37a8 f53e
000003a0: fedc 32bc 9f07 8dbe 067a 17be 0112 22be
000003b0: d69c c4bd 2085 1dbf c015 42be fbbb 903e
000003c0: fb05 ddbe 3bef 333c 96bf bb3e 9074 fd3d
000003d0: 39e8 23bf 043c a93e 7a86 c4bd cc9f b93e
000003e0: 664a ec3e 326f 183f aac2 2c3e 9541 2a3e
000003f0: fe65 aa3e 4749 d13e 7417 bf3d ea79 79bd
0.022492604 0.03039354 -0.08500022 0.44378716 0.6514404 0.26589242 0.31399998 -0.091249384
-0.20596182 -0.46842143 -0.4924593 -0.24771139 0.61593866 0.40948135 -0.20940624 -0.05068235
0.3267905 0.4976506 -0.7047208 0.21967518 0.23384137 -0.4848298 -0.31259835 0.021035524
-0.48371026 0.031025384 0.25328574 -0.2361815 0.05732584 -0.42850018 -0.08108718 0.33393085
0.19016044 -0.46532813 0.31338164 -0.1283771 0.4445795 0.34946612 -0.33018547 0.74926245
0.7824557 0.35884053 0.7786809 0.34406185 -0.0023825353 -0.2884829 0.30476367 0.5386856
-0.71303344 -0.18277097 -0.12985608 -0.25240627 -0.11568567 0.28847897 -0.09258573 0.38393554
0.286429 -0.23819664 0.42249689 -0.04935313 -0.31972206 0.2889406 -0.030072322 -0.07260917
-0.78095454 0.4835086 0.015096919 -0.37186706 -0.21320248 -0.5066662 0.57292163 -0.13690531
0.47294307 0.3216267 0.09892907 0.07848497 0.5453516 0.39683893 0.45317093 0.108327866
0.363483 0.21890004 0.26811764 0.11715757 -0.021725943 0.1893007 0.3735838 -0.03728098
0.30191797 0.35891193 -0.31740153 0.13084956 0.4268274 0.13745254 0.16834693 0.38017783
-0.21571836 0.6731686 0.63693553 -0.29352233 0.47777998 -0.506528 0.07593265 0.110059366
-0.04219451 0.39801574 0.37246445 0.16271348 -0.10738208 0.6763853 0.7296484 -0.022997443
0.5232577 0.1753008 -0.008240406 0.5656129 -0.15405 -0.4228701 0.05600908 0.3477863
0.045383252 -0.01102076 0.07124254 0.040117607 0.42595276 -0.024550214 0.4952703 0.35712397
-0.13937326 -0.28578845 -0.19452468 0.6564733 0.4350077 0.21565054 0.21531133 0.30906618
0.042787828 0.37046957 0.08555916 0.06081557 -0.205178 0.4283408 0.15264724 -0.56712514
-0.5039923 0.490891 -0.16203837 0.6107681 0.15449715 -0.26207593 0.12041721 0.19524086
0.13167052 0.24630252 0.3491968 0.14478678 0.28668842 -0.29933184 0.29992187 0.4018017
0.096917726 0.24581935 0.3692617 0.12858033 0.15944043 0.42772537 0.19905406 -0.09661564
0.13404329 0.42860475 -0.2336198 0.09946004 -0.64946276 0.0009583227 0.04461014 -0.2719983
0.6576317 -0.40177655 0.5492114 0.36815313 -0.14420971 -0.08910003 0.30124605 0.14946617
-0.7864842 0.14430091 -0.70124596 0.1548824 0.5206526 0.2558032 -0.13215439 0.09580443
0.3970753 0.59343916 0.40457833 -0.05820499 0.15266374 0.2536719 0.039604615 0.20887336
-0.087515704 0.3434384 0.012440132 -0.023375586 0.31966534 0.17195939 0.38733658 0.24466631
-0.2421351 -0.14341106 0.36720073 0.61285573 0.062414374 -0.20813875 0.16772422 0.05746768
0.21855794 0.57881516 -0.044867855 -0.2046252 0.19947499 0.78683156 0.28402486 0.28043646
-0.21171041 0.14516243 0.22164269 0.019241814 0.064273424 0.2371864 -0.17746495 0.479799
-0.010916946 -0.27544877 -0.14792642 -0.1582718 -0.096002266 -0.6153126 -0.1895361 0.28268418
-0.43168625 0.01098233 0.36669606 0.12375748 -0.6402622 0.330536 -0.09595962 0.36254728
0.46150512 0.5954467 0.16871133 0.1662658 0.3328094 0.4087622 0.09330645 -0.060907282
