results/NEWRun3/TrucksBehavior/TrucksBehavior-499884.onnx (onnx, 621598 bytes, 15 tensors)

86 f4 [69]
00000000: 61b7 d63f d7f6 d63f ed98 df3f 9862 b93a
00000010: 54a0 a83e e985 303f 82a5 463f 5959 d23e
00000020: e92e 723e 54a0 a83e 9862 b93a 073e 253f
00000030: 8676 1c3f 1fe7 3a3f a705 c23e e985 303f
00000040: 073e 253f 9862 b93a 5b30 873e f88e 513f
00000050: bc60 ed3e 82a5 463f 8676 1c3f 5b30 873e
00000060: 9862 b93a 60c9 803f 0ff3 173f 5959 d23e
00000070: 1fe7 3a3f f88e 513f 60c9 803f 9862 b93a
00000080: b41b dd3e e92e 723e a705 c23e bc60 ed3e
00000090: 0ff3 173f b41b dd3e 9862 b93a 62e5 a03f
000000a0: 925d ba3f 589e a13f 8dc6 bd3f acab a13f
000000b0: c73a c03f 399f a23f bf17 c13f b387 a33f
000000c0: cd0c c23f 3edb a43f 8182 c23f 2b11 a63f
000000d0: 19d7 c23f a0b7 a73f b045 c33f 365d a93f
000000e0: 8ffd c33f 6273 ab3f f818 c43f f43b ad3f
000000f0: 325d c43f 0954 af3f 2dbf c43f c380 b13f
00000100: aab3 c43f b77a b33f 96c4 c43f e562 b53f
00000110: cb49 c53f
1.6774713 1.679408 1.7468544 0.0014143763 0.3293482 0.6895433 0.77596295 0.41083792
0.23650707 0.3293482 0.0014143763 0.6454777 0.6111835 0.7300891 0.37894937 0.6895433
0.6454777 0.0014143763 0.2640408 0.8185878 0.46362865 0.77596295 0.6111835 0.2640408
0.0014143763 1.0061455 0.59355253 0.41083792 0.7300891 0.8185878 1.0061455 0.0014143763
0.43185198 0.23650707 0.37894937 0.46362865 0.59355253 0.43185198 0.0014143763 1.2570002
1.4559805 1.2626448 1.4826218 1.2630515 1.5017937 1.2704841 1.5085372 1.2775787
1.5160156 1.2879407 1.5196077 1.2973989 1.5221893 1.3102913 1.5255642 1.3231571
1.5311755 1.3394587 1.532012 1.3533921 1.5340941 1.369752 1.5370842 1.386742
1.5367329 1.4021825 1.5372493 1.4170805 1.5413145

action_model._discrete_distribution.branches.0.bias f4 [6]
00000000: b490 683f 7a66 623f 99a8 4e3d c126 c5bd
00000010: 4059 2cbe 2f15 15c0
0.908458 0.88437617 0.050453756 -0.09626532 -0.16830921 -2.329418

action_model._discrete_distribution.branches.0.weight f4 [6, 256]
00000000: 007e 57bd cfae 40bc 1c7e 783c 522c 463e
00000010: 7bc7 163d 55da edbc 647d 853c 8fe7 8b3d
00000020: 5ef8 38bd 80ba 4ebd a024 81bc 7370 ddba
00000030: 6bce 6d3d 573b 88bc 6d5f bdbd bd2e 95bd
00000040: 9445 a43e dac4 7bbd bc0a c03d 598e 29bc
00000050: b567 b43c 5e94 aebb 21c7 2fbd c903 1c3e
00000060: 48db 0abd d68e ee3d a940 b1bc 236e 19be
00000070: db59 423e dae8 343e e4c6 61bd 0133 f33e
00000080: f47a 17bd e576 83bc 3bd8 f23d 65bf 9cbc
00000090: 4744 adbd 47ff c3bc ea38 4bbd f11c 05be
000000a0: c5ad 39bb a037 763e 6d91 6e3d 774e 59bb
000000b0: a386 943d 8b9a 99bd f467 ecbc 24a5 013d
000000c0: ecac 503e 80cc aabd beed 983d 2790 56bc
000000d0: 6de6 8bbd 2f35 33bd 3fe6 32bc 94d2 b23d
000000e0: 7ed4 4a3d 9b65 a53d b6ab cb3e 4498 a6bd
000000f0: 2817 33bd dde5 55bd 15ba a23c b423 833e
00000100: d176 7c3e 8097 14bc 3b15 48bc bb2e e73e
00000110: 5fe3 c0bc 5bac c1bc b7a6 0d3c 6c16 a73d
00000120: 3541 eabd 825c b1bd aefa ffbc 081d 12bc
00000130: 693d d3bc 7b0d 8c3e 9d9f ecbc babe 80bd
00000140: 6c73 523d ec5a 4e3e f2cd cebc 280f 63bc
00000150: e2fc 153d e21f 173d cf4a 163c e1f0 65bc
00000160: 8fe7 3bbd 2ac5 5d3e 9087 5cbb 2993 acbd
00000170: 6fe0 893b 3890 22bd 763a 2cbd 2aa5 ffbc
00000180: 4ae1 16bd bf98 48bc 5442 29bd b408 0e3e
00000190: a567 07be 38c7 a7bd cccc 24bd 3c5e 1dbd
000001a0: 05e1 853d a6df 183e d773 1bbe 0c00 f93e
000001b0: b98c 2c3e 52da c63c 8917 fa3b cc14 023e
000001c0: 0cef 5bbd 5320 ecbd 2a34 c53d ede9 99bd
000001d0: 6a46 9dbd 99ba 68bd 2570 5ebc 5a96 cb3d
000001e0: 16af 5b3e b045 54bd 4ad9 dd3e adea 50bc
000001f0: b2c0 c3bd 3573 3c3d 0c3c cfbd 4c51 1a3e
00000200: 80e1 08bc 276b 5ebd bd5d 80bd 8aa3 82bc
00000210: a2f6 adbc 7d83 193e 5268 bf3b 0551 04bd
00000220: c50e 473c 71cd 82bd f0a5 06bc c946 dfbc
00000230: 0b45 52be 1818 6d3e 9b6c 94bc 9710 1f3d
00000240: 1d80 34bd 2934 57bd 40bd 07bd 83b5 57ba
00000250: fb84 a1bd a9c8 bcbd dcf3 983c 52df 08be
00000260: 1221 13bd 365d c13d c5f5 33bc f4a8 9d3e
00000270: 1609 d7bc deb6 173e 933b b13d 95e9 78bd
00000280: 9d11 803d dfa0 bebd 1923 053e ff0a e53d
00000290: 37b0 523e 42da 6bbb d035 3f3f d2dc afbc
000002a0: 6258 fdbb f517 273e e1a9 74be 9974 64bd
000002b0: 6bc4 ed3d 030a fb3c 485d 75bd b93f 52bd
000002c0: e20e b83d 9131 8abd cd76 14bd 601b ab3d
000002d0: bbc5 34bb 81d9 b2bd 7e3f 30bd f1be 2fbd
000002e0: ede4 78be 0cd5 b23e 814d 07be ac2b 69bd
000002f0: c046 56bd 813e 38bd d5ba c8bb b419 f53d
00000300: 8951 aebc 3714 53bd 788f fabd 3ea3 463e
00000310: f9bf 153c ca4a 36bd 86a5 a43e e712 743c
00000320: a080 023e 09bd cf3e 70c8 473e dfd1 8a3d
00000330: a4a9 093d 0b2b 5fbd 90d2 50bd b0a8 2dbd
00000340: 5caa 033e 5961 493e f9b5 0cbe d7de ba3e
00000350: 950d 573d 9047 0cbd 8e2c 35be b09d 6ebd
00000360: 6a17 88bc a6f3 483b 3f89 80be 5a2d 9a3d
00000370: e046 d13d cb00 1cbe e159 5f3c 6769 b2bc
00000380: 5e31 21bd 80b0 0b3d 2a93 c5bd bb62 85bd
00000390: 2c51 45bc d969 4fbe 7074 5bbd 51fe 1bbd
000003a0: 6b8e 233c 14ac be3d 9341 4ebc 904d 45bd
000003b0: cccb 2fbc 8a96 05bd c096 afbb 8782 7a3d
000003c0: 66ef d93d 496f fb3d a7b6 55bc cab9 483e
000003d0: fa91 39bd c23a 203e 094f 26bc 1ad6 dcbb
000003e0: 5891 8f3e c5f8 9d3e d767 433c afaf b1bd
000003f0: 850c 7f3c 646c fcbd dcce 2b3e 3f17 1f3c
-0.052610397 -0.011760428 0.015166786 0.19352844 0.036811333 -0.029034773 0.016295142 0.06831276
-0.045158736 -0.05047083 -0.015764534 -0.0016894474 0.058058184 -0.016629858 -0.09246717 -0.07284305
0.32084334 -0.06146703 0.093770474 -0.01034888 0.022022108 -0.0053277453 -0.042914513 0.15235819
-0.03390053 0.116483375 -0.021637278 -0.1498342 0.1897959 0.17666951 -0.055121318 0.4749985
-0.03698249 -0.016047904 0.11857649 -0.019134233 -0.084602885 -0.023925437 -0.049614824 -0.12999322
-0.0028332334 0.24044657 0.058244158 -0.003315834 0.072522424 -0.0750018 -0.028858162 0.03165163
0.20378464 -0.083397865 0.07467221 -0.013095892 -0.068310596 -0.04375189 -0.010919153 0.08731571
0.049519055 0.0807602 0.39779443 -0.08134511 -0.043723255 -0.052221168 0.019864121 0.25613177
0.246547 -0.009069324 -0.012212093 0.4515284 -0.023545919 -0.023641756 0.008645705 0.081585735
-0.114382185 -0.086602226 -0.031247463 -0.008918054 -0.025786119 0.27354035 -0.028884703 -0.06286378
0.051379606 0.20151871 -0.025244687 -0.013858594 0.03661812 0.03689564 0.009173109 -0.014034481
-0.04587513 0.21657243 -0.0033650137 -0.08426506 0.004207663 -0.03968832 -0.04204794 -0.031206686
-0.036835946 -0.012243449 -0.04132302 0.13870507 -0.13223131 -0.08192295 -0.040234372 -0.038419947
0.0653706 0.14929065 -0.15180908 0.48632848 0.16850556 0.024274025 0.0076322 0.12703246
-0.05369477 -0.11529603 0.0962909 -0.07515321 -0.07679446 -0.05681858 -0.013576542 0.09940787
0.21453509 -0.05182427 0.4332984 -0.012751264 -0.09558238 0.046008307 -0.10118875 0.15070075
-0.008354545 -0.054301407 -0.06267879 -0.015947122 -0.021235768 0.14991565 0.0058412934 -0.03230383
0.012149517 -0.06386841 -0.0082182735 -0.027255433 -0.2053415 0.23153722 -0.018118193 0.03883418
-0.04406749 -0.05253998 -0.033139467 -0.00082286465 -0.07886692 -0.092179604 0.018670969 -0.1336644
-0.03592021 0.09441607 -0.010983889 0.30792964 -0.02624945 0.14815852 0.08653941 -0.060769636
0.062533595 -0.093080275 0.1300167 0.11183738 0.20575033 -0.0035988246 0.74691486 -0.0214676
-0.0077314833 0.16317733 -0.23892929 -0.05577526 0.116097294 0.030644422 -0.059903413 -0.051330302
0.08987214 -0.06747735 -0.03624611 0.08354831 -0.0027583677 -0.08732892 -0.0430293 -0.042906705
-0.24306078 0.34928167 -0.13213159 -0.056926414 -0.052313566 -0.044981483 -0.0061257877 0.11967793
-0.021279113 -0.05153295 -0.12234396 0.1939821 0.009140008 -0.04450492 0.32157534 0.014897085
0.12744379 0.4057391 0.19510055 0.06778311 0.033609048 -0.05448441 -0.050982058 -0.0423972
0.12857956 0.19666041 -0.13741292 0.36498138 0.052503187 -0.034247935 -0.17692778 -0.05825585
-0.016612727 0.0030662804 -0.2510471 0.075281814 0.102185965 -0.15234677 0.013632269 -0.021778775
-0.03935372 0.03410387 -0.0964721 -0.06512972 -0.012043279 -0.20255221 -0.05357784 -0.038084332
0.009982686 0.09310165 -0.012588876 -0.048169672 -0.010729741 -0.03261427 -0.005358547 0.061159637
0.10641365 0.12277085 -0.013044036 0.19602123 -0.04530523 0.15647414 -0.010150679 -0.00673939
0.28040576 0.3085386 0.011926613 -0.08676087 0.01556695 -0.12325361 0.1677813 0.009710132

action_model._discrete_distribution.branches.1.bias f4 [6]
00000000: bff1 a43f 421d 963e 10ff 6f3e f28a 2f3d
00000010: 815d 08be 48b7 16c0
1.2886275 0.29319197 0.23437142 0.042857118 -0.13316919 -2.3549366

action_model._discrete_distribution.branches.1.weight f4 [6, 256]
00000000: d4fc b6bd 5723 88bd 1a8b dfbd 8c3d 823e
00000010: 45ab d13d c1df c8bd fb4b dbbd 2416 c33d
00000020: bdce bbbd a821 6f3c 9426 073e 0f38 21be
00000030: 678b 393e d5f3 13be fd34 ccbd bfbc edbd
00000040: 3b52 f33e de0d 35bc 4578 be3d 39b3 b7bd
00000050: a4b0 dbbd 6ab5 32be 520e 80bd 2195 953e
00000060: f89d f1bd 52de 393e 2984 08bd 02a2 ddbd
00000070: 7ca2 02be c593 0a3e c0da f5bd 2c9b 5a3f
00000080: fcc4 9a3b 9e6c cebd f769 533d 5b87 0ebe
00000090: d510 ffbd 0bb7 eb3d a6d8 96bd e500 923d
000000a0: 20fd aebd 7415 bf3c 4f76 473e c76d eabd
000000b0: 5687 8f3d 6537 c8bd ce47 31be f3cc bb3d
000000c0: a24d b73e d7db ccbd 67c2 c9bd a8e6 d4bd
000000d0: 34da d6bd 5531 0dbd c2ef 17be 8955 203d
000000e0: 9ee1 ccbc 9fbb f63d 15f9 363f bb29 a4bd
000000f0: 3a6a 97bd 7cd6 57bd 3a38 0f3e e7da 7f3e
00000100: 6caa 653e 07ad 5e3d 140c fabd 6673 c13d
00000110: 7dc1 08be f958 6fbd cae0 dcbd c42f 2fba
00000120: a4f2 a6bd e94d 5e3e 9291 0dbe bd31 16be
00000130: 7107 d9bd 41b5 813e 607d df3d 6d07 e9bd
00000140: 6477 9c3c e356 e93d 4aab 14be 0712 903e
00000150: 805b 3cbe f074 f1bd c697 c43c b3f0 09be
00000160: 908e f8bd 9233 0f3f 522b f5bd b969 9cbd
00000170: 7fc3 01be 845b 1ebe aa0d 093a f4f8 f6bd
00000180: de9e 23be 439a 343d 6ff5 dbbd 62be 963b
00000190: 7409 32bd 3fd4 ed3d 33ce f5bd 4575 05bd
000001a0: 8dec 9c3e 70bd 773e b572 1abe 23ad f43e
000001b0: f508 0d3f 325f ddbd bdfa 32bd b1e2 293d
000001c0: b2a8 9abd 9451 1cbe 499d e23d bdbd 933d
000001d0: 21c0 f83d 9060 bfbd 1f93 06be 40dd 823e
000001e0: 67cb 91bd 60eb dc3c e185 ec3e cb33 eabd
000001f0: 5965 5cbd a3d7 d93c 9571 343e e6da d3bd
00000200: b6b4 813e e26f 843d 48fe 30be c11f 14be
00000210: 344d fabd 7bce 5d3e 9d42 adbd 3ca7 9fbd
00000220: 4c60 db3d 8dc1 43be ad20 c0bd adf8 eebd
00000230: ff65 04be 8ed0 82bc 81aa b6bd 5d19 adbd
00000240: 6ffe 793d 15d1 0dbe cec2 fdbd 6e6f 013e
00000250: 05ab 863e be45 e23d 731c 053d 8f1d 62bc
00000260: bc15 09be d2e9 8f3d 42c4 e9bd 121a 983d
00000270: 519c fbbd 69b1 cb3d f9eb aabe ba3c dabd
00000280: 5905 303e 81af a1bd e507 a2bd d05d 593e
00000290: 6208 32be c454 fd3c 93ec 633f 7b50 febd
000002a0: 3631 1dbe 2710 2a3e 7809 c5bd 0000 e2bd
000002b0: d5bf 21bd bf28 fcbd 9c75 29be 395c 26be
000002c0: 596b a13d 6945 11be b9cd 01be 110d 353e
000002d0: 3140 f6bd 2109 9fbc 7265 0abe 0e4e 733d
000002e0: 8b6c 6abe ac52 613e cebd 2e3e d2d4 1dbe
000002f0: 371c dbbd 3950 08be 9f74 16be bc94 65be
00000300: 6423 c5bd f36d fbbd 0ddd 3cbd 4809 913d
00000310: 43e8 f9bd f712 46bd e150 65bd 4652 f1bc
00000320: e6f4 883e 7696 e13d 2ada 3b3e 5123 923d
00000330: 8625 0e3c 7374 eebd 1544 df3c c437 24be
00000340: 3ee6 f33b cacc 43be fbd5 f0bd 08f0 b33e
00000350: 9b13 3f3e e68c 0abe b1d2 61bd 0824 2bbe
00000360: 70e1 11be 0dfc ccbd b6b5 14be 4f66 efbd
00000370: 2d28 b7bd eb5e 4fbe fe5c e7bd e5ea bebd
00000380: bcdb e2bd 6fd5 b93a 7daa bdbc ba7e 32bd
00000390: df0c 03bd a5d4 61bd 66f3 fabd 78f9 d7bd
000003a0: e5a3 103e d34b d3bd 7564 8bbd b94a 19be
000003b0: cc7c 7d3e fe9f cdbd 33ec 30bd 08fd 2e3e
000003c0: 581e c0bc af8a 2f3c 7d6f 1fbe 625d 6b3e
000003d0: eb61 1fbd 12e0 8dbd cb21 97bd cf5e 15be
000003e0: dfc7 903d f584 013e 089f 983d f537 afbd
000003f0: 4e8e 503d 59c7 083e cc82 8dbe 7772 04be
-0.08934942 -0.066473655 -0.109152034 0.25437582 0.10237745 -0.09808303 -0.107078515 0.09525707
-0.091702916 0.014595427 0.1319831 -0.15744041 0.18119584 -0.14448483 -0.09971044 -0.11608266
0.47523674 -0.0110506695 0.09300283 -0.08969731 -0.10727051 -0.17452016 -0.062527314 0.2921534
-0.11797708 0.18151215 -0.033329163 -0.10821916 -0.12757295 0.13532932 -0.12004614 0.85393023
0.0047231894 -0.10079311 0.051614728 -0.13918822 -0.12454382 0.11509522 -0.07365541 0.07129077
-0.085443735 0.02332566 0.19478725 -0.114467196 0.07008235 -0.09776191 -0.17312548 0.0916995
0.35801417 -0.100028686 -0.098515324 -0.10395557 -0.10490838 -0.034470875 -0.14837554 0.039144073
-0.025009926 0.12047505 0.7147382 -0.08015772 -0.07393308 -0.052694783 0.13986292 0.24985848
0.22428292 0.05436423 -0.12209335 0.09445839 -0.1335506 -0.05843446 -0.107850626 -0.0006682838
-0.08151749 0.21709408 -0.13825062 -0.14667411 -0.105971225 0.25333598 0.10912585 -0.113783695
0.019099899 0.113935255 -0.14518467 0.28138754 -0.1839428 -0.11789882 0.023998152 -0.13470726
-0.12136567 0.55938065 -0.11971153 -0.076373525 -0.12672232 -0.15464598 0.00052281714 -0.12059203
-0.15978572 0.044092428 -0.10740172 0.004600332 -0.043466046 0.11612748 -0.1200222 -0.03258254
0.30649224 0.24193358 -0.1508282 0.47788343 0.5509179 -0.10809173 -0.043696154 0.041475955
-0.07551707 -0.15265495 0.11065156 0.07213924 0.12146021 -0.0934459 -0.1314206 0.25559425
-0.07118874 0.026967704 0.46195891 -0.1143566 -0.05380759 0.026592081 0.17621453 -0.10344486
0.25333184 0.064666525 -0.172845 -0.14465238 -0.122217566 0.21660797 -0.08459971 -0.07795569
0.107117265 -0.19116803 -0.093812324 -0.11668525 -0.12929533 -0.015968587 -0.0891924 -0.08452103
0.061033662 -0.1384929 -0.12390672 0.12640163 0.26302353 0.110484585 0.032497834 -0.013800993
-0.13387197 0.070270196 -0.11414386 0.074268475 -0.12285674 0.09945948 -0.33383158 -0.10656114
0.1718954 -0.07894803 -0.07911662 0.21227193 -0.1738601 0.030924208 0.8903286 -0.12417694
-0.15350804 0.16607724 -0.09620947 -0.11035156 -0.039489586 -0.12312459 -0.1654877 -0.16246118
0.07881803 -0.14186634 -0.12676133 0.17680766 -0.12023962 -0.019413533 -0.13515261 0.05940061
-0.22892968 0.22004193 0.17064592 -0.15413216 -0.10698741 -0.13311853 -0.14692925 -0.22420019
-0.09625891 -0.122768305 -0.046109248 0.070818484 -0.122025035 -0.04835793 -0.055985335 -0.029458176
0.26749343 0.11015026 0.18344942 0.07135642 0.0086759385 -0.11643305 0.027254144 -0.16036898
0.0074432185 -0.1912109 -0.117595635 0.35144067 0.18659823 -0.13530311 -0.05513257 -0.16712964
-0.14246154 -0.10009012 -0.14522442 -0.11689436 -0.0894321 -0.20251052 -0.11297034 -0.09322146
-0.11077067 0.0014177988 -0.023152584 -0.043577887 -0.031994697 -0.055134434 -0.12253456 -0.10545629
0.14125021 -0.10317197 -0.0680627 -0.1496991 0.24754637 -0.10040282 -0.043194007 0.17088711
-0.023451969 0.010714217 -0.15569873 0.22984841 -0.03891174 -0.06927504 -0.07379492 -0.14586948
0.070693724 0.12648375 0.07452208 -0.08555595 0.050916962 0.13357295 -0.27638853 -0.1293429

action_model._discrete_distribution.branches.2.bias f4 [6]
00000000: bd8b bc3f 2186 d6be 2dda ffbe fa68 1d3f
00000010: ec91 fabc a886 12c0
1.4730145 -0.41899207 -0.49971142 0.61488307 -0.03058716 -2.2894688

action_model._discrete_distribution.branches.2.weight f4 [6, 256]
00000000: 09da b9bd a534 4cbd 02b1 963c 34c2 263e
00000010: f91e 623d 7905 333d b772 e43c a098 363e
00000020: 945e 123e 325d 613d 8394 57bb 8f35 c1bb
00000030: 1bb9 af3d 757b 0fbd 8c4f 243c c6fc 6f3d
00000040: 7966 303e 22e3 523d 4132 d33d e70c ed3c
00000050: 3b27 2a3c 47d9 67bc 4fb0 e1bb 9700 3e3e
00000060: 2832 813b 511e f7bd dc85 733b 27b0 d43d
00000070: 129a 2a3e 8a54 10bd d1d2 883d f51b 123f
00000080: f385 98bd 17e2 063d 6da4 273e 12f6 20bd
00000090: feae 27bc 67c9 a03d f938 993d 1255 02be
000000a0: 1618 95b9 ac3a 8e3d 7206 313e 6241 443c
000000b0: dae5 093d 00f6 073e ac66 69be 485a 14be
000000c0: 7504 973e 633d bb3c 2c9c 563e 63d1 e23c
000000d0: f388 023d fa29 5c3d aff0 acbc 378f 1f3d
000000e0: be86 c23c 84e0 d6bd 1757 4e3f 8bc7 823d
000000f0: 1f2f 3e3c 1a74 3bbd db79 dc3d 7a03 de3e
00000100: 3c37 2dbe e267 f3bd 6d5b febb 4601 4d3e
00000110: e3d2 76bd 2253 953c 0a54 e83c fa3a 5bbc
00000120: 09ad cfbd 1cf7 123c e793 933c f10b 943b
00000130: 6aa4 8d3d d748 653e b7a0 88bd bb96 8d3d
00000140: 6559 4d3e 65f3 163e 2fc6 153a d99c 223e
00000150: ee38 d13d 6632 8fbc 14fe 8dbd b525 153d
00000160: c8c9 5abc bd0b fc3e cb1a 0c3d 404b e33c
00000170: bfe6 913c 920c bbbc 57f1 933d 85b3 993c
00000180: 3d7b c03c 8fda cc3c 2341 c1bd 73eb df3d
00000190: d3b9 a6bd 1849 033d cf23 433d 188b f33b
000001a0: 4d32 e3bd 3865 843e c33d 4ebe 7029 393e
000001b0: f69d aa3e b9eb 8fbc 2212 e73a 3f3f 1e39
000001c0: 752c 03bd ea28 06be 677d 0c3d 0c98 08be
000001d0: 8444 76b9 0af1 363c 428a dd3c bbfe 453e
000001e0: e5dd f33c d4b0 d03d 1063 5c3f 44e3 e7bc
000001f0: 0935 41bd cb1e a73e 3c9e e83c a923 a6bd
00000200: f2bc 483e da73 81bd 400f 523d 0951 183d
00000210: 1fdb 883c 5792 863e c7dc e73c 50f3 063d
00000220: ca05 743d c0b9 143e 4c66 193d e7fd 803c
00000230: 60e8 0fbe b741 053e 78b7 9d3d 7108 d63c
00000240: 8b7b a23d d27a 4e3d 444b 95bc 4448 18be
00000250: 9ffe 7d3e 9b4a 54bd 3d64 db3d a82b 233d
00000260: d527 ab39 20ae c53e 46e2 a2bc 88f8 1e3e
00000270: d091 0dbd e599 2dbc 3949 7dbe aac4 a5bb
00000280: db00 c63b 0c2a 72bb 3b7f 533e cdf1 c23d
00000290: 9388 14be 428e 843d 88d2 793f f1be f93b
000002a0: bc0a 4e3c 985f 3b3d fe51 a93d 5abe 913d
000002b0: 77e4 7a3d 7e89 863d f16e 893c c879 18bc
000002c0: e565 8ebd 66d0 8dbc bbf7 89bc a077 8c3d
000002d0: 7c25 20bd b664 603d be2e b9bc 27d5 353d
000002e0: b14a 2bbd 05ed f73d 78a7 413e fed9 253c
000002f0: a8fe 5dbc ff66 c6bc c54f 27bc 3742 4a3e
00000300: b0b5 0cbd f857 d8bb 9949 f73a a4ad 863e
00000310: 8a4c 82bb 2442 2c3d 2a8c 2dbe 60eb 0b3d
00000320: aae4 163e 96a5 0dbd 1006 b4bd 7063 b5bc
00000330: cbdd 4dbd d1c0 0e3d 3852 ecbb c8e1 263d
00000340: 99dc 21be ef80 1cbd 36ac 38be 5e6f 413e
00000350: 2f03 113e 0cd8 cbbc 7f98 3cbe db02 223d
00000360: 77e9 8dbc 32a3 9c3c 91de fe3c dc12 17bc
00000370: 8a8c a73e 1f83 26be 140b 663c dddb 1c3d
00000380: dc4f bbbb 2f43 983c 1d8d 2abd c1ae 8e3c
00000390: eed0 523d 488f 59bd 7cc9 f4bb e487 1a3d
000003a0: 1304 36be e5b5 80bc 65a9 2f3e 8269 0c3d
000003b0: 362f 70bd 6cac 513c bcb3 0abc 7348 72bd
000003c0: af62 af3d f87e de3d 50d5 abba 4627 473e
000003d0: e143 b53c 2c0f 913e 750f 6d3d 3fcc e33c
000003e0: 978f b13d 9a53 313e b759 633d d512 7c3d
000003f0: f697 03be 6e0d 53bd dc1c 383d a1ec ffbc
-0.0907479 -0.049854893 0.01839495 0.1628502 0.05520532 0.04370639 0.027886732 0.1783166
0.14293891 0.05502052 -0.0032894916 -0.0058962773 0.08580228 -0.035029847 0.010028731 0.058590673
0.1722659 0.051486142 0.103123195 0.028936816 0.01038533 -0.014150924 -0.0068874727 0.18554913
0.0039427467 -0.12066329 0.0037158644 0.10385161 0.16660336 -0.035236873 0.06680835 0.5707391
-0.07447424 0.03293046 0.16371317 -0.03929717 -0.0102345925 0.078509144 0.0748157 -0.12727764
-0.0002843744 0.069447845 0.17287615 0.011978479 0.03366647 0.13277435 -0.22793072 -0.14487565
0.29495588 0.02285642 0.20958012 0.027687734 0.031868886 0.05375097 -0.02111086 0.03895494
0.02374589 -0.10492042 0.8060164 0.06385716 0.011607914 -0.04576502 0.107654296 0.43362027
-0.16915601 -0.118850484 -0.0077623636 0.20020017 -0.06025971 0.018228117 0.028360385 -0.01338076
-0.10140426 0.008970048 0.018014861 0.004518025 0.06916125 0.22391067 -0.06671279 0.06913515
0.20053633 0.14741285 0.00057134306 0.15880145 0.102159366 -0.017480087 -0.06933227 0.036412913
-0.013353772 0.49227706 0.03420524 0.027745843 0.017810224 -0.022833142 0.07223766 0.01876236
0.023496265 0.02500656 -0.09436252 0.1093358 -0.08140912 0.03205213 0.04764157 0.0074323528
-0.110935785 0.25858474 -0.20140748 0.18082213 0.3332364 -0.017568456 0.0017629305 0.00015091615
-0.03202482 -0.13101545 0.03429928 -0.13339251 -0.00023485912 0.011165867 0.027043466 0.19335453
0.029768893 0.10189977 0.8608866 -0.02830661 -0.04716972 0.3264068 0.028395765 -0.081122704
0.19603327 -0.06320925 0.051284075 0.037186656 0.016706048 0.26283523 0.028303517 0.032946885
0.059575833 0.14523983 0.037451074 0.01574607 -0.14053488 0.1301335 0.077010095 0.026127072
0.0793372 0.0504101 -0.018224366 -0.14871317 0.24804161 -0.05182896 0.10712478 0.039836556
0.0003264534 0.3860941 -0.019883286 0.15524495 -0.034562886 -0.010595773 -0.24734963 -0.0050588446
0.0060425824 -0.0036951331 0.20654003 0.09518776 -0.14505224 0.06472446 0.9758687 0.007621639
0.012575801 0.045745462 0.08267592 0.07116385 0.061253037 0.06569193 0.016776534 -0.009306379
-0.069530286 -0.017311286 -0.01684176 0.06858754 -0.039098248 0.054783545 -0.022605296 0.04439273
-0.04181928 0.12105755 0.1891154 0.010122774 -0.013549484 -0.024219034 -0.01021189 0.19751821
-0.03435296 -0.0066022836 0.0018866538 0.26304352 -0.0039764093 0.042055264 -0.16948 0.034160018
0.14735666 -0.034581743 -0.08790219 -0.022142142 -0.050260346 0.034851853 -0.0072119497 0.040742666
-0.15806808 -0.0382089 -0.18034443 0.1889014 0.1416137 -0.024883293 -0.18417548 0.039553504
-0.017323239 0.019120786 0.031111987 -0.009220805 0.3272441 -0.16260956 0.014040727 0.038295615
-0.005716307 0.018586723 -0.041638482 0.017417314 0.051468782 -0.05311516 -0.007470308 0.03772725
-0.17774992 -0.015711734 0.17154463 0.034280308 -0.058638774 0.012797456 -0.008465704 -0.059151124
0.08563744 0.10864061 -0.0013109837 0.19448575 0.022127094 0.28331888 0.05787607 0.027807353
0.08669966 0.17317048 0.05550548 0.061541397 -0.12850937 -0.05152648 0.044949397 -0.031240763

discrete_action_output_shape f4 [1, 3]
00000000: 0000 c040 0000 c040 0000 c040
6.0 6.0 6.0

network_body._body_endoder.seq_layers.0.bias f4 [256]
00000000: 0dd8 3cbf 67c8 18bf cb86 6bbf 2c06 99bf
00000010: 1a11 b2bf 50b9 ffbe 8c12 9fbf 64d6 2a3f
00000020: b7a0 61bf 4a98 dd3c bc91 87bf 120e 4abf
00000030: 2587 8ebf 3063 b8bf 0682 f1be 3aab 1fbf
00000040: 50ac a6bf 7add b1bf 86f3 943f 4fd6 9ebf
00000050: 3625 d2bf f805 a7be 10de fa3c a0fc 3dbe
00000060: 15b7 6b3f 665f 66bf 29a7 c4bf 0b1b 80bf
00000070: 03a0 30bf 4913 f3be b22a afbf 7f9e 22bf
00000080: f6ff 3ebf 4621 1c3c fa4b 61bf d839 2ebf
00000090: d9b8 6ebf 0342 30bf 7ec3 4bbf 45a9 8cbf
000000a0: bfdd d1be fde3 3dbf b1f9 73bf ddc2 aebf
000000b0: ab69 88bf 5f36 84bf b44f a1bf a548 abbf
000000c0: 5b36 f83f b972 8dbf 6ce9 31bd 969d 9ebf
000000d0: 3f6d 34be 72f6 89bf 83c3 5bbf d8eb 95bf
000000e0: 0e10 62bf 77a4 7fbf cc3c 7fbf 8885 333e
000000f0: ace7 29bf 3e9e 95bf b221 6cbf d193 96bf
00000100: 429e 10bd e1b5 48bf 15f9 10bf e775 5fbf
00000110: fe7c f6be 929b 89be d8c6 a7bf 9dfe 9bbf
00000120: 00e2 b2bf 19d8 aabf 6cc7 8ebf d724 6ebf
00000130: e7e0 b6bf e69b c3bf 57af b5bf 7e09 b5bf
00000140: 69a4 67bf 5927 bbbf c818 c4bf 61ff ccbf
00000150: 69a7 1bbe 06a8 9cbf b49b b5bf b6a1 b2bd
00000160: cd8d 8cbf 8a01 90bf e9cf ecbe 4161 72bf
00000170: 59c4 2abf dfe7 14bf 0e1a 86bf 2631 08bf
00000180: 062b 5d3e b12a 0cbf b843 69bf 5745 0f3f
00000190: fad5 b0bf 9a6b 0bbe 2f3c 62bf d4d3 98bf
000001a0: 5395 95bf 8aab 58bf 4f5f db3e 110c 89bf
000001b0: 27f4 a6bf 66a8 92bf 0718 a2bf b06f 8dbe
000001c0: a75f 16bf d070 99bf e586 433f fa4a 59bf
000001d0: 86ba 07bf 724c 913e b033 00bf 24f3 53bf
000001e0: 65a6 a6bf abba 8cbf dbc2 d5be daff 8ebf
000001f0: c404 1fbf 6a4e 25bf 5a0a 65bf ac54 12bf
00000200: 49b5 77bf 9e4f 88bf 303a 1ebf 0529 acbf
00000210: 9879 a4bf 8dc4 b1bf 99c6 8bbf 0b5c 6cbf
00000220: c334 b8bf da48 63bf f0f2 81bf 1833 05bf
00000230: 5ed3 aabf 5961 9cbf dcc1 3abf e760 6c3e
00000240: 2bbb a9bf 131a 62bf 8f7b ce3e ec4a acbf
00000250: 25d0 18bf 5aa9 9a3e 6060 333c c055 aa3e
00000260: 13e7 93bf 395b b9bf 6f5a f9be 4bcb 5fbf
00000270: d3ab 89bf 9f0a 87bf 1a7c 8abf e299 99bf
00000280: 053a 96bf a28f a8bf 277a 8ebf d5dd d2be
00000290: 0735 aabf e82b a6bf e506 94bf 0051 51bf
000002a0: 43d9 3abf ede2 96bf de4c 7fbf 19ab 71bf
000002b0: 332c 3040 1ab7 63bf d841 a7bf 4a58 893e
000002c0: d1b1 b5bf 9e32 abbe cdf3 b4bf f99d aebf
000002d0: 6aed d53e 9fac 18bf a0de 4539 c32e 27bf
000002e0: 564a ebbe 7e9c 9dbf 3795 eebe 2f0e 16bf
000002f0: b8e1 3abf 96f9 b3bf 954b 7ebf 2bea a4bf
00000300: d3b9 b3bf d487 b4bf 2808 48bd e51a 3bbf
00000310: 28d5 5fbf 3673 c6bf c573 8fbf ffb1 a9bf
00000320: 269f 75bf 0ac8 19be af1d 0bbf 4449 d1be
00000330: 48f2 b1bf 901a a5bf cbe2 c3bf 85c0 80bf
00000340: 66a8 5b3f 2f7b 86bf 4212 a8bf aaf3 a3bf
00000350: 94b5 b2bf e5c0 fd3c f419 b1bf 1745 d0bf
00000360: 2cbe 9ebf 0329 30bf 0d65 d1be 643a 52bf
00000370: 4d35 82bf d206 94bf 682c aebf aea9 a8be
00000380: 9d54 6fbd f75c 6bbf 574c 84bf d738 c9bf
00000390: 2c61 86bf d03d 6abf 3c90 a0bf 5aba 6bbf
000003a0: 64a9 53bf 3564 87bf de6c 91be b0a3 83bf
000003b0: 5beb a6bf bd53 553f 7603 503d 2846 15bf
000003c0: 734b e43f 9d11 a3bf 8eb9 8bbf 9525 21bf
000003d0: 8c7f 12be 9907 b2bf 18c8 95bf 5504 a0bf
000003e0: 6152 98bf 9360 81bf 50c4 2bbf ad63 8abf
000003f0: d9ca 95bf 6b56 a2bf fcae 9cbf f404 9bbf
-0.7376717 -0.5968079 -0.9200255 -1.1955009 -1.3911469 -0.4994607 -1.2427535 0.66733384
-0.88135856 0.027050156 -1.059135 -0.7892772 -1.1134993 -1.440527 -0.47169513 -0.62370646
-1.3021336 -1.3895714 1.1636817 -1.2409152 -1.6417606 -0.3262174 0.030623466 -0.185534
0.92076236 -0.89989316 -1.5363513 -1.0008253 -0.6899416 -0.4747565 -1.3684905 -0.63523096
-0.74609315 0.009529417 -0.88006556 -0.6805701 -0.93250805 -0.68850726 -0.7959517 -1.0989157
-0.4098949 -0.7417601 -0.95302874 -1.3653218 -1.0657247 -1.0329093 -1.2602448 -1.3381544
1.9391588 -1.1050636 -0.0434355 -1.2391841 -0.17619799 -1.0778334 -0.858452 -1.1712599
-0.8830575 -0.9986033 -0.99702144 0.17531407 -0.6636913 -1.1688917 -0.92238915 -1.176386
-0.035307176 -0.78402525 -0.5663007 -0.8728928 -0.48142236 -0.26876503 -1.3107557 -1.2187077
-1.397522 -1.3347198 -1.1154609 -0.93024963 -1.4287385 -1.5281951 -1.4194134 -1.4143522
-0.90485245 -1.4621383 -1.5320063 -1.6015435 -0.1520058 -1.2238777 -1.4188142 -0.0872225
-1.0980774 -1.125047 -0.46252373 -0.9467965 -0.6670585 -0.5816631 -1.0476701 -0.53199995
0.21598443 -0.5475264 -0.91118956 0.5596518 -1.38153 -0.13615265 -0.8837308 -1.1939645
-1.1686195 -0.8463675 0.42846152 -1.0706807 -1.3043259 -1.1457641 -1.2663583 -0.27624273
-0.58739704 -1.1987553 0.7637771 -0.8488003 -0.5301899 0.28378636 -0.5007887 -0.8279288
-1.301953 -1.0994467 -0.41750225 -1.117183 -0.62116647 -0.64572775 -0.8946892 -0.5716045
-0.96760994 -1.0649297 -0.6180754 -1.3450018 -1.2849607 -1.3888108 -1.0919982 -0.92327946
-1.4391102 -0.8878304 -1.0152264 -0.5203109 -1.3345754 -1.2217208 -0.72952056 0.2308384
-1.3260244 -0.88321036 0.40328643 -1.3460364 -0.59692603 0.3020733 0.010948271 0.33268547
-1.1554893 -1.4480964 -0.48701808 -0.87419575 -1.0755562 -1.0550116 -1.0819123 -1.2000086
-1.1736456 -1.3168833 -1.1131028 -0.4118487 -1.3297433 -1.2982149 -1.1564604 -0.8176422
-0.72987765 -1.1788002 -0.99726665 -0.944017 2.7526977 -0.88951266 -1.3066969 0.26825172
-1.419489 -0.33437055 -1.4136902 -1.364196 0.41782695 -0.596384 0.00018870318 -0.6530573
-0.4595515 -1.2313383 -0.46598217 -0.5861539 -0.7300067 -1.4060543 -0.9933408 -1.2883962
-1.4041084 -1.4103951 -0.048835903 -0.7308791 -0.87434626 -1.550391 -1.1207205 -1.3257445
-0.95945966 -0.15017715 -0.5434217 -0.4087621 -1.3902063 -1.2898731 -1.5303587 -1.0058752
0.8580383 -1.0506343 -1.3130572 -1.2808735 -1.3961663 0.030975768 -1.3836045 -1.6271085
-1.2401786 -0.6881258 -0.40897408 -0.8212035 -1.0172516 -1.1564581 -1.3607302 -0.32941955
-0.058430303 -0.9193873 -1.0335797 -1.5720471 -1.0498405 -0.9150057 -1.2544017 -0.92081225
-0.82680345 -1.0577456 -0.28403372 -1.0284328 -1.3040575 0.833309 0.05078455 -0.58310175
1.7835525 -1.273975 -1.0916002 -0.6294797 -0.14306468 -1.3908569 -1.1701689 -1.2501322
-1.190014 -1.0107597 -0.67096424 -1.0811669 -1.1702529 -1.2682623 -1.2240901 -1.2110887

network_body._body_endoder.seq_layers.0.weight f4 [256, 69]
00000000: bfd4 fb3e 273a ed3e 4cca 21bc d60a e13d
00000010: 4b36 5bbf 517c 46bf 3c29 8abf ec12 2cbf
00000020: 9788 61bf 5518 5cbf 137a d53d 4a1c 66bf
00000030: 70aa 3dbf 678c 5dbf a2af 87bf 8958 5dbf
00000040: 3ca9 4cbf fcee 793d 7d3e 63bf 985c 6abf
00000050: 22b7 61bf 0940 5ebf 0e86 86bf f3ef 44bf
00000060: 97a6 613e f6ed 3cbf 7ca0 81bf fc25 5abf
00000070: 6d34 5ebf d53c 0cbf 76e4 87bf a600 4bbe
00000080: e4b8 4ebf dcd9 7dbf 6a39 4ebf 6897 5ebf
00000090: c064 57bf 5070 49bf 5c8d dfbd 23d6 0cbf
000000a0: fa80 abbe 681c 8d3e 05f4 1fbf 653e a43e
000000b0: 7bc8 48bf 34da a93e 6577 cc3e f761 073f
000000c0: 4fdf edbe c1f5 78be cf37 863e 5b29 563f
000000d0: 1036 2ebf 2e64 1bbf e50a dc3e a43b 223f
000000e0: debd 23bf a7c5 3abd 14ce 023f ce44 38bf
000000f0: 3222 2dbe 4d83 cb3e e2e1 7dbe 6d81 823e
00000100: 812c 8e3e a474 1f3e de00 cfbd 7486 bfbe
00000110: 70c9 f43e 159a 193f 20f8 4e3f ee33 2f3f
00000120: 4fe3 92be 1a0e 48bf f045 2bbf bd7b 41bf
00000130: 7b00 18bf 233b 35bf 62fe 4ebf 1a76 e9bd
00000140: 6bd9 24bf 3dd9 20bf fafe 1cbf 8689 16bf
00000150: f00d 23bf 073e 1dbf 2df3 463d 1637 2bbf
00000160: 05dc 84bf 991d 0abf 264f 0ebf f1f0 18bf
00000170: 96a6 57bf 850e 2dbe 79e6 45bf e00b 34bf
00000180: cb70 36bf e0fc 59bf 2be3 2dbf 6a50 31bf
00000190: 463c b93b 50cd 42bf 6b50 1fbf 6c3e 4cbf
000001a0: ee1f 3ebf 1437 1ebf a692 1fbf 330a 8cbd
000001b0: d400 3b3f 16e8 1bbf f7f6 8d3e 4367 17bf
000001c0: f09f d9be 5bb0 6fbe 053e 68be 2be3 38be
000001d0: f4c8 8f3d 01ea 68bf 2da3 56be 79fe 2abf
000001e0: 3796 e0bd 430a 043f 684c 85be c19a cbbc
000001f0: ef25 3d3e c425 7ebf bc99 2b3e 4112 55bf
00000200: 7af3 08bf d602 0abe 6f28 fbbe 5ecc 823e
00000210: 3964 4ebf 67bf b63e e677 febe ad37 72bf
00000220: 6822 1cbc 5fcf 0abf 6434 383f 16a7 dd3e
00000230: a80e 7f3b f97e a5bd 128c 88bf e63f 8ebf
00000240: 4756 98bf d402 88bf dd9d 92bf 2c61 92bf
00000250: 88f0 2abe 8281 98bf 9f3d 94bf dc29 8abf
00000260: 7257 9cbf 70d0 77bf b577 76bf fb4b 023e
00000270: 19b8 7bbf 7757 83bf 5c49 88bf 8d1a 88bf
00000280: 0516 6fbf a2e7 83bf fa9c ec3d 620d 88bf
00000290: 6332 84bf 0112 9abf ff1e 88bf d722 88bf
000002a0: 4e17 9abf e080 933e 9b7a 9ebf dcd9 5bbf
000002b0: eac8 83bf 4732 7abf ccde 58bf 05c6 9fbf
000002c0: 6c57 34be 189a 1b3f 5192 10be 50de 58be
000002d0: ae37 06be f5f9 8cbe 0107 133c 6a06 743e
000002e0: 0422 2fbf 3405 29be 824b 9a3e 31af 3f3e
000002f0: f8d6 17be 78e6 babe 7dc8 36bf 28e0 6ebd
00000300: de88 53bf 0bab 903e b1dd b7be 0cba 643e
00000310: dd67 a3bc eb12 69bf 3512 13be 669b 60bf
00000320: 9fe5 47be 9ea7 d4be 86cb 14bf 894d f03c
00000330: 4880 8abe 322b 4ebd 8cfe 3cbf 42e3 533f
00000340: 7eb2 b63e b197 af3f 80db 3f3d f54b babf
00000350: 7c98 9fbf 203b b1bf 633a b7bf 9548 8fbf
00000360: ca03 96bf b13d 89be 071f 8abf 6071 b3bf
00000370: f479 b0bf a2ca 94bf a23d b3bf dfb6 9ebf
00000380: 213e 3cbe a33f 9fbf 37e7 b0bf 62ce a3bf
00000390: 2e3e a5bf 98e5 b2bf 6f60 b0bf a2a6 2dbe
000003a0: eddd 9ebf b1a4 bcbf d9cb b0bf fc30 aebf
000003b0: b549 b0bf 76f7 83bf ac75 113d f011 98bf
000003c0: 188b bbbf e72e aabf 34ae a1bf abd2 a0bf
000003d0: b20a 9abf 3390 273d 9eda c43e 506c 54bf
000003e0: 01ca 143d 11ee 00bf 7d21 ccbd 78db 693e
000003f0: 3039 1cbe 7fb8 273e 9d0d 843f bac9 eebe
0.4918575 0.4633343 -0.0098748915 0.10988395 -0.8562972 -0.7753344 -1.0793834 -0.6721637
-0.88099045 -0.8597463 0.104236744 -0.89886916 -0.7408819 -0.8654236 -1.0600474 -0.8646322
-0.7994573 0.06101893 -0.88767225 -0.91547537 -0.88170063 -0.8681646 -1.050966 -0.76928633
0.22036205 -0.738006 -1.0127101 -0.8521421 -0.86798745 -0.5478032 -1.0616596 -0.19824466
-0.8075087 -0.9916055 -0.80556357 -0.8694978 -0.8413811 -0.78687 -0.10915634 -0.55014247
-0.3349684 0.27560735 -0.6248172 0.32078853 -0.7843091 0.33174288 0.3993484 0.5288386
-0.46459433 -0.24312498 0.26214454 0.83656853 -0.6805124 -0.6069974 0.42977062 0.63372254
-0.6396159 -0.045598652 0.510957 -0.7197999 -0.16907576 0.39748612 -0.24793199 0.2548937
0.2776833 0.15571839 -0.10107587 -0.37407267 0.47809935 0.60000736 0.8084736 0.68438613
-0.28689048 -0.7814652 -0.6690359 -0.75579435 -0.59375733 -0.7079336 -0.8085691 -0.11399479
-0.64394253 -0.6283148 -0.61326563 -0.58803594 -0.6369314 -0.6142277 0.048571754 -0.6688093
-1.0379645 -0.5395141 -0.5558952 -0.5974265 -0.84238565 -0.1690007 -0.773048 -0.7033062
-0.7126586 -0.8515148 -0.67924756 -0.6926333 0.005652937 -0.7609453 -0.62232083 -0.7978275
-0.7426747 -0.6180279 -0.6233314 -0.06837883 0.7304814 -0.6090101 0.27727482 -0.5914194
-0.42504835 -0.23407118 -0.22679909 -0.18055408 0.07020751 -0.9098206 -0.20960684 -0.66794544
-0.10966151 0.5157816 -0.26034856 -0.024854066 0.18471502 -0.99276376 0.16757864 -0.8323098
-0.53496516 -0.13477644 -0.49054286 0.25546545 -0.8062168 0.35692903 -0.4970085 -0.94616205
-0.009529687 -0.54222673 0.7195494 0.4329154 0.0038918648 -0.08080859 -1.0667746 -1.111325
-1.190133 -1.0625863 -1.1454426 -1.1435905 -0.16693318 -1.1914523 -1.1581305 -1.0794024
-1.2214186 -0.96802425 -0.9627641 0.12724297 -0.98327786 -1.0261067 -1.0647388 -1.0633103
-0.93392974 -1.0305064 0.115533784 -1.0629084 -1.0327877 -1.2036744 -1.0634459 -1.0635632
-1.2038362 0.2880926 -1.2381166 -0.858793 -1.0295689 -0.9773297 -0.8471496 -1.2482306
-0.17611474 0.60782003 -0.14118315 -0.21178555 -0.13107178 -0.27534452 0.008973838 0.23830572
-0.6841128 -0.16505891 0.30135733 0.18719174 -0.14828098 -0.3650396 -0.7139967 -0.05831924
-0.8263072 0.28255495 -0.35911325 0.22336596 -0.019946987 -0.9104449 -0.14362414 -0.8773712
-0.19521187 -0.41534132 -0.5812305 0.029333847 -0.27050996 -0.050334163 -0.7382591 0.8276864
0.35683054 1.3718168 0.04684019 -1.455443 -1.246841 -1.3846169 -1.4314693 -1.1194025
-1.1719906 -0.2680488 -1.0790719 -1.4018974 -1.3787217 -1.1624339 -1.4003184 -1.2399558
-0.18383075 -1.2441295 -1.3820561 -1.2797358 -1.2909601 -1.3976316 -1.3779429 -0.16958097
-1.2411476 -1.473776 -1.3812209 -1.3608699 -1.3772494 -1.0309894 0.03551261 -1.1880474
-1.4651823 -1.3295563 -1.2631288 -1.2564291 -1.2034514 0.040909003 0.38448042 -0.8297777
0.03632546 -0.5036326 -0.09967325 0.22837627 -0.1525619 0.16378973 1.0316654 -0.4663828

network_body._body_endoder.seq_layers.2.bias f4 [256]
00000000: 7154 e6be 2b54 3dbf 96d1 313e 8f82 5bbe
00000010: 7b58 a8be 9ba2 b8be 842a babe f10c 0dbf
00000020: 8a9f 13bf d286 43bf 130c 02bf 7efd 51bf
00000030: bebe 2fbf a230 fcbe 86ea 61bf 0980 0cbf
00000040: e600 06bf 2bec 6bbe 3b18 043d ae6a 9fbe
00000050: 6d6f 23bf 8427 68be 91f5 40bf ae65 41bf
00000060: fb0e c9bd a913 1ebf b45b a63d 262d 1ebf
00000070: 300b 57bf e618 20bf 0b8b 4dbf 8442 72bf
00000080: 04dc eabe bc11 c93f 39ae 09bf be98 8dbe
00000090: 76d1 ccbe 4561 06bf 70b5 603e 1197 06bf
000000a0: 729f 1abe a034 3bbf 02d7 10bf a965 4fbf
000000b0: 4830 eebe e111 b9be 4b38 30bf a161 44bf
000000c0: 1cc3 2abf f709 e1be 22a6 0dbf b0fd 95be
000000d0: ca61 0ebf 27a9 c5be e71b 3cbf 4276 68bf
000000e0: c261 79bf 7810 3cbf 0f5d 1abf 558a ebbe
000000f0: 9e3c 77bf 762d 22bf 5881 97be ecee efbe
00000100: 7f10 b3be ca29 98be 9866 08bf c368 32bf
00000110: d2c3 67bf d9c6 bdbe 7b84 89bd 2164 9ebc
00000120: 6e4e ffbe d1d5 173e cae0 e6be 6c54 f3be
00000130: f582 32bf b552 64bf 08d1 35bf d3d8 0ebf
00000140: 79b2 47bf ae10 06bf 6177 f7be 0bbb 06bf
00000150: 78be 58bf 9ac6 55bf b8e9 5dbf 2604 2bbf
00000160: 45c9 01bf 8c35 4bbf 0d94 29bf 4c6a 57bf
00000170: e1b2 c8be 45c6 0dbf 38de 9abe dd72 b3be
00000180: f1da 29bf 1584 20bf fe80 0abf 2e65 e8be
00000190: b61f e3be 0171 26bf df99 49bf b7a0 11bf
000001a0: 3864 c8be 84fd 86bf a359 1abf be62 9ebe
000001b0: 061a 59bf 0830 f9be dafd 183f 0cf8 3fbf
000001c0: cc34 0bbf a59e 1dbf 0f1b 1ebf fdaa 0ebf
000001d0: 19be 5bbf 717d 8ebf bd0f 24bf 8a0f d9be
000001e0: 266b 09bf fc5b 43bf abf7 40bf e56c 12bf
000001f0: 2a5a 36bf b350 09bf 4262 a1be 5b07 f8be
00000200: d2ce 40bf a19c 5abf 12fd 13bf f020 e1be
00000210: 3dda 12bf e10a 67bf 075a a2be 1fa2 c7be
00000220: 2564 9fbe 95ef 90bd 80d4 07bf a04e 03bf
00000230: cbd1 f8be fce4 24bf fe8e 04bf 7ad8 e0be
00000240: 2679 e0be 5cd1 13bf 0c3a dbbe 3889 05bf
00000250: 4d97 0cbf 9475 2bbf fe8a 6abf 0906 69bf
00000260: 5c3e a5be a1c5 3abf cc1c b2be 5ea1 d8be
00000270: c9b2 d7be a0b2 41bf da2e fabd ccb2 83be
00000280: 53c8 07bf e198 f6be 10a0 58bd 6a86 22bf
00000290: 8317 2abf a6ca ecbd 0bca d2be 1bbe 2cbf
000002a0: cd6f 16bf ccf1 d8be e9ca 02bf 7490 e8be
000002b0: 5836 e8be 0d4e 64bf ab41 12bf d323 c0be
000002c0: 481e 0ebe 016b 0fbf 807e 3cbf a18e a3be
000002d0: 705b fe3e 7e3c f6be 11c0 47bf b1ef 17bf
000002e0: 586f 23bf 0f73 28bf 46aa 293b 9a62 34bf
000002f0: 9b49 0cbf b3a8 40bf 894c 65bf 3b7b 34bf
00000300: 6fa0 2dbf 13df e6be c880 07bf 019f 35bf
00000310: 504c 76be ff54 54bf baaf 07bf f312 20bf
00000320: e751 f9be 116e 25bf 8d79 0fbf 8f14 1ebf
00000330: dd70 f63d 9359 c6be b627 9fbe 0a92 c7be
00000340: c272 cbbe 0710 3fbd be25 fabe 7a15 31bf
00000350: 64af 24bf f6eb 31bf 5260 f03e dc95 1ebf
00000360: 1ecd 06bf bc76 17bf eb9f 5bbf 508b 8fbe
00000370: bdf1 efbe c303 f1be 342f afbe cea3 3fbf
00000380: c220 2bbf 3a21 24bf 65e3 e0be 735c 69bf
00000390: 9379 f0be 34fe 8cbd d0ca 26bf 9d72 c7be
000003a0: d79c 3bbf 6fac 65bd 99bc 07bf 1975 4ebf
000003b0: 856d 0fbf 5362 ecbe 315c e7be 147f 09be
000003c0: 3f5e 06bf 6465 c63f 79ed 59bf 529f 40bf
000003d0: d744 5cbf 236a c5be d2df 0bbf 462d 2dbf
000003e0: 53a5 36bf ee3b e0be eb4a f0be 8b0f 54bf
000003f0: 9706 3ebf 9290 0ebf 7978 43bf 126d cfbe
-0.449863 -0.73956555 0.17365107 -0.21436523 -0.32880005 -0.36061558 -0.36360562 -0.5509787
-0.5766531 -0.76377594 -0.50799674 -0.82027423 -0.68650424 -0.49255854 -0.8824848 -0.54882866
-0.5234512 -0.2303931 0.03224967 -0.31136078 -0.638419 -0.22671324 -0.75374705 -0.75545776
-0.098173104 -0.6174875 0.0812296 -0.6178764 -0.84001446 -0.6253799 -0.8029029 -0.94632745
-0.45870984 1.5708537 -0.5378147 -0.27655596 -0.40003556 -0.5249217 0.21944213 -0.5257426
-0.15099886 -0.73127174 -0.56578076 -0.81014496 -0.4652121 -0.36146453 -0.68835896 -0.7671147
-0.66703963 -0.43952915 -0.55331624 -0.2929511 -0.55617964 -0.38605615 -0.73480076 -0.9080545
-0.9741479 -0.7346263 -0.60298246 -0.46003976 -0.9657687 -0.6335062 -0.2959087 -0.4686197
-0.34973523 -0.29719383 -0.53281546 -0.69691104 -0.90533173 -0.3706577 -0.06714722 -0.019334855
-0.49864525 0.14827658 -0.45093375 -0.47525346 -0.69731075 -0.891887 -0.7102208 -0.557996
-0.780067 -0.523692 -0.48333266 -0.52629155 -0.8466563 -0.83506167 -0.8668475 -0.66803205
-0.5069774 -0.7937858 -0.6624153 -0.8414657 -0.39198974 -0.5538066 -0.30247664 -0.3504857
-0.66349703 -0.6270154 -0.54103076 -0.45389694 -0.4436013 -0.6501618 -0.78750414 -0.56885856
-0.3913896 -1.0546117 -0.60293025 -0.3093471 -0.84805334 -0.48669457 0.59762347 -0.74987864
-0.54377437 -0.615702 -0.6176004 -0.5572966 -0.8583694 -1.1132032 -0.64086515 -0.42394668
-0.5367912 -0.7631223 -0.7537791 -0.5719741 -0.7123133 -0.5363876 -0.31520277 -0.48443112
-0.7531558 -0.85395247 -0.5780803 -0.43970442 -0.57364255 -0.90250975 -0.3170931 -0.38990876
-0.31131092 -0.07076947 -0.53058624 -0.5129185 -0.4859756 -0.644119 -0.5178069 -0.4391516
-0.4384243 -0.5774133 -0.42817724 -0.52162504 -0.54918367 -0.66976285 -0.91618335 -0.91024834
-0.3227414 -0.7295781 -0.34787595 -0.42310613 -0.4212859 -0.75663185 -0.122159675 -0.2572235
-0.53040045 -0.48163512 -0.052887022 -0.6348635 -0.66442126 -0.115620896 -0.41169772 -0.6747758
-0.58764344 -0.42371976 -0.51090866 -0.4542271 -0.4535396 -0.89181596 -0.5713145 -0.37527332
-0.13878739 -0.5602265 -0.73630524 -0.31944755 0.49679136 -0.48093027 -0.78027445 -0.59350115
-0.6384177 -0.65800565 0.0025888844 -0.70462954 -0.54799813 -0.75257415 -0.8956991 -0.70500535
-0.6782293 -0.45092067 -0.5293088 -0.70945746 -0.24052548 -0.82942194 -0.5300251 -0.62528914
-0.486953 -0.64621073 -0.56044847 -0.6175012 0.12033246 -0.38740215 -0.31084985 -0.38978606
-0.3973599 -0.046646144 -0.4885692 -0.69173396 -0.64330125 -0.6950067 0.46948487 -0.6194742
-0.52656734 -0.5916555 -0.8579089 -0.28035975 -0.4686412 -0.47073182 -0.342157 -0.7485932
-0.6684686 -0.641132 -0.43923488 -0.9115669 -0.46967754 -0.06884423 -0.6515322 -0.3895463
-0.73286194 -0.05607265 -0.5302215 -0.80647427 -0.5602649 -0.46168765 -0.45187524 -0.13427383
-0.5248756 1.5499692 -0.8512798 -0.75243104 -0.8604254 -0.38557538 -0.546384 -0.67647207
-0.71346015 -0.43795723 -0.46932158 -0.82836217 -0.74228805 -0.55689347 -0.763557 -0.40512902

network_body._body_endoder.seq_layers.2.weight f4 [256, 256]
00000000: 7200 a5bd acad cfbd e641 873d 9f21 ac3e
00000010: bd57 ef3e e211 8bbe 5dc6 a43d cfa5 c4bd
00000020: 2be1 04be ffd7 cebe 4496 92be 6c89 fdbc
00000030: ffb0 d03e b050 3d3e f09d a8be fff7 f33d
00000040: 8e15 133e 049a b33e 3ddf dfbe f8e2 433e
00000050: 375f b13d 76af bdbe fd1a ccbe f0dc 083d
00000060: e6ef 6cbf bf40 4ebc 5d6b 4d3e 1bbd 2dbe
00000070: ca71 6c3d 47b6 bdbe 3b0d 9fbd 962b 85bc
00000080: ba12 e3bd 5051 8fbe 0eca 51be 183b 313d
00000090: 8e71 ac3e 9658 75bc 2626 c1bd c428 273f
000000a0: e430 183f f9cf 5b3c 6e46 003f 0187 f13c
000000b0: 86be 613c bd6e 5fbe 7387 073e d896 4e3e
000000c0: 18e5 d0be e454 58be 08a3 d5be de6c 07be
000000d0: a9b6 b5be c41b 8abb 3994 9abd 3d3a 243e
000000e0: 276b 85bd 1cbe f5bd 659b e63d fe72 c13d
000000f0: 0566 38bf 285d 7f3e b6d3 92be e089 e739
00000100: 1e18 e5be a646 a93e 68fe 38be 1a97 eebe
00000110: a867 aabe 6527 0abf 7bf5 783e 16bd 78be
00000120: 68a8 393e bf6e 973e 8256 26be 952d cabd
00000130: 0be3 d33e 3c60 ff3d 69d0 4fbc 7fa1 553e
00000140: 2a7a aa3d 54dd 163e 8f0d 803e 4f9c 23be
00000150: 009d 1bbd 0edc 383e 13bc 9a3d bfde 14be
00000160: 43ea 323e 413a d13e a85a ddbe d4c9 92bd
00000170: f54a 903d 0e69 333e d1de 323e d99c bd3e
00000180: 3c9a e6bd f725 093e 29fb ac3e 4548 17bf
00000190: 1ad7 7e3e 959a dabe ee1b 833d 48be d3bd
000001a0: 6965 423d d78f fb3e 1382 353e 70f9 873e
000001b0: cb5d 52bd 55c8 f53d 2ce0 1d3e dfdb ccbe
000001c0: 70d0 bb3e d05b 14bd a092 55bd 5d19 9b3e
000001d0: 8f39 86be bf6c 00bf 3636 953d b805 743e
000001e0: e642 003e 9314 d5bc 25e2 a5bc 8f1c 073e
000001f0: 2264 273c 4d65 543d af83 fe3b 5c0c 953e
00000200: 396c e33d 1534 79be 6cdc 8ebe f3d5 ea3d
00000210: 98f3 243e 25f3 3a3e 7bc4 13bd 74a2 883d
00000220: 0d4e d1bd a211 fa3d 91d9 643d dc09 603e
00000230: bcc4 4abe 234e 823e 502c 083e 2bea 17bf
00000240: 3f91 46be bdeb 533e 6094 afba 5721 a03e
00000250: 7e47 71be 9281 06be dc8b 2dbc f1e1 ad3d
00000260: 7291 debb 62ab f93c 222a c83d 5925 18bd
00000270: 3cce 70bd 92fd 9fbe fc84 a53d 3c91 0f3e
00000280: 6208 45bc 8e49 023e 0d25 663e d145 673d
00000290: f7cf a33c 5dac af3d 9290 843e cf88 bbbd
000002a0: ed5d c6be 8d97 9f3e 10a2 b4be bf97 483e
000002b0: d9c3 ecbe e7d1 19be fe03 543c e2a4 08be
000002c0: 4d2e ea3e 53d0 91be 8d2b 183f acdc 373e
000002d0: 9c4b 90be b7f4 003e 336d 56bd e5b2 d1bb
000002e0: 03af 29bf 3d6e 823c 9c38 07bf d8db 18be
000002f0: 0338 7b3e 9bd5 cf3d 9a92 18bc c3e9 2e3e
00000300: c421 343e 61bb 783e d5ef e53e 1f4d d03c
00000310: 6ec1 92bc b7d4 eb3d 950f 573d dc21 b03d
00000320: 9869 1cbd e2cb a03d 684b 19be fa71 8dbe
00000330: 37cd ef3e a9e2 4f3e 4de4 3f3e 6dd7 3f3e
00000340: 8845 eabe 33e4 bb3d 2fb8 093e 393f 973e
00000350: 02ed c7bb 71cb b8be 1a80 be3d 4c02 2abd
00000360: 21c1 9f3d 4da3 213e dd97 90be 2e98 86be
00000370: 69b7 53be 7d0a d13e a441 f43d f17c 27be
00000380: 3654 12be 53f2 073d ebf0 733e 9ec1 2cbe
00000390: 944a 983d 98d3 c43d a16e 04be edae 063f
000003a0: 2d37 523e ffbb efbd 6792 3bbe f920 d6be
000003b0: 9176 49bd 85d2 26bf 0637 11bf 4999 f4bd
000003c0: 5e72 72be e26d 013e 187c 983e 20d0 32be
000003d0: 109d f5be c904 893d 3af9 14be c305 a83d
000003e0: 1b6f 033f 761f ed3d 797d c43d d7e1 f73d
000003f0: 387a 873e 0a98 a83e 660a 9b3d 781e bc3c
-0.080567256 -0.10140547 0.06604366 0.336194 0.46746626 -0.2716208 0.08045647 -0.09601938
-0.1297652 -0.40399167 -0.2863027 -0.030949317 0.40760037 0.18487811 -0.32932997 0.11912536
0.14363691 0.35078442 -0.43725005 0.1912955 0.08660739 -0.3704793 -0.3986434 0.033413827
-0.92553556 -0.012588679 0.20060487 -0.1696667 0.057725705 -0.3705313 -0.077661954 -0.016256135
-0.11087556 -0.27991724 -0.20487234 0.043269247 0.33680385 -0.014974734 -0.09431104 0.6529658
0.594496 0.013416284 0.5010747 0.02948332 0.0137783345 -0.21819587 0.13235264 0.2017473
-0.40799785 -0.21126133 -0.41725945 -0.13225123 -0.3549092 -0.0042147357 -0.075478025 0.16037841
-0.06514578 -0.11999151 0.11260108 0.09445761 -0.7203067 0.2493788 -0.28677148 0.00044162478
-0.44744962 0.33061713 -0.18065798 -0.46599656 -0.33282208 -0.5396636 0.24312393 -0.2429088
0.18130648 0.2957668 -0.16243938 -0.09871975 0.41384158 0.12469527 -0.012683966 0.20862387
0.08324082 0.14732867 0.25010344 -0.15977596 -0.037991524 0.18052694 0.075554036 -0.14538096
0.17472176 0.40864757 -0.43233228 -0.07167402 0.07045547 0.17520544 0.1746781 0.37033728
-0.112598866 0.13393389 0.3378537 -0.5909465 0.24886742 -0.42696062 0.064018115 -0.10339028
0.047459994 0.4913318 0.177254 0.26557493 -0.05135898 0.12001101 0.15417546 -0.40011498
0.36682463 -0.03622037 -0.052141786 0.30292788 -0.2621579 -0.50165933 0.072857305 0.23830307
0.1252552 -0.026010787 -0.020249436 0.13194488 0.010216745 0.05185442 0.0077671628 0.29110992
0.11104626 -0.24336274 -0.27902544 0.11466589 0.16108549 0.18256815 -0.03607605 0.066716105
-0.10219965 0.122103944 0.05587155 0.21878761 -0.1980161 0.2545024 0.13298154 -0.59341687
-0.19391344 0.20695396 -0.001339566 0.31275436 -0.23562428 -0.13135365 -0.010592427 0.084903605
-0.006792241 0.03047723 0.09773661 -0.037144993 -0.05879043 -0.31248146 0.080820054 0.14020246
-0.012025924 0.12723371 0.22475071 0.056463066 0.019996626 0.085777976 0.25891548 -0.091569535
-0.38743535 0.31170312 -0.35279894 0.19589137 -0.4624317 -0.15021478 0.012940405 -0.13344148
0.4573845 -0.2847925 0.59441453 0.17955273 -0.28182685 0.12593351 -0.052350234 -0.0063994997
-0.6628267 0.015921706 -0.52820754 -0.14927614 0.24533086 0.10148164 -0.009312296 0.1708136
0.17591006 0.2429023 0.4490954 0.0254274 -0.0179145 0.115151815 0.052505095 0.08600208
-0.03818664 0.078513876 -0.14970171 -0.2762602 0.46836254 0.20301308 0.18739434 0.18734522
-0.45756173 0.09174385 0.13449167 0.29540423 -0.0061012516 -0.36092713 0.09301777 -0.041506097
0.07800508 0.1578495 -0.28240862 -0.2628798 -0.20675434 0.40828314 0.119265825 -0.16356255
-0.14289936 0.033190083 0.23822372 -0.16870734 0.074361 0.09610671 -0.12932827 0.52610666
0.2052886 -0.11705779 -0.18317567 -0.4182203 -0.04918534 -0.6516498 -0.56724584 -0.11943299
-0.2367644 0.12639573 0.29782176 -0.17462206 -0.47971392 0.06690366 -0.14548197 0.08204224
0.5134141 0.11578266 0.095942445 0.121036224 0.26460433 0.32928497 0.07570343 0.022963747
